trained_models/HalfCheetahNormal-v3/sac/actor_2.pt (torch, 296896 bytes, 8 tensors)

shared.0.weight f4 [256, 17]
4.9044213 3.1271305 1.5624727 0.8702771 0.059345223 0.056498326 -0.10714018 0.035354618
0.0016249351 0.35202554 0.18285221 0.042224094 0.038246766 -0.0031214012 0.006501859 0.0041434313
0.0038350057 3.9795558 0.85435474 0.6340438 1.8626921 0.34620777 -0.4600433 -0.5491108
-0.19201633 -0.07951286 1.1429054 -0.09829753 0.058065783 0.07672751 0.058493827 0.046556536
-0.006816571 0.0029071092 0.70750636 1.8751296 0.07640145 0.16214575 0.13548762 -0.36696497
0.28777418 -0.07195319 0.11979783 -0.20589015 0.28014416 0.009019875 -0.0061744335 0.0022164832
0.041367963 0.010722607 0.002580939 -6.0542974 -3.593569 -1.1276308 -0.2424559 0.085910395
0.0110593755 0.049467266 0.09770665 -0.013035838 -0.3629977 -0.098067045 0.057846505 0.0011312128
0.011352929 -0.020570412 -0.0069767195 -0.00038554668 2.5118177 1.2514826 1.9585975 0.16549496
0.103845365 -0.11677264 -0.26959184 0.014648959 -0.0097487215 0.50663394 0.32972127 0.094060965
0.069468416 0.0119064255 0.012422291 0.0051626023 0.0031483725 1.1921095 -0.689877 0.89818627
1.3111631 0.5833621 -1.479495 -0.5015567 -0.5014276 -0.09996186 0.06043432 0.019991554
-0.0019653544 0.11015774 0.05864807 -0.07868194 -0.048394572 -0.04755592 6.1039805 -0.2053986
-0.19105154 -0.25240964 -0.08648751 1.9214516 0.961288 0.45219398 -0.016150309 0.16039868
-0.02317465 -0.006080856 -0.013415759 0.011722055 0.03159046 0.008634617 0.006877066 0.6451518
0.9983332 -0.18698509 -0.18325289 0.14855407 -0.82625604 -0.7789819 0.43382016 -0.56088555
-0.5560866 0.2589422 -0.05304591 -0.12800354 0.06062601 0.07851373 0.09628042 0.0135719
-6.511661 -4.532318 -0.6530479 -1.0500879 -0.09798791 -0.05457979 -0.0077500287 0.077671245
0.020489559 -0.1387017 -0.15733168 -0.047825802 -0.038416926 0.004057862 -0.0042147487 -0.0009230032
-0.00034283957 3.1261036 -0.9673013 -1.5987651 0.08855027 0.20936722 -0.80727434 -0.024210583
0.04310605 -0.11999912 0.8843228 -0.30840346 0.059242677 -0.009243024 0.016547356 0.043267787
-0.017605856 0.0018597059 5.119424 -3.6471016 -0.7901054 -0.22518277 -0.41939595 0.015054876
-0.1987517 0.025435828 -0.014346358 0.7500467 -0.44147575 -0.040503692 -0.024099618 -0.010542453
-0.06064 -0.048738554 -0.009648027 3.9516296 0.64279556 0.2135749 0.13048618 0.49949554
1.1705012 0.30591002 0.23511006 -0.21838059 0.6138524 -0.23119834 0.008371322 -0.031078631
0.017730247 -0.16438837 -0.02794668 -0.00051762105 -8.108497 1.6061128 0.61372393 -0.18233946
0.22574234 -1.1109555 -0.5082834 -0.3886829 -0.08056941 -0.38708335 0.09609779 -0.02293865
-0.034251124 0.008591379 -0.013100564 0.022052342 -4.411345e-05 1.6683073 2.0367494 0.5698844
0.77206343 0.7909209 -0.14928395 0.7514401 0.4718312 -0.06174043 -0.39571047 -0.13146701
0.049384244 0.055375457 0.03760397 -0.02540898 -0.033342358 -0.010981072 -2.2581584 0.61809194
1.329465 0.21460775 0.22267194 1.1768029 0.04704251 -0.059541326 -1.0674258 -0.21095991
-0.0382325 0.07603968 -0.024750948 -0.019844512 0.1746109 0.023531983 -0.017922152 -0.29484493
00000000: 05f1 9c40 e822 4840 1bff c73f 7bca 5e3f
00000010: fa13 733d ca6a 673d 506c dbbd 01d0 103d
00000020: c6fb d43a b13c b43e 9c3d 3b3e 2cf3 2c3d
00000030: a4a8 1c3d 6c90 4cbb 8c0d d53b 9fc5 873b
00000040: b854 7b3b 0bb1 7e40 feb6 5a3f b250 223f
00000050: b26c ee3f 2542 b13e cc8a ebbe 8692 0cbf
00000060: ee9f 44be a3d7 a2bd b94a 923f 3750 c9bd
00000070: 63d6 6d3d 5023 9d3d 3997 6f3d 11b2 3e3d
00000080: 8b5d dfbb 3385 3e3b 231f 353f 3f04 f03f
00000090: 5d78 9c3d 8909 263e 44bd 0a3e d5e2 bbbe
000000a0: 2357 933e 325c 93bd 9158 f53d ded4 52be
000000b0: 0e6f 8f3e 19c8 133c e752 cabb 6b42 113b
000000c0: 7471 293d e0ad 2f3c f924 293b cebc c1c0
000000d0: 09fd 65c0 3556 90bf 5c46 78be caf1 af3d
000000e0: 6232 353c 309e 4a3d 6d1a c83d 4494 55bc
000000f0: d6da b9be 60d7 c8bd 75f0 6c3d 3445 943a
00000100: a301 3a3c 4883 a8bc f79c e4bb 3323 cab9
00000110: 9fc1 2040 9530 a03f 53b3 fa3f 8377 293e
00000120: e1ac d43d 7e26 efbd f107 8abe 3002 703c
00000130: 1ab9 1fbc c3b2 013f 3ad1 a83e 09a3 c03d
00000140: 7545 8e3d 2b13 433c dd86 4b3c 0c2b a93b
00000150: ed54 4e3b 0b97 983f c79b 30bf 89ef 653f
00000160: 31d4 a73f 3857 153f 1860 bdbf 0566 00bf
00000170: 8f5d 00bf ceb8 ccbd fa89 773d 54c5 a33c
00000180: 2dcd 00bb 629a e13d f538 703d ff23 a1bd
00000190: 6339 46bd ffc9 42bd cf53 c340 0354 52be
000001a0: 04a3 43be d63b 81be 5d20 b1bd 20f2 f53f
000001b0: f816 763f f885 e73e a74d 84bc 8d3f 243e
000001c0: c3d8 bdbc eb41 c7bb c6cd 5bbc dd0d 403c
000001d0: 0065 013d 3578 0d3c 0359 e13b ab28 253f
000001e0: c492 7f3f 0579 3fbe a5a6 3bbe 8f1e 183e
000001f0: 8485 53bf 5c6b 47bf ad1d de3e 3296 0fbf
00000200: b15b 0ebf 1294 843e ab46 59bd 5c13 03be
00000210: fb52 783d cecb a03d ab2e c53d ad5c 5e3c
00000220: 875f d0c0 c008 91c0 262e 27bf 4869 86bf
00000230: e3ad c8bd 0f8f 5fbd f4f3 fdbb 1a12 9f3d
00000240: b8d9 a73c d207 0ebe 8e1b 21be fde4 43bd
00000250: 115b 1dbd d0f7 843b e01b 8abb b2f5 71ba
00000260: 26bf b3b9 1512 4840 0fa1 77bf 56a4 ccbf
00000270: d859 b53d 5c64 563e 88a9 4ebf 4655 c6bc
00000280: f88f 303d 19c2 f5bd fb62 623f 0fe7 9dbe
00000290: 73a8 723d 0d70 17bc 528e 873c 9039 313d
000002a0: 283a 90bc 60c1 f33a 52d2 a340 1d6a 69c0
000002b0: 5944 4abf 5096 66be 11bb d6be baa8 763c
000002c0: 9185 4bbe cc5e d03c fd0c 6bbc 0f03 403f
000002d0: 1c09 e2be 33e7 25bd 906c c5bc 41ba 2cbc
000002e0: a661 78bd 14a2 47bd c212 1ebc 80e7 7c40
000002f0: 408e 243f 61b3 5a3e 2b9e 053e e1bd ff3e
00000300: fcd2 953f 3da0 9c3e b1c0 703e 299f 5fbe
00000310: 6e25 1d3f 42bf 6cbe df27 093c 9d98 febc
00000320: 063f 913c 6d55 28be 70f0 e4bc f6b0 07ba
00000330: 67bc 01c1 1b95 cd3f 031d 1d3f 32b7 3abe
00000340: 0029 673e ca33 8ebf dc1e 02bf 7201 c7be
00000350: 9301 a5bd ca2f c6be ebce c43d d6e9 bbbc
00000360: e84a 0cbd dbc2 0c3c bfa3 56bc 1da7 b43c
00000370: 7506 39b8 188b d53f 1a5a 0240 f2e3 113f
00000380: f3a5 453f cb79 4a3f e4dd 18be 615e 403f
00000390: dc93 f13e 88e3 7cbd 909a cabe 4a9f 06be
000003a0: 2247 4a3d 60d1 623d 9f06 1a3d 7e26 d0bc
000003b0: ff91 08bd f4e9 33bc ab85 10c0 463b 1e3f
000003c0: e92b aa3f 22c2 5b3e 1d04 643e 7aa1 963f
000003d0: a6af 403d 9be1 73bd 69a1 88bf e005 58be
000003e0: af99 1cbd b1ba 9b3d 80c2 cabc f590 a2bc
000003f0: 33cd 323e 25c6 c03c 7ad1 92bc eaf5 96be

shared.0.bias f4 [256]
-0.28077644 -1.5721223 -1.9496236 -0.48441553 -2.2034678 -1.846849 -0.8892875 -1.0394602
-0.6952796 -0.15094775 -0.12862967 -0.88656706 -0.34099615 -1.0249218 -0.47113085 -0.6973996
-1.5286223 -0.84018135 0.52215064 -1.0016608 -1.5167048 -0.25274703 0.22880118 0.03297221
-1.6615162 -1.0639333 -0.9011141 -0.3312969 -1.1300061 -1.6457705 -1.8966424 -1.4423419
-1.8759027 -0.78796357 -0.92925096 -0.13369867 -1.2252088 -1.6418487 -0.856109 -0.48919243
-1.206333 -1.022044 -0.1801378 0.15034723 -1.1393936 -1.5420716 -0.79052836 -0.72208595
-1.8536016 -1.4569383 -0.9133415 -0.80414635 -1.1991537 0.008362735 -1.603331 0.092333525
-0.48775023 -0.1641633 -0.5446388 -0.03214438 -0.64641994 -0.7318892 -0.49623486 0.44354495
-0.7804918 -0.9463281 -1.547944 -1.8597776 -0.87011033 -0.5872686 -2.1050546 -0.774873
-0.72801816 -2.079551 -0.68429863 -1.5474714 -0.6271616 0.046313755 -1.7622488 -0.55677444
-1.6376799 -0.605822 -0.76972693 -0.45795202 -0.83296293 0.6615383 -1.6061333 -0.40346915
-1.4666413 -0.71004677 -1.0137241 -1.8265158 -1.5543144 -0.5488801 -0.9642813 -0.79709494
-1.5268553 -1.8320503 -1.48993 -1.419278 -1.5916376 -1.1188673 -1.8370352 -1.5720414
-1.1495844 0.44662714 -1.1217277 -0.9534363 -0.5118234 -1.1699247 -1.1079855 -0.10800644
1.0383358 -1.8641618 0.31011674 -1.6729794 -1.6330653 -1.4505905 -0.5761408 -1.9786228
0.12896231 -1.176175 -0.60247254 -0.04990568 -0.8646371 -1.3145005 -1.5252033 -1.2568793
-0.29052132 -2.0479627 -1.060977 -1.8833381 -0.5985196 -0.6482463 -1.3663555 -1.7590053
0.049159452 -1.8351758 0.07613497 -1.497076 -0.4784261 -2.0408952 0.22032017 -0.11115219
-0.8360826 -0.41343892 -0.92923945 -1.8724823 -0.4690704 -1.5069228 -0.22388743 -0.4281086
-1.8019078 -1.8381767 -0.8004092 -0.9967739 -1.4881344 -0.9797177 -1.2099757 -1.4930319
-0.44240654 0.38675985 -1.7785945 -1.6933382 -1.6412891 -1.6486995 -1.3247877 -0.21992645
-1.5487142 -0.39199984 -1.5373706 -1.0619912 -0.43628162 -0.52441716 -0.40263307 -0.33894652
-1.2607673 -0.26560703 -0.5993825 -1.658532 -2.0233207 0.43607375 -1.6055106 0.4575053
-1.7044072 0.48631448 -0.868589 -1.2387235 -1.3574415 -1.9006305 -1.2617815 -1.1999459
-0.036312215 -1.586924 -0.92566425 -0.22608933 -0.53366953 -1.2907703 -0.97776645 -0.64162457
-0.99116296 -2.1125078 0.012835693 -0.23869279 -1.5994109 -0.86511564 -1.9653361 -0.9100167
-0.82008135 -0.84718937 0.04760497 -1.1136867 -1.3467027 -0.9068086 -1.284722 -2.1072578
-1.7757919 -0.80797046 -1.354902 -1.0282856 0.1079633 -0.93474627 -1.2625636 -0.28073746
-1.0830519 -1.088729 0.6887935 -0.7168602 -0.51153034 0.16146243 0.43859223 -0.5718815
-1.0065082 -1.5216931 -1.9572212 -1.268843 -0.15731579 -0.7818063 -1.6361626 -1.0716338
0.12648715 -0.33568498 -1.169545 0.18233891 -1.7116364 -1.7573149 -1.6435286 -1.1193062
-0.37365764 -0.8342835 -0.5279665 -1.1736648 -1.5294882 -0.31851092 -1.3868909 -1.2075157
00000000: eec1 8fbe 4e3b c9bf 448d f9bf 5005 f8be
00000010: 9e05 0dc0 8c65 ecbf 58a8 63bf 080d 85bf
00000020: d8fd 31bf 0c92 1abe 7fb7 03be 0ff6 62bf
00000030: 0c97 aebe a330 83bf 1038 f1be c888 32bf
00000040: e5a9 c3bf 2016 57bf aaab 053f 6c36 80bf
00000050: 6223 c2bf 0f68 81be db4a 6a3e de0d 073d
00000060: 90ac d4bf f72e 88bf 6aaf 66bf bf9f a9be
00000070: 0aa4 90bf 9ca8 d2bf 2ec5 f2bf a99e b8bf
00000080: 941d f0bf fbb7 49bf 64e3 6dbf 4ee8 08be
00000090: a4d3 9cbf 1928 d2bf f629 5bbf 6e77 fabe
000000a0: 1f69 9abf 56d2 82bf 0b76 38be a0f4 193e
000000b0: a6d7 91bf 9a62 c5bf 1160 4abf a0da 38bf
000000c0: d142 edbf f47c babf c0d0 69bf 89dc 4dbf
000000d0: de7d 99bf da03 093c f339 cdbf 5c19 bd3d
000000e0: 66ba f9be 6d1a 28be 736d 0bbf d3a9 03bd
000000f0: c77b 25bf 175d 3bbf 7f12 febe 5318 e33e
00000100: 50ce 47bf 8f42 72bf 0723 c6bf 310d eebf
00000110: 8dbf 5ebf 3c57 16bf 37b9 06c0 145e 46bf
00000120: 665f 3abf 5d17 05c0 322e 2fbf 8b13 c6bf
00000130: aa8d 20bf 7eb3 3d3d 5e91 e1bf c588 0ebf
00000140: 7f9f d1bf 2717 1bbf d30c 45bf b078 eabe
00000150: 0f3d 55bf 935a 293f c795 cdbf 8293 cebe
00000160: e7ba bbbf a0c5 35bf b6c1 81bf 45cb e9bf
00000170: c6f3 c6bf 6883 0cbf 24db 76bf 6a0e 4cbf
00000180: ff6f c3bf a080 eabf 07b6 bebf e7aa b5bf
00000190: c8ba cbbf 0b37 8fbf f823 ebbf a738 c9bf
000001a0: 9525 93bf 50ac e43e c694 8fbf 6714 74bf
000001b0: dc06 03bf 18c0 95bf 78d2 8dbf 7b32 ddbd
000001c0: 30e8 843f db9c eebf 9fc7 9e3e 3024 d6bf
000001d0: 4908 d1bf f3ac b9bf f77d 13bf 8343 fdbf
000001e0: b20e 043e e78c 96bf a43b 1abf e669 4cbd
000001f0: db58 5dbf 8d41 a8bf dd39 c3bf 6ce1 a0bf
00000200: 36bf 94be d211 03c0 18ce 87bf 3911 f1bf
00000210: 9538 19bf 78f3 25bf bde4 aebf 1627 e1bf
00000220: 6c5b 493d 0ae7 eabf a7ec 9b3d 30a0 bfbf
00000230: 44f4 f4be 079e 02c0 9c9b 613e c2a3 e3bd
00000240: 8209 56bf 44ae d3be a3e2 6dbf 80ad efbf
00000250: ff29 f0be d9e2 c0bf bf42 65be 0d31 dbbe
00000260: eaa4 e6bf 6049 ebbf 9ee7 4cbf 932c 7fbf
00000270: 307b bebf c7ce 7abf 7ce0 9abf ab1b bfbf
00000280: 1c83 e2be 6305 c63e fca8 e3bf 4ebf d8bf
00000290: c315 d2bf 9608 d3bf a592 a9bf 6634 61be
000002a0: 443c c6bf 34b4 c8be 8fc8 c4bf 54ef 87bf
000002b0: 4e60 dfbe 3440 06bf ec25 cebe 668a adbe
000002c0: d360 a1bf a5fd 87be 2271 19bf c74a d4bf
000002d0: 167e 01c0 0f45 df3e 5f81 cdbf 223e ea3e
000002e0: 042a dabf 36fe f83e d95b 5ebf 7e8e 9ebf
000002f0: a5c0 adbf dc47 f3bf 0e82 a1bf d497 99bf
00000300: 1ebc 14bd 5320 cbbf 55f8 6cbf f683 67be
00000310: 919e 08bf f637 a5bf e74e 7abf 8241 24bf
00000320: dbbc 7dbf 5433 07c0 cc4c 523c e26b 74be
00000330: 7fb9 ccbf 3878 5dbf 2290 fbbf dbf6 68bf
00000340: daf0 51bf 67e1 58bf 6efd 423d 498d 8ebf
00000350: c160 acbf 9c24 68bf c571 a4bf 50dd 06c0
00000360: 264d e3bf 27d7 4ebf 6e6d adbf dd9e 83bf
00000370: dd1b dd3d 884b 6fbf af9b a1bf d2bc 8fbe
00000380: 72a1 8abf 795b 8bbf c554 303f 2684 37bf
00000390: a7f3 02bf 6856 253e 298f e03e d366 12bf
000003a0: 43d5 80bf d7c6 c2bf 3986 fabf 7369 a2bf
000003b0: 6417 21be 7524 48bf c76d d1bf 4c2b 89bf
000003c0: d985 013e e7de abbe a7b3 95bf 0db7 3a3e
000003d0: e716 dbbf b2ef e0bf 255f d2bf 6d45 8fbf
000003e0: 0e50 bfbe 9a93 55bf d028 07bf a63a 96bf
000003f0: 45c6 c3bf dd13 a3be a485 b1bf e08f 9abf

shared.3.weight f4 [256, 256]
-0.023451542 -0.4620157 -0.0071301777 0.021697234 -0.27937183 0.14333978 -0.044630285 -0.07251125
0.0143598085 0.022994144 0.036131598 0.22824346 -0.10141873 0.015177423 0.21313041 0.1985279
0.25088227 0.3979979 -0.038590394 -0.027860338 -0.115365535 0.041966382 0.19682197 -1.0606455
0.052610528 -0.24949555 0.015135442 0.04724146 -0.02955596 -0.027320743 -0.17417993 -0.3364213
0.024044158 -0.53250045 0.0075194663 -0.021919554 0.1171708 0.030935967 -0.02393823 0.07028512
0.05387665 0.0034125862 0.037676852 0.1664515 -0.2562033 0.12987527 0.006759962 0.008048781
0.2716873 0.038730707 -0.3537512 0.0009903326 -0.09505074 -0.26413167 -0.12881464 -0.06532567
-0.009091713 -0.06758107 0.09803004 0.0463122 0.24624875 -0.02654295 0.24321659 -0.31805092
-0.01107891 0.18799311 0.008527406 -0.1495795 -0.37005883 0.0024315983 0.03952086 0.25235626
-0.08688898 -0.15765695 -1.8227692 -0.58889896 0.08844326 -0.019176539 -0.72398627 -0.023506114
-0.24948223 -0.32954806 0.07084871 0.2724059 -0.3100876 -0.111171916 -0.41824943 -0.13176633
0.09171071 0.17536886 -0.044049393 -0.17553881 -0.4086021 0.29906484 -0.11647272 0.084876806
0.11277503 -0.87117887 -0.3655819 0.16227643 0.071822464 -0.06795985 -0.039678104 0.23540859
0.005454118 0.0073323846 -0.5563359 0.12708026 -0.31783977 -0.15756023 -0.44831768 -0.08256043
-0.17025878 -0.12436352 -0.040363148 0.015864938 -0.55618966 -0.032267842 -0.026046833 0.012661293
0.4264016 -0.4032552 0.031449404 0.22821815 -0.0083102025 -2.6425738 -0.07114919 0.09407483
0.09892377 -3.114207 -0.09682497 -0.28943425 0.36484277 -0.037424054 -0.26645717 0.23120119
-0.17538112 -2.0166526 -0.013309779 0.09142447 -0.15811928 -0.76306146 0.1168422 -0.024462068
-0.03825034 -0.06600082 0.21927619 -0.20277274 0.08200585 -0.16906601 0.17978665 0.038668536
0.07879654 -0.025165588 -0.024067657 0.16393258 -0.23861904 -0.2933275 -0.09976902 0.72346705
0.01813042 0.04655777 -0.118556 -0.047301773 0.07251143 -0.28103524 0.05743109 -0.022111334
-0.044604983 -0.1272155 0.38095722 -0.4013923 -0.019074572 -0.02988607 0.12472149 -0.17876643
-0.4128967 0.23465477 0.14525926 0.017129613 0.015641814 -0.09952209 -0.63777244 0.15800565
0.54133415 -0.088476546 -0.048574045 0.1372109 0.2720266 -0.5723019 0.06603765 0.022262858
-0.2923025 -1.8396889 0.07784079 -0.22836152 0.0013767704 -0.09050655 0.025256282 0.057404682
-0.0029879976 0.20878522 -0.11001485 -0.14280693 -0.0055129784 0.05717081 -0.34203747 -0.0019376016
0.108823024 0.29461002 -0.18804856 -0.48346716 0.0085544055 -0.08172782 0.20779033 -0.35104737
-0.0365115 0.038392443 -0.11595722 0.06007814 0.0561008 0.097308025 -0.12102667 0.13422951
0.05620528 -0.08038317 -0.25583324 -0.49296543 -0.06921966 -0.12292574 -0.054177348 -0.21108457
-0.07440282 -0.13426584 0.07060158 -0.07637481 0.074855365 -0.07934176 0.14476508 0.21948181
0.4354923 -0.06849234 -0.2638021 0.267231 0.2491926 -0.2711105 -0.4210309 -0.38256228
0.16622491 -0.015315422 0.032332063 -0.055454478 0.010686344 -0.008077534 -3.0259726 -0.35172594
00000000: 731d c0bc 528d ecbe 44a4 e9bb 66be b13c
00000010: d309 8fbe aac7 123e 3fce 36bd c780 94bd
00000020: 6745 6b3c 375e bc3c bafe 133d a7b8 693e
00000030: a0b4 cfbd baaa 783c dc3e 5a3e e64a 4b3e
00000040: a473 803e 61c6 cb3e f610 1ebd 5d3b e4bc
00000050: c444 ecbd f1e4 2b3d b38b 493e 3bc3 87bf
00000060: 237e 573d c37b 7fbe a5fa 773c 4380 413d
00000070: 571f f2bc c0cf dfbc 395c 32be 6a3f acbe
00000080: 41f8 c43c f351 08bf db65 f63b a390 b3bc
00000090: 3ff7 ef3d 6d6d fd3c 1b1a c4bc a5f1 8f3d
000000a0: c3ad 5c3d b2a5 5f3b 0b53 1a3d 4372 2a3e
000000b0: 142d 83be 06fe 043e ac82 dd3b 09df 033c
000000c0: 991a 8b3e 17a4 1e3d e11e b5be 0cce 813a
000000d0: f6a9 c2bd 443c 87be fce7 03be 77c9 85bd
000000e0: 68f5 14bc f267 8abd f9c3 c83d ddb1 3d3d
000000f0: a228 7c3e 9a70 d9bc c50d 793e 92d7 a2be
00000100: 5184 35bc 4481 403e 88b6 0b3c 5e2b 19be
00000110: 5a78 bdbe 735b 1f3b a0e0 213d d734 813e
00000120: d9f2 b1bd d370 21be 8050 e9bf 15c2 16bf
00000130: bd21 b53d 1e18 9dbc 2a57 39bf e58f c0bc
00000140: 4578 7fbe 86ba a8be 2119 913d c978 8b3e
00000150: cdc3 9ebe 1aae e3bd ca24 d6be c1ed 06be
00000160: d3d2 bb3d e593 333e 236d 34bd 72c0 33be
00000170: 4b34 d1be 071f 993e 4089 eebd e4d3 ad3d
00000180: 98f6 e63d 9405 5fbf 8d2d bbbe cb2b 263e
00000190: a817 933d 892e 8bbd 8285 22bd f30e 713e
000001a0: 75b8 b23b 8044 f03b 086c 0ebf 5421 023e
000001b0: e5bb a2be 7857 21be e589 e5be 7115 a9bd
000001c0: 5158 2ebe 4db2 febd d453 25bd 30f7 813c
000001d0: 7262 0ebf 492b 04bd 2b60 d5bc 5071 4f3c
000001e0: 4f51 da3e 7777 cebe 17d1 003d 05b2 693e
000001f0: 8427 08bc ee1f 29c0 abb6 91bd 4eaa c03d
00000200: 8c98 ca3d 2b4f 47c0 2b4c c6bd ba30 94be
00000210: accc ba3e f749 19bd 136d 88be 01c0 6c3e
00000220: 1c97 33be d610 01c0 4211 5abc c13c bb3d
00000230: 05ea 21be ff57 43bf f74a ef3d ad64 c8bc
00000240: 63ac 1cbd 702b 87bd f089 603e a8a3 4fbe
00000250: aff2 a73d a41f 2dbe fe19 383e e662 1e3d
00000260: 1560 a13d 1028 cebc 8929 c5bc f1dd 273e
00000270: 8d58 74be 062f 96be b353 ccbd 2335 393f
00000280: 3f86 943c 5cb3 3e3d 7dcd f2bd 81bf 41bd
00000290: df80 943d dae3 8fbe dd3c 6b3d d422 b5bc
000002a0: b7b3 36bd c844 02be d30c c33e 4b83 cdbe
000002b0: 4742 9cbc a2d3 f4bc fb6d ff3d 8c0e 37be
000002c0: 3267 d3be 5749 703e d8be 143e 6753 8c3c
000002d0: 4323 803c 3dd2 cbbd 0e45 23bf 3ccc 213e
000002e0: e094 0a3f 3133 b5bd 94f5 46bd 0481 0c3e
000002f0: 1247 8b3e 6182 12bf bf3e 873d 9960 b63c
00000300: aca8 95be ed7a ebbf fe6a 9f3d 9ad7 69be
00000310: c074 b43a 805b b9bd 43e6 ce3c 2c21 6b3d
00000320: 48d2 43bb cbcb 553e 774f e1bd fb3b 12be
00000330: 37a6 b4bb f02b 6a3d 891f afbe 1ff7 fdba
00000340: 9bde de3d 20d7 963e cd8f 40be 0289 f7be
00000350: c727 0c3c ea60 a7bd fdc6 543e 7bbc b3be
00000360: 158d 15bd 6541 1d3d fb7a edbd 7f14 763d
00000370: f4c9 653d 6e49 c73d d5dc f7bd 7673 093e
00000380: 8237 663d ee9f a4bd 93fc 82be f765 fcbe
00000390: 09c3 8dbd 7ec0 fbbd 11e9 5dbd 8e26 58be
000003a0: 8160 98bd fc7c 09be 9097 903d 656a 9cbd
000003b0: c54d 993d ef7d a2bd 4c3d 143e d7bf 603e
000003c0: d9f8 de3e b645 8cbd 1211 87be 80d2 883e
000003d0: 582c 7f3e ffce 8abe 5d91 d7be 34df c3be
000003e0: dd36 2a3e 89ed 7abc a06e 043d 3c24 63bd
000003f0: c615 2f3c a257 04bc 89a9 41c0 6c15 b4be

shared.3.bias f4 [256]
0.8600978 0.26359627 0.46534204 -0.08587026 0.8120385 0.97817194 0.49401847 -0.11917886
0.33361033 -0.5795486 0.65872747 0.03957759 0.6897804 -0.10596302 0.82618195 -0.44272587
0.6911016 -0.36788726 1.3171141 0.46487275 0.5646777 0.71262115 0.47251353 -0.7557611
-1.3712133 0.22632858 -1.3977975 0.67262495 0.54313534 0.48097998 0.78628707 -0.0015195119
1.1573386 0.5283627 0.6706508 0.82332504 0.1939612 0.58244413 0.015269432 -0.9406699
0.49238738 0.21755873 0.37132034 0.69046843 0.89298785 -0.03360224 0.32477683 0.67295164
1.0541353 -0.19237821 0.5287665 -0.3772036 0.38113993 0.7775831 0.024080336 0.7622916
0.40142077 0.27347496 0.24130587 0.8093101 0.9781959 -0.009930377 -0.175879 -0.329394
0.53622216 -0.5734232 0.32238734 0.34216115 1.0343192 0.48998126 0.68426526 0.6750122
1.0172625 -0.8819754 1.0127201 -0.21033135 0.45186728 0.6818582 0.7460325 0.6390045
0.37036783 0.22198622 -0.56375515 0.5027587 0.3111747 0.5676183 0.6480317 0.27649906
0.7030099 0.57426995 0.66904426 -0.002530252 0.7327715 0.6638274 0.28205886 0.620716
0.22523773 -0.0570853 0.5112301 0.42679602 0.5032086 -0.48024416 0.5579201 0.3990487
-0.5454387 0.5110895 0.34983978 0.41616508 0.22886164 0.27686536 1.1577055 0.48851433
0.0059585273 0.2849475 0.66668487 0.17041601 -0.71820116 0.46578994 -0.1040369 0.5454835
-1.1033779 0.5088122 -0.70880175 0.67673606 0.8952353 0.41244313 -0.111024365 0.7149763
-0.07851893 0.83707994 0.78857493 0.7157984 -0.18116939 1.0054553 -0.86481863 0.8960959
0.44654217 0.7588817 1.037802 -0.0023620662 -0.72706574 0.67117834 -1.3208994 0.46050376
-0.057892658 0.14801152 0.7663123 0.62656885 0.28734702 -0.05890446 0.52327573 -0.1573736
0.47410724 0.89448833 0.24304295 -0.006704338 0.8522867 0.71856135 0.4264024 -0.13461068
0.553855 -0.77821666 -0.6843146 0.047359183 0.65529305 -0.019579796 -0.07847276 -0.27193502
0.71038765 0.42313617 0.21315907 0.49216464 0.7390274 0.51254606 -1.6009452 1.079498
0.14326657 0.6742564 -0.07371455 0.13083062 0.13821137 -0.35221553 -1.5492464 -0.15175585
0.05635822 0.6364579 -0.00025703435 -0.30379608 0.15096669 -0.09953741 -0.050854094 0.30511364
0.11380871 0.38983136 0.27393836 -0.0656742 0.38140264 0.7510878 0.87509024 -0.12229697
0.46619025 0.9363592 -0.034795493 0.26268438 -0.72952664 0.35999498 0.55996764 -0.10688115
0.6200196 -0.024749162 -1.6416761 0.14328675 0.9999866 0.92032206 -0.5717252 -0.8795229
0.18869333 0.1765833 1.391059 -0.42772895 -0.4190532 0.62341726 0.15178211 0.24200132
-0.3691475 0.59999895 -1.3445485 -0.2501887 -1.2809778 0.23762202 0.97462386 -0.83251226
0.81387264 -0.25066736 -0.041314892 0.82326144 0.05285841 0.72572935 0.51531744 -0.11448642
-0.38541928 0.1598019 0.59423894 0.8661476 0.53597593 -0.09133692 0.7420363 -1.2051542
0.30271044 0.1992134 0.61870193 0.61886114 0.1830401 -1.170465 -0.0028439318 -0.6030809
00000000: 5f2f 5c3f 17f6 863e 5041 ee3e bfdc afbd
00000010: c1e1 4f3f 7a69 7a3f fdef fc3e 0c14 f4bd
00000020: f9ce aa3e 4c5d 14bf 5da2 283f 1c1c 223d
00000030: 7395 303f 2403 d9bd a980 533f f7ac e2be
00000040: 09ec 303f b85b bcbe 3297 a83f cd03 ee3e
00000050: b88e 103f 576e 363f 4bed f13e 8f79 41bf
00000060: eb83 afbf aec2 673e 07eb b2bf 2631 2c3f
00000070: eb0a 0b3f 0243 f63e 1c4a 493f 5c2a c7ba
00000080: ac23 943f c742 073f c5af 2b3f 6ec5 523f
00000090: c49d 463e 0f1b 153f a42c 7a3c becf 70bf
000000a0: 331a fc3e b7c7 5e3e b31d be3e 8ac2 303f
000000b0: da9a 643f 81a2 09bd 2649 a63e 8f46 2c3f
000000c0: e8ed 863f cbfe 44be 3e5d 073f d520 c1be
000000d0: c624 c33e b00f 473f 2044 c53c 8b25 433f
000000e0: 0687 cd3e e904 8c3e e318 773e f22e 4f3f
000000f0: 0c6b 7a3f 05b3 22bc a019 34be 55a6 a8be
00000100: db45 093f ddcb 12bf f40f a53e bf2f af3e
00000110: 9264 843f d3de fa3e 022c 2f3f 99cd 2c3f
00000120: a835 823f 24c9 61bf d0a0 813f 1a61 57be
00000130: 265b e73e 428e 2e3f fcfb 3e3f cd95 233f
00000140: daa0 bd3e 5b50 633e 4252 10bf cbb4 003f
00000150: 4a52 9f3e 6f4f 113f 68e5 253f 4991 8d3e
00000160: 75f8 333f 5b03 133f 7c46 2b3f 96d2 25bb
00000170: ea96 3b3f 98f0 293f 056a 903e 3ee7 1e3f
00000180: b8a4 663e 47d2 69bd fadf 023f 0285 da3e
00000190: 47d2 003f 90e2 f5be dad3 0e3f 1c50 cc3e
000001a0: dfa1 0bbf c3d6 023f 331e b33e 9713 d53e
000001b0: b55a 6a3e 4cc1 8d3e b22f 943f 8d1e fa3e
000001c0: c03f c33b a4e4 913e dcab 2a3f 8981 2e3e
000001d0: 08dc 37bf 057c ee3e 4c11 d5bd cfa4 0b3f
000001e0: 7d3b 8dbf 8441 023f 0874 35bf 933e 2d3f
000001f0: 242e 653f bf2b d33e be60 e3bd b008 373f
00000200: 88ce a0bd df4a 563f 0ce0 493f 903e 373f
00000210: 7884 39be c2b2 803f c164 5dbf 8a66 653f
00000220: 2da1 e43e 1246 423f b2d6 843f e5cc 1abb
00000230: fb20 3abf 58d2 2b3f 3b13 a9bf 26c7 eb3e
00000240: da20 6dbd 5590 173e 0b2d 443f d166 203f
00000250: 261f 933e ce45 71bd 66f5 053f 8c26 21be
00000260: 2fbe f23e 30fd 643f 40e0 783e 10b0 dbbb
00000270: 762f 5a3f a3f3 373f 6a51 da3e 62d7 09be
00000280: 71c9 0d3f 3539 47bf 3e2f 2fbf b4fb 413d
00000290: 49c1 273f cf65 a0bc 54b6 a0bd 113b 8bbe
000002a0: f7db 353f 4ea5 d83e 5f46 5a3e 01fd fb3e
000002b0: e630 3d3f 3836 033f c6eb ccbf fe2c 8a3f
000002c0: 79b4 123e 119c 2c3f a7f7 96bd 76f8 053e
000002d0: 4887 0d3e 9855 b4be b54d c6bf e365 1bbe
000002e0: e0d7 663d e8ee 223f 91c2 86b9 298b 9bbe
000002f0: 0397 1a3e 45da cbbd 624c 50bd db37 9c3e
00000300: 8a14 e93d fa97 c73e a641 8c3e 3280 86bd
00000310: 3547 c33e 4a47 403f ea05 603f d576 fabd
00000320: 7db0 ee3e 3db5 6f3f b885 0ebd 917e 863e
00000330: 42c2 3abf 4351 b83e 0a5a 0f3f 81e4 dabd
00000340: 9bb9 1e3f c1be cabc 7122 d2bf c3b9 123e
00000350: 1fff 7f3f 3a9a 6b3f 955c 12bf 6a28 61bf
00000360: d338 413e 41d2 343e 390e b23f 4aff dabe
00000370: 248e d6be 4698 1f3f c56c 1b3e 32cf 773e
00000380: e700 bdbe 8899 193f 2a1a acbf bc18 80be
00000390: 15f7 a3bf 3053 733e f380 793f 861f 55bf
000003a0: f559 503f 7957 80be ce39 29bd 43c1 523f
000003b0: 0f82 583d 66c9 393f d8eb 033f db77 eabd
000003c0: ad55 c5be 1ca3 233e 0b20 183f d9bb 5d3f
000003d0: b835 093f da0e bbbd 17f6 3d3f 7e42 9abf
000003e0: ddfc 9a3e 99fe 4b3e 4063 1e3f af6d 1e3f
000003f0: dd6e 3b3e ccd1 95bf 4261 3abb 8363 1abf

mean.weight f4 [6, 256]
0.09803297 -0.0064062937 0.16899237 0.13400605 0.050204694 0.06355254 1.0538607 0.022737699
-0.081025794 0.015855255 -0.22282317 0.11034561 -0.22399522 -0.006508785 0.049160704 1.4381834
-1.7601455 0.06861779 -0.15724403 -0.08172456 -0.3440107 0.16561091 0.24535388 0.032068804
0.1710842 0.076579005 0.04197147 0.018975276 0.122068584 0.17315248 0.081814714 -0.0083889235
-0.2538284 -0.110845 0.13860923 -0.0026693314 0.003985282 -0.39985028 -0.019479167 0.07077072
-1.0385634 -0.17387812 -0.06811354 0.0885588 -0.5453643 0.08140111 0.21089259 -0.034595184
-0.34711114 -0.30429345 -0.06347421 0.0974779 -0.3922165 -0.07444233 -0.035320736 -0.0345955
-0.48973083 0.27684245 0.01931244 -0.28360483 -0.1979577 0.11524382 0.013122588 0.08521521
0.106569365 -0.0975248 0.12593456 -0.3213707 0.34205353 -0.10920874 0.21217377 -0.09420578
-0.11080682 0.015164751 0.23720174 0.2317925 -2.5572276 0.09606415 -0.4776777 -0.7219321
-0.15419906 0.011322556 -0.009753751 0.49254677 -0.05927413 0.08345111 -0.017390588 -0.11904554
0.06422024 -0.12303306 -0.09106432 -0.033385802 -0.23423593 0.068030335 0.0098216105 -0.014039123
0.6042239 -0.052011687 -0.076329775 -0.068585105 -0.017897679 0.06756881 0.17256439 -0.3425599
0.043502953 0.028140292 -0.03549901 -0.119325556 0.32097277 -0.088918366 -0.097705945 0.042001512
0.20619245 0.20184013 -0.10467516 0.065276936 -0.07077076 0.17398071 -0.028108882 -0.15523604
-0.35264686 -0.2407902 0.20667683 0.15689683 -0.06231019 0.059399184 -0.042656533 0.043737464
-0.03863856 -0.0702414 0.055444896 0.18797456 0.05546474 0.14194801 0.116228916 0.20163636
-0.10798132 -0.076586954 0.24870819 0.0945362 -0.039947975 -1.7301621 0.3374101 -0.05095682
0.968384 0.40467635 0.27807346 0.24373679 1.7073101 0.0058105066 0.10967594 0.0114815235
-0.3152158 -0.12554552 0.30521885 -0.026077557 -0.19270991 -0.010782619 -0.17404665 0.0050677317
0.1589355 -0.042429548 0.18256101 0.027198264 -0.6891435 -0.08332621 0.07009905 0.056782484
-0.12614395 -0.022517517 0.099729106 0.030578014 0.39042288 0.23946431 -0.061458975 0.11592408
-0.25368282 -0.0813075 0.095167466 0.054349154 0.12513739 -0.32469887 -0.099510685 -0.029802004
0.0332266 -0.15318975 0.052755725 0.030543862 0.41772294 0.059674546 -0.060281284 -0.06328398
-0.15317143 -0.1846997 0.020411046 0.30453745 0.013444333 0.12857933 0.17534907 0.14365359
0.119069465 -0.22769897 0.025896117 0.2091102 0.0033191864 0.0028785747 -0.1253051 0.07510522
0.14968266 0.028519828 -0.08651042 -0.08173531 0.0117102275 -0.27410617 0.21660148 0.03071709
-0.19053128 -0.1622483 0.10712594 -0.26064876 -0.075635046 -0.6054111 0.2130468 0.07986046
0.051141463 -0.011887282 -0.32927197 -0.03230839 0.738033 0.20731844 0.20194873 0.12541312
0.15641159 -0.0812875 -0.026931614 0.062280368 -0.09623202 -0.037783038 -1.01653 0.026165158
-0.05330949 0.07348502 -0.22144076 0.16605626 -0.019915868 0.004880786 0.027706258 -0.20633215
0.137654 -0.0019213188 -0.04959112 -0.2208934 -0.35073197 0.22000998 0.0060193534 -0.045592863
00000000: 83c5 c83d e3eb d1bb 560c 2d3e e238 093e
00000010: 70a3 4d3d d627 823d e8e4 863f 6944 ba3c
00000020: daf0 a5bd e1e2 813c c22b 64be e1fc e13d
00000030: 015f 65be a547 d5bb bc5c 493d 6516 b83f
00000040: 734c e1bf 7c87 8c3d 9404 21be 355f a7bd
00000050: 2c22 b0be e895 293e 0c3e 7b3e 945a 033d
00000060: b230 2f3e 74d5 9c3d 47ea 2b3d 0a72 9b3c
00000070: 18ff f93d e24e 313e 798e a73d b271 09bc
00000080: ccf5 81be b402 e3bd 94ef 0d3e f3ef 2ebb
00000090: f896 823b 2db9 ccbe c692 9fbc 3df0 903d
000000a0: a5ef 84bf 1b0d 32be 1d7f 8bbd 515e b53d
000000b0: ff9c 0bbf a0b5 a63d 3af4 573e aeb3 0dbd
000000c0: 8db8 b1be 5acc 9bbe c4fe 81bd 7ea2 c73d
000000d0: 9ad0 c8be 3875 98bd 7aac 10bd 03b4 0dbd
000000e0: 00be fabe 4bbe 8d3e 1f35 9e3c a734 91be
000000f0: 6cb5 4abe f404 ec3d 2000 573c 5085 ae3d
00000100: 0a41 da3d 15bb c7bd fdf4 003e b38a a4be
00000110: a421 af3e d5a8 dfbd 1544 593e f6ee c0bd
00000120: b0ee e2bd 9375 783c 03e5 723e 035b 6d3e
00000130: 9ea9 23c0 48bd c43d 2c92 f4be 8bd0 38bf
00000140: 5ce6 1dbe 3e82 393c 32ce 1fbc 172f fc3e
00000150: 6ec9 72bd 6ae8 aa3d b576 8ebc 26ce f3bd
00000160: e785 833d c2f8 fbbd ee7f babd 8dbf 08bd
00000170: 8bdb 6fbe 7d53 8b3d d2ea 203c 5a04 66bc
00000180: 6bae 1a3f 350a 55bd c952 9cbd 5976 8cbd
00000190: 279e 92bc 8461 8a3d b8b4 303e 0364 afbe
000001a0: 2730 323d 7886 e63c 6967 11bd f560 f4bd
000001b0: 8b56 a43e d51a b6bd 0e1a c8bd c709 2c3d
000001c0: 1d24 533e 2eaf 4e3e ee5f d6bd eaaf 853d
000001d0: 43f0 90bd 0028 323e 9944 e6bc 32f6 1ebe
000001e0: 218e b4be b591 76be 17a3 533e 90a9 203e
000001f0: f838 7fbd 8f4c 733d 9eb8 2ebd 0e26 333d
00000200: 7743 1ebd b9da 8fbd 301a 633d 677c 403e
00000210: ff2e 633d d25a 113e 6d09 ee3d c379 4e3e
00000220: 4f25 ddbd 9fd9 9cbd 5cad 7e3e 329c c13d
00000230: 7da0 23bd f475 ddbf 04c1 ac3e 19b8 50bd
00000240: 04e8 773f bd31 cf3e a55f 8e3e 2396 793e
00000250: 2389 da3f 1066 be3b c79d e03d 001d 3c3c
00000260: f763 a1be 018f 00be a545 9c3e 9aa0 d5bc
00000270: bf55 45be 95a9 30bc 4939 32be 370f a63b
00000280: fdbf 223e 9bca 2dbd 46f1 3a3e e5ce de3c
00000290: b56b 30bf efa6 aabd 1790 8f3d c094 683d
000002a0: e12b 01be a876 b8bc c63e cc3d be7e fa3c
000002b0: 82e5 c73e 2236 753e 68bc 7bbd 9b69 ed3d
000002c0: b7e2 81be 8c84 a6bd 29e7 c23d 389d 5e3d
000002d0: 0424 003e ee3e a6be 42cc cbbd 5523 f4bc
000002e0: 9e18 083d c6dd 1cbe 6316 583d 1f37 fa3c
000002f0: c8df d53e 4c6d 743d 82e9 76bd 089b 81bd
00000300: f9d8 1cbe eb21 3dbe 1135 a73c 55ec 9b3e
00000310: 9f45 5c3c 4daa 033e b58e 333e ed19 133e
00000320: b1da f33d eb29 69be 1824 d43c fc20 563e
00000330: b586 593b 78a6 3c3b fb4f 00be c4d0 993d
00000340: 6946 193e 6aa2 e93c 602c b1bd d864 a7bd
00000350: 41dc 3f3c a557 8cbe c7cc 5d3e 68a2 fb3c
00000360: a21a 43be 6b24 26be d864 db3d c173 85be
00000370: 8ce6 9abd 39fc 1abf f128 5a3e e18d a33d
00000380: b679 513d e0c2 42bc 5696 a8be cd55 04bd
00000390: bbef 3c3f 494b 543e a6cb 4e3e 4c6c 003e
000003a0: 5c2a 203e 107a a6bd b09f dcbc b319 7f3d
000003b0: 4b15 c5bd 63c2 1abd a81d 82bf 5058 d63c
000003c0: 0d5b 5abd 507f 963d 5ec1 62be a70a 2a3e
000003d0: 9a26 a3bc 00ef 9f3b 3cf8 e23c bc48 53be
000003e0: 2cf5 0c3e c3d4 fbba 0f20 4bbd e131 62be
000003f0: 2493 b3be 4c4a 613e ff3d c53b 95bf 3abd

mean.bias f4 [6]
0.07568311 -0.04415001 -0.41934034 -0.18558341 0.24963452 0.007831598
00000000: bfff 9a3d a4d6 34bd c7b3 d6be 9409 3ebe
00000010: 31a0 7f3e 1a50 003c

log_std.weight f4 [6, 256]
0.053477112 0.004616503 0.04334327 0.031430982 0.011209039 0.010086198 0.1289362 -0.04907764
-0.09778659 0.027226137 0.07283927 0.03254139 0.0322128 0.014457214 0.0138162635 0.119384326
-0.060929347 -0.0029175656 0.05124012 0.042180322 0.11310937 0.066751994 0.022267547 -0.0037769517
0.030581497 0.048890073 0.006298645 0.0004972806 0.090131305 0.04997936 -0.013827835 0.004562752
0.121850796 -0.00019012937 0.014246696 -0.018869605 -0.019518644 0.13109298 -0.011500077 0.028622912
-0.02452359 0.072485596 -0.016893039 0.05064207 -0.10705032 0.026432773 0.039049875 0.0008259328
-0.1796129 -0.17995286 -0.007162984 0.043385662 0.10121022 0.03458999 -0.026527159 -0.021021934
0.086619206 0.06752801 0.014009787 0.09787954 0.08256332 0.03840493 -0.020904822 0.024511697
0.027519327 0.032368094 -0.046774544 0.078350246 0.08617391 0.047348227 0.1398518 -0.036715534
0.056068674 0.011914926 0.10044815 0.029135533 0.20998093 0.054591954 -0.1007806 -0.123446405
0.0022251513 0.021642065 -0.0012858234 0.19296806 0.021936914 0.056741223 0.0049502887 0.050098702
-0.012831762 0.056125995 0.019181438 0.0028522376 -0.0047728214 0.024402816 -0.0038099363 0.021197809
0.09514936 0.0041831215 0.016639179 0.042541526 -0.049621835 -0.08525153 0.053644728 -0.063413024
0.016515216 0.0031241039 -0.013743724 0.012070919 0.113427624 0.062437575 0.029078696 -0.0038028092
-0.025948288 0.061679557 0.034089077 0.025534341 0.054418154 -0.033141058 -0.025518771 0.040125135
0.0016153051 0.043113604 0.0012754247 0.07083662 0.009593972 0.0064557795 -0.031622976 2.1820062e-05
0.027783278 0.038303807 0.023129812 0.042394165 0.030104963 0.060803954 0.0026455512 0.063886434
0.051871214 0.00030999677 0.13308562 0.018933527 0.033916995 -0.47658116 0.15769711 0.008698334
0.089396924 0.05872943 0.11550266 0.05411268 -0.375405 0.08354328 0.0064599714 0.0013242386
-0.022289224 0.062134568 0.07091035 -0.05258118 0.032536164 -0.022645567 0.062734134 0.0073434585
0.053643253 0.0019032676 5.1948366e-05 0.02276726 -0.16249137 0.040570654 0.0020357843 -0.015804216
0.06808439 0.010847209 0.041009735 0.015415994 0.08836237 0.050746527 -0.022301696 0.02674332
0.13457862 0.074168764 0.0314576 0.0766059 -0.0467266 0.08812441 -0.08246921 0.009692473
-0.0028325154 0.0733791 0.06083953 -0.015668428 0.013533822 0.029804448 0.03178465 0.0032227205
0.059372764 0.12347345 -0.005146171 0.18584988 -0.0067755496 0.046358053 0.07191123 0.054164026
0.02037358 0.104831636 0.06538519 0.08107938 0.021788217 -0.02056754 0.045681074 0.18221404
0.04131072 0.07041964 -0.047161683 -0.036021676 0.0045828363 0.08874431 0.012947204 -0.03526629
0.047253802 0.05218219 0.032615747 0.040981323 0.059882745 0.24806505 0.06468518 0.026154596
0.022914793 0.016955411 -0.081952214 0.003407384 0.11253108 -0.06926577 0.11577529 0.015907194
0.07306476 0.030463105 0.0061445236 0.023097102 -0.02375116 0.004374591 0.14302467 0.013563542
0.008135044 0.026188638 0.11367605 0.052620716 0.0029307657 0.036129326 0.03963063 -0.0743013
0.054703243 -0.03246053 0.0135269845 0.10187003 0.11494166 0.07954217 -0.0021666118 0.008101291
00000000: d10a 5b3d 0946 973b b688 313d c6bd 003d
00000010: 1ea6 373c 9540 253c da07 043e a305 49bd
00000020: 5644 c8bd 5909 df3c c12c 953d 1f4a 053d
00000030: 92f1 033d f3dd 6c3c 9c5d 623c c57f f43d
00000040: 0d91 79bd a134 3fbb 29e1 513d 46c5 2c3d
00000050: e3a5 e73d 45b5 883d 6e6a b63c bc86 77bb
00000060: 0c86 fa3c f540 483d dd64 ce3b f05b 023a
00000070: c396 b83d 28b7 4c3d 258e 62bc 2383 953b
00000080: e98c f93d 775d 47b9 f96a 693c 6e94 9abc
00000090: 90e5 9fbc 3d3d 063e d26a 3cbc 997a ea3c
000000a0: b2e5 c8bc 5473 943d 4563 8abc 0f6e 4f3d
000000b0: 333d dbbd 8b89 d83c c3f2 1f3d 6983 583a
000000c0: 72ec 37be 9045 38be 77b7 eabb 2ab5 313d
000000d0: 4e47 cf3d 3cae 0d3d 7c4f d9bc 3136 acbc
000000e0: 6965 b13d 204c 8a3d 4e89 653c 1175 c83d
000000f0: f516 a93d 7d4e 1d3d 9740 abbc c1cc c83c
00000100: 3670 e13c 6894 043d aa96 3fbd 1876 a03d
00000110: f27b b03d 37f0 413d 4f35 0f3e 0763 16bd
00000120: 44a8 653d d236 433c c2b7 cd3d a4ad ee3c
00000130: 3e05 573e d09b 5f3d 0f66 cebd 78d1 fcbd
00000140: d8d3 113b b34a b13c 1389 a8ba 6b99 453e
00000150: 0bb5 b33c 7c69 683d 0836 a23b 4c34 4d3d
00000160: 503c 52bc 5fe4 653d 6422 9d3c 9bec 3a3b
00000170: 5465 9cbb 6ae8 c73c 20b0 79bb 07a7 ad3c
00000180: abdd c23d 9112 893b e34e 883c 0640 2e3d
00000190: 4440 4bbd 5b98 aebd 93ba 5b3d b0de 81bd
000001a0: eb4a 873c c4bd 4c3b 5b2d 61bc 1bc5 453c
000001b0: be4c e83d 8bbe 7f3d 7236 ee3c 8d38 79bb
000001c0: 8191 d4bc b4a3 7c3d fda0 0b3d 652d d13c
000001d0: 92e5 5e3d ebbe 07bd be0c d1bc 415a 243d
000001e0: a5b8 d33a e497 303d 272c a73a ca12 913d
000001f0: 0930 1d3c 018b d33b 1887 01bd 3a0a b737
00000200: c299 e33c 74e4 1c3d bb7a bd3c 81a5 2d3d
00000210: af9e f63c 910d 793d fc60 2d3b e4d6 823d
00000220: e976 543d 1087 a239 9947 083e 7c1a 9b3c
00000230: 8cec 0a3d 7202 f4be 5a7b 213e 7583 0e3c
00000240: bc15 b73d 458e 703d a98c ec3d 42a5 5d3d
00000250: 1635 c0be bd18 ab3d 2bae d33b 1392 ad3a
00000260: e497 b6bc d180 7e3d 7239 913d 5d5f 57bd
00000270: a444 053d 3283 b9bc c17a 803d 65a1 f03b
00000280: 07b9 5b3d 1077 f93a 22e3 5938 6882 ba3c
00000290: 2364 26be 6a2d 263d cb6a 053b d877 81bc
000002a0: d46f 8b3d 7eb8 313c d3f9 273d 5e93 7c3c
000002b0: 55f7 b43d 97db 4f3d 0cb2 b6bc cf14 db3c
000002c0: face 093e cbe5 973d afd9 003d 8ee3 9c3d
000002d0: 6464 3fbd 927a b43d 9ee5 a8bd 2ecd 1e3c
000002e0: b9a1 39bb c847 963d df32 793d 135b 80bc
000002f0: f7bc 5d3c 7528 f43c 9f30 023d 4734 533b
00000300: db30 733d a6df fc3d 36a1 a8bb 6e4f 3e3e
00000310: 6e05 debb f1e1 3d3d 3246 933d 19db 5d3d
00000320: 7ee6 a63c f8b1 d63d ace8 853d f20c a63d
00000330: 347d b23c 427d a8bc 141c 3b3d 5196 3a3e
00000340: 6e35 293d 2c38 903d 9c2c 41bd 778b 13bd
00000350: 9e2b 963b 94bf b53d 8220 543c 6373 10bd
00000360: 348d 413d febc 553d 1798 053d 08dc 273d
00000370: 9c47 753d c404 7e3e aa79 843d 2a42 d63c
00000380: ceb7 bb3c 13e6 8a3c 90d6 a7bd 6b4e 5f3b
00000390: b276 e63d 36db 8dbd 981b ed3d ce4f 823c
000003a0: faa2 953d c38d f93c 0058 c93b 2236 bd3c
000003b0: cb91 c2bc bb58 8f3b 0f75 123e 9e39 5e3c
000003c0: d948 053c 8e89 d63c fdce e83d d288 573d
000003d0: 1712 403b 58fc 133d ba53 223d 482b 98bd
000003e0: 8210 603d 55f5 04bd 49a0 5d3c 3ca1 d03d
000003f0: 8866 eb3d 01e7 a23d b7fd 0dbb 47bb 043c

log_std.bias f4 [6]
-1.5442243 -1.8458748 -1.4073323 -1.8312467 -1.2801918 -0.9926198
00000000: 24a9 c5bf a045 ecbf 7723 b4bf 4b66 eabf
00000010: 53dd a3bf 551c 7ebf
