trained_models/HalfCheetahNormal-v3/sac/critic_1.pt (torch, 582018 bytes, 10 tensors)

Q1.0.weight f4 [256, 23]
000000 dc cb f7 3d 5c 99 97 be 86 40 ba be 48 74 44 3e
       0.1209943 -0.2960919 -0.36377352 0.19184983
000010 73 d9 13 be 6b 25 d9 bd 1c ff 99 3c 09 85 d2 bc
       -0.14438419 -0.1060284 0.018798403 -0.025698202
000020 8d 62 9a 3d 3d 21 9d 3e 4b ce bc 3d 9c ef 1b bb
       0.07538328 0.3068942 0.09219035 -0.0023793941
000030 a1 23 ea 3c 00 8c 5a bc 17 92 8c bc 15 77 18 bb
       0.028581442 -0.013339043 -0.017159505 -0.0023264338
000040 1e 02 f0 3c dd c6 d4 bd 9e 71 63 3d 10 e3 72 bd
       0.029297885 -0.10389493 0.055528276 -0.059298575
000050 b6 25 bc be cd 10 a1 3d 6f 9d a6 bd fc c4 b2 bf
       -0.3674752 0.078645326 -0.08135497 -1.3966365
000060 16 39 9c be 06 ca 1e be 98 3b 29 be 66 5d 20 3f
       -0.30512303 -0.15506753 -0.1652664 0.62642515
000070 6b 02 43 bf 29 16 4a 3f 6f 2f 3f bd a1 0d 06 3d
       -0.76175565 0.78940064 -0.046676096 0.03272784
000080 ea 4e 2e be 67 45 8b be 15 26 9c bd e0 cb 02 be
       -0.17022291 -0.27201387 -0.07624451 -0.12773085
000090 98 4e 04 3d d8 98 aa bd f6 1d ed b9 06 6e 4e bd
       0.032301515 -0.08329934 -0.00045226485 -0.050397895
0000a0 df 62 37 3e 88 96 94 bc 35 e1 0f be f4 45 b5 3e
       0.1790881 -0.018138185 -0.14050753 0.35404932
0000b0 cc 96 ab be 37 9b c8 3c a7 b5 05 bd 06 6a a3 be
       -0.33513486 0.024488075 -0.03264394 -0.31916827
0000c0 dd f3 a5 bc c4 aa 22 bf a7 08 1c be 92 23 70 bd
       -0.020257885 -0.6354182 -0.15237676 -0.058627672
0000d0 52 72 40 be 5d 0e 81 3c 2e 56 36 bd 2b 7f 31 3d
       -0.1879361 0.01575392 -0.04451578 0.043334167
0000e0 4c 7a 8b 3d aa 30 dd bc 1b f4 c9 3b ce 0b 8b bb
       0.06810436 -0.027000744 0.006163133 -0.0042433506
0000f0 1f 65 bb bd 29 6b 7f 3c e5 c6 ad 3c 8b 7f a0 3e
       -0.09150147 0.015589514 0.021213004 0.31347308
000100 fa d8 52 be c8 35 8b 3d 10 2f 92 bc 07 35 ac bc
       -0.20590582 0.06797367 -0.017844707 -0.02102138
000110 cf e4 21 3e 3d 36 8e be 45 52 0e bf ba 46 ee 3d
       0.1580994 -0.27775756 -0.55594283 0.11634584
000120 81 39 2d bf 8a 94 07 3e f1 69 b5 3d 4b fd 5c bf
       -0.6766587 0.13240257 0.08858097 -0.86323994
000130 08 11 5b be e8 77 dc bd f7 9a 05 bf 5b 34 0d bf
       -0.21393216 -0.10765058 -0.5218958 -0.55158013
000140 81 0f 40 be a2 aa bc bd b9 d1 41 bc 26 4c 81 bd
       -0.18755914 -0.09212233 -0.011829787 -0.06313352
000150 3e 75 d3 bc d6 7f 55 3c a1 01 98 be a4 07 9a 3d
       -0.025812741 0.013030967 -0.29688743 0.075209886
000160 79 25 ed be d4 84 30 3f 2c 1c 14 be 11 9d d9 3d
       -0.46317652 0.6895268 -0.14463872 0.10625661
000170 2f 5a 4c c0 8a b7 a8 bf 5a e0 e1 bf 64 56 ff bf
       -3.1930044 -1.3181012 -1.7646592 -1.9948239
000180 bc 90 05 3f 4c db af 3c 39 da 71 3f 89 f0 62 3e
       0.5217397 0.021466874 0.94473606 0.2216207
000190 00 ef 46 bd de 87 3e bf 1d a9 d6 3e 5b 20 26 3e
       -0.048567772 -0.74426067 0.41925898 0.1622328
0001a0 51 3d d2 bc 2d 22 e8 bb 6e 32 83 3c 26 a1 9c 3b
       -0.025664004 -0.007084152 0.016015258 0.0047799526
0001b0 62 07 26 bd fc 1a a5 be 18 a3 0c 3d 89 cc 61 3e
       -0.040534385 -0.3224715 0.034335226 0.2205068
0001c0 e1 0a da be 8f 8b fd 3d 09 e0 cd bd ed 80 a1 40
       -0.42586425 0.12380134 -0.10052497 5.046988
0001d0 89 cb d5 3e 45 83 bb 3f 62 5b 87 bf fb ae a4 3f
       0.41756848 1.4649435 -1.0574763 1.28659
0001e0 54 fc 6c 3f b8 f9 b8 3f 64 f0 b1 be d5 00 84 be
       0.9257252 1.4451208 -0.34753716 -0.25781885
0001f0 94 4d 12 3f 57 98 d9 bc 4f 29 2e bd 5d 39 ef bb
       0.57149625 -0.0265619 -0.042519864 -0.0073005394
000200 9c 88 e6 3c 07 d6 55 3e 8e 27 92 3d 57 27 96 bb
       0.028141312 0.20882426 0.07136451 -0.0045823264
000210 d4 5a 58 bd bc d5 36 3e db fb 8d be 59 f2 d5 3f
       -0.052820995 0.1785497 -0.27731213 1.6714584
000220 32 35 8e 3f 9f 5b 80 3e 2d ee af bf be aa f6 be
       1.1109984 0.250699 -1.374456 -0.4817714
000230 ea 76 87 bf 12 e1 2c bd 4c c1 da bf 48 8a 60 3f
       -1.0583165 -0.04220683 -1.709024 0.87711
000240 f1 ce d8 3f 91 74 0e 3f 57 9d a3 bd 72 8e 0b be
       1.6938154 0.55646616 -0.079889946 -0.13628557
000250 fe ba 83 3e 18 90 dc 3d e8 b0 18 3a 91 45 b3 3c
       0.257286 0.10769671 0.0005824701 0.021883758
000260 87 50 88 bd 72 c2 97 bd f7 d6 8a bd 6b fb 2e bf
       -0.06655984 -0.074101344 -0.067792825 -0.68352383
000270 b7 1a 41 3f fb a8 13 3f 4b 52 84 3f 2e 27 41 be
       0.7543139 0.5767972 1.0337614 -0.18862602
000280 54 c5 15 3e ed fb ab 3f 91 0b 13 bf ba 10 51 3e
       0.14626056 1.3436257 -0.57439524 0.20416537
000290 54 ca 9b 3e b1 aa 7f 3e 12 ae 3a 40 c2 7a 2b 40
       0.30427802 0.24967457 2.9168744 2.6793675
0002a0 ca 22 b5 3e ce 74 4b bc bf d5 83 3f 99 42 ee be
       0.35378104 -0.012417985 1.0299605 -0.46535185
0002b0 18 32 1d 3b 38 e0 72 bb a4 42 b0 3c cf 5a 4c 3e
       0.0023986157 -0.0037059914 0.021516152 0.19956516
0002c0 bf 19 1f 3d 42 fb 91 3b 4f a3 b7 be 60 e4 17 3e
       0.038842913 0.004455001 -0.35866782 0.14833212
0002d0 23 e3 a1 3e 6d c8 1e 3f 4e 82 aa be 21 18 69 be
       0.31618604 0.62024575 -0.3330254 -0.2276311
0002e0 0c 18 0c c0 79 e3 38 3f d3 d3 ca be 09 4c 94 3f
       -2.1889677 0.72222096 -0.39614734 1.1585704
0002f0 4e 04 72 bd 57 1d 34 3f bc 8b cc 3f 1a 9b 88 3f
       -0.059086137 0.7035727 1.5980144 1.0672333
000300 e4 82 cf be 77 64 9b bd f0 6e 0f 3f 51 cc 47 bd
       -0.4052955 -0.075875215 0.5602865 -0.048778836
000310 6f cd 1c 3d 8f ab 33 3a 4c 6b c9 3e 11 cb c6 3d
       0.038281854 0.00068538723 0.39339674 0.097067006
000320 ae 9d 3e 3e 30 2b 99 be fa 26 c2 3f 1c 2b 91 be
       0.18614838 -0.29915762 1.5168145 -0.28353202
000330 35 78 6e 3f 9c e7 34 bf ec a8 bc be 58 eb eb 3f
       0.9315217 -0.7066591 -0.36847627 1.8431196
000340 88 d8 99 3e e1 19 f2 be a9 f9 c3 3e 62 b2 8e bf
       0.30048013 -0.4728537 0.38276413 -1.1148188
000350 8f 08 ab 3f bb 0f bc bf 10 35 07 3f 09 07 a9 bd
       1.3361987 -1.46923 0.5281534 -0.08253295
000360 38 56 2f 3e 9d 45 a7 bd d6 41 e0 bc a7 54 00 3c
       0.17122734 -0.081675746 -0.027375143 0.007832683
000370 96 e9 63 bd 2d c9 0b 3d 2c d4 61 bd 32 b2 76 bd
       -0.055642687 0.034127403 -0.055133983 -0.060228534
000380 4b 2c c7 3e b0 b1 69 be 54 a6 f3 3e 0e 74 06 3e
       0.3890098 -0.22821689 0.47587836 0.13130209
000390 a2 c0 7a 3e 84 3b 79 be 64 8d 2b 40 0b 29 05 3e
       0.24487546 -0.2433911 2.6805048 0.13003938
0003a0 de ba cb 3f cb 81 ab 3f a0 51 af 3e 34 1e 87 be
       1.5916402 1.3398985 0.34241962 -0.2639023
0003b0 66 dd 80 bf 98 bb f1 be 1c 72 69 3d ce b8 e7 bd
       -1.0067565 -0.47213435 0.05699359 -0.113145456
0003c0 fe d4 ec be d5 99 b5 bd 1b da 52 bd a8 48 4a 3c
       -0.4625625 -0.08867232 -0.051477533 0.012346424
0003d0 d2 3b a0 bd 23 6b 8e bc 8c 32 5e bd 9f 8e 2e bf
       -0.0782391 -0.017385071 -0.054247424 -0.6818637
0003e0 5a 4d 96 3d 65 1d 0d bf 3b 18 01 3f 3f 84 5e 3e
       0.073389724 -0.5512298 0.504276 0.21730135
0003f0 02 94 d6 bd ab ce 05 c0 e5 02 1a 3f 84 e2 56 3f
       -0.10477449 -2.090739 0.60160667 0.83939385

Q1.0.bias f4 [256]
000000 44 e1 c9 3f 4e a5 93 3f 55 f5 1a 3f bb 6d d2 3f
       1.5771871 1.1534822 0.60530597 1.6439737
000010 e1 c5 6c 3f 4c 17 c3 be 2b a5 82 3e a7 b8 ee bf
       0.9248944 -0.38103712 0.25516638 -1.8650101
000020 ba 3f e4 bf f1 0f 5d 3f a4 80 2e 3f 93 31 b7 bf
       -1.7831948 0.8635245 0.6816504 -1.4312004
000030 52 da 86 bf 4d 20 50 bf 0f c7 32 3f 46 72 e5 bf
       -1.0535376 -0.8129929 0.6983499 -1.7925498
000040 55 7f 27 3d 83 40 e1 3e df 0e b3 3f c5 d4 d2 bf
       0.040892918 0.4399453 1.3988913 -1.6471182
000050 cf f0 9e 3f f1 8a b9 3f 23 78 c4 be 35 74 8b bf
       1.2417239 1.4495527 -0.38372907 -1.0894839
000060 14 49 ec 3f 52 7b 09 c0 aa b8 09 3f a4 79 dd 3f
       1.8459802 -2.1481519 0.537974 1.7302747
000070 a6 f7 a1 bf e4 e1 0c 3f 3b 83 8e 3f c2 16 bf 3f
       -1.2653701 0.5503218 1.1133798 1.492882
000080 3b ed 56 bf 62 57 82 bf b0 5c 9d bf ae c9 32 bf
       -0.83955735 -1.0182917 -1.2293911 -0.6983899
000090 86 28 b4 3f a4 7c 61 3f 2b a0 60 3f 35 91 7d bf
       1.4074867 0.8808081 0.87744397 -0.99049693
0000a0 10 b9 cd 3f 01 76 5c bf 50 c0 f0 be b5 00 a9 bf
       1.6072102 -0.8611756 -0.47021723 -1.3203341
0000b0 97 e2 be bf b0 7e c2 be 50 b6 99 3e 6e ef aa 3d
       -1.49129 -0.3798728 0.30021906 0.08346449
0000c0 9c 01 fe bf 4b cf 6b 3f f7 a6 3d 40 9f 8c 71 3f
       -1.9844241 0.9211318 2.9633157 0.94355196
0000d0 9f 16 88 be 1e 50 59 bf b8 1b 81 3f 31 a2 8b bf
       -0.2657976 -0.84887874 1.0086584 -1.0908872
0000e0 ef 75 5b bf 83 e4 9c bf d5 21 61 bf 2e bf d4 3f
       -0.8572683 -1.2257236 -0.8794225 1.6620843
0000f0 62 79 8c 3f f4 67 c1 3f ae 8e cf bf dd c3 97 bf
       1.0974543 1.5109849 -1.6215417 -1.1856648
000100 a1 3c 98 bf 2f c0 86 3f 30 1a ea 3f 2e 66 aa 3f
       -1.1893502 1.05274 1.8289242 1.3312433
000110 93 d2 a2 3f 40 53 8a 3f e5 39 b4 3e 2d 26 bb 3d
       1.2720512 1.0806656 0.3520042 0.09138141
000120 6a ae b0 3f 63 5e 9a bf ce 30 9b 3f 70 d3 c6 3e
       1.3803227 -1.2060055 1.2124269 0.3883319
000130 7a 7c 9c bf 2b 9f 04 c0 70 a5 96 3f 7c 11 d8 bf
       -1.2225487 -2.0722148 1.1769238 -1.6880336
000140 98 83 c9 bf 47 07 99 bf 77 ca 95 3f 6b 26 33 bc
       -1.5743284 -1.1955346 1.1702412 -0.0109344525
000150 39 f6 51 bf 54 81 fb bf 29 cb d4 3f 1c 26 02 c0
       -0.8201633 -1.9648843 1.66245 -2.033576
000160 27 7a 88 be cb 16 61 bf 3f 97 8a bf 15 01 08 c0
       -0.26655695 -0.87925404 -1.0827407 -2.125066
000170 55 30 c6 3f 72 0d 11 bf 8c bd e1 3f 10 ad 83 bf
       1.54835 -0.5666114 1.763597 -1.028719
000180 1a 6d b2 bf d2 04 b9 bf 67 80 a0 bf 5c cc c0 3f
       -1.3939545 -1.4454596 -1.2539185 1.5062366
000190 78 b1 87 bf 16 b9 cb bf ff c7 8e 3e 87 00 25 3f
       -1.0601034 -1.5915859 0.2788696 0.6445393
0001a0 73 2a 3b bf 00 6d 51 3f 77 9d 92 3f 03 b9 a0 3f
       -0.7311165 0.81806946 1.1454304 1.2556461
0001b0 33 59 69 be 1a db 82 bf c7 d0 5a 3e 7d a5 7f bf
       -0.22787933 -1.0223114 0.21368705 -0.9986189
0001c0 c7 02 65 bf 48 8b 84 3f fb ac 8c 3e e9 b6 bb be
       -0.8945736 1.0355005 0.27475724 -0.36662987
0001d0 f2 b3 a2 3f 31 81 38 3f d3 8c a8 bf d4 c9 d3 3f
       1.2711165 0.7207213 -1.3167976 1.6545968
0001e0 f2 6d da 3f 6e b7 ed bf 64 ee a8 bf 2d 3a 4d bf
       1.7064803 -1.8571603 -1.3197751 -0.80166894
0001f0 43 a3 80 bf d1 3d 1b 3f f6 5c 5a bf 6f b1 e9 3f
       -1.0049824 0.606412 -0.852981 1.8257273
000200 0f d9 aa 3f 00 41 91 bf 4c e9 8f 3f 6c 99 46 3f
       1.3347491 -1.1347961 1.1243072 0.77577853
000210 62 8e 81 3f 7a 5c d2 bf bd 80 ff bd 2f 23 32 be
       1.0121577 -1.6434472 -0.12475727 -0.17396234
000220 5f 13 2f bf e7 46 e4 3e be d0 b4 bf bc 95 6a bf
       -0.6838893 0.44585344 -1.4126203 -0.91634727
000230 e0 f3 9f bf 0e 59 2d 3f 4e 46 90 3f 3b 9d a5 bf
       -1.24963 0.6771401 1.1271455 -1.2938608
000240 82 f5 92 bf f9 26 5b 3f b6 a5 de bf 00 cd 5f bf
       -1.1481173 0.8560634 -1.7394321 -0.8742218
000250 53 10 94 3f 13 d6 cd 3f f3 68 81 3f 78 a9 99 bf
       1.1567482 1.6080955 1.0110153 -1.2004843
000260 e3 5c ff 3d da 31 5f bf 8a 18 a4 3f 92 d3 6d 3f
       0.124688886 -0.8718544 1.2819989 0.92900956
000270 fa 40 88 bf 8e 7f d7 bd b6 07 ef 3e a0 ce 9a 3f
       -1.0644829 -0.10522376 0.4668557 1.2094307
000280 e6 74 5e 3f c3 56 28 3d c5 4e 5e bf f1 06 52 3f
       0.8689712 0.041098367 -0.8683894 0.8204184
000290 d9 e9 0a 40 87 4d ab bf df 1c cf bf ef d6 26 bf
       2.170523 -1.3383034 -1.6180686 -0.6517171
0002a0 e4 ed c9 bf 78 50 be 3f 82 bd ab bf ef 5c 22 bf
       -1.5775723 1.4868307 -1.3417208 -0.63423055
0002b0 4f 7d 82 3f c3 17 02 40 68 41 2b 3c 06 e6 c5 3f
       1.0194491 2.0327003 0.010452606 1.5460823
0002c0 e0 19 b2 3f c4 f2 0a bf 07 ba 8c 3f 30 e0 c2 3f
       1.3914146 -0.5427668 1.0994271 1.5224667
0002d0 bd 18 c7 bf 1f 1e dc 3e d2 65 a2 bf 59 86 b2 3f
       -1.5554425 0.4299173 -1.2687323 1.394725
0002e0 ef 72 0a bf 7e 2f 85 3e 9d ba 44 3f 25 62 5c bf
       -0.54081625 0.26012796 0.7684725 -0.86087257
0002f0 05 04 ba 3f 54 7a b7 bf 48 b8 b4 3f 68 61 ca be
       1.4532477 -1.4334207 1.4118738 -0.3952744
000300 e2 d5 a8 be 84 45 a9 be cc bf 97 3f a8 0f b7 bf
       -0.3297568 -0.3306085 1.1855407 -1.4301653
000310 0e a7 ca 3f 98 9b 55 3f 47 4b f6 bf 22 f8 83 3f
       1.5832231 0.8344054 -1.9241723 1.0310099
000320 ee ee 81 3f 18 23 de 3f 7a c4 f5 3e e5 db cb 3f
       1.015104 1.735446 0.48001462 1.5926481
000330 2c 9f ec bf 88 60 77 bf 27 5f 64 bf 36 a7 d4 bf
       -1.8486075 -0.9663167 -0.8920769 -1.6613529
000340 60 8a 3a 3f 9f 67 90 bf 80 27 83 bf 22 ce b3 bf
       0.72867393 -1.1281623 -1.024643 -1.4047282
000350 de 42 a0 bf bb de 7e 3f 08 77 94 3f 0e 90 72 bf
       -1.2520406 0.9955861 1.1598825 -0.9475106
000360 5d b4 73 bf 31 be 90 bf 6f 9e 9f bf 42 0f 77 3f
       -0.9519709 -1.1308042 -1.2470225 0.96507657
000370 9f 79 36 bf 5d fa 96 bf 5a 71 df bf 9e 25 49 bf
       -0.7127933 -1.1795155 -1.7456467 -0.78573024
000380 ee e9 a9 be 2a 82 73 be 1b e1 84 be f7 a8 d2 be
       -0.33186287 -0.23780122 -0.25952992 -0.41144535
000390 c5 61 6b bf e8 5b e1 3f 88 43 44 3f da 8a a1 be
       -0.9194606 1.7606173 0.76665545 -0.31551248
0003a0 61 7e dd bd ee 65 ae 3f 85 e8 8a be 6f 1b 92 3f
       -0.108151205 1.3624856 -0.27130523 1.1414622
0003b0 4f 09 9e 3f aa 6d 73 bf 53 d5 8c 3f 6b 5f 8b 3f
       1.2346591 -0.9508921 1.1002601 1.0888494
0003c0 e1 49 a2 3f 88 61 42 bf 92 63 67 3f f5 3e e7 be
       1.2678796 -0.7593007 0.9038631 -0.4516522
0003d0 f3 4c b4 3f 88 ca 67 be d8 46 41 bf 8d 09 82 3f
       1.4085983 -0.22635853 -0.75498724 1.0159165
0003e0 f1 b0 6d 3f c5 8c 82 3f b2 c7 d9 3e be b4 60 c0
       0.92848116 1.019921 0.42535168 -3.5110316
0003f0 41 ef d5 3f 8c 5a 41 3f 2b 36 8c bf b2 4f b1 3f
       1.671364 0.7552879 -1.0954031 1.3852446

Q1.2.weight f4 [256, 256]
000000 fb 36 4f be cb 36 99 ba aa a1 17 3d 29 07 b2 3d
       -0.20235817 -0.0011689303 0.03701941 0.08692772
000010 de eb 78 bc cd 81 3b be 52 6f 80 3d 61 29 03 3f
       -0.015192954 -0.18311234 0.06271233 0.51235014
000020 b8 4c 84 3d fb eb 82 3e c8 91 fc 3d 0e af 36 3e
       0.064599454 0.25570664 0.12332493 0.17840216
000030 45 93 57 be e6 bd b6 3e 9e e8 59 3e a4 c3 58 3e
       -0.21052273 0.35691756 0.21280143 0.21168381
000040 19 bb 00 3e f5 8a 86 3d 45 d8 87 bd bd ee af 3e
       0.12571372 0.06569473 -0.06633047 0.3436183
000050 70 3f 28 be 2e 80 f9 3d 9d 8d f8 3d a4 e0 bc 3e
       -0.1643045 0.121826515 0.121363856 0.36890137
000060 4b 36 4a 3e fd dc c0 3e 39 1e 77 be e6 06 a0 be
       0.19747274 0.376686 -0.24132623 -0.31255263
000070 6d 92 6f be ae f4 df 3e 90 d9 6d 3c f8 3c 94 bd
       -0.23395701 0.43741363 0.014517203 -0.07238191
000080 05 fe 29 3f e5 fb ce 3e b8 75 31 bd 10 7c 63 3b
       0.6640323 0.40426555 -0.043325156 0.0034711398
000090 f0 a8 76 be 0c 39 43 3e 47 0b 2e 3d 6b 81 80 3e
       -0.24087882 0.1906473 0.042491224 0.25098738
0000a0 17 c4 39 3d 14 e3 79 bd 6b f0 55 be 3d 28 0e be
       0.04535302 -0.061007574 -0.20892493 -0.13882537
0000b0 40 be 2d be 8a 0a e3 3d 1c ea fb bc 45 1e 01 3e
       -0.16967106 0.110859945 -0.03075128 0.12609203
0000c0 fb 21 06 3e 25 0d 05 be 24 c8 41 3c 97 1a 00 be
       0.130989 -0.12993295 0.011827502 -0.12510143
0000d0 80 0b ea 3d 3c 87 92 bd e6 ae 6d 3c 4e 94 74 3d
       0.11427975 -0.071547 0.014507031 0.059711747
0000e0 0b 37 7d 3f 68 eb a5 be 56 a0 d2 bd 83 d0 83 bc
       0.98912114 -0.32406163 -0.10284488 -0.016090637
0000f0 d0 12 25 be 7f b5 04 be e3 1c 09 3e a6 19 7a bd
       -0.16120458 -0.1295986 0.13389926 -0.061059617
000100 0e 05 7d 3e b5 ec 9b 3e 48 88 ea be 7f 55 60 be
       0.2470896 0.3045403 -0.458071 -0.21907614
000110 9a 1a 06 bf d0 9e 31 3e eb d7 a7 3d 82 ab 75 bd
       -0.5238434 0.17345738 0.0819548 -0.059978016
000120 e8 30 ec bd b2 56 a0 3c 47 17 32 bc 6f 61 63 bd
       -0.115327656 0.01957259 -0.010869808 -0.05551284
000130 79 cb 0c bf b7 8f 49 3e 7f b4 78 3d 52 67 0d 3e
       -0.54997975 0.19683729 0.06071901 0.13808945
000140 67 c8 dd 3d c4 26 f6 3e 67 a5 fa 3d 2c e9 28 be
       0.10829239 0.4807645 0.12238579 -0.16495198
000150 49 82 29 3d dd 05 01 be 0f 7c cd 3c 2d 8d 77 bc
       0.041384015 -0.12599893 0.02508357 -0.0151093425
000160 ed cc 8b bc 75 e2 0c bd 3f d0 55 3e c2 22 54 bc
       -0.01706549 -0.034395654 0.20880221 -0.01294774
000170 08 89 b7 be b0 f0 43 3d c9 5c 83 be 61 38 69 3e
       -0.35846734 0.04783696 -0.25656727 0.22775413
000180 b1 e0 e7 3d 5b 65 94 bd 60 92 83 3d 00 fe 3c be
       0.11322153 -0.072458945 0.06424403 -0.18456268
000190 20 fc 2c bd 66 8e 52 3d 9d 4e 0c 3e b5 2c 4f 3e
       -0.042232633 0.051405333 0.13701864 0.20231898
0001a0 41 84 fa bd b9 0d 51 bc 6a 78 77 3d 31 94 6a 3e
       -0.12232257 -0.012759619 0.06041757 0.22908093
0001b0 ab b7 40 3e d7 02 c2 be 81 34 8e bd 99 0f 88 be
       0.18820064 -0.37892792 -0.06943608 -0.265744
0001c0 36 90 e5 be 42 9d 25 bd 95 a9 1f 3d c6 06 91 be
       -0.44836587 -0.040433176 0.038980085 -0.2832548
0001d0 5b 12 f5 3b 8b 79 47 be 70 bd e8 3d 1d b7 b6 3d
       0.007478995 -0.19479959 0.11364257 0.08921645
0001e0 49 c7 3c be 65 1a 38 3e 5d 0a 6d bd 01 ea 9f 3d
       -0.18435396 0.17978819 -0.05787121 0.078083046
0001f0 72 ee 97 3e c5 3b ac 3d 41 b5 7d 3c 69 64 bd be
       0.29674107 0.08409838 0.015485109 -0.3699067
000200 5b da 12 3c 70 c0 d7 bd 1e b0 f6 3c a6 ab 18 3e
       0.008963193 -0.105347514 0.030113276 0.14909229
000210 9c 4b 19 be 51 4c 5e be 3e fc 21 be b3 02 08 3e
       -0.14970249 -0.217088 -0.15818879 0.1328228
000220 77 f4 19 3e fd 46 c5 3e 4a 27 99 3e 5c 6c 88 3d
       0.15034662 0.38530722 0.29912788 0.06661293
000230 39 19 19 3e c1 0d d0 bd 59 a9 47 3d 3c bb 71 3e
       0.14951028 -0.10158873 0.048745487 0.2360658
000240 ec fc d9 3e 9f 7d 94 3c 32 f0 7b 3e 0c 63 fe bd
       0.42575777 0.018126307 0.24603346 -0.124212354
000250 75 9e 09 bd d8 fa ad bd 55 57 bc be e4 f3 16 be
       -0.033598382 -0.0849511 -0.3678538 -0.14741474
000260 52 6b c5 bc 18 16 98 3e 03 22 a4 3d 26 6c 09 3e
       -0.024099026 0.29704356 0.080143 0.13420162
000270 db 39 1f 3c cf e3 04 3e 25 3c 74 be 0e 6e 16 be
       0.009718384 0.12977527 -0.23851068 -0.1469042
000280 ef a2 74 3d d1 c9 0f be 80 e9 ad 3c 9c b3 e2 3d
       0.059725698 -0.1404183 0.021229506 0.11069414
000290 da 23 a7 bd 3d 6a c8 3e 52 f0 4a 3e 36 fa 46 be
       -0.08161135 0.39143553 0.19818237 -0.19431385
0002a0 11 e1 00 3e 22 fe 8a be 97 c8 57 3e 26 ba 77 3d
       0.12585856 -0.27147013 0.21072613 0.06048026
0002b0 e0 2e 19 3d 14 58 b1 3d 1d 6a 88 bd a1 32 ab bc
       0.03739822 0.08659378 -0.066608645 -0.020898165
0002c0 24 a8 e2 bd a4 98 8e bb b1 d6 45 3d 87 18 a3 3e
       -0.110672265 -0.0043516923 0.04830045 0.3185465
0002d0 4a 35 7d bd ba 79 a4 bd 46 f2 0c 3f a3 a1 88 3d
       -0.0618184 -0.0803103 0.5505718 0.06671455
0002e0 da 7d 74 be 04 b4 32 be 7f 22 50 3e 73 53 13 3e
       -0.23876134 -0.17451483 0.20325659 0.14387302
0002f0 3a d4 60 3e 79 e9 0d 3e 3c aa 86 3e d8 58 c9 3d
       0.21955958 0.13858594 0.26301754 0.09831399
000300 50 7b 30 3e 15 22 fc 3c 06 4d 9f bd 39 48 72 bd
       0.1723454 0.03077797 -0.07778363 -0.05915091
000310 a1 ac 90 be 12 ec ef bd 6e e4 45 3e 6c c8 47 3b
       -0.28256705 -0.11714949 0.1932542 0.003048445
000320 10 72 c0 3c 81 d7 32 be 3a b8 52 bd a4 48 a5 3e
       0.02349189 -0.1746502 -0.051445223 0.32281983
000330 7a cb f0 bd 94 64 c1 bd 79 f1 87 3d cc 49 63 3d
       -0.1175756 -0.09443012 0.06637854 0.0554903
000340 d7 80 3d 3e ce c0 8c 3e 88 bd fd 3d 75 b0 a7 3e
       0.1850618 0.27490848 0.12389666 0.32751814
000350 dd 2f c7 be 67 df b8 3e 0b 5d ac 3c 83 26 17 be
       -0.38903704 0.36107942 0.02104046 -0.14760785
000360 eb c1 3c 3e 2e cc 0a be 2f 02 f2 bd c8 8e 10 3e
       0.18433349 -0.13554451 -0.11816823 0.14116967
000370 ed fd 85 bd ac 0d c9 bd 80 ed 0b be a4 93 11 bd
       -0.06542573 -0.09817061 -0.13664818 -0.03554119
000380 7e cf 00 3f d8 5b 04 bf 55 6b 8e be 31 21 2b 3b
       0.5031661 -0.5170264 -0.27816263 0.0026112313
000390 05 14 24 3e 10 ba 02 be 00 0a b2 be c7 d0 a5 3e
       0.16023262 -0.1276629 -0.34773254 0.32385847
0003a0 7a 2b e6 3d 4b 95 84 bd 67 e2 19 3e 2a 34 b9 bd
       0.11238761 -0.06473788 0.15027772 -0.09043153
0003b0 4b dc fb bd bf 7b c7 3e 17 ce c0 3d 2e 4a 5f 3c
       -0.12297877 0.38961598 0.094143085 0.013628526
0003c0 fe 73 72 3d 5b e9 0a 3e a6 79 19 bd 2b 85 d7 be
       0.05919265 0.1356558 -0.03746953 -0.42093787
0003d0 69 09 16 3e cc 2f 9b 3e 96 5f 4f 3e 66 72 97 3b
       0.14652027 0.30309904 0.20251307 0.0046217917
0003e0 53 56 f4 bd e2 ed ab 3d 24 63 e5 3d b5 f4 66 3f
       -0.119305275 0.08394982 0.1120055 0.90217143
0003f0 fa b2 b0 be f9 73 4b bc d9 4d b3 3e 3a 0b 48 be
       -0.34511548 -0.012417787 0.3502033 -0.19535533

Q1.2.bias f4 [256]
000000 08 49 dd bf 1c 5a 6c bf 27 37 9b 3f af f7 d2 3f
       -1.7287912 -0.92324996 1.2126206 1.6481837
000010 eb 2e d4 bf e1 f1 b6 3f 73 96 00 40 38 b5 48 bc
       -1.6576818 1.4292566 2.0091827 -0.012250237
000020 03 5b 2a bf 67 4c fb 3f 54 ac a4 bf 4f ef cb 3f
       -0.6654512 1.9632691 -1.286509 1.5932406
000030 45 64 fd 3f 97 4e b4 bf 36 df b9 bf a6 3b da 3f
       1.9796225 -1.4086484 -1.4521244 1.7049453
000040 46 08 98 bf 28 b5 c5 bf d7 24 9d bf db 38 e1 3f
       -1.1877525 -1.544591 -1.2276868 1.7595476
000050 0d ca f8 3f c1 b7 a5 bf 3a 20 fd 3f f4 f1 90 bf
       1.9436661 -1.2946702 1.977546 -1.1323838
000060 f0 a2 f2 3f aa 59 a8 bf 95 cb f3 3f d9 34 cb bf
       1.8955975 -1.3152363 1.9046503 -1.5875503
000070 04 97 92 bf bd bc e0 3f c1 15 bb bf 1f 35 aa bf
       -1.1452336 1.7557598 -1.4616014 -1.3297461
000080 d3 d2 d5 3f e5 e0 cb 3f 94 0f a1 3f 26 ca 61 bf
       1.6704963 1.5928007 1.2582879 -0.8819908
000090 de af ed 3f 77 61 97 bf e0 66 f7 3f 18 b0 d8 3f
       1.8569295 -1.1826619 1.932827 1.692874
0000a0 f2 41 a8 bf 39 14 8a bf d7 7f f3 3f a4 68 a9 bf
       -1.3145125 -1.0787421 1.9023389 -1.3235059
0000b0 ca 49 7d bf 89 21 bd bf ea e4 f4 3f 55 9a c7 3f
       -0.9894072 -1.4775859 1.9132359 1.5593973
0000c0 e6 f7 c2 bf 86 22 db 3f b2 50 e3 3f a1 6c e4 bf
       -1.5231903 1.7119911 1.7759001 -1.7845651
0000d0 d8 d1 9e bf 5e 74 99 bf 5d fa 72 bf d6 cc e8 3f
       -1.2407789 -1.1988637 -0.94913274 1.8187511
0000e0 e2 0f 9a bf b5 b5 ab bf 2c 64 c1 bf 5c e8 cf bf
       -1.2036097 -1.3414828 -1.5108695 -1.6242785
0000f0 25 b3 9e bf 79 56 fe 3f 3a 99 a6 bf 1b e5 58 bf
       -1.239842 1.9870139 -1.3015511 -0.8472459
000100 45 a1 fd 3f ae e8 e2 3f 0d c4 1f bf d4 a3 df 3f
       1.981484 1.7727258 -0.62408525 1.7471871
000110 86 ec d9 bf 7d c4 f7 3f 2b e5 1e bf 4a 9a fd 3f
       -1.7025306 1.9356838 -0.6206843 1.981271
000120 d2 b6 de 3f 06 c5 cf bf f1 01 f7 3f b4 bc ba 3f
       1.7399542 -1.6232002 1.9297467 1.4588838
000130 85 8e df 3f 22 02 c6 bf 1f ff ea 3f 7b 52 fd 3f
       1.7465369 -1.5469401 1.8359107 1.9790796
000140 87 fc d1 bf 49 d9 29 3f f8 19 e4 3f c8 d2 31 bf
       -1.640519 0.66347176 1.7820425 -0.6946225
000150 dd 69 4f bf 6e f5 fd 3f 10 a8 00 40 34 18 39 bf
       -0.8102091 1.9840524 2.0102577 -0.72302556
000160 2a e1 e6 3f 82 b9 e7 3f e4 b6 c9 bf 32 83 96 bf
       1.8037465 1.8103487 -1.5758939 -1.1758788
000170 e8 7f 8d bf fa 00 91 bf 99 39 60 bf a1 71 a8 bf
       -1.1054659 -1.1328423 -0.8758789 -1.3159677
000180 6e 1e 9a bf 63 2b e9 3f 92 c3 f2 3f 87 68 ff 3f
       -1.2040536 1.8216366 1.8965933 1.9953774
000190 19 07 c3 bf 84 f4 c6 3f 87 1b a8 bf e8 16 f7 3f
       -1.5236541 1.554337 -1.3133401 1.9303865
0001a0 f6 88 5a bf 22 c9 93 bf 0f c3 ca 3f eb 93 fa 3f
       -0.85365236 -1.1545756 1.5840777 1.9576391
0001b0 23 5f ed 3f 5e 89 cb 3f 99 1a f4 3f 85 6f be bf
       1.8544658 1.5901296 1.9070617 -1.4877783
0001c0 45 bd ee 3f 6d a4 ab bf bc 5b 4a bf 28 91 eb 3f
       1.865151 -1.3409554 -0.79046226 1.8403673
0001d0 ec 0a eb 3f 27 1c fd 3f 8d 67 cc bf 4d c9 88 bd
       1.8362708 1.9774216 -1.5969101 -0.0667902
0001e0 70 d9 c3 bf 9d 92 c5 bf 3b 78 3b bf ac bc e9 3f
       -1.5300732 -1.5435368 -0.7323033 1.8260703
0001f0 f4 a5 e6 3f 64 ea a1 bf 5e 58 7e bf 8b 26 ab bf
       1.8019395 -1.2649655 -0.9935359 -1.3371137
000200 05 86 bb bf 88 d1 d1 3f f4 8d c4 bf 58 4b 95 bf
       -1.4650275 1.6392069 -1.5355821 -1.1663618
000210 db 67 fa 3f ae bb f5 3f cd f1 ab bf 03 5a 07 bf
       1.9562944 1.91979 -1.3433167 -0.5287172
000220 83 4d bf bf e1 92 ae bf 2e a2 f8 3f 0c 89 c5 bf
       -1.494553 -1.3638574 1.9424493 -1.5432448
000230 22 56 b9 bf d8 76 9c bf cd 93 9d bf ba 69 8d bf
       -1.4479411 -1.2223768 -1.231073 -1.104789
000240 fa 01 e4 3f b5 c3 e6 3f 94 e6 95 bf dd 64 9b bf
       1.7813103 1.8028475 -1.1710992 -1.2140156
000250 6b c6 fe 3f f7 98 d6 bf cc bc cf bf db 25 fe 3f
       1.9904302 -1.6765431 -1.6229491 1.9855303
000260 96 45 cb 3f 50 39 e2 3f aa 5b 43 bf 83 25 c2 bf
       1.5880611 1.767374 -0.76311743 -1.5167698
000270 5c 6d 72 3f e6 df bd bf c7 31 eb 3f 84 3b 55 bf
       0.9469812 -1.4833953 1.8374566 -0.8329394
000280 bf 62 a3 bf c1 0d 04 bf 1a ef fb 3f 8d 8f ba bf
       -1.276451 -0.51583487 1.9682343 -1.4575058
000290 c4 aa 8f bf 7d c8 6b bf 47 20 b3 bf 27 09 a5 bf
       -1.1223989 -0.92102796 -1.3994225 -1.2893418
0002a0 25 95 8e bf a3 c7 61 bf 4a bb e4 3f 34 0d 81 bf
       -1.1139265 -0.88195246 1.7869656 -1.0082154
0002b0 21 69 b7 bf 2b 31 da 3f e1 c6 01 40 c2 49 dd 3f
       -1.4328958 1.7046255 2.0277636 1.7288134
0002c0 22 47 f2 3f 4d 2d e9 3f 0d 1e b0 bf 85 f5 a6 3f
       1.8927958 1.821695 -1.3759171 1.3043677
0002d0 45 60 af 3f 76 60 c3 bf a3 e3 a6 bf cf 64 89 bf
       1.3701254 -1.5263813 -1.3038219 -1.0733889
0002e0 3d e1 ea 3f c4 95 2c bf 50 38 e9 3f 74 fb a9 bf
       1.8349987 -0.67416024 1.822031 -1.3279862
0002f0 6d 06 a9 bf 2c 2b 8f bf fc b4 79 bf 71 ec 8e bf
       -1.3205086 -1.118505 -0.97541785 -1.1165906
000300 59 62 d7 3f 3b 4a bd bf d6 cf a5 bf 79 40 fa 3f
       1.6826888 -1.4788278 -1.2954051 1.9550925
000310 7c c4 f1 3f 3c 31 f6 3f 5d c5 fc 3f 1c dd c9 3f
       1.8888087 1.9233775 1.974773 1.5770602
000320 ee f3 de 3f d0 d8 e6 3f e0 48 8d 3f 18 f4 e5 3f
       1.7418191 1.8034916 1.1037865 1.7965117
000330 e9 64 d3 3f df 1f ba bf 9a df ae bf 0a 84 04 bf
       1.651517 -1.4540976 -1.3661988 -0.51763976
000340 ae f8 a1 3f 1b 16 ff 3f ce df c4 3f 70 b5 97 bf
       1.2654016 1.9928621 1.53808 -1.1852245
000350 b0 9f d5 bf e5 9f f6 3f 8e d3 c4 bf af a6 be bf
       -1.6689358 1.9267546 -1.5377061 -1.4894618
000360 93 4e d8 3f 8d 40 b9 bf 91 5d eb 3f 80 c8 f2 3f
       1.6898979 -1.4472824 1.8387929 1.8967438
000370 e9 23 01 3f f8 80 2f bf 02 43 cb bf cf 2d ff 3f
       0.5044542 -0.68556166 -1.5879824 1.9935855
000380 ac f7 fa 3f 96 b4 f7 3f e5 9b c3 bf a2 46 e1 3f
       1.9606833 1.9351985 -1.528195 1.759968
000390 05 d9 87 bf ef fa f6 3f df 89 b7 3f 0d 06 e0 bf
       -1.0613104 1.9295329 1.433895 -1.7501847
0003a0 77 1d c2 bf ff 61 8d bf c5 dc ca bf 1f 86 eb 3f
       -1.5165242 -1.1045531 -1.5848624 1.8400306
0003b0 34 da eb 3f 10 1c 96 bf 89 ee f5 3f ca c9 c1 3f
       1.8425965 -1.1727314 1.921342 1.5139706
0003c0 90 f6 9a bf ab c6 ea 3f eb b7 69 bf 0d 5e f8 3f
       -1.2106495 1.8341879 -0.9129626 1.9403702
0003d0 dd 6f ca 3f 0b e9 0c bf c4 53 fe 3f f8 b3 fd 3f
       1.5815388 -0.55043095 1.9869313 1.9820547
0003e0 64 b4 66 bf 1a 39 d0 3f 61 78 b9 bf 89 34 d0 bf
       -0.90119004 1.6267426 -1.4489862 -1.6266032
0003f0 3b 4a e4 3f b6 33 95 3f 27 7a e1 3f 8a 4f 0f 3e
       1.7835153 1.1656406 1.7615403 0.13995185

Q1.4.weight f4 [1, 256]
000000 2c 7d 31 bf 17 a3 c4 c0 f8 9f 07 40 ca 29 da 3f
       -0.6933162 -6.1449084 2.1191387 1.7044003
000010 1c 45 db be 2f f0 41 3f 95 75 7b 3e ea 6e 87 3c
       -0.42826164 0.75757116 0.24556573 0.01653238
000020 ab 7e ac c0 18 35 89 3e 31 e6 f0 be 72 f8 d2 3f
       -5.3904624 0.2679832 -0.47050622 1.648207
000030 9a dd 7e 3e 4c 61 06 c0 3f bc 55 bf 8d 2b e3 3e
       0.24889222 -2.0996885 -0.83490366 0.44369164
000040 94 ed 94 bf 6d 02 c1 be 3f 33 bc bf 15 36 62 3e
       -1.1635003 -0.37697163 -1.4703139 0.22090943
000050 bf 83 7a 3e 20 24 67 c0 4d 75 8e 3e 76 f6 9c c0
       0.2446432 -3.61158 0.27823868 -4.9050856
000060 2e 43 4a 3e f4 dd 48 bf 32 41 75 3e e2 64 0f bf
       0.1975219 -0.78463674 0.23950651 -0.5601331
000070 1b 31 24 c0 a2 00 3a 3f 5c 4d 45 bf 01 ca 48 bf
       -2.5654972 0.72657216 -0.77071166 -0.78433233
000080 36 4f 57 3f 6b 2f 0c 3f b7 59 60 3f c1 5b 53 c0
       0.8410524 0.54759854 0.87636894 -3.3024752
000090 c2 66 9c 3e 75 af 61 c0 91 33 8d 3e e7 0c 2e 3f
       0.30547148 -3.526334 0.27578405 0.6798844
0000a0 ad ce a2 bf 0e 69 29 bf 9f 3a 6d 3e da 5c af bf
       -1.2719322 -0.66175926 0.23166893 -1.3700211
0000b0 94 5a f4 bf 03 b5 51 bf ba d2 78 3e 49 45 02 3f
       -1.9090142 -0.81916827 0.24299136 0.5088697
0000c0 26 55 1e c0 a4 58 eb 3e b8 01 f1 3e 7b e2 70 bf
       -2.473947 0.45966065 0.47071624 -0.9409558
0000d0 e0 69 23 bf 30 27 2f bf 31 04 c5 c0 fa 0a b8 3e
       -0.6383343 -0.6841917 -6.1567616 0.35945874
0000e0 59 7d 52 bf cb 81 1c c0 8d 05 97 bf 92 0d 27 bf
       -0.82222515 -2.445422 -1.1798569 -0.6525508
0000f0 07 a7 b3 bf 9e 37 91 3e cb 61 72 bf cc 40 b8 bf
       -1.4035348 0.28362745 -0.9468047 -1.4394774
000100 c7 ff 61 3e 78 39 d0 3e a1 d1 04 c1 d9 7a dc 3e
       0.22070228 0.40668845 -8.301179 0.43062475
000110 0b e9 d5 be 70 bf 54 3e 20 c9 06 c1 97 fd 5d 3e
       -0.4177936 0.20776153 -8.424103 0.21678768
000120 19 a0 a5 3e 4c 27 91 bf 1e 3f 63 3e a7 38 a2 3f
       0.32348707 -1.1340117 0.22192046 1.2673539
000130 f4 6b 03 3f d3 18 0e bf 5e fb b3 3e 9e 7a 64 3e
       0.513366 -0.5550663 0.35152715 0.223124
000140 9a 94 27 bf f5 84 ae 3f d4 be ca 3e 08 49 01 c0
       -0.65461123 1.3634325 0.39598715 -2.0200825
000150 97 4d b2 c0 5d bd 76 3e 13 de 82 3e 70 c5 04 c1
       -5.5719714 0.24095674 0.25560054 -8.2982025
000160 b5 62 97 3e e8 b7 00 3f 7c 40 3a bf 1a a4 13 c0
       0.29567495 0.5028062 -0.72754645 -2.306891
000170 5b 91 c5 bf 4b 60 75 bf ff 25 6b bf c4 b0 b1 bf
       -1.5434984 -0.95850056 -0.9185485 -1.388207
000180 5e 7a 60 bf 33 08 1d 3f 5e 1d 89 3e 6c 50 96 3e
       -0.8768672 0.61340636 0.26780218 0.29358232
000190 05 2f 2d bf b3 ff 4a 3f 7c d4 44 c0 01 65 7d 3e
       -0.6764987 0.79296416 -3.075469 0.24745561
0001a0 3c 5f 83 bf 4e e6 1a c0 ea 87 ef 3e 47 74 84 3e
       -1.0263438 -2.4203067 0.46783382 0.25869963
0001b0 92 36 8d 3e 6d 29 e9 3f 52 89 67 3e e0 69 44 bf
       0.27580696 1.8215767 0.22610977 -0.7672405
0001c0 12 a8 97 3e 79 30 82 bf 1f 90 99 bf a7 26 7e 3e
       0.29620415 -1.0171043 -1.1997107 0.24819432
0001d0 b1 25 62 3e cc 86 6b 3e a7 0a 26 bf 6d 19 4d 3b
       0.2208469 0.2300064 -0.64860004 0.0031295673
0001e0 1d f6 f7 be 8a 3c 25 bf a1 c5 07 c1 04 f2 aa 3e
       -0.48429957 -0.645455 -8.485749 0.33387768
0001f0 e5 6e a2 3f 57 b5 3f bf 82 2d 3f c0 1c 06 4f bf
       1.2690092 -0.7488608 -2.9871526 -0.808687
000200 33 5c 3d bf 17 dc 3c 3f c0 45 fd be 2f aa 3e c0
       -0.7396881 0.7377333 -0.49467278 -2.9791372
000210 3c 9f 80 3e 41 7e 8f 3e 67 a1 5a bf ac 61 3e c1
       0.25121486 0.28026012 -0.8540253 -11.898846
000220 2b da 5b bf db 6f 81 bf 80 63 91 3e ec d6 3f bf
       -0.8587977 -1.011226 0.28396225 -0.7493732
000230 9c c7 e1 be f6 54 46 bf 33 30 3c bf d1 71 88 bf
       -0.44097602 -0.7747339 -0.73511046 -1.0659734
000240 f4 73 dd 3e bd b2 8d 3e 41 a2 62 bf 5c 72 ba bf
       0.43252528 0.2767543 -0.8852883 -1.456615
000250 2e f6 7a 3e 57 4a 0b bf 16 31 35 bf 2e da 8e 3e
       0.24507973 -0.5441031 -0.70778024 0.27900833
000260 c3 b3 cd 3e cc 1a fb 3e a1 a5 47 c0 9a dc 8d bf
       0.4017621 0.49043882 -3.1194842 -1.1082947
000270 1a 32 46 40 e7 53 04 bf 6c 0d 93 3e 7a f2 fb bf
       3.096808 -0.51690525 0.28721178 -1.9683373
000280 f9 bc ea bf f3 47 df c0 8a df 90 3e 74 4b 46 c0
       -1.833892 -6.977533 0.28295547 -3.0983553
000290 ed 95 3a c0 0a 54 b4 c0 b8 93 6d bf af c8 7d bf
       -2.9154007 -5.6352587 -0.92803526 -0.99134344
0002a0 71 43 19 bf 0a 7c 28 c0 c6 27 c3 3e d4 25 74 bf
       -0.5986853 -2.6325707 0.38116282 -0.9537022
0002b0 fd f0 f4 bf 3f 0f c9 3e bf e7 90 3e 5c d8 f8 3e
       -1.9136044 0.39269444 0.28301808 0.4860257
0002c0 68 5f 67 3e 8b 75 b3 3e a8 18 8b bf cf ec 31 3f
       0.22594988 0.35050616 -1.08669 0.69501966
0002d0 2c 54 35 3f 85 61 5b bf f0 0c 99 bf 88 82 5c bf
       0.7083156 -0.8569568 -1.1957073 -0.86136675
0002e0 59 90 3a 3f c4 57 b0 c0 fe eb b5 3e 93 ea 28 c0
       0.7287651 -5.5107136 0.3553161 -2.6393173
0002f0 2c cf 1f bf ef 1a a2 bf 72 7a 20 c0 b6 d0 90 bf
       -0.62425494 -1.266447 -2.5074735 -1.1313694
000300 24 ca 36 3f 45 93 fd be 1a 69 99 bf 1b fe 8b 3e
       0.7140219 -0.4952642 -1.19852 0.27342305
000310 b6 c4 48 3e fa 72 c0 3e 89 35 7c 3e 9f 10 e2 3e
       0.1960629 0.3758772 0.24629797 0.44153306
000320 67 b3 27 3f db 25 ac 3e e6 14 bb 3f 7d 14 02 3f
       0.6550812 0.3362263 1.4615753 0.5081251
000330 92 c3 be 3e ac 8c e3 bf d9 e8 85 bf 54 88 d9 c0
       0.37258583 -1.7777305 -1.0461684 -6.7978916
000340 33 a9 2a 3f 4a cb 8e 3e 6b 23 a8 3f 23 48 9a bf
       0.6666443 0.27889472 1.3135809 -1.2053264
000350 ff c4 91 be 77 bf c7 3e 4c 25 1d bf 26 cf 81 bf
       -0.2847061 0.39013264 -0.61385036 -1.0141342
000360 b6 22 45 3f 82 7e 28 bf 37 d1 a5 3e 7c 0d 94 3e
       0.7700609 -0.65818036 0.3238618 0.28916538
000370 3c 20 18 40 08 42 44 c1 9f e1 0e bf 67 0c 87 3e
       2.3769674 -12.266121 -0.5581302 0.2637665
000380 1a e1 80 3e 9c af 84 3e e9 bb 15 bf 12 6f 82 3e
       0.2517174 0.2591523 -0.58489853 0.25475365
000390 a9 9a 91 bf 3d 8c 72 3e 40 2c 14 3f 8b 76 44 bf
       -1.1375324 0.23686309 0.5788002 -0.7674338
0003a0 e3 cc cc be 31 90 4e bf e6 cd 98 bf 58 fc d9 3e
       -0.40000066 -0.8068877 -1.1937835 0.42575336
0003b0 df 35 88 3e 4a a2 e5 be bc 23 7e 3e 14 a8 1b 3f
       0.266036 -0.4485038 0.24818319 0.6080334
0003c0 63 61 2b bf 56 50 6d 3e 81 9c d2 c0 bc 7a 84 3e
       -0.66945475 0.23175177 -6.5816045 0.2587489
0003d0 79 05 0b 3f 8d d6 df c0 8e 13 73 3e 55 9c 72 3e
       0.54305226 -6.9949403 0.23737928 0.23692448
0003e0 d5 db fe bf dd 27 eb 3f 6d 53 01 bf 79 ef 0e bf
       -1.9910837 1.837154 -0.5051792 -0.55834156
0003f0 a3 39 b4 3e f4 e6 99 40 93 2e ea 3e 8d 6e a5 40
       0.35200223 4.8094425 0.45738658 5.169745

Q2.0.weight f4 [256, 23]
000000 b7 c3 4a 40 6e a9 19 be 15 e0 52 3f d5 79 e2 be
       3.1681955 -0.15006039 0.8237317 -0.44233575
000010 af 62 42 3d 35 1a 7b be c5 d2 26 c0 8d 2c 06 c0
       0.047457393 -0.24521716 -2.6066144 -2.0964692
000020 11 e6 c4 be 78 c1 78 be f8 f0 34 3e c2 bc d2 3c
       -0.38456777 -0.24292552 0.17670047 0.025724772
000030 78 17 71 3d b0 c8 67 bc a6 b9 5d bd c4 38 04 bd
       0.058860272 -0.014146969 -0.054132126 -0.0322807
000040 fd d7 ea bc 65 23 91 bf 30 7c f4 bd d0 28 d8 bc
       -0.028667444 -1.1338927 -0.119377494 -0.026386648
000050 58 75 0d c0 71 10 43 3f 47 68 b7 3e 80 85 86 3f
       -2.210287 0.7619696 0.35821745 1.0509491
000060 fe 66 7e 3d eb e8 fc be a8 2f 43 be 90 53 d1 be
       0.06210994 -0.49396452 -0.19061148 -0.40884066
000070 f7 3b 2f 3f 42 b3 23 3e a2 b0 f8 be a9 a9 9c be
       0.68450874 0.1598635 -0.4857226 -0.3059819
000080 1d 2d 70 3e ab d8 4a 3d 10 89 ea 3b d5 9f 85 be
       0.2345471 0.049523037 0.0071574524 -0.26098505
000090 ad 65 12 3d 0f d8 00 bd 2d 8c c3 3d eb 0d e6 3d
       0.035741497 -0.03145605 0.09548221 0.112331234
0000a0 9c 91 dd 3e 50 1e 05 bf 28 d1 35 be 0a bb a7 3e
       0.43275154 -0.5199938 -0.17755568 0.32759887
0000b0 4c d1 8a 3e 4b 04 83 bd 38 fe 6b bd 6d 41 80 be
       0.27112806 -0.06397303 -0.05761549 -0.25049916
0000c0 68 d9 93 3e 06 44 41 3f 7a 06 74 bf c3 a6 43 bf
       0.28876805 0.7549442 -0.9532238 -0.76426333
0000d0 a7 87 fb be 22 b7 46 be ca 34 32 be 15 52 4f bf
       -0.49126932 -0.19405797 -0.1740295 -0.8098462
0000e0 75 bc c6 be 2b fa 3c 3d 4e 21 9e bd cb 30 44 bc
       -0.38815656 0.046137016 -0.07721196 -0.011974524
0000f0 93 bd 83 bd 55 f9 6b 3d f3 db 97 3b 86 b8 47 bf
       -0.06432643 0.05761083 0.0046343743 -0.78015935
000100 91 54 66 3d 37 88 15 be d5 9a 17 3f 6a 15 b2 bc
       0.056232993 -0.14602743 0.5922063 -0.021738727
000110 9c d5 bc bc 2e 9d 30 40 1e 7a d6 3f 8e ce 0d bf
       -0.023051076 2.7595935 1.6756017 -0.553933
000120 0b 62 41 3f 02 de 06 c0 95 29 aa bf e4 4a 0b bf
       0.75540227 -2.1073003 -1.329394 -0.5441115
000130 df e3 54 bd bb e2 8b bd 55 fd 05 3f 5f e3 c9 3e
       -0.051975127 -0.06830355 0.5233968 0.39431283
000140 cf 37 68 bc 4a dd c0 3a b8 55 af bc 48 bb 41 3b
       -0.014173462 0.0014714387 -0.021403179 0.0029561091
000150 b4 1b 12 3a ee fe 7d bc 44 a9 ce be 8c df 55 bf
       0.0005573586 -0.0155026745 -0.40363514 -0.8354423
000160 b5 6d 7d bd 58 1b a0 3d 14 4e 15 be 02 43 1d be
       -0.061872203 0.078177154 -0.14580566 -0.15357593
000170 99 10 2e c0 7d cd 4c 3f 20 23 2b 3f 24 51 a4 be
       -2.719763 0.8000105 0.6685047 -0.32093155
000180 81 c9 8d be aa 8a 11 be 57 a9 1a bf 57 08 33 bf
       -0.27692798 -0.14213052 -0.6041464 -0.699346
000190 04 c2 cc 3d 1b d3 ac 3b 76 c6 17 bf 38 1f b9 bd
       0.09997943 0.005274189 -0.592872 -0.09039158
0001a0 64 6d 86 bd dc d2 6c 3d a3 a2 72 bd e0 0e 92 bd
       -0.06563833 0.05781828 -0.059237134 -0.071317434
0001b0 30 9a 80 3c b9 d3 ab 3c f3 60 d6 3e 17 30 1d bd
       0.015698522 0.02097498 0.4187084 -0.03837594
0001c0 79 b3 12 bf 52 e4 ae 3e 36 9f 81 3e 7e 80 46 40
       -0.57305104 0.3415857 0.2531678 3.1015925
0001d0 31 d4 87 3e 90 48 b8 be 5c 75 e9 3f 41 13 de 3f
       0.26529077 -0.3599286 1.823894 1.7349626
0001e0 a3 1c 91 3f 78 14 86 bf cf b2 1a 3e d8 c2 c8 bb
       1.1336864 -1.0474997 0.15107273 -0.006126743
0001f0 c5 af 16 bf 0e f2 ae be 6a ae 17 3c 4e b4 82 3d
       -0.58861953 -0.34169048 0.009257892 0.06382047
000200 05 24 bc 3c 4f 2e f2 bc 99 d3 03 bb e7 06 97 3d
       0.022966394 -0.029563097 -0.0020115136 0.073743634
000210 30 4d 9d be 88 a3 7d bd 51 81 a6 3e 78 e7 75 3e
       -0.30722952 -0.061923534 0.32520536 0.2401408
000220 47 16 cb be ad 7c 55 be 4b d0 8c 3f d4 91 5a 3f
       -0.39665434 -0.20848341 1.1001066 0.85378766
000230 a0 c6 fd 3e 80 c1 bb 3d c6 71 7e 3e 59 2d 7d 3f
       0.495656 0.091677666 0.24848089 0.9889732
000240 55 24 a7 bf 9e 9e b9 bf 60 80 34 bd 96 d3 e7 be
       -1.3057963 -1.4501531 -0.04406774 -0.45278615
000250 bf 84 72 bd 39 9d f0 bb d6 74 8e bd 5f 9c 93 3c
       -0.059208628 -0.007342961 -0.069558784 0.0180189
000260 31 23 66 be c8 07 2b bd 14 67 1c bd f4 e0 38 bf
       -0.22474362 -0.041755468 -0.03818424 -0.7221825
000270 74 4c 12 be d0 08 2a be 4f 4c 65 3e ee 00 7a be
       -0.14286977 -0.16604924 0.2239239 -0.24414417
000280 6c d3 b0 be 90 91 d9 3e 35 f6 c8 3e 9c 08 7e 3f
       -0.34536302 0.42493868 0.3925034 0.99231887
000290 a9 aa 2e be be 60 12 be a9 8e d6 bd f9 68 25 be
       -0.17057289 -0.14294717 -0.10476429 -0.16153325
0002a0 53 49 90 be 13 58 31 bc dc b6 66 3f d7 b8 8c 3e
       -0.28180942 -0.010824221 0.9012277 0.27484772
0002b0 8f e6 70 3e 07 ed 79 3e b5 83 2a 3d 75 4e c1 bd
       0.23525451 0.24406825 0.041629512 -0.094387926
0002c0 19 47 23 bd 3b 57 72 3b 3b a4 03 bf 15 41 91 3e
       -0.039862726 0.0036978263 -0.5142247 0.28369966
0002d0 bd 5e 37 bd c2 cb f6 3e 0a 9b bd be 40 28 4c be
       -0.044768084 0.4820233 -0.37032348 -0.19937229
0002e0 9a 13 61 3f 2e 28 02 bf cb 91 90 3f 52 dd 5e bf
       0.87920535 -0.5084256 1.1294492 -0.8705646
0002f0 26 f8 9f 3c e5 a4 b0 bb f2 71 09 bf ee 09 44 be
       0.019527506 -0.0053907507 -0.5368949 -0.19144413
000300 4d a3 82 bd 92 a6 80 3d 24 1f 4b be 70 77 05 3d
       -0.063788034 0.06281771 -0.19836098 0.032584608
000310 b9 fa 87 bc 8c 8e 15 bc cc 61 d1 bc 4e 49 12 bd
       -0.016599046 -0.009128224 -0.025559328 -0.03571444
000320 d0 69 91 bc 23 8e ef be 15 43 e6 3e 37 5a 77 3e
       -0.01775065 -0.4678813 0.44973055 0.24155508
000330 61 0f 36 bf 51 a5 0a be a5 3c 12 bd dd 2d ed bd
       -0.71117216 -0.13539626 -0.035702366 -0.11581013
000340 78 16 c9 3f e0 9c df 3c 15 a5 1e bf 1a 93 82 be
       1.5709982 0.027296484 -0.61970645 -0.25502855
000350 b5 aa b9 bc 47 ec 95 3e e6 c3 2c 3f de 8a 20 3e
       -0.022664407 0.29281828 0.6748642 0.15677974
000360 5d b0 69 be db 8b 5a 3e b4 13 76 3d c1 81 a2 3a
       -0.22821184 0.21342413 0.060077384 0.0012398289
000370 fd 40 22 bd fa 3a 29 3c 0d 20 a2 bd f6 13 7f bd
       -0.03961276 0.0103290025 -0.079162695 -0.062274896
000380 93 9a be be fe 83 77 3e 80 0b bd 3c 9d 1f 77 be
       -0.37227306 0.24171445 0.023076773 -0.24133153
000390 fd 09 15 3f d7 10 67 bd 0d c8 36 be f6 72 f7 3e
       0.58218366 -0.056412544 -0.17849751 0.48329896
0003a0 ae 1c a5 bf 55 c8 ff 3e 96 ce de 3e 40 07 32 40
       -1.2899377 0.4995753 0.43516988 2.7816925
0003b0 fc 1d 1a 40 5d b0 28 3f 58 f4 c4 bd 70 74 a4 bd
       2.40808 0.6589411 -0.09616917 -0.08030021
0003c0 b1 75 23 be d5 ff 59 bd 2b 65 66 3d 4c 7f 0c bd
       -0.15962864 -0.053222496 0.056248825 -0.034301087
0003d0 9f d7 3b be f8 98 0a be 02 8c 7c bd 98 5e d3 be
       -0.18343972 -0.13534915 -0.06165696 -0.41283107
0003e0 36 0f 40 bf 99 5a 5c be 1f 63 0b 3d 6e 1f 98 3e
       -0.7502321 -0.21518935 0.034030076 0.2971148
0003f0 2c fe db be 08 31 80 be 28 28 dc 3e 60 8c 10 40
       -0.42967355 -0.25037408 0.42999387 2.2585678

Q2.0.bias f4 [256]
000000 1d 1d 4d be 23 f9 b4 bf e5 cd c6 3f 3d 33 80 bf
       -0.20030637 -1.413853 1.5531584 -1.0015637
000010 26 68 2f 3e aa b4 19 3f 45 98 6d bf 95 a9 8b bf
       0.17129573 0.60041296 -0.9281047 -1.0911127
000020 49 c6 b8 3f 80 31 ac bf 35 24 b6 bf 6a 59 72 bf
       1.4435512 -1.3452606 -1.42298 -0.94667685
000030 1b 59 8b be 07 cc 69 3f fe 1f 4c 3f 47 da d6 bf
       -0.2721642 0.91326946 0.79736316 -1.6785363
000040 74 ec a3 3f cb 0a a4 3f 32 25 60 3f d5 ae 87 bf
       1.2806535 1.2815794 0.87556756 -1.060023
000050 5e 1f d6 3f 6c e1 c9 3e 44 db 64 bf 22 37 46 3f
       1.6728323 0.39429796 -0.8939707 0.77427876
000060 fa 9d 62 bf be bc 01 3f 23 35 93 3f 5d cd 9b bf
       -0.88522303 0.5067862 1.1500591 -1.2172047
000070 dd 9c 82 3f a5 37 46 bf 01 a8 aa 3f ef 51 22 bf
       1.0204121 -0.77428657 1.3332521 -0.6340627
000080 be c8 74 bf 65 80 d6 3f 1d 86 a1 bf 50 5f 60 3f
       -0.9561881 1.6757933 -1.2619053 0.87645435
000090 bb 9f 67 bf b8 31 c4 bf b5 c6 ce 3f 46 2e 19 3f
       -0.90478104 -1.5327673 1.615439 0.5983623
0000a0 9b 61 9d bf e6 9e ce bf 64 e3 c0 3f 6f e9 cb bf
       -1.2295412 -1.6142242 1.5069394 -1.5930613
0000b0 84 4c c9 bf c1 1e e4 3e 3b 40 6c 3f 50 ae ab bf
       -1.5726476 0.44554713 0.9228551 -1.3412571
0000c0 a2 03 d6 bf ec 25 df 3e f7 40 20 c0 b4 86 b8 3f
       -1.6719859 0.4358362 -2.5039651 1.4416108
0000d0 c4 9a 96 3f 46 ec 85 3f 44 34 ac be 37 78 18 bf
       1.1765981 1.046273 -0.33633626 -0.59558433
0000e0 88 fd 83 bf 36 fd e5 bd 9a 3f d2 bf e2 29 a6 bf
       -1.0311747 -0.11229937 -1.642566 -1.2981532
0000f0 82 f1 a7 bf bc b6 9c bf 67 48 00 c0 58 4c 14 c0
       -1.3120577 -1.2243266 -2.004419 -2.3171597
000100 94 ce ab 3f 44 35 d4 3f 1e f7 09 3f 1f e4 b8 bf
       1.3422418 1.6578755 0.53892696 -1.4444617
000110 b4 a1 78 bf 82 44 42 bf 91 c6 cc 3f 0d 36 6b 3e
       -0.9712174 -0.75885785 1.5998098 0.22969837
000120 f5 af d4 3e 7b 7b e7 be ef 03 03 3f 70 4d de 3f
       0.41540495 -0.45211396 0.5117788 1.7367382
000130 2f 75 10 40 23 00 3c bf ae b5 5a bf 97 92 9b 3f
       2.2571523 -0.7343771 -0.8543347 1.2154111
000140 db 6e 39 3f b9 c5 6b be 5f fb d0 3f f0 22 c9 bf
       0.7243478 -0.23024644 1.6326712 -1.5713787
000150 fb 74 35 be 1d 38 f7 bf de e9 b1 3f 0d 3c 82 bf
       -0.17720406 -1.9314 1.3899496 -1.0174576
000160 b4 38 3c bf 05 24 7e bd c0 c9 87 bf d2 ea b2 3e
       -0.7352402 -0.06204607 -1.0608444 0.3494478
000170 61 d1 9c 3f a8 c5 88 bf 26 fa 5b 3f 84 25 5c bf
       1.2251397 -1.068532 0.8592857 -0.85994744
000180 44 e4 85 bf 7d 9b 57 3f 2e 94 bb bf f7 59 c2 3f
       -1.0460286 0.8422163 -1.4654596 1.5183705
000190 80 bb 52 3f 3c 5b e6 3f fb 49 9a bf c0 ca a8 bf
       0.8231735 1.7996593 -1.2053827 -1.3186874
0001a0 a0 4c 96 3f 9a 13 99 bf dd 9e a9 bf 5f 2d 26 c0
       1.1742134 -1.1959107 -1.3251606 -2.5965192
0001b0 3a 6f 9c 3f d0 b3 0a bf 54 8c dd 3f 9a 50 2b 3f
       1.2221444 -0.5418062 1.730845 0.66919863
0001c0 c7 a3 01 bd c6 35 86 3f 08 9f ab bf 6d 1c e1 bf
       -0.03165033 1.048516 -1.3407907 -1.75868
0001d0 0d 37 cc 3f 7a 92 aa 3f 3c a0 25 3d c7 ef 27 c0
       1.59543 1.3325951 0.040436015 -2.6240098
0001e0 d1 d0 85 3e 91 8f 80 3f 07 03 d2 3e 66 bf 90 3f
       0.26135877 1.0043813 0.41017935 1.130841
0001f0 17 f9 b4 bf cd 3b 8f bf 08 2a 76 bf 66 88 c6 3f
       -1.4138516 -1.1190125 -0.96157885 1.5510375
000200 77 bd 14 c0 d3 c9 30 bf 02 f4 02 c0 27 66 38 3f
       -2.324064 -0.6905796 -2.046143 0.7203087
000210 26 b9 b7 3f ff a1 b3 3f 82 fa db 3f e0 fb 05 3e
       1.4353378 1.4033812 1.7185824 0.13084364
000220 0e e4 4d bf d6 d6 a5 3d 5a 75 b8 3f ae 6d 71 bf
       -0.8042611 0.08097617 1.4410813 -0.9430798
000230 e3 47 90 bf 68 3f 26 bf 78 11 74 bf b2 33 e7 be
       -1.1271938 -0.649405 -0.95339155 -0.45156628
000240 17 d0 d6 3f ad f0 1e 3e cb 18 d7 3f fe 01 bb 3f
       1.6782254 0.15521498 1.6804441 1.4609983
000250 92 ed ae bf 34 66 4b bf ec 9b 20 bf 4d 88 28 bf
       -1.3666251 -0.79452825 -0.6273792 -0.6583298
000260 9a f6 6e 3f ac 48 98 3f a6 3b 78 3d 1a ad bf 3f
       0.93345034 1.1897178 0.06060376 1.4974701
000270 48 dc 0e c0 b4 ff c8 bf d3 24 b2 3e 6b 6f 3f 3f
       -2.232195 -1.5703034 0.3479372 0.74779385
000280 b7 1c 96 bf eb 58 51 bf b3 a7 a1 bf 50 64 b3 3f
       -1.1727513 -0.81776303 -1.2629303 1.4014988
000290 b5 e0 c3 bf 82 82 98 3f b0 3e 94 3f 38 92 22 3e
       -1.530295 1.1914828 1.1581631 0.1587609
0002a0 22 31 dd bf e7 b6 0d 3f 8f 32 e8 3f 02 93 de 3e
       -1.7280619 0.5535721 1.8140429 0.43471533
0002b0 ff 0a 18 3f 39 45 d3 be df 17 a8 bf b3 14 c6 3d
       0.5939178 -0.4126375 -1.3132285 0.09671917
0002c0 9d da 0b 3f ca ec 98 3f 11 7d b3 3f a2 b6 85 3f
       0.5463045 1.1947262 1.4022542 1.044636
0002d0 cd 50 50 3f 68 58 ab 3f b5 0c 99 3d 6b 9e 17 3f
       0.8137329 1.3386354 0.07473127 0.592261
0002e0 e1 d4 13 3e 57 36 92 bf 22 5e 61 3f 10 2f a7 be
       0.14436676 -1.1422833 0.8803426 -0.32653093
0002f0 18 a5 9b 3f de a7 6a bf e2 f2 a8 bf e0 7f cb bf
       1.2159758 -0.91662395 -1.3199122 -1.5898399
000300 4c bf bc bf c8 d2 fb 3e df c9 e5 be 51 da 39 bf
       -1.4745879 0.4918425 -0.44880578 -0.7259875
000310 6e a1 c8 bf 12 20 0b c0 4d 02 b5 3f 85 a6 41 3f
       -1.5674264 -2.1738324 1.4141327 0.75644714
000320 54 28 36 3f 7c ce 6a bf 07 3c 91 bf 4b ac d3 bf
       0.71155286 -0.9172132 -1.1346444 -1.6536955
000330 d0 79 50 3e 65 a2 d6 3f 82 e9 97 3f 35 64 cd 3f
       0.20358968 1.6768309 1.1868136 1.6046206
000340 05 eb 57 3f fd 20 eb bf 7b 9f 40 bf 0f e4 10 3f
       0.84342986 -1.8369442 -0.7524335 0.5659799
000350 fd 92 e8 bf 89 4f 9b be 18 fa 01 c0 cb 5a 00 bf
       -1.8169857 -0.30334118 -2.0308895 -0.5013854
000360 b9 19 6b 3f 2e ac 99 bf 43 6b 9e bf e0 e7 c3 bf
       0.91836125 -1.200567 -1.2376484 -1.5305138
000370 fa 15 d9 3f 7e 61 9f bf 92 1b 3b bf 54 57 7f bf
       1.6959832 -1.2451627 -0.73088944 -0.9974263
000380 5a 9a ee be 97 4b 03 40 e0 29 17 3e 16 fd 84 3f
       -0.46602136 2.0514886 0.14762068 1.0389736
000390 97 0d b3 be ea f8 f1 3f 00 5d a1 3f ca 01 bd bf
       -0.34971306 1.8904088 1.2606506 -1.4766171
0003a0 76 6e 77 3f f8 23 e8 be 8c 20 b9 3f e9 8f 7a 3f
       0.96652925 -0.45339942 1.4463058 0.9787584
0003b0 f9 8d 9d bf 04 7a a8 3f 0c 7b fb 3d 34 bb 9d bf
       -1.2308952 1.3162236 0.12279329 -1.2322755
0003c0 0a 48 de 3f 55 67 cf 3e 9c 60 7a 3f e7 4e 04 3e
       1.7365735 0.40508524 0.97803664 0.12920724
0003d0 05 04 e0 bf 8c c6 8c bf ee 42 e0 bf 08 05 c0 bf
       -1.7501227 -1.0998092 -1.7520425 -1.5001535
0003e0 10 d2 18 bf b4 b2 a8 bf 02 03 e4 3e c6 23 c5 be
       -0.5969553 -1.3179536 0.44533545 -0.38503855
0003f0 17 d2 85 3f a7 2e 56 bf 02 7e d0 bf e9 18 d0 3e
       1.0454739 -0.83664936 -1.6288455 0.40644005
