trained_models/HalfCheetahNormal-v3/sac/critic_5.pt (torch, 582018 bytes, 10 tensors)

Q1.0.weight f4 [256, 23]
000000 e6 27 91 3f cb 7a 49 3e 66 76 e4 3e e4 86 37 bf
       1.1340301 0.19675748 0.4462158 -0.716902
000010 b9 0c ef 3e d3 30 de be 75 2a 67 3f 1f ec 5f 3f
       0.46689394 -0.43396625 0.9029916 0.8746967
000020 16 bc a7 be 7b 51 03 40 e6 e6 59 3e c4 04 6e 3c
       -0.32760686 2.0518482 0.21279487 0.014527503
000030 b4 88 bd bd 52 cd 08 3c 93 16 31 3e 76 98 dc bc
       -0.0925459 0.008349733 0.17293768 -0.026928168
000040 bf b3 2d 3e 36 05 8d be 75 0f 95 bf 41 45 d6 3d
       0.16963099 -0.27543038 -1.1645342 0.10462428
000050 8a 48 8f 3f b7 b2 6b 3e 16 db ed be ca df b1 3f
       1.1194012 0.23017393 -0.46456212 1.389642
000060 ed 52 5f 3f 19 16 b7 3e c7 24 7c 3f 9e 67 84 3f
       0.8723591 0.35759047 0.9849362 1.0344121
000070 df d2 99 bf d4 75 85 be 29 31 0a bf 24 22 7b 3e
       -1.2017478 -0.26066458 -0.5398126 0.24524742
000080 02 a9 8d be ad 54 ce bd 98 27 84 bc 34 4c 95 3d
       -0.27668005 -0.100747444 -0.016132161 0.07289925
000090 df aa c8 3d e5 00 24 bd 79 ce c6 3c b1 f0 85 3c
       0.09798216 -0.040039916 0.024268376 0.016350122
0000a0 66 06 5d 3f ac 0e 03 3f 25 38 db 3b ec 99 69 3e
       0.8633789 0.5119426 0.0066900426 0.22812623
0000b0 09 56 a2 3e b1 90 05 3e 04 d6 24 c0 54 5e d4 be
       0.31706265 0.13043477 -2.5755625 -0.41478217
0000c0 4a af 11 3f 8f 89 48 be f4 e5 2c 3f 44 28 93 3f
       0.56908095 -0.19583724 0.6753838 1.1496663
0000d0 0d 50 e0 bf c4 dd e9 3e 16 4f 42 3c c2 96 01 be
       -1.752443 0.45677006 0.011859676 -0.12655166
0000e0 eb 11 df 3e 02 58 07 bc c3 25 47 bc ae 3d 83 3d
       0.43568358 -0.008260729 -0.012154999 0.06408249
0000f0 cc 27 f7 bc 98 8c a5 3b 5b dd b8 3c 09 fb e8 bd
       -0.030170344 0.0050521605 0.022566488 -0.11376006
000100 5f 18 4a 3e 1f 82 45 be 83 c3 56 bd 40 d7 b3 3e
       0.1973586 -0.19287919 -0.05243255 0.3512516
000110 39 e6 50 3d d6 14 19 bf f1 0c d4 3e 0b 89 a4 3c
       0.051000807 -0.5979742 0.41416124 0.020084878
000120 a6 39 33 3d 3b bf dd 3d e4 5a a5 3d 29 4b 2a bd
       0.04375615 0.1082749 0.08073977 -0.041575585
000130 7e 28 0d 3d 24 4a 5c 3e 7f 32 a3 be 49 bb 01 3e
       0.034462444 0.21512657 -0.31874463 0.126691
000140 a1 3c 73 3d 81 c0 4f 3d 6a a6 42 bc 62 d0 e4 3c
       0.059383992 0.050720695 -0.0118804965 0.027931396
000150 36 67 e7 3c 39 b8 2b bd aa 74 de bc 35 60 f0 3d
       0.028247457 -0.041923735 -0.02715524 0.117371
000160 c2 a9 36 bc 2f fa ab be e3 c6 4c be 5f 27 16 3e
       -0.011148872 -0.33589312 -0.19997744 0.14663456
000170 e4 61 5f bf 24 b5 c2 3e 17 5d 8b bf 2d 03 30 bf
       -0.87258744 0.38028824 -1.0887784 -0.68754846
000180 9e a1 b5 3f 74 c4 5f bf e5 cd cc 3f 35 95 be 3f
       1.4189947 -0.8740914 1.6000334 1.4889284
000190 6d bb 40 bc 5a af 4c 3f 0a 06 1f 3d 55 57 1b be
       -0.011763436 0.79955065 0.03882412 -0.15170033
0001a0 e5 ea 7d bd 75 8f 83 bd 4a b8 b9 bd 65 81 32 3b
       -0.06199159 -0.06423847 -0.090683535 0.002723777
0001b0 2d 8f 8e bd 02 f9 b2 be 9f 81 be 3e 3f 5e 00 bf
       -0.06960902 -0.34955603 0.37208268 -0.5014381
0001c0 22 6e aa be 6e 79 13 3e 40 76 b0 be 0f d9 9a 40
       -0.3328715 0.1440179 -0.34465218 4.8389964
0001d0 88 1c 91 c0 17 6f c8 3e cb 65 1e 3d 51 78 71 3e
       -4.534733 0.39147255 0.038671296 0.23581053
0001e0 51 2e 4f bf 55 d8 2d c0 d8 f8 8f be 79 82 1e 3d
       -0.8093005 -2.7163289 -0.2811954 0.038698647
0001f0 de aa f6 3d 37 62 a9 bd d6 6f 6d 3d 25 67 c6 3c
       0.12044309 -0.08270686 0.057967983 0.024219105
000200 67 cb ef ba 83 da 89 bd df b9 a3 bd 6f e3 c0 bc
       -0.0018294872 -0.06731131 -0.079944365 -0.023545949
000210 68 d4 a5 3e 36 a0 fa 3e c1 41 1b 3d 91 35 6d bf
       0.32388616 0.48950356 0.037904505 -0.9265986
000220 f7 17 99 be 58 18 f5 bd 87 87 30 bf 05 3f ec 3e
       -0.29901096 -0.11967534 -0.689568 0.4614183
000230 2c 45 17 c0 3a b5 80 be cf db 28 bf b6 c1 fa bf
       -2.363597 -0.25138265 -0.659604 -1.9590366
000240 48 c3 d9 3e a1 fa df 3e 08 b2 6e bd db 80 64 be
       0.425318 0.43745902 -0.058275253 -0.2231478
000250 b4 91 66 be 8a 95 67 bd f8 3f fe bd 83 34 b3 3d
       -0.22516519 -0.056539096 -0.12414545 0.0875025
000260 33 f6 b7 bd c1 2e cc bb 79 a8 02 bd 83 ae 4e 3f
       -0.08982506 -0.0062311594 -0.03189895 0.80735034
000270 5a 56 54 3d a6 d1 14 bf f9 0d 0a be f6 8e 4b 3c
       0.051840164 -0.581324 -0.13481893 0.012424221
000280 97 31 32 3e b0 1f 8e c0 20 34 19 be 78 65 21 3f
       0.1740173 -4.441368 -0.1496129 0.63045454
000290 67 b7 82 3f 04 75 1e 3f bf 3f 0a bf 7a 9c 68 3d
       1.021222 0.618973 -0.5400352 0.056789853
0002a0 6c bf b7 be 3e b1 f4 bc a2 2a 1c bf 06 19 e5 3e
       -0.3588823 -0.029869672 -0.6100255 0.44745654
0002b0 c7 78 bd 3c 4a 48 ff 3c 9d 94 13 bd 77 5b 33 bd
       0.02312888 0.0311624 -0.0360304 -0.0437884
0002c0 04 1e ab 3c 6d 01 67 bd b7 7b 98 3c b7 f7 29 be
       0.020888336 -0.056397844 0.01861368 -0.16598402
0002d0 20 71 d1 3d c9 02 c5 bf 80 48 9d 3e d1 cc a1 bd
       0.10226655 -1.5391475 0.30719376 -0.07900394
0002e0 80 0e 7e bf 4a 15 ee be 18 17 93 be 94 66 ee 3e
       -0.99240875 -0.46500617 -0.28728557 0.46562636
0002f0 0c 35 93 b9 b5 ab f7 bf bf 23 54 bf 2a 83 f1 be
       -0.00028077548 -1.9349276 -0.82867044 -0.47170383
000300 7a 98 5f bd 9b 2c ad 3e 8c 03 6a be 22 72 79 3c
       -0.054588772 0.33823094 -0.22852916 0.015224965
000310 78 02 68 39 e6 3e a4 3c c9 2b 90 bd 64 44 2a bd
       0.00022126164 0.020049524 -0.07039601 -0.04156913
000320 d6 94 0c 3c 4f 1b 81 3e 35 89 3e 3e 1d cb 1f bc
       0.008580407 0.25216147 0.18607028 -0.009753016
000330 c9 76 d9 3e 06 4c 8e be 29 db 1e be 69 54 6a 40
       0.42473438 -0.27792376 -0.1551329 3.661402
000340 66 3a c4 be 03 94 79 bf 3d 63 e9 3f 05 c7 7a be
       -0.38325804 -0.9749147 1.823341 -0.24489982
000350 79 66 37 bd c4 1e 03 c0 cc 99 a9 3d 16 93 0d be
       -0.04477546 -2.0487528 0.082812876 -0.1382564
000360 ee bd bf bc 0f 6a f6 3d 1c d2 e0 bd 16 30 91 3d
       -0.023405995 0.12031948 -0.10977575 0.0708925
000370 c6 5e 43 bd 0d f0 16 3d 2f e1 e4 bd 4d 94 9e 3d
       -0.047697805 0.036850024 -0.11175763 0.0774313
000380 14 b1 c8 3e 4f 93 79 3e 7f 3c 63 3f 0d f8 98 be
       0.391976 0.243726 0.88764185 -0.29876748
000390 b9 82 9f be 71 8b d3 3c 6c 2a 78 be 4f 35 59 3f
       -0.3115442 0.025823327 -0.24234933 0.8484697
0003a0 44 de 2c bf b9 61 2d bf 54 de e8 3e 53 25 17 40
       -0.6752665 -0.6772724 0.45482123 2.361653
0003b0 56 d2 2b 3e bd 27 8e 3e cb 78 ff be 47 87 f3 3e
       0.16779456 0.27764693 -0.49896845 0.47564146
0003c0 19 f2 17 3f fe 4b 9e 3d 5b 78 02 3e 71 01 31 3d
       0.59353787 0.07729338 0.12741224 0.043214265
0003d0 5c 8f 03 3e b5 52 2e 3e 7b 3d 20 bd ac 7e 63 3f
       0.12847656 0.17023738 -0.039121132 0.8886516
0003e0 20 8a 83 3f b6 c7 c5 3e 42 b9 25 3f ff 05 bb be
       1.0276527 0.3862893 0.64735806 -0.36528012
0003f0 58 71 af be bc 49 60 bf 07 ae af 3e 4b 81 b9 3e
       -0.34266162 -0.8761251 0.3431246 0.36231455

Q1.0.bias f4 [256]
000000 60 e5 03 bf f6 db dc bf 75 01 68 3f a7 14 df 3f
       -0.51521873 -1.7254627 0.90627223 1.7428178
000010 eb 8a 98 bf 73 a0 29 bf 70 2d b6 bf 08 f8 4f 3f
       -1.1917394 -0.6626045 -1.4232616 0.8123784
000020 40 f2 dd 3f ec a4 45 3f eb 6b a2 3f 0d d3 bd 3f
       1.7339554 0.77204776 1.2689184 1.4830033
000030 f4 a3 81 bf 57 fb 3d 3f 4c a8 1b 3f f2 41 90 bf
       -1.012816 0.7421164 0.60803676 -1.1270125
000040 f5 57 f0 3f ef 02 ae bf 7f 77 c9 bf 3f 7a ce 3f
       1.8776842 -1.3594645 -1.5739592 1.6131057
000050 bc 57 5c bf 14 7c 98 bf 4a 1b a5 3f db c8 13 bf
       -0.8607137 -1.1912866 1.2898953 -0.57728356
000060 2f fc 7c bf a5 80 0f bf c0 d0 ba 3f 84 0e 49 bf
       -0.988223 -0.5605567 1.4594955 -0.78537774
000070 f8 f8 10 bf 3c df 76 3f fc 43 ef bf fd b4 ad bf
       -0.56629896 0.9643438 -1.8692622 -1.3570858
000080 ee ab be 3e 29 1f 9d be b1 93 a6 bf 96 65 cd bf
       0.37240547 -0.30687836 -1.3013822 -1.6046627
000090 28 53 16 c0 63 66 64 3f 8a 57 87 3f 16 6c c1 3f
       -2.3488255 0.8921873 1.057359 1.511111
0000a0 7e d4 11 c0 7f 74 81 be 07 45 6c bd 9d 64 d8 3f
       -2.2785945 -0.25284192 -0.057683017 1.6905705
0000b0 6b a5 14 bf cd 5d 96 3f 29 d0 62 bf 28 d1 7c bf
       -0.5806491 1.1747376 -0.8859888 -0.9875665
0000c0 96 97 55 bf 22 8b b9 bf 14 72 a3 bf 3d c8 96 bf
       -0.83434427 -1.4495585 -1.2769189 -1.1779858
0000d0 1b e5 35 3e ac 52 78 bf 2f f5 79 bf d1 6f e1 3f
       0.17763178 -0.9700115 -0.97639745 1.7612249
0000e0 5f 9c 0c c0 74 c6 d6 3f 72 a9 d2 3f 6a e0 8e bf
       -2.1970441 1.6779313 1.6457961 -1.1162236
0000f0 c3 01 77 bf 74 cb a4 3f 44 ff d8 bf 53 03 d3 3f
       -0.96487063 1.2874589 -1.6952901 1.648539
000100 9b 5c 05 be 43 83 96 bf 18 65 c5 bf f2 f1 89 3f
       -0.13023607 -1.1758808 -1.5421476 1.0776961
000110 6c 1c 47 3f 20 0a 13 c0 99 cd b0 bf fd 57 ae 3e
       0.77777743 -2.297493 -1.3812743 0.34051505
000120 8d 6f c5 3f 5b 37 d0 bf 16 fd f0 3f 70 d3 a2 3f
       1.5424668 -1.6266893 1.8827236 1.2720776
000130 2c e8 a1 be 57 10 c5 bf d9 f3 99 3e e1 a6 29 3f
       -0.31622446 -1.5395612 0.30068853 0.6627026
000140 d3 13 95 3f 57 0f fe bf d9 44 98 bc 6c 3d e3 bf
       1.1646675 -1.9848431 -0.018587517 -1.775312
000150 7f f7 d5 3e 2d 0b 91 bd 83 99 bb bf 6d 0b aa bf
       0.41790387 -0.0708221 -1.4656223 -1.3284737
000160 5c 55 93 3f fc 1c fd bf ee 01 83 3f f0 de 9a 3f
       1.1510425 -1.977447 1.0234964 1.2099285
000170 9b e5 e8 bf 31 8f 0b c0 d2 27 a9 3f 68 17 b0 bf
       -1.819507 -2.1806147 1.3215277 -1.3757143
000180 5c 75 b8 3f a8 44 96 bf 7b f5 3b bf be ab ac bf
       1.4410815 -1.1739702 -0.7342145 -1.3489912
000190 e8 4f bf 3c bd a6 e0 bf 4c 2b 2e bf 5e ef 9d bf
       0.023353532 -1.7550884 -0.68034816 -1.2338674
0001a0 fe 61 83 bf cc b7 36 bf 5d d4 c3 bf f2 c1 48 bf
       -1.026428 -0.713742 -1.5299183 -0.7842094
0001b0 f0 15 32 bf e2 15 52 3f 24 6c 6f 3f ab e8 2f 3f
       -0.69564724 0.8206464 0.93524384 0.687144
0001c0 b6 00 54 bf e1 9c e5 bf 88 49 7e bf cb cd ba bf
       -0.82813585 -1.7938501 -0.9933095 -1.4594053
0001d0 48 02 73 3f 84 59 31 3f 1b 87 97 3f c1 d7 16 bf
       0.94925356 0.69277215 1.1838106 -0.58922964
0001e0 fd b7 9b 3e 8e df be bf 64 62 0f 3f d7 1c ba 3f
       0.3041381 -1.4911973 0.5600951 1.4540051
0001f0 90 f8 dc 3f df 91 18 bf 7c d3 9c 3e 72 e8 0c bf
       1.7263355 -0.5959758 0.306301 -0.55042183
000200 26 55 a8 bf 3d 8d 81 bf 4a 3f b7 3f 86 61 8a bf
       -1.3150985 -1.0121228 1.4316189 -1.0811012
000210 74 c6 ca bf 42 90 18 c0 1d b0 83 be 82 a7 0e c0
       -1.5841813 -2.3838048 -0.257203 -2.2289739
000220 1f b0 45 3f 76 a3 55 bf 78 79 14 3f 49 cf 26 3f
       0.77221864 -0.83452547 0.57997847 0.6516004
000230 93 59 b5 be fe 0a 8f 3f ee 29 29 be ee 85 32 3f
       -0.35419902 1.117523 -0.16519901 0.6973561
000240 b3 d3 dc bf fc 06 02 bf dc 1a cb bf 0a 84 5e bf
       -1.7252105 -0.5079191 -1.5867572 -0.86920226
000250 e1 a7 8b bf b9 e3 b6 bd bd 26 b0 3f 1a 50 47 bf
       -1.0910608 -0.089301534 1.3761822 -0.778566
000260 2d 84 c8 3f 1f 21 48 be 51 e8 c8 3f 29 f7 32 bf
       1.5665337 -0.19543885 1.5695897 -0.69908386
000270 ff 87 9c bf e2 b7 da bf aa 74 45 bf 76 cc 08 bf
       -1.2229003 -1.7087367 -0.7713114 -0.5343698
000280 85 16 9e 3f ce b9 8f bf 4c cb 55 3f f4 6c 97 bf
       1.2350622 -1.1228578 0.8351333 -1.1830125
000290 79 cd a2 3f 62 5f a5 3e 74 ed d1 3f d5 74 b9 3f
       1.2718955 0.32299334 1.640059 1.4488779
0002a0 3d 82 bc 3f f1 8c 91 3f 97 9e 6b 3f 99 7b 3c 3f
       1.4727246 1.1371137 0.92038864 0.73626095
0002b0 ca c1 7c 3d 21 62 e6 3e cc b6 04 40 5a 20 c2 3f
       0.06170825 0.4499674 2.073657 1.5166123
0002c0 88 60 d1 3f 3c dd 90 3f 91 90 56 bf fe d3 94 bf
       1.6357584 1.1317515 -0.8381434 -1.1627195
0002d0 5f d1 46 3f 83 0c 9c 3e a8 df b2 3f 17 6b a0 3f
       0.77663225 0.30478296 1.3974504 1.2532681
0002e0 ba 46 d4 3f 79 59 b1 3e 3a ae ef bf 27 14 e9 3f
       1.6584084 0.34638575 -1.8725045 1.8209275
0002f0 a0 8e e7 bd a6 38 87 bf 93 eb b8 3f fd f6 bb 3f
       -0.113065004 -1.0564163 1.4446892 1.468475
000300 ea 52 94 bf c7 6e de 3f ad 01 76 3f e6 55 90 bf
       -1.1587803 1.7377557 0.9609631 -1.1276214
000310 8d 46 b7 bf bb 37 9a 3f 0a b7 51 bf 92 50 b7 3f
       -1.4318405 1.2048258 -0.8191992 1.4321463
000320 98 f2 db 3f 6d 29 28 3f 27 fc 45 3d ff d9 c8 3f
       1.7183409 0.6568821 0.048336174 1.5691527
000330 00 75 e4 bf 97 02 74 3f 39 2f 14 be 31 7c 48 bf
       -1.7848206 0.9531645 -0.14471139 -0.783145
000340 11 3b 72 3d 78 f6 df bf 78 11 32 3f 48 8d e6 3f
       0.05913836 -1.7497091 0.69557905 1.8011866
000350 f5 46 a9 bf 02 f6 77 bf 1c 5f 8b 3f 52 eb 19 3f
       -1.3224779 -0.96859753 1.08884 0.60124695
000360 35 8d 98 be 43 21 cb 3f 8a 28 76 3f a8 03 e4 3f
       -0.29795232 1.5869526 0.9615561 1.7813616
000370 22 c3 cb 3f ff 64 7e bf 25 d9 ab bf e9 22 04 40
       1.5918925 -0.9937286 -1.3425642 2.0646307
000380 ef 2d ed 3f 5a 2e af bf b8 25 49 3f 4f 48 7f bf
       1.8529643 -1.368602 0.7857318 -0.9971971
000390 b3 82 93 3d 65 ea 93 bf bb 68 70 3f 54 de 5f be
       0.07202663 -1.1555907 0.93909806 -0.21862155
0003a0 d9 93 31 bf f7 4c 29 bf 44 31 7c 3f 54 18 80 3f
       -0.6936622 -0.66133064 0.98512673 1.0007424
0003b0 fe 43 ac bf 67 d6 a3 bf 11 0a c8 3f 47 c4 eb bc
       -1.345825 -1.2799805 1.5628072 -0.028780116
0003c0 99 6b cd bf 73 6e 2a bf 49 1c 12 3f bb 45 4f 3f
       -1.6048461 -0.6657478 0.5707441 0.80965775
0003d0 1b 38 a4 bf 1c 30 bb 3f bc 4e 01 bf 2a dc f4 bf
       -1.2829622 1.4624057 -0.50510764 -1.9129689
0003e0 3e b4 93 bf 14 0e 5a bf 5d dc a6 3f 02 02 51 bf
       -1.153938 -0.8517773 1.3036 -0.8164369
0003f0 f9 26 05 bf 64 58 54 bf f5 b5 d0 3e 25 98 ed 3e
       -0.5201259 -0.82947373 0.40763822 0.4640514

Q1.2.weight f4 [256, 256]
000000 51 69 a7 3e db ed 95 3e 3c 2e f4 3d 0f 75 1a 3e
       0.32697538 0.29283032 0.11922881 0.15083717
000010 b2 0d 6d be 15 74 93 3d f4 ae f2 bd 8f f7 15 be
       -0.23149756 0.07199875 -0.11849776 -0.14645217
000020 59 82 2b 3c e7 d1 02 3e 9d ed d5 be 53 a5 8c 3e
       0.010468089 0.12775384 -0.41782847 0.27469882
000030 5d f6 39 bd 3a bf 33 3e b8 15 a7 be c5 ea d3 3d
       -0.045400966 0.17553416 -0.32633758 0.10347513
000040 b6 aa 25 3e 26 52 76 be b1 1d f9 be 06 08 4d 3e
       0.16178402 -0.24054775 -0.48655465 0.20022592
000050 b2 bf c0 3c a4 7c 2d 3e 79 93 96 be b8 2f 55 bf
       0.023528907 0.16942078 -0.29409388 -0.8327594
000060 b5 07 3e be 75 dc 00 3f 53 ea 46 be ca 7e af be
       -0.18557627 0.5033639 -0.19425325 -0.3427642
000070 2f 76 51 3e b6 1c a6 bd 15 c3 1d 3e 23 04 90 bd
       0.2045524 -0.08110945 0.15406449 -0.07032039
000080 cd a5 fb 3d ce a7 22 3e 9a 24 1f bf 44 b1 15 be
       0.12287483 0.15884325 -0.62165225 -0.14618403
000090 d5 95 97 be 16 72 ee 3d fc 50 d8 3e f7 cf 31 3e
       -0.296065 0.11642854 0.42249286 0.17364489
0000a0 fa 62 fd bc 83 1f d0 3d b3 d6 e6 3e 8c dd 3c be
       -0.030930985 0.101622604 0.45085678 -0.18443888
0000b0 dc 09 99 bd 79 81 d8 be 81 2b eb 3e 51 da e5 3d
       -0.07472584 -0.4228628 0.45931628 0.11223281
0000c0 15 73 2a bf 76 20 67 3d ad 52 36 3e 2b ca 9d 3b
       -0.6658185 0.05642744 0.17804976 0.00481536
0000d0 e9 10 9f 3d b4 26 ae 3e a2 8f d3 3d 2b 7f 80 3e
       0.07766897 0.34013903 0.1033013 0.2509702
0000e0 69 e7 20 be b5 de 62 bd 37 a9 b8 bd 77 85 61 be
       -0.15713276 -0.05538817 -0.0901665 -0.22023569
0000f0 bc 72 02 bf 4f 8d e6 3d d4 f7 b9 3e 42 f6 f3 be
       -0.5095632 0.11257421 0.3632189 -0.47648817
000100 2c fe 06 bd 45 5f 05 be 38 4b 27 3e 59 0e 9c bd
       -0.03295724 -0.13024624 0.16337287 -0.07619924
000110 e9 f3 8a be a7 b4 f3 3d 2b 2a 69 3e 43 f4 3b be
       -0.27139214 0.11899691 0.22769992 -0.18354897
000120 73 b5 38 ba 4a d4 60 be a7 95 eb 3c 90 13 d3 be
       -0.0007046081 -0.21955982 0.028757883 -0.41225863
000130 ed c1 09 bf 8c ee 74 3e 5e 39 20 3e 14 1b 4a be
       -0.5381153 0.23919123 0.15646884 -0.19736892
000140 82 d3 0f 3e b4 47 02 3f 8b 11 c6 bd 38 18 3c be
       0.14045528 0.5089066 -0.09671315 -0.18368614
000150 97 78 d7 3d 0b df 19 bf 9a ab f2 be 56 62 b8 3e
       0.105210476 -0.6010596 -0.47396547 0.36012524
000160 0b 6b 8a 3e d8 c5 3a be 23 0d 31 3e f9 b4 44 be
       0.27034792 -0.18239534 0.17290168 -0.1920966
000170 15 05 0d 3e 70 4c 8a be f5 8a 29 3e 82 71 cf be
       0.1377147 -0.27011442 0.16556914 -0.40516287
000180 e4 73 8b 3e e3 c1 0d bd 8c 6a 29 bf b5 6c da 3c
       0.27236855 -0.034608733 -0.661782 0.026663164
000190 76 98 b5 3d 0c 4a 05 be b8 f1 65 bc da 2e bc 3e
       0.0886697 -0.13016528 -0.014034681 0.36754495
0001a0 18 de 49 3e 3a 48 09 be 6f 0c ad 3e b8 ac 67 be
       0.19713628 -0.13406458 0.3379855 -0.2262448
0001b0 ea 57 52 be 97 2c 8e 3e bc 21 7c bc 08 48 01 3e
       -0.20541349 0.27768394 -0.015388902 0.12625134
0001c0 9c 12 4d 3e 84 dd 2b 3e 37 df 86 3e d4 f1 f7 3d
       0.2002663 0.1678372 0.26342174 0.12106672
0001d0 78 85 40 3e 5c d5 e0 3d a8 38 70 3d 20 3a 47 bd
       0.18800914 0.10978195 0.05864778 -0.048639417
0001e0 3a 48 a0 3d dd be b9 ba 9d e2 1f 3e af 3f f4 3d
       0.07826276 -0.0014171262 0.1561379 0.11926209
0001f0 fa 35 08 3e 37 3b e7 3d 49 c5 e1 bc 33 d5 9c be
       0.1330184 0.11290591 -0.027559893 -0.30631408
000200 78 a5 04 be 28 c9 94 3e 4d c3 7b be 82 2e 4b be
       -0.12953746 0.2905972 -0.2458622 -0.1984196
000210 30 f6 ef 3d 32 92 4f bd 44 2d c5 bc 28 7a c8 3e
       0.117168784 -0.050676532 -0.024069436 0.39155698
000220 c5 3e 4a be 1c db da 3e 15 bc fc bc 0a 75 1f be
       -0.19750507 0.42745292 -0.030851403 -0.1557199
000230 00 2f 3d be 54 61 81 3d 79 1d bd be 3d 68 90 3d
       -0.1847496 0.06317392 -0.36936548 0.07051132
000240 2d db ad 3d 9b 09 2b bb 1a 70 4e 3d b3 fd 9c bd
       0.0848907 -0.0026098255 0.050399877 -0.07665577
000250 07 ea 67 be 3c 74 28 bf b9 92 65 bc 0e 41 03 3e
       -0.22647868 -0.6580236 -0.014012032 0.12817785
000260 ed 15 76 3e 4e 0c 26 3c e8 d7 02 3e 5c 6e 5c 3e
       0.24031802 0.01013477 0.12777674 0.21526474
000270 36 17 28 3d 83 79 13 3e 96 d0 51 be 61 a4 46 bd
       0.04103776 0.14401822 -0.20489725 -0.048496608
000280 e2 45 23 bf 87 88 e3 be 08 22 10 be 42 56 3c 3e
       -0.6377851 -0.444401 -0.14075482 0.1839228
000290 42 bb f2 be 40 63 f9 bd c0 51 93 3e 7f d1 95 be
       -0.4740849 -0.121771336 0.28773308 -0.29261395
0002a0 58 23 20 3e 60 45 9b bc be b3 c0 be 12 ae 9c be
       0.15638483 -0.018953979 -0.37637132 -0.30601555
0002b0 d6 09 32 3e 8e 2d a2 be 97 0c 02 bf 1c 26 f8 3d
       0.17386565 -0.3167538 -0.5080046 0.12116644
0002c0 4d 01 73 3e 05 a7 02 bf fe fd bd bd a3 1a 10 bf
       0.23730965 -0.510361 -0.09276961 -0.56290644
0002d0 31 14 aa 3e dc c3 24 be 6f b7 87 3c e1 f6 1e 3e
       0.3321853 -0.1609034 0.01656696 0.15523864
0002e0 b8 47 dd be 2d 95 18 3e b5 76 50 bf e4 a3 04 3e
       -0.4321878 0.14900656 -0.8143113 0.12953144
0002f0 db 45 17 be 6c 77 b6 3e 84 63 07 bd f4 a0 fe 3d
       -0.14772741 0.35637987 -0.03305389 0.12433043
000300 3d 23 8c be e7 d4 e7 3d 23 5c c6 bd bb 9d 63 be
       -0.27370635 0.11319905 -0.096855424 -0.22228138
000310 5e f6 2e bd 2c 57 bf 3d 1d 33 5e 3e e4 73 9b 3d
       -0.042715423 0.093427986 0.21699186 0.07590464
000320 df ba 54 3e 12 81 2a 3f 3e 93 80 be f6 fa f2 bd
       0.2077441 0.66603196 -0.25112337 -0.11864273
000330 5a 88 da 3e bc 17 66 3e 77 fa 6b 3e a7 85 31 bf
       0.42682153 0.22469991 0.23044764 -0.6934456
000340 81 a4 1d bf d3 b4 bd 3d ce 16 86 3e b9 d7 ae be
       -0.6157914 0.09263005 0.26189274 -0.34148958
000350 d4 53 76 bc 3d 7e 92 bf f9 71 d8 bd 27 d3 5e bd
       -0.015034635 -1.1444775 -0.105686136 -0.05440059
000360 e3 b0 14 3f c2 1d df 3d fe 3e 7b be 34 63 a1 3d
       0.5808241 0.10894348 -0.24535748 0.078802496
000370 44 61 56 3e fb 06 2d be ec 90 6b 3e d7 bd 3f 3f
       0.20935541 -0.16897194 0.23004502 0.7489905
000380 0e b2 34 3e f9 38 3a 3e 53 bb 80 be b7 e8 2b be
       0.17646047 0.18185796 -0.25142917 -0.16787992
000390 d4 d7 e3 be 5d 80 6a 3e c7 af 56 3e a3 c7 f2 3d
       -0.445006 0.22900529 0.20965491 0.11854484
0003a0 fa ab 73 ba 1c 28 15 3d 02 9e 05 be 22 9f c9 3d
       -0.0009295341 0.036415204 -0.13048556 0.09844805
0003b0 a1 1c 39 be 13 ea bf bd c2 6d 8c bd ac e0 85 bd
       -0.18077327 -0.09370818 -0.06856872 -0.065369934
0003c0 9d 0d 44 be 55 e6 79 bd 15 d0 8c 3e e3 86 33 bd
       -0.19145818 -0.061010677 0.27502504 -0.04382981
0003d0 41 b3 20 be e4 5a 3d 3e 93 32 5d be 15 f1 b6 3e
       -0.1569338 0.18491703 -0.21601324 0.35730806
0003e0 b9 f1 8c 3d a6 04 5d 3e eb 61 42 bd c6 79 88 3e
       0.068820424 0.21583804 -0.047456663 0.26655406
0003f0 db ff 6d 3e 3f bf 8c 3e 3c 9e 85 3e 36 e7 c9 3d
       0.23242132 0.2748966 0.26097286 0.09858553

Q1.2.bias f4 [256]
000000 3f cf b8 3f 2f c2 f3 3f f8 44 9d bf 04 fe 1e 3f
       1.4438246 1.9043635 -1.2286673 0.6210635
000010 e7 ab c6 bf cb 65 f7 3f 50 88 99 bf 94 90 a0 bf
       -1.552121 1.932794 -1.1994724 -1.2544122
000020 cf 70 ce bf 1b e8 91 bf 90 b3 8d bf fe f7 b9 be
       -1.6128176 -1.1398958 -1.1070423 -0.36322016
000030 05 74 a5 bf cb 8a e0 3f 90 b8 f7 3f a6 4a 06 40
       -1.2926031 1.7542356 1.9353199 2.0983062
000040 4a c8 ea 3f af 9d ec 3f 09 ad ae bf 6a 8f ed 3f
       1.8342373 1.8485621 -1.3646556 1.8559391
000050 7f 99 85 bf cf 9d cb bf 00 88 b0 bf 6a c5 01 40
       -1.0437468 -1.5907534 -1.3791504 2.0276742
000060 55 9e 2a bf 26 19 ff 3f bd 96 8e bf 8e f5 6b bf
       -0.66647846 1.992955 -1.1139752 -0.9217156
000070 a5 47 be bf 51 41 98 bf ad 54 b9 bf 20 10 b2 bf
       -1.4865614 -1.1894933 -1.4478966 -1.3911171
000080 4d 7d 6c bf 84 9e dd bf c4 61 8d bf 53 45 d9 bf
       -0.92378694 -1.7314 -1.1045461 -1.6974281
000090 f8 82 8b bf b9 11 ec 3f 40 72 42 bf f6 73 01 40
       -1.0899343 1.8442909 -0.7595558 2.0227027
0000a0 34 c1 ac bf 70 aa ef 3f a8 f9 01 40 04 cd 01 40
       -1.3496461 1.8723888 2.0308628 2.0281382
0000b0 c2 7e f8 3f 85 e9 fb 3f 3e a7 d9 bf a2 bb 9a 3f
       1.9413683 1.968064 -1.7004163 1.2088511
0000c0 c3 41 e7 3f f7 7d d9 3f 40 3f df 3f f5 a6 8f bf
       1.8066944 1.6991566 1.7441177 -1.1222826
0000d0 6f 91 05 40 02 ea be bf 7d 21 06 40 1b 97 d3 bf
       2.0870016 -1.4915164 2.095794 -1.6530489
0000e0 89 7b ce bf 25 69 53 bf 6f fd 01 40 6c 9a 85 bf
       -1.613145 -0.8258231 2.0310934 -1.0437751
0000f0 c3 95 04 40 c0 93 0c bf 23 98 98 bf ad c2 e0 bf
       2.0716407 -0.5491295 -1.1921428 -1.755941
000100 3f 29 d8 3f ba b4 ad bf 7c 7d 03 40 71 69 53 3f
       1.6887587 -1.3570778 2.054534 0.82582766
000110 2f c4 99 bf 6e 67 06 40 f7 de 02 40 8a 90 a6 bf
       -1.2012995 2.1000628 2.0448587 -1.301286
000120 d3 66 fc 3f 90 ed 8e bf 40 57 8b bf 9a e4 e4 3f
       1.971888 -1.1166248 -1.0886002 1.7882264
000130 07 86 05 40 4e fe e8 3f 06 58 5d bf 1b 29 a2 bf
       2.0863054 1.8202608 -0.8646244 -1.2668794
000140 fe fd 01 40 2a 20 df 3f a2 76 d7 3f 2d 88 cc bf
       2.0311275 1.7431691 1.6833079 -1.5979058
000150 f7 1b 03 40 aa 17 c6 3f e2 05 b7 bf af 61 f2 3f
       2.0485818 1.5475972 -1.429867 1.8936061
000160 30 fc e7 3f 89 eb 96 bf fe 20 00 40 da 15 a6 bf
       1.8123837 -1.179063 2.0020137 -1.2975419
000170 13 b0 03 40 5a 44 ae bf 40 4f f3 3f dc 2c 00 40
       2.0576217 -1.3614609 1.900856 2.002738
000180 ab bf d2 bf 9a dc 9e bf ab 60 01 40 b3 5d 06 40
       -1.6464742 -1.2411072 2.0215251 2.099469
000190 5b e7 f5 3f 8a 8f f2 3f 34 80 94 bf 77 b9 b5 bf
       1.9211229 1.8950055 -1.1601624 -1.4197224
0001a0 93 fb e6 3f 7c a1 00 40 6c e2 91 bf 05 a5 a0 bf
       1.8045524 2.0098562 -1.1397223 -1.255036
0001b0 c7 8f 03 40 4f 94 72 bf 45 62 d6 bf f8 4b 02 bf
       2.0556505 -0.9475755 -1.674874 -0.5089717
0001c0 7e 87 07 40 3e c2 07 40 51 69 91 3f e0 01 25 bf
       2.1176448 2.1212306 1.1360265 -0.64455986
0001d0 d4 8d b2 bf 64 fe d7 3f 8b 89 f3 3f 10 f7 fa 3f
       -1.3949533 1.6874509 1.902635 1.9606647
0001e0 6b a0 75 bf af 4e c5 bf 97 4b 5b bf d3 28 c6 bf
       -0.95947903 -1.5414637 -0.85662216 -1.5481209
0001f0 0a bf f3 3f 84 53 ec 3f 79 9e c9 bf 28 f6 82 bf
       1.9042675 1.8462987 -1.5751487 -1.0231371
000200 85 c2 c9 bf 27 3a b2 3f cd f6 e4 3f ce 30 f0 3f
       -1.5762488 1.3923997 1.7887818 1.8764894
000210 6e bd 3f bf 79 18 c4 be 9a c3 d2 bf 00 9e ba bf
       -0.7489842 -0.3829992 -1.6465943 -1.4579468
000220 b9 31 8e bf 62 ca 03 40 25 28 de 3f ff 19 05 40
       -1.1108924 2.0592275 1.7356001 2.0797117
000230 32 21 ba bf e2 d6 01 40 1b 83 ce bf 64 ee 00 40
       -1.454138 2.0287404 -1.613376 2.0145502
000240 22 4b f5 3f d2 6a c9 bf 9e 13 e7 3f e1 0d f3 3f
       1.9163554 -1.5735724 1.8052862 1.898861
000250 c2 f1 c6 bf f8 d5 ee 3f 6e 50 00 40 38 6e aa bf
       -1.5542529 1.8659048 2.004909 -1.3314886
000260 73 dc f3 3f 8b 3d 81 bf 74 bb fc 3f 2b 7e c2 bf
       1.9051651 -1.0096906 1.9744706 -1.5194753
000270 84 c4 00 40 81 5c d2 bf 67 27 e6 3f 18 2d ef 3f
       2.0119944 -1.643448 1.7980775 1.8685637
000280 b7 b6 e2 3f ba 07 f7 3f 30 9f ac bf d8 ea b9 bf
       1.771201 1.9299233 -1.348608 -1.4524794
000290 44 6d 08 40 6d 8a ce bf e8 f7 9c bf 88 e0 84 bf
       2.131669 -1.6135994 -1.2263155 -1.0381021
0002a0 66 42 f9 3f 3b 93 e5 3f 08 39 02 40 a3 5d d1 3f
       1.9473388 1.7935556 2.034731 1.6356701
0002b0 83 d6 6a bf 96 2f ea 3f 7b 3b 07 40 99 af 95 bf
       -0.9173357 1.8295772 2.1130054 -1.1694213
0002c0 7f e3 ff 3f 29 be 9e bf 2f d7 05 40 81 19 fb bf
       1.9991301 -1.2401782 2.0912588 -1.9617158
0002d0 ef c8 a7 3f 46 41 81 be 45 1b 97 bf 73 ae 79 3f
       1.3108195 -0.25245112 -1.1805197 0.97531813
0002e0 5f f7 03 40 19 f2 eb 3f 8e 88 ed 3f cc 2e 8f bf
       2.0619733 1.8433257 1.8557298 -1.1186156
0002f0 74 08 07 40 6d 99 bb bf 3a 09 2f bf 0b b5 ae bf
       2.109891 -1.4656197 -0.68373454 -1.3649
000300 68 5c 9b bf d0 bc ce bf f4 14 c8 bf 13 57 fa 3f
       -1.2137575 -1.6151371 -1.5631394 1.9557823
000310 de 4c c1 3f 20 fd 0f bf 91 cd d7 bf 48 de 9d bf
       1.5101583 -0.56245613 -1.6859609 -1.233346
000320 8c d2 f0 3f 2b 58 cf 3f c4 c7 ff 3f 43 87 06 40
       1.8814254 1.6198782 1.9982839 2.1020057
000330 d5 6b af bf 3a 07 e9 be d8 ae f6 3f ab 81 bf bf
       -1.3704783 -0.45513326 1.9272108 -1.4961447
000340 a4 b3 e9 3f 62 55 06 40 f2 fb 7b bf bf 76 6c bf
       1.8257947 2.0989614 -0.98431313 -0.9236869
000350 07 d6 ff 3f f5 aa fe 3f 8b 44 9d bf 00 b7 7c bf
       1.9987191 1.9895922 -1.2286543 -0.98716736
000360 15 3f ea bf 81 0e de 3f 12 f1 b4 bf 85 7c fa 3f
       -1.8300501 1.7348176 -1.4136069 1.956925
000370 d2 fd f7 3f 96 cd 3b bf 85 80 ab bf 44 36 82 bf
       1.9374335 -0.73360574 -1.3398596 -1.017281
000380 ef 68 ec 3f e4 a5 ac bf 0b 04 88 bf f8 35 5b bf
       1.8469523 -1.3488126 -1.0626234 -0.85629225
000390 8f c3 cb bf a9 70 92 bf 53 4b 74 bf e1 ca f6 3f
       -1.5919055 -1.1440631 -0.95427436 1.9280664
0003a0 06 23 03 40 10 5a 9c bf 82 e3 00 40 34 82 d2 bf
       2.0490127 -1.2214985 2.013886 -1.6445985
0003b0 1e 69 93 bf 59 dd 9a bf 7d 03 fc 3f ca 44 dd 3f
       -1.1516454 -1.20988 1.9688565 1.7286618
0003c0 f1 c5 fb 3f bc ac f1 3f d3 dc a1 bf 76 3a b7 bf
       1.9669782 1.8880839 -1.2645515 -1.4314716
0003d0 2f b9 d9 3f 6d e3 ba bf 96 66 02 40 c8 33 ab bf
       1.7009639 -1.4600655 2.0375113 -1.3375177
0003e0 ea b6 cb 3f 4e ec 74 bf e7 0b 08 bf ba 6b b8 bf
       1.5915196 -0.9567307 -0.5314316 -1.4407876
0003f0 c8 ed f5 3f 95 db cc bf 1a 42 de bf 35 8c c4 bf
       1.921319 -1.6004511 -1.7363923 -1.5355288

Q1.4.weight f4 [1, 256]
000000 a2 f8 31 3f 83 e8 a7 3e 77 a5 fe bf 97 c6 ab 40
       0.6952001 0.3279458 -1.9894246 5.367992
000010 fc cd 29 bf e5 b5 f6 3e b9 e0 d6 c0 35 d6 1b c0
       -0.6632993 0.4818565 -6.714932 -2.4349492
000020 9b 07 73 bf 61 67 9a bf bf 17 8d bf cb cf 36 c1
       -0.9493348 -1.2062799 -1.1022872 -11.425731
000030 a7 cf 25 bf 04 ef 2b 3f 33 dc 79 3e b2 f4 78 3e
       -0.6476998 0.67161584 0.24400406 0.24312094
000040 c3 d3 0e 3f 21 cd d6 3e 0b d3 8b bf 1e 9e 94 3e
       0.5579187 0.41953376 -1.092378 0.29026884
000050 62 a6 50 bf 17 26 d8 bf 40 fc 5e bf 9a 31 93 3e
       -0.8150388 -1.6886624 -0.8710365 0.2874878
000060 be b7 34 c1 07 0e 6e 3e dd 19 7b bf 5f 14 8e c0
       -11.294859 0.23247539 -0.9808634 -4.4399867
000070 98 59 3f bf 09 ef 84 c0 35 23 90 bf cf bc 20 bf
       -0.74746084 -4.154179 -1.1260744 -0.627881
000080 52 f6 17 c1 16 b7 79 bf 17 c8 cb bf 2a 3f 21 bf
       -9.497637 -0.9754499 -1.5920438 -0.62987006
000090 a7 0b 1a c0 b1 e6 e5 3e 6e a8 73 c0 63 62 63 3e
       -2.4069612 0.44902566 -3.8071551 0.222055
0000a0 af 59 51 bf a5 e6 c6 3e 27 59 63 3e 1b aa 7d 3e
       -0.8177747 0.38847843 0.22201978 0.24771921
0000b0 e5 f6 6c 3e 6e 5d b0 3e 8d 09 43 bf 6f 79 90 3f
       0.23141058 0.3444628 -0.7618645 1.1287059
0000c0 6d b4 6a 3f 27 a5 47 3f 1a 46 01 3f 33 ef 87 c0
       0.9168156 0.7798638 0.5049759 -4.247949
0000d0 28 dd 79 3e c9 4b a8 bf d7 da 85 3e 42 f6 b2 be
       0.2440077 -1.3148128 0.26143524 -0.34953505
0000e0 7c 4a 23 bf 07 9e 9f c0 fa 18 84 3e e7 72 a5 bf
       -0.6378553 -4.9880404 0.25800306 -1.292569
0000f0 d5 1d 77 3e fd 5e 14 c1 19 66 a7 bf e1 43 2d bf
       0.24132474 -9.2731905 -1.3078033 -0.676817
000100 f4 04 42 3f 5a 00 01 c0 d7 6d 6e 3e de 63 4a 40
       0.7578881 -2.0156465 0.23284088 3.1623454
000110 18 fb 55 bf 86 ec 80 3e 4a 16 59 3e 01 62 8d bf
       -0.83586264 0.25180453 0.21199909 -1.1045533
000120 3e a7 89 3e dc 46 5e bf fb 05 6f bf a0 fd 30 3f
       0.26885408 -0.8682687 -0.933685 0.69137
000130 40 5d 7d 3e 82 f3 96 3e 45 c0 13 c0 e9 7f 12 c1
       0.24742603 0.29482657 -2.3086102 -9.156228
000140 ea 15 80 3e 10 92 02 40 ea f6 74 3f 3a 8b 11 bf
       0.2501672 2.040165 0.9568926 -0.5685307
000150 b9 bc 6f 3e 25 97 cb 3f 72 04 71 bf 9e 21 55 3e
       0.23411836 1.5905501 -0.9414741 0.20813605
000160 ee 99 2c 3f 12 5b 75 bf 8a e4 61 3e f1 bc 19 c0
       0.6742238 -0.9584209 0.22059837 -2.402157
000170 9d 49 3c 3e cd bd 2d bf ca 33 91 3e 82 9e 7d 3e
       0.18387456 -0.6786774 0.28359824 0.24767497
000180 85 b1 1a bf 07 12 5a c0 5d 13 5b 3e 3d b3 83 3e
       -0.60427123 -3.4073503 0.21394105 0.25722685
000190 78 22 87 3e d8 f1 8b 3e 2c d9 28 c0 2e 76 26 bf
       0.26393485 0.2733295 -2.6382551 -0.6502408
0001a0 1a 78 8f 3e a1 f4 80 3e 37 77 52 bf 63 c5 14 c0
       0.28021318 0.25186637 -0.8221316 -2.3245475
0001b0 5b d8 65 3e d0 9f 66 c0 78 bf 48 bf 51 10 27 c1
       0.22445814 -3.6035042 -0.7841716 -10.4414835
0001c0 2e 9c 85 3e 3d 8e 8f 3e 30 ee 0a 40 9a e9 d3 c0
       0.26095718 0.28038207 2.1707878 -6.622266
0001d0 33 8c fb bf 75 52 42 3f 31 4a 23 3f ba ad b6 3e
       -1.965216 0.7590707 0.6378508 0.35679418
0001e0 5b d2 b3 bf e1 26 54 bf da 30 fa bf 2a 57 5b bf
       -1.404857 -0.82871825 -1.9546158 -0.85679877
0001f0 58 01 3c 3e 42 d6 11 3f 08 5c e2 be fb 2b dc bf
       0.18359888 0.56967556 -0.4421084 -1.7200922
000200 88 f6 6e bf 2d 4c 4a 40 e1 e6 c8 3f 31 7e d8 3e
       -0.93344927 3.1608994 1.5695459 0.42283776
000210 e8 bc dd c0 5f 5c 48 c1 a8 7f 5b bf f8 3e 77 bf
       -6.92931 -12.522552 -0.8574166 -0.9658046
000220 dc b8 99 bf 05 71 82 3e 9a bb db 3e 81 c2 82 3e
       -1.200954 0.25476852 0.42916566 0.2553902
000230 8a a4 db be 4b b7 64 3e c9 7b 90 bf aa a6 68 3e
       -0.4289897 0.22335546 -1.1287776 0.22719827
000240 bc 8b 4b 3e 9b 42 07 c0 c0 a1 1d 3f 94 b2 09 3f
       0.19877523 -2.1134403 0.61574936 0.53788114
000250 f4 1b 6d bf ad 89 9b 3e 9d b4 6f 3e 2f d9 8c bf
       -0.9262078 0.30378476 0.23408742 -1.1003779
000260 a9 9d 98 3e 01 59 35 c0 5f ed 57 3e 60 87 57 bf
       0.29807785 -2.8335574 0.21086644 -0.8419094
000270 b3 0d 68 3e ad cb 2c bf bf e7 cc 3e 83 5d 90 3e
       0.22661476 -0.67498285 0.40020558 0.28196344
000280 f3 f6 08 3f d7 e6 04 3f bb 91 ff c0 5e 17 e1 bf
       0.53501815 0.51914734 -7.9865394 -1.7585256
000290 7e 5d 81 3e 4f 68 b8 bf fb 40 67 bf 0c a0 4f c0
       0.2526664 -1.4406832 -0.9033353 -3.2441435
0002a0 81 91 5b 3e 88 b6 83 3e be e8 77 3e e3 eb 8d 3f
       0.21442224 0.25725198 0.24209878 1.1087612
0002b0 42 6f f2 bf 79 44 c8 3e 8b 28 56 3e 56 e1 6c c0
       -1.8940203 0.3911474 0.20913903 -3.7012534
0002c0 81 24 47 3e 32 db f6 bf 0a 50 86 3e 80 99 2e bf
       0.19447519 -1.9285643 0.2623294 -0.6820297
0002d0 4a 59 64 3f 65 54 de c0 71 08 8b bf f7 ec a0 3f
       0.89198744 -6.947802 -1.0861951 1.2572316
0002e0 98 1a 8b 3e 74 aa 29 3f 9d 8a 84 3e 20 fb e0 bf
       0.27168727 0.66275716 0.25887004 -1.7576637
0002f0 2c bd 80 3e 68 1a 4c bf f9 13 e0 c0 ca 87 01 c1
       0.25144327 -0.7972779 -7.002438 -8.095652
000300 12 4b 99 bf 48 81 02 bf 08 42 0d bf 12 9f 9b 3f
       -1.1976035 -0.5097852 -0.5517888 1.215792
000310 f2 31 29 3f 0e 33 ba c0 7c d1 ee bf 4b d5 88 bf
       0.66091835 -5.8187323 -1.865768 -1.0690092
000320 07 cd 68 3e 10 8f 14 3f 9d f6 42 3e ea 54 6a 3e
       0.22734462 0.58030796 0.19039388 0.22883955
000330 b8 00 61 c0 3a d6 f7 c0 b8 6c 9d 3e 94 90 af bf
       -3.5156689 -7.7449007 0.30747008 -1.3715997
000340 4f 22 be 3e e2 1c 80 3e 2d 40 89 c0 ab af 8c bf
       0.3713555 0.25022036 -4.289084 -1.099111
000350 91 5d b3 3e 70 6a 2c 3e 49 23 21 bf 15 2e c9 bf
       0.35032323 0.16837478 -0.62944466 -1.5717188
000360 e9 d0 d6 be a6 09 49 3f 24 1e 8f bf 08 49 1c 3f
       -0.4195626 0.7853035 -1.1181073 0.61048937
000370 90 8a 7d 3e b6 b7 29 c1 3b c0 8a bf f0 f4 4c bf
       0.24759889 -10.607351 -1.0839914 -0.80061245
000380 9f 58 86 3e 78 cf e3 bf 46 99 e0 c0 ad b6 a3 c0
       0.26239488 -1.779769 -7.01871 -5.1160493
000390 24 3b 26 bf 95 ad 2b bf f8 f1 dd bf 85 9a cb 3e
       -0.6493399 -0.6706174 -1.7339468 0.39766327
0003a0 30 e2 a0 3e 7d 7d 31 bf 91 06 52 3e b9 3b a1 bf
       0.31422567 -0.69332105 0.20510317 -1.2596351
0003b0 42 20 95 bf c7 21 73 bf fb 45 e7 3e da ea ba 3e
       -1.1650469 -0.94973415 0.45170578 0.36507303
0003c0 c7 3c b2 3e 9d 0c c5 3e 89 ad d9 bf 13 d4 c6 bf
       0.34811994 0.38486186 -1.7006084 -1.553347
0003d0 10 b6 da 3e 30 af 55 bf 69 89 64 3e b0 d8 5c bf
       0.42717028 -0.8347044 0.22318043 -0.8626814
0003e0 79 13 b1 3f 5a c1 af c0 a5 5e 3a c0 db b6 87 bf
       1.3834068 -5.4923525 -2.9120266 -1.0602678
0003f0 3c 55 08 3f f2 5d 66 bf 1a 3d 29 bf eb 53 bc bf
       0.5325506 -0.899871 -0.6610886 -1.471311

Q2.0.weight f4 [256, 23]
000000 56 93 05 3f e2 7c 99 bf c6 fd 76 bf 9c 79 d7 3f
       0.5217794 -1.1991236 -0.9648098 1.6833987
000010 41 32 8f bd 8c 17 c3 bf 3f 67 53 bf 1f d1 b9 bd
       -0.06992007 -1.5241561 -0.82579416 -0.0907309
000020 1a 12 2a bd 83 87 11 bf 0f b8 23 bf 4c 7a 0e 3e
       -0.04152117 -0.568474 -0.63952726 0.1391384
000030 8a 45 9f bd 10 b6 80 bd 2a ba b4 bd fc 76 69 be
       -0.077769354 -0.06284726 -0.088245705 -0.22799295
000040 08 f4 c4 bd 6c 80 62 bd b3 dc 2a bf 0f 9c 2a 3f
       -0.09616858 -0.055298254 -0.6674301 0.66644377
000050 1c 79 98 3d 23 d1 8f 3f 01 fd b1 bd df c1 ac bc
       0.07444975 1.1235698 -0.08690835 -0.021088539
000060 a1 be 46 3f a0 67 f4 be 6f c0 0b bf ed e9 d9 3e
       0.77634627 -0.4773531 -0.54590505 0.42561284
000070 1d 3e 08 bf fe ac bf 3f 3a ff 22 3e 51 24 34 bf
       -0.5321978 1.4974668 0.15917674 -0.70367914
000080 e6 6c cb 3e f3 87 00 bf ae 89 6b 3e 2f c8 3d be
       0.3973152 -0.5020744 0.2300174 -0.18533395
000090 cc d3 93 be c2 36 dc bc 0c ae da bd b7 38 03 be
       -0.28872526 -0.02688158 -0.10677728 -0.12814604
0000a0 d1 db 31 3e 18 e0 a6 3e 3d eb 6d bf 3d f6 a6 3f
       0.1736901 0.32592845 -0.9293707 1.3043896
0000b0 18 6b 6c bf 3f e0 b6 bd a7 7b b9 3e 88 cd 70 3f
       -0.9235091 -0.0892949 0.36227152 0.94063616
0000c0 bd 7c 96 3f b2 af 43 3f dc ee 59 3f d0 e3 76 bf
       1.1756817 0.76439965 0.85130095 -0.96441364
0000d0 be 5c c7 3f ae 10 35 3e d2 0b 00 3e 76 a7 09 be
       1.5575178 0.17682144 0.12504509 -0.13442788
0000e0 6b d6 bf bc 60 ac 91 bd 8b bb bb bd c2 6f d3 3d
       -0.023417672 -0.07112956 -0.0916663 0.103240505
0000f0 42 34 9b 3d 94 71 4e 3c a1 22 82 bc be 50 b7 3d
       0.07578327 0.012600321 -0.015885653 0.08950947
000100 da 81 97 bf f3 ed 36 3f ca a9 b7 bd c1 58 9a 3e
       -1.1836503 0.7145683 -0.089679316 0.3014584
000110 c0 36 9c bd a3 8b 65 be 11 3c da bf 23 a8 3f 3f
       -0.0762763 -0.22416548 -1.7049581 0.7486593
000120 62 1e 6c 40 b3 30 9f 3f d0 75 dc bf 74 70 55 3e
       3.6893544 1.2436737 -1.7223454 0.20843679
000130 94 64 94 3e f1 39 ae be 22 a1 81 bf ac a0 a4 be
       0.28982985 -0.3402858 -1.0127299 -0.32153833
000140 3a 70 69 bc 58 d7 32 3e c2 da 58 be db 23 e8 bd
       -0.014247948 0.1746496 -0.211772 -0.11334964
000150 41 73 bb 3d 14 90 d2 bd 80 61 37 be 06 99 10 3f
       0.09152842 -0.10281387 -0.17908287 0.56483495
000160 ce ed d9 be e5 d2 d2 3e ad 52 31 bf b8 88 19 be
       -0.42564243 0.41176525 -0.6926678 -0.1499356
000170 30 c2 67 40 95 02 b0 bd 32 f9 4f 3f 0a a2 47 3f
       3.6212273 -0.085942425 0.81239617 0.77981627
000180 f0 ff 1a 3d 0a 18 80 bd fd 87 dd be a1 e2 50 be
       0.037841737 -0.06254585 -0.43267813 -0.20398952
000190 39 53 cd bd d8 82 b5 3d bf 0a 8b 3e 40 94 fa 3d
       -0.10025639 0.08862847 0.27156636 0.12235308
0001a0 76 34 60 3d 24 ed ce bc 37 4a 4b 3d 54 d2 94 3d
       0.05473753 -0.025259562 0.049631324 0.072666794
0001b0 87 35 54 3c 88 12 80 3e 2d 25 03 3f ed e2 f2 be
       0.012952215 0.25014138 0.512286 -0.47438756
0001c0 d2 12 3e be 6a 78 0c be 32 eb e4 bd 09 f9 13 40
       -0.18561867 -0.1371781 -0.111776724 2.312075
0001d0 78 d8 3b 3d c8 e5 e4 3f 8a d3 21 3f e7 4a 0c 3f
       0.045860738 1.7882624 0.6321341 0.5480179
0001e0 f9 c5 0f bf 4c 70 e4 be 6d 7b 90 bf f3 93 bb be
       -0.5616146 -0.44616926 -1.1287667 -0.36636314
0001f0 62 32 cf 3e a5 05 7b 3e 22 74 9d 3d c6 bb 4e 3d
       0.40468127 0.24513872 0.07688166 0.050472043
000200 90 e9 48 bd d4 f4 b4 3d 89 a4 30 bd dd 87 f5 bc
       -0.049050868 0.0883576 -0.043125663 -0.029972011
000210 c1 d2 3a 3e 3c a8 e6 3e 18 68 8a 3d 2e 05 4f be
       0.18244459 0.45050228 0.067581356 -0.2021682
000220 97 53 d2 3e c5 1e d7 bd 2c 34 2c 3f 51 e6 44 bf
       0.410794 -0.10503916 0.6726711 -0.76913935
000230 64 cc 20 be 95 42 e7 bd 20 5f b3 bd a4 5a a3 bf
       -0.15702969 -0.112919964 -0.08758378 -1.2762036
000240 ad cb d1 be 72 1e 3e be 9b ae 4a 3e 7e c7 e8 3d
       -0.40975705 -0.18566301 0.19793169 0.11366175
000250 b5 a9 bc bd 2c 36 d5 bc 56 2c e7 ba 70 ff 84 3b
       -0.092120565 -0.026026808 -0.0017637115 0.004058771
000260 c3 6b 1a 3d 6b be 00 ba 7b 0b e4 ba f5 b2 c0 3d
       0.037700426 -0.0004911187 -0.0017398441 0.09409133
000270 20 08 c3 3d 51 d5 50 3d 20 bd 54 3e d3 1a a6 3c
       0.09523034 0.050984684 0.2077527 0.020276463
000280 b2 1c 8b bc 94 8a 55 40 21 30 84 bd a0 02 87 bf
       -0.016981456 3.3365831 -0.06454492 -1.0547676
000290 0d 9f a0 bf 1a 82 41 3f b5 d7 9a 3f b9 53 67 bf
       -1.2548538 0.75589144 1.2097079 -0.90362126
0002a0 15 04 62 3f 02 0f 21 be bf 87 3e bd 5b b4 0e be
       0.8828748 -0.15728381 -0.046516176 -0.13935988
0002b0 fd 52 cb bd d2 bb 42 bd 09 0f 80 3d 37 a5 85 3b
       -0.09927938 -0.0475424 0.06252868 0.004078533
0002c0 68 c1 4e bd 98 fa 8c 3d 1a f0 8c bf c9 e8 aa 3a
       -0.050477415 0.068837345 -1.1010773 0.0013039346
0002d0 ee a6 9d 3e 68 95 fb bf 3f 85 25 3f 29 ec 5a 3f
       0.3079142 -1.965497 0.6465644 0.855166
0002e0 23 bf d0 3f 0a 14 96 3d 10 6f 7b 3f cb 30 99 be
       1.630833 0.07328041 0.9821634 -0.2992004
0002f0 f1 d0 18 3f 4a 02 7d 40 3b 22 33 3f 85 0f cc bd
       0.5969382 3.9532647 0.69974107 -0.099638976
000300 40 54 3a 3e 49 b8 8a 3f 56 9c c6 bd 21 8e e7 3a
       0.18196201 1.0837489 -0.096977875 0.0017666259
000310 72 bd 99 bb 8a 5e a0 bc f7 8d 5a 3e e7 b5 6d 3d
       -0.004691773 -0.01957633 0.21343218 0.058034804
000320 f0 79 5e bc b2 bb 37 3e d0 f7 14 3e 2e 80 6a 3f
       -0.013578877 0.17942694 0.14547658 0.91601837
000330 2b a1 06 3f cd 78 0c be a2 ea 81 bd 65 51 49 40
       0.5258967 -0.13717957 -0.06343581 3.145593
000340 71 47 e5 bf 36 31 ea be 47 93 b3 be fa e9 37 3f
       -1.7912427 -0.4574067 -0.350733 0.71841395
000350 3c eb 1a c0 c3 73 23 3f 6b 90 c6 3f 77 be 30 be
       -2.4206076 0.63848513 1.5512823 -0.17260157
000360 9e 2d 11 3d cd b1 95 3e 87 eb 81 3d ad d8 e2 3c
       0.035443895 0.29237214 0.063437514 0.02769121
000370 5b 0c b9 3d 59 6b a6 3e 49 8a e7 3d c6 33 e2 bc
       0.0903556 0.32503775 0.11305673 -0.027612578
000380 8a 14 10 3a a0 49 60 3e 6c dc 92 3e 5c a6 8d 3c
       0.00054962246 0.21903086 0.28683794 0.01729124
000390 31 fe 4e 3e 92 5c bb bc a6 c1 8d 40 32 e7 db 3f
       0.20214154 -0.02287129 4.4298887 1.717993
0003a0 dc 3a bd be 70 63 5f be b4 0a 00 bf e2 cb 18 3f
       -0.3695897 -0.21815276 -0.5001633 0.596861
0003b0 50 fd 1b 3c 41 30 89 be 9a 7f 8d 3e e5 50 55 3f
       0.009520844 -0.26794627 0.27636415 0.8332656
0003c0 fd 9e 45 3f a4 30 65 3e 4f f7 a6 3d 10 b4 0c bc
       0.7719572 0.22381836 0.08152639 -0.008587852
0003d0 60 8e 42 3d 43 d6 57 3d 18 2d 92 3b 11 12 32 be
       0.04749906 0.05269457 0.004460942 -0.17389704
0003e0 4a c0 1b be b6 4b b8 bd 65 96 96 be d8 11 54 3e
       -0.15210071 -0.08998816 -0.29411617 0.20709932
0003f0 da f8 39 3d 4a 15 4a bf e5 da 88 bf 1c 66 d5 bd
       0.04540334 -0.78938735 -1.0691801 -0.104198664

Q2.0.bias f4 [256]
000000 b5 1c 23 bf 05 22 8d be d9 0d c8 bf 88 40 8d bf
       -0.6371568 -0.27565017 -1.5629226 -1.1035318
000010 c5 48 d7 3f 8c 76 d6 3f 3a e0 cc 3f 07 6f 39 be
       1.6819082 1.6754928 1.6005929 -0.1810876
000020 7c 6a 38 c0 9a 79 87 bf e6 de bf bf d8 4b 1d bf
       -2.8814993 -1.0583985 -1.4989898 -0.61443853
000030 aa 2a 84 bf 09 b6 41 3f 41 3a 5c 3f 0f 2e 68 bc
       -1.032552 0.7566839 0.8602639 -0.0141711375
000040 99 da 49 bf 4f 83 f7 3e 72 ba 90 3e a6 b8 88 3f
       -0.7884918 0.48342368 0.28267246 1.068135
000050 b8 b9 00 bf 0a f2 31 bf 74 c4 91 3e 97 0f c9 3f
       -0.50283384 -0.6950995 0.28470194 1.5707883
000060 d7 c9 ff be ba 70 87 3f 02 16 86 bf 0c da 85 bf
       -0.4995868 1.0581276 -1.0475466 -1.0457168
000070 34 b4 af bf 85 57 68 bf 5f 3e 3d 3f 9d 0d d6 3f
       -1.3726869 -0.90758544 0.73923296 1.6722904
000080 49 90 ca 3e 40 83 9c be c0 12 f1 3f 43 3b a6 bf
       0.39563206 -0.30568886 1.8833847 -1.2986835
000090 64 84 17 bf 76 0f 90 3f 48 4a a0 bf 4c d3 b5 3f
       -0.5918639 1.1254718 -1.2522669 1.4205108
0000a0 ee 42 a0 bf 98 ba ef bd 6a 12 29 bf 99 59 ef bf
       -1.2520425 -0.11705512 -0.6604372 -1.8699218
0000b0 27 ae 98 3f 7a 05 cb bf 95 d3 f3 3e 91 01 cd 3f
       1.1928147 -1.5861046 0.47622362 1.6016103
0000c0 4d dc c5 bf 5b 21 12 3e f1 93 ca bd ca 04 88 bf
       -1.5457855 0.14270537 -0.09891499 -1.0626462
0000d0 5a a3 74 be 8c e7 cd 3e 6c f9 58 bf c1 e8 c5 3e
       -0.23890439 0.4021572 -0.8475559 0.3865414
0000e0 2c ae da bf 82 6c 7f 3f d7 b7 a9 3f 83 11 55 3f
       -1.7084403 0.99774945 1.3259228 0.83229846
0000f0 cd bf a6 bf 98 e7 ba 3f b9 06 3b bf 60 97 83 bf
       -1.3027283 1.4601927 -0.7305713 -1.0280571
000100 c9 ad 97 bf 1f 47 d0 bf de 0f 98 be 39 a1 b6 3e
       -1.184991 -1.6271704 -0.29699606 0.35669878
000110 1f e9 d3 bf 93 3c 0c c0 40 db e3 3f e7 70 32 3f
       -1.6555518 -2.1911972 1.7801285 0.69703525
000120 65 22 90 3f 0b 46 02 40 fe d3 d4 3f 1a 73 01 c0
       1.1260496 2.035525 1.6627195 -2.0226502
000130 83 99 e5 be 16 f0 8c 3f 46 1c bd bf e0 43 aa 3f
       -0.44843683 1.1010768 -1.4774253 1.3301964
000140 25 96 91 3f f6 35 7d 3f d3 d6 f1 bf f2 0c 5f bf
       1.1373945 0.9891046 -1.8893684 -0.8712913
000150 15 7a 08 be 61 71 5e 3f e6 64 c0 bf 73 37 58 be
       -0.1332782 0.8689175 -1.5030792 -0.21114902
000160 5a a4 ff 3f 80 25 be 3d c7 3e e5 bf 55 96 9d 3f
       1.9972031 0.09284496 -1.7909783 1.2311503
000170 78 64 6c 3f 37 47 de bf aa fc cb 3f a9 46 bd 3f
       0.92340803 -1.7365483 1.5936482 1.4787189
000180 f1 a2 0b c0 c4 35 3f 3f 73 97 1c 3f b4 6b 93 bf
       -2.1818202 0.74691415 0.61168593 -1.1517243
000190 ba 6a 4b be e1 1d 6d 3f e4 d3 bf 3f 01 2c b8 3f
       -0.19864932 0.92623717 1.4986539 1.4388429
0001a0 60 52 e2 bf 92 b7 e9 bf eb 17 c5 3f 22 c3 75 bf
       -1.7681389 -1.8259146 1.5397924 -0.96000874
0001b0 57 d8 a8 3f 73 d7 02 c0 34 b1 60 be 1c 87 ac bf
       1.3191022 -2.0444 -0.21942598 -1.3478732
0001c0 04 fd 91 bf 83 a0 81 bf 04 20 80 3f d1 24 83 3e
       -1.1405339 -1.0127109 1.000977 0.25614026
0001d0 b9 20 8e 3f 75 c9 b0 bf b0 59 be 3e 18 78 a5 bf
       1.1103736 -1.381148 0.371778 -1.2927275
0001e0 09 6a 49 3f 89 99 9f bf e8 4d 03 bf d5 20 20 3f
       0.7867742 -1.246873 -0.5129075 0.625501
0001f0 33 bd b8 bf 34 05 d7 3f c9 80 d0 3f a2 ca e2 3f
       -1.4432739 1.6798463 1.6289302 1.7718089
000200 a6 3c 00 bf 1a ea 13 bf a5 80 b2 3f 71 b5 c9 3f
       -0.5009254 -0.57779086 1.3945509 1.5758497
000210 aa 85 da be 01 64 9a bf da 10 46 3f 62 7a 9e bf
       -0.42680103 -1.2061769 0.77369463 -1.2381098
000220 65 c1 a3 bf f4 3d 78 bf bc ed b6 3f a2 d3 44 bf
       -1.2793394 -0.9696953 1.4291301 -0.76885426
000230 ff 85 b8 3f 68 0a e2 3f 31 f3 04 40 a5 d1 e2 3e
       1.4415892 1.7659426 2.0773432 0.4430057
000240 1b 7e 3b 3f 07 13 69 3f db 15 7a 3f 85 f9 8a 3f
       0.73239297 0.9104466 0.976896 1.0857397
000250 1e e0 84 3f 45 84 c6 3f b3 40 d0 bf 50 e8 88 3e
       1.0380895 1.5509115 -1.6269745 0.2673974
000260 33 2b 80 bf f9 90 7b 3f 46 09 3f bf cb a6 b6 bf
       -1.0013183 0.98268086 -0.74623525 -1.4269651
000270 6b 2c b4 bf 89 1e fc 3e b1 49 7d 3f 92 45 f0 bf
       -1.4076055 0.49242046 0.9894057 -1.8771231
000280 60 c1 b7 bf 4a 60 d0 bf d7 f8 ad bf 34 fe ee 3f
       -1.4355888 -1.6279385 -1.3591565 1.8671327
000290 a9 82 70 be e1 11 1a 3e a3 54 9a 3f 56 f8 dd 3e
       -0.23487343 0.15045883 1.2057079 0.43353528
0002a0 66 2c ec bf 0c c5 48 3f 94 cd 73 3f 28 78 18 3f
       -1.8451049 0.7842567 0.9523556 0.59558344
0002b0 7a 77 d6 bf 0a b6 6c be 58 2a 8c 3f 10 5e ac bf
       -1.6755211 -0.23116317 1.0950422 -1.3466206
0002c0 b6 09 07 3e f2 bd 98 3f bd df 20 3f 2e 45 06 bd
       0.13187298 1.1932967 0.628414 -0.03278082
0002d0 0a cd 8a bf f7 d8 fa bf cc 74 a0 bf 30 c1 8c 3f
       -1.0843823 -1.9597462 -1.2535644 1.0996456
0002e0 ef 26 8c 3f 34 5f 64 3f 56 e4 f6 3f 23 da af 3f
       1.0949382 0.8920777 1.9288433 1.3738445
0002f0 04 33 12 c0 a6 a8 b7 bf 35 fb d6 bf 4d 93 62 bf
       -2.2843637 -1.4348342 -1.6795412 -0.88506013
000300 f0 1a d5 bf 74 69 9c bf f0 8c 0a be a6 25 12 bf
       -1.6648846 -1.2219682 -0.13530326 -0.57088697
000310 1b 21 85 be c8 08 a1 3f c4 1b e4 3f fb 51 76 bf
       -0.2600182 1.2580805 1.7820973 -0.9621884
000320 12 06 9f bd c1 75 8c bf b7 75 cf 3f d4 c6 b3 bf
       -0.0776483 -1.0973436 1.6207799 -1.4045053
000330 81 8b 44 3f 6e 3f 4f bf 3a 36 25 3f aa 1e ce 3f
       0.76775366 -0.8095616 0.6453587 1.6103108
000340 2f fa aa be 2f af 49 3f d1 87 64 bf 84 7d 8e bf
       -0.33394 0.78782934 -0.8926974 -1.1132054
000350 c1 94 75 3c ec 52 42 bf 49 52 d3 3f a7 3f 91 3f
       0.014989079 -0.7590778 1.6509486 1.134755
000360 72 03 01 c0 fc d4 4f 3f 69 d8 8c bf 58 93 c9 bf
       -2.0158353 0.81184363 -1.1003543 -1.5748091
000370 47 14 c3 bf 13 3e 5e 3f e2 89 ae 3f d3 23 a4 be
       -1.5240563 0.8681347 1.3635828 -0.32058582
000380 92 39 ab 3f 01 7d 82 bf a3 0d cf 3f a7 c7 8b 3f
       1.3376944 -1.0194398 1.6176037 1.0920304
000390 b7 ea f4 3f a4 8d ea bf 02 c3 b2 3f e8 c5 dc bf
       1.9134129 -1.8324475 1.3965762 -1.7247896
0003a0 61 bd 95 bf 89 08 2a 3f 6a d2 77 bf 6c 8c 95 bf
       -1.1698419 0.66419274 -0.9680544 -1.1683478
0003b0 36 59 b0 3f b9 82 07 3c d6 9e 1c be e8 58 e1 3d
       1.3777225 0.008270913 -0.15294966 0.11003286
0003c0 8a 5c 61 bf 24 29 22 3f e6 2a dc bf ed e9 b6 bf
       -0.8803183 0.63344026 -1.7200592 -1.4290138
0003d0 ac 5b 79 3f d3 23 9c bf 9a 33 6a bf 97 72 e8 3e
       0.97405505 -1.2198433 -0.9148499 0.45399925
0003e0 4e 5f 13 3f 3e 91 6f 3e f4 b3 ae be 07 c6 48 3f
       0.575673 0.23395249 -0.34121668 0.78427166
0003f0 77 9e 61 bf e7 0d 1c bf 32 29 96 bf 66 d8 45 bf
       -0.88132423 -0.60958713 -1.1731322 -0.7728332
