trained_models/AntNormal-v3/sero/actor_3.pt (torch, 397248 bytes, 8 tensors)

shared.0.weight f4 [256, 111]
000000 49 81 e4 bc 61 4b 85 be 3d b5 04 3f a3 c2 3f bf
       -0.02789368 -0.26034072 0.5183905 -0.7490637
000010 56 a9 7a bf 21 4a 21 bf 3e 7b e9 3c 89 1a 8e be
       -0.97914636 -0.63003737 0.02850115 -0.2775462
000020 83 c7 1f 3f 45 9f c5 bd 0e 4e 9c bb af b9 35 be
       0.62413806 -0.09649519 -0.004770047 -0.17746614
000030 05 e0 a4 3e 9a 9b ce be bf 00 e7 3d a7 19 0a 3e
       0.32202163 -0.4035309 0.11279439 0.13486348
000040 28 82 6e 3e f5 d4 ea be a8 e7 3c 3d 5f 46 1b bc
       0.23291838 -0.45865598 0.046119362 -0.009477227
000050 e7 23 4f bc bb 1a 83 bd 90 0f 60 bd 22 ed f7 3d
       -0.012642837 -0.06401583 -0.05470234 0.12105776
000060 4f 81 73 bd b7 7b 63 bd 4b d3 0c bd af b0 ae bd
       -0.05944949 -0.055537906 -0.034381192 -0.085297935
000070 cb ba 60 3d 74 8f a0 bd c1 00 8b bd 9b c2 0f 3c
       0.05486564 -0.078398615 -0.06787253 0.008774425
000080 f5 7e 83 bc 4f 24 a5 3d 66 5f 2a 3d 70 b0 b7 bd
       -0.016051749 0.08063566 0.041594885 -0.089692
000090 c4 eb b5 3b 80 34 23 3d 4e 54 b3 bb 52 c2 93 bd
       0.005551787 0.03984499 -0.0054726964 -0.07214798
0000a0 bb bb a2 bc bb 3b 03 bd 7a d0 b7 3d 0a 6e 32 b9
       -0.019864907 -0.032039385 0.089753106 -0.00017016396
0000b0 f8 aa 96 3d 53 9e 87 bd af a9 2e bd c9 16 42 bd
       0.073568285 -0.06621995 -0.04264229 -0.04738501
0000c0 06 7d 60 bd f2 52 1e bc 9f e0 7f bd d0 8f 8f 3d
       -0.05480673 -0.00966333 -0.062470075 0.07009852
0000d0 8b 42 98 bd cf 05 2f bd 88 c3 6f 3c 7a 26 ba 3d
       -0.07434567 -0.04273015 0.014634021 0.0908937
0000e0 57 a4 8e 3d 0d 4f 56 bd c7 8f b0 bd f0 fa 75 bb
       0.06964939 -0.052321482 -0.08621173 -0.0037533604
0000f0 ed 37 b1 3c 4c 2c 3d bd d0 97 b0 bd 2d 59 8c bd
       0.021633113 -0.046184823 -0.08622706 -0.068529464
000100 74 ad a2 3d 10 3a 88 bd 79 2c ef 3b 63 33 cb bc
       0.0794324 -0.066516995 0.0072990027 -0.024804777
000110 5b 04 53 bd ae 2f b2 bd 3e 15 8b 3c dd b8 50 bd
       -0.051517826 -0.087005004 0.016977903 -0.05095755
000120 23 95 a1 bd 75 91 9d 3d 8a 0c 8f 3d 52 56 67 bd
       -0.07889774 0.07693759 0.069848135 -0.056478806
000130 4a 57 b6 3d 95 64 02 bd ef e8 a0 3d c1 cb 88 3a
       0.08903368 -0.031834204 0.078569286 0.00104367
000140 14 88 90 3c c2 1e 77 3c df 58 00 bd 0e 82 67 3d
       0.017643012 0.015083017 -0.031334754 0.056520514
000150 2c cd a6 3c 0a 06 4e bd f8 cd b9 bd f3 9f 04 3b
       0.020361505 -0.050298728 -0.090724885 0.0020236939
000160 c8 8e 46 bc bd 7c 80 3c 78 ea 17 3d 62 92 a3 3d
       -0.012119003 0.01568448 0.03708884 0.07986905
000170 59 13 61 bd 21 d7 19 bc b8 8b 8e 3d 09 bd 9e bc
       -0.054950092 -0.00938967 0.06960243 -0.019377248
000180 4d 84 8a 3d ce 48 87 3d 63 f1 92 bc 23 81 a5 bd
       0.067635156 0.06605683 -0.017937368 -0.080812715
000190 ef 03 3b bd 5a d1 8e bd aa b4 77 bd 14 c4 ba bd
       -0.04565805 -0.069735244 -0.06047503 -0.0911943
0001a0 43 16 f1 bc d9 23 f2 3c 9a ea 3f bd 28 6f 5b 3b
       -0.02942956 0.02955811 -0.046854593 0.0033483002
0001b0 df a6 89 3d 54 6d ad 3d 0d ca a0 bd ff 18 22 3e
       0.06721281 0.08468118 -0.07851038 0.15829848
0001c0 79 3c 5c be 16 4a f1 be 1f 2d c3 bf 28 ac b1 bf
       -0.21507443 -0.47126836 -1.5248145 -1.3880663
0001d0 04 95 14 3f 81 ef a5 3d 2e 58 5a be 26 93 aa bd
       0.5803988 0.08102322 -0.213227 -0.083288476
0001e0 19 21 40 3e bd 1b 64 bc 93 4e bd bd c0 1a 5a bf
       0.18762626 -0.013922629 -0.092435025 -0.8519707
0001f0 eb 9f 97 be 63 c1 85 3d 99 85 46 3d 45 f8 64 be
       -0.29614195 0.06531026 0.048467252 -0.22360332
000200 98 39 bf bd b8 13 9b bd e5 62 18 bd 63 ad 3d bd
       -0.09337157 -0.075721204 -0.03720369 -0.046307933
000210 24 b9 f0 3d bf ac dd bb ea d1 a4 bd 5a 1d ae 3d
       0.11754063 -0.0067649777 -0.080478504 0.08501692
000220 30 af 34 bd c5 c6 42 bd e8 76 a4 bd cc 65 d8 bc
       -0.044112384 -0.047552843 -0.08030492 -0.026415728
000230 2b 82 12 3a 95 e8 42 3d eb a0 80 3d ad c2 7b 3d
       0.00055888545 0.04758509 0.06280693 0.061464954
000240 69 67 21 bd 6d 9c be 3c 60 9c 9b 3c 3a 8b 2b 3d
       -0.03940526 0.023267949 0.018995464 0.041880824
000250 6d 17 41 3d 78 5e 8d bd 1d a8 a9 3d 58 4f 6c bc
       0.04714148 -0.06902784 0.08284018 -0.014423214
000260 1b a6 77 bd 82 d2 b2 3c 71 5d a7 bc ef e1 59 3d
       -0.060461145 0.021828894 -0.020430299 0.053193983
000270 74 79 8c 3d a3 86 86 bd 85 f0 10 bd 16 40 04 ba
       0.06859103 -0.06568649 -0.035385627 -0.000504495
000280 f9 94 b0 3d 21 59 17 bd 23 b3 05 3d 70 cb 64 bd
       0.08622164 -0.036950234 0.03264154 -0.055858076
000290 8c c3 aa 3d 57 07 99 3d b6 8b 06 3c a6 fe 22 3c
       0.08338079 0.07472103 0.008212021 0.009948408
0002a0 75 74 9a bd 6c 7f 61 bd d1 67 13 bd b7 94 43 3d
       -0.07541744 -0.05505316 -0.03598768 0.047749247
0002b0 b7 24 c0 bc 5c 64 22 bd 42 a5 b3 3d 01 2a 8b 3c
       -0.023455007 -0.03964649 0.08771755 0.016987802
0002c0 0d ff 99 bd 86 5e 57 bd 51 74 34 3d 7f 09 77 bc
       -0.0751935 -0.05258038 0.04405624 -0.015077948
0002d0 20 01 b0 bd 6c 1b 75 bd 17 1a dd ba 5f 8c c3 3c
       -0.085939646 -0.059840605 -0.0016868737 0.023870645
0002e0 de e4 b0 3d ff 2e b1 bd a4 71 43 3d a6 a0 90 3d
       0.08637403 -0.08651542 0.047715798 0.07061891
0002f0 90 5c 00 3c fe 72 cc 3c c3 4e 79 bd 8f d3 79 bd
       0.007834569 0.024957176 -0.06086613 -0.060992774
000300 28 65 4e 3c 82 3d ca 3c 50 8d 07 3d 9c 4d 8f bd
       0.01259736 0.024687532 0.03309375 -0.06997225
000310 ea 0a 5c 3c 46 ce 5e bc eb a2 b3 3d 10 e4 be 3b
       0.0134303365 -0.013598984 0.087713085 0.005825527
000320 b2 a5 b7 bb d6 eb 08 bb 72 f1 4e 3c 35 9e 37 3d
       -0.005604469 -0.0020892522 0.012630807 0.044828612
000330 22 01 8a bc 6e f6 c0 3d 31 3f 18 bd c8 44 3f bc
       -0.016846243 0.09422003 -0.03716964 -0.011674114
000340 66 ed 0f 3d 3d 91 00 3c 6f ec 63 bd 3c 72 c8 3c
       0.03513851 0.0078471275 -0.055645403 0.024468534
000350 e6 af 03 3d 6c f1 96 bd 31 3d 3c bd e9 86 d9 3b
       0.03215017 -0.07370266 -0.045956794 0.006638397
000360 27 19 5a bd 4c 68 61 bc d3 4a 97 bd 63 01 27 bd
       -0.053246643 -0.0137577765 -0.073873185 -0.040772807
000370 35 a5 83 3d 4a cd ac 3c cf b4 3c c0 bc 0e 5a 3f
       0.06427995 0.021093983 -2.9485357 0.8517873
000380 f8 56 68 bf a0 23 a2 3f 1c 85 5e be 98 6b 8f bd
       -0.90757704 1.2667122 -0.21730465 -0.07002944
000390 6e d1 b2 3c 76 a0 8c 3e 62 9c 27 bf 06 c5 83 3d
       0.02182838 0.27466172 -0.65472996 0.064340636
0003a0 35 75 05 3c 09 54 8d bd 36 90 e9 3e f3 66 9a 3c
       0.00814562 -0.06900794 0.45617837 0.018847918
0003b0 a6 fb 84 bc ef b1 f4 bd e1 2d bd bd 24 17 82 3d
       -0.016233277 -0.11948001 -0.09237266 0.0635207
0003c0 9c 4c 02 bc b3 39 9b bb ba 68 b4 ba fa 26 84 bc
       -0.007952835 -0.004737103 -0.0013764121 -0.016131867
0003d0 18 36 a7 bc c8 0d 1b bc dd a9 ab 3c ae ac ac bb
       -0.020411536 -0.009463735 0.02095502 -0.0052696085
0003e0 60 5e 55 3c 23 73 bc 3d 3e 0e 05 bd 70 45 65 bd
       0.013022989 0.09201648 -0.032484286 -0.055974424
0003f0 cf b5 29 bd 85 62 ab bd ea 1a a5 3d 6a 71 9b 3d
       -0.04143315 -0.083684005 0.08061774 0.075899914

shared.0.bias f4 [256]
000000 d3 59 96 be eb b8 2c be be 23 e1 3d 38 d6 2c bd
       -0.29365405 -0.16867416 0.109931454 -0.042196482
000010 fa 86 2c bf 48 cc 46 bc 72 e0 16 bf ce 9c 57 bf
       -0.6739346 -0.012133665 -0.58936226 -0.8422364
000020 c9 c6 93 be e0 b9 d0 be 5b 3c c3 be 91 60 a1 bd
       -0.288626 -0.4076681 -0.38131985 -0.07879747
000030 5c 9b fb bd 38 c2 2d bf 38 70 85 bf 65 0b a2 bf
       -0.12285492 -0.6787448 -1.0424871 -1.2659727
000040 10 87 d7 be e7 d9 2a be 18 f6 56 bf 9b d8 8a bf
       -0.42095232 -0.16684686 -0.8396926 -1.0847353
000050 f6 05 6d bf 6e 29 ad bf 0f 8b 14 bf 1a 67 38 bf
       -0.9258722 -1.3528268 -0.58024687 -0.7203232
000060 e5 e3 59 be ef 67 64 bf 94 39 c9 bf 8d 61 3b bf
       -0.21278341 -0.8922109 -1.5720696 -0.73195726
000070 c1 57 6e be a2 e7 40 3e 79 9c ab be ef b0 79 bf
       -0.23275663 0.18838361 -0.33517817 -0.97535604
000080 9c c1 a5 be 93 55 42 be 74 0f 56 bf fc 41 4c bf
       -0.32374275 -0.18977956 -0.8361733 -0.79788184
000090 66 81 9f be 63 ca 2b bf 48 3a 05 3e 6a 9e d1 be
       -0.3115341 -0.6710569 0.13010514 -0.40941173
0000a0 fe 36 c4 bf f2 a7 2e bf f4 db 72 3e 5c eb 6e bf
       -1.5329282 -0.68225014 0.23716718 -0.9332788
0000b0 19 a1 6a 3d fb 88 e6 be d8 ab 46 bf b7 88 02 3d
       0.05728254 -0.45026383 -0.7760596 0.031868663
0000c0 12 a7 06 bf 18 d2 6a bf bd 53 86 bf b2 71 0a bf
       -0.5259868 -0.9172683 -1.0494305 -0.54079735
0000d0 77 28 aa bf 6f 3c 3f bf 2e 7a aa b9 9f b5 50 bf
       -1.3293599 -0.7470159 -0.00032515958 -0.8152713
0000e0 0a 12 84 3e 56 0f d4 be cf 61 8f bf 50 fb 83 3e
       0.25795013 -0.4141795 -1.1201724 0.25777674
0000f0 bc c5 12 bf b4 01 72 bf 6f 37 3d bf 5c 90 11 bf
       -0.5733297 -0.9453385 -0.7391271 -0.568609
000100 1b 71 ca be e5 a6 f2 be fd 33 8e 3b 33 02 92 3d
       -0.39539418 -0.47392955 0.0043396936 0.07129326
000110 bb 64 15 be 7f c2 3c bf 31 ce d8 3c 57 06 ad be
       -0.14589207 -0.7373428 0.026465507 -0.337939
000120 58 d8 1c bf 4b 96 50 bf e8 bb 80 be 79 a0 7f bd
       -0.61267614 -0.8147933 -0.2514336 -0.062408898
000130 74 b7 51 bd 14 69 85 bf 9a ea c8 be 60 9f f3 be
       -0.051200345 -1.0422692 -0.39241487 -0.4758253
000140 25 f1 21 bf ba 9b 47 bf 91 4d 32 bf 71 ba 61 be
       -0.6325858 -0.77971995 -0.69649607 -0.22043778
000150 0f bc ce bd fc 1a 08 bf 3c 1b bf 3d c3 6e e8 be
       -0.10094463 -0.53166175 0.093313664 -0.45397004
000160 dd a8 71 bf 36 d5 9f bd 19 13 26 bf 8e e7 5e bf
       -0.9439829 -0.07804339 -0.6487289 -0.87072074
000170 20 95 a2 bf 1a 52 f8 3d a9 8a 9c be df b3 28 bf
       -1.2701759 0.12125035 -0.3057454 -0.6589946
000180 b4 3a 9a be e3 72 63 bf ab fa d3 bf 70 99 9d bf
       -0.30122912 -0.8884718 -1.6560873 -1.231245
000190 e1 19 5f be 1b 5c 98 be 6f fb f4 bd 08 1e 1e 3f
       -0.21787216 -0.2975777 -0.1196202 0.61764574
0001a0 8a b9 9c bf 6e d4 3e bc f5 49 c4 3e 06 c4 5e be
       -1.2244122 -0.011647327 0.38337675 -0.21754465
0001b0 1e 89 84 bd 41 84 62 bf 4c 89 44 bf 3b ec 79 be
       -0.064714655 -0.88483053 -0.76772 -0.24406521
0001c0 e8 6e d0 3d dc 0b 5e bd 8a bb a4 bf c0 d9 36 bc
       0.10177404 -0.05421053 -1.2869732 -0.011160314
0001d0 cd 78 80 bf 9f d8 89 bf 42 fc 3b be 72 dd 8e be
       -1.0036865 -1.0769233 -0.18357947 -0.27903324
0001e0 86 f3 04 bf 8a d9 06 3f 9f 09 e2 3d b7 a3 b9 3e
       -0.5193409 0.5267569 0.11036991 0.36257717
0001f0 b4 67 72 bf 0f 50 ba bf ad 38 95 bf 24 6e 43 bf
       -0.9468949 -1.4555682 -1.1657921 -0.76339936
000200 38 fb bb bf d5 77 4c bf c9 4e 44 be 09 9a 9b bd
       -1.4686041 -0.7987035 -0.19170679 -0.07597739
000210 9f db 05 bf 0c 6d 0c bf e1 01 d1 bf 30 12 46 bf
       -0.5228824 -0.5485389 -1.6328698 -0.773715
000220 92 3f af be 99 e0 1d bf 4d 39 e5 3e af ea 06 bf
       -0.34228188 -0.61670834 0.4477028 -0.5270185
000230 c4 50 b9 be 9f ac 97 3e 34 05 02 bf 49 da bc be
       -0.36194432 0.29623887 -0.5078919 -0.36885288
000240 d6 9f 0d bf 64 14 5f bf 13 60 aa be 6e e2 8f bf
       -0.55322015 -0.8714049 -0.33276424 -1.1240976
000250 59 9a 08 be 5b e6 87 bf d3 d9 e1 bd 23 bf a9 bf
       -0.13340129 -1.0617174 -0.11027875 -1.3261455
000260 50 84 c4 be d3 a8 1f bf 59 cd 2c bf 4d 2b 89 be
       -0.38382196 -0.6236698 -0.67500836 -0.26790848
000270 57 3e 20 bf e6 66 20 be 5f c3 cc 3d 07 af 02 bf
       -0.62595123 -0.15664253 0.099982016 -0.5104832
000280 1f bf e8 bc 36 3d ee be a7 0f 93 bd 91 ac a6 bf
       -0.028411446 -0.46531075 -0.0718072 -1.3021413
000290 83 c0 9f be cb 70 24 bf 6c 7d 98 be 94 50 61 bf
       -0.31201562 -0.6423461 -0.2978319 -0.8801358
0002a0 c8 73 c9 bc 12 a2 e0 be dc d7 e8 be 35 88 c7 be
       -0.024591342 -0.4387365 -0.45477188 -0.38971105
0002b0 9b d7 af 3d a0 d6 36 be 98 dd 47 bf 87 85 44 bf
       0.08586045 -0.1785531 -0.780725 -0.76766247
0002c0 50 c7 08 3f f3 a8 0d be f7 b3 ed bb d5 d6 0c bf
       0.53429127 -0.1383398 -0.0072541195 -0.5501531
0002d0 8c c9 d0 bf 6a 2a 54 bf ba 25 9a 3c 7d 10 1c bf
       -1.6311507 -0.8287722 0.018816818 -0.6096266
0002e0 e7 0a 61 bf 43 a0 a6 be e9 60 ca bf c0 0f 48 3f
       -0.8790726 -0.32544145 -1.5810825 0.7814903
0002f0 61 81 d7 3d 44 ee cf be b5 2a 86 bf d6 25 67 bf
       0.10522724 -0.4061147 -1.0481783 -0.9029211
000300 c1 16 2b be 2f 9b f5 3e bc 0d cc be 42 9d 65 bf
       -0.16707899 0.47969958 -0.39854228 -0.8969308
000310 a0 ac 89 3c ab bb 62 bf a7 74 6e 3e 6d b6 5b bf
       0.016805947 -0.8856761 0.23286687 -0.85825235
000320 92 70 49 be 73 3c d5 be 16 24 91 bf 66 e6 25 bc
       -0.19671848 -0.41647682 -1.1339138 -0.010125732
000330 a8 6d 06 bf ff 4b 9c 3e 36 ce a7 bf e8 0b 4f bf
       -0.5251107 0.3052673 -1.3109806 -0.8087754
000340 da 43 25 3f 13 98 e8 be dd 0b e8 be f1 b3 a1 bf
       0.6455666 -0.45428523 -0.4532155 -1.2633039
000350 7c d4 64 bf 44 08 08 bf be de 3d bf c3 c0 e3 be
       -0.89386725 -0.5313761 -0.74168 -0.44483003
000360 e6 ad c1 be 1e 7b aa be 37 37 d0 bc fe e2 87 be
       -0.37827986 -0.33297056 -0.025416953 -0.2654037
000370 bf 72 bf be 30 e1 c6 be f4 a6 f4 be 3b 79 98 bf
       -0.37392232 -0.3884368 -0.47783625 -1.1911997
000380 18 29 59 be bc 8c c1 bd 84 c5 0f bf ef 1f 05 bc
       -0.21207082 -0.09450671 -0.5616076 -0.008125289
000390 67 10 bb bd 45 d4 ff be 7a 52 0f bf 82 0c 83 be
       -0.09133988 -0.49966636 -0.55985224 -0.2559548
0003a0 4f ac 37 bf bb ae af bd ba a7 df bd 7d d7 97 bf
       -0.717473 -0.08578249 -0.10920663 -1.1862637
0003b0 a1 fd 14 bf 57 d1 01 bf 1c 3c 50 be aa 3f 97 3c
       -0.58199507 -0.5071005 -0.2033543 0.018462975
0003c0 be 47 22 bf cf 2b 1e be b5 ec 39 bf e9 0e cf be
       -0.6339072 -0.15446399 -0.7262681 -0.40441063
0003d0 51 fd 87 bd d8 96 0d bf 44 18 19 bf 4c 28 0e 3f
       -0.06640113 -0.55308294 -0.5980265 0.5553024
0003e0 94 f1 7d bf 0d a7 4a 3e d5 68 1f bf 97 44 ce bd
       -0.99196744 0.19790287 -0.62269336 -0.10071676
0003f0 32 c9 3f bd a0 d5 4c bf 59 d9 0a bf 9a 6f a1 bf
       -0.046822734 -0.80013466 -0.54237896 -1.2612183

shared.3.weight f4 [256, 256]
000000 f9 05 d3 bd 7d a4 87 3d 2e 7b 04 bf 5c 78 95 be
       -0.103038736 0.066231705 -0.5175046 -0.2919339
000010 89 67 2b 3e ad 4b 89 3e a4 93 d8 be a6 23 15 3d
       0.16738714 0.2681555 -0.4230014 0.03641095
000020 f8 c4 31 be 81 b1 6f bd 46 d1 df 3e 31 06 63 3d
       -0.17360294 -0.05851889 0.4371435 0.055425826
000030 16 ce 39 3d 33 63 07 be a4 3f 79 3e 7c 94 b3 be
       0.045362554 -0.13221435 0.24340683 -0.35074222
000040 e4 f4 21 be 26 af 4f 3e 00 b1 64 be 26 ab f9 be
       -0.15816075 0.20281658 -0.22333145 -0.48763388
000050 8e f6 4b be 85 0c 88 3d 85 12 21 3e 85 7b a9 be
       -0.19918272 0.06643013 0.15729721 -0.3310205
000060 f7 97 d9 3d 2e 3f 22 3e cc f6 01 bf 00 c5 d1 3e
       0.10624688 0.15844414 -0.5076721 0.40970612
000070 ec 87 53 3d 89 99 a0 bf 47 84 f3 bd b0 33 dc 3e
       0.051643297 -1.2546855 -0.11890464 0.43008184
000080 24 19 2e 3e 42 da 46 3e e0 dd 1e bf 03 b2 a7 3e
       0.17001778 0.19419196 -0.62057304 0.32753
000090 28 bf 40 be 07 a5 8b bd de 4f 82 bc f9 cb db be
       -0.1882292 -0.06818586 -0.015907224 -0.42929056
0000a0 4c c0 a4 3f 90 fb 0c be 42 71 f9 3d 36 6d b5 3e
       1.2871184 -0.13767838 0.12179805 0.35434884
0000b0 ee ca 19 3e 4f 55 f8 bc 42 34 ba 3e 42 f7 97 be
       0.15018818 -0.030314116 0.36367995 -0.2968083
0000c0 41 e7 87 bd 8a 5c 17 bf 63 a8 9a 3e 3f db 1c 3e
       -0.06635905 -0.5912558 0.30206594 0.15318011
0000d0 71 b5 24 3e 09 89 35 be 62 61 a7 bb d3 c5 e6 be
       0.1608484 -0.17728056 -0.0051080445 -0.45072803
0000e0 b1 45 4a be 43 46 00 bb ca 35 f5 be a7 bf 81 be
       -0.19753148 -0.001957313 -0.478926 -0.25341532
0000f0 f0 b2 bf 3d f0 65 fe bd b2 8e 9d bd bb 06 b4 bc
       0.093603015 -0.12421787 -0.076932326 -0.021975866
000100 d3 f4 9b be 25 92 8e 3d 83 06 47 3d 15 8f ab 3e
       -0.30460224 0.069614686 0.048590194 0.335076
000110 73 56 f4 be da 2b 2f be 63 f4 5e 3e f2 f0 29 3d
       -0.47722206 -0.17106572 0.21772914 0.04148955
000120 3b 0a 54 3e b0 4a 9f be 40 ba 8c bc 6c e8 a4 3e
       0.20707028 -0.3111167 -0.017178655 0.32208574
000130 35 1c 54 bd 8f 7c e9 be ec 3d 5f bd e8 4f 54 be
       -0.051784713 -0.45602843 -0.054502413 -0.20733607
000140 c6 69 95 bc 29 cf 24 3f 60 fb fb bc a2 74 19 bf
       -0.018238913 0.643786 -0.030759513 -0.5994359
000150 45 b0 31 3e 0a c0 f2 be 20 8e 3c 3e a9 c0 2c be
       0.17352398 -0.4741214 0.18413591 -0.16870369
000160 ef 30 b0 3e cd 23 d7 be 19 ea 45 3e 04 ae bb 3e
       0.34412333 -0.420195 0.19327582 0.366562
000170 3d 86 53 3e f4 76 3c be fd 4c 09 3f 39 08 53 3e
       0.20656677 -0.18404752 0.536331 0.20608605
000180 da d9 e2 bd 85 f8 c2 3c 73 b0 75 3e 71 2b 91 3c
       -0.11076708 0.023800144 0.23993091 0.01772091
000190 f8 95 2c bf 62 b8 0a 3d f7 14 0c 3e 6c 35 00 3f
       -0.67416334 0.033867247 0.13679872 0.50081515
0001a0 af 11 56 3c c5 d8 67 bd 3c 9b d9 be be a1 4c bf
       0.01306574 -0.056603212 -0.42501247 -0.799343
0001b0 8c ed 4b be d9 37 a5 be 85 91 98 bd 04 33 78 be
       -0.19914836 -0.3226917 -0.07449631 -0.24238211
0001c0 e0 ef 0a 3c f9 54 95 3e e3 0a 36 be 96 a7 34 bd
       0.008480042 0.29166391 -0.1777759 -0.044105135
0001d0 a7 50 95 3d 30 52 e8 be 10 6a 35 be 2c 05 be bc
       0.07290774 -0.45375204 -0.17716241 -0.023195826
0001e0 8b c1 15 3e 85 27 1b 3d 4f 3c 87 3c b5 c0 46 bd
       0.14624612 0.037879486 0.01650825 -0.048523623
0001f0 3f 18 09 3f 1a b3 5d be 3b 79 c6 be 8e f7 6c bd
       0.5355262 -0.21650353 -0.38764367 -0.057853274
000200 be 78 90 3e 92 35 16 bf 5c 1f 35 3e 83 b2 b6 bc
       0.2821712 -0.5867549 0.17687744 -0.022301918
000210 1c ab 77 3e 57 55 9d bd db d9 53 bf 86 d5 b1 bb
       0.24186367 -0.07682293 -0.82754296 -0.0054270653
000220 dc 49 13 bf e8 55 5f be 4a 2f 2b 3d 89 ef 0d 3e
       -0.57534575 -0.21810114 0.041793145 0.13860907
000230 88 80 88 3d 3e d1 a7 b9 d3 36 2b bd 23 8d 7b 3e
       0.066651404 -0.0003200862 -0.04180033 0.24565558
000240 57 51 93 bf 7b 07 a0 3e bf d4 23 3d b0 67 81 bf
       -1.1509198 0.31255707 0.039997812 -1.0109768
000250 e4 15 2e 3e ca 3f cc 3e 3b ca b6 3e c0 58 a0 bd
       0.17000538 0.39892417 0.35701165 -0.07829428
000260 42 ce 89 3e 3a 1f 0c 3e 8b 0a 14 3d a0 25 4b 3c
       0.26915175 0.13683787 0.036142867 0.012399107
000270 ea b0 21 bf 33 7b c2 be 9a 53 79 bc e7 bc 35 3e
       -0.63160574 -0.3798462 -0.015217686 0.17747842
000280 80 99 d8 be 8d 74 4b 3e 3c 54 9d 3d 45 4c 8a 3d
       -0.4230461 0.1986868 0.07682082 0.067528285
000290 f9 b2 8a bd 37 a9 aa 3e 71 4a 4b bd ef 22 3f bf
       -0.067724176 0.33332226 -0.04963154 -0.7466268
0002a0 7c 9b 11 bc 90 34 00 3d 38 0e 53 be e5 4d 5f 3d
       -0.008887168 0.031300128 -0.20610893 0.054517645
0002b0 7c f4 6a 3e 2d b5 9f be 22 eb ea 3c 13 e0 fc bb
       0.22944826 -0.31192914 0.028676573 -0.0077171414
0002c0 70 f8 8b be 5a 78 dc bd cd a0 98 3d e7 8b fb bc
       -0.2733798 -0.10765143 0.07452545 -0.03070636
0002d0 02 8a 89 bf 0d 14 ce 3e 96 64 2e be 0f ca 3f 3e
       -1.0745242 0.40249673 -0.17030558 0.18729423
0002e0 e7 09 00 be 12 40 90 bd 54 de 00 bf 75 97 bc be
       -0.12503777 -0.070434704 -0.50339246 -0.36834303
0002f0 7d d3 16 be 3e fd 69 be 0c ce 91 bf 8e 39 25 bf
       -0.14729114 -0.2285051 -1.1391006 -0.64540946
000300 e2 e6 82 3d 61 f7 fe bd e9 ba 3a be d4 13 75 3e
       0.06391694 -0.124495275 -0.18235363 0.23933345
000310 cb 7a b3 bb f8 46 93 bf bc 71 96 bd 72 53 af 3d
       -0.0054772845 -1.1506033 -0.07345912 0.08560838
000320 06 7d 48 3f c2 fb c6 be fc 9a 24 bc b2 73 4a bd
       0.7831577 -0.3886395 -0.010046717 -0.049426742
000330 e8 e5 5d 3e bb de 64 3d c0 3c 06 3e b9 47 7a 3c
       0.21669734 0.055876475 0.13109112 0.015275889
000340 53 78 91 be 92 c3 0f 3b 93 53 0b be 4d 46 a9 3e
       -0.28412113 0.0021936637 -0.136061 0.33061448
000350 59 91 49 be 3a 72 f1 bc 64 06 3e bf 13 42 93 bc
       -0.19684352 -0.029473413 -0.742285 -0.017975843
000360 d6 a3 79 3d f0 cd d5 bd 5d f2 16 be 94 3b 36 3d
       0.06094726 -0.1043967 -0.14740892 0.044490412
000370 b1 ac 1e 3e 02 5e e8 38 cb 08 e5 bc 4d a4 58 3e
       0.15495564 0.000110801324 -0.027958294 0.21156426
000380 10 fb f7 bd 40 92 d6 bd e4 13 dc be d8 d7 ad 3e
       -0.12108433 -0.10477114 -0.42983925 0.33953738
000390 57 21 26 3e c3 55 b2 bd 17 73 94 bd 3b 52 57 3c
       0.16223656 -0.08707764 -0.07248514 0.013142164
0003a0 e9 93 c6 bd ac 19 62 3d 40 16 87 bd 9e cc 11 bf
       -0.096961804 0.055200264 -0.06596041 -0.56952846
0003b0 60 54 1a 3e 0b 3b ff 3d 36 fb e6 3d dd 46 20 3e
       0.15071249 0.124624334 0.112783834 0.15652032
0003c0 91 ed a0 3e 35 46 15 be 30 85 81 bd 91 c2 c7 3e
       0.3143125 -0.14577563 -0.063242316 0.3901563
0003d0 9a ce 4d 3d d6 16 30 3d 97 dd da 3e 7d 6f b5 3d
       0.05024586 0.042990528 0.42747185 0.08859155
0003e0 53 c2 3f 3e 88 6a e4 3d a8 87 6d 3d 33 5c 99 be
       0.18726473 0.11153132 0.0579907 -0.29953155
0003f0 68 7f eb 3d 23 c2 84 bd de 43 f7 3d 33 26 57 be
       0.1149891 -0.06482341 0.120734915 -0.21010666

shared.3.bias f4 [256]
000000 b5 24 e1 3d 4d 86 60 3e db 50 ac 3e 90 b0 78 3e
       0.109933294 0.21926232 0.33655438 0.24286103
000010 e8 f8 0f bd ae 03 a9 3e a7 50 29 bc 26 08 ad 3e
       -0.035149485 0.3301062 -0.01033417 0.3379528
000020 14 28 60 3e f1 11 2d bf d2 d8 0e 3e 71 0e a4 3e
       0.21890289 -0.676055 0.13949898 0.32042268
000030 23 a0 a3 3e e1 fe 00 3f 3c 18 8f bf c3 fe 48 bf
       0.31958112 0.50388914 -1.1179271 -0.78513736
000040 fb af 29 bf ba a2 a4 be 00 15 72 bf e5 90 68 bf
       -0.6628415 -0.321554 -0.94563293 -0.9084609
000050 45 c9 5c 3f 6f 9a 74 be 4c e1 0f 3f 6e 08 10 bf
       0.8624461 -0.23887037 0.5620315 -0.5626286
000060 a2 43 c1 3d d1 2e e4 3e 67 5f 8e 3e 40 52 1d bf
       0.09436728 0.44566968 0.2780716 -0.6145363
000070 1e 6b 74 be 81 90 2e bf 1f 58 0b 3f 0e cd ae be
       -0.23868987 -0.68189245 0.5443134 -0.3414082
000080 cc 3e c1 3e d6 2a ab be 69 0f 2b bd d3 d6 51 be
       0.37743223 -0.3343112 -0.041762743 -0.20492105
000090 a1 bc 0c 3e 1f ac 16 3e 8d 80 ce be 83 25 1f bf
       0.13743831 0.14714096 -0.4033245 -0.62166613
0000a0 77 c7 19 bf dd bd de be eb cb 85 3d 7c 45 a1 bd
       -0.60069984 -0.4350423 0.06533035 -0.07874581
0000b0 af f1 77 be 65 44 46 bf 34 fb 77 bf c0 b3 b8 be
       -0.24213289 -0.7744811 -0.9686768 -0.36074638
0000c0 53 51 f8 be 3e 9f a2 bf 72 7d c5 3e ea 0f 76 3e
       -0.48499545 -1.2704847 0.3857227 0.24029508
0000d0 c6 82 26 bf 43 56 e7 be 13 75 38 3f c5 ce 6b bf
       -0.65043294 -0.45183 0.7205364 -0.9211238
0000e0 5b 32 aa 3e 93 34 36 be a9 a9 55 bf da 7d e9 be
       0.33241543 -0.17793493 -0.83462006 -0.4560383
0000f0 9d 54 98 3e 2c cf 58 be b6 2f 64 be 41 de dc 3e
       0.29752055 -0.2117278 -0.22283825 0.43138316
000100 07 ea 10 3e 4f 97 12 3f 2b e7 35 bf a3 bd 00 bf
       0.14151774 0.5726213 -0.7105586 -0.5028936
000110 b3 7e f7 3d 35 48 ab bf 15 dd b5 be b8 4c b2 be
       0.12084713 -1.3381411 -0.35520235 -0.34824157
000120 13 03 9b bf af f6 55 3f 19 29 e9 be cf 2d 51 bf
       -1.2110313 0.83579534 -0.45539168 -0.81710523
000130 b4 19 f3 3d 4a a7 95 bf 2a 3a c8 be f5 e4 22 3f
       0.11870137 -1.1691678 -0.39106876 0.6363061
000140 d6 66 7b bf 80 e9 5d bf 86 a3 aa be af 1c 27 bf
       -0.9820379 -0.8668442 -0.33327883 -0.6527814
000150 fc c4 e7 3e f0 6e 22 3f e1 7a c9 be 00 b8 e2 bf
       0.45267475 0.6345053 -0.39351562 -1.7712402
000160 33 eb 02 3f 05 c3 2f bf 60 94 24 bf 46 12 c0 3e
       0.51140136 -0.6865695 -0.642889 0.37513942
000170 26 fe 90 bf c6 30 6c 3f 75 5b 94 bf 78 12 18 3f
       -1.132756 0.9226192 -1.159041 0.5940318
000180 7b cf 39 3f bc 93 b7 bf ae ed 2c bf 12 8c 16 3f
       0.72582215 -1.434196 -0.6755017 0.5880748
000190 ac 3a 1c 3f b8 3a 45 bf b9 cb 31 3f f5 97 1b bb
       0.61027026 -0.7704272 0.6945148 -0.0023741696
0001a0 2a 94 fb be 31 33 a9 be 44 19 5d 3b 58 d5 c8 be
       -0.49136478 -0.33046868 0.0033736983 -0.39225268
0001b0 ea bd c6 3e 65 de a4 3e 8c b3 e9 be b1 7a 82 bf
       0.38816768 0.32200924 -0.45644796 -1.0193692
0001c0 24 9d c0 be 41 84 15 be 7d 8f 55 bf e6 c6 01 3f
       -0.3761989 -0.14601232 -0.8342207 0.5069412
0001d0 48 ea 99 bf ad 88 a3 3e 22 b8 3f 3f 2a 7d cc bd
       -1.2024622 0.31940213 0.7489034 -0.09984811
0001e0 02 6a 66 3e 8a 89 75 be 25 2e fd 3e 7b b0 f6 3e
       0.22501376 -0.23978248 0.49449268 0.4818152
0001f0 77 ab 10 bf fe 03 7a 3e 26 43 27 bf 30 0a 60 3e
       -0.56511635 0.24415585 -0.65336835 0.21878886
000200 75 9e 07 bf ed 92 01 3f 57 0a 0d 3f c1 8b 47 3f
       -0.5297616 0.50614816 0.550939 0.7794762
000210 55 8d 5d be 25 9f 83 bf 88 a4 15 bf 69 90 01 3c
       -0.21635945 -1.0282942 -0.5845418 0.007907965
000220 c1 fc 0b 3f a8 50 78 bf 69 36 b3 be b2 73 84 bf
       0.54682547 -0.9699807 -0.3500245 -1.0347807
000230 7d 16 4c bd 2e eb 91 be 01 53 c6 3e 29 e6 90 bf
       -0.049826134 -0.2849974 0.38735202 -1.1320239
000240 d5 f8 7b bf 25 c2 14 bf 00 75 53 bf bb 9e 66 bf
       -0.9842656 -0.5810874 -0.826004 -0.90085953
000250 ba d9 22 3f b6 fe 20 bf b3 8e 0f 3c 85 0a 96 be
       0.63613474 -0.6288866 0.0087620495 -0.293049
000260 d4 af 20 bf 29 44 52 bf 6f eb 10 3f cb 0a d1 3e
       -0.6276829 -0.82135254 0.56609243 0.40828547
000270 94 1b 89 3e 9e 7f 26 3f 08 cf 46 bf 64 22 14 bf
       0.26778853 0.6503848 -0.77659655 -0.57864976
000280 b8 48 cb 3d fa 09 c4 be 9f 0e 29 bf a7 eb 43 3f
       0.099259794 -0.38288862 -0.66037935 0.7653145
000290 11 2c 68 bf 6c 59 c7 3e b6 e3 13 bf 0b 90 57 3f
       -0.9069224 0.3893541 -0.57769334 0.8420417
0002a0 ad 0d 86 bf bb a0 72 bf 1d e5 a0 3d 78 a9 89 bf
       -1.0472924 -0.94776505 0.078562 -1.0754843
0002b0 89 97 bb 3d 6e 23 6e 3e 55 8a e0 3e 8d 8c b5 bf
       0.091597624 0.23255703 0.4385554 -1.4183518
0002c0 c1 6a a0 be b5 74 95 bf c4 45 b4 3e 73 d9 99 3e
       -0.31331447 -1.1676241 0.35209477 0.30048713
0002d0 27 56 61 bb 62 a1 66 bf 23 34 83 bb 9a 14 eb bd
       -0.0034383626 -0.9009 -0.004004018 -0.11478539
0002e0 8d d7 2a bf ba af 6a bf 1d 4e 1b bf 53 71 98 3e
       -0.66735154 -0.9167439 -0.60666066 0.2977396
0002f0 b1 fb 2e 3f 0f 11 01 be 11 16 be 3d d9 7d 65 bf
       0.683528 -0.12604164 0.092815526 -0.89645153
000300 6e 25 0f bf 05 30 cd be 5f 52 93 bf 2a 34 16 3f
       -0.5591649 -0.40075698 -1.1509513 0.58673346
000310 e3 9c 7b bf d8 71 4f 3f 9b ce 8f be 08 ae 0e 3f
       -0.98286265 0.81033087 -0.28087315 0.557343
000320 85 7b 2c bf 2f ca 8c 3e 29 ad 8e 3d 77 2a a9 bf
       -0.67375976 0.27498004 0.069666214 -1.3216084
000330 4e c4 aa 3e dc c5 ea be 4c 55 c3 3e 7b 83 8f 3d
       0.33352894 -0.4585408 0.38151014 0.070075
000340 87 38 6d be c3 93 45 bf b2 4a b1 be 56 8e 2e 3f
       -0.23166095 -0.7717859 -0.346273 0.6818594
000350 c2 c9 35 3f 72 17 17 be 84 27 86 3d b5 29 0e bf
       0.71010983 -0.14755037 0.06550506 -0.5553239
000360 8d 70 99 be 01 e0 af bf 9e a3 90 3e 30 55 bb 3e
       -0.29968682 -1.3740236 0.2824983 0.3658843
000370 ae e7 d2 bf e9 ad 79 3e a5 ed e0 3c cf ac bb be
       -1.6476953 0.24382748 0.027457068 -0.3665528
000380 a7 52 6b bf d5 06 05 3f c8 4e 3f bf 25 37 e0 be
       -0.9192299 0.5196355 -0.74729586 -0.43792072
000390 41 c6 7e bf be 9b 93 bf 2a 64 53 3d 34 d2 3d be
       -0.9952126 -1.1531904 0.051609196 -0.18537217
0003a0 1f 6c 00 bf c0 62 45 bf b0 71 82 3f 7c 28 60 3f
       -0.5016498 -0.77103806 1.0190945 0.87561774
0003b0 af d6 f2 3e d2 2f 3e bf 83 4c 2e bf 7d 9d 59 3d
       0.47429416 -0.7429172 -0.680855 0.05312871
0003c0 f3 a0 2d bf 49 31 f0 bd 95 80 a5 3e 02 41 16 bf
       -0.67823714 -0.117281504 0.32324663 -0.58692944
0003d0 ed d5 28 3f 67 bd 2b 3e 72 db 8a 3e fa e6 ea 3e
       0.65951425 0.1677147 0.27120548 0.45879346
0003e0 84 8e 87 bf 6d ac ff be c6 47 f6 be 49 1d 4a 3f
       -1.0590367 -0.49936238 -0.48101634 0.78950936
0003f0 ed 0c 8c be 87 44 82 bf 04 c3 15 bf 3b 8e 34 3d
       -0.27353612 -1.0177163 -0.58500695 0.044080954

mean.weight f4 [8, 256]
000000 ec 99 8a 3b 89 92 de be fc 87 15 bd 2d 47 2e bd
       0.0042297747 -0.43471172 -0.036506638 -0.042548347
000010 95 14 93 3e 92 73 8a bb 12 55 22 3e 6c df de bd
       0.2872664 -0.004225203 0.15852764 -0.10882458
000020 14 7f 40 3d 95 32 bf be 4f d0 84 bc 7e e3 58 3d
       0.04699619 -0.3734328 -0.01621261 0.05295133
000030 38 e3 46 3e 93 1b 58 bd 4e ff 34 3e 70 65 60 3e
       0.19422615 -0.05276067 0.17675516 0.21913695
000040 a6 e0 fc bc 8a f7 cf bc b6 3e 5d 3e c3 cf 88 bd
       -0.03086884 -0.02538659 0.21605954 -0.066802524
000050 c4 65 79 be c9 d9 94 bd d1 5a 16 3d 2e 40 05 3d
       -0.24355227 -0.07268102 0.036707703 0.03253191
000060 4d 2f de bd 85 e9 f9 3d 2d cc 1c bd 80 e0 6e bc
       -0.10848866 0.122027434 -0.038280655 -0.014579892
000070 b9 d9 42 3f b0 96 8b be 2a bf a1 be 91 dc 99 bd
       0.7611347 -0.27263403 -0.3159116 -0.07512773
000080 41 f5 1e 3d e5 2d 1c 3d 80 8e ce 3b a4 88 83 bd
       0.03880811 0.038129706 0.0063036084 -0.064225465
000090 b5 1f fa 3c 23 ca e9 3d a5 5d 03 3e 68 59 3e 3e
       0.030532697 0.11415508 0.12828691 0.18588793
0000a0 f1 eb f5 bd 2b d0 9a 3e 5b 85 5d 3d 62 d2 27 3e
       -0.12007893 0.30236945 0.054082256 0.16388848
0000b0 0d 46 e9 bc 4a 1f 1c bd b9 c7 54 3d 83 50 08 bd
       -0.028475786 -0.038115777 0.051948283 -0.033279907
0000c0 82 ba 77 3b b8 dd 3d bf 40 ac 24 3c ea 38 a2 3d
       0.0037800376 -0.7416644 0.010050833 0.07921012
0000d0 95 db 2c 3c cb 5c 1b 3d 1d 6c 67 3d 20 73 28 bd
       0.010550399 0.03793029 0.05649959 -0.041125417
0000e0 93 20 c6 3e 60 8e 6a bb b0 9f cd be f2 7f a8 3d
       0.38696727 -0.0035790429 -0.40160894 0.08227529
0000f0 79 20 55 3d 7c 9d a5 bd e2 95 de bd 2a e7 89 3d
       0.05203292 -0.080866784 -0.10868432 0.06733544
000100 a7 13 11 be aa 69 12 bd 18 f4 bb 3d a9 6f 73 bd
       -0.14167653 -0.0357453 0.091774166 -0.05943266
000110 a8 7b c6 be 1f 48 0a bf 86 6c 4f 3e 4b 84 8f bb
       -0.38766217 -0.540163 0.20256242 -0.004379784
000120 47 39 28 be 3b 29 9f 3e 6c 7e 7a bd 9a 25 d7 be
       -0.164281 0.31086144 -0.06115572 -0.42020875
000130 80 ed 0b 3b 1f b7 97 3a e5 08 6d 3e 7f 7b 92 3c
       0.0021351278 0.001157496 0.23147924 0.017881153
000140 33 30 c7 3e 40 35 d7 bd eb 8f 07 bd 73 8a 3e bd
       0.3890396 -0.105082035 -0.033096235 -0.046518754
000150 c8 d8 4a 3d de c1 ec 3c bc 17 dd 3e 7f 46 27 3e
       0.049523145 0.028901037 0.4318217 0.16335486
000160 aa f9 7c 3e 4a 5b a7 be 5c fe 4a 3e ad aa bc 3c
       0.24704614 -0.32686836 0.19823593 0.023030603
000170 3d 70 79 bc dc 9a fd 3d 86 07 fd bd 23 82 3a be
       -0.015224514 0.12383053 -0.123549506 -0.18213706
000180 ee 4d 49 bd 53 e6 0a bf 7c 7c fd bd d5 7b 2e 3e
       -0.049146585 -0.54257697 -0.12377259 0.17039426
000190 0c fc 1b be 68 bf 73 3e 3a f4 b5 bd 54 46 8f bd
       -0.15232867 0.23803484 -0.08884473 -0.06995836
0001a0 05 2c aa 3b 72 0f 05 3e 8a 62 ea be 8a f0 67 be
       0.005193236 0.12994173 -0.45778304 -0.22650352
0001b0 17 45 1d 3d eb 1d 2e bb fd 1e 20 be 17 1a b4 bc
       0.038395967 -0.0026568125 -0.15636821 -0.021985097
0001c0 5d 9c 6e 3d 1d 90 0d bc e9 ce dd 3d 16 4e ec 3c
       0.05825459 -0.008640316 0.108304806 0.028845828
0001d0 77 d5 34 be 17 f9 00 bd 8f f1 70 3b 8d 97 a7 3d
       -0.17659555 -0.03148755 0.0036765074 0.08183203
0001e0 56 49 bf 3c d3 62 ed 3e 1c 98 68 3c 06 67 90 bd
       0.023350399 0.4636446 0.014196422 -0.070509
0001f0 d3 85 83 bc 9f 58 97 bc 07 ec 00 bd b7 ff 31 3c
       -0.016055023 -0.018474875 -0.031475093 0.01086419
000200 d2 3f 6a 3e d3 af 2c bd 28 f8 c3 3a a3 88 5d bb
       0.22875908 -0.042159867 0.0014951276 -0.0033803366
000210 d4 d9 5e bc 08 46 5b bd 49 a6 31 bd 4f ce e5 3d
       -0.013601739 -0.053533584 -0.043371473 0.11220991
000220 2a 6a e8 bc a2 20 98 bd 1f 3c 34 3e d9 1a e4 3d
       -0.028370935 -0.07428099 0.1760106 0.11137933
000230 48 8d 08 3e 8c be fd bd af cf c6 bc 22 c3 64 3d
       0.13335145 -0.123898596 -0.024268953 0.055850156
000240 c8 97 8b 3e cb 54 e9 3a 2a ed 04 bf 88 da 94 be
       0.27264237 0.001780176 -0.51924384 -0.29072976
000250 16 c3 53 bd f0 85 dd bc 1d f7 fc bc d3 95 21 bd
       -0.05169972 -0.027041405 -0.030879552 -0.039449524
000260 88 31 32 be 7c 15 06 3e f0 9e 95 bd 7a 02 a0 bc
       -0.17401707 0.13094133 -0.073057055 -0.01953243
000270 7d d5 a5 bd da db a9 3d e3 d7 d1 be cf 37 db bd
       -0.0809736 0.082938865 -0.4098502 -0.10704004
000280 83 7e 17 bc 10 55 19 be 29 c9 b7 3e 9e 84 df 3e
       -0.009246471 -0.14973855 0.3589566 0.43655866
000290 b2 ea d0 bd 6a 2b 84 3e 2d 2d 94 be 07 6b 17 be
       -0.102010146 0.25814372 -0.28940716 -0.14786921
0002a0 e0 aa 2d bc ad 88 8b 3b 05 10 de bc af 5f 97 bd
       -0.010599822 0.0042582364 -0.027107248 -0.07391297
0002b0 ac b9 69 bd 07 76 a2 bc b8 ec 7a bd 3c 65 2a bd
       -0.057061836 -0.01983167 -0.06126091 -0.04160045
0002c0 b0 97 eb bc d0 5b ec bc da 94 9f 3e bd f3 37 3d
       -0.028758854 -0.028852373 0.31168252 0.04491018
0002d0 e5 04 a4 3d 7c 93 11 bc 93 47 74 3d be 88 37 bd
       0.08008746 -0.008885261 0.05963857 -0.044808142
0002e0 ee e9 2f 3d 4c 1f 93 bd b8 fc 76 be 02 b9 af 3d
       0.042947702 -0.07183704 -0.24119842 0.08580209
0002f0 4b 90 7a 3d cb f4 1e 3e c4 2e 8b 3d 82 f2 bc bc
       0.061172765 0.15523069 0.06796029 -0.023064855
000300 b1 37 32 bd 2a 51 86 3d ad 80 b2 be 57 96 1e bd
       -0.043510143 0.065584496 -0.34863797 -0.038717594
000310 5c 08 9d bd f8 69 cf bd eb 07 82 3c ab f0 0a 3a
       -0.0766761 -0.10127634 0.015872916 0.00053001445
000320 70 b6 70 3e 64 d8 05 bd 2a ac 4a bd 9c df 4c bd
       0.23507094 -0.03267707 -0.049480595 -0.050017938
000330 51 40 16 bc 98 97 a8 be 3a 33 95 bd 08 02 0d bd
       -0.009170608 -0.32928157 -0.07285161 -0.034425765
000340 c0 88 9f 3d b5 ce e6 bb 5e 49 d6 3d a1 e9 32 3d
       0.07789755 -0.0070436844 0.104632124 0.043679837
000350 b3 fc 8a 3d 2e 80 32 3e 7b 90 17 3e 4e 1f a7 3d
       0.0678648 0.17431709 0.14801209 0.08160268
000360 f4 7d bb bc 6d 66 ad 3d e3 bc 48 3d dc 87 65 bc
       -0.022887208 0.08466802 0.04900826 -0.014009442
000370 2b 9b 02 3e a3 f0 80 3e 64 ab 87 3c 97 ac 9d be
       0.12754504 0.2518359 0.016561218 -0.30795738
000380 8e b7 00 bf f6 d2 23 be 95 de 63 3c b7 b2 03 bb
       -0.5028008 -0.15998444 0.013908048 -0.0020095536
000390 88 ec ab be 8f fe c8 bd 6b 32 f9 bd de 61 05 bc
       -0.33578897 -0.09814178 -0.121678196 -0.008141009
0003a0 2a f3 d4 3d b7 df 0c 3e 38 3c fc 3d 7c c1 04 bc
       0.10397942 0.13757215 0.12316173 -0.008102771
0003b0 fa 9c b7 bc 51 36 1f be 48 07 87 be 42 5d 3f 3b
       -0.02241372 -0.15548064 -0.26372743 0.0029199873
0003c0 7b 13 37 3d 21 65 5d 3c f4 62 aa 3c b4 46 f9 bd
       0.044696312 0.013512881 0.020799138 -0.12171689
0003d0 d1 08 a9 bd 21 02 85 3e f8 b9 84 3d 62 0e d9 3b
       -0.08253635 0.25978187 0.06480783 0.006624029
0003e0 cd 53 be bc 68 5c 5e 3e ee 9e 2a 3e e9 15 ef bb
       -0.023233319 0.21714938 0.1666219 -0.007296313
0003f0 40 26 b0 bd 22 72 11 be c4 45 be bd 64 f9 a5 3d
       -0.086010456 -0.14203694 -0.092906505 0.08104208

mean.bias f4 [8]
000000 64 87 5e be 1b e0 f5 bd 35 cf 12 be 79 eb 78 be
       -0.21731335 -0.12005635 -0.14336856 -0.24308576
000010 95 71 88 3e 73 88 f2 3c ae a3 2b 3e 5d 2f b3 3e
       0.26649156 0.02960608 0.16761658 0.34997073

log_std.weight f4 [8, 256]
000000 03 0d ef 3c 73 19 a7 3e e7 33 1a 3d 75 2b a0 3c
       0.02918101 0.32636604 0.037647154 0.019551972
000010 ba 47 58 3e d4 02 1f bd 76 92 1d 3e 6f d9 1b 3d
       0.21121112 -0.038821056 0.15387902 0.038049158
000020 4a 45 2a 3d de 20 fe 3d ca f9 37 3c 56 e8 19 bb
       0.041569985 0.12408613 0.011228988 -0.002348443
000030 00 57 f1 3d a6 51 40 3d 7b 10 ca bd a0 57 58 bd
       0.11784172 0.046952866 -0.09866425 -0.05281794
000040 cd 46 b7 b9 38 a6 23 be c9 85 a8 bd 16 17 63 3c
       -0.0003495723 -0.15981376 -0.082286425 0.013860485
000050 b0 50 6e 3e e8 ba d7 3c 63 4f 37 3d 76 2a 69 3d
       0.23272967 0.026334241 0.044753443 0.05692526
000060 f1 81 4e 3d 65 ae b7 3d e1 8d fa bb 30 ed 0c 3d
       0.05041689 0.0896881 -0.007646308 0.034405887
000070 8e d1 7d 3e 3c 91 36 3d c5 30 0a 3e 64 bd 3e 3c
       0.2478697 0.0445721 0.13495167 0.011641834
000080 a2 20 59 be bb e4 49 bd bb 19 10 3c dd 3f f9 3a
       -0.21203855 -0.0492904 0.008795197 0.0019016225
000090 ab 6c 9e bb c1 b1 5b 3d d5 2b 6a be 5e 01 0f bd
       -0.0048347316 0.053636316 -0.22868283 -0.034913413
0000a0 49 87 4b bd e7 64 0c be cc 9b ab 3c 6a 72 05 3e
       -0.049689565 -0.13710366 0.020948313 0.13031927
0000b0 a9 5c 14 be a5 5b 23 bd b6 28 7b bd 49 ca d4 3c
       -0.14488472 -0.03988232 -0.06131812 0.025975363
0000c0 d3 63 28 bd 55 43 fc 3e c9 79 4c ba 22 c4 e3 3c
       -0.041110825 0.4927012 -0.000780013 0.027803484
0000d0 10 f1 96 3d 93 1e 01 be 84 81 99 3c 07 bb 23 bc
       0.07370198 -0.1260932 0.018738516 -0.009993321
0000e0 fa ad 34 3e 50 03 b8 bc 1e 2a b4 bc 42 df 34 3d
       0.17644492 -0.022462517 -0.02199274 0.044158228
0000f0 92 dd 59 3a e6 af d5 3b 7a 5f 49 3c 24 18 96 3b
       0.00083109096 0.006521213 0.01229083 0.0045805145
000100 e5 49 3f 3d cb d4 cc bd 8c a8 b4 3c fa e6 6b bc
       0.04670133 -0.100015245 0.022053026 -0.014398331
000110 7b 7d 03 3e 34 de a2 3e 88 af bf 3c 7c c4 8f bc
       0.12840836 0.31810153 0.02339913 -0.017549746
000120 74 a9 22 3c d9 ab 13 3e cd a3 11 be 47 2f 8f 3c
       0.009928096 0.14421023 -0.14222641 0.017478598
000130 ac de 29 bc 66 53 85 bd 4b ac b7 3c 80 46 90 3b
       -0.0103680305 -0.065100476 0.022421023 0.0044029355
000140 68 17 0d bd c7 a0 7e bd 95 36 8a 39 e0 93 c9 3b
       -0.03444615 -0.062165048 0.00026362078 0.0061516613
000150 f6 d5 8e 3d 44 33 f3 3c f0 fa c5 bd e6 3d ac bd
       0.069744036 0.029687531 -0.09667003 -0.08410244
000160 ef 74 80 bc f3 d5 be 3d dd d8 0e 3d d5 27 4d 3b
       -0.015680758 0.09318151 0.034874786 0.003130426
000170 c2 48 eb bd c7 fc b7 3c ab 13 2e bd 8d bd 66 3d
       -0.11488487 0.0224594 -0.042499226 0.056333113
000180 f9 64 01 bd d8 67 54 bc 4a a6 d5 bc 55 b0 c6 3d
       -0.031590436 -0.012964211 -0.02608027 0.097016014
000190 d4 89 86 3d 29 05 02 3e b6 6a 92 3c 46 70 0c bc
       0.065692574 0.12697281 0.01787315 -0.00857169
0001a0 11 e7 19 bd bf 42 fd 3c 59 d6 c6 3e 1f 1b 82 3d
       -0.037573878 0.030915616 0.3883541 0.06352829
0001b0 89 c7 2e 3d 5d ce 47 bc e2 98 d9 bb 4e dd ba bc
       0.04267076 -0.012195197 -0.0066405395 -0.022810604
0001c0 35 a2 5e 3d 26 62 19 3c 49 fc 9f bd 0a ea 1c 3c
       0.05435391 0.009361779 -0.078117914 0.009577284
0001d0 6d 8b ef bc e5 3b 5d 3d 74 2e 24 bb a3 b4 0b be
       -0.029241288 0.054012198 -0.0025052102 -0.13643126
0001e0 3f eb ce bc 00 8c 9c 3b 50 9c 34 3d bc e2 fc 3c
       -0.025258658 0.0047774315 0.044094384 0.030869834
0001f0 31 e9 ea bc 23 59 1b 3c 29 06 80 3d 88 e7 e1 3c
       -0.028675647 0.009481701 0.06251175 0.027576223
000200 32 c6 e9 3d 0c c0 0d 3d 55 ba 79 bc f0 9d ba bc
       0.11414756 0.03460698 -0.015242179 -0.022780389
000210 d7 35 d7 3b 26 04 8f bd 36 cf 64 bd 47 27 08 3d
       0.0065676975 -0.06983213 -0.055861674 0.033240583
000220 50 7a ba bc 3d cb 3e bc 66 a6 11 bd 4b b1 11 3e
       -0.022763401 -0.0116451355 -0.03555908 0.14227788
000230 2f 3d a1 bb d2 fc 3b 3c 8e 88 47 3d e3 16 36 bd
       -0.0049206237 0.011473851 0.048714213 -0.04445542
000240 e2 19 3a 3e 20 87 84 bc 41 91 85 bd d8 a5 f7 3d
       0.18173936 -0.016177714 -0.065218456 0.12092179
000250 7a 40 24 3d cf aa 20 be f9 4b 63 3d 57 7f a1 bc
       0.040100552 -0.15690158 0.055492375 -0.01971404
000260 f2 92 88 bd 8f 0d 52 3d 5f cb 0c 3d 38 d5 0f 3d
       -0.066686526 0.05128246 0.034373637 0.03511545
000270 22 09 68 bd ce 01 c8 bc 0b f4 5c 3e 01 6f 8b bc
       -0.056649335 -0.024414923 0.2157747 -0.017020704
000280 d8 0c 1b bd c7 84 09 3e c9 7e a3 3c 08 34 68 3e
       -0.037854046 0.13429557 0.019957917 0.22676098
000290 b6 b9 89 3b 4d 47 0b 3e be 1c 54 bb b5 e1 67 3d
       0.0042030467 0.13601418 -0.0032365764 0.056611735
0002a0 98 35 c9 bd 44 12 5f bc 14 ec c6 bc f4 31 d5 bb
       -0.09824675 -0.013615195 -0.024282493 -0.006506199
0002b0 23 7f 57 bd 6d 9d 1b 3c be 27 99 3c da 70 0f 3e
       -0.05261148 0.009497982 0.018695708 0.14007893
0002c0 6b 38 a2 bd 65 fd 3b bc 23 3a 3b 3e 58 d4 73 bb
       -0.07920917 -0.011473988 0.18283896 -0.0037205424
0002d0 b2 17 2a bd 5a 80 0b be be d6 80 bd 97 c5 9c 3d
       -0.041526504 -0.13623181 -0.06290959 0.07654875
0002e0 bb fd 18 bd 35 9d 4d 3d 7f eb 07 3e 7e 23 ec 3c
       -0.03735135 0.050198752 0.13273428 0.028825518
0002f0 0f c3 60 3d d1 04 a1 3d 08 14 14 3d d4 65 96 bc
       0.054873522 0.07862247 0.036151916 -0.018359102
000300 e6 73 41 bd 53 5b c1 bd e0 78 35 3e 81 20 46 bd
       -0.04722967 -0.09441247 0.17721891 -0.048370842
000310 9e 92 8a bd fa af 09 bb 7f 79 49 3d 61 d9 66 3c
       -0.06766246 -0.0021009431 0.049188133 0.014089913
000320 7e f2 5c 3d b4 02 b5 3c ce 28 96 bc 2e c0 9f bc
       0.053942196 0.022096016 -0.018330004 -0.019500818
000330 22 ce 54 3d 5a 79 a0 bd 4f 94 17 3d 20 74 3e bc
       0.051954396 -0.07835646 0.037006672 -0.011624366
000340 06 2a 13 3d 55 d7 96 bb a9 ce b4 bd 72 8b e7 bc
       0.03592875 -0.0046033063 -0.0882848 -0.028264735
000350 74 33 4f 3c 72 c8 fe 3d 22 43 01 bb a0 83 f8 3c
       0.012646545 0.12440576 -0.0019723852 0.030336201
000360 4e fd 08 be f0 28 b1 bd 09 56 28 3d b1 0a 7d bd
       -0.13377878 -0.08650386 0.041097675 -0.061777774
000370 04 bd 36 3d 17 96 44 3d ac 9d 32 3c 77 90 21 3e
       0.044613853 0.0479947 0.01090185 0.15777765
000380 e0 49 48 3e 78 4c 13 3e 30 56 6e 3d f4 66 a1 bd
       0.19559431 0.1438464 0.058187664 -0.07880965
000390 b2 31 8b 3e 94 1c 94 3d bb 22 2f 3d 72 c9 76 3b
       0.27186352 0.07232013 0.04275773 0.0037656692
0003a0 9c b5 3a 3d 8b 17 d7 bd 02 ec 21 be 01 e2 06 3d
       0.045583352 -0.10502537 -0.15812686 0.032930378
0003b0 89 f1 f7 3c 9d 82 76 3d f6 ad 11 bd ac c6 02 bd
       0.03026654 0.060183156 -0.035566293 -0.03192775
0003c0 40 a7 94 bc b1 cf 17 3c b1 6d e6 3a 99 48 52 3e
       -0.018146157 0.009265826 0.0017580298 0.20535506
0003d0 f9 4e 9c bb e5 3d 29 3e ab 98 07 3d a5 1c d5 bc
       -0.0047701565 0.16527517 0.03310458 -0.026014635
0003e0 63 4e d6 3d dc fa ae bd e1 ff 61 bd f7 94 b1 3c
       0.1046417 -0.085439414 -0.055175666 0.021677477
0003f0 41 ce 83 be 6a b0 a7 3c 85 bd ae b9 71 02 b7 3d
       -0.25743297 0.020469863 -0.0003332907 0.089360125

log_std.bias f4 [8]
000000 9e 3f 11 c0 f4 81 15 c0 43 33 01 c0 2b f9 04 c0
       -2.269508 -2.3360567 -2.0187538 -2.077708
000010 bf a1 08 c0 f6 69 1b c0 8f c7 0a c0 b4 00 01 c0
       -2.1348722 -2.4283423 -2.16843 -2.015668
