trained_models/AntNormal-v3/sero/actor_4.pt (torch, 397248 bytes, 8 tensors)

shared.0.weight f4 [256, 111]
0	0xbf59e6a9	-0.85117584
1	0x3f07cf93	0.5305111
2	0xbdbf70a5	-0.09347657
3	0x3d91b8d4	0.07115331
4	0x3e1c459f	0.15260933
5	0xbe4dc35e	-0.20094058
6	0x3e8b0400	0.2715149
7	0xbec40f08	-0.38292718
8	0xbe8d5e6d	-0.27611104
9	0x3ecfd45a	0.405917
10	0x3e7d0fa3	0.24712996
11	0xbe48f334	-0.19624025
12	0xbf9a644f	-1.2061862
13	0xbdc7e89f	-0.09761166
14	0xbc4262b8	-0.011864357
15	0xbbdbd069	-0.006708194
16	0x3c1d6a71	0.009607897
17	0x3e805da9	0.25071457
18	0x3d88f188	0.066866934
19	0xbb47750f	-0.0030434763
20	0x3d975f28	0.073911965
21	0x3c0e21a9	0.008675017
22	0x3c63d135	0.013904859
23	0x3d53d202	0.05171395
24	0x3dc57c8c	0.09642896
25	0x3b167930	0.0022960417
26	0x3d21342d	0.0393564
27	0x3ca0b1d0	0.019616038
28	0xbd0e8fc4	-0.034805074
29	0xbcbac240	-0.022797704
30	0x3c558336	0.013031771
31	0x3cd41711	0.025889905
32	0xbcd9f1e7	-0.026604606
33	0xbcb56e19	-0.022147225
34	0xbd5b3031	-0.053512756
35	0x3a2f1585	0.0006678927
36	0xbd7649cd	-0.060128976
37	0xbd613ac6	-0.05498769
38	0xbd68c5e5	-0.056829352
39	0x3b879288	0.004137341
40	0xbd95c8c3	-0.07313683
41	0x3cabcea7	0.020972563
42	0xb93f8126	-0.00018263291
43	0xbd69f81e	-0.05712139
44	0xbdb548df	-0.0885179
45	0xbcb62a5d	-0.022236997
46	0xbd83d1a2	-0.06436469
47	0x3cfaa345	0.030595431
48	0xbd9b0cbe	-0.0757079
49	0xbd501394	-0.05079992
50	0xbdaec6fe	-0.085340485
51	0x3ca40b24	0.020024844
52	0xbd30048d	-0.04297309
53	0xbd3b86bd	-0.045782793
54	0x3d4b0fb9	0.04957554
55	0xbce5aca3	-0.028036421
56	0xbd0616cc	-0.032736585
57	0xbdbc0f51	-0.09182609
58	0xbd4544dd	-0.048161376
59	0x3d76eae6	0.06028261
60	0x3dbabf35	0.09118501
61	0xbcd8784e	-0.026424553
62	0x3b97e7c3	0.0046357824
63	0x3d6df517	0.058095064
64	0x3db1bdd5	0.08678786
65	0x3dac75ce	0.08420907
66	0xbcd569b3	-0.026051378
67	0x3da423ca	0.08014639
68	0x3d6402de	0.055666797
69	0x3c1a76a2	0.009427698
70	0x3ca2e566	0.019884776
71	0x3add3325	0.0016876204
72	0xbd3d9f92	-0.046294756
73	0xbcd141d6	-0.025544088
74	0xbdbfd388	-0.09366518
75	0xbdbbb6d8	-0.09165734
76	0x3db2926f	0.08719336
77	0xbbda767a	-0.0066669555
78	0xbbc75b2e	-0.0060838675
79	0x3cdd2e91	0.026999744
80	0x3dbb0a54	0.09132829
81	0xbd84682c	-0.06465182
82	0x3d583620	0.052785993
83	0x3bf6017d	0.0075075016
84	0xbd3fd91d	-0.046837915
85	0xbd6d4abe	-0.057932608
86	0xbd8d504c	-0.06900081
87	0x3dbde3e3	0.092719816
88	0x3cbb2a2f	0.022847263
89	0x3d6a1569	0.057149325
90	0x3d145799	0.036216352
91	0x3dab94af	0.083779685
92	0x3cfb2ae8	0.030660108
93	0x3ccf3aef	0.025296656
94	0x3d705e3c	0.05868362
95	0x3d974787	0.0738669
96	0xbd1e4141	-0.03863645
97	0x3c3aec22	0.0114088375
98	0x3db4e9ca	0.08833654
99	0xbd9ef911	-0.077623494
100	0x3d7616c6	0.060080312
101	0x3dae2339	0.08502812
102	0x3dbcb527	0.092142396
103	0x3d01f371	0.031726304
104	0x3d941ca5	0.07232026
105	0x3cbccffd	0.023048395
106	0x3d94ceea	0.07266028
107	0xbd92d70d	-0.07169924
108	0xbd99df23	-0.07513263
109	0x3db3de94	0.08782688
110	0x3d4c97e4	0.04994954
111	0xbfeb7a1f	-1.8396643
112	0x3ed49be1	0.41525176
113	0xbf30c67c	-0.69052863
114	0x405e92c3	3.4777076
115	0xbe438033	-0.19091873
116	0xbe6d7acd	-0.23191376
117	0x3e20f991	0.15720202
118	0x3e341b8b	0.17588632
119	0x3d4a9be6	0.049465083
120	0x3e5b2e0d	0.21404286
121	0x3f514d09	0.8175817
122	0xbf7cb25b	-0.9870965
123	0x3d8b332f	0.06796872
124	0xbd937825	-0.0720065
125	0xbcb0a4ce	-0.02156296
126	0xbe30b96b	-0.17258231
127	0xbda08834	-0.07838479
128	0x3e3861ad	0.1800601
129	0x3c5fc124	0.013656888
130	0xbc9e0150	-0.019287735
131	0x3d701c32	0.05862064
132	0x3ab936e5	0.001413074
133	0x3c2ff202	0.0107388515
134	0x3c27082a	0.010194818
135	0x3d0f224b	0.034944814
136	0xbc84e762	-0.016223613
137	0x3c7a45c1	0.01527542
138	0x3da1be10	0.0789758
139	0x3d427a5d	0.047479976
140	0xbc9a7f5e	-0.018859562
141	0xbd42ad31	-0.04752845
142	0xba745ea0	-0.00093219616
143	0x3cefd66c	0.029277049
144	0x3d01a5cd	0.03165226
145	0xbd99472f	-0.0748428
146	0xbd6f8fa9	-0.058486614
147	0x3d722738	0.059119433
148	0xbbb3564c	-0.005472934
149	0x3c929304	0.017892368
150	0x3d8032cc	0.06259689
151	0x3bf9cf53	0.007623592
152	0x3da97b54	0.08275476
153	0xbd9c1ac9	-0.07622296
154	0xbd5cd918	-0.053917974
155	0xbbe63aea	-0.007026066
156	0xbb462caf	-0.0030239036
157	0xbc30fadf	-0.010802
158	0x3bdd9d74	0.0067631546
159	0xbd893365	-0.06699256
160	0xbd4ba877	-0.049721207
161	0x3c0d184d	0.008611751
162	0x3cf56034	0.0299531
163	0x3daad540	0.083414555
164	0xbd104fce	-0.035232358
165	0xbb976373	-0.0046200096
166	0x3da757b8	0.08171028
167	0xbd7d4538	-0.06183359
168	0xbd8ecac5	-0.06972269
169	0x3d94e2cb	0.0726982
170	0xbcb03888	-0.021511331
171	0xbca96a17	-0.02068047
172	0x3c44f16c	0.01202045
173	0x3d9d405f	0.076782934
174	0x3ca96218	0.020676658
175	0xbc909917	-0.017651124
176	0x3d81d51f	0.06339478
177	0xbb9f7bf0	-0.0048670694
178	0x3d3e0b50	0.046397507
179	0x3c335541	0.010945619
180	0xbb6677a9	-0.0035166538
181	0xbd651932	-0.05593223
182	0xbd1b02d6	-0.0378445
183	0xbd4540ff	-0.04815769
184	0x3d8c0762	0.06837346
185	0x3b766d07	0.0037601606
186	0xbc9a0046	-0.018798959
187	0x3d7e1277	0.06202933
188	0x3b222067	0.0024738552
189	0xbdad464e	-0.08460675
190	0x3d5c8753	0.053839993
191	0x3d159ab7	0.0365245
192	0x3cf4ff75	0.029906968
193	0x3bde2c34	0.0067801718
194	0xbd29fcf6	-0.041501008
195	0xbce0bdce	-0.027434256
196	0xbd8ad4b3	-0.067788504
197	0xbd421507	-0.047383334
198	0xbc849a23	-0.01618678
199	0xbc9dad6f	-0.019247739
200	0xbd298e8a	-0.0413957
201	0xbd8a8236	-0.06763117
202	0xbd6c78fa	-0.05773256
203	0xbd8f0fdf	-0.06985449
204	0xbdb5a53a	-0.08869405
205	0x3c9eb86f	0.019375054
206	0x3cee13cf	0.02906218
207	0xbcbe88d3	-0.023258602
208	0xbdb215fa	-0.08695598
209	0xbd98adb0	-0.07455003
210	0xbd368d93	-0.04456861
211	0xbca5aab4	-0.020223
212	0xbba0dd4f	-0.0049091945
213	0x3c996584	0.018725164
214	0x3d96ac63	0.07357099
215	0xbd867dbd	-0.065669514
216	0xbc3b932f	-0.0114486655
217	0x3c3a292d	0.011362356
218	0xbd5d304c	-0.054001138
219	0x3d492f8b	0.049117606
220	0xbdc0f3b2	-0.09421481
221	0x3d450e25	0.048109192
222	0xbf23bb9a	-0.6395813
223	0xbe1683b5	-0.1469868
224	0x3e9846de	0.29741567
225	0x3f83f735	1.0309817
226	0xbd7224d7	-0.059117164
227	0x3e9a9159	0.30189016
228	0xbf4b123b	-0.7932469
229	0x3f2112fe	0.62919605
230	0x3dfdf6cf	0.12400591
231	0x3e0c45e8	0.13698542
232	0xbe8239ef	-0.25434825
233	0xbdefa53d	-0.117014386
234	0x3c583af0	0.013197646
235	0xbf4eb899	-0.80750424
236	0xbde9469e	-0.11390422
237	0x3e18534f	0.1487553
238	0x3de41cb5	0.11138288
239	0x3d8b4950	0.068010926
240	0x3deeaa4a	0.11653574
241	0xbdf89950	-0.12138617
242	0x3d0d17f8	0.034446687
243	0xbe39b963	-0.18137126
244	0xbdc6da3a	-0.09709592
245	0xbd0b9d80	-0.03408575
246	0xbe2a2343	-0.16615014
247	0x3d32d1b0	0.043657005
248	0x3e775b98	0.24156034
249	0x3d56672f	0.052344497
250	0x3d5f1e7d	0.054472435
251	0x3cfb6114	0.030685939
252	0x3cd7d9c6	0.02634896
253	0x3db427cd	0.08796654
254	0x3d640606	0.055669807
255	0x3d05cd8f	0.03266674

shared.0.bias f4 [256]
0	0x3e407d68	0.18797839
1	0x3e7df51c	0.24800533
2	0xbf1059ab	-0.5638682
3	0x3f84b7c5	1.0368582
4	0xbfa5548f	-1.291643
5	0xbef59bf3	-0.47970542
6	0xbeb3c57a	-0.351116
7	0xbf35e7a7	-0.710566
8	0x3e06c72b	0.13161914
9	0xbf5728d1	-0.84046656
10	0xbf223632	-0.63363945
11	0xbef1a8d4	-0.47199118
12	0xbf15baf0	-0.5848837
13	0xbee97bec	-0.45602357
14	0xbf2459b6	-0.6419939
15	0xbc6d5542	-0.014485659
16	0xbedee10f	-0.4353108
17	0xbfa82256	-1.3135478
18	0xbf06f5ec	-0.52718997
19	0xbfae11f3	-1.3599228
20	0xbe91ad74	-0.28452647
21	0xbd3741db	-0.04474054
22	0xbf5388d1	-0.8263064
23	0x3eb1bb44	0.34713185
24	0xbe12fe2a	-0.14354768
25	0xbf37076a	-0.7149569
26	0xbe75cd70	-0.2400415
27	0x3f1fabe2	0.6237165
28	0xbfbe8c37	-1.488654
29	0xbe934339	-0.28762224
30	0xbf4ed110	-0.80787754
31	0xbf4099a0	-0.75234413
32	0x3c8d3fd0	0.017242342
33	0xbf9dfe1f	-1.2343177
34	0x3c581529	0.013188639
35	0x3ea18c03	0.31552133
36	0xbeb26e81	-0.34849933
37	0xbf00c413	-0.50299186
38	0xbf81a2b9	-1.0127784
39	0xbf7c39c3	-0.9852564
40	0xbf6f0bae	-0.93377197
41	0xbf5f790a	-0.87294066
42	0xbe3b8a55	-0.18314488
43	0xbfb3133b	-1.3990244
44	0x3eb99e69	0.3625367
45	0xbdf46ad5	-0.11934439
46	0xbf1b1d28	-0.60591364
47	0xbf691d4b	-0.9106032
48	0xbeb6cd92	-0.35703713
49	0xbec2e6e4	-0.3806678
50	0xbf5c7126	-0.8611015
51	0xbe1cc1d9	-0.15308322
52	0xbeb20b1a	-0.34774095
53	0xbf0810bd	-0.5315054
54	0xbf828789	-1.0197612
55	0xbe840fb0	-0.2579322
56	0x3d3b6762	0.04575289
57	0xbf20a3bc	-0.6274984
58	0xbeb3519e	-0.35023206
59	0xbf200520	-0.6250782
60	0xbf90851a	-1.1290619
61	0xbe80c617	-0.2515113
62	0xbe867e07	-0.26268026
63	0xbf2e2c02	-0.680359
64	0xbf9d60eb	-1.2295202
65	0xbe6205b9	-0.22072496
66	0x3d9bb81f	0.07603478
67	0xbe7e3115	-0.24823411
68	0x3e4d801e	0.20068404
69	0xbee6dd7a	-0.45090848
70	0xbf44dc48	-0.7689862
71	0x3d5aa2b3	0.05337782
72	0xbdf69f81	-0.12042142
73	0xbf4d440e	-0.8018197
74	0x3f178a92	0.59195817
75	0xbe9d77bc	-0.30755413
76	0xbf60d69d	-0.87827474
77	0x3e7eb50b	0.2487375
78	0xbc271c93	-0.010199684
79	0xbf8764fd	-1.0577694
80	0xbf04f882	-0.5194169
81	0xbf66dcfe	-0.9018096
82	0xbefdfbc4	-0.49606144
83	0xbf11e486	-0.56989324
84	0xbed1a734	-0.40947878
85	0xbf3b2e30	-0.7311735
86	0xbf4bb1ea	-0.7956835
87	0xbe4b4d8a	-0.19853798
88	0xbe9717f5	-0.29510465
89	0x3ee8cd0b	0.45468935
90	0xbeebd8ae	-0.4606375
91	0xbf2e856b	-0.6817233
92	0xbf22ae42	-0.63547146
93	0xbf8bd10f	-1.0923175
94	0xbe7fbce5	-0.24974401
95	0xbedb2295	-0.42799821
96	0xbfa9715b	-1.3237718
97	0xbf58ea77	-0.84732765
98	0xbefa242e	-0.48855728
99	0xbe4b8e09	-0.19878401
100	0xbf7d8332	-0.99028313
101	0xbe753c4d	-0.23948784
102	0xbf1deb21	-0.61686903
103	0xbea1ea29	-0.31623963
104	0x3f269eb3	0.65085906
105	0xbf215750	-0.63023853
106	0xbeae090e	-0.33991283
107	0xbf3c43bf	-0.7354087
108	0xbfc39bf0	-1.5281963
109	0xbe82b711	-0.25530294
110	0xbda83cfa	-0.08214755
111	0xbf37f817	-0.7186293
112	0xbf87d038	-1.0610418
113	0xbf02256e	-0.50838363
114	0xbe9e25c5	-0.3088819
115	0xbebb462e	-0.3657698
116	0xbf0150e3	-0.5051405
117	0xbef333a8	-0.47500348
118	0xbf4fe485	-0.8120807
119	0xbd9f789e	-0.07786678
120	0xbdc96ad8	-0.09834832
121	0xbeca458c	-0.39506185
122	0xbe21eb1d	-0.15812345
123	0xbc38bb08	-0.0112750605
124	0xbe92003d	-0.28515807
125	0xbeb83a2d	-0.35981885
126	0xbee40468	-0.44534612
127	0x3eef0c87	0.46689245
128	0x3dfb6d17	0.122766666
129	0x3bd55b5b	0.0065111346
130	0xbfade950	-1.3586826
131	0x3ecaaea6	0.3958637
132	0xbea19f9f	-0.31567094
133	0xbf0eeadd	-0.5582712
134	0xbf5b6500	-0.8570099
135	0x3f34dce4	0.7064955
136	0x3e9bca10	0.304276
137	0xbf6fca84	-0.9366839
138	0xbf381e6f	-0.7192144
139	0xbf168e3b	-0.58810776
140	0x3cafce22	0.021460596
141	0xbe90c563	-0.28275594
142	0xbfebaa7a	-1.84114
143	0xbe61164e	-0.21981165
144	0xbf55cc9c	-0.83515334
145	0xbf7789ce	-0.9669465
146	0xbfa50853	-1.2893165
147	0x3e81c44d	0.25345078
148	0xbedf7db8	-0.43650603
149	0xbed65a93	-0.41865978
150	0xbf493cc0	-0.7860832
151	0xbeadbb74	-0.33932078
152	0xbf33c649	-0.70224434
153	0x3de3cdf9	0.111232705
154	0xbf3221ed	-0.69583017
155	0xbf6652a3	-0.89969844
156	0xbf456912	-0.7711345
157	0xbea3b799	-0.3197601
158	0x3f127db5	0.57223064
159	0x3e8a9df0	0.27073622
160	0xbf96aa64	-1.1770749
161	0xbf47dbb7	-0.78069633
162	0xbf01918e	-0.50612724
163	0x3d3ae36b	0.04562704
164	0x3d9c4102	0.07629587
165	0xbf2ee633	-0.68320006
166	0xbee6c22d	-0.4507002
167	0xbf899857	-1.0749615
168	0xbf183ed6	-0.5947088
169	0xbe268a26	-0.16263637
170	0xbf03576d	-0.51305276
171	0xbeeb78d2	-0.45990616
172	0xbf0551bc	-0.5207784
173	0xbef97ce1	-0.48728088
174	0xbf53d593	-0.82747763
175	0xbf404152	-0.7509967
176	0xbf906212	-1.1279929
177	0xbe939640	-0.2882557
178	0xbd5a844e	-0.05334883
179	0xbef2f4a7	-0.4745228
180	0xbd9ff41e	-0.078102335
181	0xbfa3cbba	-1.2796547
182	0xbf1ef344	-0.62089944
183	0xbf0682e4	-0.52543473
184	0xbf101b7c	-0.5629194
185	0xbea9d425	-0.33169666
186	0xbf5308dc	-0.82435393
187	0xbf942687	-1.1574258
188	0xbf6064a4	-0.87653565
189	0x3da1346f	0.07871329
190	0xbe7543ee	-0.23951694
191	0xbf0a42dd	-0.54008275
192	0x3ea3146c	0.31851518
193	0xbf3c63bd	-0.7358969
194	0xbef3b8f0	-0.47602034
195	0xbf61f06b	-0.88257474
196	0xbea11970	-0.3146472
197	0xbf6e875c	-0.9317529
198	0xbe9ff1a6	-0.3123905
199	0xbf85d20c	-1.0454726
200	0xbeb56f24	-0.35436356
201	0xbe960497	-0.29300377
202	0xbeff4e4c	-0.49864423
203	0xbef8edc2	-0.48618895
204	0xbf129e52	-0.5727283
205	0x3e1b51ec	0.1516797
206	0xbe9dc24d	-0.30812302
207	0xbed93d7a	-0.42429715
208	0xbf58c0c6	-0.8466915
209	0xbf33239c	-0.6997621
210	0xbe3ef2ae	-0.18647262
211	0xbe4a6ec6	-0.19768819
212	0xbeb5e701	-0.35527804
213	0xbd76d609	-0.060262714
214	0x3ce32a9f	0.027730284
215	0xbf6a2988	-0.9146962
216	0xbf3680e6	-0.71290433
217	0xbf984bf9	-1.1898185
218	0xbf6b891b	-0.9200608
219	0x3f44f4f3	0.7693626
220	0xbf985391	-1.1900502
221	0xbf95d1e8	-1.1704683
222	0x3f00ed4b	0.5036208
223	0x3f0a0387	0.5391163
224	0xbf721ba9	-0.94573456
225	0xbf134154	-0.5752156
226	0xbf6ec44f	-0.93268293
227	0xbf217ed3	-0.63084143
228	0xbe7e19c4	-0.24814516
229	0xbfdb7a7a	-1.7146752
230	0xbf95de8b	-1.170854
231	0xbf1d7342	-0.61503994
232	0xbf16a660	-0.5884762
233	0xbe8465d5	-0.25858942
234	0xbf8e877b	-1.1135095
235	0xbf25ff9b	-0.6484315
236	0xbf3919c6	-0.7230495
237	0xbf1e563f	-0.6185035
238	0x3e210136	0.15723118
239	0xbf41fb0f	-0.7577371
240	0x3e634a15	0.22196229
241	0x3e6e9168	0.23297656
242	0xbf253b65	-0.64543754
243	0x3c2f456d	0.010697705
244	0xbfca54b8	-1.5807104
245	0xbd97733e	-0.073950276
246	0xbf402ea9	-0.750712
247	0x3c927bd4	0.017881311
248	0xbf7956a1	-0.9739781
249	0xbea0a8e6	-0.3137886
250	0xbfa689c1	-1.3010789
251	0x3d0c63eb	0.034274977
252	0xbfbeb77a	-1.4899743
253	0xbf4ff63e	-0.8123511
254	0xbf8a2e9c	-1.0795474
255	0xbe98e679	-0.29863337

shared.3.weight f4 [256, 256]
0	0x3cbed92f	0.02329692
1	0xbd74266b	-0.05960695
2	0x3d9f62e0	0.07782531
3	0x3eb88b22	0.3604365
4	0xbdc8b4a5	-0.0980008
5	0xbe0a4578	-0.13503063
6	0xbefa71ea	-0.48915035
7	0x3e776dc5	0.24162968
8	0x3ea3138c	0.3185085
9	0xbd33335a	-0.043750145
10	0xbd5f81f0	-0.054567277
11	0x3da093d8	0.07840699
12	0xbddf6cde	-0.10909437
13	0xbe055af0	-0.13022971
14	0xbdfe494f	-0.12416326
15	0x3c2cafc5	0.010539954
16	0xbe50be7a	-0.20385161
17	0xbee0c23f	-0.43898198
18	0xbd59e2b3	-0.053194713
19	0xbe88bcba	-0.26706487
20	0xbda9b461	-0.08286358
21	0x3c49a27f	0.0123068085
22	0x3d138719	0.03601751
23	0xbe21ef6d	-0.1581399
24	0xbe80cc96	-0.25156087
25	0xbf1701df	-0.5898723
26	0x3e412584	0.18861967
27	0xbd817a67	-0.063221745
28	0xbe6a3eec	-0.22875565
29	0xbe9978f1	-0.29975083
30	0xbe43cd8c	-0.19121379
31	0xbd2456c6	-0.040121816
32	0x3e50b73c	0.20382398
33	0xbe398b63	-0.18119578
34	0x3f0dcc05	0.55389434
35	0xbe226bec	-0.15861481
36	0xbe06fc3c	-0.13182157
37	0xbc304702	-0.010759117
38	0xbe2b8608	-0.16750348
39	0x3dab060e	0.08350764
40	0xbf133da9	-0.5751596
41	0xbe2684b1	-0.16261555
42	0xbed614a3	-0.4181262
43	0xbef9b05c	-0.48767364
44	0xbe5cc098	-0.21557844
45	0xbd7b5811	-0.061363284
46	0xbd092f5a	-0.033492424
47	0xbe40176b	-0.18758933
48	0x3d5fc0a3	0.054627072
49	0x3e044a3d	0.12918945
50	0x3d9958a5	0.07487611
51	0x3e425b79	0.18980207
52	0xbd872796	-0.06599347
53	0xbe00e976	-0.12589058
54	0xbe0bc3d0	-0.13648915
55	0xbf2b236b	-0.6685092
56	0x3d029377	0.031878915
57	0xbd989001	-0.074493416
58	0x3b2f316c	0.0026732339
59	0x3e2dc609	0.16970076
60	0x3ca04f0a	0.019568939
61	0x3e0ff03e	0.14056489
62	0x3de32b6b	0.11092266
63	0x3d39f5ad	0.04540031
64	0x3e2ad29f	0.16681908
65	0xbe218267	-0.15772401
66	0xbe8072c1	-0.2508755
67	0x3e488edd	0.19585748
68	0xbe93981f	-0.28826997
69	0xbeec072d	-0.46099225
70	0xbc15c6bf	-0.009141623
71	0xbeb17c65	-0.34665218
72	0x3d044a75	0.03229757
73	0xbdf829e8	-0.12117368
74	0xbf34f3e2	-0.70684636
75	0x3db478c0	0.08812094
76	0xbdc3489d	-0.09535334
77	0xbfae15b7	-1.3600377
78	0x3e16ae96	0.14715037
79	0x3e13f62f	0.1444938
80	0x3d98d48f	0.07462417
81	0x3e6fac41	0.23405553
82	0x3d9e4f9a	0.077300265
83	0xbcdc4d14	-0.026892222
84	0x3dca0615	0.09864441
85	0xbe962d99	-0.29331663
86	0xbdafa1b2	-0.08575763
87	0xbeea9fbe	-0.45825
88	0x3e9203d8	0.28518558
89	0xbd6c8ece	-0.057753377
90	0x3d092ab7	0.033488
91	0xbf03511a	-0.51295626
92	0xbda536b9	-0.08067078
93	0xbefa08db	-0.4883488
94	0x3e0f1a70	0.13974929
95	0xbe2a2030	-0.16613841
96	0xbefa286b	-0.4885896
97	0x3e826b43	0.2547246
98	0x3e576e2e	0.21038124
99	0x3e0f62a2	0.14002469
100	0x3db64eee	0.089017734
101	0x3e425a85	0.18979843
102	0x3e20c491	0.15699984
103	0xbe486ece	-0.19573519
104	0xbe462446	-0.19349775
105	0xbdef637a	-0.116888955
106	0x3d9ffe3f	0.078121655
107	0xbed3cf6d	-0.4136919
108	0x3f538416	0.8262342
109	0x3f0aecfd	0.54267865
110	0xbeb8d36a	-0.36098796
111	0xbf3aedb8	-0.7301898
112	0xbde447d1	-0.111465104
113	0xbe4bed92	-0.19914845
114	0x3ea9156e	0.33024162
115	0x3bec0f8d	0.0072040022
116	0x3e3cb0f5	0.18426879
117	0xbd2a92cd	-0.041643906
118	0xbeedc1dc	-0.46436965
119	0x3c7c53d3	0.015400845
120	0xbe7934fc	-0.24336618
121	0xbe12bb2f	-0.14329217
122	0xbd9b705c	-0.0758979
123	0xbe6da3d2	-0.23207024
124	0x3deb21f0	0.114810824
125	0x3db016ca	0.08598097
126	0x3f3ebb1f	0.74504274
127	0xbd9588b6	-0.07301466
128	0x3dd16329	0.102239914
129	0x3dca7c9c	0.098870486
130	0x3dd1039c	0.102057666
131	0x3d9fd1e6	0.07803707
132	0x3de72788	0.11286837
133	0x3c83553e	0.016031858
134	0xbe1ee0cd	-0.15515442
135	0x3ef5785a	0.47943383
136	0x3dfb6adc	0.12276241
137	0xbebb4bed	-0.36581364
138	0xb9c66990	-0.00037844153
139	0xbbea6f4a	-0.00715438
140	0xbda3853e	-0.07984398
141	0xbe413242	-0.18866828
142	0x3d714837	0.05890676
143	0x3da0c842	0.07850696
144	0xbedd2a24	-0.43196213
145	0x3d4db86f	0.050224718
146	0xbed47d54	-0.41501868
147	0xbe3f3cc7	-0.18675528
148	0xbdcdb605	-0.10044483
149	0x3cf72bb8	0.030172214
150	0x3d2a1913	0.04152782
151	0x3c3220fd	0.010872123
152	0x3e844636	0.25834817
153	0xbc36bd22	-0.011153491
154	0x3ecde990	0.40217257
155	0x3d9789f8	0.07399362
156	0x3cf9d944	0.030499108
157	0xbddac0f5	-0.10681335
158	0xbcd28adb	-0.025700977
159	0xbe19c51b	-0.15016596
160	0x3e3cf0d0	0.18451238
161	0x3e3c58b4	0.18393213
162	0x3dc7aa60	0.09749293
163	0x3c4a3b55	0.012343247
164	0xbdbfff8f	-0.09374916
165	0x3d66d055	0.056351025
166	0xbe23c602	-0.15993503
167	0xbc4c5b34	-0.012472916
168	0xbdc443fa	-0.09583278
169	0x3db3b87d	0.08775423
170	0xbe3f9cb6	-0.18712124
171	0x3e22cd25	0.15898569
172	0x3e3e1223	0.18561606
173	0x3e86a754	0.26299536
174	0xbea7ddbd	-0.3278636
175	0xbf0e9828	-0.5570092
176	0xbf8c230b	-1.0948194
177	0xbdcaa9d1	-0.09895671
178	0x3d11f6d7	0.035635795
179	0x3dad64cb	0.0846649
180	0xbdfd4c33	-0.123680495
181	0xbdef981a	-0.11698933
182	0xbe9e38d5	-0.30902734
183	0xbd433934	-0.047661975
184	0xbe48784e	-0.19577143
185	0x3e90e485	0.28299347
186	0x3e5a1400	0.21296692
187	0xbeaf5037	-0.34240887
188	0xbddd6759	-0.108107276
189	0x3dac6f26	0.084196374
190	0xbe08424a	-0.13306537
191	0xbea1b711	-0.3158498
192	0xbc80373c	-0.015651338
193	0xbeb2d905	-0.34931198
194	0x3e7a8cec	0.2446782
195	0xbf405390	-0.75127506
196	0x3d1ef19f	0.038804647
197	0xbcc01475	-0.023447255
198	0xbea00c82	-0.31259543
199	0xbebfacd5	-0.37436548
200	0xbec7689a	-0.38946992
201	0xbdbc31d7	-0.09189194
202	0x3e8ce4ad	0.27518216
203	0x3d8984ee	0.067148075
204	0x3ebeadd7	0.37242004
205	0xbe37797e	-0.1791744
206	0x3e9bdad3	0.30440387
207	0xbeb1076f	-0.34575984
208	0xbe63178d	-0.22176953
209	0xbf2f43e2	-0.68462956
210	0xbebf3b05	-0.37349716
211	0xbe35354e	-0.17696115
212	0xbe5a1590	-0.21297288
213	0xbee3082b	-0.4434217
214	0xbf184129	-0.59474427
215	0x3e802a8f	0.2503247
216	0xbe747ffc	-0.23876947
217	0xbf89cad0	-1.0765018
218	0xbec9625f	-0.39332864
219	0xbd828705	-0.06373409
220	0xbeae9339	-0.34096697
221	0xbf00dcc9	-0.5033689
222	0xb917521c	-0.0001443107
223	0xbe2c109e	-0.16803214
224	0x3da0774c	0.07835254
225	0xbe088f7a	-0.13335982
226	0x3e999500	0.2999649
227	0x3be48cce	0.006974793
228	0xbe887559	-0.2665203
229	0x3ef413b6	0.47671288
230	0x3e6cac11	0.23112513
231	0xbde57987	-0.1120482
232	0x3e14b134	0.14520723
233	0x3dfd6dc1	0.123744495
234	0xbf6ad062	-0.91724217
235	0x3dca657f	0.0988264
236	0xbe525d37	-0.20543371
237	0xbe2053df	-0.15656994
238	0x3d5b7a48	0.053583413
239	0xbdc9e301	-0.09857751
240	0xbdfec14b	-0.124392115
241	0x3dbe62e8	0.092962086
242	0x3d599dd5	0.053129036
243	0xbe6e05c4	-0.23244387
244	0x3ddda74c	0.10822925
245	0x3df0c071	0.11755455
246	0x3ddc2440	0.10749102
247	0x3e33a4bd	0.17543311
248	0x3e453ff6	0.1926268
249	0x3c75e612	0.015008466
250	0xbf76f5d5	-0.9646886
251	0x3e643923	0.22287421
252	0xbef2cd25	-0.47422138
253	0x3d456d12	0.04819972
254	0xbefddaf2	-0.49581105
255	0x3e426332	0.18983153

shared.3.bias f4 [256]
0	0x3f32e05e	0.6987361
1	0xbee57e8a	-0.44823104
2	0x3f41d3ce	0.75713813
3	0xbfb3988a	-1.4030926
4	0xbf1b2b18	-0.6061263
5	0x3ef8f586	0.4862482
6	0x3f68c664	0.9092772
7	0xbf0a2668	-0.53964853
8	0xbeb5cce6	-0.35507888
9	0xbf55af62	-0.8347074
10	0x3f5b84ce	0.8574952
11	0xbef40356	-0.47658795
12	0x3e8dc276	0.27687424
13	0xbf40ca30	-0.75308514
14	0xbf7585bc	-0.9590719
15	0xbf6a097b	-0.91420716
16	0xbeeb6f11	-0.45983174
17	0xbf258b29	-0.64665467
18	0x3f0ccbd5	0.54998523
19	0xbe081f57	-0.13293205
20	0x3eaf9ce5	0.3429939
21	0xbf31baf1	-0.69425875
22	0x3e9f669a	0.31132966
23	0x3f2b8ff2	0.6701652
24	0xbf8cf49b	-1.1012148
25	0x3eb6556a	0.3561204
26	0xbf360c6c	-0.71112704
27	0x3eaffc3e	0.34372133
28	0xbfb871d6	-1.440974
29	0xbd4ed57b	-0.05049656
30	0xbda56638	-0.08076137
31	0x3e99f502	0.3006974
32	0x3eaffb98	0.34371638
33	0x3da04bf2	0.078269854
34	0xbf3948c8	-0.7237668
35	0xbef14ad9	-0.47127417
36	0xbefd673c	-0.49492824
37	0xbf12985f	-0.5726375
38	0x3efdc3f6	0.4956357
39	0xbf1db4d6	-0.6160406
40	0x3f3755bd	0.716152
41	0xbfb262af	-1.3936366
42	0x3ee63224	0.4496013
43	0xbf5e5e0c	-0.86862254
44	0xbf2ba78b	-0.67052525
45	0x3f18d7a1	0.59704024
46	0x3eeaf4ae	0.458898
47	0xbebe8687	-0.3721201
48	0xbea771fd	-0.32704154
49	0xbfb13e70	-1.384718
50	0xbfbbc5e0	-1.4669762
51	0xbf8bb297	-1.0913876
52	0x3e61238c	0.21986216
53	0xbcae7e31	-0.021300407
54	0xbed35185	-0.41273132
55	0x3f7de66c	0.9917972
56	0xbf08e588	-0.53475237
57	0xbf8cae7a	-1.0990746
58	0xbf0a6918	-0.5406661
59	0x3e0e8390	0.13917375
60	0x3e7606fc	0.24026102
61	0xbf31aa97	-0.69400924
62	0xbdc7fd46	-0.09765105
63	0x3f638d56	0.88887537
64	0x3eac2107	0.33618948
65	0x3e6d8efc	0.23199075
66	0xbef584f8	-0.4795301
67	0xbf3c9cb5	-0.73676616
68	0xbfbb31e1	-1.4624597
69	0xbef851a1	-0.48499778
70	0x3da0419b	0.07825013
71	0x3eef9365	0.4679214
72	0x3dc6ad15	0.097009815
73	0x3bafb040	0.005361587
74	0x3dba8f3b	0.0910935
75	0xbf62d0d6	-0.8859991
76	0xbf5f1081	-0.8713456
77	0x3dfad9aa	0.122485474
78	0x3f3c65a3	0.73592585
79	0xbf0af173	-0.5427467
80	0xbf492c87	-0.7858357
81	0xbf69382d	-0.9110134
82	0x3f1c9499	0.6116424
83	0xbfa6002b	-1.2968801
84	0xbd5f79b2	-0.054559417
85	0xbfa8cd4c	-1.3187652
86	0xbf9df02a	-1.2338917
87	0x3f1d6b3b	0.61491746
88	0xbf5a4a69	-0.8526979
89	0x3e9f7f7b	0.31151947
90	0xbef793fa	-0.48355085
91	0x3f388f36	0.7209352
92	0x3f220d88	0.633019
93	0x3f54218a	0.82863677
94	0xbf24e56a	-0.6441256
95	0xbf983f8d	-1.1894394
96	0xbf6f98a1	-0.9359227
97	0x3eabb6a5	0.33537784
98	0xbfb8f4e3	-1.4449733
99	0x3f240b78	0.6408
100	0xbe031a5d	-0.12803026
101	0xbf22a90f	-0.6353921
102	0xbecdb97f	-0.40180585
103	0xbcadb9e6	-0.021206807
104	0xbf933143	-1.1499408
105	0xbf8bda5d	-1.0926014
106	0x3e969b73	0.29415473
107	0x3f1a5c32	0.6029693
108	0xbba7b196	-0.0051176054
109	0xbf315bd7	-0.6928076
110	0xbf3b5d49	-0.73189217
111	0xbd750e5e	-0.059828155
112	0xbeafb487	-0.3431742
113	0xbf913dcf	-1.1346987
114	0xbf764970	-0.96205807
115	0xbeeddb07	-0.46456167
116	0xbdaf8aff	-0.08571433
117	0x3f3d04a1	0.7383519
118	0xbf21cf63	-0.6320707
119	0x3d3a7348	0.045520097
120	0xbd4664f7	-0.04843613
121	0xbcde7561	-0.02715558
122	0x3ece40a7	0.402837
123	0x3f2bee0b	0.671601
124	0x3f54003f	0.82812876
125	0xbf465a89	-0.77481896
126	0xbee8c144	-0.4545995
127	0xbeb8f4c2	-0.36124235
128	0x3f2bf9da	0.6717812
129	0xbe1a31ff	-0.15058134
130	0xbf52db94	-0.823663
131	0xbf30922e	-0.6897305
132	0x3f0a96f6	0.541366
133	0xbf3221a1	-0.69582564
134	0x3dbde96a	0.09273036
135	0x3d856d43	0.06514981
136	0xbd0cb890	-0.0343557
137	0x3ec7039d	0.38869944
138	0x3ea6a8e9	0.32550743
139	0x3f5d9849	0.86560494
140	0xbf19b521	-0.60042006
141	0xbf207b09	-0.62687737
142	0x3e46b687	0.19405566
143	0xbf2bacbe	-0.6706046
144	0xbfa63f1e	-1.2988012
145	0x3eeb9329	0.46010712
146	0xbde66442	-0.112495914
147	0x3ec859d5	0.39131036
148	0x3e822968	0.25422215
149	0xbefb873c	-0.49126613
150	0x3eb6fe0c	0.35740697
151	0xbec0b672	-0.37639195
152	0x3eaba3c0	0.3352337
153	0x3f102d73	0.5631935
154	0x3f36a58c	0.71346354
155	0xbfc4ef33	-1.5385498
156	0x3e8129a2	0.25227076
157	0x3ee11118	0.43958354
158	0x3f4b4fc2	0.79418576
159	0x3f0f9fb6	0.56103075
160	0xbf1373f2	-0.57598794
161	0x3f1d6e82	0.61496747
162	0xbf66e739	-0.9019657
163	0x3f3cd4e9	0.73762375
164	0x3ef48367	0.47756502
165	0xbcd0fce2	-0.025511209
166	0x3ee8b71b	0.45452198
167	0xbf36f400	-0.71466064
168	0xbf07c881	-0.5304032
169	0xbf5399e3	-0.8265669
170	0xbd637b87	-0.055537727
171	0x3f204b02	0.6261445
172	0xbf557639	-0.8338352
173	0xbf09890d	-0.5372475
174	0xbf51f990	-0.8202143
175	0x3e5d925f	0.21637867
176	0x3ae08d5c	0.0017131972
177	0xbeaefb99	-0.3417633
178	0xbf303073	-0.6882393
179	0xbf0c3e4a	-0.54782546
180	0x3e172e1c	0.14763683
181	0xbf1435fa	-0.5789486
182	0xbf7e6817	-0.9937758
183	0x3ecb11af	0.3966193
184	0xbe699e85	-0.22814377
185	0x3f3065df	0.6890544
186	0x3f2b1241	0.6682473
187	0xbf422cd0	-0.7584963
188	0xbf1219e0	-0.5707073
189	0xbeaafef5	-0.33397642
190	0xbef4a74a	-0.4778388
191	0xbe6656e5	-0.22494085
192	0xbec4da39	-0.3844774
193	0x3d5914ba	0.052998282
194	0xbf892c76	-1.0716693
195	0x3ae11d58	0.0017174883
196	0x3f618a43	0.88101596
197	0x3f2251b2	0.6340591
198	0x3d2bee62	0.041975386
199	0xbee76410	-0.4519353
200	0xbeb97a3a	-0.36226064
201	0x3ef6934c	0.48159254
202	0xbec38101	-0.3818436
203	0x3da36a0a	0.0797921
204	0x3d0a86a1	0.0338198
205	0x3e41fad3	0.18943338
206	0xbe9f094b	-0.31061777
207	0x3f310478	0.69147444
208	0xbf6bb129	-0.920672
209	0xbf30a208	-0.6899724
210	0x3e195ab5	0.14976008
211	0xbf628937	-0.88490623
212	0xbc2aaed2	-0.010417657
213	0xbdc9e4ce	-0.09858094
214	0xbf489f73	-0.783683
215	0x3f3f215c	0.7466028
216	0x3e9aeb31	0.30257562
217	0x3edd25e5	0.43192974
218	0xbfa7ca44	-1.3108602
219	0x3f073746	0.52818716
220	0xbf621c59	-0.88324505
221	0x3f390119	0.722673
222	0xbf811d81	-1.0087129
223	0x3d430a5b	0.047617298
224	0x3f3a515c	0.72780395
225	0x3ede1491	0.43375066
226	0xbdafb653	-0.085796975
227	0x3db9fb01	0.09081078
228	0xbeabd018	-0.335572
229	0x3f0bab8f	0.5455865
230	0x3cbaaca2	0.022787396
231	0x3f2688d3	0.6505253
232	0xbe60156b	-0.2188317
233	0x3c8d6c4d	0.017263556
234	0xbf231ad1	-0.63712794
235	0x3f0524e5	0.5200942
236	0xbf1cbf78	-0.6122966
237	0xbf8b0966	-1.0862243
238	0xbf642607	-0.89120525
239	0x3f0e215f	0.5551967
240	0x3e4e6179	0.2015437
241	0xbf58fe3b	-0.84762925
242	0x3f3b2175	0.73097926
243	0x3f045d1a	0.5170456
244	0xbfa64ccf	-1.299219
245	0x3f064def	0.5246267
246	0xbeb93be8	-0.36178517
247	0xbf9f53a1	-1.2447397
248	0xbf140824	-0.5782492
249	0x3ed444d3	0.4145876
250	0x3ee42152	0.4455667
251	0xbe12f01d	-0.14349408
252	0x3e053e28	0.13011992
253	0xbf083bd3	-0.53216285
254	0xbf167184	-0.5876696
255	0xbfa97519	-1.323886

mean.weight f4 [8, 256]
0	0x3dac2a69	0.084065266
1	0xbd1d200c	-0.03836064
2	0x3dda92a9	0.106725045
3	0xbd1cc78c	-0.03827624
4	0x3cc2fa19	0.023800896
5	0x3e1bc09b	0.15210192
6	0x3d41b045	0.047287244
7	0x3d5ab8aa	0.053398766
8	0xbdd7d4da	-0.10538645
9	0x3d7b159b	0.0612999
10	0x3e454572	0.19264773
11	0x3de08b41	0.109640606
12	0xbc7acff1	-0.015308366
13	0xbde44212	-0.111454144
14	0x3e85bbdb	0.26119885
15	0x3af64f13	0.0018791877
16	0xbe44ef8e	-0.19232008
17	0x3db2c630	0.087292075
18	0xbf1612fc	-0.5862272
19	0x3d4eb2de	0.05046355
20	0x3d4ac74b	0.049506467
21	0xbd9f2b23	-0.077718996
22	0xbe24070e	-0.16018316
23	0xbcff5dea	-0.031172711
24	0x3e8c3822	0.27386576
25	0x3e25dbb6	0.16197094
26	0xbea13c9a	-0.31491548
27	0x3ced5964	0.028973289
28	0x3da5ee84	0.08102134
29	0x3e642c95	0.22282632
30	0x3e0bd93c	0.13657087
31	0x3c63d710	0.013906255
32	0xbd60948f	-0.054829177
33	0x3d131ea1	0.035917882
34	0x3dc31b93	0.09526744
35	0xbe87abe1	-0.2649832
36	0x3dae84c2	0.08521415
37	0xbe8fa8f2	-0.28058583
38	0x3e1dc093	0.15405492
39	0xbe372787	-0.17886172
40	0xbd26fcbf	-0.04076838
41	0xbefc661c	-0.49296653
42	0x3cbe67e0	0.02324289
43	0x3d91dd9d	0.071223475
44	0xbf11373d	-0.5672491
45	0xbd68cd85	-0.056836624
46	0x3d031435	0.032001693
47	0x3d16b4ed	0.036793638
48	0xbb7ccb3b	-0.0038573283
49	0xbef1afca	-0.4720443
50	0x3d6d2995	0.057900984
51	0xbbf1a58f	-0.0073744725
52	0xbce2e611	-0.027697595
53	0xbd3a4b3c	-0.045481905
54	0x3ce08e56	0.027411621
55	0xbbadfe29	-0.0053098393
56	0x3dd4394c	0.10362491
57	0xba72fdd6	-0.0009269392
58	0xbd9182a6	-0.07104997
59	0x3be0c6e3	0.0068596466
60	0x3cdfa1c7	0.027298821
61	0x3d51eee8	0.05125323
62	0x3e63c250	0.22242093
63	0xbe8685f6	-0.2627408
64	0x3e694cd9	0.22783221
65	0x3d37070c	0.044684455
66	0x3d9ec2a8	0.077519715
67	0x3e14a844	0.14517313
68	0xbe0ae933	-0.13565521
69	0x3bafe243	0.0053675487
70	0x3d149229	0.0362722
71	0x3de8ec9c	0.11373255
72	0x3e3143f7	0.17311083
73	0x3c22e2a0	0.009941727
74	0xbca0fdc1	-0.01965225
75	0xbd8077a7	-0.06272822
76	0xbe6e6de7	-0.23284112
77	0xbf0db05d	-0.55347234
78	0xbcf4409f	-0.02981597
79	0xbdb987eb	-0.090591274
80	0xbbd50e06	-0.006501916
81	0xbe3f11cf	-0.18659137
82	0x3b15754c	0.002280551
83	0x3e08ce71	0.13360001
84	0xbcdbce35	-0.026831726
85	0x3d13b7b2	0.036063857
86	0x3d302eeb	0.043013494
87	0xbdefb097	-0.11703604
88	0x3d94a96f	0.072588794
89	0xbc3c5618	-0.011495136
90	0x3e89fadf	0.26949212
91	0xbdea01aa	-0.11426099
92	0xbc64b33e	-0.01395875
93	0xbdd79ca6	-0.10527925
94	0xbea2b659	-0.31779745
95	0x3d3be140	0.045869112
96	0xbe5e6b23	-0.21720557
97	0x3e3133e8	0.17304957
98	0x3de4faf3	0.11180677
99	0xbd5bac31	-0.05363101
100	0x3d547eb1	0.051878635
101	0x3e9faa5f	0.3118467
102	0x3e97402f	0.29541156
103	0x3d54f3b9	0.051990245
104	0xbcd657a3	-0.026164835
105	0xbd7c3e51	-0.061582867
106	0xbda2b96b	-0.07945522
107	0x3d3ac445	0.045597333
108	0x3dccd0ab	0.10000738
109	0xbe0a72e9	-0.13520397
110	0xbc81d4b3	-0.015848493
111	0xbd25cc4a	-0.04047803
112	0xbe7e9a0a	-0.24863449
113	0xbed98f65	-0.42492214
114	0x3e08f693	0.1337531
115	0xbdad2336	-0.084539816
116	0xbce06130	-0.027390093
117	0x3e0198b1	0.12655903
118	0x3da7c933	0.081926726
119	0xbc193826	-0.009351766
120	0x3e850fb7	0.25988552
121	0x3cff38d3	0.031155026
122	0x3d2792d0	0.040911496
123	0xbc807407	-0.015680326
124	0xbcf049e3	-0.029332107
125	0x3d7146e3	0.058905493
126	0x3e4d995e	0.20078036
127	0xbec558b0	-0.38544226
128	0x3d3fb0b3	0.046799373
129	0xbbd487cd	-0.0064859153
130	0x3dfb01c0	0.12256193
131	0x3dffd0ee	0.12491022
132	0x3da4aebe	0.08041142
133	0x3a868cd5	0.001026536
134	0xbe38b06b	-0.18036048
135	0x3dfd420f	0.12366115
136	0x3de4f309	0.11179168
137	0xbd94b032	-0.07260169
138	0x3dbf09e2	0.09328057
139	0x3d23a071	0.03994793
140	0xbe0408e3	-0.12894015
141	0xbe65d64b	-0.22445028
142	0xbde26b91	-0.11055673
143	0x3e0fe98a	0.14053932
144	0xbe45a3cf	-0.1930077
145	0x3dd9c39d	0.106330134
146	0x3c364338	0.011124425
147	0xbe2dc6f0	-0.1697042
148	0x3e16e7a2	0.14736798
149	0xbd0e6dce	-0.034772687
150	0xbcec16fb	-0.028819552
151	0x3e60ba3d	0.21946044
152	0xbd9ba5af	-0.07599961
153	0x3d88d93d	0.0668206
154	0xbdc96068	-0.09832841
155	0xbef03554	-0.46915686
156	0x3e0ec883	0.13943677
157	0x3cbf88c6	0.023380648
158	0xbe5f7491	-0.2182181
159	0x3da1d671	0.079022296
160	0xbdf86833	-0.121292494
161	0x3d87133d	0.06595466
162	0xbe569eb7	-0.20958982
163	0x3d3fd897	0.046837416
164	0x3d01d8ae	0.031700782
165	0x3cad132e	0.02112731
166	0xbd0bb525	-0.0341083
167	0xbe00fc3f	-0.12596224
168	0x3e7b45e9	0.24538387
169	0x3de7c7b9	0.11317391
170	0xbd9520e1	-0.07281662
171	0x3e0a5bcd	0.13511582
172	0x3d5db3fb	0.05412672
173	0x3d83ef14	0.06442085
174	0xbe3365b4	-0.17519265
175	0xbdb4281c	-0.08796713
176	0xbe233fa9	-0.15942253
177	0x3dcc4fcc	0.099761575
178	0xbe2ed25f	-0.17072438
179	0x3d279f9d	0.040923703
180	0x3c45e1c2	0.012077751
181	0x3d248c09	0.04017261
182	0xbd6969a0	-0.056985497
183	0xbcdaeaf7	-0.026723368
184	0xbd27aa1a	-0.040933706
185	0xbcc2bb0c	-0.023770832
186	0xbbe08de5	-0.0068528526
187	0x3e2f5801	0.17123415
188	0xbe84634d	-0.2585701
189	0x3da183d2	0.07886471
190	0xbe6761db	-0.22595923
191	0xbdb0708e	-0.08615218
192	0x3c16d922	0.009207042
193	0xbdfa2d87	-0.12215715
194	0x3d011263	0.031511676
195	0x3e432ffd	0.19061275
196	0x3cfdd7be	0.030986663
197	0x3ef30360	0.47463512
198	0x3e857fc8	0.26074052
199	0xbd939829	-0.072067566
200	0x3cb4cc16	0.022069972
201	0x3c7da2eb	0.015480737
202	0xbd5db51f	-0.05412781
203	0xbe8d7adc	-0.27632797
204	0xbd2b73e1	-0.041858558
205	0xbdbfcd06	-0.09365277
206	0xbde053ac	-0.10953459
207	0xbd7b1358	-0.061297745
208	0x3de1908a	0.11013897
209	0xbda0448c	-0.07825574
210	0xbb7a451c	-0.0038188165
211	0x3f29b0de	0.662855
212	0x3db3f906	0.08787732
213	0xbce5ed04	-0.02806712
214	0xbe84d834	-0.259462
215	0xbda0dd92	-0.07854761
216	0x3e371c23	0.17881827
217	0xbdd2a83a	-0.10285993
218	0x3e32dec6	0.17467794
219	0x3d2207f8	0.03955838
220	0x3efae79e	0.49004835
221	0x3e582a65	0.21109922
222	0x3e016944	0.12637812
223	0xbb14b0e7	-0.002268845
224	0x3c31d53d	0.010854063
225	0xbdf4c5f7	-0.11951821
226	0x3dc8c78d	0.09803686
227	0xbc8d1eed	-0.01722666
228	0xbd026b59	-0.031840656
229	0x3eaa1426	0.33218497
230	0xbd18c75e	-0.037299506
231	0xbd006c99	-0.031353567
232	0x3cc1164c	0.023570202
233	0xbc2931f8	-0.010326855
234	0xbc5011f3	-0.012699592
235	0x3d22be3c	0.039732203
236	0xbdf18580	-0.11793041
237	0xbe5ea0a7	-0.21740972
238	0xbdacb6d0	-0.08433306
239	0x3c7f39b0	0.015577719
240	0xbd9abb61	-0.07555271
241	0xbf2df1aa	-0.67946875
242	0xbbe03084	-0.006841721
243	0x3c1e6b64	0.009669159
244	0xbd6e88d2	-0.05823595
245	0xbc4f4577	-0.012650839
246	0x3e1a50a8	0.1506983
247	0x3eaeb570	0.341228
248	0x3eb0151d	0.34391108
249	0xbddfb20b	-0.10922631
250	0xba0d6193	-0.0005393263
251	0x3ca2c7fc	0.01987075
252	0x3d8ce4df	0.06879591
253	0xbccb5054	-0.024818577
254	0xbd3871ff	-0.04503059
255	0xbecf1458	-0.4044521

mean.bias f4 [8]
0	0xbc06463b	-0.008195455
1	0xbe0a7db3	-0.13524513
2	0xbe861bdb	-0.26193127
3	0xbe36d802	-0.17855838
4	0x3d6d9ebd	0.058012713
5	0x3da6217c	0.081118554
6	0x3d794152	0.06085331
7	0x3e887bea	0.2665704

log_std.weight f4 [8, 256]
0	0x3d6a8dee	0.05726426
1	0xbdd00f70	-0.101591945
2	0x3db4a4a3	0.088204645
3	0xbd21d061	-0.039505366
4	0xbd34e47f	-0.044163223
5	0xbcb66c77	-0.022268517
6	0x3da71a59	0.08159322
7	0xbdbe9f0c	-0.093076795
8	0xbcd4d2ef	-0.025979487
9	0xbd6a5811	-0.057212893
10	0x3d9b79b7	0.07591575
11	0x3d87927a	0.06619735
12	0xbc275909	-0.010214099
13	0xbdd2af45	-0.10287336
14	0xbc24feb0	-0.010070488
15	0xbd3d933c	-0.04628299
16	0xbde935e8	-0.11387235
17	0x35f56285	1.8282595e-06
18	0x3df8478c	0.121230215
19	0x3d7ba834	0.061439708
20	0x3c95b1b9	0.018273221
21	0xbd589ca5	-0.052883763
22	0x3b1896bd	0.0023283206
23	0x3d0563d3	0.032565903
24	0x3dd37c27	0.103264146
25	0x3e02915f	0.12750767
26	0x3b9318b2	0.004489028
27	0x3d1dbcf4	0.038510278
28	0x3b8b7aa3	0.004256563
29	0x3c95d349	0.018289225
30	0x3d4ef7e7	0.050529387
31	0x3c995752	0.018718395
32	0xbc9cb68a	-0.01913001
33	0x3c8e2e5f	0.017356096
34	0xbd67b504	-0.056569114
35	0xba9efa08	-0.0012128958
36	0xbd808ad4	-0.06276479
37	0x3e0eaf99	0.13934173
38	0x3d5eb99e	0.054376237
39	0x3de02122	0.109438196
40	0xbc8fd783	-0.017558819
41	0x3d1bc3be	0.03802847
42	0xbc0bad9b	-0.0085252775
43	0x3d2cd108	0.042191535
44	0x3c1d923e	0.009617386
45	0x3c8a60c3	0.016891843
46	0x3d95a8e5	0.07307605
47	0x3e388756	0.18020377
48	0xbd8046ad	-0.0626348
49	0xbe0049df	-0.1252818
50	0x3cc3d881	0.023906948
51	0xbcfd018a	-0.030884523
52	0xbca5cc86	-0.020239126
53	0xbd37d9e4	-0.04488553
54	0xbe0e2c2e	-0.1388404
55	0xbc2834a9	-0.010266461
56	0x3d226cac	0.03965442
57	0x3bd3781e	0.006453528
58	0x3c84a7ed	0.016193355
59	0xbc73cb48	-0.014880009
60	0x3cd5fc54	0.026121296
61	0xbdd8105e	-0.10549997
62	0x3e3978d4	0.18112499
63	0xbdc92658	-0.098217666
64	0x3e060441	0.1308756
65	0x3ce3b35e	0.02779549
66	0x3cc47d61	0.023985567
67	0x3cbdfada	0.023190904
68	0x3c9f34e1	0.019434394
69	0xbc8556ad	-0.016276682
70	0xbd29e919	-0.041482065
71	0x3da5e65a	0.08100577
72	0xbdcd07b9	-0.100112386
73	0xbb3a61eb	-0.0028439711
74	0x3c8855c3	0.016642457
75	0xbbda6f21	-0.0066660796
76	0xbe050cf0	-0.12993217
77	0x3f0c572d	0.5482052
78	0xbca83b00	-0.020535946
79	0x3bd5be8f	0.0065229605
80	0xbcf6a8a3	-0.03010971
81	0x3b7ce38b	0.0038587775
82	0x3cf736a1	0.030177416
83	0xbd0125cf	-0.031530198
84	0x3b77bb72	0.0037800935
85	0x3d25345b	0.040333133
86	0x3b8c0b0e	0.0042737788
87	0x3cec9769	0.028880792
88	0xbd7e64ed	-0.06210797
89	0x3bee3a22	0.0072701136
90	0x3dc09dd6	0.09405105
91	0x3ac743ff	0.001520276
92	0x3d221a89	0.039576087
93	0x3ceb4d29	0.028723316
94	0x3e324fe2	0.17413285
95	0x393e7af0	0.0001816561
96	0x3daeef08	0.08541685
97	0x3e02e1df	0.12781475
98	0x3d81927f	0.0632677
99	0x3cc96849	0.02458586
100	0x3ce99c3b	0.02851688
101	0x3e2f1dd7	0.17101227
102	0x3da622fc	0.081121415
103	0x3d16705c	0.036728248
104	0x3cbe9c57	0.023267908
105	0xbd0d9582	-0.03456641
106	0x3c7e3eda	0.015517915
107	0x3ca86ffc	0.02056121
108	0x3bba31ed	0.005682221
109	0xbd8038a0	-0.062608
110	0xbc09e9a8	-0.008417524
111	0x3be96e43	0.00712374
112	0xbdba95d4	-0.09110609
113	0x3da03455	0.078224815
114	0x3c0263f5	0.007958402
115	0x3cc94c96	0.024572652
116	0x3cae26bc	0.021258704
117	0x3ce2040c	0.02758982
118	0xbc6ad303	-0.014332536
119	0xbcc85f0c	-0.024459384
120	0x3e563711	0.20919444
121	0x3a915366	0.0011087477
122	0x3cff6fda	0.031181265
123	0xbce6214f	-0.028092055
124	0xbca5e64b	-0.020251414
125	0xbc81024c	-0.015748166
126	0x3e3f5403	0.18684392
127	0xbce07811	-0.027401002
128	0x3cace120	0.021103442
129	0x3c2d5d1f	0.010581284
130	0x3cb1ea8a	0.021718282
131	0x3dcda6b9	0.100415654
132	0x3d81da83	0.06340506
133	0x3cd9e2d5	0.02659742
134	0x3d015c9f	0.03158247
135	0x3d92b1fb	0.07162853
136	0x3d983bbb	0.07433268
137	0x3c7fb11e	0.015606193
138	0x3d89fcea	0.06737693
139	0x3cae6b53	0.02129141
140	0x3e2b8d04	0.16753012
141	0xbd8bc451	-0.06824554
142	0x3d039bc5	0.032130975
143	0x3d5f49f0	0.05451387
144	0xbda5d949	-0.080980845
145	0x3cc443d5	0.023958126
146	0xbd814bc5	-0.0631328
147	0x3d21d27a	0.039507367
148	0x3d91bc58	0.07116002
149	0xbd66a229	-0.05630699
150	0xbc2c1727	-0.010503567
151	0x3ce397ba	0.02778231
152	0x3d6cc4a1	0.057804707
153	0xbdc31d09	-0.095270224
154	0xbc9bf8c5	-0.019039521
155	0xbdbb8a7b	-0.091572724
156	0x3da0dfc6	0.078551814
157	0x3c74f9e7	0.0149521595
158	0x3d69ab59	0.057048175
159	0x3d0d8e7e	0.03455972
160	0xbde0a5d1	-0.10969127
161	0x3bcf47f7	0.0063257175
162	0x3d3157a3	0.043296468
163	0x3d299614	0.04140289
164	0x3c96caa4	0.018407173
165	0x3be40bc7	0.006959412
166	0x3bf11879	0.0073576537
167	0xbd0998d3	-0.03359301
168	0xbcd34a74	-0.025792338
169	0xbc3ab47f	-0.011395573
170	0xbdc521a0	-0.09625554
171	0x3d5456ab	0.051840466
172	0xbdb6216f	-0.08893096
173	0xbd27f03b	-0.041000586
174	0x3d83c389	0.0643378
175	0x3c8579b5	0.016293386
176	0x3cbd2b55	0.023091951
177	0x3d97e403	0.07416537
178	0xbcea152a	-0.028574545
179	0xbd5a98f0	-0.05336851
180	0x3cc9efbd	0.024650449
181	0x3d20edd8	0.039289325
182	0x3d7d8ab4	0.061899856
183	0xbd00e5d8	-0.031469196
184	0xbb34dd39	-0.002759768
185	0xbb9c1927	-0.0047637406
186	0x3d0372ac	0.03209178
187	0xbbdc177a	-0.006716666
188	0xbd6ec89b	-0.05829678
189	0x3c7d63e7	0.015465713
190	0xbd86bda8	-0.06579143
191	0xbd5f73df	-0.054553863
192	0x3c984f50	0.018592507
193	0xbc47c095	-0.012191911
194	0x3d0b3321	0.033984307
195	0x3d6e1f71	0.058135454
196	0x3c2a394c	0.010389637
197	0x3e85551b	0.26041493
198	0x3e3e67d2	0.18594292
199	0xbe4d00af	-0.20019792
200	0xbde1ee9d	-0.1103184
201	0x3c2474e0	0.010037631
202	0xbd27fa14	-0.041009977
203	0x3e84aa2a	0.25911075
204	0xbc9b1686	-0.018931638
205	0x3d114a06	0.035470985
206	0xbe2c84f6	-0.16847596
207	0x3c356ebe	0.011073766
208	0x3c978f13	0.01850084
209	0xbe18648f	-0.1488211
210	0x3d4cdf8a	0.05001787
211	0x3e7f7cc1	0.24949934
212	0x3d8c8a32	0.06862296
213	0xbb53dd79	-0.0032328053
214	0xbc3f529e	-0.011677412
215	0x3cd617fd	0.026134485
216	0x3d9415f2	0.07230748
217	0xbb174dcc	-0.0023087142
218	0x3bd18760	0.006394312
219	0x3ce43792	0.02785853
220	0x3e29a5ec	0.165672
221	0x3e02a978	0.1275996
222	0x39ea60ab	0.0004470398
223	0xbc454fff	-0.012042998
224	0x3d38a01c	0.045074567
225	0xbd89fbbd	-0.067374684
226	0x3d90e464	0.07074812
227	0xbbd2bd54	-0.006431261
228	0x3c48fca4	0.0122672655
229	0x3e313181	0.1730404
230	0x3d8044aa	0.06263097
231	0x3a24d7cf	0.00062882615
232	0xbe077d6e	-0.13231441
233	0xbcc941aa	-0.024567444
234	0xbd71b6af	-0.05901211
235	0x3d46a28c	0.04849486
236	0xbd787d94	-0.060666636
237	0x3e4ec845	0.20193584
238	0xbd8de4f5	-0.06928436
239	0xbcaa539c	-0.020791821
240	0xbd22809d	-0.039673436
241	0x3e8e3f94	0.2778288
242	0x3d59a278	0.053133458
243	0xbb330201	-0.0027314427
244	0xbb963de9	-0.004585017
245	0x3cfb1ea6	0.030654263
246	0x3d47d60d	0.04878812
247	0x3d48fda6	0.049070023
248	0x3dac5a6a	0.084156826
249	0xbb9fc024	-0.0048752
250	0xbd69d6c8	-0.057089597
251	0xbd06f5dc	-0.032949314
252	0x3b28334a	0.0025665336
253	0x3d2a8dba	0.041639067
254	0x3ca38a86	0.019963514
255	0x3cb37d45	0.02191032

log_std.bias f4 [8]
0	0xc0131983	-2.298432
1	0xc0116fbd	-2.272445
2	0xc005467f	-2.0824277
3	0xc007a269	-2.1192877
4	0xc00c4a98	-2.1920528
5	0xc0167338	-2.3507824
6	0xc0178644	-2.36757
7	0xc007b373	-2.1203277
