trained_models/AntNormal-v3/sero/critic_4.pt (torch, 778626 bytes, 10 tensors)

Q1.0.weight f4 [256, 119]
0	0xbf050b84	-0.51970696
1	0xbed1ffd8	-0.41015506
2	0xbe8b9b71	-0.2726703
3	0xbf606645	-0.8765605
4	0xbfefee6a	-1.8744633
5	0xbf894959	-1.0725509
6	0x3ea45e06	0.32102984
7	0x3f103acc	0.56339717
8	0x3f8671a5	1.0503432
9	0x3f6520db	0.8950326
10	0xbf368b9f	-0.71306795
11	0xbf94e319	-1.1631805
12	0x3fa75eba	1.3075783
13	0x3dc5028a	0.09619625
14	0x3ef845e3	0.4849082
15	0xbeb5d541	-0.35514262
16	0xbcb6f844	-0.02233518
17	0xbe39c501	-0.18141557
18	0xbd9b1c22	-0.07573725
19	0xbd9ab097	-0.07553213
20	0x3dbc88ec	0.09205803
21	0xbd65d03c	-0.05610679
22	0xbdb913f7	-0.09037011
23	0x3ce34902	0.027744774
24	0x3de38014	0.11108413
25	0x3cf0f2fa	0.029412735
26	0x3e271e5c	0.16320175
27	0x3cecf771	0.028926583
28	0x3da69176	0.08133213
29	0xbd1c1704	-0.038107887
30	0x3d9cc23f	0.07654237
31	0x3d86a7f3	0.065750025
32	0xbd15dc7f	-0.036587235
33	0x3d6628f2	0.056191392
34	0x3dad9098	0.08474845
35	0xbd544e0c	-0.051832244
36	0xbd1274f2	-0.03575606
37	0x3d806ef0	0.0627116
38	0x3d9760d1	0.07391513
39	0x3cc619ea	0.024182279
40	0x3ce69b91	0.028150352
41	0x3d8b0d84	0.06789687
42	0x3da4881c	0.08033773
43	0xbd6d7950	-0.05797702
44	0xbd1a72c7	-0.037707116
45	0x3d9e1230	0.07718313
46	0x3d4acddc	0.04951273
47	0xbd302db7	-0.043012347
48	0xbcfecdd6	-0.03110401
49	0x3db63125	0.08896092
50	0xbd6b2bfb	-0.05741499
51	0x3d718a3f	0.058969732
52	0x3d59e1c8	0.053193837
53	0xbdb40d2d	-0.087915756
54	0xbdbb68e8	-0.09150869
55	0x3cf94be3	0.030431693
56	0x3d383a25	0.044977326
57	0x3da66979	0.08125586
58	0x3c391e55	0.011298736
59	0x3d7ebb63	0.062190425
60	0xbd856c60	-0.065148115
61	0x3d60212e	0.054719143
62	0xbdb4dbe1	-0.08831001
63	0x3d7499ae	0.059716873
64	0x3c22d4e5	0.009938453
65	0x3d67ef7b	0.05662487
66	0x3d1451d9	0.03621087
67	0xbd81e13f	-0.063417904
68	0x3a798d16	0.00095196196
69	0x3c3df931	0.011595056
70	0x3c57e9fc	0.013178345
71	0xbda4606d	-0.08026204
72	0xbd3da87d	-0.04630326
73	0xbd30df33	-0.04318161
74	0xbd4c17ce	-0.04982739
75	0x3d9fdc7b	0.07805725
76	0x3d546575	0.05185457
77	0x3d1a9c16	0.03774651
78	0xbce11fc8	-0.027480975
79	0xbd985331	-0.074377425
80	0x3c9fce37	0.01950751
81	0x3dad76aa	0.08469899
82	0x3d271b98	0.0407978
83	0xbd979259	-0.074009605
84	0xbc0527aa	-0.008127132
85	0x3b7402f4	0.0037233206
86	0x3d6e4b77	0.058177438
87	0x3d1e9ee4	0.03872575
88	0xbd84653a	-0.0646462
89	0xbdb10cc5	-0.08645014
90	0x3cdefafa	0.027219284
91	0x3d374d4e	0.044751458
92	0x3d575ad5	0.05257686
93	0x3d813ca8	0.063103974
94	0x3da5f56e	0.081034526
95	0xbd1cbbeb	-0.03826515
96	0xbdb69c3d	-0.08916519
97	0x3d37e13f	0.044892546
98	0x3db517cc	0.088424295
99	0xbd88bf47	-0.06677108
100	0xbd3d04b9	-0.046147082
101	0x3da0be85	0.07848839
102	0x3d92a1c0	0.071597576
103	0xbc0fa5dd	-0.008767572
104	0xbd565115	-0.05232342
105	0x3c89abf1	0.01680562
106	0xbdb7e13b	-0.08978506
107	0xbd144f85	-0.03620865
108	0xbc425d11	-0.011863009
109	0xbcb2fb05	-0.021848211
110	0x3d1ab6f5	0.037772138
111	0xbf60eab2	-0.87858117
112	0x3fce6940	1.612587
113	0xbd05fab8	-0.032709807
114	0xbe01447f	-0.12623785
115	0x3e818ad5	0.25301233
116	0xbec3a938	-0.3821504
117	0x3cdf0d26	0.02722795
118	0x3f89084c	1.0705657
119	0xbf2b5e49	-0.6694074
120	0x3de966af	0.113965385
121	0xbe5fc2b3	-0.21851616
122	0xbdfef98f	-0.12449943
123	0x3f7d8ccf	0.9904298
124	0x3f34f32e	0.7068356
125	0x3ee9670b	0.45586428
126	0x3f1178b2	0.5682479
127	0x3f3d4349	0.73930794
128	0x3f8341bd	1.0254437
129	0x3ea676a9	0.32512406
130	0xbf8b11c8	-1.0864801
131	0x3f9598dc	1.1687274
132	0x3d561fbb	0.052276354
133	0xbe1d6cdd	-0.1537356
134	0x3d57acf7	0.052655187
135	0x3dc712e7	0.09720402
136	0x3e363107	0.1779214
137	0x3e154fac	0.14581174
138	0x3dfbdb0a	0.12297638
139	0xbe03ffce	-0.1289055
140	0xbd7ea550	-0.062169373
141	0x3d8d4cfe	0.06899451
142	0xbeb45872	-0.35223728
143	0xbddf85f5	-0.10914222
144	0xbd73cf66	-0.059523962
145	0x3d4e1b9a	0.05031929
146	0x3b134a8f	0.002247486
147	0xbc1b23f6	-0.009469023
148	0x3cec5716	0.02885012
149	0x3ce35953	0.027752554
150	0xbd34e1c1	-0.04416061
151	0x3d128ecf	0.035780724
152	0xbda0c639	-0.07850308
153	0x3b6c243c	0.003603234
154	0xbd01196f	-0.031518396
155	0xbd1d1b23	-0.038355958
156	0xbd9842ce	-0.07434617
157	0x3d9393a6	0.07205896
158	0x3c0a5a34	0.008444358
159	0x3bce949d	0.006304337
160	0xbc6211ca	-0.013798187
161	0xbd1bb6c0	-0.03801608
162	0xbd91255f	-0.07087206
163	0x3c8f0c74	0.017461993
164	0xbd92755d	-0.071512915
165	0xbd20aef7	-0.03922936
166	0x3d3cc024	0.046081677
167	0x3d9d1619	0.076702304
168	0xbcf004ac	-0.029299103
169	0xbdb8f1b9	-0.0903048
170	0x3db79afd	0.089651085
171	0x3d4b4344	0.049624696
172	0x3d877c72	0.06615533
173	0xbc88f789	-0.016719596
174	0xbc9abd4b	-0.01888909
175	0x3c12dd27	0.00896386
176	0x3cb7ca14	0.022435226
177	0x3b1b492e	0.0023694742
178	0xbd42e088	-0.04757741
179	0x3da7b243	0.081882976
180	0x3d2f5b1b	0.042811494
181	0xbc07b19a	-0.00828209
182	0xbd9fed76	-0.07808964
183	0xbd38ed59	-0.045148227
184	0xbd02f562	-0.031972297
185	0xbc7a81d8	-0.015289746
186	0x3ccfd58c	0.025370382
187	0xbc7afda5	-0.015319263
188	0x3d01ed57	0.031720486
189	0xbd73e31f	-0.05954277
190	0xbca45209	-0.020058649
191	0x3d29b4a5	0.04143204
192	0x3db861aa	0.09003003
193	0xbd9e99bc	-0.07744166
194	0x3c1c23ad	0.00952999
195	0x3d464b91	0.04841191
196	0xbc2206a3	-0.009889278
197	0x3caef562	0.021357242
198	0x3d6a6d57	0.05723318
199	0xbdba8b76	-0.09108631
200	0x3d5e569d	0.05428182
201	0xbda7d5fc	-0.08195111
202	0x3c8b820c	0.017029785
203	0x3d63465a	0.055487014
204	0xbd2aaeaa	-0.04167048
205	0x3a58ec21	0.0008274932
206	0xbdb43b58	-0.088003814
207	0xbbb9033f	-0.005646139
208	0x3d5397c6	0.051658414
209	0x3d3b253b	0.045689803
210	0x3cc8b0c2	0.024498347
211	0xbbf67cab	-0.007522186
212	0xbd19d896	-0.037560068
213	0x3d989b85	0.07451538
214	0x3cddca50	0.02707401
215	0x3d0599c5	0.03261735
216	0x3d36d4b3	0.04463644
217	0xbcd44346	-0.025910985
218	0xbbe52a0c	-0.006993538
219	0x3db126b5	0.08649961
220	0x3da80b09	0.0820523
221	0xbdba54f9	-0.090982385
222	0xbda03748	-0.07823044
223	0xbcd7ccf3	-0.026342845
224	0x3cbdd230	0.023171514
225	0xbd447bf2	-0.047969766
226	0x3d3a0b82	0.04542113
227	0xbda86fdf	-0.08224463
228	0xbc358dab	-0.01108114
229	0x3d72076c	0.05908911
230	0xbe6c7807	-0.23092662
231	0x3ed96674	0.42460978
232	0x3f869ea7	1.0517167
233	0x3e9b4557	0.3032634
234	0x3ee4bd4a	0.44675666
235	0x3df0f38d	0.117652036
236	0xbf432641	-0.76230246
237	0xbf3065e0	-0.6890545
238	0xbfd1a4b3	-1.6378387
239	0x3f9f051d	1.2423435
240	0x3f6fb6ca	0.9363829
241	0x3ff231d3	1.8921455
242	0xbeb9f1dd	-0.3631734
243	0x3ee810e4	0.45325387
244	0x3e5fcbc7	0.21855079
245	0x3e942de8	0.28941274
246	0xbc52503f	-0.012836515
247	0xbea2c542	-0.3179112
248	0xbe98e6dc	-0.29863632
249	0xbf458138	-0.771503
250	0x3ede05ce	0.43363804
251	0x3d94adef	0.07259738
252	0x3bb5daca	0.0055497633
253	0xbe1b7237	-0.15180288
254	0x3ea35813	0.31903133
255	0xbe97d7ca	-0.2965682

Q1.0.bias f4 [256]
0	0xbe82297d	-0.25422278
1	0x3df413d7	0.11917847
2	0x3f68105e	0.90649974
3	0x3f8c737e	1.0972745
4	0x3fc02a65	1.5012938
5	0xbf80e867	-1.0070924
6	0x3f2c32c9	0.6726499
7	0x3f299756	0.66246545
8	0x3f7c83b1	0.98638445
9	0xbec4c8c4	-0.38434422
10	0x3fc4a61a	1.536319
11	0x3f9ed81b	1.24097
12	0xbf4fafb4	-0.81127477
13	0x3c5029be	0.012705265
14	0x3f4c3122	0.7976247
15	0x3fca1e12	1.5790427
16	0xbdf1275e	-0.11775087
17	0xbf3d7044	-0.7399943
18	0x3e468263	0.19385676
19	0x3e69256b	0.2276818
20	0xbe4f26cc	-0.20229644
21	0x3fb24fb6	1.3930576
22	0x3e9a7928	0.3017056
23	0x3e1da75f	0.15395878
24	0x3f8c529f	1.0962714
25	0x3f4da6da	0.8033272
26	0x3faee07d	1.3662258
27	0x3fcc4a68	1.5960207
28	0xbfa9dc83	-1.327042
29	0xbe9fe24d	-0.3122734
30	0x3d0247f2	0.031806894
31	0x3e8009f0	0.25007582
32	0xbf016a12	-0.50552475
33	0x3e88fa3f	0.26753423
34	0xbe3b554e	-0.1829426
35	0x3cd5f762	0.026118938
36	0x3f2831e8	0.6570115
37	0x3fa65bde	1.2996786
38	0x3f965daa	1.1747334
39	0xbf020d8f	-0.5080194
40	0xbf433128	-0.7624688
41	0x3f84f473	1.03871
42	0xbf217128	-0.6306329
43	0x3ed000ab	0.4062551
44	0xbef62036	-0.4807145
45	0x3efcea7f	0.49397656
46	0x3eb8f943	0.36127672
47	0x3f93b167	1.1538514
48	0x3f17a861	0.592413
49	0x3e89bbf2	0.26901203
50	0xbf85ee3e	-1.0463331
51	0xbe6cf9b3	-0.23142128
52	0xbf51f345	-0.82011825
53	0x3f486909	0.7828527
54	0x3e890b77	0.2676656
55	0xbf7b5ecd	-0.9819153
56	0x3f08af32	0.53392327
57	0x3fc37707	1.5270699
58	0xbeff979a	-0.4992035
59	0x3fd44453	1.6583351
60	0x3fdedca9	1.741109
61	0x3f5deb2c	0.8668697
62	0x3f42f431	0.76153857
63	0xbde740f9	-0.112916894
64	0x3f2a37c6	0.66491354
65	0x3ea30a38	0.31843734
66	0x3e90acb4	0.28256762
67	0x3d959786	0.073042914
68	0x3e9b37d5	0.30316034
69	0x3ec847b4	0.39117205
70	0xbf4ee2b2	-0.8081466
71	0xbbc93899	-0.00614078
72	0xbf28845c	-0.65826964
73	0xbf69dc85	-0.9135211
74	0x3f3bcb0f	0.7335672
75	0x3f8ddbcd	1.1082703
76	0x3f6e9632	0.9319793
77	0xbdda6968	-0.10664636
78	0x3f8b08f5	1.0862108
79	0xbf4a9d73	-0.791465
80	0xbdd7e83e	-0.105423436
81	0x3f7cf08b	0.9880454
82	0x3dfbd7cd	0.1229702
83	0xbeea0336	-0.45705575
84	0x3f828988	1.0198221
85	0x3f87cef2	1.061003
86	0x3ed58c75	0.41708723
87	0x3f157980	0.5838852
88	0x3f8e380d	1.1110855
89	0x3f6df5b3	0.9295303
90	0x3f941a18	1.1570463
91	0x3dc4ad6d	0.09603391
92	0xbf19b0ab	-0.600352
93	0xbf684afe	-0.9073943
94	0xbed6a9d8	-0.41926455
95	0xbf33f0b9	-0.7028919
96	0xbf7d9d8c	-0.9906852
97	0xbe5d4192	-0.21607044
98	0x3f76611d	0.96241933
99	0x3f5d104e	0.86353004
100	0x3f60f1c6	0.87868917
101	0xbf8b9260	-1.0904045
102	0x3fa87dce	1.3163393
103	0xbf0274ad	-0.50959283
104	0x3da16ed1	0.07882465
105	0xbe535da2	-0.20641187
106	0x3ebf2ab5	0.3733727
107	0x3ed71351	0.42006925
108	0x3f099d89	0.53756005
109	0x3f5da2a6	0.86576307
110	0xbf49e3c3	-0.7886316
111	0x3f9d4e2a	1.2289479
112	0xbf8882da	-1.0664933
113	0xbf219a45	-0.6312602
114	0x3eb8c4c5	0.36087623
115	0xbfb11d32	-1.3837035
116	0x3f64aab8	0.89322996
117	0xbf8c764a	-1.0973599
118	0x3f71596f	0.9427709
119	0x3fbaf204	1.4605107
120	0xbf41080a	-0.7540289
121	0x3ec8bc5f	0.39206216
122	0x3eb5883a	0.35455495
123	0x3f9ef611	1.2418844
124	0x3fa97e09	1.3241588
125	0xbebdc4bc	-0.3706416
126	0xbf11f920	-0.5702076
127	0xbe4b1ce8	-0.19835246
128	0xbe91e08d	-0.2849163
129	0xbf7b0cc6	-0.98066366
130	0x3f0fb856	0.5614065
131	0xbf4c936b	-0.7991244
132	0x3f315fc5	0.6928676
133	0xbf0ea9aa	-0.55727637
134	0xbf88bcd2	-1.0682623
135	0xbc290f9a	-0.010318661
136	0xbf0ac26d	-0.5420292
137	0x3f821684	1.0163121
138	0xbf7b3dc2	-0.9814111
139	0xbe7ca0aa	-0.24670663
140	0x3f060e21	0.5236531
141	0x3fcfcd33	1.6234497
142	0x3f7031ba	0.93825877
143	0xbf9f472d	-1.2443596
144	0xbf12ab79	-0.57292897
145	0x3f68829c	0.90824294
146	0xbf785bed	-0.9701527
147	0xbe2d8225	-0.16944177
148	0x3fbfdaad	1.498861
149	0x3d951a60	0.07280421
150	0x3fa3e5f7	1.2804555
151	0x3f5ef48e	0.8709191
152	0xbf482685	-0.78183776
153	0x3ff91d9e	1.9462163
154	0x3f794038	0.97363615
155	0x3ebda0e0	0.370368
156	0x3f912002	1.1337893
157	0xbd574091	-0.05255181
158	0xbeb7e176	-0.359142
159	0x3fc89ade	1.5672262
160	0x3faed84d	1.365976
161	0x3f3251d0	0.69656086
162	0xbf5df758	-0.8670554
163	0x3f83c671	1.0294935
164	0x3fcf831b	1.6211885
165	0x3f62e9e0	0.88638115
166	0x3e7d83ea	0.24757352
167	0xbce1c161	-0.02755803
168	0x3e8370ab	0.25671896
169	0xbb0e0ef0	-0.0021676384
170	0xbefaa243	-0.4895192
171	0x3f03634f	0.5132341
172	0x3f2fa1b3	0.6860611
173	0x3ef473fd	0.47744742
174	0x3e9c2105	0.30493942
175	0x3ded39c2	0.11583282
176	0x3f398e38	0.72482634
177	0x3f7bb3a8	0.9832101
178	0x3f37105c	0.7150934
179	0xbf67c03e	-0.90527713
180	0x3f84234c	1.0323272
181	0x3f115e06	0.56784093
182	0x3f5f4b51	0.872243
183	0xbf05dec9	-0.5229307
184	0xbebd1e9c	-0.36937416
185	0xbf0749db	-0.5284707
186	0x3f1a5be3	0.6029646
187	0x3fbfbe8e	1.4980028
188	0x3f8fee1e	1.1244543
189	0x3fb53797	1.415759
190	0xbef5c672	-0.48002964
191	0x3f501e9c	0.81296706
192	0x3f5146d9	0.8174873
193	0xbee0aa92	-0.43880135
194	0xbf252a8e	-0.6451806
195	0x3e56ed79	0.20989026
196	0xbf0a3261	-0.5398312
197	0xbf49deb7	-0.7885546
198	0x3f63295e	0.88734996
199	0x3ec38929	0.38190582
200	0x3e100741	0.14065267
201	0xbf0e4940	-0.5558052
202	0x3fdc5997	1.7214841
203	0x3f511c28	0.8168359
204	0x3eae1630	0.34001303
205	0xbe39d246	-0.18146619
206	0x3fb0873c	1.379127
207	0xbf783709	-0.96958977
208	0xbf6d3439	-0.9265781
209	0xbf671f0d	-0.90281755
210	0xbf36805c	-0.7128961
211	0x3f97a4d5	1.1847178
212	0xbec5ad25	-0.3860866
213	0x3f87666a	1.0578129
214	0xbe0cca89	-0.13749136
215	0x3f9966b4	1.1984468
216	0x3f339da2	0.70162404
217	0x3f28098d	0.65639573
218	0x3efd6dd4	0.49497855
219	0x3f4bbede	0.79588115
220	0x3f3f5ba5	0.74749213
221	0x3f51b6b7	0.81919426
222	0x3f92beee	1.1464517
223	0xbf93d87a	-1.1550438
224	0x3eceb4a0	0.4037218
225	0x3fb9bee2	1.4511378
226	0x3f4f5beb	0.8099963
227	0xbdf55c58	-0.11980504
228	0xbf4eae16	-0.80734384
229	0x3fafed20	1.374424
230	0x3e4f7efc	0.20263284
231	0xbf3f2fee	-0.7468251
232	0xbf28f016	-0.6599134
233	0x3f76de85	0.9643329
234	0x3fd3abb3	1.6536773
235	0x3f7b796e	0.9823216
236	0x3f767360	0.962698
237	0x3e9809bf	0.29694936
238	0x3f3e17f7	0.7425532
239	0x3f7891ef	0.97097677
240	0x3f24d3dc	0.6438577
241	0xbf589753	-0.846059
242	0x3f19aba5	0.60027534
243	0x3f0e9fe9	0.55712754
244	0x3f42e5ec	0.7613208
245	0xbeac371d	-0.33635798
246	0x3f412410	0.7544565
247	0xbf885f26	-1.0654037
248	0x3f147d3c	0.5800359
249	0xbd38e324	-0.045138493
250	0x3ed7bb2c	0.42134988
251	0xbf83f793	-1.0309929
252	0x3f0aaa45	0.5416606
253	0xbf653a3a	-0.8954197
254	0xbf18bc70	-0.5966253
255	0xbf87ae6c	-1.0600104

Q1.2.weight f4 [256, 256]
0	0xbddd9659	-0.10819692
1	0x3e7833e9	0.24238552
2	0xbe430f73	-0.19048862
3	0xbd5c6e06	-0.053815864
4	0xbb265671	-0.0025381113
5	0x3d943631	0.07236899
6	0xbe060a24	-0.13089806
7	0xbdc57a03	-0.096424125
8	0xbdb1b730	-0.08677518
9	0xbea901f1	-0.33009294
10	0xbbd7b0b4	-0.006582344
11	0x3dd32f82	0.10311796
12	0x3cb1ebcf	0.021718888
13	0xbe2a6a1f	-0.16642044
14	0x3d351a7c	0.04421471
15	0xbc82a405	-0.015947351
16	0xbe121e69	-0.14269413
17	0xbee82710	-0.45342302
18	0x3e5b1776	0.21395668
19	0xbe0a5eb5	-0.1351269
20	0x3e038640	0.12844181
21	0xbc30dbcc	-0.010794591
22	0x3e120591	0.14259936
23	0xbe3ef941	-0.1864977
24	0xbe48abc3	-0.19596772
25	0xbb69383a	-0.0035586492
26	0xbf0854fa	-0.53254664
27	0x3e1784d0	0.14796758
28	0xbe2cd33b	-0.16877453
29	0x3cf4fe2a	0.029906351
30	0xbf5014c6	-0.812817
31	0xbe11f8f7	-0.14255129
32	0xbdaf5738	-0.085615575
33	0xbe951e76	-0.29124802
34	0x3e050f32	0.12994078
35	0x3f099b46	0.53752553
36	0x3ea9bc10	0.33151293
37	0x3e566483	0.2093678
38	0xbd08f166	-0.03343334
39	0xbd05807a	-0.032593228
40	0x3e1553e0	0.14582777
41	0x3e0822d8	0.13294542
42	0x3da138a3	0.07872131
43	0xbe27fe2a	-0.1640555
44	0x3dd65740	0.1046586
45	0xbea14b8d	-0.31502953
46	0xbe03045d	-0.12794633
47	0xbe9bc05d	-0.304202
48	0xbe1df4b6	-0.15425381
49	0x3da604c4	0.08106378
50	0xbe0c5590	-0.13704515
51	0x3ef2affc	0.4739989
52	0xbb1fd05f	-0.0024385673
53	0xbdca8597	-0.098887615
54	0x3d082f05	0.033247966
55	0xbecafceb	-0.39646086
56	0xbe831611	-0.25602773
57	0xbe34d683	-0.17659955
58	0xbe9322cf	-0.28737494
59	0x3e91a270	0.28444242
60	0x3dbc9f0f	0.092100255
61	0xbeac1485	-0.33609405
62	0xbe7ec17c	-0.24878496
63	0xbf074585	-0.52840453
64	0x3dbf5834	0.09342995
65	0x3d07824e	0.033083253
66	0xbeba9660	-0.36442852
67	0x3d34180d	0.04396825
68	0xbe132efa	-0.14373389
69	0xbdadf7fa	-0.084945634
70	0x3e8359d9	0.25654486
71	0x3e973380	0.2953148
72	0xbd810c69	-0.06301195
73	0xbd662014	-0.056182936
74	0xbe4a534d	-0.19758339
75	0x3df2e893	0.11860766
76	0x3e839592	0.2570005
77	0x3ec120e1	0.37720397
78	0xbde657e8	-0.112472355
79	0x3cf9d8e8	0.030498937
80	0xbc09847b	-0.008393402
81	0xbcffbd1b	-0.031218102
82	0xbe294695	-0.16530831
83	0xbda91cd8	-0.08257455
84	0xbd1e25e7	-0.038610365
85	0xbb5da641	-0.003382102
86	0x3d8cd575	0.06876651
87	0x3e016d6e	0.126394
88	0xbd55cbf0	-0.052196443
89	0x38ce9df3	9.852266e-05
90	0xbe0f719a	-0.1400818
91	0xbe60f279	-0.21967496
92	0xbe045372	-0.12922457
93	0xbef58949	-0.47956303
94	0xbe55d216	-0.20880923
95	0xbd9891c5	-0.07449678
96	0xbe6be89c	-0.23037952
97	0xbd1c5cc0	-0.03817439
98	0x3d7184e9	0.058964644
99	0x3e5968f4	0.21231443
100	0x3e815c3b	0.2526568
101	0x3d8cc2a7	0.068730645
102	0x3ca1098b	0.01965787
103	0xbd10937c	-0.035296902
104	0x3e354197	0.17700802
105	0xbe4f6145	-0.20251949
106	0xbe714eba	-0.23565188
107	0xbe87f748	-0.26555848
108	0x3e59596b	0.21225516
109	0x3d9bf0da	0.07614298
110	0x3d900249	0.07031686
111	0x3db7518f	0.08951103
112	0xbd719250	-0.058977425
113	0x3f1e8253	0.6191761
114	0xbe62eb2a	-0.2216002
115	0xbf10a6cc	-0.5650451
116	0x3e243dde	0.16039225
117	0x3de7c005	0.11315922
118	0x3d4c9e11	0.04995543
119	0xbaa3421d	-0.0012455616
120	0xbdb59089	-0.088654585
121	0xbdf2a2a3	-0.11847427
122	0xbdd820c4	-0.105531245
123	0x3ef342ef	0.47512004
124	0x3e06534e	0.13117716
125	0x3db7d70c	0.08976564
126	0xbde78f1e	-0.11306594
127	0x3d9891fd	0.0744972
128	0x3e62e9f9	0.22159566
129	0x392a7e95	0.00016259619
130	0xbde13e21	-0.10998178
131	0xbbdcbd1f	-0.006736412
132	0x3e10d24e	0.14142725
133	0xbd8a9af3	-0.067678355
134	0x3d02a42e	0.031894855
135	0xbf166427	-0.5874657
136	0x3aaee4df	0.0013343355
137	0xbe01f055	-0.12689336
138	0xbed4c225	-0.4155437
139	0xbd5bb71f	-0.053641435
140	0x3efae4b2	0.49002606
141	0xbdde4e71	-0.10854805
142	0xbe1c5b82	-0.15269282
143	0xbdf35e74	-0.1188325
144	0xbe7a8f61	-0.24468757
145	0xbe441046	-0.19146833
146	0xbd67f975	-0.056634385
147	0x3df5c01f	0.11999535
148	0x3e9e95d8	0.30973697
149	0xbdcf037e	-0.10108088
150	0xbd8baabe	-0.06819676
151	0x3e4f7d7e	0.20262715
152	0x3eaf8bc1	0.3428631
153	0x3e4cb7de	0.19992015
154	0xbdc56cf8	-0.09639925
155	0x3e1afb6b	0.15134971
156	0x3d79f247	0.06102207
157	0xbcc218b5	-0.023693422
158	0x3a777c3b	0.0009440814
159	0x3b2d6072	0.002645519
160	0x3d80eb91	0.06294931
161	0xbd32645c	-0.04355274
162	0x3d176113	0.03695781
163	0x3db1c8f3	0.08680906
164	0x3ce66a5c	0.028126888
165	0x3d4ebce4	0.05047311
166	0x3b4bf507	0.003112139
167	0x3e30650f	0.17226051
168	0x3e5d24aa	0.21596017
169	0xbe889674	-0.26677287
170	0xbf24b0c1	-0.64332205
171	0x3de1287b	0.10994049
172	0xbd69cf93	-0.057082724
173	0xbdc951bb	-0.09830042
174	0xbdeecfbe	-0.116607174
175	0xbe6eed10	-0.2333262
176	0x3f01ab0a	0.5065161
177	0x3e48d896	0.19613871
178	0xbe92e577	-0.28690693
179	0x3e0c985b	0.13729994
180	0xbd26c838	-0.040718287
181	0xbe651399	-0.22370757
182	0x3e7608a1	0.24026729
183	0xbee9c38a	-0.45656997
184	0xbdada4ee	-0.084787235
185	0xbe641638	-0.22274101
186	0xbd909080	-0.07058811
187	0xbe81c6c6	-0.25346965
188	0xbdbdf80e	-0.09275828
189	0x3e543e1c	0.20726818
190	0x3d9eea3f	0.07759523
191	0xbdd12d88	-0.102137625
192	0xbbccb234	-0.0062468294
193	0xbeb5447e	-0.35403818
194	0xbe8ce988	-0.2752192
195	0xbb695412	-0.0035603088
196	0x3d53843e	0.051639788
197	0xbe20b356	-0.15693411
198	0x3d3d0961	0.046151523
199	0xbd2c3c64	-0.04204978
200	0xbe666b8a	-0.2250196
201	0xbf1f8997	-0.6231932
202	0x3e2568e7	0.16153298
203	0x3e0d22f1	0.1378286
204	0x3d2d11ed	0.042253423
205	0xbdd23b3f	-0.102652065
206	0x3d097e6b	0.033567827
207	0x3e03cb29	0.12870468
208	0xbeb072e8	-0.34462667
209	0x3deabffe	0.11462401
210	0xbf35bf1c	-0.70994735
211	0x3d3f3154	0.046677902
212	0xbe52dd0e	-0.20592138
213	0xbc92e613	-0.017931974
214	0x3e187a1e	0.14890334
215	0xbdaee326	-0.08539419
216	0xbe43aa84	-0.19108015
217	0x3abb5271	0.0014291537
218	0x3dc315e1	0.095256574
219	0x3da0f68f	0.07859527
220	0x3e1d216f	0.15344785
221	0xbe349630	-0.17635417
222	0x3d85a297	0.06525152
223	0xbd4c3055	-0.04985078
224	0xbcf1a42d	-0.02949723
225	0x3daa0d1c	0.08303282
226	0xbd89503d	-0.06704757
227	0xbd799bf4	-0.060939744
228	0xbd015022	-0.03157056
229	0xbedbbfac	-0.42919672
230	0xbe0bbce8	-0.13646281
231	0x3dcc678c	0.099806875
232	0x3e390239	0.18067254
233	0xbe8029b9	-0.25031832
234	0x3e48dd98	0.19615781
235	0xbcce104e	-0.025154259
236	0xbafa4336	-0.0019093517
237	0xbe4c97fe	-0.19979855
238	0x3d3c2811	0.045936648
239	0xbd374382	-0.044742115
240	0xbeb5bf33	-0.35497436
241	0x3e8a5566	0.2701828
242	0x3d66dcde	0.05636298
243	0xbc61a799	-0.013772869
244	0xbe0ee856	-0.13955817
245	0x3d07b615	0.03313263
246	0x3f34339c	0.7039125
247	0xbe82af0c	-0.25524175
248	0x3d81f5c6	0.06345706
249	0xbe7e97a7	-0.24862538
250	0xbe252ca4	-0.1613031
251	0xbddf85a0	-0.10914159
252	0xbd07e26b	-0.033174913
253	0xbe2ce74a	-0.16885105
254	0x3de6ff6c	0.112791866
255	0xbbeda9a4	-0.0072528888

Q1.2.bias f4 [256]
0	0x3fd4c37e	1.662216
1	0x3f949951	1.1609288
2	0x3cd9102b	0.026496967
3	0x40068a4e	2.1021914
4	0x3fcc06c0	1.593956
5	0xbfb16d3c	-1.3861461
6	0xbf164d9b	-0.58712167
7	0x40029c95	2.040807
8	0x3ff7f7e9	1.9372531
9	0x3ff8b6f5	1.9430834
10	0x3fea0191	1.8281728
11	0x3fa78ae8	1.3089266
12	0x3f812eb2	1.0092375
13	0x4002d5cf	2.0442998
14	0xbee11b6f	-0.43966243
15	0xbeab7fb0	-0.33495855
16	0x3e99f2af	0.30067965
17	0xbed33f4c	-0.4125923
18	0x3fd773ac	1.6832175
19	0xbf98de1e	-1.1942785
20	0x3ff4677e	1.9094083
21	0x3fccb431	1.599249
22	0xbd98ff07	-0.074705176
23	0xbeaf2f5e	-0.34215826
24	0xbf4937a8	-0.7860055
25	0x3fe7fe49	1.8124477
26	0x3f6cedbe	0.92550266
27	0xbeceb547	-0.4037268
28	0x3fb9d006	1.4516609
29	0xbfb12f79	-1.3842613
30	0x3fb71b31	1.4305173
31	0xbf886086	-1.0654457
32	0xbdc478cc	-0.09593353
33	0x3ff6d695	1.9284235
34	0xbe64de4a	-0.22350422
35	0x3f398e1d	0.7248247
36	0xbe95d687	-0.29265234
37	0xbe8ddc43	-0.2770711
38	0xbde7e17a	-0.11322303
39	0x3ffc3c6e	1.9705942
40	0xbfa2e713	-1.2726768
41	0x3ff720f2	1.9306929
42	0x3fe6337d	1.7984463
43	0x3f08b785	0.5340503
44	0x3e24b517	0.16084705
45	0x3e5f0c49	0.2178203
46	0x3fe5edf1	1.7963239
47	0xbef5659b	-0.4792908
48	0x3bf46be9	0.007459153
49	0xbe3e91a4	-0.18610245
50	0xbf0d11e4	-0.55105424
51	0xbec8769f	-0.39153
52	0xbcae3b97	-0.021268649
53	0x3fa9e92c	1.3274283
54	0x3fe048d8	1.752223
55	0x3fa3eb19	1.2806121
56	0x3fc915ab	1.5709738
57	0x40067602	2.1009526
58	0x4008c4ae	2.1370044
59	0xbf081f4e	-0.5317277
60	0x3fb5c4b1	1.420065
61	0x3fe22841	1.7668535
62	0xbfa384e7	-1.2774934
63	0x4000d992	2.0132794
64	0x3fdb32dd	1.7124897
65	0xbd8b5255	-0.06802813
66	0x3f361478	0.7112498
67	0x4000897e	2.0083919
68	0x3ff1f123	1.8901714
69	0x4000ea41	2.0142977
70	0x3fa9d3bf	1.3267745
71	0xbc7b8dd2	-0.015353637
72	0x4001ef81	2.0302432
73	0xbfa9ff45	-1.3281027
74	0x4000b0c3	2.0107887
75	0xbe849c4c	-0.25900495
76	0xbe9e7124	-0.30945694
77	0xb9ea3adc	-0.00044675812
78	0xbe325ddc	-0.17418617
79	0x40022210	2.033329
80	0xbf522beb	-0.82098264
81	0xbd89e65f	-0.06733393
82	0x3fae9e17	1.3641995
83	0x3fe790d7	1.8091077
84	0x40010e8a	2.0165124
85	0x3fac394c	1.3454986
86	0xbe052f24	-0.13006264
87	0xbeb5bec9	-0.3549712
88	0x3d95b792	0.07310404
89	0x3e1148cd	0.14187928
90	0xbeca4f40	-0.39513588
91	0x4000f498	2.0149288
92	0xbdfc9f7b	-0.12335106
93	0x40047c85	2.0701
94	0xbeda24e7	-0.4260628
95	0xbe362af9	-0.1778983
96	0x3eb183a1	0.34670737
97	0x3f97404b	1.1816496
98	0x3ff6ad43	1.9271625
99	0xbf6d865f	-0.9278316
100	0xbce761b4	-0.02824483
101	0x3b84c22c	0.0040514674
102	0xbea6d296	-0.3258254
103	0x3fe7dd9a	1.8114502
104	0x3febcd9e	1.8422124
105	0xbf235edf	-0.63816637
106	0xbea07e9a	-0.3134659
107	0x3fe8fa0a	1.8201306
108	0x3c8e8a8c	0.017400049
109	0x3ffa6b45	1.9563986
110	0x3fec8b07	1.8479928
111	0xbd1611a1	-0.036637906
112	0x3ff49c34	1.911017
113	0x3ffb0e0d	1.9613663
114	0xbe4e49e1	-0.2014537
115	0xbf332cd8	-0.699903
116	0x3efa4981	0.48884204
117	0x3f8fb23f	1.1226271
118	0x40077ebd	2.1171105
119	0x4002b82e	2.0424914
120	0xbd667ddd	-0.056272376
121	0x3fda6720	1.7062721
122	0xbd800830	-0.06251562
123	0x3ff0b5b2	1.8805449
124	0xbec0788f	-0.3759198
125	0x3fb04b9b	1.3773073
126	0xbf27a5d3	-0.654874
127	0x40060f20	2.0946732
128	0x3fbc316d	1.4702584
129	0x3f724a6e	0.9464482
130	0xbe51aba5	-0.20475633
131	0xbda7e11f	-0.08197235
132	0x40009d5d	2.0096047
133	0x3fbc4bc7	1.4710625
134	0xbea8ace6	-0.3294441
135	0x4008e802	2.1391606
136	0x40058b9b	2.0866458
137	0x3e3f0116	0.18652758
138	0x3ff466cb	1.909387
139	0x3ff1349b	1.8844179
140	0xbe7d5d21	-0.24742557
141	0xbeea6b23	-0.45784864
142	0x3ff0a266	1.879956
143	0x3f97a0a5	1.18459
144	0x3ff42b19	1.9075652
145	0x3e1bb5d7	0.15206085
146	0x3ff2ab45	1.8958517
147	0x3ff4d118	1.912631
148	0x3fd97f40	1.6991959
149	0x3f9c72a6	1.2222488
150	0xbf208ab2	-0.6271163
151	0xbf5b11a0	-0.8557377
152	0x3fcf23f3	1.6182846
153	0xbf2a319c	-0.6648195
154	0x3fb3401c	1.400394
155	0x3dbf6140	0.09344721
156	0xbe8fd84e	-0.28094715
157	0xbf9dee4c	-1.2338347
158	0x3fac595d	1.3464772
159	0x3ff934f0	1.946928
160	0xbeb68e3a	-0.35655385
161	0xbf1852b3	-0.5950119
162	0x3f968525	1.1759382
163	0x3f42968f	0.76010984
164	0x3ff1e928	1.8899279
165	0x3fa6a55f	1.3019217
166	0xbda76cd8	-0.08175057
167	0xbed533df	-0.41641137
168	0x40032665	2.0492184
169	0xbe7b11c6	-0.24518499
170	0x4003786c	2.054225
171	0x3e8a6434	0.27029574
172	0x400e1d86	2.220552
173	0x3fa3f69b	1.2809633
174	0xbb80fb0b	-0.0039361767
175	0x3fd1b752	1.638407
176	0xbcc7e298	-0.02440004
177	0x3fe91f86	1.8212745
178	0x3ff53dd8	1.9159498
179	0x3ef17eee	0.47167152
180	0xbf373ac3	-0.7157404
181	0x40013664	2.0189447
182	0xbe9b060b	-0.30278048
183	0x3ffb385c	1.9626575
184	0xbf0d6d12	-0.55244553
185	0xbe9ecf93	-0.31017742
186	0x3ffad0c5	1.9594961
187	0x4001384c	2.019061
188	0x3ff8ac3a	1.9427559
189	0xbf270336	-0.65239275
190	0x3fc83a00	1.56427
191	0x3ff5883a	1.9182198
192	0x3c7a9e76	0.015296569
193	0x3fdb7d0e	1.7147539
194	0x3d530014	0.051513746
195	0x3fa3ef2e	1.2807367
196	0xbe30acd5	-0.1725343
197	0x40068800	2.1020508
198	0x3fa00b6b	1.2503484
199	0xbc977ea4	-0.018493004
200	0xbe325109	-0.17413725
201	0xbe518848	-0.20462143
202	0xbf8af5ac	-1.0856223
203	0x400079a0	2.0074234
204	0x4002fead	2.0467942
205	0x3ff7861f	1.9337806
206	0x3fe436bc	1.7829204
207	0x3f80921d	1.004459
208	0x3e10aa17	0.14127384
209	0xbe246148	-0.16052735
210	0xbf35cd89	-0.71016747
211	0x3eb65cc4	0.3561765
212	0x3fee11f7	1.8599232
213	0x3fb6bc6f	1.4276255
214	0x3f3ee239	0.7456394
215	0x3e7c4277	0.2463473
216	0x4002a8e2	2.0415578
217	0xbf997c28	-1.1991014
218	0xbf814988	-1.0100565
219	0xbe92f899	-0.2870529
220	0xbe901dbb	-0.28147683
221	0xbd895ad4	-0.06706777
222	0x3fa10b6a	1.2581608
223	0xbf033e6a	-0.5126711
224	0xbbfb1c01	-0.0076632504
225	0x3fa6c4a8	1.3028765
226	0x3ffe04cd	1.9845215
227	0x3fccc5b0	1.599783
228	0x3fd33e2f	1.6503352
229	0x3f942bf7	1.1575917
230	0xbed7dee1	-0.4216223
231	0x3fdd8686	1.7306678
232	0xbe3980f9	-0.18115605
233	0x3fb3f52e	1.4059198
234	0xbd0e265d	-0.034704555
235	0x3fa71fcf	1.3056582
236	0x400232a9	2.034342
237	0xbdb13715	-0.08653084
238	0xbd99319a	-0.07480164
239	0x3fbf1233	1.4927429
240	0x3c9ef288	0.019402757
241	0xbfb6d211	-1.4282857
242	0x3fbd33c2	1.478142
243	0x3d2ff121	0.042954568
244	0x3f9b7ca5	1.2147413
245	0x3ff22b00	1.8919373
246	0xbe717d13	-0.23582868
247	0x3ffcc768	1.9748354
248	0x3fe93df5	1.8222033
249	0x3ffbb0e5	1.9663359
250	0x3f868a8b	1.051103
251	0x3fa29143	1.270058
252	0xba0b8761	-0.0005322602
253	0xbdb63052	-0.08895935
254	0x3ea04fb8	0.3131082
255	0x400444d0	2.0667

Q1.4.weight f4 [1, 256]
0	0x3edea019	0.4348152
1	0xbf21b773	-0.63170546
2	0xbd0ce54e	-0.03439837
3	0x3e9e1dd4	0.30882132
4	0x3f482708	0.78184557
5	0xbf8db73e	-1.1071546
6	0xc098c74c	-4.774328
7	0x3e878d7f	0.2647514
8	0x3dfd3414	0.12363449
9	0x3de07c0c	0.1096116
10	0x3e599f87	0.21252261
11	0x3fc5ec23	1.5462688
12	0xbf477b21	-0.77922255
13	0x3e73bf7c	0.23803514
14	0xc0734b67	-3.8014772
15	0xc11189da	-9.096155
16	0xc1165ae3	-9.397189
17	0xc0fb2ae6	-7.8489866
18	0xbd883a74	-0.06651774
19	0xbfbdd03d	-1.4829174
20	0x3d94558e	0.07242881
21	0x3f168d62	0.58809483
22	0xc0a5b01e	-5.1777487
23	0xc1402de8	-12.011208
24	0xc055f7f6	-3.3432593
25	0x3d15ec99	0.03660259
26	0xbf2676cc	-0.6502502
27	0xc04fe5c1	-3.248398
28	0x3f937dec	1.1522803
29	0xbff4b9f9	-1.9119254
30	0xbf9e97a0	-1.2390022
31	0xbf91c92c	-1.1389518
32	0xc1267d20	-10.405548
33	0x3e11ebfd	0.14250179
34	0xc0c49106	-6.142703
35	0x3fee7f5e	1.8632619
36	0xc0cb8d5d	-6.3610063
37	0xc09313d1	-4.596169
38	0xc11a8f9d	-9.660062
39	0x3da73201	0.08163834
40	0xbf8f11fd	-1.1177365
41	0x3d6445c6	0.055730604
42	0x3ed76293	0.42067394
43	0xbf6b93b6	-0.92022264
44	0xc12ec47d	-10.922971
45	0xc0e39fb3	-7.1132445
46	0x3ecb6626	0.3972637
47	0xc039969e	-2.899818
48	0xbd3eebde	-0.04661166
49	0xc0ce2371	-6.4418263
50	0xc05e0323	-3.4689415
51	0xc0511567	-3.2669313
52	0xbc8920c0	-0.01673925
53	0x3ff68f20	1.9262428
54	0x3ecc38a5	0.39886966
55	0x400bfb15	2.1871998
56	0xbf61c119	-0.8818527
57	0x3e8309ac	0.25593317
58	0x3e8c2d9c	0.27378547
59	0xc06fffd6	-3.74999
60	0x3f335786	0.70055425
61	0x3f008023	0.5019552
62	0xbfb2630a	-1.3936474
63	0x3e127edd	0.14306207
64	0x3f77fcf7	0.9687037
65	0xc0982f0d	-4.7557435
66	0xbf795318	-0.97392416
67	0x3e2168ec	0.15762681
68	0x3dff74f6	0.124734804
69	0x3e0a4acc	0.13505095
70	0xbf91c158	-1.1387129
71	0xbcb8fbf4	-0.022581078
72	0x3dda3297	0.106541805
73	0xbf793407	-0.9734501
74	0x3f128c66	0.5724548
75	0xc12066a6	-10.025061
76	0xc0925f11	-4.574105
77	0xc0d3f6c0	-6.623871
78	0xc05e6235	-3.474744
79	0x3e32896b	0.17435233
80	0xc0c94333	-6.289453
81	0xc1174219	-9.453637
82	0x3fc4fd5d	1.538982
83	0x3d5ad284	0.05342342
84	0x3e240986	0.16019258
85	0x3fb5cfbe	1.4204023
86	0xc12b8697	-10.720359
87	0xc0edd851	-7.432656
88	0xc135aa54	-11.354084
89	0xc0d427d3	-6.6298614
90	0xc0eab5c6	-7.334689
91	0x3e0bdf34	0.13659364
92	0xc14445f6	-12.26708
93	0x3e367285	0.17817123
94	0xc09c6cf4	-4.8883
95	0xc0a1f661	-5.0613256
96	0xbf64ac4e	-0.89325416
97	0xbee78abf	-0.45223042
98	0x3d96f724	0.07371357
99	0xc022cd56	-2.5437827
100	0xc111a818	-9.1035385
101	0xbc135e15	-0.008994599
102	0xc0b4bdcb	-5.648168
103	0x3c8ff846	0.01757444
104	0x3c5d663e	0.013513146
105	0xc04f2160	-3.236412
106	0xc0ed8c6e	-7.4233923
107	0x3e0a2f34	0.13494569
108	0xc0fbde96	-7.870921
109	0x3dcc5d63	0.099787496
110	0x3d5576b3	0.052115154
111	0xbcdc09ce	-0.026860144
112	0x3d2efbc6	0.04272058
113	0x3d5c2bd4	0.053752735
114	0xc0af66c5	-5.481295
115	0xc0f757b5	-7.7294564
116	0xbf0c1453	-0.5471851
117	0xbf4e1f01	-0.8051606
118	0x3e257d4f	0.16161083
119	0x3e0be935	0.1366318
120	0xc0b47b08	-5.6400185
121	0x3f3e9688	0.7444844
122	0xbc00ea5c	-0.007868376
123	0x3d28e389	0.04123262
124	0xc05af9be	-3.421493
125	0x3f977e61	1.1835443
126	0xc0713f51	-3.7694895
127	0x3e176c58	0.14787424
128	0x3fae3565	1.3610045
129	0x3fb7a36d	1.4346749
130	0xc11cba98	-9.795555
131	0xc131007f	-11.062621
132	0x3e0e5a19	0.13901557
133	0x3f842a42	1.0325396
134	0xc0e882db	-7.2659736
135	0x3e8523bf	0.26003835
136	0x3e281d0a	0.16417328
137	0xbfca13d7	-1.5787305
138	0x3d1ec38c	0.038760707
139	0x3d84c71b	0.06483289
140	0xc0ece983	-7.403505
141	0xc0d5b279	-6.678036
142	0x3d6db2cc	0.058031842
143	0x3f8cb64b	1.0993131
144	0x3de1e4d8	0.110299766
145	0xc11561e8	-9.336403
146	0x3dc5a58d	0.09650717
147	0x3d909c26	0.07061033
148	0x3e91a512	0.2844625
149	0x3fc2d517	1.522128
150	0xc0e10305	-7.0316186
151	0xbf8ebaf0	-1.1150799
152	0x3f2b1ec2	0.6684381
153	0xc09dad75	-4.927424
154	0x3f61eba5	0.8825019
155	0xc1314b76	-11.080923
156	0xc0aa32f8	-5.318722
157	0xbf96f6b7	-1.1794041
158	0x3f6693c4	0.9006922
159	0x3de4e915	0.11177269
160	0xc081ebf6	-4.060054
161	0xc0a9ab58	-5.302166
162	0xbf8b7d4d	-1.0897614
163	0xbf900008	-1.125001
164	0x3cbba3bb	0.022905221
165	0x3f3e7036	0.7438997
166	0xc1268bca	-10.409128
167	0xc0d04f23	-6.5096602
168	0x3e241ec8	0.16027367
169	0xc095f56b	-4.6862082
170	0x3e1e60c1	0.15466596
171	0xc121cf29	-10.113076
172	0x3ea6e944	0.32599843
173	0x3f82ac76	1.0208881
174	0xc0e29a80	-7.08136
175	0xbf097265	-0.5369018
176	0xc1355d54	-11.335285
177	0x3cb37eee	0.02191111
178	0x3e007001	0.12542726
179	0xbf2ff568	-0.68733835
180	0xc0010847	-2.0161302
181	0x3e184170	0.14868712
182	0xc0aeac1c	-5.4585094
183	0x3df418f1	0.1191882
184	0xc0851b13	-4.159555
185	0xc0d410c3	-6.627046
186	0x3de79168	0.11307031
187	0x3e1e66ea	0.15468946
188	0x3d5ef7d4	0.054435566
189	0xc0b8d0ad	-5.775473
190	0xbef01ff9	-0.46899393
191	0x3d1e19b8	0.038598746
192	0xbc141917	-0.009039185
193	0x3ef2345d	0.47305575
194	0xc13ac3ae	-11.672773
195	0x401c918f	2.4463842
196	0xc0c27cd9	-6.07774
197	0x3e9fc9f8	0.31208777
198	0x40011076	2.0166297
199	0xc10b1562	-8.69272
200	0xc101dfad	-8.117108
201	0xc092dc29	-4.589375
202	0xc028a0c9	-2.6348135
203	0x3e43febe	0.19140145
204	0x3e4bf9f2	0.19919565
205	0x3d62aac8	0.05533865
206	0x3d5c1f47	0.053740766
207	0x40310932	2.7661862
208	0xbf538ddc	-0.82638335
209	0xc086b5f1	-4.2097096
210	0xc0d5951b	-6.6744514
211	0xc134361f	-11.263213
212	0x3d1ceb90	0.038310587
213	0x3f61e969	0.8824678
214	0xbf5bf327	-0.85917896
215	0xbf4f2e91	-0.8093043
216	0x3e3760ed	0.17908068
217	0xbfbf1fdf	-1.4931601
218	0xbfa79928	-1.3093615
219	0xc105db24	-8.366001
220	0xc078f386	-3.8898635
221	0xc1151eea	-9.320047
222	0x3f9dd431	1.2330381
223	0xc0888b0a	-4.2669725
224	0xc0eb2d20	-7.3492584
225	0x3fa02607	1.2511605
226	0x3e32bb07	0.17454158
227	0x3f320c4b	0.6955001
228	0xbec9de3e	-0.3942737
229	0x40156103	2.3340461
230	0xc0acc9d3	-5.3996367
231	0xbd9456b1	-0.072430976
232	0xc104f5be	-8.309996
233	0xbfcd29a5	-1.6028334
234	0xb9cff35b	-0.0003966343
235	0xbf689520	-0.90852547
236	0x3e19ddbc	0.15025991
237	0xc0f1c67b	-7.5554786
238	0xc0d44669	-6.633595
239	0x3f8ac072	1.083998
240	0x38c801e3	9.5370946e-05
241	0xbf453b5b	-0.77043694
242	0x3f3eb1f1	0.7449027
243	0xc14ae285	-12.680303
244	0x3f603019	0.8757339
245	0x3de1e290	0.110295415
246	0xc0ce58a7	-6.448322
247	0x3e16d5c8	0.14729989
248	0x3dbdc618	0.09266299
249	0x3dc5ef22	0.096647516
250	0x3f4a2b84	0.7897265
251	0x3fae1638	1.3600531
252	0xbc12e7c0	-0.008966386
253	0xbd01c5d9	-0.031682823
254	0xc00f0cf1	-2.2351649
255	0x3e3de55a	0.18544522

Q2.0.weight f4 [256, 119]
0	0x3f50326e	0.8132695
1	0xbf9e0a9d	-1.2346989
2	0x3fceb6c9	1.6149532
3	0xbf309d8e	-0.6899041
4	0xbfaefb73	-1.3670486
5	0x3d859bb8	0.065238416
6	0xbe1ae486	-0.15126237
7	0xbf4872fc	-0.7830045
8	0x3ea2891e	0.31745237
9	0xbef96c2b	-0.48715338
10	0x3ea3c379	0.3198507
11	0x3e82e0c5	0.2556211
12	0x3e853f8c	0.26025045
13	0xbdc0625f	-0.09393763
14	0xbd141463	-0.036152255
15	0x3ec0e591	0.37675145
16	0x3d6a23e8	0.05716315
17	0x3ef7bdab	0.48386893
18	0xbe9dac3b	-0.30795464
19	0xbd52eddb	-0.051496368
20	0x3de76651	0.11298812
21	0xbe22d911	-0.15903117
22	0x3dc92654	0.09821764
23	0xbd15adeb	-0.036542814
24	0xbcbde259	-0.02317922
25	0x3cb21d13	0.02174238
26	0x3da203dc	0.07910892
27	0x3d8b2567	0.06794243
28	0x3d8e7664	0.06956175
29	0xbd196bc1	-0.037456278
30	0xbd8602ed	-0.06543527
31	0x3bb3edfe	0.0054910174
32	0xbdad7249	-0.08469064
33	0xbdb61bff	-0.088920586
34	0xbcd5bfcc	-0.026092432
35	0xbcb96dbe	-0.022635337
36	0x3d5c61e0	0.05380428
37	0x3d5b6478	0.05356261
38	0xba44bd9e	-0.0007505062
39	0xbd04e5c6	-0.03244569
40	0x3d10dc1c	0.035366163
41	0x3bee2362	0.0072674016
42	0xbcf10bed	-0.029424632
43	0xbc96b949	-0.018398898
44	0x3da52a6d	0.08064733
45	0x3c26e094	0.01018538
46	0x3cb13d70	0.021635741
47	0xbdb40ccc	-0.08791503
48	0x3d9157a8	0.07096797
49	0xbbb72185	-0.0055887126
50	0x3d75e96f	0.060037073
51	0xbda3b521	-0.07993532
52	0x3c8384aa	0.01605447
53	0xbcd987fd	-0.026554102
54	0x3c7f7b81	0.0155934105
55	0x3ceb594c	0.028729104
56	0x3a91dea1	0.0011128971
57	0x3d63da19	0.055627916
58	0xbd5a4ae4	-0.053294078
59	0xbbb2e72c	-0.0054596867
60	0xbc8779af	-0.016537515
61	0xbd8379ff	-0.06419753
62	0xbdb9355b	-0.0904338
63	0x3d140936	0.036141597
64	0x3daf56e5	0.08561496
65	0x3cd11f37	0.02552758
66	0xbcd0e30f	-0.025498895
67	0xbd792197	-0.06082305
68	0x3cf4abc9	0.02986707
69	0x3d00d9e8	0.03145781
70	0xbd85c9d5	-0.06532637
71	0x3cc3d395	0.023904601
72	0xbd360397	-0.044437017
73	0x3d3540cb	0.044251245
74	0xbd8b6f3a	-0.06808324
75	0x3dba9a64	0.09111479
76	0xbc8b0f0c	-0.016974948
77	0xbd5589d6	-0.052133404
78	0x3d32205a	0.043487884
79	0xbd8a714d	-0.06759892
80	0x3d2628a2	0.040566094
81	0x3d4fecf8	0.0507631
82	0x3d4ac0ed	0.049500395
83	0xbd9d7a42	-0.076893345
84	0x3dac7997	0.08421629
85	0xbd8f3ad7	-0.06993645
86	0xbd9cb2f2	-0.076513186
87	0xbd9d6291	-0.07684816
88	0xbd3421a6	-0.043977402
89	0x3d2cf134	0.042222217
90	0xbda0d87e	-0.078537926
91	0xbd5d11e2	-0.053972133
92	0xbd47fee8	-0.048827082
93	0xbc66ecec	-0.0140945725
94	0x3d6fe66c	0.058569357
95	0xbcec0931	-0.028812977
96	0xbd0a0c09	-0.033702884
97	0xbd2e5974	-0.042565778
98	0x3d88f340	0.06687021
99	0xbd818837	-0.06324809
100	0xbd81507a	-0.06314178
101	0xbd9b1187	-0.075717025
102	0xbd9aff9b	-0.07568284
103	0xbc07d78e	-0.008291138
104	0x3d911fff	0.07086181
105	0xbda72ea9	-0.081631966
106	0xbdb5ee0c	-0.088832945
107	0xbce57e9c	-0.028014474
108	0x3d9c9d81	0.07647229
109	0xbc7bd91a	-0.015371585
110	0x3d2aee6b	0.04173128
111	0x3f5cca06	0.86245763
112	0x3e6295f2	0.22127512
113	0xbe3233bd	-0.17402549
114	0x3ec23ad5	0.3793551
115	0xbf64c220	-0.8935871
116	0x3e8e08fe	0.27741235
117	0x3e57962a	0.21053377
118	0xbefce7e9	-0.49395683
119	0xbf951df9	-1.1649772
120	0x3ec00179	0.37501124
121	0xbfe8c0e9	-1.8183872
122	0xbf06ec25	-0.5270408
123	0xbebba840	-0.36651802
124	0x3fb6ebb1	1.4290677
125	0x3dbb4ac5	0.091451205
126	0x3db4d27d	0.0882921
127	0xbf0b5d7d	-0.54439527
128	0x3f123f85	0.57128173
129	0x3e9ba22c	0.30397165
130	0x3efa898e	0.4893307
131	0xbe045b81	-0.12925531
132	0x3e1505aa	0.14552942
133	0xbebd6956	-0.36994427
134	0xbf2ad033	-0.66723937
135	0xbd77002a	-0.06030289
136	0xbdd91d2a	-0.10601266
137	0xbed6daba	-0.4196375
138	0x3bb7fa80	0.0056145787
139	0xbdb5dbbf	-0.08879804
140	0xbd8bd576	-0.06827824
141	0x3d866b81	0.065634735
142	0x3bee22a3	0.0072673126
143	0xbe0544ba	-0.13014498
144	0xbdcb26ca	-0.09919508
145	0x3c9cfbdd	0.019163067
146	0x3d3e2598	0.04642257
147	0xbd5e3976	-0.054254018
148	0xbda299e4	-0.079395086
149	0x3d9cace9	0.076501675
150	0xbbf04b3c	-0.0073331874
151	0xbd073dde	-0.033017986
152	0x3db2c362	0.087286726
153	0x3d9a6038	0.075378835
154	0xbc905739	-0.017619716
155	0x3d3872a9	0.045031223
156	0x3d09192d	0.033471275
157	0x3d31e3c8	0.04343012
158	0xbd7ca202	-0.06167794
159	0x3da5739d	0.08078692
160	0xbd8f866d	-0.070080616
161	0xbd8e1502	-0.06937601
162	0xbd9fa1c4	-0.07794526
163	0xbc97e388	-0.018541113
164	0xbd6713eb	-0.05641548
165	0x3d4e61d1	0.050386254
166	0xbba53514	-0.005041728
167	0x3c1e8ee8	0.009677626
168	0x3bb60a4b	0.0055554262
169	0xbb03094c	-0.0019994555
170	0x3d8271f9	0.06369395
171	0xbda151cb	-0.07876929
172	0xbdb63186	-0.088961646
173	0x3d50083e	0.05078911
174	0xbd6b947c	-0.057514653
175	0x3b5aad50	0.0033367462
176	0x3d0cf27b	0.034410935
177	0x3d446889	0.047951255
178	0xbd8749fd	-0.06605909
179	0xbd8f7d2e	-0.07006298
180	0x3bf6f6ae	0.0075367307
181	0x3b203b24	0.0024449313
182	0x3d4ff045	0.05076625
183	0x3ca03178	0.019554839
184	0x3ca79d60	0.020460784
185	0xbd50cf97	-0.050979223
186	0x3d596ca6	0.05308213
187	0x3d2edb25	0.04268946
188	0x3c90a47a	0.017656554
189	0x3d87066e	0.06593023
190	0xbcaf2332	-0.021379087
191	0x3d4572d6	0.04820522
192	0xbc2e6f17	-0.010646603
193	0x3d061dcf	0.03274327
194	0x3db3de94	0.08782688
195	0x3d2f2957	0.042764034
196	0x3d99ed38	0.07515949
197	0x3d765c34	0.060146526
198	0x3cf0a360	0.029374778
199	0x3d268f04	0.040663734
200	0x3b3a5fc6	0.0028438433
201	0x3bf969e2	0.007611499
202	0x3d654f61	0.055983905
203	0x3db4f76c	0.088362545
204	0x3c29614e	0.010338141
205	0xbcf99d44	-0.030470498
206	0x3ce85223	0.028359478
207	0xbd51a41d	-0.0511819
208	0x3d9e3b10	0.07726109
209	0x3d13821f	0.036012765
210	0xbdb004f6	-0.08594696
211	0xbd5feb18	-0.054667562
212	0x3d1086ca	0.035284795
213	0x3d5098f4	0.050927117
214	0xbc9207ff	-0.017826078
215	0xbcfa2802	-0.030536655
216	0x3db5b972	0.088732615
217	0xbd6ca7ee	-0.057777338
218	0xbd67aced	-0.0565614
219	0xbda2fc47	-0.07958274
220	0x3b5f30e7	0.0034056248
221	0x3c8eecf2	0.017446969
222	0xbd1dc320	-0.038516164
223	0x3d03c708	0.032172233
224	0x3cd3ee6f	0.02587053
225	0xbd706fb3	-0.058700275
226	0x3c1a59ec	0.009420853
227	0xbaad69e0	-0.0013230406
228	0xbd1d2e58	-0.038374275
229	0xbd3f89e8	-0.046762377
230	0xbf41de7a	-0.757301
231	0xbf110d08	-0.5666051
232	0xbef5b730	-0.47991323
233	0xbe113427	-0.14180051
234	0xbe12f674	-0.14351827
235	0x3e17fbd3	0.14842157
236	0x3f5b595c	0.85683227
237	0x3e748fa3	0.23882918
238	0xbf2a7310	-0.6658182
239	0xbe2b5c5c	-0.16734451
240	0x3ec15e09	0.37767056
241	0x3f67e1dc	0.9057901
242	0xbe617755	-0.22018178
243	0xbf8205e9	-1.0158054
244	0x3d608360	0.05481279
245	0x3ee070f8	0.43836188
246	0x3f4b2d0d	0.7936562
247	0xbdd86b5e	-0.10567354
248	0x3f4027ef	0.75060934
249	0x3f1e8b42	0.6193124
250	0x3ef4d788	0.47820687
251	0xbe37d439	-0.1795205
252	0xbe9fe2b7	-0.31227657
253	0x3f4e3fda	0.8056618
254	0xbe95cbd0	-0.2925706
255	0xbedfe555	-0.43729654

Q2.0.bias f4 [256]
0	0x3f6e0b41	0.9298592
1	0x3f30648a	0.6890341
2	0x3ba22c07	0.004949096
3	0x3f8d51c7	1.1040581
4	0x3f331dc4	0.69967294
5	0x3f668c4c	0.90057826
6	0x3eb7dd7e	0.35911173
7	0x3f860add	1.0472065
8	0x3f730af3	0.9493858
9	0x3f6e49c9	0.9308134
10	0x3f270d27	0.65254444
11	0xbed41712	-0.4142385
12	0x3f8ac6af	1.0841883
13	0xbdb4e195	-0.08832089
14	0x3ea6dcc6	0.32590312
15	0xbf5f09b0	-0.87124157
16	0x3fc51b62	1.5398982
17	0xbf81e278	-1.0147238
18	0x3f199f82	0.60009015
19	0xbf07c8d6	-0.53040826
20	0x3e1b996d	0.15195246
21	0xbcd2ab41	-0.025716426
22	0xbf173417	-0.5906386
23	0x3d993261	0.07480312
24	0x3f1201a8	0.5703378
25	0xbf273b2c	-0.65324664
26	0x3e480174	0.19531804
27	0x3f0f6043	0.5600626
28	0x3f0bea44	0.54654336
29	0xbfa1990c	-1.2624831
30	0x3f0d7d5c	0.5526941
31	0xbf624f38	-0.8840213
32	0x3f88c50a	1.0685132
33	0xbed01bb8	-0.40646148
34	0xbf791635	-0.9729951
35	0xbf56d2cd	-0.83915406
36	0x3e22b15f	0.15887974
37	0xbf6f550d	-0.9348915
38	0x3f6428ff	0.89125055
39	0xbf6e8e98	-0.9318633
40	0x3ed73705	0.42034164
41	0x3f2a8c9d	0.6662081
42	0x3f20be13	0.6279003
43	0xbeadaa8e	-0.33919185
44	0x3e65fd69	0.2245995
45	0x3f6353c6	0.88799703
46	0x3f456ce4	0.7711928
47	0xbf7a7e16	-0.9784864
48	0x3fc2db2d	1.5223137
49	0x3fc90d49	1.5707179
50	0x3f1142a1	0.5674229
51	0x3ec80834	0.39068758
52	0x3f80e7f6	1.0070789
53	0x3d40d9fa	0.04708288
54	0x3fc01415	1.5006129
55	0x3ed6d5fd	0.41960135
56	0x3f82eba3	1.0228161
57	0x3f8e304e	1.1108491
58	0x3f857728	1.0426989
59	0x3f3ab4da	0.7293221
60	0xbee87bb6	-0.45406884
61	0xbf31ce6f	-0.6945562
62	0x3f00a65b	0.5025384
63	0x3fafbc76	1.3729389
64	0xbf2add43	-0.6674387
65	0x3f157887	0.58387035
66	0x3f81872f	1.011938
67	0x3d8985f1	0.067150004
68	0x3f504cf0	0.813674
69	0x3f25825c	0.6465204
70	0x3dfffce8	0.1249941
71	0xbf8fa818	-1.1223173
72	0xbebadaa9	-0.3649495
73	0x3f9ef5da	1.2418778
74	0xbf657fdf	-0.8964824
75	0x3f6869cb	0.9078643
76	0x3f44a757	0.7681784
77	0x3f9a5ab4	1.205893
78	0xbf5996e8	-0.8499589
79	0x3b5766c4	0.003286765
80	0x3f961906	1.1726387
81	0xbf5837bd	-0.8446005
82	0x3f6b958c	0.92025065
83	0xbf6480ba	-0.8925892
84	0xbf3dd15e	-0.74147594
85	0x3f108897	0.5645842
86	0xbe4d7b44	-0.20066553
87	0x3f81fe9f	1.0155829
88	0x3ed29f46	0.4113714
89	0x3ee885f4	0.45414698
90	0x3f47db4f	0.78069013
91	0xbf50cd15	-0.8156293
92	0xbf59acb4	-0.8502915
93	0x3dde1f63	0.1084583
94	0x3fbbb6bd	1.4665142
95	0x3d4f0710	0.050543845
96	0x3f87d043	1.0610431
97	0xbf74cbd4	-0.9562352
98	0x3ebf507a	0.37366086
99	0xbf28bb7b	-0.6591107
100	0x3fc9ac90	1.5755787
101	0x3f189fee	0.59619033
102	0x3fbbe2b4	1.4678559
103	0x3f286467	0.657782
104	0x3ec2e9d4	0.38069022
105	0xbe4a03bf	-0.19727992
106	0x3f980497	1.1876401
107	0x3fa27c08	1.2694101
108	0xbea1d5ad	-0.31608334
109	0x3ddf6aeb	0.10909065
110	0xbe9a2eb7	-0.30113766
111	0x3f46bd47	0.77632564
112	0xbe38b64d	-0.18038292
113	0xbee1bd4c	-0.44089735
114	0x3f45e7ff	0.7730712
115	0x3f247036	0.6423372
116	0xbf1d204f	-0.61377424
117	0xbf960afa	-1.17221
118	0xbf89633c	-1.0733409
119	0xbf3e4bac	-0.74334216
120	0x3f839f85	1.0283056
121	0x3e8cacad	0.2747549
122	0x3f693079	0.9108959
123	0x3f993735	1.1969973
124	0x3fdc6f9d	1.7221562
125	0x3f81c591	1.0138417
126	0xbed67194	-0.41883528
127	0xbf8cdfa3	-1.1005749
128	0x3f02a2e2	0.5102979
129	0x3f8cb3d7	1.0992383
130	0xbf3cc958	-0.73744726
131	0x3f09b587	0.53792614
132	0xbf85d2e1	-1.045498
133	0xbe8bd16b	-0.2730821
134	0x3f21ad63	0.6315519
135	0xbeafb2a8	-0.3431599
136	0x3f2caa86	0.674477
137	0x3ecbde30	0.39817953
138	0xbf30189a	-0.6878754
139	0x3fa56f03	1.2924503
140	0x3ff10789	1.8830425
141	0x3f252ef0	0.64524746
142	0x3f64cf45	0.8937877
143	0xbd0f2d08	-0.034955055
144	0xbf5b8b54	-0.8575947
145	0x3f936967	1.1516541
146	0x3f9f2ff5	1.243651
147	0x3f2def3f	0.67943186
148	0x3fdbfea4	1.7187085
149	0x3e3991f0	0.18122077
150	0xbf7ade0e	-0.9799508
151	0xbf59861d	-0.84970266
152	0xbf233328	-0.63749933
153	0x3ec938ba	0.3930109
154	0x3f7d24e9	0.98884445
155	0x3f5e3355	0.86797076
156	0xbe74a817	-0.23892246
157	0x3e3e58d5	0.18588574
158	0xbee5c9f2	-0.44880635
159	0x3f17009b	0.589853
160	0x3fa49235	1.2857119
161	0x3e674784	0.22585875
162	0xbf652c25	-0.89520484
163	0xbd9237e9	-0.0713957
164	0x3ede1383	0.4337426
165	0xbedda8f9	-0.43292978
166	0xbf62c7a2	-0.88585865
167	0xbec9d84c	-0.39422834
168	0xbc9d9030	-0.019233793
169	0x3b374e1c	0.002797014
170	0x3fc59a50	1.5437717
171	0xbf4d72b0	-0.80253124
172	0xbf577e59	-0.84177166
173	0xbd3b737d	-0.045764435
174	0xbf78d94c	-0.9720657
175	0x3fbed4e9	1.4908725
176	0xbf27f9fe	-0.6561583
177	0x3f9dcc79	1.2328025
178	0xbf7a92f5	-0.9788049
179	0xbe8036fb	-0.25041947
180	0x3f5ed043	0.8703653
181	0xbe6753b1	-0.2259052
182	0x3e0eead8	0.13956773
183	0xbf0e7507	-0.5564732
184	0xbf4e93bc	-0.80694175
185	0x3fe10e41	1.7582475
186	0x3f3b6d45	0.7321361
187	0x3fb215b0	1.3912868
188	0xbd4c8b9c	-0.04993783
189	0x3f5b696e	0.8570775
190	0xbe959ec9	-0.29222706
191	0x3f69f267	0.913855
192	0x3f743973	0.9540016
193	0xbecf8149	-0.40528324
194	0x3f9968da	1.1985123
195	0x3f9bddd6	1.2177074
196	0x3d71f054	0.059067085
197	0x3f323884	0.69617486
198	0xbf12bfcb	-0.573239
199	0x3fcf7e95	1.6210505
200	0x3f496b72	0.78679574
201	0x3e510789	0.2041303
202	0xbf2f6453	-0.6851246
203	0xbf1377a3	-0.57604426
204	0x3e95d0ca	0.29260856
205	0xbf2b1ba9	-0.6683908
206	0x3f45695a	0.7711388
207	0x3f5402d2	0.82816803
208	0x3fc500f3	1.5390915
209	0x3f107eda	0.5644356
210	0x3f94275f	1.1574515
211	0x3d54b958	0.05193457
212	0x3e80307e	0.25036997
213	0x3eb28229	0.3486493
214	0xbf2e6ec1	-0.6813775
215	0xbf76ff93	-0.96483725
216	0xbf05491d	-0.52064687
217	0x3e9b1438	0.30288863
218	0x3e884438	0.26614547
219	0x3fca4e64	1.5805173
220	0xbf650425	-0.8945945
221	0x3e92b1d4	0.28651297
222	0x3ee9bd58	0.4565227
223	0x3f8dfcad	1.1092736
224	0x3f56834b	0.8379409
225	0x3ed115f5	0.40837064
226	0x3f70e165	0.94093925
227	0x3e0aec84	0.13566786
228	0x3f17cced	0.59297067
229	0x3ec0c293	0.37648448
230	0x3f4292ce	0.76005256
231	0x3f234ed2	0.63792145
232	0xbf4e50fa	-0.8059231
233	0x3e4bc9df	0.19901226
234	0x3f951c94	1.1649346
235	0x3f922e20	1.1420326
236	0x3d495749	0.049155507
237	0x3fb8bb87	1.4432229
238	0xbf8bdf2b	-1.092748
239	0x3fb36055	1.4013773
240	0xbf711064	-0.94165635
241	0x3fa6348f	1.298479
242	0x3fa762ad	1.3076988
243	0x3f0788e6	0.52943265
244	0x3f1254af	0.57160467
245	0x3e60ff1a	0.21972314
246	0x3fb63c3c	1.4237132
247	0xbdb1fc78	-0.08690733
248	0xbe08e2a3	-0.13367705
249	0x3f1be65d	0.6089838
250	0x3f2ebe93	0.68259543
251	0x3f8dd2bd	1.1079937
252	0x3d01fccc	0.031735227
253	0xbe4e54a1	-0.20149471
254	0xbf4d723c	-0.8025243
255	0x3f44fb49	0.7694593
