trained_models/AntNormal-v3/sero/critic_2.pt (torch, 778626 bytes, 10 tensors)

Q1.0.weight f4 [256, 119]
000000 06 d9 19 bf e7 65 be be 2a ba ee 3f 89 9b 92 3f
       -0.60096776 -0.3718712 1.8650563 1.1453716
000010 c4 5b a1 3f ad 74 00 bf 45 6a ee be 66 c9 75 bf
       1.260613 -0.50178033 -0.46565452 -0.96010435
000020 5d 35 c8 3e 46 86 3a be 31 dc 8d bd 99 41 13 3f
       0.39103213 -0.18215284 -0.06926764 0.5752197
000030 cf ba 5f 3e 6d ea 17 3e 8d a1 46 be 0c 76 aa 3f
       0.21848606 0.1483552 -0.19397564 1.3317275
000040 18 e3 52 3f 3d b7 82 3e 97 fd 55 be 4d cd 2c 3d
       0.8237777 0.25530425 -0.20897518 0.042187978
000050 ab b6 a2 bd a2 03 46 3d 09 1d 4b 3e 82 e3 e6 3c
       -0.079449974 0.04834331 0.19835295 0.028184656
000060 45 8c b9 bd de e2 76 3d 31 4e 37 3d a8 3f 52 bd
       -0.090599574 0.06027495 0.044752304 -0.05133024
000070 77 d1 54 bd b4 6b 36 bd 31 8b aa bd ff ad 73 bd
       -0.051957574 -0.044536307 -0.0832733 -0.059492107
000080 cd bc b0 3c d7 1e 77 3d d5 f9 93 3b b6 1d 2c bd
       0.021574402 0.060332146 0.0045158663 -0.042020522
000090 64 04 25 3d ea 22 10 bd 08 5a a6 bc 39 d7 4d bd
       0.04028739 -0.035189547 -0.020306602 -0.05025408
0000a0 9b cd eb bc af f5 ad bd a0 36 20 3d fd ff 11 3d
       -0.028784564 -0.08494126 0.039114594 0.03564452
0000b0 6e 2a 95 3c 7e 5a 38 3d e7 23 1f 3d 2a e6 84 3b
       0.018208709 0.045008175 0.0388526 0.004055758
0000c0 bf 0f 1f 3c 68 60 e5 3b e9 5a 48 3d 2e 3a 7c 3d
       0.009708344 0.007000018 0.048914824 0.061578922
0000d0 16 d3 86 3d 50 a1 59 3d 4c 17 b7 bc 48 b9 85 bb
       0.0658323 0.053132355 -0.022349976 -0.004080925
0000e0 9d 9c 98 bc b4 6d 5a 3d df cc 26 3c 9b c2 ad 3d
       -0.018629367 0.053327277 0.010180681 0.08484384
0000f0 c1 70 3e 3d 1d 74 a0 bd 08 ae db 3c f6 64 b4 3d
       0.04649425 -0.07834647 0.026816383 0.08808319
000100 40 c2 a6 3d 83 d1 bc ba 39 22 f9 3c 13 1c b0 bd
       0.08142519 -0.0014405701 0.030411826 -0.08599105
000110 14 68 ef bc 42 19 37 3d 28 06 ab bd 3f 8f a3 3d
       -0.029224433 0.044701822 -0.083507836 0.079863064
000120 b0 ec 76 bd 60 78 ed 3c d7 70 63 bb fc 54 84 3c
       -0.060284317 0.028988063 -0.003470471 0.016153805
000130 5f 83 11 3c 5c 81 af bd 61 4e a1 bc 4a 58 6d bd
       0.008881419 -0.08569595 -0.019690694 -0.057945527
000140 9a 9b 9f 3d 21 5c 38 bc 96 ef ba bd af e1 b5 3c
       0.077933505 -0.011252434 -0.09127729 0.02220234
000150 47 0f 23 3d 32 16 28 bd 54 e4 0c bc e2 52 22 3d
       0.03980949 -0.041036792 -0.00859936 0.039629824
000160 40 a0 69 bd 18 7c 46 bd 72 e2 10 bc 51 d7 83 bd
       -0.057037592 -0.04845819 -0.008843051 -0.06437553
000170 e9 c4 66 3d f8 af f5 3b af a6 60 3d e4 03 49 3d
       0.056340132 0.0074977838 0.05484646 0.049075976
000180 14 af 90 bd ca 08 6a bd 24 69 80 bd e8 5b f1 bc
       -0.070646435 -0.05713729 -0.06270054 -0.02946277
000190 9e 35 09 bd 48 01 72 bc a1 9e b5 bd 59 90 1e 3d
       -0.0334984 -0.014770813 -0.08868147 0.03871188
0001a0 1b 03 55 3d 02 01 ee 3c ea 99 6e 3d 2f 09 8d 3d
       0.052004915 0.029053215 0.058252253 0.06886517
0001b0 08 55 b9 bd 5c df 62 3c 4f 26 ae 3d 25 c1 7a be
       -0.090494215 0.013847198 0.085034005 -0.24487741
0001c0 ad 07 b1 be c7 98 ea 3d c9 69 58 3e a4 ae a7 3e
       -0.3457617 0.11454921 0.21134104 0.32750428
0001d0 23 d8 0f 3e 8f b9 f9 3e 00 5d f9 be 68 15 04 40
       0.14047293 0.48774382 -0.48703766 2.0638065
0001e0 e6 85 fa 3e b1 18 b6 3f 34 92 32 be ef f9 4f 3f
       0.4893028 1.4226285 -0.17438585 0.81240743
0001f0 7f d3 04 bf 30 a2 6d bf 55 b3 86 3f 79 57 69 be
       -0.5188522 -0.92825603 1.0523478 -0.22787274
000200 42 1e 7b 3e 38 ea b5 be 12 c5 e4 be 5d f2 86 be
       0.24523261 -0.35530257 -0.44681603 -0.26356784
000210 5d 0e 3e bc 34 7a e3 bd 3c 63 12 bf 65 e6 11 be
       -0.011600104 -0.11107293 -0.5718267 -0.14248045
000220 c0 29 7a 3e a0 89 43 be 12 00 d3 3d b5 c0 97 bc
       0.24429989 -0.19095469 0.10302748 -0.018524507
000230 06 7b 63 bd b1 f1 44 bd be 31 2b be b2 04 1b 3e
       -0.055537246 -0.048082057 -0.16718194 0.1513851
000240 b3 94 b5 3c 72 bc b7 3d 3c 4a ab bd 2c 43 82 3d
       0.022165632 0.0897149 -0.083637685 0.06360468
000250 49 5c ba 3d e4 50 64 bd c2 13 a1 3c af 31 72 bc
       0.09099633 -0.055741206 0.019662742 -0.014782353
000260 f3 7c 9e bd f1 ab 52 ba ea a9 fb bc 63 5b a0 bd
       -0.07738676 -0.00080364855 -0.03072067 -0.07829931
000270 da cc 88 bd 51 16 03 3b 1a 0c ae 3d 10 6f 06 3d
       -0.06679697 0.0020002315 0.08498402 0.03282076
000280 0b d2 79 bd 3f 7e 81 3d 1c 91 f6 3b e5 72 b7 bd
       -0.06099133 0.06322908 0.0075246226 -0.08957461
000290 e6 7c 8e 3b 39 09 71 3d b5 c8 5c bd 16 36 8a bb
       0.004348385 0.058846686 -0.053902347 -0.0042178733
0002a0 01 12 3b bd c3 08 94 bd 43 5a 55 bd 32 d2 16 3c
       -0.045671467 -0.07228234 -0.052088033 0.009205388
0002b0 1f b7 72 3d 89 8b 8b bc 3b d6 a8 bd 4c b4 4d ba
       0.05925667 -0.017034309 -0.08243986 -0.0007846996
0002c0 44 48 a3 bd 83 73 b0 3b cd 31 8b 3d ba 3f 20 3d
       -0.07972768 0.005384864 0.06796608 0.039123274
0002d0 32 a8 65 bd 15 bc a5 bc 10 5a 16 3d 16 b9 cb 3c
       -0.056068607 -0.020231286 0.036706984 0.02486853
0002e0 4e 59 b0 bd 23 e9 5a bd be ca 04 bd 30 fc 09 3d
       -0.086107835 -0.053444993 -0.032419913 0.03368777
0002f0 01 bf a7 3d a2 51 27 3d 52 d7 0d 3d 01 4f 9f bd
       0.08190728 0.040849335 0.034629174 -0.07778741
000300 fe f5 72 3d 3a 79 06 3d d9 7a f1 bc b2 28 34 bd
       0.059316628 0.032830454 -0.029477524 -0.043984123
000310 d1 7d d5 3c 03 87 4b bd 36 6c 18 3d 10 94 8f 3d
       0.02606097 -0.049689304 0.037212573 0.070106626
000320 0e c0 77 bd 52 38 6a bd 99 fd 1b bd 05 bd a0 bd
       -0.060485892 -0.057182617 -0.038083646 -0.078485526
000330 89 3f 2c bc 89 dd 69 3d 3c 88 0c 3d ee ff f1 bc
       -0.010513195 0.057096038 0.03430961 -0.029540982
000340 7e 74 3a bc 3a 48 23 bd 1f 8d 97 bd 46 f7 cc bc
       -0.011380313 -0.039863802 -0.073999636 -0.025020253
000350 27 4e cf 3b 3c 6a 3e bd 72 a6 8c bd bc 5b db 3c
       0.006326455 -0.04648803 -0.068676844 0.02677714
000360 10 3c 5d 3c a8 97 e9 bc 01 9f cd 3c d9 82 ad 3d
       0.01350309 -0.028514698 0.025100233 0.08472223
000370 a8 06 a4 3b 69 ac 80 bd 8a 9b ad 3d 63 1a 87 3d
       0.0050056763 -0.06282885 0.08476932 0.0659683
000380 8d 59 0f bc 0c 9b 29 bd b8 6e 1e bd d9 b4 a3 3d
       -0.008749378 -0.04140763 -0.03867981 0.07993478
000390 6f 25 44 3d ed 16 41 bd 1d 24 04 be 9a 2b b0 3d
       0.047887262 -0.047141004 -0.12904401 0.08602066
0003a0 51 8f 91 3c 57 a9 39 3e 44 fd de be 7e 93 58 be
       0.017768534 0.18131004 -0.435526 -0.21150014
0003b0 8f da 85 3c dd 30 a2 be dc 74 f2 be bc 1d 1a bf
       0.016339568 -0.31677905 -0.47354782 -0.6020162
0003c0 1d 59 9f bf 9e e9 4a bf 42 cb d4 3e dd ea 88 3c
       -1.244907 -0.7926272 0.41561323 0.016713554
0003d0 de 45 39 3e 4d cc 80 bf ff 5a 5a 3f 67 54 a4 3f
       0.18093058 -1.0062348 0.852951 1.2838258
0003e0 cd fa 29 bf 7d 0c 8d bf 0a 4b ea bd 30 fb aa 3e
       -0.66398317 -1.1019436 -0.11440094 0.33394766
0003f0 ba 61 df bd 7e 99 81 3c 7b b0 2e 3d 68 52 92 bd
       -0.10907312 0.015820261 0.042648774 -0.07144624

Q1.0.bias f4 [256]
000000 c5 8e 93 be 4e 4a fc bd a2 cb 1e 3f d2 97 a4 3f
       -0.28819862 -0.1231886 0.6202947 1.2858832
000010 51 cf fc 3e 53 57 47 3f 78 c9 e4 3e d7 be 77 3f
       0.4937692 0.7786762 0.44684958 0.96775573
000020 ee 86 d9 3e aa f9 8e bd 13 e1 94 3f 76 eb 7c 3e
       0.42485756 -0.069812134 1.1631187 0.24699196
000030 19 28 80 3f e1 3f 2b 3f 82 7d 2a bf b2 d4 56 bf
       1.0012237 0.66894346 -0.6659776 -0.839183
000040 5f e0 5d bf 37 38 cb 3f 3f 85 c7 3f 9a c7 25 3f
       -0.8667049 1.587653 1.5587538 0.6475769
000050 88 2d e5 3e 50 f1 21 3e 03 27 64 bf d2 3a ac 3d
       0.447613 0.1581471 -0.8912203 0.084096566
000060 24 a3 0e 3f d7 bc f8 3e d9 65 2f 3f a8 b9 0f bf
       0.5571768 0.48581573 0.6851478 -0.56142664
000070 aa aa ac 3f 86 63 9e be cd 66 b9 be e1 cd 12 3f
       1.3489583 -0.30935305 -0.36211243 0.57345396
000080 50 ec 76 bf 3e 43 ee 3e 96 02 6c 3f fd 36 1b 3f
       -0.96454334 0.46535677 0.92191446 0.6063078
000090 c4 e1 b9 3f cf 75 ab 3f a0 04 16 bf 99 14 63 3e
       1.4522023 1.3395327 -0.5860081 0.22175826
0000a0 ac cd a7 3e a5 ed a7 3f de 84 0d 3f 1c f8 af 3e
       0.32774103 1.3119398 0.55280864 0.3436898
0000b0 b3 38 1a bf 96 c2 f9 bd f6 31 35 3f 0b 2f 44 3f
       -0.60242766 -0.121953174 0.7077936 0.7663428
0000c0 84 0c 04 3f c0 9b 7a bf d9 e7 bf 3e 6f 0f 42 3f
       0.515816 -0.97893906 0.37481573 0.758048
0000d0 e7 b7 27 bf 5f 5d 1c bf 82 7a 4f bf 64 c8 5c 3f
       -0.6551499 -0.61079973 -0.8104631 0.8624327
0000e0 7b 6a 04 3d 3d d6 83 3e dc d0 a3 bf 8e 6d 5e bf
       0.03232811 0.25749388 -1.2798114 -0.8688592
0000f0 5b 8f cc 3f 1d b9 51 3f db 2b 9b bf 91 0a 54 3f
       1.5981249 0.81923085 -1.2122759 0.82828623
000100 66 6a b8 3e 0d 1f 43 3e b8 7c ea 3e df 6b 02 bf
       0.36018676 0.19054814 0.45798278 -0.5094585
000110 d7 07 15 bf c0 47 2a bf 13 36 3c bf 39 bb bc be
       -0.5821509 -0.6651573 -0.7352001 -0.3686159
000120 63 fe af 3f 34 32 73 3f ad c5 16 3f 98 1e 17 3f
       1.3749508 0.9499848 0.5889538 0.5903106
000130 a9 ec 0b bf 8c 51 12 3f 18 f3 ad 3e a6 63 de 3e
       -0.5465799 0.5715568 0.33974528 0.434354
000140 72 31 17 bf 7b ff 2a bf 6e f1 2b bf fe fc eb 3e
       -0.5905982 -0.6679608 -0.6716527 0.46091455
000150 ae 06 dd be 01 ba 99 bf 47 3d 67 bf f4 a6 92 3f
       -0.4316916 -1.2009889 -0.90327877 1.14572
000160 b6 79 08 3f 41 a8 64 3f 23 02 b8 3f 37 d1 c1 3e
       0.53310716 0.89319235 1.4375652 0.3785493
000170 b6 31 ed 3e 4c 8f ac 3e c4 f1 81 3e ea 13 45 3e
       0.4632699 0.33703077 0.25379765 0.19245878
000180 c2 eb 92 3e 30 fe de 3f 24 bd ec 3d 27 9b 61 bf
       0.28695494 1.7421322 0.11559513 -0.8812737
000190 06 65 4f bf fb 8f 30 bf 26 5a ea 3e 05 00 21 bf
       -0.81013525 -0.68969697 0.45771903 -0.62890655
0001a0 54 3a cc 3e 0f c9 25 3f df d6 e1 be 63 68 24 3f
       0.3988825 0.64759916 -0.44109246 0.6422178
0001b0 01 b4 64 3f b3 3b 9a 3f 7c 0f f1 3e 9c 70 8f 3f
       0.89337164 1.2049469 0.47082126 1.1206241
0001c0 54 44 71 3e 7b 73 88 3c c7 50 5c 3f 25 f0 56 3f
       0.23561221 0.016656628 0.86060756 0.8396018
0001d0 8a 39 51 bf 27 0b a0 3e 55 cf 80 3e 2b 02 be 3f
       -0.8172842 0.3125851 0.25158182 1.4844412
0001e0 30 f3 57 3f 8d 9b 03 3e 7e b8 8a 3f 1d c0 e5 3e
       0.8435545 0.12852307 1.0837553 0.44873133
0001f0 f2 3d 23 3f 80 a2 84 bf ea 77 0b 3e d0 c6 b2 3f
       0.63766396 -1.0362091 0.13619962 1.3966923
000200 dd fc a5 3f 9f 2f 0c bf 80 a3 83 3f 3a 7f 28 3e
       1.2967793 -0.54760164 1.0284271 0.16454783
000210 09 be 20 3e 3f 23 8a 3f 38 e7 c3 3f cc b7 cd 3f
       0.15697493 1.0792006 1.5304937 1.6071715
000220 9f 4a 83 be 49 a8 80 3f 7b 28 55 bf 8a f7 3b bf
       -0.2564287 1.0051357 -0.83264893 -0.7342459
000230 07 7f 3b 3f d4 94 7b 3f 4e 40 06 bf 84 00 07 3d
       0.73240703 0.9827397 -0.5244187 0.032959476
000240 ae f2 04 3e d2 c6 80 be d3 23 2e 3f 95 6e 8a 3f
       0.129832 -0.25151688 0.68023413 1.0814997
000250 ff 1f 8c 3e 77 28 f9 3e 67 15 87 3f d4 1c 2c bf
       0.2736816 0.48663685 1.0553406 -0.6723149
000260 71 26 a0 3f 81 ed 20 3f 6c 9a 40 bf b8 82 5b 3f
       1.2511731 0.628624 -0.7523563 0.85746336
000270 0f 87 f6 3e 34 57 38 be dd 54 b4 3f 69 d9 09 3e
       0.48149917 -0.18002015 1.4088398 0.13461842
000280 10 f6 69 bf 68 98 5e 3f 68 24 8a 3f ed ea 52 3f
       -0.91391087 0.86951303 1.079236 0.8238972
000290 ea b3 36 3f d2 22 7e 3f 31 2a 39 3f d4 38 d8 be
       0.7136828 0.9927188 0.72330004 -0.42230856
0002a0 4a a2 26 bf 9d 9b 48 bf 9a 22 6c 3f f7 84 b5 bd
       -0.65091383 -0.7836245 0.922403 -0.08863252
0002b0 fe 58 2c 3f a8 f6 9f 3d 5b c0 01 bf 31 45 8c 3f
       0.6732329 0.07810718 -0.50684136 1.0958616
0002c0 bf f6 90 bf 1a c7 67 bf 52 3c e6 3e e0 cd 5e 3f
       -1.1325301 -0.9053818 0.44967896 0.8703289
0002d0 43 d9 2b 3f 8f 5e 4a 3e 53 72 21 3f f7 bf f4 be
       0.6712839 0.19762634 0.6306507 -0.47802708
0002e0 48 e5 a1 3f bc ef e9 3e 02 1b 77 3d 49 46 60 3e
       1.2648096 0.45690715 0.06032849 0.21901812
0002f0 aa f7 5e 3e 74 7a 18 bf 09 85 4f 3f d6 56 1a 3f
       0.21774164 -0.5956185 0.8106237 0.6028875
000300 6b 00 86 3e b3 88 16 3f 2d 46 0a 3f 0c b4 bc 3e
       0.26172194 0.58802336 0.5401333 0.36856115
000310 ac 84 35 3c 93 31 3f bf bc 38 d3 bc df dc d5 3d
       0.011078995 -0.7468502 -0.025783889 0.104425184
000320 66 e7 85 bf 18 21 75 bf 4e c6 b1 3f 92 c5 59 3f
       -1.0461242 -0.9575362 1.3888643 0.85067093
000330 fb 52 8d bf af 4e 05 bf a7 6c 82 bf 8a ed d7 3f
       -1.1040949 -0.52073187 -1.0189408 1.6869366
000340 f5 2b dc 3e ea 57 3f 3f d6 c3 41 3f 09 7e 9c 3e
       0.43002287 0.7474352 0.75689447 0.30564907
000350 f5 b4 a6 3f 4d 20 4c bf 18 51 25 3f 31 58 23 3e
       1.3023974 -0.7973679 0.64576864 0.15951611
000360 35 91 8f 3f 28 03 81 bd 1f 79 c0 ba e3 51 fb be
       1.1216189 -0.0629943 -0.0014684534 -0.49085912
000370 57 92 21 3f d2 40 0f 3e dd ac 3b 3f 2d 56 35 bf
       0.6311392 0.1398957 0.73310643 -0.7083462
000380 73 08 4a 3e 5b a6 8a bf f2 5d 90 3f 02 d4 77 bf
       0.19729786 -1.0832018 1.127867 -0.96807873
000390 fa 0e 9b 3f cc 88 27 3e 78 b7 79 3f 94 c5 8a 3e
       1.2113945 0.16360778 0.97545576 0.27103865
0003a0 55 b0 02 3f f7 9d 78 3f 1c 65 af 3e 3b 6d 10 bf
       0.5105031 0.97116035 0.34256828 -0.5641667
0003b0 75 55 81 bf 28 3e e3 bd ca f7 97 3f cf 8e 17 bf
       -1.0104204 -0.1109584 1.1872494 -0.59202284
0003c0 a3 d1 2f 3f e0 f0 a1 3e 50 a2 d8 3f 9e 72 87 bc
       0.68679255 0.31629086 1.6924534 -0.016534146
0003d0 8e f2 c8 be fb 85 0d 3f 48 df 41 3e 37 1e 8b bb
       -0.39247555 0.5528256 0.18932831 -0.0042455452
0003e0 cd a4 22 3f 92 71 9e bf 3c 19 40 3f cb a3 8b 3f
       0.63532716 -1.2378409 0.75038505 1.0909361
0003f0 dd 28 c1 3e d4 ef 94 3f 82 de 96 3e b0 59 7e 3f
       0.3772649 1.163569 0.29466635 0.993556

Q1.2.weight f4 [256, 256]
000000 ed 2c 75 be 18 65 54 be 57 76 e1 bc ae 28 98 3d
       -0.23942919 -0.20741689 -0.02752225 0.07429634
000010 5b 35 37 be 9f c1 77 be 2b 46 3e 3e 1b 94 e7 3d
       -0.17891447 -0.24194954 0.18581454 0.11307546
000020 a1 af 67 3d 95 62 8b 3c ba 69 29 be cd ec 9b bd
       0.056563977 0.017014781 -0.16544238 -0.076135255
000030 a4 77 f8 3d a6 4b 82 3e 39 b6 e8 be 07 0e a4 3e
       0.12132195 0.2544834 -0.45451525 0.32041952
000040 a6 ae 72 3d 2f 09 0f 3d bb 33 a9 bd 3b f9 57 be
       0.05924859 0.034920868 -0.0826182 -0.21091168
000050 f2 d5 35 3d 1d 73 33 3e 14 b3 ba 3e c8 32 3d be
       0.044393487 0.17524381 0.3646475 -0.18476403
000060 fd 56 49 be 26 ad 60 bd 04 69 db 3b 53 d8 49 be
       -0.1966209 -0.054852627 0.0066958684 -0.19711427
000070 24 ef 2d 3e 77 37 27 be 66 9a 15 3e 93 76 45 3d
       0.16985756 -0.16329752 0.1460968 0.048208784
000080 eb 3a 90 3e ae e3 91 bd 4b 2f c0 bc db da 80 3e
       0.2816995 -0.071235046 -0.023460051 0.25166973
000090 c5 db 6b be 42 11 47 3e 46 c5 5c be a6 d8 e0 bb
       -0.23033054 0.19440177 -0.21559629 -0.006861764
0000a0 12 55 97 bd 1a 57 25 be ce 47 31 3e 66 81 72 3c
       -0.07389273 -0.16146508 0.17312548 0.014801359
0000b0 bf ff ee bd ed 77 e1 bc 66 f8 88 bd 05 6c aa bd
       -0.116698734 -0.027523005 -0.06688003 -0.08321384
0000c0 0f 90 11 be 66 a8 24 bf df da 20 be 5a 7d 32 be
       -0.1421511 -0.64319456 -0.15708493 -0.1743063
0000d0 f4 09 0b be 73 ed b6 be 97 03 17 be 03 f4 3a be
       -0.13578016 -0.35728034 -0.14747463 -0.18257146
0000e0 a4 04 02 be 0f cb 83 be 97 c1 d8 be 9c 21 a5 3e
       -0.12697083 -0.2574086 -0.42335197 0.32252204
0000f0 55 19 99 3d ab 4c 03 bd 57 e0 87 3e 48 22 92 bd
       0.07475535 -0.03205554 0.26538345 -0.07135445
000100 dd 7a fb 3d 08 dc da be 21 b1 ef 3e d3 1c b7 3e
       0.12279294 -0.42745996 0.46814826 0.3576418
000110 af f2 35 3d 98 07 f4 be e5 24 1c be 2c 4f c4 3c
       0.044420894 -0.47662044 -0.15248449 0.023963533
000120 34 61 90 3e 32 9a 0d be 3e d1 cf be 6a af f8 3c
       0.2819916 -0.13828352 -0.40589327 0.030357081
000130 5c a3 ce be 65 ae 3c be 68 8a d1 bd 4d d9 aa be
       -0.40359008 -0.18425901 -0.10231477 -0.33368912
000140 f9 b2 86 3e 11 82 cd bd b6 80 e9 3d 9f 97 a1 be
       0.2630842 -0.10034574 0.11401503 -0.3156099
000150 7a 6f d6 bb 77 88 bb be f3 39 63 be fc b7 24 be
       -0.0065440508 -0.36627552 -0.22190075 -0.1608581
000160 ad 81 b0 3d 0e 88 a9 3e 96 81 fd 3e cf c4 cf be
       0.08618484 0.33111614 0.4951293 -0.4057984
000170 a8 c0 5a be 69 27 d5 3d c6 44 21 be 51 e6 2e be
       -0.21362555 0.104079075 -0.15748891 -0.17080046
000180 12 e1 a0 3e 22 9e c4 3d 36 1b 52 be 2d 4f fe 3c
       0.31421715 0.09600474 -0.20518193 0.031043613
000190 95 5e cf bc 18 82 0e 3e a2 96 07 be 73 46 8a 3e
       -0.025313655 0.13916814 -0.13241056 0.27006873
0001a0 de cc 67 be dd 41 2a be 60 60 2d bf aa d8 51 be
       -0.22636744 -0.16626687 -0.6772518 -0.20492807
0001b0 5b c6 13 be fb d1 f5 bd 3f 7f d4 be 2a 54 58 bd
       -0.14431135 -0.12002941 -0.4150333 -0.05281464
0001c0 6d f4 c9 bd ff ba d2 3d 4c ff c3 bd 4a 9c 14 be
       -0.09861074 0.10289573 -0.095701784 -0.14512745
0001d0 6b e8 ec be 31 fd 75 bd 74 fd 8d bd 65 fa 0f 3e
       -0.4627107 -0.060055915 -0.06933108 0.14060362
0001e0 80 c0 9f bd 1e 65 f5 be aa fe 75 be 39 4f 56 3e
       -0.07800388 -0.4792871 -0.24022928 0.20928659
0001f0 6c 78 5d be c9 92 cb bd c1 72 e7 be 27 52 ef 3d
       -0.21627969 -0.099401064 -0.45204738 0.11685591
000200 37 9a e6 3d 3f 3c 99 bd d5 8c ef be 19 1e 1d 3e
       0.11259883 -0.07482194 -0.46787134 0.15343513
000210 dc ca ec bd 89 5d 18 3e 89 71 5d 3e c3 d8 58 bd
       -0.1156213 0.14879431 0.21625341 -0.052941095
000220 7c 82 89 be e7 a1 55 be 28 f2 08 3d 36 fa 15 3e
       -0.26857364 -0.20862542 0.033434063 0.14646229
000230 1e e8 c2 3e 80 d1 56 be f3 ed 93 be f2 3a 2f 3e
       0.38067716 -0.20978355 -0.28892478 0.1711233
000240 ec b7 81 be eb 31 1d be 0f f9 97 be 9d 4b 7d 3d
       -0.25335634 -0.15351073 -0.29682204 0.06183969
000250 28 ed ef 3d d2 d1 16 3e a0 3a 19 3e af ee 97 be
       0.11715156 0.14728478 0.1496377 -0.2967429
000260 51 a3 77 bd ad 18 f6 bc 7b 8b ae 3d fe 58 ee be
       -0.060458485 -0.030041063 0.085226975 -0.4655227
000270 da 1e 19 bd 2f f3 44 bf c9 e2 45 be 03 d4 13 be
       -0.037382938 -0.7693357 -0.19324793 -0.14436345
000280 ec 67 8a bd 43 fe 40 ba 05 2c 4b bd 32 fd 18 be
       -0.06758103 -0.00073621067 -0.049602527 -0.14940336
000290 29 e3 c0 be 8a 40 0a 3e cb 7d e9 be a5 55 56 3c
       -0.3767331 0.13501182 -0.45603785 0.013081943
0002a0 f8 bb f8 3d 4a be 99 3d aa d2 5b 3d 6a f1 14 3e
       0.12145227 0.07506998 0.0536677 0.14545217
0002b0 2f da 80 be c0 a3 d4 be 2b 63 06 3e 53 fb b9 be
       -0.2516646 -0.4153118 0.13123767 -0.36324558
0002c0 96 56 68 bf 5b d8 49 3e d6 e9 3c be 7c c1 94 bd
       -0.9075712 0.1971144 -0.18448576 -0.07263467
0002d0 0a a2 72 3c 5a 49 f0 bd 09 71 88 bd 36 c8 79 be
       0.014809141 -0.11732741 -0.06662185 -0.2439278
0002e0 83 93 73 3e 12 e7 b8 3e c4 84 97 3d 05 bc 08 bf
       0.2378674 0.36113793 0.0739837 -0.53411895
0002f0 79 71 25 3e d3 a2 1b be 40 88 e0 bd d5 de 33 3d
       0.16156568 -0.15198831 -0.109634876 0.04391368
000300 d2 e2 39 bc a7 d9 87 be cc 24 ee 3d 2b 38 a3 be
       -0.011345582 -0.26533243 0.11628112 -0.3187879
000310 5c 49 78 bd 29 f7 f2 be f4 5e 22 3d 56 98 21 be
       -0.060616836 -0.47454193 0.039641336 -0.15780768
000320 70 2e d0 be a4 bb 4f 3e c9 31 f3 3d 50 04 e3 bd
       -0.4066043 0.20286423 0.1187473 -0.11084807
000330 17 14 cb 3d 8e b2 6b 3d 66 3c 24 3e 2d 02 1a be
       0.09915941 0.05754333 0.16038665 -0.15039892
000340 3a 70 6a 3e da 31 48 3e ff 03 bb be fe e6 05 be
       0.22894374 0.19550267 -0.36526486 -0.13076398
000350 d3 37 c6 bc 32 13 38 bd 59 f0 30 3e dd 8d 17 be
       -0.024196541 -0.04494018 0.17279185 -0.1480021
000360 41 df d6 3c 79 a8 f3 bc f7 4d b7 bc 52 5b 50 3e
       0.026229503 -0.02974342 -0.022376044 0.20347336
000370 58 24 7f 3e d6 9e 8d 3b 7d 46 63 bc 54 7b 69 3e
       0.24916208 0.0043219132 -0.013871786 0.22800952
000380 e4 21 5f be ea 3a d9 3d 26 3d 29 be d3 4e c7 be
       -0.21790272 0.1060694 -0.16527233 -0.38927326
000390 91 d9 56 3e cb 0a 92 be 35 59 8c 3d 95 8a 55 3d
       0.20981432 -0.2852386 0.068529524 0.052134115
0003a0 e6 e3 bc 3e 97 a7 fc 3d e0 1c 9d be 68 95 70 be
       0.36892623 0.12336653 -0.30686092 -0.23494494
0003b0 a4 d6 6f bd c0 b6 0b 3e 91 0c 8f bd a4 ff 82 3d
       -0.058554307 0.13643932 -0.06984819 0.06396416
0003c0 0c 2f 93 3d 4b 04 8d 3e d2 57 ce 3b 35 18 fc bd
       0.07186708 0.27542338 0.00629709 -0.123093046
0003d0 a8 d0 4d 3e e2 ef a3 bd 23 da 1f 3f 4e e0 69 3e
       0.20099127 -0.080047384 0.62442225 0.22839472
0003e0 84 e7 46 3e 92 c5 6d be cf 14 96 3d 95 06 46 be
       0.19424254 -0.23219898 0.07328188 -0.19338448
0003f0 67 79 32 3e bc 2f 2b 3e d0 e6 4e 3e c6 21 da bd
       0.17429124 0.16717428 0.20205235 -0.10650973

Q1.2.bias f4 [256]
000000 41 24 aa 3f 68 fb 20 3d fb 89 1d bf c5 bb e3 3f
       1.3292314 0.03930226 -0.61538666 1.7791678
000010 d0 04 db 3f fd 90 be be 58 6b 64 3e a0 ed 8b bf
       1.7110844 -0.37219992 0.22306573 -1.0931892
000020 a0 ea ea 3d 8a 90 e8 3f 51 24 f3 be 9d 76 75 bd
       0.114705324 1.816911 -0.47488645 -0.05992757
000030 12 5b 7f 3f 2c b9 e9 3f 26 9a df 3f fc 07 9d 3f
       0.9974834 1.8259635 1.7468917 1.2268062
000040 ab 3d b7 3f 29 0b 52 bf 53 db 8f bf 7b 77 e6 3f
       1.4315695 -0.8204828 -1.1238807 1.8005213
000050 23 ed a9 3f f6 78 a8 3f 94 57 22 bf e4 37 e5 3f
       1.3275493 1.3161914 -0.63414884 1.7907681
000060 ea e7 87 be 91 f6 53 bf 85 38 e9 3f 49 41 9a bf
       -0.26544124 -0.82798105 1.8220373 -1.2051173
000070 03 f4 e4 bd 8f 1d 55 bd 02 92 a0 3f 30 28 78 bf
       -0.11179354 -0.052030142 1.2544558 -0.9693632
000080 98 b4 e4 3f d7 23 ff 3f 05 4a 16 bf 56 59 da 3f
       1.7867613 1.9932812 -0.58706695 1.7058513
000090 da e7 df bd ec fb 6c bd 71 33 6d 3f 37 6b e6 3f
       -0.10932894 -0.05785744 0.9265662 1.8001469
0000a0 be bc 8f be ae ac e5 3f 97 f7 e4 3f 34 89 94 3f
       -0.28073686 1.7943323 1.7888058 1.1604371
0000b0 0b 5f c5 3f bc 95 95 bf b2 0f 8d be f5 32 bb bc
       1.541963 -1.168632 -0.27551037 -0.022851447
0000c0 e7 36 82 bd 5a 4c 77 3c ac e7 70 be 21 e1 df 3f
       -0.06358128 0.015093887 -0.23525876 1.7490579
0000d0 85 2f 1f bf ef a8 c4 bd 37 62 5d 3d 23 1a b0 3f
       -0.62181884 -0.09602534 0.054048743 1.3757976
0000e0 ae 50 37 be 8d dd e5 3f f2 28 98 3f ad ef da 3f
       -0.1790187 1.7958237 1.1887496 1.7104393
0000f0 68 5d 41 3d 26 fd 7a be 6e 59 e8 3f 6b 88 15 bc
       0.04720822 -0.24510631 1.8152292 -0.009126763
000100 15 22 e0 3f 26 1e d4 3f 27 e7 e7 3f f4 c3 b8 bf
       1.7510401 1.65717 1.8117417 -1.44348
000110 64 88 22 bf bb 36 a4 3f 82 7e 2b be 4c 03 e1 3f
       -0.63489366 1.2829202 -0.16747478 1.7579131
000120 d2 f9 9e bd 62 68 bb 3f fc fe a1 bf 71 43 f0 3f
       -0.07762493 1.464123 -1.265594 1.8770581
000130 2d 23 63 bf 68 1c 82 3d 8d f3 f7 3f d0 5c da 3f
       -0.8872555 0.06353074 1.9371201 1.7059574
000140 2c cc b5 3f 30 b3 70 bf 56 08 94 bf 74 4d 0a be
       1.4202933 -0.9402342 -1.1565044 -0.13506109
000150 28 70 a1 be bb 21 ea 3f f8 63 28 bf 0a ec df 3f
       -0.3153088 1.8291544 -0.6577754 1.7493908
000160 98 ac 0a 3d 24 35 a5 3f 87 92 8c 3f 0b 8b c8 be
       0.033856004 1.2906842 1.0982217 -0.3916858
000170 a3 ba 78 bf 17 4b b5 3f c4 32 d0 3f d5 54 56 bc
       -0.97159785 1.4163541 1.6265492 -0.013081749
000180 ad 18 16 3d 39 46 30 bf c1 64 e4 3f 40 ac 93 3f
       0.036644626 -0.6885715 1.7843248 1.1536942
000190 6c fd 04 be 0a e4 d2 3f b5 63 fe 3f f6 79 98 bf
       -0.12987298 1.6475842 1.9874178 -1.191222
0001a0 6f 4a 1f be 95 2e ea 3f f4 d1 93 bd 25 70 ce 3f
       -0.15555738 1.8295466 -0.0721778 1.6127974
0001b0 1a 82 bb 3f 0c 53 04 bc 6b 69 9d bf 5c 05 e8 3f
       1.4649079 -0.008076441 -1.2297796 1.8126636
0001c0 b3 f9 e3 3f 61 49 d6 3f 4d 81 8c be 1c af 6e bf
       1.7810577 1.6741143 -0.274424 -0.93235946
0001d0 0a 86 00 bf c7 0d 92 3f 1e 49 e4 3f 9f da db 3f
       -0.5020453 1.1410455 1.7834814 1.7176093
0001e0 21 22 e4 3f 38 8c 0d 3e d4 7b e3 3f c0 d9 2a 3f
       1.7822915 0.1382302 1.7772164 0.6673851
0001f0 4a 0c c0 3e e2 61 6e 3f d1 d8 0c be 36 0a eb 3d
       0.37509376 0.9311811 -0.13754584 0.11476557
000200 4c 6c f2 bc e9 b9 6e 3f 49 bd 51 bf 85 1d d4 3f
       -0.029592656 0.93252426 -0.8192945 1.6571509
000210 0f f6 e8 3f 37 62 f1 3f 5f 3d 9e b9 81 08 be 3f
       1.8200091 1.8858098 -0.00030181833 1.4846345
000220 6d 45 b2 3f 48 06 6a be c3 c8 df 3f 11 6f 26 bf
       1.3927437 -0.22853959 1.7483143 -0.65013224
000230 ee 03 9c 3f 28 b8 f6 3f b4 2f eb 3f a1 e0 c7 3f
       1.2188699 1.927495 1.8373933 1.5615426
000240 05 ef f3 be 71 f9 86 be 11 e9 b1 3f 43 d1 da 3f
       -0.47643295 -0.26362184 1.3899251 1.7095112
000250 ae ee c8 3f d1 37 cd 3f d9 89 d2 bd dc 12 2a bf
       1.5697839 1.6032659 -0.102801986 -0.6643503
000260 18 19 4a bf e3 f4 a6 3f 99 c9 62 bd 75 49 3f 3f
       -0.7894454 1.3043483 -0.05536804 0.7472146
000270 ef 99 03 40 20 1a ce 3f 7a 74 de 3f 90 f3 e3 3f
       2.0562704 1.6101723 1.7379296 1.7808704
000280 1e 29 65 be a7 09 e9 3f f9 d0 fc be d1 a2 65 bf
       -0.22378966 1.8206071 -0.49378183 -0.89701563
000290 dd 3f f4 3f bb ea 2e 3f db 51 1e bd 2f d7 4a 3f
       1.908199 0.6832692 -0.038652282 0.79234594
0002a0 52 0f 81 bf c7 93 f2 3f 00 51 7f 3f 36 41 e9 3f
       -1.00828 1.8951348 0.9973297 1.8223026
0002b0 c1 2f dd bd cf 72 c1 3f bc b8 62 bf 5b 85 d5 3f
       -0.10800124 1.5113162 -0.8856313 1.6681322
0002c0 6e a9 bf 3f 3d aa a4 3f 20 a5 a8 bf 63 53 14 be
       1.4973581 1.2864453 -1.3175392 -0.14484935
0002d0 e5 b8 29 bd de e5 00 40 32 11 cf 3f d4 1d 54 bd
       -0.041436095 2.01403 1.6177123 -0.05178626
0002e0 bf cb df 3f fe ba 43 be 37 1a 35 3e f2 87 0f bf
       1.7484053 -0.191143 0.17685781 -0.5606681
0002f0 f1 a2 a1 3f 0d b8 f3 3f 59 c0 b1 be ac 2f ee 3f
       1.2627851 1.9040543 -0.34717062 1.8608298
000300 cd d1 a2 be 49 77 98 3c 3d 54 01 40 1c c9 dc be
       -0.3180069 0.018611567 2.0207665 -0.43122184
000310 cd 50 02 bf 56 75 cd 3f 3c 5f c1 3f 42 f4 da 3f
       -0.5090454 1.6051433 1.5107188 1.7105792
000320 e1 e6 a4 bf 7c 37 ed 3f 15 d1 b9 3e 67 8f 9f 3f
       -1.2882959 1.8532557 0.3629233 1.2465638
000330 8b 49 e6 3f 60 d6 77 3f 43 1f 74 3f 94 c1 50 bf
       1.7991194 0.96811485 0.953602 -0.81545377
000340 83 4f e5 3f ba 61 f0 3f 64 1d 98 bd da 01 dc 3f
       1.791489 1.8779824 -0.07427481 1.7188065
000350 ff e6 66 be c9 4b e3 3f 9a d8 9b 3f 2c 45 f0 3f
       -0.22549056 1.7757503 1.2175477 1.877111
000360 29 c3 aa bf af e8 85 bd 7e c9 47 bf 8a 58 89 3f
       -1.3340808 -0.065385215 -0.7804183 1.0730145
000370 00 ea e4 3f 19 d2 8e 3d 5d 26 de 3f 20 70 d8 3f
       1.7883911 0.06973667 1.7355458 1.6909218
000380 c2 1c 4a bf ca fd eb 3f f7 b2 e8 3f a8 26 c1 3f
       -0.7895013 1.8436825 1.8179616 1.5089922
000390 8a 90 3f bf 1f 19 e0 3b 8b 49 ba 3f 58 79 17 3e
       -0.74829924 0.006838932 1.4553694 0.14792383
0003a0 7c 16 fc 3f 9f 01 d0 bd e3 52 ba bd 8c 4e 40 3b
       1.9694362 -0.10156559 -0.09097841 0.0029343693
0003b0 c8 21 8b bb d4 0e b9 be 4b 58 44 3f 2e 6f cf 3f
       -0.0042459704 -0.36144125 0.76697224 1.6205804
0003c0 9e 98 e6 3f ec 48 76 bc fc 35 e0 bd 36 d6 e5 be
       1.8015325 -0.015032034 -0.10947797 -0.44889992
0003d0 4b 32 e6 3f f0 54 14 be 24 47 43 3d 87 7e ae bd
       1.7984098 -0.14485526 0.047675267 -0.08520227
0003e0 36 d0 7d 3f bf 5a 72 bd 06 c0 f7 3f c2 77 e2 bd
       0.9914583 -0.059168573 1.9355476 -0.11057998
0003f0 d7 d0 ed 3f d8 ae 0c bf 01 cc 8a be 22 8b 4d bd
       1.8579358 -0.5495429 -0.27108768 -0.050181516

Q1.4.weight f4 [1, 256]
000000 6e 52 87 3f d2 47 5b bc 6d a5 90 c0 58 dc d6 3d
       1.057203 -0.0133838225 -4.5201936 0.10491246
000010 98 39 60 3d c3 80 d7 c0 ab 89 bf c0 8f 35 8d bf
       0.054742426 -6.734468 -5.985555 -1.103197
000020 ac e2 fd c0 af 50 00 3e 8f a8 72 c0 5f a3 57 c1
       -7.93392 0.12530778 -3.791538 -13.4773855
000030 60 59 70 bf 9e 5c 05 3e 55 3c d4 3d 0f c0 5a 3f
       -0.93886375 0.13023612 0.1036307 0.8544931
000040 78 05 1a 3f cb 09 9e bf 28 de 12 bf ae 47 c3 3d
       0.60164595 -1.2346739 -0.57370234 0.09535156
000050 06 d1 77 3f c0 c6 93 3f cf 63 35 c0 bd a6 be 3c
       0.9680332 1.1545029 -2.8342168 0.023272866
000060 dd e2 d4 c0 64 e1 b7 bf ec 2a a3 3d b9 d4 95 bf
       -6.6526933 -1.4365659 0.07967171 -1.1705543
000070 37 93 09 c1 34 8c 42 c1 4a 82 9a 3f 18 73 53 bf
       -8.598441 -12.159229 1.2071011 -0.82597494
000080 0d 32 a3 3d 7a ad 68 3e bc a2 a6 c0 37 e7 8d 3d
       0.07968531 0.22722426 -5.207365 0.06928866
000090 0e 8d 0a c1 78 07 cb c0 7d 4d 7c 3f c9 57 24 3e
       -8.659437 -6.3446617 0.9855574 0.16049112
0000a0 fc 48 c6 c0 24 93 06 3e bd bf da 3d a3 78 2d bf
       -6.196409 0.13142067 0.106811024 -0.677622
0000b0 e0 83 3c 3b 69 2d 46 bf a9 e7 76 c0 33 b6 a5 bc
       0.0028765127 -0.7741304 -3.8578894 -0.02022848
0000c0 e3 14 03 bd c9 8e c6 c0 3e fd b0 c0 f8 b0 b3 3d
       -0.03200234 -6.20493 -5.5309134 0.087739885
0000d0 03 69 71 c0 c0 8f e3 c0 ca 8d 36 c1 cc c5 0a 3f
       -3.7720344 -7.1112976 -11.409616 0.54208064
0000e0 87 1c 84 c0 a2 ec eb 3d 6c e9 5b bf 10 99 97 3d
       -4.1284823 0.115197435 -0.8590305 0.07402241
0000f0 7c 12 1a c1 a6 43 07 c1 04 c9 b3 3d 17 dd 15 c1
       -9.629513 -8.454016 0.08778575 -9.366477
000100 85 d3 01 3e 70 2e b4 3c 2a d2 67 3e 43 6a fd be
       0.12678345 0.0219948 0.22638765 -0.49495134
000110 46 4a 81 c0 d6 0d 2f 3f 13 ab fc c0 43 44 2d 3d
       -4.0403166 0.68380487 -7.895883 0.042301428
000120 29 79 14 c1 a8 26 f2 3e f1 99 6f bf 13 8c 42 3e
       -9.27958 0.47295117 -0.9359427 0.18998747
000130 ad fc a9 bf 7e 1c fa c0 5c 2e 1f 3e ad 8c 9b 3d
       -1.3280236 -7.815978 0.15545028 0.07595191
000140 da 5c 6c 3f fe b2 42 c0 c5 65 03 bf 0f 04 97 c0
       0.9232918 -3.0421748 -0.51327163 -4.7192454
000150 e5 3f a9 c0 a6 a5 d6 3d 3b 77 9b c0 be 69 cc 3d
       -5.2890496 0.10480814 -4.8583045 0.09981106
000160 4c d3 e5 bc d6 ad 3c 3f f7 ab 08 bf 70 71 5a c0
       -0.028054856 0.7370275 -0.533874 -3.4131737
000170 9f 89 b2 c0 35 1d 25 3f 6c 05 43 b9 01 5d 40 bd
       -5.5792994 0.6449769 -0.00018598669 -0.046963695
000180 57 07 e7 c0 8d 24 c3 bf f8 13 24 3e b9 f3 1b bf
       -7.219646 -1.524553 0.16023242 -0.60918766
000190 39 a9 73 c0 ac 03 8a 3c 00 c7 83 3e 42 7e 74 bf
       -3.8072035 0.016847454 0.25737762 -0.95505154
0001a0 83 ab d1 c0 ed 5f e4 3d e7 f5 31 c1 ef 15 16 3f
       -6.5521865 0.11151109 -11.122535 0.5862722
0001b0 dc 70 5e 3f fe 9a 00 c1 7c 7a 15 bf 48 d9 cc 3d
       0.8689096 -8.03784 -0.5839002 0.100023806
0001c0 c9 16 83 3d 92 f0 26 3d 30 9f a0 c0 3e 89 9c bf
       0.0640083 0.04075677 -5.019432 -1.2229383
0001d0 db 8b 90 c0 cf a4 bd 3f 05 f7 0b 3e d2 3e 17 3d
       -4.517072 1.481592 0.13668449 0.036925144
0001e0 38 2d e7 3d bb 5c 1d c1 c2 e9 b2 3d 0f dd 21 bf
       0.11287922 -9.835139 0.08735992 -0.63227934
0001f0 40 e2 89 3f 1c 35 bc 3f 9f 93 b6 c0 6b 29 02 c1
       1.0772171 1.4703708 -5.70552 -8.135112
000200 86 39 01 c1 c5 cb 16 bf 20 39 98 bf 5c 3f c8 3e
       -8.076544 -0.5890468 -1.1892433 0.3911084
000210 8f 3e 10 3e d3 f8 3f 3e 8b 92 d5 c0 a6 ee 4e 3f
       0.14086364 0.18747263 -6.6741385 0.808329
000220 52 df 4c bf 8c 9a bb c0 f5 99 be 3d 0f a1 42 c0
       -0.8002826 -5.8626156 0.09306709 -3.0410802
000230 03 09 97 3f d4 86 80 3e ea 5f 2c 3e 50 dd 38 3e
       1.1799625 0.25102866 0.16833463 0.18053174
000240 c3 ce 86 bf da 9a dd c0 69 6e ca be 38 9a c9 3c
       -1.0531849 -6.925153 -0.3953736 0.02460967
000250 01 bb eb 3e 2d 1b 9a 3d b9 38 37 c1 86 a8 c6 bf
       0.4604111 0.075247146 -11.451348 -1.5520179
000260 98 c7 5b c0 89 90 2d bf 0f 34 c7 bc 84 49 09 bf
       -3.4340572 -0.6779867 -0.024316816 -0.536278
000270 5a 07 ab 3e 97 d3 75 be ff d1 c2 3d 4f c6 1c 3e
       0.33404046 -0.24006496 0.0951271 0.15310024
000280 ad a4 0b c1 9f a6 08 3e f5 5d 33 c0 fb 63 5b bf
       -8.727704 0.13344811 -2.8026097 -0.85699433
000290 84 1d 2d 3e 8c d7 1a bf 26 2d ac c0 28 16 00 bf
       0.1690579 -0.6048515 -5.3805113 -0.5003381
0002a0 65 90 b6 bf 0e 59 28 3e 59 6b b6 3f ce 7a 1c 3e
       -1.4262816 0.16440222 1.425151 0.15281221
0002b0 ab 86 dd c0 e3 51 a5 3e 8f b2 1c c0 52 e4 3b 3d
       -6.922689 0.32289037 -2.4483984 0.04587204
0002c0 02 59 e3 be 92 d3 70 3f c7 ec 42 bf 78 58 c6 c0
       -0.44403845 0.9407283 -0.76142544 -6.1982994
0002d0 24 ac 51 ba 9a 34 9d 3e 15 84 de 3e 9a 3d 0d c1
       -0.0007998368 0.30704194 0.43460146 -8.827539
0002e0 e3 1c 99 3d e1 6e 1b c1 88 b3 0d c1 7f 8f eb c0
       0.07476213 -9.71457 -8.856331 -7.3612666
0002f0 3e ee 6d 3f 67 0b fb 3d 59 bd 32 c0 0f b3 10 3e
       0.92941654 0.12258034 -2.7928069 0.14130805
000300 0f dd 51 c0 ce e2 a2 bc cf f9 aa 3e 88 0a 5c c0
       -3.2791173 -0.01988354 0.33393714 -3.4381428
000310 2c 41 49 c0 70 0b a0 3e b7 a0 e6 3e 97 6b b4 3d
       -3.1446028 0.31258726 0.4504449 0.08809584
000320 fb 57 51 bf 24 82 1c 3e f7 4b 9e 3f 10 92 40 bf
       -0.8177487 0.1528402 1.2366933 -0.75222874
000330 5c d7 98 3d 3c 6b 1f bf d5 eb 95 bf 0f 41 95 bf
       0.074629515 -0.62273 -1.1712595 -1.1660479
000340 42 0f c0 3d 86 93 e5 3d c2 e1 ce c0 f4 be 80 3d
       0.0937791 0.112097785 -6.4650583 0.062864214
000350 d9 b4 cc c0 7f db f5 3d df 8c 0f 3f 51 59 15 3e
       -6.397076 0.12004756 0.5607433 0.14584853
000360 4b de 6c bf a1 a2 5e 3c ea 60 27 c0 88 a9 72 3f
       -0.9252669 0.013588578 -2.6152902 0.94789934
000370 8b dc ac 3d 93 27 1c c1 e0 39 a7 3d 67 d6 3f 3d
       0.08440503 -9.759662 0.08165336 0.04683533
000380 df b8 93 c0 33 6a f8 3d eb 1f 8a 3d 62 13 04 3f
       -4.6163173 0.12129631 0.06744369 0.51592076
000390 a8 13 38 c0 b5 16 ea bc 91 e6 16 bf ec 7b 0e c1
       -2.8761997 -0.02857528 -0.58945566 -8.905254
0003a0 17 6d 50 3e 84 25 e3 c0 b9 13 d2 c0 cd 3f 0d c1
       0.20354114 -7.0983295 -6.5649076 -8.828076
0003b0 0b cb 4c bc 54 63 b3 c0 05 cb 7a bf 61 8e 4a 3e
       -0.012499581 -5.605875 -0.97966033 0.19780876
0003c0 70 15 0f 3e 4d cd f6 bc a6 41 0c c1 15 3e 5e c0
       0.13973022 -0.030127192 -8.766027 -3.4725392
0003d0 c6 87 0d 3e c0 65 b5 c0 be 61 50 bd 22 48 cf c0
       0.13821325 -5.6686707 -0.050874464 -6.4775553
0003e0 11 2d a1 bf a0 a5 06 bd f1 cf 63 3e fe df 60 c0
       -1.2591878 -0.032872796 0.22247292 -3.5136714
0003f0 6f 5c 52 3e 15 34 85 c0 0a 10 f2 c0 4b 27 1b bd
       0.20543073 -4.1626077 -7.564458 -0.03787927

Q2.0.weight f4 [256, 119]
000000 fa 36 af bf e8 9a fb 3e f6 88 e3 bf 0d f2 e3 3e
       -1.3688653 0.49141622 -1.7776172 0.44520608
000010 8c 16 31 be 88 39 bb be f1 52 e1 3e 86 3c 59 3f
       -0.17293757 -0.3656733 0.44008592 0.84857976
000020 44 dd b1 bd 98 f3 10 3f fb da 9c 3e d9 c0 82 3e
       -0.08684781 0.56621695 0.3063582 0.25537756
000030 eb cd 1e be 15 ec 07 3e 0d c1 bf 3e 25 65 5d be
       -0.15508239 0.13273652 0.37451974 -0.21620615
000040 3a 78 c6 3d 47 99 3b be 68 25 8b be 95 0f 18 3d
       0.096909 -0.1832019 -0.27176976 0.037124235
000050 1d 7e 0c be 4c 77 31 be a0 5b c4 bc 94 ae 3c be
       -0.13719983 -0.17330664 -0.023969471 -0.18425971
000060 fb da e7 bd 52 05 15 3d dd de 87 3d c5 aa 3e bd
       -0.11321064 0.036382027 0.06634305 -0.046549577
000070 7a 3b 80 3d f6 19 78 bd f3 54 e1 3c c7 9d 07 bd
       0.06261344 -0.060571633 0.027506327 -0.033109453
000080 36 b4 6b bd f2 49 39 3d b9 7d 2a bd cf d1 29 bd
       -0.05754491 0.045236535 -0.041623805 -0.041459855
000090 a3 9b 08 3d 2e b0 4e bd 02 60 80 bd b6 5b 32 bd
       0.03335155 -0.050460987 -0.06268312 -0.043544494
0000a0 6f 4c b2 bd 76 a3 88 bd 81 66 b3 3b ca 74 95 bd
       -0.08705985 -0.06671803 0.005474866 -0.07297666
0000b0 01 a2 ae bd 7b 8d 9a 3d 9e bf 82 3d af eb ad 3d
       -0.085269935 0.075465165 0.06384204 0.08492219
0000c0 6b af b8 3d 33 b6 5e bd 04 03 ab 3d ce 05 99 bd
       0.09017833 -0.054372977 0.083501846 -0.0747181
0000d0 1e b0 f4 bb f9 15 f8 ba 14 a9 5f 3c 6f 34 f2 bc
       -0.007467284 -0.0018927447 0.013651151 -0.029566018
0000e0 a7 85 5b bb e3 26 c2 3c fc 83 9c 3d f3 e1 5e bd
       -0.003349641 0.023700183 0.076423615 -0.0544147
0000f0 3e db 88 3d b8 31 bb bd 36 c2 91 bc 52 cd 68 3d
       0.06682442 -0.091403425 -0.017792802 0.056836434
000100 e8 76 f1 3c d8 b8 63 3d cc 86 88 3d 09 b6 b7 bd
       0.029475644 0.055596203 0.066663355 -0.08970267
000110 51 aa 9b 3d 6f 38 9b bd f4 2e ad bc 74 b1 7b 3c
       0.07600845 -0.07579123 -0.021140553 0.015362132
000120 65 43 49 bd 35 66 18 3d 3a ad 9b bd e6 79 8e 3c
       -0.049136538 0.037206847 -0.076014 0.01739211
000130 f2 ff cb ba c2 16 7f bc 2f 74 39 bc 2f 08 ba bd
       -0.0015563949 -0.015569391 -0.011319204 -0.09083592
000140 b8 53 0c 3d c0 0b 30 bd 44 36 43 bd 39 dd 0c 3d
       0.034259528 -0.042979956 -0.047659174 0.034390662
000150 fb 56 b6 bd 6c 7f 0c bd ed c7 85 3d ac 3b 03 bc
       -0.08903309 -0.034301206 0.065322734 -0.008009832
000160 45 9d 93 3d 2f 79 76 3c d5 73 a5 bd db 77 72 3d
       0.07207731 0.015043541 -0.08078734 0.059196334
000170 e9 fc 01 bd 68 af b1 3b b5 75 20 3d d5 e2 80 bd
       -0.031735335 0.0054225214 0.039174754 -0.06293265
000180 1f b1 9c bd 3b 33 14 bd da 7b 86 3d 39 29 83 bc
       -0.07650971 -0.03618167 0.065665916 -0.016010867
000190 fa d2 92 bc 41 4e 20 bd fb 5f 7c 3d 9e 6e 81 b9
       -0.017922867 -0.03913713 0.06161497 -0.00024687214
0001a0 7b fc 9e bd 9f ab 7a 3d c1 74 97 bd 82 64 94 3d
       -0.077630006 0.061198827 -0.07395316 0.07245733
0001b0 9f 3d 15 3d 4c 40 36 3d 71 9c ba 3d e3 0e 29 be
       0.03643572 0.044494912 0.0911187 -0.16509585
0001c0 4a 4a 28 3d 03 f0 d0 3e d8 46 c6 be f2 ed a2 3c
       0.041086473 0.40808114 -0.38725924 0.019888852
0001d0 00 c5 dd bd 20 f5 b5 be a3 69 2c be 36 1d fd bd
       -0.108285904 -0.35538578 -0.16837172 -0.12359087
0001e0 41 d3 1b be 65 6e 5b bf 1e ac a5 bf 31 a8 4c be
       -0.15217306 -0.85715324 -1.2943151 -0.19986035
0001f0 dd 28 45 3e 19 9e 5b bf 77 67 0e bf fc 83 18 3e
       0.1925387 -0.8578811 -0.55626625 0.14894098
000200 9e b7 47 3f 7c ca d1 be 74 4f 80 3f f0 33 78 bf
       0.7801455 -0.40974796 1.0024247 -0.9695425
000210 8a 48 f5 3d 00 39 3d 3e 90 59 e5 3d 08 0e 0f 3f
       0.11976726 0.18478775 0.11198723 0.55880785
000220 34 f1 20 3e eb 3b 72 be ad ac ba 3d 99 0a 99 3d
       0.15717012 -0.2365567 0.091149665 0.074727245
000230 1b 5b 2c 3e f9 5f ab 3e 98 d7 a7 3b b1 0d 3d be
       0.16831629 0.3347166 0.0051221363 -0.18462254
000240 cc e2 b1 3d 86 8c 7c 3e 4a bd 64 bd 30 bd b9 bd
       0.08685836 0.2466298 -0.055844583 -0.09069288
000250 6b 1f 29 bd 1e 9a ba bd 5a b9 1b 3d 63 67 5e 3d
       -0.041289728 -0.09111427 0.038018562 0.054297816
000260 75 66 01 bc f9 0f b4 3d ca 79 e4 bc 91 be 73 3d
       -0.007897963 0.08792109 -0.027890105 0.05950791
000270 a0 d3 62 3c 86 d4 dc bc a5 fd 8b 3d 89 9a ea 3c
       0.013844401 -0.026956808 0.06835488 0.028638141
000280 27 12 b9 3d 3a de 14 bc 7c aa a1 3d 55 1b a8 3d
       0.090366654 -0.009086186 0.078938454 0.08208338
000290 02 fc 95 bc 7a 0b 98 3b 20 19 31 bd ff 21 f3 3c
       -0.018308643 0.00464004 -0.04323685 0.029679297
0002a0 fd ed 9e 3c d0 03 97 bc e7 bc 8f 3d 80 f1 2c bd
       0.019400591 -0.018434435 0.07018452 -0.0422225
0002b0 62 62 29 bd 79 6d 78 3d 36 8c 4d bd 97 89 1b 3d
       -0.04135359 0.060651276 -0.050182544 0.037973013
0002c0 e0 f3 8f 3c f1 2a 82 3d 6c fb 9c bb 08 46 03 3c
       0.017572343 0.06355847 -0.004790714 0.008012302
0002d0 5c 11 0c bd 23 29 81 3d bc 0c 20 bd 30 24 90 3c
       -0.034196243 0.06306674 -0.039074644 0.01759538
0002e0 7e aa ae 3c cc 58 09 3d 8d 4c 02 bc 56 9d 13 3c
       0.021321531 0.03353195 -0.007952821 0.00900968
0002f0 a7 04 b4 bd 2d f1 a9 bd 8a d3 3f bb e3 b0 28 3c
       -0.0878995 -0.08297954 -0.0029270374 0.010296079
000300 6d 35 82 3c 88 38 a4 bd dd dd d5 bc b1 ee 82 bd
       0.015894616 -0.08018595 -0.02610677 -0.06393183
000310 d4 65 82 3c b4 bc 8d 3d 78 f1 d8 bc b6 9b 94 bd
       0.015917696 0.06920758 -0.026482329 -0.07256262
000320 e5 26 94 bd 2a de d1 3c af 38 5d 3d cf b1 a8 3d
       -0.07233981 0.025618631 0.054009136 0.08237039
000330 b5 94 93 3d dc fa b4 bb 4a 37 20 3a cc c8 b2 3d
       0.07206098 -0.005523069 0.00061117543 0.08729705
000340 07 f8 9f 3d c7 66 d0 bc bf 22 0a bd f1 f5 9c bd
       0.07810979 -0.025439633 -0.033724543 -0.07664097
000350 2d 31 78 3d 67 b1 56 bd 17 35 69 bd 44 05 16 bd
       0.060593773 -0.052415278 -0.056935396 -0.036626115
000360 e3 4c b5 bd 88 90 4e 3d 0f 7c c9 ba 50 d8 78 3b
       -0.088525556 0.050430804 -0.0015372055 0.003797073
000370 f0 fe 86 bd 73 35 9d 3b 1c cf 90 3d 24 b1 8c 3d
       -0.06591594 0.0047976314 0.07070753 0.068697244
000380 d1 c1 a1 3c 63 8e a3 3b 7a 5f ba 3d 46 2b 82 bb
       0.01974574 0.004991339 0.09100242 -0.0039724438
000390 a4 c3 2e 3d c2 7e 0d bd 10 ef 37 bd a1 02 5f be
       0.042667046 -0.034544714 -0.044905722 -0.21778347
0003a0 d0 13 dc 3d 55 c1 e0 3e 16 c5 aa 3e 98 b7 de 3d
       0.107459664 0.438975 0.3335349 0.108748615
0003b0 ec 2d 39 3d 8f 6d e8 bd cc cf ba 3f c1 43 a1 be
       0.04520981 -0.11349022 1.4594665 -0.31497005
0003c0 90 75 0c c0 6c 08 02 bd 96 50 37 bf c9 ea 8f 3e
       -2.1946754 -0.031746313 -0.7160734 0.28108814
0003d0 7a 05 a7 bd 01 84 38 3f 8f 63 71 3e 17 b2 0a be
       -0.081553414 0.7207642 0.23573135 -0.13544498
0003e0 c2 4f 8b 3e a4 68 4c 3f 6f 58 64 bf fb 47 ed 3d
       0.27209288 0.7984717 -0.8919744 0.11585995
0003f0 e3 4b af 3e 67 6a 16 3e eb eb a7 3d 83 73 2e 3e
       0.34237584 0.14689027 0.08199295 0.17036252

Q2.0.bias f4 [256]
000000 a6 37 83 3f 4e 5d 34 3f fb 4f 47 bf 78 4b 4c 3f
       1.0251358 0.7045487 -0.77856416 0.79802656
000010 79 6b f4 bc 11 ac 31 3e 4f 3a 58 3f 4b 1a 37 3e
       -0.029836403 0.17350794 0.8446397 0.17881124
000020 85 a1 4d 3e 73 09 69 3f 8e 34 58 bf c5 47 f9 3e
       0.20081146 0.91030043 -0.8445519 0.48687568
000030 d7 26 3c bf cd 2b 90 3f 81 9f 23 bf bd 48 1a 3f
       -0.73496765 1.1263367 -0.6391526 0.6026724
000040 a0 5f b5 3e 88 0d 42 3f 84 d6 81 3f 86 a3 d3 3f
       0.3542452 0.758019 1.014359 1.6534278
000050 38 00 15 bf 19 28 2c 3f 98 50 9f 3f 55 e9 1c bf
       -0.5820346 0.67248684 1.244647 -0.61293536
000060 85 02 b3 3f 27 06 18 3f 2c af 82 3f 79 be f7 3e
       1.3985144 0.5938439 1.0209708 0.48387507
000070 08 a8 09 3f 5c b5 df 3e 7b 10 a6 3f 1e 24 97 be
       0.5377202 0.43693054 1.297378 -0.29519743
000080 b4 27 5e 3f fa 10 24 bf 99 74 04 3f c9 d8 52 3f
       0.8677933 -0.64088404 0.51740414 0.8236204
000090 01 43 59 bd d5 d6 36 3f c4 eb 47 bf d5 20 13 3f
       -0.053042416 0.7142156 -0.78094125 0.5747197
0000a0 39 c6 a3 bc 90 29 6c 3d 51 db b2 3f e6 32 56 3f
       -0.01999198 0.057656825 1.397318 0.83671415
0000b0 ee e2 a6 bb 07 54 5d 3c 40 54 74 bf f1 db 24 bf
       -0.00509297 0.013508803 -0.95441055 -0.64398104
0000c0 09 61 3b bf 8b 6e 7d 3f 0a c4 61 3e 9c bb 3d 3f
       -0.7319494 0.989968 0.22047439 0.74114394
0000d0 9a 9a 05 bf f7 46 b6 3e 13 c2 7c bf 4f a4 e7 3c
       -0.5218903 0.35601017 -0.98733634 0.02827659
0000e0 72 4a ad 3f 71 f0 f8 3c 86 fb 33 bf a1 65 97 3f
       1.3538344 0.030388089 -0.7030567 1.182789
0000f0 35 7d 4d 3f f6 9e 5e bf 58 0f 02 3f 72 1a 21 3f
       0.80269176 -0.86961305 0.5080466 0.6293098
000100 2f 61 9f 3e 87 38 a2 3e ea 9b 32 bf 28 05 d1 bd
       0.31128833 0.31683752 -0.69769156 -0.102060616
000110 16 67 29 3f d7 fe 40 bf ad a7 23 bf fd 3b 38 3f
       0.6617292 -0.75388855 -0.6392773 0.71966535
000120 b3 3e 36 bf 7d b8 3b bf 06 66 19 3f c9 ac 06 3f
       -0.7118942 -0.7332838 0.599213 0.526074
000130 ca b7 a7 3e 0c e2 4d 3f 1b 8b 2d bf 1e 7a 01 3f
       0.32757407 0.80423045 -0.67790383 0.5057696
000140 85 d0 5d bf dd 36 91 3f 86 16 42 bf a1 b2 fc 3e
       -0.866463 1.1344868 -0.7581562 0.49355033
000150 ac 69 c7 be bc 5e 98 3f 88 77 d8 3f e1 f6 8a 3f
       -0.3894781 1.1903911 1.6911478 1.0856591
000160 4b ca be 3f 23 6a 20 bf ef 39 85 3f 0e 8e 2d bf
       1.4905485 -0.6266195 1.0408305 -0.67794883
000170 02 74 6c bf f5 8a 81 bf 78 40 3b 3f e9 cb 90 bf
       -0.92364514 -1.0120531 0.73145247 -1.1312228
000180 36 fa 84 3f ac 0c 8f 3f d5 14 4f 3f e2 31 61 3f
       1.0388858 1.1175742 0.8089116 0.8796674
000190 90 84 9a 3e 05 d6 90 bd 3f ae 33 3e 5c d2 4a bf
       0.30179262 -0.07072071 0.17546938 -0.7922723
0001a0 a5 fc 21 bf 26 42 0f 3f 89 c3 34 bf 30 58 ef be
       -0.6327613 0.5596031 -0.7061086 -0.4674697
0001b0 bf ea 8f bf ce 17 7e bf 18 00 88 3f b5 fc 29 3f
       -1.1243514 -0.99255073 1.0625029 0.66401225
0001c0 cc 4c 93 3f dc 1b 23 3f 7b 0d 92 3f 7b 24 68 bf
       1.1507812 0.63714385 1.1410364 -0.90680665
0001d0 e6 a4 c6 3e b2 51 3d 3f 9a f7 05 3f 88 a1 ac 3f
       0.38797683 0.7395278 0.52330935 1.3486795
0001e0 6b c8 51 3f b1 39 21 3e 7b 0f 3f 3f aa 64 0a 3f
       0.8194644 0.15744664 0.74632996 0.5405985
0001f0 56 d3 23 3f 88 ca 8d bd 77 94 9e 3e 3f 5f 22 3f
       0.6399435 -0.069233954 0.30972645 0.63426584
000200 d6 df d6 3e af 2b 8b 3f ee 37 9b 3e 22 e5 a6 3e
       0.41967648 1.0872706 0.30316108 0.3259669
000210 a4 87 2b 3f b7 c6 17 bf 98 48 5d 3e 94 f2 93 3e
       0.67003846 -0.5928759 0.21609724 0.2889601
000220 db 9d 43 bf eb 2a b4 3e 05 a5 98 bf 33 6c d5 be
       -0.76412743 0.35188994 -1.192536 -0.41684112
000230 24 87 3c 3f 60 62 5b bf 2a a6 30 bf fa 0f da 3e
       0.7364371 -0.85696983 -0.69003546 0.42590314
000240 5c 6b 39 bf b7 bf 49 3f 2c b3 9b 3f 72 88 d6 3e
       -0.7242944 0.7880816 1.2164054 0.41900975
000250 d8 62 4c 3f 30 6d ae be f3 1e 12 3e d3 fd 32 3f
       0.79838324 -0.34067678 0.14269619 0.69918555
000260 67 6d 55 3f 68 24 32 3f 55 d6 62 bf 90 8e 1e 3f
       0.8337006 0.695868 -0.88608295 0.61936283
000270 35 b2 6a 3f 92 f5 76 3f 63 aa 03 3f fc d1 d2 be
       0.9167817 0.9646846 0.51431865 -0.4117583
000280 a5 de 53 3f 02 c3 06 bf 73 0b 7b 3f dd f1 8d 3f
       0.82761604 -0.5264131 0.98064345 1.1089436
000290 ac 62 08 bf d9 8a 27 3f 49 ea 20 bf e9 0d f2 3e
       -0.5327556 0.6544624 -0.6285749 0.47276238
0002a0 65 df 33 3f 09 c0 55 bf bb bd a1 3d 7f 38 38 3f
       0.7026275 -0.8349615 0.07897516 0.71961206
0002b0 ca 23 04 3f 7e 59 6a bf 5b 62 df 3e 41 ae 9e 3f
       0.5161711 -0.91542804 0.43629727 1.2396928
0002c0 9f a3 3b 3f b6 0c 84 bf 2f c3 25 bf 11 e1 73 3f
       0.7329654 -1.0316379 -0.6475095 0.952653
0002d0 be 9e 5d 3f f2 fa 88 3f e4 bc 0b bf 05 12 2c bf
       0.86570346 1.0701582 -0.545851 -0.67214996
0002e0 19 c9 9f bf 03 ed 70 3f 11 45 c8 3c 70 51 33 3e
       -1.2483245 0.9411165 0.024446996 0.17511535
0002f0 34 30 6e 3e da a4 83 bf ce 58 48 3f f1 5d ff be
       0.23260576 -1.0284684 0.78260505 -0.4987636
000300 18 2a 8c 3f 04 a7 8b 3f ee e1 81 bf c8 2f 3c 3f
       1.0950346 1.0910344 -1.0147073 0.7351041
000310 9a 93 7d 3f fe d2 55 3f b4 bd 9f 3f 4e 4d a9 3c
       0.9905335 0.83525074 1.2479768 0.020666745
000320 d8 e5 ab 3f bc 1e af 3e c1 88 99 3f 35 6a a9 3f
       1.3429518 0.34203136 1.1994859 1.3235537
000330 7d d2 aa 3e a4 e6 c4 3d 3d 51 d8 be 5c f4 8b 3f
       0.33363715 0.09614304 -0.4224948 1.0933948
000340 8b 9e a2 bf 1b 36 af 3e 5e 37 bf be a2 b4 1c 3e
       -1.2704633 0.34220967 -0.3734693 0.15303281
000350 de 56 07 3e 4a 0c b6 bd 2b e3 a8 3f 1d db e6 be
       0.13216731 -0.08889063 1.3194326 -0.45089045
000360 85 f4 65 3e 05 f7 93 3f 40 83 15 bf 7f 5c 98 3f
       0.22456558 1.1559759 -0.58403397 1.1903228
000370 49 8b b8 bc 7e 48 e4 3e a1 d1 04 3f d7 8d 44 3f
       -0.022527354 0.44586557 0.5188237 0.7677893
000380 7b f8 77 bf 78 5a f1 be fa 8e 9d 3f 5c 84 84 3f
       -0.96863526 -0.47139335 1.2309258 1.0352893
000390 63 c4 0f 3f 69 90 13 bd 13 02 93 3f 83 ec 9d 3c
       0.5615904 -0.036026392 1.1485008 0.019277817
0003a0 03 ff e9 be 7a 43 70 3f 7b e7 76 bf fa fc 73 bf
       -0.4570237 0.9385296 -0.9644696 -0.95307887
0003b0 b6 08 56 3e 41 fa a5 3f 43 1c 8d 3f 9f be 61 bf
       0.2090176 1.2966996 1.102425 -0.8818149
0003c0 60 f4 e4 3e dd 51 02 3e 11 4e 5a 3f 3e 1f 9e 3e
       0.44717693 0.12726541 0.8527537 0.3088321
0003d0 c0 8a 8a 3f b0 b1 2c bf d3 03 08 3f 6b 80 c9 3e
       1.0823593 -0.6745863 0.53130835 0.39355788
0003e0 d9 5e 1c 3f d2 b7 71 bf 48 d7 0b 3f 2c 1c 43 bf
       0.61082226 -0.9442111 0.5462537 -0.7621486
0003f0 99 9d 90 3f 98 fb 83 3f f1 74 27 3f 42 32 2f be
       1.1298095 1.0311155 0.65412813 -0.17109016
