trained_models/Walker2dNormal-v3/sac/actor_4.pt (torch, 296896 bytes, 8 tensors)

shared.0.weight f4 [256, 17]
000000 49 c2 9f be 44 bd 55 be 6e e1 4b bf 07 02 81 3f
       -0.31202915 -0.2087298 -0.79640853 1.0078744
000010 a6 19 0a bf ce 42 bf 3f 1e db f3 3f f8 11 30 3f
       -0.53945386 1.4942262 1.9051244 0.6877742
000020 3f 92 df be 38 e2 d3 3d 17 a4 4e bd 31 e9 72 bd
       -0.43666264 0.10345882 -0.050449457 -0.05930442
000030 1a ba 94 3d 48 93 53 bd 50 7d 21 3e 43 cd aa 3d
       0.072620586 -0.05165413 0.15770459 0.08339932
000040 d3 57 00 be 08 f1 99 be 5b 85 0e 40 2c 01 8e 3f
       -0.12533502 -0.30066705 2.2268894 1.1094108
000050 a9 da 40 3f 7e 7a 9f 3d 36 5d 57 c0 30 d5 6b bf
       0.7533365 0.077870354 -3.3650641 -0.92122173
000060 d0 19 e5 3e c3 e6 9d bf 1f 51 84 3e 2e 7d a7 3e
       0.44746256 -1.2336048 0.2584314 0.32712692
000070 31 d9 8a 3d a2 cb 95 3d 16 47 82 3c 84 83 82 be
       0.06779707 0.073142305 0.015903037 -0.25490963
000080 72 67 02 be 3d 61 99 3c 96 38 10 bf 3e 2c b2 3f
       -0.12734774 0.018723125 -0.56336343 1.3919752
000090 c8 7e ac 3f 56 e0 1e bf a4 39 ba be be 93 ee bf
       1.347619 -0.6206106 -0.363721 -1.8638837
0000a0 27 06 8d bf 3f 13 e2 bf e9 b4 90 3e d9 17 98 be
       -1.1017503 -1.7662123 0.28263023 -0.29705694
0000b0 cb d9 57 bd 36 d3 25 3c 51 fa 7a bc e5 0b 94 3c
       -0.052697938 0.010121157 -0.015318469 0.018072078
0000c0 fd d1 e4 bc 17 c4 67 3c cc 24 69 3c fb ae 2e bf
       -0.027932161 0.014145873 0.014229964 -0.6823575
0000d0 4a cd 84 c0 0d 35 a0 3f be 9d b7 3e 06 e8 ed 3d
       -4.1500597 1.251619 0.35862535 0.116165206
0000e0 49 ca 56 3f 78 3b 5a bf 7f 0b 25 3f 5e 19 88 bf
       0.8390241 -0.8524699 0.64470667 -1.0632741
0000f0 44 81 31 3f 18 10 13 be 19 f6 46 3e f8 d1 ec 3d
       0.6933787 -0.14361608 0.19429816 0.11563486
000100 cb 4a c6 bc b4 e4 06 3c ed f0 ea 3b 3c 04 a9 3d
       -0.024205586 0.008233238 0.007169834 0.08252761
000110 c7 95 10 3e 95 bb 37 be 89 61 3c bd 03 f4 35 40
       0.14119636 -0.1794265 -0.045991454 2.8430183
000120 c0 93 c0 3e d5 1a a7 3f ed 94 fa 3f 6d 17 e1 be
       0.37612724 1.3055063 1.9576699 -0.43963185
000130 c2 f9 56 bf f3 0e 41 3f 0d 2f 3d 3e b7 ea b5 bd
       -0.8397485 0.75413436 0.1847498 -0.08882659
000140 93 74 14 3d be 2e 9d bd 90 50 57 bd d1 7c 75 bc
       0.036243986 -0.07674931 -0.052567065 -0.014983372
000150 64 8a a2 3d f1 f5 35 bf 9c 4b 24 c0 1d c2 0c c0
       0.07936552 -0.710784 -2.5671148 -2.1993477
000160 0a ea d3 3d 6a d0 24 be 9e 22 d0 be 6a 3a 98 bd
       0.10347374 -0.16095129 -0.4065141 -0.074330166
000170 fe bb 9a 3c 11 07 ef bf 7e 66 5d bf a2 b6 f1 bc
       0.01888847 -1.8674031 -0.86484516 -0.029506031
000180 63 37 c7 3d bc ee 25 3e 28 9c 14 3c 34 d0 f0 3d
       0.09727361 0.16204351 0.009070434 0.117584616
000190 16 3d f2 3d 05 00 4b 39 c7 a6 b6 be 23 06 ab 3e
       0.118280575 0.00019359596 -0.35674116 0.3340312
0001a0 95 c7 21 bd ad d1 6b be 2f 27 e5 bd 33 e6 bb 3f
       -0.039496977 -0.23029204 -0.11189114 1.4679626
0001b0 53 ec 60 3f cb 52 01 3f 63 a5 9f be 6a f8 37 bd
       0.878606 0.5051696 -0.31180868 -0.04491464
0001c0 68 88 28 be c4 c2 bd 3c 96 bf e3 bd f6 14 92 3b
       -0.16458285 0.02316416 -0.111205265 0.004458065
0001d0 ec 08 5a 3e f4 9e 43 3e e7 bb 4c bd 15 c0 54 be
       0.21292466 0.19103605 -0.049983885 -0.20776398
0001e0 47 5d 60 c0 73 8e f2 3f ba 1e 04 40 04 a8 21 3e
       -3.5056932 1.8949722 2.0643754 0.15786749
0001f0 56 0a f9 bf 76 c1 0e 40 af 5f 09 3f fb 2b df be
       -1.9456279 2.230558 0.53661627 -0.43588242
000200 c4 77 56 3d 55 58 94 be 7d ae fc 3d 6a 18 01 3e
       0.05236031 -0.28973642 0.123379685 0.1260697
000210 ae 9f 14 3d ae b0 d5 3d df d5 c7 3d 95 66 8d 3b
       0.036285095 0.104340896 0.097575895 0.0043152072
000220 26 14 98 bd 27 80 7e be f1 a5 3d bf 55 f8 f1 3f
       -0.07425718 -0.24853574 -0.7408133 1.890391
000230 40 e1 78 bd e6 21 67 bf ad 82 51 3f 0c 9e 59 3f
       -0.06076169 -0.902861 0.8184002 0.85006785
000240 92 8c 73 bd c1 2d 97 3e ab 41 6a be 97 ae da bd
       -0.05946023 0.29527095 -0.22876613 -0.106778316
000250 bc 63 3f 3d 43 87 8d ba fc ce 8d 3e 86 a7 14 3e
       0.046725973 -0.0010797757 0.2769698 0.1451703
000260 b4 6c 30 3d 7a 73 0e be 9e f3 b7 3f 1c 59 f5 bf
       0.043072417 -0.13911238 1.4371221 -1.9167819
000270 97 1e b0 be e5 05 14 bf a3 f3 11 40 75 24 ca 3e
       -0.34398338 -0.57821494 2.2804954 0.3948094
000280 7e 0a 1a 3e 1e 91 8c bf f1 0b 80 3e a8 83 17 3f
       0.15043065 -1.0981786 0.2500911 0.59185266
000290 48 c1 70 be e4 71 a6 bd 56 38 6e bc 72 c5 36 be
       -0.23511231 -0.08127192 -0.014539799 -0.17848757
0002a0 02 a7 90 bd 17 cc 40 3d a4 95 bc be ed bd 28 c0
       -0.07063104 0.047069635 -0.36832917 -2.6365921
0002b0 11 a7 93 40 2e 9c 1b 40 f0 d4 18 3f 3b 78 a8 3e
       4.614144 2.4314075 0.59699917 0.3290423
0002c0 75 a2 0c 3f 08 d6 16 3f e3 62 97 bf a2 92 94 be
       0.5493539 0.58920336 -1.1827053 -0.29018122
0002d0 0a d8 b4 3e 48 da 9c bd bc 9d d8 bb 5f ac 8e 3c
       0.35321075 -0.07658821 -0.0066106003 0.017416177
0002e0 57 fc 8c bd 89 b0 e9 3c fa a8 8c 3c bd ff cf be
       -0.068840675 0.028526561 0.017170418 -0.406248
0002f0 90 f9 0f 3f d4 08 46 3f 7a a2 dc 3e 47 f2 2a bf
       0.5624018 0.7735722 0.4309271 -0.66775936
000300 19 95 94 3f ca 4a 99 3e 4c 6d 9b bf 33 c9 36 3e
       1.1608001 0.29939872 -1.214273 0.17850189
000310 21 f9 36 bf 5a d2 ab 3e cc 6a 16 3c ac e1 ce bc
       -0.7147389 0.33558923 0.009180736 -0.025254093
000320 50 60 7a bd 1d b7 26 be 5d 51 a5 bd 1c 20 2e be
       -0.061127007 -0.1628079 -0.080721594 -0.17004436
000330 e0 47 01 3e 01 a3 02 c0 e6 50 eb 3f d1 42 59 3f
       0.12625074 -2.041199 1.8384063 0.8486758
000340 05 9f 08 bf f0 d4 68 bf 10 1b bd 3e 72 cb 44 3c
       -0.53367645 -0.90949917 0.3693471 0.012011396
000350 ad dd 0f bf 6c f8 a5 3f 4e fa 02 3c ff 7e 68 3e
       -0.56197625 1.2966437 0.007994248 0.22704695
000360 d8 22 b5 3d 3a 84 09 3e 4d d9 31 be d0 41 06 bd
       0.088445365 0.13429347 -0.1736805 -0.032777607
000370 b8 85 cc ba a0 24 21 be 34 19 ef 3f 29 47 9e be
       -0.0015603816 -0.15736628 1.8679566 -0.30913666
000380 3f 74 44 bf 61 4e 5f 3e 83 d5 20 40 1d 1e b5 3f
       -0.7673988 0.21807243 2.5130317 1.4149815
000390 e6 45 42 3e bc 14 86 3e f6 a7 16 3f 26 47 1c be
       0.18971977 0.26187694 0.5885004 -0.15261516
0003a0 bf e1 46 bc e2 80 50 bc 8e 21 ab bc 7c f0 d9 3d
       -0.012138783 -0.012726041 -0.020890024 0.10641572
0003b0 f5 60 7e 3d f7 fa 3b 3d 0f b0 8d bf 9d 3b b6 3f
       0.062104184 0.045893636 -1.1069354 1.4236943
0003c0 74 09 af 3f e9 9e af bd 74 1c a3 bb 17 33 8b 3e
       1.367476 -0.085752316 -0.004977757 0.27187416
0003d0 77 e0 08 bf 0d 5c a6 3f 8e c6 7d 3e 59 1d 52 be
       -0.53467506 1.2996842 0.24782774 -0.20519008
0003e0 1f 05 aa 3d 0b 64 3a 3e 31 88 bb 3d bf 8b cb bc
       0.08301758 0.18202226 0.09156836 -0.02484691
0003f0 d9 71 50 be fe 02 a5 bd 46 2d 74 bc c3 14 d6 bc
       -0.2035593 -0.08057211 -0.014903372 -0.026132947

shared.0.bias f4 [256]
000000 1d b9 9e 3d d8 7a 0d bd 0c 7b 41 bf 08 77 c2 be
       0.07750151 -0.03454098 -0.7557838 -0.3798144
000010 9d eb 42 be 67 21 3d bf 05 ce f8 3d 0d 06 1b bf
       -0.19035192 -0.7387909 0.1214867 -0.6055611
000020 85 b0 11 bf c8 e8 a2 3d 9b 64 35 be 05 ff ef bd
       -0.5690997 0.07954556 -0.17714159 -0.11718563
000030 77 ad b4 be de d7 d4 be 73 22 73 bd 78 e9 2d be
       -0.35288593 -0.41570944 -0.059359025 -0.16983593
000040 71 eb bb be 37 ea 5f bf c3 d3 4c bf 4b 27 9f bf
       -0.36703065 -0.8746676 -0.8001062 -1.2433866
000050 0c b1 4d be 29 a1 5b bf 5b ea 1b bf 0b 45 fe be
       -0.2008707 -0.85792786 -0.60904473 -0.4966205
000060 c0 bf 86 bf 04 27 9c bf 48 36 3b bf d3 ef 4b bf
       -1.0527267 -1.2199407 -0.731297 -0.7966282
000070 40 84 42 bf 6d 19 a4 bf 1d 9c 45 bf 98 f3 0a bf
       -0.7598305 -1.2820259 -0.77191335 -0.54277945
000080 40 16 92 bf ac 19 27 bf d9 7b 0c bf 9f c2 de bf
       -1.141304 -0.6527355 -0.54876477 -1.7403144
000090 ae 84 ea be bf 8c df be c3 fb 45 bf 81 71 58 bf
       -0.45804352 -0.43662068 -0.7733728 -0.84548193
0000a0 f8 27 47 bf 71 fc 04 bf 14 10 a6 be 01 79 17 bf
       -0.7779536 -0.51947695 -0.32434142 -0.5916901
0000b0 98 11 35 bf 23 b7 8a bf 4c 83 17 c0 b6 fd 49 bf
       -0.7072997 -1.0837139 -2.3673887 -0.7890276
0000c0 5e 30 1f bf aa 27 97 3d bd 72 dc be 47 76 c9 be
       -0.6218318 0.07380612 -0.43056288 -0.3934805
0000d0 4c 4b 58 bf 01 ce 0f bf d7 a5 b5 bc 01 a1 4f bf
       -0.84489894 -0.5617371 -0.022173805 -0.8110505
0000e0 ac d6 eb be 2a e4 2e 3e 22 68 00 3f 13 72 5d bf
       -0.4606222 0.17079225 0.50158894 -0.8650219
0000f0 f4 39 a9 be 33 56 32 bf fd d5 6b bf d9 81 1b bf
       -0.33052027 -0.6966278 -0.92123395 -0.60745007
000100 9a 2a da be e9 48 84 bf 1f cb 57 bf 8b 77 a7 bd
       -0.42610627 -1.033475 -0.84294313 -0.08177098
000110 1f 8d 04 bf 38 ec 97 be 45 d6 3a be b0 a8 49 be
       -0.51777834 -0.29672408 -0.182458 -0.19693255
000120 38 c8 0f be 70 db 76 bf a3 85 0f bf ae 64 48 bd
       -0.14041221 -0.96428585 -0.5606329 -0.04892414
000130 38 1c 7f bf a0 1d d0 be 11 fe 88 bf f9 99 55 3d
       -0.99652433 -0.40647602 -1.0702535 0.052148793
000140 e0 8f fd be a6 0d cf bc 15 ba 24 bf e8 0f 72 bf
       -0.4952383 -0.025275063 -0.6434644 -0.9455552
000150 d6 f5 3f bf f4 04 88 bb 22 73 04 bf 18 92 3b bf
       -0.7498449 -0.004150981 -0.5173818 -0.73269796
000160 2b ff 08 3e 06 16 69 bf 72 44 8a bf 00 75 d8 be
       0.13378589 -0.9104923 -1.0802138 -0.42276764
000170 6e 9a d3 bf 4f f0 77 bf ed 41 90 be e0 5c 91 be
       -1.6531503 -0.96851057 -0.28175297 -0.2839117
000180 ac eb a3 be 65 43 2a bf e8 79 43 be 3e d3 be be
       -0.3201574 -0.66509086 -0.19089472 -0.3727054
000190 d0 4c 8d bf 69 be 0d bf 44 b7 a9 bf db 35 67 bf
       -1.1039066 -0.5536867 -1.3259053 -0.9031655
0001a0 c9 0d ef 3d 8d 17 56 be 5e 2d 9f 3a 85 74 61 bf
       0.11672551 -0.20907421 0.0012144258 -0.8806842
0001b0 d0 cb 6e bf ae 79 ad be 28 f2 bb be 35 7e 12 be
       -0.93279743 -0.33881897 -0.36708188 -0.14305957
0001c0 2d 24 ff bd bb e1 40 bd f8 73 79 be 92 c6 38 be
       -0.12458072 -0.047090273 -0.24360645 -0.18044499
0001d0 c7 75 27 bf 32 dc ce be b3 ec 04 be ea 70 1d bf
       -0.6541409 -0.4040237 -0.12980919 -0.6150042
0001e0 88 6c 29 bf da 0a 15 3e 46 22 9f bf f4 d2 23 bf
       -0.6618123 0.14554921 -1.2432334 -0.63993764
0001f0 cc b1 69 3f 40 c2 21 be 87 bb f0 be 9a 66 94 be
       0.9128692 -0.15796757 -0.47018072 -0.2898453
000200 ec 1f 5a bf 39 96 42 3e 51 04 80 be 88 33 5f bf
       -0.8520496 0.19002618 -0.25003293 -0.87188005
000210 4e bb 5c bf c1 12 e1 be d4 2e e8 be 87 41 0d bf
       -0.86223304 -0.4395962 -0.45348227 -0.5517811
000220 d3 c3 11 bf ea 00 c0 bd 34 09 37 bf f2 dd 92 3e
       -0.5693943 -0.09375174 -0.7149842 0.28684956
000230 46 a7 57 3f 22 cb 7e be 62 93 9c bf ec ea 27 bf
       0.84239614 -0.24882177 -1.2232478 -0.6559284
000240 a0 7e 85 3d 82 98 ca be 1b eb 69 bf b0 dc 2c bf
       0.065182924 -0.3956948 -0.9137437 -0.6752424
000250 b4 c8 73 bd 62 df a6 bd 69 61 da be 15 da 8a be
       -0.059517577 -0.08148076 -0.42652443 -0.27119508
000260 07 b8 7a be 05 0f 63 bf db b6 3b be 87 b1 59 bf
       -0.24484263 -0.88694793 -0.18331473 -0.8503651
000270 b5 1a c0 be 75 34 df bd 9b a3 fc bc 3b 2b c2 be
       -0.37520376 -0.10898677 -0.030839732 -0.37923607
000280 1c d4 07 3c 51 33 ec bd 0e ef 5b 3e 3e 0c 96 bf
       0.008290317 -0.11533225 0.21477911 -1.1722486
000290 da a5 3a bf 76 57 6b bf fc 39 9b 3e cc 19 8e bf
       -0.7290932 -0.9193033 0.30317676 -1.1101623
0002a0 ad 4e eb bf 58 f1 44 bf cb 02 3b bf 5a da f6 3e
       -1.8383385 -0.7693076 -0.73051137 0.48213464
0002b0 3c b8 22 be 22 10 b2 3d 31 9d 15 bf a6 09 99 bc
       -0.15890592 0.08694483 -0.5844298 -0.018681359
0002c0 8d 4f 8e be 1d 3c 69 bf 25 70 76 be e2 2b 6f 3b
       -0.27795067 -0.9110735 -0.24066217 0.0036494662
0002d0 cf 7d a9 be bb a8 3e bf a4 0d 80 be 77 65 c1 3d
       -0.33103797 -0.7447621 -0.25010407 0.09443181
0002e0 6e d1 80 bd 8a 75 3c bf b3 e3 1f bf 12 7f c2 be
       -0.062899455 -0.7361685 -0.62456816 -0.37987572
0002f0 f2 c3 07 be f9 23 b1 be d6 4d 9d be 94 f3 d0 be
       -0.13258341 -0.34597757 -0.30723447 -0.40810835
000300 41 e0 59 3e 17 65 14 bf a3 31 19 be 4f aa fd be
       0.21276952 -0.5796675 -0.14960341 -0.49543998
000310 de 09 d0 bc 09 a8 95 be 3f 85 78 be 9c de 05 be
       -0.02539533 -0.29229763 -0.2426958 -0.130732
000320 a5 c5 04 bd 1e 96 c6 be be 88 01 be ff 82 b1 be
       -0.03241505 -0.38786405 -0.12649819 -0.34670255
000330 66 a0 c0 be 92 d7 43 bf 4d f9 de be 46 a4 78 3e
       -0.37622374 -0.7650081 -0.43549576 0.24281415
000340 e0 e0 51 be e9 b1 0b bd 86 5d 65 3e 29 a8 94 be
       -0.20495939 -0.034105215 0.22398958 -0.29034546
000350 58 f7 88 3e 51 6b 14 bf ee df 62 bd 4e 09 f2 be
       0.26751208 -0.5797625 -0.055389337 -0.47272724
000360 d1 3f 72 bf 4e e8 fa be 88 b3 82 bf 8d 38 0f bf
       -0.94628626 -0.4900536 -1.0211039 -0.55945665
000370 56 e3 9d be be b7 02 bf da b3 91 bf 35 45 36 bf
       -0.30837506 -0.5106162 -1.1383011 -0.7119935
000380 3c f0 69 bf 4c 47 89 bf f8 43 29 bf e9 69 87 bc
       -0.91382194 -1.0724883 -0.6611934 -0.016529994
000390 07 b6 07 3f 5c e1 52 bf 3a bb aa bf f5 f1 80 be
       0.53012127 -0.8237512 -1.3338387 -0.251846
0003a0 02 54 22 bf 0e 93 7f be e0 5b 0e bf da 74 f8 be
       -0.63409436 -0.2495844 -0.5560894 -0.4852665
0003b0 86 70 83 bd c6 df 23 3e 03 9f 78 bf 47 f1 db bf
       -0.064179465 0.16003332 -0.9711763 -1.7183007
0003c0 88 48 ec bd 54 aa 01 bf c3 2c 0d 3f 9d 59 84 be
       -0.11537272 -0.50650525 0.55146426 -0.2584962
0003d0 51 a3 91 bf 1f cd 1d be 61 36 34 bf a7 74 6e 3e
       -1.1377965 -0.15410279 -0.70395476 0.23286687
0003e0 cd 88 c7 bf 2f 39 09 bf 3c bf 1b be 87 27 0f bf
       -1.5588623 -0.5360288 -0.15209669 -0.5591969
0003f0 f0 78 b1 be 8b 9e f2 be f7 e4 84 bd 9b bb d9 be
       -0.3466258 -0.47386584 -0.06488984 -0.42525944

shared.3.weight f4 [256, 256]
000000 ca 1e d0 be b9 1a 11 3e 81 5f 57 be 63 94 71 3e
       -0.4064849 0.1417035 -0.21032526 0.23591761
000010 d0 53 92 3e 48 a2 04 3f af a8 03 be ca c3 b8 be
       0.2857957 0.5181012 -0.12857316 -0.36086875
000020 ca 39 2e be 3d 88 af bc b0 27 f3 bd 68 cd c7 be
       -0.17014232 -0.021427268 -0.11872804 -0.390239
000030 41 07 6c 3d 12 69 61 3e 1f 81 14 be 00 be e9 bf
       0.057624105 0.22012737 -0.14502381 -1.8261108
000040 2b 68 4f bd 3b b8 60 3d 93 fa b9 3d 7b 67 3c bf
       -0.05063645 0.054863196 0.09080996 -0.735954
000050 4d 1c b3 bd 8a e6 77 be 8a 17 07 3d 9a df 6a 3e
       -0.08745632 -0.24209037 0.032981433 0.2293686
000060 04 9d 00 bf 48 aa cf 3d 31 76 d2 3e 52 6e a3 be
       -0.50239587 0.101399004 0.41105798 -0.31920105
000070 10 98 d1 bf 38 81 e3 3d 28 48 aa 3e ed a9 94 3c
       -1.6374531 0.11108631 0.33258176 0.018147433
000080 b3 e9 75 3c f6 ef 62 3e 91 ed e4 be 59 7c e0 bd
       0.0150093315 0.2216185 -0.447125 -0.109612174
000090 3e 0e 3f be 1e f9 d2 bd 52 eb a9 be b2 22 04 3f
       -0.18657777 -0.103014216 -0.33187348 0.5161544
0000a0 61 b7 5b be 83 8e 3b be 28 a4 58 bc de 1d 0f bd
       -0.21456672 -0.18316083 -0.013222732 -0.034940593
0000b0 97 f0 03 3e 5d 2f c9 bd 13 95 98 bd 7b f6 69 3e
       0.12884746 -0.09823487 -0.07450309 0.22847931
0000c0 3e 7c 3c bd 16 5b 01 be 99 12 c6 bc 6f 0c 06 bf
       -0.046016924 -0.12632403 -0.02417879 -0.5236272
0000d0 26 9a 66 3d 39 2d 1a 3e 6d 4c a8 be d8 b1 fa bc
       0.05629935 0.15056314 -0.32870808 -0.03060238
0000e0 64 cd 68 be f9 9e 9f be 98 ea 35 be 71 1d 62 3e
       -0.227346 -0.31175974 -0.17765272 0.22081544
0000f0 a0 e7 34 be 79 5c 2a be 45 fc 81 3e 43 4d e5 bb
       -0.17666483 -0.16636838 0.2538778 -0.0069977357
000100 6c ce 03 3f 1d cb 40 be 2a ff fe 3d f9 0e 8c be
       0.5148685 -0.18827482 0.124510124 -0.27355173
000110 fd f9 6d 3e 47 aa dc 3d ef e3 0b bf 03 bb 87 bf
       0.23239894 0.10774665 -0.54644674 -1.0603946
000120 aa a3 47 3e 8b e2 c7 3d 17 2e 10 bf 3f 38 84 be
       0.19496027 0.097600065 -0.5632033 -0.25824162
000130 4c e2 12 bd e4 76 83 bb 61 93 45 3e ec c8 c4 3d
       -0.035860345 -0.0040119756 0.19294502 0.09608635
000140 34 32 2f be 14 bc 82 be 27 02 ce be 6e 44 0d be
       -0.17108995 -0.25534117 -0.40236017 -0.13795635
000150 bf dc fe 3d 0f c8 64 bd 7f c6 ee 3e 16 73 b9 3e
       0.12444448 -0.055854853 0.46635816 0.36220616
000160 67 34 bf 3c 98 67 43 bd 18 80 d2 3e 91 4e c5 3c
       0.023340417 -0.047706217 0.41113353 0.024085315
000170 35 26 ba be 4b 2f 3f 3e 1e 1d 9d be 49 77 20 be
       -0.36357275 0.18670385 -0.30686277 -0.15670504
000180 fb 91 7d be 88 33 e6 3e 1b 13 09 3d 28 b1 ce 3d
       -0.24762718 0.4496119 0.033465486 0.100923836
000190 d4 79 39 bc 3f 0c 7f bd 08 19 63 be 85 3a 4b 3e
       -0.01132055 -0.06226754 -0.22177517 0.19846542
0001a0 cb 24 9a bd 73 bf 7f 3e 16 3c 1c 3e 7a a4 9d bb
       -0.07526549 0.24975376 0.15257296 -0.004810867
0001b0 eb c0 93 bd a9 25 35 3d de d1 75 3d 34 e3 87 3d
       -0.072145306 0.04422537 0.060014598 0.066351324
0001c0 17 8e c5 bc 9e ce b7 bd 03 07 dd 3c 4b 81 50 bd
       -0.024115605 -0.08974956 0.026980883 -0.050904553
0001d0 bd 99 c6 be 01 e7 21 bf b0 da 36 3e 31 2a 89 3e
       -0.38789168 -0.6324311 0.1785686 0.26790002
0001e0 9b db 9e be 5c 0c b5 3e 60 0f 6e 3e 73 ce aa be
       -0.3102692 0.35360992 0.23248053 -0.33360633
0001f0 54 d7 08 3e 8e fc 4d 3d 60 bc 4f bd c5 54 07 3d
       0.13363391 0.050289683 -0.050716758 0.033039827
000200 82 21 96 bd 02 99 c1 3d af 49 25 3d 80 ec a7 3e
       -0.0733061 0.09453012 0.040353473 0.32797623
000210 02 e0 dd 3e 11 36 09 3d 32 0f 70 3e fc 25 32 be
       0.43334967 0.033498827 0.23443297 -0.17397302
000220 c0 be aa bd 73 ea 61 be 4a 83 5a bd 92 09 b8 be
       -0.08337164 -0.22062092 -0.053347863 -0.35944802
000230 77 f8 c7 bd b0 ba cc bd 10 44 dd be 41 86 4c 3d
       -0.09764188 -0.09996545 -0.4321599 0.049932722
000240 a4 d0 3b bd c6 ba d7 bb 91 63 f0 be 36 e0 cc 3d
       -0.045853272 -0.0065835444 -0.46950963 0.10003702
000250 44 81 30 bf f1 a1 bb 3e a7 dd 00 3f 78 ac 24 be
       -0.68947244 0.3664699 0.50338215 -0.16081417
000260 d2 4f 5b be ba ff 3e be 38 be 3f 3d 37 c2 14 be
       -0.21417168 -0.1865224 0.046812266 -0.14527212
000270 d3 9a a0 bf 05 38 04 be 94 a9 04 3f 1c 5e b6 bd
       -1.2547249 -0.12911995 0.51821256 -0.08904669
000280 03 30 c3 3d b8 7d ba be e5 08 f2 bd a2 43 01 3e
       0.09530642 -0.3642404 -0.11818103 0.12623456
000290 21 f3 f9 bd 5b bc c2 be 5c 5a 51 be 7f 06 1a 3f
       -0.12204576 -0.3803433 -0.20444626 0.6016616
0002a0 ae d6 9a 3e cc 1f 31 3e f6 82 fe 3d ba e2 b8 bd
       0.30241913 0.17297286 0.124273226 -0.0902762
0002b0 f3 47 c6 3d fb c9 e6 be 4a 00 a0 3e 39 f8 67 be
       0.09681692 -0.45075974 0.3125022 -0.22653283
0002c0 d4 60 f6 bb f7 c1 21 be fb 43 9a 3e e6 8c a9 bd
       -0.007518867 -0.15796648 0.3012999 -0.08278827
0002d0 2f 01 21 3e 31 d9 06 be fe 72 79 3e 76 8a e5 be
       0.15723108 -0.1316879 0.24360272 -0.448322
0002e0 33 26 ce bd 3e ba fe bd 19 80 0c c0 9b a2 1b 3d
       -0.1006588 -0.12437867 -2.1953185 0.03799687
0002f0 4a 3e dd 3d 8f db ab 3e 3d 84 d3 3d 74 69 83 be
       0.10802896 0.33565947 0.10327957 -0.25666392
000300 ca e5 91 3e e5 a0 72 ba 45 16 4e bd fc 74 89 be
       0.28495628 -0.00092555425 -0.050314207 -0.26847064
000310 e8 f4 c1 3c 86 9a db 3e be 6c 21 3d 9a 17 90 bd
       0.02367635 0.4289133 0.039410345 -0.07035752
000320 bc c8 9f bd 59 71 22 be b5 8f 02 bf bd 53 80 be
       -0.07801959 -0.15863551 -0.5100053 -0.25063887
000330 7e 8a 3b 3e 85 da af bd 60 54 c6 3d 80 24 3f 3e
       0.1831455 -0.08586601 0.09684062 0.18666267
000340 e4 1d cf 3e 8c 37 53 3b 03 aa 6e 3e ef 42 74 be
       0.40452492 0.0032229153 0.23307042 -0.23853658
000350 64 8b 30 bf 1f 71 9e 3d 7b d0 9c bf f7 24 2d bd
       -0.68962693 0.0773642 -1.2251123 -0.04227158
000360 ae 2d d3 3d 2e 78 b4 be 25 a2 1d 3e 6d b5 14 be
       0.10311447 -0.3524794 0.15393884 -0.14522333
000370 6f cb 80 3d 2b 6c 8a be ee 4f 55 bd 97 08 a9 be
       0.06288802 -0.2703565 -0.05207818 -0.33014366
000380 0a 54 d5 3e eb 3d a9 be f0 61 d6 3d be ce 21 be
       0.4166568 -0.33055052 0.10467899 -0.15801522
000390 df 99 82 be 5d 6a 35 bd 2c e5 54 3e 96 13 d4 bf
       -0.2550802 -0.04429089 0.20790547 -1.6568477
0003a0 a0 8e d8 be ac 81 8a bd 44 07 38 bd 50 36 78 be
       -0.42296314 -0.06763014 -0.044928804 -0.24239469
0003b0 d6 d4 77 3e 8d 36 e8 3e 33 94 1e be 1d 2c a0 be
       0.24202284 0.4535412 -0.15486221 -0.31283656
0003c0 57 c5 54 b9 3f 0d 02 be 71 09 e1 3d 1a 51 28 3e
       -0.0002029141 -0.12700365 0.10988129 0.16437188
0003d0 c5 09 ab be 60 2b cb 3e e2 24 84 be c5 78 a5 3d
       -0.3340589 0.3968153 -0.2580939 0.080796756
0003e0 ac bc 02 3f 5b d1 19 3d 63 5b 9f bb 8e 87 17 bf
       0.5106914 0.037553173 -0.004863189 -0.59191215
0003f0 0b a6 75 be 52 92 23 3e c8 e4 a8 3e e2 56 55 be
       -0.23989122 0.15973786 0.32987046 -0.20833924

shared.3.bias f4 [256]
000000 cc ae b4 3e 00 90 c6 be 63 31 2a 3e d7 16 32 3e
       0.3528961 -0.38781738 0.16620402 0.17391525
000010 68 d3 c4 3e 29 b5 dd be ca 03 f5 be e6 52 2d bf
       0.3844254 -0.43302277 -0.47854453 -0.6770462
000020 f2 68 80 3e 4f 7c 76 3e ab 27 8f 3e 09 8d 7d 3d
       0.25080067 0.24070857 0.27959952 0.06190208
000030 24 cb da 3e ae 7e e2 3d 7c 29 d5 3e bb 6f de 3e
       0.4273311 0.110593185 0.41633213 0.4344462
000040 3e 85 bf bd d2 f1 5d 3e bf 25 b1 be d0 de c0 bd
       -0.09351586 0.21674278 -0.3459911 -0.09417498
000050 39 69 0f 3f 47 79 08 be 60 3c 0f 3f ee a2 a6 bd
       0.5601993 -0.13327514 0.559515 -0.08136545
000060 a5 79 55 3e 7f ce b6 3d d8 7d 0c bf 26 9b cb be
       0.20847185 0.08926105 -0.5487952 -0.39766806
000070 31 d1 54 3e ee 70 c8 3d d3 d3 05 c0 df b5 02 be
       0.20782925 0.09787165 -2.0910537 -0.12764691
000080 d0 e3 bd bc 56 26 bf 3d 9f 06 ab 3e 00 2e 20 3e
       -0.023179919 0.09333484 0.3340349 0.15642548
000090 49 5d 15 3f d1 20 39 3f 47 c1 ee 3c 20 71 08 bf
       0.58345467 0.723157 0.029144896 -0.53297615
0000a0 51 e9 4c 3d 2e e7 b5 bf 21 b9 1c bf 1b 8c d7 be
       0.050027195 -1.4211175 -0.61219984 -0.4209908
0000b0 c0 3a a5 3e 41 4d 03 3e 90 fd 5b bd bd e4 fa be
       0.32271385 0.12822439 -0.053708613 -0.49002638
0000c0 48 bd 49 3e 1f d3 7e bf 19 e5 da be b6 a5 8e be
       0.19701111 -0.99540895 -0.42752913 -0.27860802
0000d0 98 0b 9f 3e ec a4 e1 be 7a dd f7 3e 01 a7 2e bf
       0.31063533 -0.44071138 0.4841116 -0.6822358
0000e0 31 f2 b0 bf a5 4c 91 bd 90 14 dd 3e fa 68 92 3e
       -1.3823911 -0.07094697 0.4317975 0.28595716
0000f0 8f fe e3 3e f3 4a 06 bf 0c 88 0b bc df b1 60 3e
       0.4453015 -0.52458113 -0.008516323 0.21942852
000100 7e 84 4f bf 58 f8 46 3e 20 b5 c5 be ca ab 45 bf
       -0.8106154 0.19430673 -0.3861475 -0.77215254
000110 b6 18 25 bf 03 2b 73 3d c4 d1 cc be be 7c 16 bc
       -0.6449083 0.05936719 -0.40003788 -0.009185014
000120 d3 9b 3a be ec 9e 15 be ad 1a a4 3e 06 c3 cd 3e
       -0.18223505 -0.14611405 0.32051602 0.40187854
000130 56 04 c4 be 39 04 30 bc 6a ac 90 3d 7c 1b 38 3f
       -0.38284558 -0.010743194 0.070641354 0.7191694
000140 56 38 ef be a7 ef 32 3e 4d 55 0d bf 7e 73 06 bf
       -0.46722668 0.17474233 -0.55208284 -0.5251998
000150 f8 d7 40 3e a9 f7 3a be 06 00 e4 be 27 f7 20 3f
       0.18832386 -0.18258537 -0.44531268 0.62877125
000160 d5 1c 0f 3e f5 dc 4f bc 89 e9 b1 be c0 4f 63 3e
       0.13975842 -0.012686958 -0.34748486 0.22198391
000170 ee 2a 1a 3d c1 a7 46 be 9a 4b 49 be ad 6c 74 bf
       0.037638597 -0.1939993 -0.19657746 -0.95478326
000180 1b a0 1c 3f 85 20 a1 3d e2 ed 71 3e 4a a3 ce 3e
       0.611818 0.07867531 0.23625901 0.40358955
000190 b0 45 c8 3d ea 74 51 be e9 15 b4 3e 54 e6 da bd
       0.09778917 -0.20454755 0.35172966 -0.10688463
0001a0 30 4b 70 3e e2 2f fc bd b7 a3 31 3e 1f bf 6c bc
       0.23466182 -0.123138204 0.17347609 -0.014449864
0001b0 2f 10 87 bd e3 80 fa bb 11 d3 40 3e d6 2f 2b 3f
       -0.06594884 -0.007644759 0.18830515 0.66869867
0001c0 98 35 6a bf e6 b5 ab bd 64 ea e3 3e 00 b2 8e 3d
       -0.9148803 -0.08384304 0.44514763 0.069675446
0001d0 a7 d1 73 bf 04 d7 a1 3e c1 e8 51 3e f9 0d 99 3d
       -0.9524178 0.31609356 0.20498945 0.07473368
0001e0 32 97 83 3e 09 de fe bd d6 6f 28 bf 90 ef c6 be
       0.2570129 -0.124446936 -0.6579565 -0.38854647
0001f0 78 38 f5 be 70 63 e1 be ad 06 a0 bd d6 36 ac 3d
       -0.47894645 -0.44021177 -0.07813773 0.084088966
000200 69 72 e2 3e fc d7 39 bf 4c 92 fe be d0 bd 5f be
       0.44227913 -0.7259519 -0.4972099 -0.21849751
000210 2d ff b1 3d 68 58 df 3d 00 24 35 3d 0f 15 65 3d
       0.08691249 0.10905534 0.044223785 0.055928286
000220 da 35 e6 be c6 2d 5a bf 21 9d 02 bd 5e f8 24 bf
       -0.4496296 -0.85226095 -0.03188813 -0.6444148
000230 65 a3 a9 3e 91 53 96 be bc c7 2c 3e 80 56 96 bd
       0.33132473 -0.2936063 0.16873068 -0.07340717
000240 55 f6 67 3e b1 50 45 bf 5c 5f 71 3e 52 03 09 3e
       0.22652562 -0.7707625 0.23571533 0.13380173
000250 d5 cd 14 3e 87 98 ed bd 58 58 fb 3d 3c fb 94 be
       0.14531644 -0.11601358 0.122727096 -0.29097927
000260 fc a0 8a 3e 52 40 8b 3d 16 21 10 be c9 40 1c 3e
       0.27075946 0.067993775 -0.14075121 0.15259089
000270 eb 83 37 bf bb 34 b4 3e f7 38 e9 3d 2e cb c9 3e
       -0.71685666 0.3519648 0.11387818 0.39412826
000280 de 6e 06 be c4 a2 87 3e 1a 24 7f 3e 05 19 02 3f
       -0.1312823 0.26491368 0.24916115 0.50819427
000290 4c 6b 5a bf c2 dc 0f 3f fa ca 20 3f 85 7a 1e 3d
       -0.8531997 0.56196225 0.6280972 0.038691062
0002a0 b8 76 8a be e5 a7 ed bf 8c 34 cf 3e f7 0f ca bd
       -0.270437 -1.8566862 0.40469778 -0.09866326
0002b0 5c 07 96 bf 48 26 5e 3e 3a 21 85 be 62 08 fb 3e
       -1.1720996 0.2169429 -0.26001912 0.49029833
0002c0 97 d5 8f 3d dc a4 b2 bf 17 86 ea 3e db de 60 3e
       0.07023161 -1.3956561 0.45805427 0.21960013
0002d0 5e 6d 26 3e d2 e4 c8 bf 2b ca a7 3e 22 01 a5 3d
       0.16252658 -1.569483 0.3277143 0.08056857
0002e0 5f a8 99 bf e6 ee f9 bf 0d a2 99 3e f3 24 17 3e
       -1.2004508 -1.9526031 0.30006447 0.14760189
0002f0 fc b9 ac bc f7 bf 09 3f fe cd b6 bd 90 d9 05 3f
       -0.021084778 0.5380854 -0.08926009 0.522851
000300 50 ea 8c 3e ce 6d 0b 3d 0d 20 b6 3e 16 91 b4 3c
       0.27522516 0.034040265 0.35571328 0.022041839
000310 d9 00 10 bf de 11 5e 3e f3 6d 56 bf e8 b1 98 3e
       -0.56251293 0.21686503 -0.8376152 0.29823232
000320 0a 37 f0 3e d9 2d 2b 3e ff de 08 bf 44 9c 22 bf
       0.4691699 0.16716708 -0.53465265 -0.6351969
000330 4d 31 44 bf a7 2f a5 3e 3a de f0 be fa bb a9 be
       -0.7663773 0.32262918 -0.47044545 -0.33151227
000340 c7 52 99 bf ee 5a 3c bd 10 9a 2f bf 25 cf c8 3e
       -1.1978387 -0.045985155 -0.68594456 0.3922054
000350 08 3a b1 3d 03 c3 64 3e f0 46 fd 3c d8 49 e8 be
       0.08653647 0.22340016 0.030917615 -0.45368838
000360 50 46 97 be d5 61 a4 3e e6 75 38 3e fd 1d 2a 3f
       -0.29545832 0.3210589 0.18013725 0.6645201
000370 c1 f1 d8 3e 63 fb 37 3e 7b 0f 09 bf 7a 65 ab be
       0.42371944 0.1796699 -0.53539246 -0.33475858
000380 e3 2b 09 bf f6 aa 04 be 42 8c 6c 3e 14 25 9e 3c
       -0.5358259 -0.12955841 0.23100379 0.01930479
000390 7e 2f 33 3f fa e1 6c be 78 3c 6d 3d 72 32 0c be
       0.6999434 -0.23133078 0.057918996 -0.13691118
0003a0 f3 ad 33 3d 28 3f 14 3e 16 60 f9 3e 7c 6e c7 3c
       0.043867063 0.14477217 0.4870612 0.024344675
0003b0 c1 42 2b be f1 1b b5 3e ad 81 a9 be 42 7c 58 3e
       -0.16724683 0.3537288 -0.33106747 0.2114115
0003c0 85 31 0e 3f 26 74 55 3e ce 3b 2a bf 48 23 6b 3e
       0.5554431 0.20845088 -0.66497505 0.22962677
0003d0 cb 85 9c be 7c 8c 34 bf 7d f3 17 be 15 ec ce 3e
       -0.30570826 -0.7052686 -0.14838977 0.4041449
0003e0 19 50 a7 bd 68 58 43 be 63 ce e5 3d 60 02 8b 3e
       -0.08169574 -0.19076693 0.11221006 0.2715025
0003f0 79 5b b0 3d c6 af c9 3d af 30 32 3d 66 8d f8 3d
       0.08611197 0.09847979 0.04350346 0.121363446

mean.weight f4 [6, 256]
000000 a0 dc 69 3d 2d ee 6b be 73 5f 88 3e 0b 78 cb 3e
       0.05709517 -0.23040076 0.26635322 0.39740023
000010 0d 0c a6 be 65 36 93 be a5 65 15 3e e0 d8 b4 be
       -0.3243107 -0.28752437 0.14589556 -0.35321712
000020 96 dd 81 3e cf ad 98 bc 76 ff 0c 3e 86 59 de bc
       0.2536437 -0.018637566 0.13769326 -0.027142297
000030 9e a9 2c bd 40 ef cd 3d 72 67 e5 3e da b3 72 3e
       -0.042153947 0.10055399 0.44805485 0.2370142
000040 bb f8 58 be 7c 95 33 be 45 09 c4 be de 00 4c 3a
       -0.21188633 -0.17537493 -0.38288322 0.00077821116
000050 a1 ca 18 bf 72 81 b9 bc b0 e7 92 3a ac 92 00 3e
       -0.5968419 -0.022644732 0.0011207964 0.12555951
000060 39 01 dd 3d 19 af 24 3e 51 c8 31 3d 80 26 28 3c
       0.10791249 0.1608242 0.043403927 0.010263085
000070 06 95 1b bd 3e 7f 1e be a4 3f 21 3c 29 f8 9f 3e
       -0.037983917 -0.15478227 0.009841833 0.3124402
000080 d0 5e 02 bf 71 7d 44 3d 1a bf 9c 3a 91 1f e6 3d
       -0.5092592 0.047971193 0.0011958808 0.112364896
000090 90 9f 25 be a8 50 cf 3c ca f2 58 be f3 71 00 3f
       -0.1617415 0.025307015 -0.21186367 0.5017387
0000a0 26 e3 d6 be 27 99 c6 be c5 c7 5e 3e 6d 43 92 be
       -0.41970176 -0.3878872 0.21755894 -0.28567067
0000b0 84 09 a8 3e 36 c5 de bb 54 aa 9e be 35 7d a4 3e
       0.3281976 -0.0067984117 -0.30989325 0.32126775
0000c0 ce b2 2f be 2a 28 f3 3d 63 d8 bd bd 94 f1 a6 3d
       -0.17158052 0.11872895 -0.09269788 0.08151546
0000d0 d9 96 8e bb 63 3d e5 bc 9a 14 a7 3d de d9 cb 3e
       -0.0043514785 -0.027983373 0.08158226 0.39814657
0000e0 9b 6d da 3b 31 57 0a 3d 5a 72 47 bd e5 fb 68 3d
       0.006665898 0.03377456 -0.04869304 0.05688085
0000f0 f6 32 30 be d5 a0 f1 bc 44 0c 92 bf e9 6a 23 bd
       -0.1720694 -0.029495636 -1.1409993 -0.03989688
000100 03 b1 c6 3e 47 0c 81 bc 31 cd 85 3f 3b 33 0e 3f
       0.38806924 -0.015752925 1.0453244 0.5554692
000110 a9 c5 36 3f 38 1d 72 3e ca 91 25 3e fb 91 d9 be
       0.71395355 0.23643959 0.16168895 -0.42494187
000120 85 7e 6d 3d 0b 2e 01 be 33 37 f2 bc ac 22 9d bc
       0.057981987 -0.1261522 -0.029567337 -0.019181572
000130 e7 cc 35 be f6 b3 46 3f 77 3e 19 3f 58 25 3e 3d
       -0.17753945 0.7761835 0.5986094 0.046422333
000140 3f cb 0e be 0d 14 bb 3d 12 6f 02 40 3d 0d 69 3d
       -0.1394472 0.09134684 2.0380292 0.05689739
000150 70 14 a0 3e a8 f0 ff be da c9 1c 3f c5 26 0c 3e
       0.31265593 -0.49988294 0.612455 0.13686664
000160 3f 4d 83 bd 91 91 b5 bf dd 45 ff bd 47 5c 93 bd
       -0.06411218 -1.4185048 -0.12464497 -0.07195335
000170 ea d1 52 3d 87 67 10 3e b3 c9 e6 3e 9c 49 65 3e
       0.05146972 0.14101993 0.4507576 0.22391361
000180 ae 41 91 be 01 44 60 be a6 65 df bd af ba 67 bd
       -0.28370422 -0.21900941 -0.1090806 -0.05657452
000190 24 d9 47 3d 8b 6d 94 be c9 5d b7 3c 26 64 ad bc
       0.048791066 -0.28989825 0.022383587 -0.021165919
0001a0 29 e0 73 3e 26 6c 92 be 5b ad 3a 3e 26 c8 e6 bf
       0.23815979 -0.28598136 0.18230192 -1.802983
0001b0 48 8d 50 be b9 30 2b bc d6 3d 76 3d 38 30 0a be
       -0.20366395 -0.010448628 0.060117565 -0.13494956
0001c0 28 db 51 bd 5d fb 29 3e 43 a5 a7 3d 5e e0 da bb
       -0.051234394 0.16599794 0.08185818 -0.0066795787
0001d0 1e b5 cb 3d 28 cd a1 bd f5 22 92 3d 4b 36 13 3e
       0.09946655 -0.079004586 0.07135574 0.1437618
0001e0 c7 73 8e 3d 00 e2 9e 3d 54 32 11 be 7c dd 9f 3e
       0.069556765 0.0775795 -0.14179355 0.31223667
0001f0 53 27 52 be ba 4a b4 3e 7d 47 00 bf 68 7a c7 be
       -0.20522813 0.35213262 -0.5010908 -0.38960576
000200 b5 d3 21 be cf 7d 17 3d df aa d1 3d a3 6d 90 be
       -0.15803416 0.036985215 0.10237669 -0.28208646
000210 3b b6 2e be db cc f0 3c 82 8e 37 3f 99 f3 b1 3d
       -0.17061703 0.029394558 0.71701825 0.08689041
000220 8c 10 31 3e 24 91 b0 be 3e 6b 92 3e a8 15 70 3f
       0.17291468 -0.34485734 0.28597444 0.93783045
000230 66 bf 30 3e 0c 4a 90 3c 30 c4 04 bd fe e1 1d bd
       0.17260513 0.017613433 -0.03241366 -0.0385456
000240 73 89 51 3e 08 71 90 bd ff b0 0d 3f cc 68 a8 bd
       0.20462589 -0.07052809 0.553482 -0.082231134
000250 35 60 bc 3e b1 2e 88 ba b0 48 b4 3e f8 ba 96 3d
       0.3679215 -0.0010389892 0.35211706 0.0735988
000260 fa 08 d1 be 66 98 db 3e 4c b3 84 be 13 b3 b9 3d
       -0.4082716 0.42889708 -0.25918043 0.09067359
000270 ad 82 9a 3d c6 c9 02 bf af ff a4 3d f5 87 d2 bc
       0.07544456 -0.5108913 0.0805658 -0.025699595
000280 20 fd f2 3c bb 2b 31 bc 65 7a a2 3d fd 2f 61 be
       0.029661715 -0.010813649 0.07933501 -0.21990962
000290 24 e0 5f be e1 f7 98 be 33 44 8f be 7e 07 64 bd
       -0.21862847 -0.29876617 -0.2798172 -0.055671208
0002a0 cf 6c 50 3d 8e 2d 31 3e 5c 1f 9e bc a7 59 fd bd
       0.050885018 0.17302534 -0.019302063 -0.123706155
0002b0 d2 40 3a be 1a a4 ea bd 06 aa e7 bd 64 de 07 3e
       -0.1818879 -0.11457081 -0.11311726 0.13268429
0002c0 4b 7e 2b 3e 58 2b ff bd f1 cf 03 be 35 ce 81 bd
       0.16747396 -0.12459439 -0.12872292 -0.06338159
0002d0 7d 8f ba 3c f2 91 b2 be 2c b1 66 bd 47 d1 b5 bb
       0.022773499 -0.34876972 -0.056321308 -0.0055486294
0002e0 93 01 8c 3e 5e af 0e 3c 18 10 a8 3e da 4c af 3c
       0.2734495 0.008708803 0.3282478 0.02139895
0002f0 37 0d 7c bd 72 67 a6 bd 11 3b 0c bd f0 e3 5b be
       -0.06153604 -0.081251994 -0.034236018 -0.2147367
000300 95 9b 8f bd 07 c8 46 3e 42 24 ce 3d f1 47 a5 bc
       -0.07012097 0.19412242 0.100655094 -0.020175906
000310 b8 fa ed 3c 05 c1 dc bb 0a d0 b1 be cf 28 01 be
       0.029050216 -0.006736877 -0.34729034 -0.12613223
000320 59 2a 93 bd c1 2e 43 3f f8 4d 4b 3d b6 38 87 be
       -0.071858115 0.76243216 0.049634904 -0.26410455
000330 74 d1 db 3c 7d 7c d6 bd 56 73 84 bd 76 1a 84 3d
       0.026833273 -0.10472963 -0.06467311 0.064503595
000340 96 c6 eb 3e b4 73 21 bf f2 66 a9 bc b3 f2 d4 3e
       0.46049947 -0.63067174 -0.020678971 0.41591415
000350 ca 6d dd bd 70 88 82 3d 9e 4e 03 be 5b 4d fb 3d
       -0.10811956 0.0637368 -0.12822959 0.12270614
000360 e5 b3 0a be a8 04 70 3d 37 61 6b bd cb 46 b9 bc
       -0.13545187 0.05859819 -0.05746576 -0.022616765
000370 72 64 70 be d8 81 01 3f 67 ad 75 3e 49 9b 5f 3e
       -0.23475817 0.5058875 0.23991929 0.2183658
000380 20 a6 0a be 13 37 fc 3d 54 3a 08 be c0 80 74 bf
       -0.13539934 0.12315192 -0.133035 -0.95508957
000390 9f 67 cc 3c e1 c5 a5 bd 6d ab dd bc b8 eb ca 3c
       0.024951754 -0.08094383 -0.027059281 0.024770603
0003a0 51 5e a9 be 7c 86 90 be 13 13 47 bd 93 2e 3f be
       -0.3307977 -0.28227603 -0.048602175 -0.1867011
0003b0 0c 56 69 bf 90 10 3d bb db 78 a6 3c da e1 90 be
       -0.9114692 -0.0028848983 0.0203213 -0.2829731
0003c0 82 31 5b 3e 21 54 76 be 4d 97 c8 3d c3 db 95 3d
       0.21405604 -0.2405553 0.09794483 0.07317307
0003d0 de 3c aa bd bb 6f 00 3e a6 ae c2 3f 67 55 5c 3e
       -0.08312391 0.12542622 1.5209548 0.21516953
0003e0 a2 a5 c5 bc 22 80 77 3e 23 20 70 be f9 4b 0e be
       -0.024126831 0.24169973 -0.23449759 -0.13896169
0003f0 d4 a9 15 3d 38 31 8a 3f 41 d4 9a bb e0 d0 70 3f
       0.036538914 1.079627 -0.0047250097 0.9406872

mean.bias f4 [6]
000000 74 87 7b be 3d e3 88 3e f7 c9 59 be 95 19 fb 3e
       -0.2456339 0.2673587 -0.2126845 0.49042955
000010 3a 60 87 3c 6a 2a 5e 3e
       0.016525377 0.21695867

log_std.weight f4 [6, 256]
000000 c0 59 1b bd 82 5b 8d be 3f e3 3b bd c0 4a b5 3c
       -0.03792739 -0.27608877 -0.045871016 0.02213037
000010 62 3d 00 3e 29 0a 3d 3d 51 e8 8f be 2d 2f e1 bd
       0.12523416 0.046152268 -0.2810693 -0.10995326
000020 7f 30 62 bd b7 94 07 3d 68 e5 5a 3d 6e 36 00 3d
       -0.05522203 0.03310081 0.053441435 0.03130191
000030 1d e2 05 3c 7a 0f 9c bd 33 a0 6a bd 91 00 8f 3c
       0.008171585 -0.076201394 -0.057281684 0.017456325
000040 84 a9 be 3d cb dc 1f 3e a9 93 2b 3e d6 af ef 3d
       0.09309676 0.1561157 0.16755547 0.1170346
000050 9d c3 17 3e 65 ef b5 bb 31 99 1a bd b7 50 94 bc
       0.14820714 -0.0055522197 -0.03774375 -0.018104894
000060 b5 ba 03 bc 80 4e 36 3c 69 9e b8 3c c1 0a 26 bd
       -0.00804012 0.011127114 0.022536473 -0.0405376
000070 6a 79 31 3d e6 dd a0 3c 99 7a 3e 3d 2f 3a 91 3d
       0.04332868 0.01963706 0.046503637 0.07091176
000080 75 6e 9c 3e fb 8b 1c 3b 8b 94 37 3d b1 8b 95 bd
       0.30553022 0.0023887146 0.044819396 -0.07302035
000090 82 02 67 bd 3e 59 29 3c c1 f1 09 3d 5b fe a3 3c
       -0.056398876 0.010336218 0.03367782 0.020018747
0000a0 85 b1 a4 3e da f5 e9 bc 52 2f 32 3c 97 e5 d1 3d
       0.32166687 -0.028559614 0.01087554 0.10248869
0000b0 18 07 62 3d e6 af 16 be 7b b1 0c 3e 54 56 44 3d
       0.055182546 -0.14715537 0.13739578 0.04793389
0000c0 8b d1 4e 3d 24 84 87 bd 08 7b a3 bc 63 d4 27 3d
       0.050492804 -0.06617001 -0.019956127 0.040974032
0000d0 1c 07 d6 3d 39 9b 68 3c 2f bc 46 bd c1 30 a0 3d
       0.10450575 0.014197164 -0.04851931 0.07821799
0000e0 99 e6 48 3d 2c fc fa bc c5 35 40 3d 8a 05 34 bc
       0.04904804 -0.030637823 0.04692628 -0.010987649
0000f0 aa 9b b7 3d 25 51 22 bd 11 1d b2 3e d8 0f 07 bd
       0.089652374 -0.039628167 0.347878 -0.032974094
000100 ff c7 27 3e 87 73 d6 b8 3a 7d d7 bc f6 f2 2d 3e
       0.16384886 -0.00010225834 -0.02630483 0.16987213
000110 47 83 32 3e 6a 92 f2 3c 93 1a d9 3d 9f b1 ab 3e
       0.17432891 0.029610831 0.10600772 0.33533952
000120 cf 66 1e 3e f0 33 aa bc 4e c3 0d 3d 9e f0 e1 3d
       0.15468906 -0.020776719 0.034610085 0.11032222
000130 11 d9 a9 3d a6 45 c1 3e 95 e4 cf 3d 25 9f cd bc
       0.08293355 0.3774845 0.101510204 -0.0251003
000140 25 a4 c1 3d 1e bc 74 bc b7 92 7b 3f a7 11 29 bc
       0.09455136 -0.014937429 0.98270744 -0.01031915
000150 a7 ca 52 3e 4c 30 af 3e ab c7 f4 bd e8 87 43 3d
       0.20585118 0.34216535 -0.11952146 0.047737032
000160 11 10 6f bc bc df 3f 3f de 78 3a bc 65 f3 c0 bd
       -0.014591233 0.74950767 -0.011381356 -0.09421424
000170 5c cc b3 bb 94 19 82 be 42 b1 43 3e f9 28 e1 3e
       -0.005487008 -0.2541014 0.19110587 0.43976572
000180 b8 41 12 3e 9b 2b f0 3d 17 c1 b5 3d c8 47 6b 3d
       0.14282882 0.11727067 0.088747196 0.057441503
000190 8b 53 91 bc 90 16 c6 3d 6f 6f c2 3d 64 0d 1d 3b
       -0.017740032 0.09672272 0.094939105 0.002396428
0001a0 22 53 f1 bb 4e e6 17 3d d0 b2 56 bd f9 1c 3d 3f
       -0.0073646465 0.03708487 -0.052416623 0.73872334
0001b0 34 73 0a 3e fc 68 4a 3a 11 2a 06 3d db 16 a0 3d
       0.13520509 0.00077213324 0.03275496 0.07816859
0001c0 e1 db 20 bc 3b ae 13 bd 68 4b 72 bd 3c b2 49 3d
       -0.009818048 -0.03605483 -0.059153944 0.049242243
0001d0 5f fe cf 3b ef 6a 08 3e 81 0e a3 3c 41 ac da 3d
       0.006347462 0.13322042 0.019904377 0.10677386
0001e0 96 fb 8d 3c e5 0b 2b bd db 5c 9b bb 6f 12 0b 3e
       0.01733188 -0.04175939 -0.004741294 0.1358125
0001f0 17 94 95 3d 92 64 68 3e 85 a6 0b 3e 7b 75 1f 3e
       0.073036365 0.22694615 0.13637741 0.15572159
000200 da 8d 41 bc 7b 88 5c 3f 6b fb ba 3d 7c 70 c8 3d
       -0.011813605 0.8614575 0.091299854 0.0978708
000210 fd 56 04 3d 7e b9 60 ba c2 5f 04 3f db 10 47 bd
       0.03230952 -0.00085725624 0.51708615 -0.04860006
000220 08 23 17 bd d1 cd 16 3e 5f 9b e6 3d a3 95 88 3e
       -0.036898643 0.1472695 0.112601034 0.26676664
000230 37 c9 ea bc 3a c9 c9 bc ca 7e cb 3c 42 08 b7 b8
       -0.0286604 -0.024632085 0.024840731 -8.727658e-05
000240 23 7e 0f be df 90 1f bd 4a 0f 66 bd 30 ca 17 3d
       -0.14012961 -0.03895652 -0.056166925 0.037058055
000250 0c a4 9f 3d 6b 29 45 3d 85 9a 0a 3d a8 ba 49 3e
       0.07794961 0.048135202 0.033838768 0.1970011
000260 4a 1f 71 3e a5 e7 29 be 6b 75 21 3e 5d d4 fc bc
       0.23547092 -0.16592272 0.15767448 -0.030862981
000270 9c 1a dd bb 92 67 2f 3e ad 70 94 3c 53 7b 80 bd
       -0.006747557 0.17129353 0.018120134 -0.06273522
000280 11 60 1c bc ee e1 9d 3c b9 0c 1b bc 48 23 06 3e
       -0.009544388 0.01927277 -0.009463483 0.13099396
000290 31 d5 be bc 54 dc 5b 3e d2 f3 3b 3e 31 a0 a0 3c
       -0.023295017 0.21470767 0.18354729 0.019607635
0002a0 fb 73 ae bd 23 3f cb bd 98 79 45 3d e8 1c ac 3b
       -0.08518215 -0.09924152 0.048211664 0.0052524693
0002b0 df 2a 07 be a4 05 ba 3c b3 e8 1e 3c 86 e6 e7 bd
       -0.13199948 0.022707768 0.0096990345 -0.11323266
0002c0 11 69 37 bd 58 27 99 3d 53 95 be 3d b0 ca ac 3c
       -0.044777934 0.07478207 0.09305825 0.021092743
0002d0 7f c4 0e bc ee 79 28 3e d1 ee 56 bc 99 84 50 bc
       -0.0087138405 0.16452762 -0.013118462 -0.012726926
0002e0 99 11 e2 3d 5c 58 2f bd 53 0f d7 3d 95 71 18 bc
       0.11038513 -0.042808875 0.1050097 -0.009304424
0002f0 67 33 0b bd 20 f1 64 3d e3 42 d2 bc a5 69 74 3d
       -0.033984568 0.055894017 -0.02566666 0.059671063
000300 4c bc bf bc 2a 17 ee bd 53 9b 9b bd f6 7f c0 bc
       -0.023405217 -0.11625512 -0.07597985 -0.023498517
000310 26 36 37 3e 5f 7b 00 3c 3c 95 a4 bd ba 36 c1 3d
       0.1789175 0.007841914 -0.08036277 0.094342664
000320 f9 3b 25 3d e7 e7 5d 3d b4 58 77 bd 52 60 c5 3d
       0.040340398 0.054176237 -0.06038733 0.09637512
000330 89 f1 12 bd 89 9f c7 3d 28 d8 26 ba 38 d4 3b bd
       -0.035874877 0.09747226 -0.0006364607 -0.045856684
000340 87 b8 da bc 1c d5 8b 3e 24 c8 ad bc 08 6e 02 3d
       -0.026699318 0.27311027 -0.021213599 0.031843215
000350 42 d1 19 3e 24 13 c7 ba 8f c5 cf 3d 3d 93 e3 bc
       0.15021232 -0.00151882 0.10145103 -0.02778017
000360 4c cc 12 3e ba 4f a8 3a 95 e9 65 3b 42 c7 cd bd
       0.14335746 0.0012841143 0.0035081853 -0.10047771
000370 94 ad c5 3d fe 3d 8b 3e 7a 7a 91 bd ee 62 16 bc
       0.09652248 0.27195734 -0.07103439 -0.00917886
000380 5e 2c ac 3c 23 57 8f 3c 1a ee fc 3b d3 43 c2 3e
       0.02101725 0.017497605 0.0077188136 0.3794237
000390 c4 be e1 bb e5 9f 38 3d 94 6c 84 bd e1 9d 9a bc
       -0.006889196 0.045074362 -0.06466022 -0.01887411
0003a0 7e ac 49 3e be 18 b1 3d 2c 4f 63 3d 23 8d bd 3d
       0.19694707 0.08647297 0.055495426 0.09255435
0003b0 13 48 cb 3e 13 a0 2a bd 54 4c 3d 3d 28 c2 20 3e
       0.39703426 -0.041656565 0.04621537 0.15699065
0003c0 3e f7 8f 3d 69 c4 3e 3e f7 28 9c bd ef 1d 29 bd
       0.070295796 0.18629612 -0.07625001 -0.041288313
0003d0 19 e6 4a 3d 0f 16 a5 bc 74 62 7a 3d fa 30 0b be
       0.049535844 -0.02015212 0.06112905 -0.13592902
0003e0 59 3a 4e 3d 4b 51 19 bc 6a 9c ec 3d 07 7a 02 3d
       0.050348613 -0.009357761 0.11553271 0.031854656
0003f0 1b f7 da 3d c0 3a 80 be fb 92 43 bc 2d 16 f6 3e
       0.10691663 -0.25044823 -0.011936898 0.48063794

log_std.bias f4 [6]
000000 65 1a ed bf ba 0e c4 bf 30 80 d0 bf 1f db cd bf
       -1.852368 -1.5316994 -1.628912 -1.6082495
000010 7a 25 dc bf 2e 0a ec bf
       -1.7198937 -1.8440607
