trained_models/Walker2dNormal-v3/sac/actor_2.pt (torch, 296896 bytes, 8 tensors)

shared.0.weight f4 [256, 17]
0	0xbefbd9fc	-0.49189746
1	0x3fe0af3e	1.755348
2	0xbe3fc7d4	-0.18728572
3	0x3f2e741c	0.6814592
4	0x3ebecdc2	0.37266356
5	0xbf6ed2f5	-0.93290645
6	0x3f915ad6	1.1355846
7	0x3f15b8d1	0.5848513
8	0x3ea25a9e	0.3170976
9	0xbe216b68	-0.15763628
10	0x3dfac117	0.1224386
11	0xbd98c8aa	-0.07460149
12	0xbd85007b	-0.06494232
13	0x3c2582ea	0.010102013
14	0xbd30bb0a	-0.043147124
15	0xbc5ac3e1	-0.013352365
16	0x3ce82b0a	0.028340835
17	0x3ebdc718	0.3706596
18	0x3f8ebec1	1.1151963
19	0xbf4085ff	-0.7520446
20	0xbf93772a	-1.1520741
21	0xbdf11068	-0.11770707
22	0x4001d9e9	2.0289252
23	0x3e91abb3	0.2845131
24	0x3f49018b	0.7851798
25	0x3e392b85	0.18083008
26	0xbcd64090	-0.026153833
27	0xbe24fcaa	-0.16112009
28	0xbca62e2d	-0.02028569
29	0xbb9e6e4f	-0.004834927
30	0xbc79a3aa	-0.015236774
31	0x3df89914	0.12138572
32	0x3d827aac	0.06371054
33	0x3c6de340	0.014519513
34	0xbf6d0dd0	-0.925992
35	0xbf0723e2	-0.5278913
36	0xbde3567d	-0.11100481
37	0xbfbea1b8	-1.4893103
38	0xbe392a2b	-0.18082492
39	0xbeb6005c	-0.3554715
40	0xbf843b91	-1.0330678
41	0xbf02b993	-0.51064414
42	0xbf2a7816	-0.66589487
43	0xbf64a6ee	-0.89317214
44	0x3daa210f	0.08307087
45	0x3e0c8f82	0.13726619
46	0xbc95a44c	-0.01826682
47	0x3c2c7f05	0.010528331
48	0xbe2f1c4e	-0.17100641
49	0xbdd74bac	-0.1051248
50	0xbc6afb1a	-0.014342094
51	0xbe4222e8	-0.18958628
52	0x3ef796cc	0.48357236
53	0x40084dbd	2.1297448
54	0x3ffc3faf	1.9706935
55	0x3d09c048	0.03363064
56	0xbeb091a3	-0.34486112
57	0xbe7ebb6e	-0.24876186
58	0x3f41ded0	0.7573061
59	0xbdc3a2fa	-0.0955257
60	0xbeb4c875	-0.35309187
61	0x3e3c644a	0.18397632
62	0xbe655a44	-0.22397715
63	0xbd12b8c6	-0.035820745
64	0x3cfe1f9d	0.031020934
65	0x3d7d29df	0.06180751
66	0xbdec7d6f	-0.11547362
67	0xbc846a6e	-0.01616403
68	0xbf284956	-0.657369
69	0x40439498	3.0559444
70	0xbf169b4d	-0.5883072
71	0x3edd15d0	0.43180704
72	0x3f06afc2	0.52611935
73	0x3f6169a8	0.88051844
74	0xbe999aa5	-0.30000797
75	0xbe1c9447	-0.15290938
76	0x3e7d4f5c	0.24737304
77	0xbee3fefc	-0.44530475
78	0x3d110f31	0.03541488
79	0x3daa7ea0	0.08324933
80	0x3d807142	0.06271602
81	0xbcc38d24	-0.023871012
82	0x3d911059	0.07083196
83	0xbd135503	-0.035969745
84	0x3d53d142	0.051713236
85	0xbf20aa9c	-0.6276033
86	0x3f37e632	0.71835625
87	0x3daac1ce	0.083377466
88	0x3f182888	0.59436846
89	0x3e97c6b7	0.29643795
90	0x3cc246aa	0.023715336
91	0xbf52a791	-0.82286936
92	0xbec4b4b6	-0.38419122
93	0xbc86edf0	-0.01647088
94	0xbe625b68	-0.22105181
95	0x3e720745	0.23635586
96	0xbdec4bef	-0.11537921
97	0xbdfbb2ce	-0.12289964
98	0xbbae1f90	-0.005313821
99	0xbd8c6495	-0.06855122
100	0xbd90dd8a	-0.07073505
101	0x3e3208ca	0.17386165
102	0xbf4989c3	-0.7872583
103	0x3e833a13	0.25630245
104	0xbef04940	-0.46930885
105	0xbe5eb265	-0.2174774
106	0xbee507c7	-0.44732496
107	0xbf327f77	-0.69725746
108	0x40772ea1	3.862221
109	0x3dce076f	0.100600116
110	0xbf5526a7	-0.83262104
111	0x3eb39452	0.35074097
112	0x3dd051f5	0.10171882
113	0xbe1320d1	-0.14367987
114	0x3e11a5eb	0.14223449
115	0x3cd07a26	0.02544887
116	0xbe483f67	-0.19555436
117	0x3de3d51f	0.11124634
118	0xbc8bc61b	-0.017062237
119	0x3e531cb4	0.20616418
120	0xbf8b5a6f	-1.0886973
121	0x400280a1	2.039101
122	0x3fdba85d	1.7160755
123	0xbf81455a	-1.009929
124	0x3fb1cf0c	1.3891311
125	0x3ff47d07	1.9100655
126	0xbf2013cf	-0.62530226
127	0xbf84e854	-1.0383401
128	0x3f2c4029	0.672854
129	0xbe0fc118	-0.14038503
130	0x3e22ece3	0.15910678
131	0x3dadaf12	0.08480658
132	0xbbce20be	-0.0062905243
133	0x3d8ca0d6	0.068666145
134	0x3da2ba60	0.079457045
135	0xbe02ff8e	-0.12792799
136	0x3f22c9a2	0.6358892
137	0xc04e9a46	-3.228166
138	0x3f967855	1.1755472
139	0x3e857ce5	0.2607185
140	0xbdfbea1d	-0.12300513
141	0x3f91aa5d	1.1380116
142	0x3fe7784c	1.8083587
143	0xbe5ea240	-0.21741581
144	0x3cc5db0d	0.024152303
145	0x3eb7d2af	0.35902926
146	0xbebf11d7	-0.37318298
147	0x3e1374d0	0.14400029
148	0x3d7c74fc	0.061635002
149	0x3b63e660	0.0034774765
150	0x3e3fa58d	0.18715496
151	0x3dd66472	0.10468377
152	0x3c6a4f57	0.014301143
153	0xbeb83a2a	-0.35981876
154	0xc0a05a65	-5.0110345
155	0x3fa02d98	1.2513914
156	0xbdf0333b	-0.117285214
157	0xbda27d88	-0.079340994
158	0x406ebd10	3.7302895
159	0xbfa579d7	-1.2927808
160	0x3dc69b12	0.09697546
161	0xbf5b415a	-0.85646594
162	0x3ed7c35e	0.4214124
163	0x3e806ec1	0.250845
164	0xbd700644	-0.058599725
165	0x3cb100af	0.021606771
166	0x3d08c042	0.033386476
167	0xbd331068	-0.043716818
168	0x3d9e6683	0.07734396
169	0xbb4a51a0	-0.0030871406
170	0xbed391ef	-0.41322276
171	0xbf3d492b	-0.7393977
172	0xc013eb40	-2.3112335
173	0xbf26c1f0	-0.65139675
174	0x3f024853	0.5089161
175	0xbfca0a1e	-1.5784338
176	0xbf4b9323	-0.7952139
177	0x3f0e38d5	0.5555547
178	0xbeec20e6	-0.4611885
179	0x3dafcd62	0.085840955
180	0x3d330d6c	0.043713972
181	0xbcfd8789	-0.030948417
182	0xbd52435a	-0.051333763
183	0x3b1be356	0.0023786626
184	0xbcb451ff	-0.022011755
185	0x3b289133	0.002572131
186	0xbbc3140c	-0.0059533175
187	0xbe2354cf	-0.1595032
188	0x403a7cf9	2.9138777
189	0x3ea5173c	0.3224429
190	0x4039a425	2.9006436
191	0xbf08da45	-0.5345805
192	0x3ba1a3f4	0.004932875
193	0xbed06d40	-0.4070835
194	0x3c6ddc82	0.014517905
195	0xbec0c69e	-0.37651533
196	0x3e6f0405	0.23341377
197	0x3d9e4c57	0.077294044
198	0xbe0e8686	-0.13918504
199	0x3d6d6644	0.057958856
200	0xbd97967c	-0.074017495
201	0x3e33eecf	0.17571567
202	0x3e07bcf3	0.13255672
203	0xbc523fc3	-0.012832585
204	0xbe2d17a1	-0.16903545
205	0xc00889fd	-2.1334221
206	0x3fa4a024	1.2861371
207	0x3f20694c	0.6266067
208	0x3f5e5553	0.86848944
209	0x400eb3e6	2.2297301
210	0x3e56297e	0.20914266
211	0xbf78eefe	-0.97239673
212	0xbf7eb4c3	-0.9949457
213	0xbeac7aa5	-0.3368732
214	0xbe25d145	-0.16193111
215	0x3e4e5bd9	0.20152225
216	0x3e066fb1	0.13128544
217	0x3cdd272a	0.026996214
218	0x3dd96359	0.10614652
219	0xbd9da239	-0.07696957
220	0x3b28f4fd	0.002578079
221	0xbeee275b	-0.465144
222	0xbff55080	-1.9165192
223	0x3ea814be	0.32828325
224	0xbd87dca6	-0.06633882
225	0x3f079f49	0.52977425
226	0xbf652325	-0.8950675
227	0xbf99d414	-1.2017846
228	0x3f868de5	1.0512053
229	0xbe75ff7e	-0.24023244
230	0x3e94a340	0.290308
231	0x3dc5ca60	0.096577406
232	0x3e33d610	0.17562127
233	0x3e35eece	0.17766878
234	0x3b9c53a1	0.0047707115
235	0xbe797737	-0.24361883
236	0xbdf685db	-0.1203725
237	0xbd1a7559	-0.037709568
238	0x3f043d37	0.51655906
239	0x406ea02e	3.7285266
240	0xbf877d04	-1.0585027
241	0xbe6dc16f	-0.2321832
242	0x3c7ec272	0.015549289
243	0xbe9c7242	-0.30555922
244	0xbe3e82af	-0.1860454
245	0xbc943297	-0.01809053
246	0x3e3314e7	0.17488442
247	0x3da3c041	0.07995654
248	0x3dc5d647	0.09660011
249	0xbd3d35d2	-0.046193905
250	0xbce5f3d9	-0.028070377
251	0xbc18bdad	-0.009322566
252	0xbab9f3e6	-0.0014187067
253	0xbc9357b6	-0.01798616
254	0x3a341767	0.00068699423
255	0xbd322f19	-0.043501947

shared.0.bias f4 [256]
0	0xbef83020	-0.48474216
1	0xbf81806a	-1.0117314
2	0xbf93af2f	-1.1537837
3	0xbf124265	-0.5713256
4	0xbf4e5a04	-0.806061
5	0xbf60bc8a	-0.8778769
6	0xbf308776	-0.68956697
7	0x3d90a3fe	0.07062529
8	0xbf76bc25	-0.96380836
9	0xbe8c8f17	-0.2745292
10	0xbf59b7bb	-0.85045975
11	0x3e0b78ac	0.13620251
12	0xbebb2467	-0.3655121
13	0xbf7fe775	-0.9996255
14	0xbfdd09fa	-1.726867
15	0xbe88cf9c	-0.26720893
16	0xbfbbac96	-1.4662044
17	0xbe92747c	-0.28604496
18	0xbedf91ff	-0.43666074
19	0xbf6328b1	-0.88733965
20	0xbec3a09d	-0.38208476
21	0xbf567e88	-0.8378682
22	0x3ed0f8ce	0.40814823
23	0xbe951e72	-0.2912479
24	0xbf550f59	-0.83226544
25	0x3eee5623	0.46550092
26	0xbfa3ba49	-1.2791225
27	0xbeb27f8a	-0.3486293
28	0x3f5f7ca4	0.8729956
29	0xbe384115	-0.17993577
30	0xbf12f820	-0.5740986
31	0xbfae19d7	-1.3601636
32	0xbf84218c	-1.0322738
33	0xbee64196	-0.44971913
34	0x3f75b278	0.95975447
35	0xbf8554e8	-1.0416536
36	0x3daca3c0	0.0842967
37	0xbf15839a	-0.58403933
38	0xbf166267	-0.587439
39	0xbf25379e	-0.6453799
40	0xbd996fdd	-0.07492039
41	0xbec7d1dc	-0.39027297
42	0xbe53cab4	-0.20682794
43	0xbf96d6fb	-1.1784357
44	0xbecf0223	-0.40431318
45	0xbeeb7aeb	-0.45992216
46	0xbf887fba	-1.0663979
47	0xbf0cc6a0	-0.5499058
48	0xbf43f136	-0.76539934
49	0xbf35a790	-0.70958805
50	0xbf343343	-0.7039072
51	0xbe929d4a	-0.28635627
52	0xbed88206	-0.422867
53	0xbf75c4c8	-0.9600339
54	0xbcbecf50	-0.023292214
55	0xbf302313	-0.6880352
56	0x3d855bb6	0.06511633
57	0xbfe77e5c	-1.8085437
58	0xbe33377f	-0.17501639
59	0xbf41db10	-0.7572489
60	0xbf1d453f	-0.61433786
61	0xbf10a77a	-0.5650555
62	0xbf4199d3	-0.7562534
63	0xbf75c966	-0.96010435
64	0x3e87a1f1	0.2649074
65	0x3ebc2d24	0.3675319
66	0xbec6a4cf	-0.38797614
67	0xbf5bcfb8	-0.8586383
68	0xbdd77313	-0.105199955
69	0x3f500a84	0.81266046
70	0x3c4c4def	0.012469753
71	0xbeca33f7	-0.3949277
72	0xbf8fa697	-1.1222714
73	0x3e8678c0	0.26264
74	0xbf003be0	-0.5009136
75	0xbf6920ad	-0.91065484
76	0xbe6e99cb	-0.23300855
77	0xbf712e86	-0.94211614
78	0x3f4b6431	0.79449755
79	0xbf85dc67	-1.0457886
80	0xbf8b7645	-1.0895468
81	0xbf2628fa	-0.64906275
82	0x3ebe8ec4	0.37218297
83	0xbea60f3d	-0.324335
84	0xbf53814e	-0.8261918
85	0x3d76b526	0.06023135
86	0xbf27dad3	-0.65568274
87	0xbf536ae4	-0.8258498
88	0xbf9e943f	-1.2388991
89	0xbf277bd5	-0.6542333
90	0xbf9ff737	-1.2497319
91	0xbf595566	-0.8489593
92	0xbf5f17a1	-0.8714543
93	0x3e99c249	0.3003104
94	0xbea75075	-0.3267857
95	0xbe0db55e	-0.13838717
96	0xbff2ee49	-1.8978969
97	0xbf4f8063	-0.8105528
98	0xbe95e46d	-0.29275838
99	0xbd90eae7	-0.07076054
100	0xbf5a6ab4	-0.85319066
101	0xbcddf11d	-0.02709251
102	0xbefd4989	-0.49470165
103	0xbf0ddd38	-0.5541568
104	0xbeac365e	-0.3363523
105	0xbf723c6b	-0.9462344
106	0xbedec6f6	-0.4351117
107	0xbe96d7aa	-0.29461414
108	0xbe655795	-0.22396691
109	0xbf44eee3	-0.7692701
110	0xbe854483	-0.26028833
111	0xbfaea836	-1.3645084
112	0xbe8455be	-0.25846666
113	0xbde1d3e5	-0.11026744
114	0xbeb3874c	-0.3506416
115	0xbff2318f	-1.8921374
116	0xbe75a981	-0.23990442
117	0xbe9d8086	-0.30762118
118	0xbf4abe4f	-0.7919664
119	0xbf49f4fc	-0.7888944
120	0xbec35268	-0.38148808
121	0xbf6232e5	-0.8835891
122	0xbeebb8a5	-0.4603931
123	0xbd50220c	-0.05081372
124	0xbf58a2ad	-0.84623224
125	0x3d85422b	0.06506761
126	0xbf8024c1	-1.0011216
127	0xbf71cd6d	-0.9445408
128	0xbed3f7b8	-0.41399932
129	0xbef84a91	-0.4849439
130	0xbf542e2d	-0.8288296
131	0xbdb3298e	-0.0874816
132	0x3dff6c0d	0.12471781
133	0xbe6dc7e6	-0.23220786
134	0xbfa940ac	-1.3222861
135	0xbf5579f0	-0.83389187
136	0xbed376bf	-0.41301534
137	0xbea0bb48	-0.31392884
138	0xbe9bce1c	-0.30430686
139	0xbf4880b8	-0.7832141
140	0xbf7032b1	-0.9382735
141	0x3d2348ac	0.039864227
142	0xbf6e8ab6	-0.93180406
143	0xbf506389	-0.8140188
144	0xbfa5bbfa	-1.2947991
145	0xbe6e5190	-0.23273301
146	0xbf0eee3b	-0.5583226
147	0xbfa65b17	-1.2996548
148	0x3e8f5625	0.2799541
149	0xbb1661b5	-0.0022946422
150	0xbf3edae1	-0.7455273
151	0x3ea95e27	0.33079645
152	0xbdff0c48	-0.12453514
153	0xbf18eab0	-0.59733105
154	0xbe099a15	-0.13437684
155	0x3efa2397	0.48855278
156	0xbf76d291	-0.9641505
157	0xbf86003f	-1.0468825
158	0xbdec5e54	-0.11541429
159	0xbe69688d	-0.22793789
160	0xbf86ac62	-1.0521357
161	0xbdb4427c	-0.088017434
162	0xbeb7696b	-0.35822615
163	0xbf536c2d	-0.8258694
164	0xbf8e4e33	-1.1117615
165	0xbfa51699	-1.2897521
166	0x3ed3dae9	0.41377953
167	0xbfae3e98	-1.3612852
168	0xbf92fac2	-1.1482775
169	0xbf0b2d21	-0.54365736
170	0x3d3dad12	0.04630763
171	0xbe86ae67	-0.26304933
172	0xbf083062	-0.53198826
173	0xbe85e9c6	-0.26154917
174	0xbeaeb2a5	-0.3412067
175	0xbf7eeb64	-0.9957793
176	0xbf893d5d	-1.0721852
177	0xbedb4cb3	-0.42831954
178	0x3f8f8c2f	1.1214656
179	0xbeb304c1	-0.34964564
180	0x3e202126	0.15637645
181	0xbfa75f25	-1.3075911
182	0xbec51150	-0.3848977
183	0xbee1f8cb	-0.44135126
184	0xbf48141b	-0.7815568
185	0xbf00b716	-0.50279367
186	0xbee60576	-0.4492604
187	0xbf3ba709	-0.7330175
188	0xbfa68b11	-1.301119
189	0xbde773fc	-0.11301419
190	0xbe875d03	-0.2643815
191	0xbf10e329	-0.5659662
192	0xbf7e08f1	-0.99232394
193	0xbf06fbf4	-0.527282
194	0x3efd1351	0.494288
195	0xbe5bf5ef	-0.21480535
196	0xbfb5e7ba	-1.4211342
197	0x3d7be2d1	0.061495606
198	0x3c5fad99	0.013652229
199	0xbf25bdad	-0.6474255
200	0x3e4caf5c	0.1998877
201	0xbf8b663d	-1.0890576
202	0xbf1dea22	-0.61685383
203	0xbeb061d3	-0.34449634
204	0xbef8375b	-0.48479733
205	0xbd3a5d8f	-0.04549938
206	0x3ebe2344	0.3713628
207	0xbf93093e	-1.1487195
208	0xbf884e66	-1.0648925
209	0xbe461983	-0.1934567
210	0xbf5bc084	-0.8584063
211	0xbf2da74d	-0.67833406
212	0xbf08fcd2	-0.53510773
213	0xbf8b9a60	-1.0906487
214	0x3e350b7b	0.1768016
215	0xbe91e73f	-0.2849674
216	0xbf670526	-0.9024223
217	0xc011b1ce	-2.2764773
218	0xbea48d49	-0.32139042
219	0x3e628648	0.22121537
220	0xbe7e51ec	-0.24835938
221	0xbd72d89c	-0.059288606
222	0xbf3c244f	-0.734929
223	0x3f7435a9	0.9539438
224	0xbeb5bafc	-0.3549422
225	0xbf8ddac5	-1.1082388
226	0xbf32ad9d	-0.6979616
227	0xbf8e6e66	-1.1127441
228	0xbf1e8361	-0.6191922
229	0x3faca753	1.3488563
230	0xbf789f9d	-0.9711855
231	0xbdeba743	-0.11506512
232	0xbf40f3df	-0.7537212
233	0xbedf194a	-0.43573982
234	0xbf6b203f	-0.9184608
235	0xbf974f4e	-1.1821077
236	0xc00c0d02	-2.188294
237	0xbf1b50fe	-0.6067046
238	0xbed043a9	-0.4067662
239	0xbf01fbed	-0.50775033
240	0xbee845c7	-0.45365736
241	0xbf59a8bb	-0.8502309
242	0xbf23f359	-0.64043194
243	0xbf7acbc5	-0.9796718
244	0x3e139478	0.14412105
245	0xbefca623	-0.49345502
246	0xbeb15a8f	-0.34639403
247	0x3caaa897	0.020832343
248	0xbfa20d8c	-1.2660384
249	0xbda2c660	-0.07947993
250	0xbf2352f8	-0.63798475
251	0xbe50974e	-0.20370218
252	0xbf8d1cfe	-1.1024473
253	0x3e4f471d	0.20241971
254	0xbf5dab46	-0.8658947
255	0xbf2c4c09	-0.6730352

shared.3.weight f4 [256, 256]
0	0xbddcad88	-0.10775286
1	0xbda387be	-0.07984875
2	0xbf1bce80	-0.6086197
3	0xbd59cea0	-0.05317557
4	0xbed0c267	-0.40773317
5	0x3d8e9f1e	0.06963943
6	0xbf0366a2	-0.5132848
7	0xbf1c45bf	-0.61043924
8	0x3d051973	0.032494973
9	0xbfff45d5	-1.9943186
10	0x3dc6b399	0.09702224
11	0xbda6eadf	-0.08150267
12	0xbd7e3b0d	-0.062068034
13	0xbde52db5	-0.111903585
14	0xbfad957a	-1.3561242
15	0xbd7cd11e	-0.061722867
16	0xbfbf9e28	-1.497014
17	0xbe9eea66	-0.31038207
18	0xbe0b9bb5	-0.13633616
19	0xbeaa78d1	-0.332953
20	0xbe1f591b	-0.15561335
21	0x3e3c7700	0.1840477
22	0xbec53871	-0.38519624
23	0xbff43c6c	-1.9080939
24	0xbfbeb76e	-1.4899728
25	0x3ec3ae79	0.3821905
26	0x3d12a1b7	0.035798755
27	0x3cf0cd12	0.02939466
28	0x3e1eab32	0.15494993
29	0xbe3e194b	-0.18564336
30	0xbf94a54b	-1.1612943
31	0xbfae15df	-1.3600425
32	0xbe3ee3db	-0.18641607
33	0x3e10087d	0.14065738
34	0xc0726e4c	-3.787982
35	0xbf71e40e	-0.9448861
36	0x3e628b5b	0.22123472
37	0xbd029d45	-0.031888265
38	0xbe8c7061	-0.27429488
39	0xbf1b6dca	-0.607144
40	0x3e1d46bd	0.15359016
41	0xbe5adf06	-0.21374139
42	0x3e8d09ac	0.27546442
43	0x3e24f515	0.16109116
44	0xbda681cb	-0.08130225
45	0xbdce9d42	-0.10088588
46	0xbeae97b1	-0.34100106
47	0x3df70811	0.120620854
48	0xbecbd527	-0.3981106
49	0x3dd0674e	0.10175954
50	0x3cb2f613	0.021845853
51	0x3e1ce740	0.1532259
52	0xbf6fa74e	-0.9361466
53	0xbe98ab27	-0.2981808
54	0xbda230fc	-0.07919499
55	0x3d5063e4	0.050876513
56	0x3d011ff5	0.031524617
57	0xc0287eb3	-2.632733
58	0xbefb8367	-0.4912369
59	0xbc912c5d	-0.01772135
60	0xbd23ad87	-0.03996041
61	0xbc731122	-0.014835628
62	0xbe6f2716	-0.23354754
63	0x3cd29e57	0.025710268
64	0xbc7bec33	-0.0153761385
65	0x3d699643	0.057028066
66	0x3db28d16	0.08718316
67	0x3e590650	0.21193814
68	0xbf25a451	-0.6470385
69	0x3ebffa7a	0.37495786
70	0xbe46f178	-0.1942805
71	0xbda1959e	-0.07889865
72	0xbfa92038	-1.3212957
73	0xbebb770f	-0.36614272
74	0xbf19ad47	-0.60030025
75	0xbe82e4b0	-0.255651
76	0xbe97b5f4	-0.29631007
77	0xbe62b41d	-0.2213902
78	0x3ddcb27a	0.10776229
79	0xbcd9a73a	-0.026568998
80	0xbec3bc21	-0.38229468
81	0xba5fc2ab	-0.00085357827
82	0xbd518f74	-0.0511622
83	0x3e265a98	0.16245496
84	0xbe40aa41	-0.18814947
85	0x3d111184	0.035417095
86	0xbe89a684	-0.26884854
87	0x3e0667e8	0.13125575
88	0xbf092466	-0.53571165
89	0xbdd36e05	-0.10323719
90	0x3dce6b5b	0.1007907
91	0x3eb9894b	0.3623756
92	0xbdcb4e26	-0.09927015
93	0x3dc660ca	0.0968643
94	0x3d01a843	0.031654608
95	0x3e1dc2b8	0.1540631
96	0x3e015fd8	0.12634218
97	0xbf248648	-0.64267397
98	0x3e89aba6	0.2688877
99	0xbf7d7407	-0.9900517
100	0x3e5049c2	0.20340636
101	0xbd701dd8	-0.05862221
102	0x3f0186bc	0.50596213
103	0x3f028ad3	0.5099308
104	0xbe7916ee	-0.24325153
105	0x3c2a8301	0.01040721
106	0x3aafc180	0.0013409108
107	0x3ec0a33d	0.3762454
108	0xbf85c7c1	-1.0451585
109	0xbe0e7b48	-0.13914216
110	0xbfab7209	-1.3394176
111	0xbf62484d	-0.8839157
112	0xbfb5b347	-1.4195336
113	0xbe0badcc	-0.13640517
114	0x3e46e99a	0.1942505
115	0xbe43b74a	-0.19112888
116	0x3eac5db1	0.3366523
117	0x3e7dadfe	0.24773404
118	0xbe8ddc27	-0.27707025
119	0x3c4a78a2	0.012357863
120	0xbf1fa670	-0.6236334
121	0xbf03b539	-0.514484
122	0xbd1c271c	-0.038123235
123	0xbd6dea93	-0.058085036
124	0xbe1456b0	-0.14486194
125	0xbf1be831	-0.6090117
126	0xbe71e310	-0.23621774
127	0xbe48eefc	-0.19622415
128	0x3e487aab	0.19578044
129	0xbf3a23aa	-0.7271067
130	0x3e63a0ea	0.22229353
131	0xbeb6e419	-0.357209
132	0xbf1d7fc4	-0.6152308
133	0x3d943558	0.07236737
134	0xbda675f9	-0.0812797
135	0x3e03dca6	0.1287714
136	0x3d6071ce	0.054796033
137	0x3e8ac210	0.27101183
138	0x3e1f7644	0.15572459
139	0x3e490996	0.19632563
140	0xbebe64a6	-0.37186164
141	0xbf959053	-1.1684669
142	0xbe5089ac	-0.20365018
143	0xbf3760b4	-0.7163193
144	0xbeb316a0	-0.349782
145	0x3d92899f	0.071551554
146	0xbec88d3b	-0.3917025
147	0xbe7be2f9	-0.24598302
148	0xbe90b8e1	-0.2826605
149	0x3e7c7127	0.24652539
150	0xbd74708d	-0.05967765
151	0xbe940b30	-0.28914785
152	0xbdb173b6	-0.08664648
153	0x3d37d9e8	0.044885546
154	0xbc8edfad	-0.017440641
155	0x3e56a815	0.20962556
156	0xbf3ffda9	-0.7499643
157	0x3d2a081d	0.041511644
158	0xbe4f7828	-0.2026068
159	0x3eab4123	0.33448133
160	0xbe877fbc	-0.2646464
161	0x3ea143a3	0.31496915
162	0xbe03b5b1	-0.12862279
163	0xbea93505	-0.33048263
164	0x3e5e879c	0.21731418
165	0x3e956e24	0.29185593
166	0xbe4f1cc1	-0.20225812
167	0x3d989f90	0.07452309
168	0xbeb4683f	-0.35235783
169	0xbf40812d	-0.75197107
170	0x3e1a2862	0.15054467
171	0x3d5ad25b	0.053423267
172	0xbe230388	-0.15919316
173	0xbc7295c3	-0.014806214
174	0xbf0cd350	-0.5500994
175	0x3cbe9f00	0.023269176
176	0x3eb35adc	0.35030258
177	0xbf54b4fb	-0.83088654
178	0x3e48b542	0.19600394
179	0xc09114c7	-4.5337863
180	0xbf3cb24c	-0.7370956
181	0x3d139b1e	0.036036603
182	0xbe8ff35b	-0.28115353
183	0xbe6cc92c	-0.23123616
184	0xbdb81a11	-0.08989347
185	0x3eb8e708	0.36113763
186	0xbdd3469a	-0.103162006
187	0xbd8efcf2	-0.06981839
188	0xbfc5646a	-1.5421269
189	0x3d8cd6d5	0.068769135
190	0xbe873edb	-0.26415142
191	0x3e67860a	0.22609726
192	0x3e853feb	0.26025328
193	0xbe86f045	-0.26355186
194	0xbe14a24a	-0.14515033
195	0xbe12ac9a	-0.14323655
196	0xbdc44350	-0.09583151
197	0xbe2b0863	-0.16702418
198	0x3e291db8	0.16515243
199	0xbf015479	-0.5051952
200	0xc03f8ddc	-2.9930334
201	0xbefc411a	-0.4926842
202	0x3cbce91e	0.023060378
203	0xbdc2b757	-0.095076256
204	0xbfbb8ee7	-1.4652985
205	0xbfefa998	-1.8723631
206	0x3daa4877	0.08314603
207	0xbdceb264	-0.10092619
208	0x3dd5c792	0.10438456
209	0xbcd3e184	-0.02586437
210	0x3ebc0260	0.36720562
211	0x3dd4a50a	0.10383041
212	0xbcd85259	-0.026406454
213	0xbe623e56	-0.22094092
214	0xbe7f00c5	-0.24902637
215	0x3e01cfde	0.12676951
216	0xbf201e12	-0.62545884
217	0xbeac83bc	-0.33694255
218	0xbe0c0564	-0.13673931
219	0x3c8f162a	0.017466623
220	0xbdd683d4	-0.10474363
221	0x3efcdef9	0.49388865
222	0x3ea23825	0.3168346
223	0x3dba4400	0.09095001
224	0xbeecd21a	-0.46254045
225	0x3e89eb6d	0.26937428
226	0xbe18a45b	-0.14906447
227	0xbdb51aae	-0.08842979
228	0xbff6781c	-1.9255404
229	0x3e539ae3	0.20664553
230	0xbeadc371	-0.33938172
231	0xbea351a3	-0.3189822
232	0x3d46f1c7	0.04857042
233	0xbe46d94e	-0.19418833
234	0xbf805711	-1.002657
235	0xbe8a4f37	-0.2701356
236	0xbf306803	-0.6890871
237	0xbed538a4	-0.41644776
238	0x3e88470d	0.26616707
239	0x3edf1355	0.43569437
240	0x3e32ab1e	0.17448089
241	0x3e774f4e	0.24151346
242	0x3e5192e3	0.20466189
243	0x3d33b586	0.043874286
244	0xbe7f6a6b	-0.24942939
245	0xbf2166ca	-0.6304747
246	0xbf3c0805	-0.73449737
247	0xbf8985ed	-1.0743996
248	0xbf5447e4	-0.82922196
249	0x3e3be083	0.18347363
250	0x3de70bd9	0.11281557
251	0xbe1e027b	-0.15430634
252	0xbf190a45	-0.59781295
253	0x3e6a75cd	0.228965
254	0x3f309c78	0.6898875
255	0xbf1b0418	-0.6055312

shared.3.bias f4 [256]
0	0x3e87ec8d	0.2654766
1	0x3ee838f9	0.45355967
2	0xbf05fdbe	-0.52340305
3	0x3eae5812	0.34051567
4	0x3e1b8d88	0.15190709
5	0xbd67ad47	-0.056561735
6	0x3e43cacf	0.19120334
7	0x3def17a3	0.1167443
8	0xbedf8f5b	-0.4366406
9	0xbe3d2c15	-0.18473847
10	0x3dc792d4	0.09744802
11	0x3eab3490	0.3343854
12	0x3e3508ba	0.1767911
13	0xbfada07c	-1.3564601
14	0x3e173860	0.14767599
15	0xbf1ac9bb	-0.60464066
16	0xbe5ca980	-0.21549034
17	0x3d4424c5	0.04788663
18	0x3ded845f	0.115975134
19	0xbe1652af	-0.14679979
20	0x3dbb827f	0.091557495
21	0xbdfddbaa	-0.12395413
22	0x3e8acbfc	0.27108753
23	0xbeb02af6	-0.34407777
24	0xbe3064da	-0.17225972
25	0xbed3729c	-0.41298378
26	0x3eeae365	0.45876613
27	0xbedcd6df	-0.43132684
28	0xbc4fa1c3	-0.012672844
29	0xbf2ad0fd	-0.6672514
30	0x3ed0fc57	0.4081752
31	0xbd052d23	-0.03251375
32	0x3de939ee	0.11388002
33	0xbdc1a707	-0.09455686
34	0xbe1bb714	-0.15206558
35	0xbea39758	-0.31951404
36	0xbe3e4a3b	-0.18583004
37	0x3e15e373	0.14637546
38	0x3e3aced4	0.18242961
39	0xbc2b8f14	-0.010471124
40	0xbe7558a6	-0.23959598
41	0x3e9091f7	0.28236362
42	0x3e038781	0.1284466
43	0x3db0223b	0.08600279
44	0xbf3bcb4d	-0.7335709
45	0x3f05a201	0.52200323
46	0x3e06b23d	0.1315393
47	0x3ecda7e3	0.4016715
48	0xbf059e6a	-0.52194846
49	0x3e3d8606	0.18508157
50	0x3ec3ff48	0.38280702
51	0xbcae3ab9	-0.021268236
52	0x3ed6adaa	0.4192937
53	0x3e80c472	0.25149876
54	0xbf17de61	-0.593237
55	0x3deb3743	0.1148515
56	0xbde19df0	-0.11016452
57	0x3ee2191c	0.44159782
58	0x3d037b60	0.03210008
59	0xbf6ef7f1	-0.9334708
60	0x3f1f4b4b	0.6222426
61	0xbe7118ba	-0.23544589
62	0xbe904357	-0.28176376
63	0xbfb2a9d5	-1.3958079
64	0x3d263c66	0.040584944
65	0xbee5a824	-0.44854844
66	0xbdd6ade8	-0.10482389
67	0x3dbd1f1d	0.0923445
68	0xbf1f182d	-0.62146264
69	0xbe57f864	-0.21090847
70	0xbd01d710	-0.03169924
71	0x39004a56	0.00012234724
72	0x3f0e8c24	0.5568259
73	0x3e8a864b	0.27055582
74	0xbe687a21	-0.22702838
75	0x3e2686c1	0.16262342
76	0x3eb49e07	0.35276815
77	0xbd961ae6	-0.07329349
78	0xbce2dcbf	-0.02769315
79	0x3d40f176	0.047105275
80	0xbf53b290	-0.8269434
81	0x3ee6054c	0.44925916
82	0xbebed400	-0.37271118
83	0x3ebc33c5	0.36758247
84	0x3ef295b7	0.47379848
85	0xbfcfa3de	-1.6221883
86	0xbf091034	-0.5354035
87	0xbd61cd4c	-0.055127427
88	0x3e01bf9b	0.12670748
89	0xbefcfa92	-0.4940992
90	0xbe21f538	-0.158162
91	0xbeb322f3	-0.34987602
92	0x3e139c3c	0.14415067
93	0x3ea68406	0.325226
94	0xbd40195c	-0.046899185
95	0x3efa019e	0.4882936
96	0xbe9a4077	-0.30127308
97	0x3e422dab	0.18962733
98	0x3e3909a1	0.1807008
99	0xbc7e8799	-0.015535259
100	0x3d900872	0.07032861
101	0xbed9ccfe	-0.4253921
102	0xbf5ee2ec	-0.87065005
103	0xbba46a41	-0.0050175493
104	0x3eaac65f	0.3335447
105	0x3d9d96e0	0.07694793
106	0xbf0fdc46	-0.56195486
107	0xbf520b5f	-0.820486
108	0xbec76e9c	-0.38951576
109	0x3c9ffabd	0.019528741
110	0x3e1f6b9b	0.15568392
111	0x3e53173b	0.2061433
112	0x3e20322c	0.15644139
113	0xbf20f49b	-0.6287324
114	0x3dbbf4b4	0.09177533
115	0xbdfaa9db	-0.122394286
116	0x3d130c79	0.035900567
117	0xbd87e5a3	-0.066355966
118	0xbf02c97e	-0.510887
119	0xbe1ea5e2	-0.15492967
120	0x3f3c53c4	0.73565316
121	0x3f1776ce	0.59165657
122	0xbf47efb6	-0.78100145
123	0xbf5be989	-0.8590322
124	0xbdd6596a	-0.10466273
125	0xbee83041	-0.45349315
126	0xbe877a7c	-0.26460636
127	0x3dc77d95	0.0974075
128	0xbfa2cb7b	-1.2718347
129	0x3e8a4d03	0.2701188
130	0xbe05d819	-0.13070716
131	0xbb7de733	-0.0038742542
132	0x3ebc9668	0.368335
133	0x3e35e1f9	0.17761983
134	0x3d398df9	0.04530141
135	0xbf6748e6	-0.9034561
136	0xbf260b76	-0.6486124
137	0xbecd9341	-0.40151408
138	0xbf473db9	-0.77828556
139	0x3ca04528	0.019564226
140	0xbdc8006e	-0.09765707
141	0x3e85f933	0.26166686
142	0xbc5bf95f	-0.013426154
143	0xbd57008d	-0.05249076
144	0xbf4e964e	-0.80698097
145	0xbee96532	-0.45585018
146	0xbf2bcdc8	-0.6711087
147	0xbdce094b	-0.10060366
148	0x3f24e97c	0.6441877
149	0xbfc790cc	-1.5591063
150	0xbe2e3caf	-0.17015336
151	0xbea57030	-0.32312155
152	0xbfbebc6d	-1.4901253
153	0xbdaf0868	-0.08546525
154	0xbe12ee12	-0.14348629
155	0xbf3938f9	-0.7235256
156	0xbdf5f8a0	-0.12010312
157	0xbf4a9b5f	-0.7914333
158	0xbdffb8a6	-0.12486391
159	0xbf963ea1	-1.1737863
160	0xbfc1866f	-1.5119151
161	0x3ea3afbf	0.3197002
162	0x3cbb1108	0.02283527
163	0xbf277cc2	-0.6542474
164	0x3e807c86	0.25095004
165	0x3e2eb41b	0.17060892
166	0x3e15a35a	0.14613095
167	0x3e6a4bf7	0.22880541
168	0x3e81a06d	0.25317708
169	0xbe55df2a	-0.20885912
170	0xbfb17cea	-1.3866246
171	0x3e3c46eb	0.18386428
172	0xbe91937e	-0.2843284
173	0x3e9a1166	0.300914
174	0x3da7a950	0.08186591
175	0xbe3839d9	-0.17990817
176	0x3e0ab5c6	0.13545904
177	0x3ecc76b0	0.399343
178	0x3e50d932	0.20395353
179	0xbe231c5c	-0.15928787
180	0x3ebe0abb	0.37117562
181	0x3e0ad93c	0.13559431
182	0xbeb6ef29	-0.3572934
183	0xbbd95534	-0.0066324715
184	0xbe7fb389	-0.24970831
185	0x3d869fd3	0.06573453
186	0x3e3bd50a	0.18342987
187	0xbf7248f8	-0.9464259
188	0xbf1308bd	-0.5743521
189	0x3f0c0c3c	0.5470617
190	0xbd2e8e65	-0.042616267
191	0xbea1dc1d	-0.31613246
192	0xbeed8ab0	-0.46394873
193	0x3babb74b	0.005240356
194	0x3d0a7b0d	0.033808757
195	0x3dc5d98d	0.09660635
196	0x3eaef071	0.34167817
197	0xbe9051f7	-0.28187534
198	0xbf1918c4	-0.59803414
199	0xbecf448d	-0.40481988
200	0x3e1045a6	0.14089069
201	0xbe662932	-0.22476652
202	0xbeece5a0	-0.4626894
203	0xbe22297f	-0.15836142
204	0xbe431a66	-0.19053039
205	0xbe7cf844	-0.24704081
206	0xbe0c832c	-0.13721913
207	0x3d348aef	0.04407781
208	0xbe3b7811	-0.1830752
209	0x3e3b9934	0.18320161
210	0xbea00e60	-0.31260967
211	0x3ea3610f	0.31909987
212	0xbed23929	-0.41059235
213	0xbeb73fac	-0.35790765
214	0x3ea3f650	0.3202386
215	0x3e8226db	0.2542027
216	0x3e2c7249	0.16840471
217	0x3da7279c	0.08161852
218	0x3eb94cba	0.3619135
219	0x3e35e94c	0.17764777
220	0x3e09b09a	0.13446274
221	0xbe77e956	-0.24210104
222	0xbe5a43c2	-0.2131491
223	0xbdd06cfb	-0.101770364
224	0xbe01e648	-0.12685502
225	0xbdbb79a7	-0.09154063
226	0x3e8ef182	0.2791863
227	0x3e411792	0.18856648
228	0x3f019ae7	0.5062699
229	0xbe0278e2	-0.12741426
230	0x3ea1f0a6	0.31628913
231	0x3e1beacb	0.15226285
232	0x3d91c33f	0.07117318
233	0x3dfc5f0c	0.12322816
234	0xbcd6e471	-0.026231976
235	0x3ebb530d	0.365868
236	0x3e85bb6a	0.26119548
237	0xbe302331	-0.17200924
238	0x3ce853aa	0.028360207
239	0xbf69303c	-0.91089225
240	0x3e7fcc3c	0.24980253
241	0xbe290265	-0.1650482
242	0xbf1c1181	-0.6096421
243	0xbf944995	-1.1584955
244	0x3e52babe	0.20579049
245	0xbebee6cf	-0.37285468
246	0x3e8c1120	0.27356815
247	0xbe40e584	-0.18837553
248	0xbde97370	-0.11398971
249	0xbf0411e7	-0.51589817
250	0xbdbbf0ce	-0.09176789
251	0xbf0da3c9	-0.5532804
252	0xbb18a108	-0.0023289341
253	0x3e00002b	0.12500064
254	0x3f24a183	0.6430895
255	0x3e8a9753	0.27068576

mean.weight f4 [6, 256]
0	0x3e08f3a1	0.13374187
1	0xbcd0064c	-0.025393628
2	0x3d8617af	0.06547486
3	0x3ea926b3	0.33037338
4	0x3eb78925	0.3584682
5	0xbda3ed55	-0.08004252
6	0x3c4b2c0d	0.012400639
7	0xbe07de4b	-0.13268392
8	0x3f1cf99a	0.6131836
9	0x3e57ea44	0.21085459
10	0x3ed8ab47	0.42318174
11	0xbcf532cf	-0.029931454
12	0x3d99d469	0.07511217
13	0x3d3616a9	0.044455204
14	0x3e6cb4b5	0.2311581
15	0xbe8bbb15	-0.2729117
16	0x3d42e96e	0.047585897
17	0x3e1dbcc1	0.15404035
18	0x3ea04741	0.31304362
19	0xbe4401db	-0.19141333
20	0x3ba620a6	0.00506981
21	0x3f24914a	0.64284194
22	0x3ea5a798	0.32354426
23	0xbfa85ce6	-1.315335
24	0xbeb8d4ef	-0.36099955
25	0xbbb6e8bd	-0.005581944
26	0xbf0053f1	-0.50128084
27	0xbdb58f6b	-0.088652454
28	0xbe1d2378	-0.15345562
29	0xbd7db89a	-0.061943628
30	0xbef06ab5	-0.4695641
31	0xbd9a54c1	-0.07535697
32	0x3f092066	0.5356506
33	0x3e17005e	0.14746234
34	0x3d6c093a	0.057625987
35	0xbeabc068	-0.33545232
36	0xbe12bb14	-0.14329177
37	0xbe8c4e32	-0.27403408
38	0x3e47a3be	0.19496056
39	0xbd9f81f7	-0.07788461
40	0x3d967e76	0.07348339
41	0xbe87a304	-0.2649156
42	0x3eeeda4f	0.4665093
43	0xbf1fb05e	-0.6237849
44	0x3d26349a	0.04057751
45	0x3f0aa2f5	0.541549
46	0x3f18ead1	0.597333
47	0xbd0b0bf1	-0.033946935
48	0x3f2956af	0.66147894
49	0x3e8b3c08	0.27194238
50	0x3e9f47fd	0.3110961
51	0x3cddb328	0.027062967
52	0x3dd9afcf	0.10629236
53	0x3e578eea	0.21050611
54	0x3e519dca	0.20470348
55	0x3e904195	0.28175035
56	0x3c7e109f	0.015506892
57	0x3d50264c	0.050817773
58	0x3dbe3f08	0.09289366
59	0x3d8cd44c	0.0687643
60	0xbe533912	-0.2062724
61	0x3e3e40bd	0.18579383
62	0x3f660416	0.89849985
63	0x3cb940fc	0.022613995
64	0x3d18198d	0.037133742
65	0x3f49b26d	0.7878788
66	0xbc2038ba	-0.00977915
67	0x3e2fb598	0.17159116
68	0x3f214e9f	0.6301059
69	0xbd8cc33b	-0.06873175
70	0x3e802950	0.2503152
71	0xbed2666e	-0.41093773
72	0x3e305557	0.17220055
73	0x3eb47ea5	0.35252872
74	0xbda3fde5	-0.08007411
75	0x3d1880ce	0.037232213
76	0xbe1ffbc7	-0.15623389
77	0x3cf2160d	0.02955153
78	0x3e258703	0.16164784
79	0xbf59d774	-0.8509438
80	0x3e9326e8	0.2874062
81	0x3ddf8cbc	0.10915515
82	0x3e16c1fd	0.14722438
83	0xbf2e5a47	-0.681065
84	0x3d2e7fa2	0.04260219
85	0xbeba37e3	-0.36370763
86	0xbf1cea5f	-0.6129512
87	0xbbdd4d04	-0.0067535657
88	0x3d834d7e	0.06411265
89	0xbd2cf0c4	-0.0422218
90	0x3f21a288	0.6313863
91	0x3d44beef	0.04803365
92	0x3e8b44c0	0.2720089
93	0xbdcb217b	-0.09918495
94	0xbe1004ad	-0.14064284
95	0x3e5ebcdc	0.21751732
96	0x3db66c49	0.089073725
97	0x3e10e099	0.14148177
98	0xbc105311	-0.008808867
99	0x3ea85802	0.32879645
100	0x3eb6852f	0.35648486
101	0xbd3ea2a8	-0.04654184
102	0xbe80b8b3	-0.25140914
103	0x3e3cf91f	0.18454407
104	0x3d93a2e9	0.07208807
105	0x3db82d3b	0.08993002
106	0xbe0427d9	-0.12905826
107	0x3e275bcd	0.16343613
108	0xbe45072c	-0.19241017
109	0x3d486c60	0.04893148
110	0xbe2a19cc	-0.16611403
111	0x3d617d96	0.05505141
112	0xbe0f0c38	-0.13969505
113	0x3e538265	0.2065521
114	0x3e01d27e	0.12677953
115	0x3d76d8e1	0.060265426
116	0xbe5ec0de	-0.2175326
117	0xbca51171	-0.020149918
118	0x3ee016fe	0.43767542
119	0x3ea5c1d9	0.32374457
120	0xbec84183	-0.3911248
121	0xbdd53e41	-0.104122646
122	0x3ee69c66	0.45041198
123	0xbdd31b62	-0.10307957
124	0xbf5ac672	-0.85459054
125	0x3d14b137	0.036301818
126	0x3ee64728	0.44976163
127	0xbe004c21	-0.12529041
128	0x3ec7f112	0.3905111
129	0xbc1dd633	-0.009633589
130	0xbcd461d1	-0.025925549
131	0xbebd821a	-0.37013322
132	0x3cc00821	0.023441376
133	0xbe394eac	-0.18096417
134	0x3c262c98	0.010142468
135	0xbd3f4503	-0.046696674
136	0xbeb37a09	-0.35054043
137	0xbddd24b2	-0.10798015
138	0x3ce9d9e3	0.02854628
139	0x3e2ddb01	0.16978075
140	0x3becbb18	0.0072244518
141	0x3e8732d0	0.26405954
142	0x3ee69830	0.45037985
143	0x3ca52cb7	0.020162923
144	0xbf1d242d	-0.61383325
145	0xbe199e69	-0.15001835
146	0x3fc6fd8b	1.5546125
147	0x3daabaa4	0.0833638
148	0xbebb0bf0	-0.36532545
149	0x3c19e145	0.009392087
150	0x3d1b7e31	0.037962142
151	0xbe27ffab	-0.16406123
152	0xbdcbeac3	-0.099568866
153	0xbc920a54	-0.01782719
154	0x3ccfa3e9	0.025346713
155	0xbdd9fb49	-0.10643632
156	0xbd2ab7b6	-0.041679107
157	0xbcde15b7	-0.027109964
158	0x3dace565	0.08442191
159	0x3e28d202	0.16486362
160	0xbf4e32bf	-0.8054618
161	0xbe306fcc	-0.17230147
162	0x3d8f0357	0.06983059
163	0x3c281e10	0.010261074
164	0x3e183b63	0.14866404
165	0x3e0b35ae	0.13594696
166	0x3cacad10	0.021078616
167	0x3e0b9e39	0.13634576
168	0x3f3d2d64	0.73897386
169	0x3cbbd4fe	0.022928711
170	0x3ef5e5f8	0.48027015
171	0xbdb5008e	-0.088379964
172	0x3eb40570	0.35160398
173	0x3e0fbbd1	0.1403649
174	0xbde473ec	-0.11154923
175	0x3d9e3b2c	0.0772613
176	0x3d92c43e	0.071663365
177	0xbdafa051	-0.085755
178	0xbe9f8690	-0.3115735
179	0x3bcc069c	0.006226374
180	0x3d15f538	0.036610812
181	0x3e3b6d1e	0.18303344
182	0xbe70c639	-0.23513116
183	0x3d9a543f	0.075356
184	0x3dec73d2	0.115455285
185	0xbe97e0f6	-0.2966382
186	0xbf086af0	-0.53288174
187	0xbdaa07e3	-0.083022855
188	0x3d8834f6	0.066507265
189	0xbe2e482e	-0.17019722
190	0x3ed5fd83	0.41794977
191	0x3fce0e86	1.6098182
192	0xbd8ff7c6	-0.07029681
193	0xbe38ea1a	-0.18058053
194	0xbd05c45e	-0.032657973
195	0xbdc8df6a	-0.09808238
196	0xbe2ad825	-0.16684015
197	0xbfabb880	-1.341568
198	0x3ddf6b21	0.10909105
199	0xbd3480d9	-0.04406819
200	0x3e36f581	0.1786709
201	0x3e34b04a	0.17645374
202	0xbe81d121	-0.25354865
203	0xbe324099	-0.17407455
204	0x3e87d05c	0.26526153
205	0xbd9dfdf9	-0.07714457
206	0x3d8f3b0c	0.06993684
207	0x3e7190ca	0.23590389
208	0xbd7f9c1e	-0.062404744
209	0x3b9abfd7	0.004722576
210	0xbda3047f	-0.07959842
211	0x3ba9c82e	0.005181334
212	0xbea33963	-0.3187972
213	0xbf0c761c	-0.5486772
214	0x3bdfd6fa	0.006831047
215	0x3bc067ec	0.0058717635
216	0x3eab785d	0.33490267
217	0xbdcb7ac6	-0.099355265
218	0xbe063c25	-0.13108881
219	0x3e40cd9d	0.18828435
220	0xbdb7fb2d	-0.08983455
221	0xbe8328b6	-0.25616997
222	0xbe257cb6	-0.16160855
223	0xbee11179	-0.43958643
224	0xbe769070	-0.24078536
225	0x3ec32861	0.38116744
226	0xbe03ac89	-0.12858786
227	0x3db02229	0.086002655
228	0xbea56573	-0.32303962
229	0xbd1b2e81	-0.037886146
230	0x3e4915e4	0.19637257
231	0x3d15a5e2	0.03653515
232	0xbf2d4240	-0.67679214
233	0x3db0d3c6	0.086341426
234	0x3e0845a2	0.13307813
235	0x3a8ddd2a	0.0010823358
236	0xbd8a00f8	-0.06738466
237	0x3e886742	0.2664128
238	0x3e1405ca	0.14455333
239	0xbedd2590	-0.4319272
240	0x3e88710c	0.26648748
241	0xbe884472	-0.2661472
242	0xbd3cdfab	-0.046111744
243	0xbb80f859	-0.0039358553
244	0xbe1d1ec7	-0.15343772
245	0x3f0f07a1	0.55871016
246	0xbe10deb8	-0.1414746
247	0x3e37493c	0.1789903
248	0x3f1a5a7f	0.60294336
249	0x3e82a4d1	0.2551637
250	0xbfc21c69	-1.516492
251	0xbc0cbb11	-0.008589522
252	0x3ef41843	0.4767476
253	0x3ce9a7fc	0.028522484
254	0x3d9f2c21	0.07772089
255	0x3e25afff	0.16180418

mean.bias f4 [6]
0	0x3e02feb4	0.12792474
1	0x3f425f92	0.7592708
2	0x3e948618	0.29008555
3	0xbe65df26	-0.22448406
4	0x3ea4653a	0.3210848
5	0x3ecb9f31	0.3976989

log_std.weight f4 [6, 256]
0	0xbd344d08	-0.044018775
1	0x3ce7bf65	0.028289506
2	0xbde78922	-0.11305453
3	0x3e3f37f9	0.18673696
4	0x3e4da25b	0.20081465
5	0xbd0df794	-0.034659937
6	0xbb9c3f0f	-0.0047682594
7	0xbdcfce1e	-0.101467356
8	0x3e9f005a	0.31054956
9	0x3e068fca	0.13140789
10	0x3e01cb9a	0.12675324
11	0xbd6ac64e	-0.057318024
12	0x3bc4fff2	0.0060119564
13	0xbd50f103	-0.051011097
14	0x3dea1370	0.11429489
15	0x3ecfed38	0.4061067
16	0xbd285bc5	-0.041103143
17	0x3dc3bb04	0.09557155
18	0x3e6337a7	0.22189198
19	0x3ca96aa6	0.020680737
20	0x3d2b77c4	0.041862264
21	0x3e97d9ca	0.29658347
22	0x3e1fd618	0.15609014
23	0xbcaa2023	-0.020767277
24	0x3cd9486e	0.026523795
25	0x3caa14e3	0.020761913
26	0x3e2b8939	0.16751565
27	0x3d5d2947	0.053994443
28	0xbcd69699	-0.026194857
29	0x3d49dc91	0.049282614
30	0x3eb59bb5	0.35470358
31	0xbd7ad32a	-0.061236538
32	0x3e4c86fc	0.19973367
33	0xbdcd3b45	-0.100210704
34	0xbbd4bb1b	-0.0064920313
35	0xbe063a85	-0.13108261
36	0xbcbecccc	-0.023291014
37	0x3e07e55c	0.13271087
38	0xbcbe7298	-0.023248002
39	0xbd80c350	-0.06287253
40	0x3d307eca	0.043089665
41	0xbd541bb0	-0.051784217
42	0x3e2293b0	0.15876651
43	0x3d02fa8e	0.03197723
44	0xbd799411	-0.060932223
45	0x3e5778f6	0.21042237
46	0x3e43b20f	0.19110893
47	0xbc5cb016	-0.0134697165
48	0x3e4e9b1c	0.20176357
49	0x3e349ef0	0.17638755
50	0x3e0cd174	0.13751775
51	0xbd0df3f8	-0.034656495
52	0x3d0a3b4a	0.03374795
53	0x3d16abec	0.03678505
54	0x3d950192	0.0727569
55	0x3dc1bb99	0.094596095
56	0x3dcb9bf0	0.09941852
57	0xbcaeca4b	-0.021336695
58	0xbd394dd0	-0.045240223
59	0xbd206e92	-0.039167948
60	0xbcde80b0	-0.027160972
61	0x3d751936	0.059838496
62	0x3eea20cf	0.45728156
63	0xbc6542e7	-0.013993002
64	0x3d893232	0.06699027
65	0x3e81d776	0.25359696
66	0xbe0418a1	-0.1290002
67	0x3d9faff6	0.07797234
68	0x3ddc5df9	0.10760111
69	0x3cda3571	0.026636811
70	0x3dc94d81	0.09829236
71	0xbd0e37d7	-0.03472122
72	0x3d88330c	0.066503614
73	0x3e4c2004	0.19934088
74	0xbd787a19	-0.060663316
75	0x3cece0f5	0.028915862
76	0x3d2c43aa	0.042056717
77	0xbd874b82	-0.06606199
78	0x3d30766f	0.043081697
79	0xbd4ecfb3	-0.050491046
80	0x3dee187b	0.11625763
81	0x3c8cd4a1	0.017191233
82	0x3cafc9c4	0.021458514
83	0x3e006c80	0.1254139
84	0xbd28dcad	-0.041226078
85	0x3da6aa00	0.08137894
86	0xbe666e4f	-0.22503017
87	0xbd12e61c	-0.03586398
88	0xbd011657	-0.031515446
89	0xbd3d58c6	-0.04622724
90	0x3d25cd1e	0.040478818
91	0xbca71dcf	-0.020399956
92	0x3dff6a26	0.12471418
93	0xbafbfacf	-0.0019224527
94	0x3d1d7880	0.038444996
95	0x3ddf8c1c	0.109153956
96	0xbbf4a2a6	-0.0074656783
97	0x3cec6578	0.028856978
98	0xbc973d37	-0.018461807
99	0xbe067874	-0.13131887
100	0x3e53f344	0.20698267
101	0xbbae2e06	-0.005315545
102	0xbe31cd87	-0.17363559
103	0x3de941ec	0.11389527
104	0x3b0c37e1	0.002139561
105	0x3c1a1f64	0.009406898
106	0x3c2b7cdf	0.010466783
107	0xbd3e291b	-0.04642592
108	0x3d3f791c	0.04674636
109	0x3d653798	0.05596122
110	0xbc64e4b8	-0.013970546
111	0xbad5b7bd	-0.0016305369
112	0x3de6ef7e	0.11276148
113	0x3d5af77a	0.05345867
114	0x3d12c1b0	0.035829246
115	0xbbecc5a7	-0.0072257104
116	0x3d8fdd7b	0.07024666
117	0xbccb99e0	-0.024853647
118	0x3e23c4f2	0.15993097
119	0x3e09c8bd	0.13455482
120	0x3d3299b4	0.043603614
121	0x3c400e3a	0.011722142
122	0x3e38c14d	0.18042488
123	0xbd02f615	-0.031972963
124	0x3e5ae2e4	0.21375614
125	0x3d55d3ef	0.05220407
126	0x3e4ba032	0.19885328
127	0x3daa69e2	0.08320977
128	0x3e4218bb	0.18954746
129	0x3cd1bd07	0.02560283
130	0x3d722c37	0.059124198
131	0xbc727a61	-0.014799685
132	0xbda2bebb	-0.07946535
133	0x3d0eb5f2	0.034841485
134	0x3cc78047	0.02435316
135	0xbc041793	-0.008062261
136	0xbb84a347	-0.0040477845
137	0xbc7502ec	-0.01495431
138	0xbc6bc615	-0.014390488
139	0xbd1dff69	-0.038573656
140	0x3d58354e	0.05278521
141	0xbcbf1657	-0.023326082
142	0x3e4b3601	0.1984482
143	0x3da7b669	0.08189089
144	0x3e6bd0f4	0.23028928
145	0xbd0868a5	-0.03330292
146	0x3ead4c65	0.33847347
147	0x3d210f27	0.03932109
148	0xbd041547	-0.032246854
149	0x3c51b140	0.012798607
150	0x3d9e0a43	0.07716801
151	0x3c2d98df	0.010595529
152	0x3d6e1a16	0.058130346
153	0x3cd1adac	0.025595509
154	0xbcce50b2	-0.025184963
155	0xbb8215d5	-0.0039698877
156	0x3cd5db06	0.026105415
157	0xbd25e61d	-0.040502656
158	0x3b6e452f	0.0036357155
159	0x3e9ae0fa	0.30249768
160	0xbcb3cb5c	-0.021947555
161	0x3d74e581	0.059789184
162	0xbc8179fc	-0.015805237
163	0xba84b080	-0.0010123402
164	0x3d69ee1f	0.057111856
165	0x3cdd1852	0.026989136
166	0xbc15ab7e	-0.009135125
167	0x3c47534a	0.012165854
168	0xbf02affc	-0.5104978
169	0xbd4c359e	-0.04985582
170	0x3e939457	0.28824112
171	0x3d8bfb55	0.06835047
172	0xbbd6a05a	-0.006549877
173	0x3b1c747d	0.0023873143
174	0xbbb6992c	-0.0055724587
175	0x3cd7267b	0.026263466
176	0xbd53d1c5	-0.051713724
177	0x3caef31b	0.021356156
178	0x3e7dc1da	0.2478098
179	0x3bcbf274	0.006223971
180	0xbc1d8aea	-0.009615639
181	0x3d303207	0.04301646
182	0xbde73e1a	-0.11291142
183	0x3d014ac7	0.031565454
184	0x3d87232d	0.06598506
185	0xbd57a51c	-0.052647695
186	0x3e82e1fb	0.25563034
187	0xbd746f53	-0.05967648
188	0x3c79f1c3	0.015255394
189	0xbd7d64a4	-0.061863557
190	0x3e1f66f8	0.15566623
191	0x3f1c3eb4	0.6103318
192	0xbc247733	-0.010038185
193	0x3e062485	0.13099869
194	0x3aa4429d	0.0012532059
195	0xbce28d8c	-0.027655385
196	0xbca96a9e	-0.020680722
197	0x3e9d5052	0.30725342
198	0xbcae5227	-0.021279408
199	0x3ccd5cfc	0.025068752
200	0x3d6d7144	0.057969347
201	0x3dc2e350	0.09516013
202	0xbc671e11	-0.0141062895
203	0xbcb3626e	-0.02189752
204	0x3df1912e	0.11795269
205	0x3bb63a19	0.005561125
206	0x3c0142e7	0.007889486
207	0x3cb1535c	0.021646194
208	0x3cb67ef6	0.022277337
209	0xbcdfc4c3	-0.027315503
210	0xbbe7ed75	-0.0070778676
211	0xbabe56c8	-0.0014521712
212	0xbce93e73	-0.02847216
213	0xbe288b2e	-0.16459343
214	0xbd17ecc7	-0.037091043
215	0xbd8d2f7f	-0.06893825
216	0x3e0c842f	0.13722299
217	0xbd3c4f24	-0.045973912
218	0xbe439c86	-0.19102678
219	0xbd5b5096	-0.05354365
220	0x3cb9dc0a	0.02268793
221	0x3e1c8f0e	0.15288946
222	0xbcbfa606	-0.023394596
223	0x3e621344	0.22077662
224	0x3cd58969	0.026066499
225	0x3d105314	0.03523548
226	0xbc64605f	-0.013938992
227	0x3bef9b33	0.0073122024
228	0x3dc2d77d	0.095137574
229	0xbd0778b4	-0.033074096
230	0x3d80353a	0.06260152
231	0xbd87d01d	-0.06631491
232	0x3e8d5c61	0.27609542
233	0x3d943a34	0.07237664
234	0x3d1b4d17	0.037915315
235	0xbd1b45cd	-0.037908364
236	0x3e121514	0.14265853
237	0x3e1a8527	0.15089856
238	0x3daf429e	0.08557628
239	0x3d91b5a0	0.0711472
240	0x3e1b77ea	0.15182462
241	0x3c3557cd	0.011068297
242	0xbd50476d	-0.050849367
243	0xbd3a892b	-0.04554097
244	0x3bc8de3d	0.0061300085
245	0x3e40d33d	0.18830581
246	0x3cf820d5	0.030289093
247	0x3d803b4c	0.0626131
248	0x3d112cc7	0.035443094
249	0x3e6513c5	0.22370823
250	0xbe92435f	-0.28567025
251	0x3cf71ff7	0.03016661
252	0x3e38086b	0.17971961
253	0xbd9ea30d	-0.07745943
254	0xbdb7b74f	-0.0897051
255	0x3e705ff0	0.23474097

log_std.bias f4 [6]
0	0xbfd6dc51	-1.6785985
1	0xbf9e549d	-1.2369572
2	0xbfd4dd90	-1.6630116
3	0xbff81366	-1.938092
4	0xbfccc7cc	-1.5998473
5	0xbfc76131	-1.5576535
