trained_models/Walker2dNormal-v3/sac/actor_1.pt (torch, 296896 bytes, 8 tensors)

shared.0.weight f4 [256, 17]
00000000: c860 71be 6669 98bf d44c 9cbe fb3b 32bf
00000010: 204a f6bc 7178 0b40 fda8 9d3f 152f ef3e
00000020: 0ab5 29bf 052e 34be 9a73 b03e 8833 3ebd
00000030: ceed aebd 90a2 203d f9a8 4fbd 7438 b23c
00000040: fd6b 8e3c 76a1 17be 0307 9840 4232 243f
00000050: 30d1 a23c 5162 65bf 5759 bb3d 87c2 a43e
00000060: 75a9 6ebf 4af1 72be 2002 913e bf6f e33e
00000070: cd07 cbbd b2b1 b0bd 8331 c0bb e29e 86be
00000080: 3680 d3bd e6d6 c2ba 9615 89bd 84ab fa3f
00000090: 1e1f 3040 9437 b83f 1910 ff3c 753e 5abf
000000a0: 2c61 c0bf 52ca f93e 2002 b7bf 7046 043f
000000b0: d153 6b3e b1b4 d93c e186 a53d ebb8 afbc
000000c0: 881f 1c3d 9429 b53d 60a9 293b bc07 c3bf
000000d0: 5d62 1f3f dc2d 25bf 8ee9 9ebe 1f88 fdbe
000000e0: 725c 26bf aae8 9d3e 3dfd 8cbd 615f 103d
000000f0: 5015 10be 39c4 0bbe c46a 90bd c37e 123e
00000100: 1f81 80bd 694f 39be 44c0 6d3d e7f8 d63c
00000110: 34cc 0bbf 4b03 a0bf acd0 f43f 3c97 de3f
00000120: 5c0b fd3e b9c5 d53f 4c89 ac3f 5c17 db3d
00000130: 2f0b 873d 984e 643f accc 19be 3b92 ddbb
00000140: b62f 9abd 7b43 f63c 139d 793c 3558 8dbd
00000150: f06b 153e 0e95 29bf 8c13 6abf b821 48bf
00000160: 7a28 9dbf 1ad9 443f 05e1 143f 3e6a e2be
00000170: b915 60be 83d7 3d3d e3f7 0cbf b4fa 9fbd
00000180: 389a fabd bd25 71bd 5a79 b0bc f1ac 7b3e
00000190: 59b3 f53d fa43 f6bc f601 53bf af65 7d3f
000001a0: c1fb db3f 12c9 513d 5da7 44bf 892b db3f
000001b0: 40a8 633f 913c 123f fb24 473e 0443 35bf
000001c0: a20d 653e a53f 7dbe 5a6b f2bd 2469 97bd
000001d0: 1e7c cabc 5abe a9bd 1dc5 093e 2bf6 b3be
000001e0: 0535 89bf 38c4 873e 0530 1740 fb12 173f
000001f0: 58bc 5f3f 44f4 e73d 2cb8 aebe a33d 94be
00000200: eaf5 c93e 6064 51be e0b1 973e 656b 5d3e
00000210: d298 2c3e 0acf 233d 33a4 523d 73d1 193d
00000220: bca6 96bf c65f 7abf 90bb eebf e76e d7bf
00000230: eba2 5cbe e728 833f 561b 5b3c 2555 25bf
00000240: d296 a2be 0850 1b3d b4fd 663e fe95 32be
00000250: e1fb 15bd 1854 f33c 5385 bdbd 48d9 83be
00000260: 84aa eabc f63e 873f 1ecd e73e a2d8 4ebf
00000270: 89c9 aabe 877d 9bbd b9e6 a43e 39d6 8c3e
00000280: cfd2 0cbe 003f d33d 505a 10be 8775 1fbe
00000290: 7874 da3d d9c6 7f3d 92de 683c 8fe1 a83b
000002a0: 26d1 a23b 4963 ce3a 574c 97bf 3ad9 873f
000002b0: 44f5 85bf 4403 dabf dcb9 68bc cb7e 04bf
000002c0: 8b53 ebbe 645d 8f3e 3bc5 25be 8ff7 143f
000002d0: efd2 eb3e ef51 37be 967c 09be c89a d5bd
000002e0: 8609 77be 95dd 80bd 3a77 eebc af48 aabf
000002f0: f227 34bf 4054 2cbf 4b58 32bf 83f5 72be
00000300: a92f 613f b97d e83e aa4c 123f 7da8 293f
00000310: 2710 ecbe 7d32 7abe 74df 043e 8502 b3bb
00000320: ea4a b83b 1056 0c3c 56d4 28bd 5e81 043d
00000330: 1ed5 f6be 7ffa 143f 2ac1 99bf b76a 66be
00000340: 056f 593e 341e df3e 5a45 353f cfed 413f
00000350: 536e 0cbe 745d 343e 227c f03b d5f3 6fbe
00000360: 871c a1bd c244 6d3c dead 893d e4c7 053d
00000370: d87d 033d 37d5 a4bf e1ef 6d40 05b7 3f3f
00000380: fee9 8c3e 94bb 3dbe 3cb1 10c0 4512 a0bf
00000390: d9a1 11be 6084 043c a58c aa3d 3710 bb3e
000003a0: 3fa0 81be 844a 22be 5de8 03bb 7426 b0bd
000003b0: 2bb1 6abd 30f1 dabb 4487 dcbe c717 2240
000003c0: a664 88bf 0b4c 54bf 9ba1 593f 48dd b1be
000003d0: b56b f3be d451 5a3e 0a64 483e 35af 483c
000003e0: f0ac 893e b686 46be e034 cdbd 4785 8d3c
000003f0: 8a78 0bbd 9a35 1dbd 72ea ac39 26de 123e
-0.23572075 -1.1907165 -0.30527365 -0.6962277 -0.030064642 2.1792262 1.2317196 0.46715608
-0.6629187 -0.1759568 0.34463197 -0.046435863 -0.085414514 0.03921753 -0.050698254 0.021755435
0.017385477 -0.14807686 4.750856 0.6413919 0.019875139 -0.89603144 0.091478996 0.32179663
-0.9322732 -0.23724857 0.28321934 0.44421193 -0.09913597 -0.08627643 -0.0058652773 -0.26293093
-0.10327189 -0.001486507 -0.0669357 1.9583592 2.7518992 1.4391961 0.031135606 -0.8525155
-1.5029655 0.4878717 -1.4297523 0.5166998 0.22981192 0.026575418 0.08082367 -0.02145048
0.038116008 0.08845821 0.002588831 -1.5236735 0.62259465 -0.645231 -0.31037563 -0.49517915
-0.6498481 0.3084157 -0.06884239 0.03524721 -0.1407063 -0.13649072 -0.07051614 0.14306168
-0.06274628 -0.18096699 0.058044687 0.026241733 -0.54608464 -1.2501005 1.9126182 1.7389903
0.4942273 1.6700965 1.34794 0.10697815 0.0659393 0.89182425 -0.15019482 -0.006761817
-0.075286314 0.030061474 0.015235203 -0.0690159 0.14591956 -0.66243064 -0.91436076 -0.7817645
-1.2277977 0.7689377 0.5815585 -0.4422168 -0.21883287 0.046348106 -0.55065745 -0.0781149
-0.12236446 -0.05887388 -0.02154224 0.2457769 0.119970985 -0.03006171 -0.8242487 0.9898328
1.7186204 0.051217146 -0.76817876 1.7122661 0.88928604 0.57123667 0.194477 -0.7080538
0.22368482 -0.2473131 -0.11836882 -0.07393101 -0.024717387 -0.0828826 0.13454099 -0.3514875
-1.0719305 0.2651689 2.3623059 0.59013337 0.87396765 0.11325887 -0.34124887 -0.28953275
0.3944543 -0.20448446 0.29627895 0.21622999 0.16855171 0.03999237 0.051426124 0.037553262
-1.1769633 -0.9780239 -1.865099 -1.683072 -0.21546523 1.0246857 0.013373217 -0.64583045
-0.31755692 0.03791812 0.22557718 -0.1744003 -0.036617164 0.029703185 -0.09253945 -0.2575171
-0.028645761 1.0566089 0.4527368 -0.80799305 -0.33356884 -0.07592302 0.32207277 0.2750719
-0.13752292 0.10314751 -0.14096951 -0.15572177 0.10666746 0.062445495 0.014213221 0.005153842
0.00496878 0.0015746142 -1.1820172 1.0613167 -1.0465474 -1.7032247 -0.014204469 -0.5175597
-0.45962176 0.2800094 -0.16188519 0.58190244 0.46059367 -0.17902349 -0.13426432 -0.10429913
-0.24124727 -0.062922634 -0.029109586 -1.3303431 -0.7037345 -0.67316055 -0.69665974 -0.23726468
0.8796335 0.4540842 0.5714823 0.6627272 -0.46106073 -0.24433322 0.12975866 -0.005462947
0.005624165 0.008565441 -0.041218124 0.032349937 -0.4820947 0.58194727 -1.2012074 -0.22501646
0.21233757 0.4357773 0.7080895 0.7575349 -0.1371396 0.17613775 0.0073390165 -0.23432858
-0.07866769 0.014481725 0.06722616 0.032661334 0.032102436 -1.2877568 3.717766 0.7488864
0.27522272 -0.18528587 -2.2608175 -1.2505575 -0.14221896 0.008088201 0.08327607 0.36535808
-0.2531757 -0.15848738 -0.0020127513 -0.08601084 -0.057297867 -0.006681584 -0.4307195 2.5327013
-1.0655715 -0.8292853 0.85012215 -0.34739137 -0.4754311 0.21320277 0.19569412 0.012248804
0.26889753 -0.19387326 -0.10019851 0.017275466 -0.034050502 -0.038381197 0.00032981072 0.14342555

shared.0.bias f4 [256]
00000000: 0708 1c3e 3f3a f6bd 4b6d b2bd 794e b5bf
00000010: 727e 5bbe 5db3 69be cdb3 03bf 05ba 10be
00000020: 7917 06bf f1e7 bebf d654 4cbf 158c 59bf
00000030: 98f6 7ebe 47ac 99be cef3 74bf 0cbd 0cbe
00000040: 376a 1abf 8867 bbbe 4c70 03be 0aa3 15bf
00000050: 5150 79be 8f64 23bf 4d94 bbbf 6a5e 8abf
00000060: af89 26bf 73ae 8fbd 3147 85be 0e2b 35bf
00000070: 88c8 28bf 8f15 67bf b471 b0be e8b8 61bf
00000080: 5ee3 86bf 4522 b7bc 7437 4abf ac06 8ebf
00000090: 7aa5 8abf 7984 99bf e8ed 723e 1ece 563e
000000a0: 3c04 47bf 2283 6ebf 4c89 84be 5a0b 69bf
000000b0: 44d2 993d 21ae 6abe 7d87 32bf ee54 cfbf
000000c0: 4554 413e 034f 753f 1944 8abf d6a5 febe
000000d0: 26fe 19bf 7535 26be 7790 2bbf e8bc b9bf
000000e0: ee7b f8be 7ac1 0dbf 049b c0be d775 69bc
000000f0: 3a67 babc 1938 38bf f801 1e3e f4fd 29bf
00000100: cc71 60bf d0c9 b93e 7af4 35be fd67 26bf
00000110: 7fb7 123e 0152 57bf 3a4f d6be 295b b1bf
00000120: bc2b 5abe 7f32 26bf 7101 72bf ed7b cabe
00000130: 39e8 61bf ff77 c1be 3105 bfbd 2e71 b0bf
00000140: adc3 93be dd44 bfbe 0176 a3be c181 5f3b
00000150: 2517 84bf ea1e 07bf e8d1 ddbf 8d09 26bf
00000160: 9ae7 5cbe fdf7 df3c 014c 9cbf 0569 32bf
00000170: 3d06 363e 8f25 81bf 0447 52be 876d be3c
00000180: 3be8 53bf 54df a0bf f341 acbf e266 b2bf
00000190: 4d1b dbbe 77f8 d2be e092 173e d090 6abf
000001a0: 35c2 9ebe 8caa d43e c754 b6be e371 d0bb
000001b0: d2a7 ecbd ab49 83be 968c 0ebe 57ca 4bbe
000001c0: 356b 5dbf 1897 213f 1ce7 673d 396f bebe
000001d0: 7b93 8abe de73 f7bd 08d5 75bf f134 2bbf
000001e0: b72b 883f 2f38 fdbe 4f2d 2cbf d43c c13d
000001f0: 3921 21bf 822b 28bf f0e5 f6bf e446 2bbf
00000200: 9938 53bf e72a 12bf e2a1 85bf f4f3 72bf
00000210: 4111 80bf 4bdd 8dbe 57ee 4abf 387a 43bf
00000220: fa4c 4d3d 0b75 b5be 84ee 003e 2e23 09bf
00000230: 55af 02bf f6de 45bf 8fe3 aebe 4e98 09bf
00000240: 6106 03bf 2de4 27bf c4a1 a9be 6423 85be
00000250: b98f 3ebf a39d bebe b8a3 30bf a0ea 18bf
00000260: d18b 153e 21f4 19bf 39ba a1be a4be fe3e
00000270: 4262 60bf fd4d 45be 4717 d53e 7578 e8be
00000280: 34e3 9dbf d511 0bbf a0a5 2f3e c7fc 64be
00000290: 847b 50bf f12f 0cbf 63d8 84bd 508b cabe
000002a0: febc 8abf d38c 3ebf ae58 c7be 2417 9cbf
000002b0: 2e4b f0be e427 8a3d 210c 923d 54e3 4cbf
000002c0: af11 75bf 813b 88bf 8dfd 5bbe 6f92 00be
000002d0: 18e1 94bf cfd2 84bf b18f 1e3e e5ca 60bf
000002e0: 5d8e 703d 1295 82bf 9f32 6fbf d263 02bf
000002f0: 0ae6 823c b5c1 9bbe e63d 70bf 47ce 3ebf
00000300: 3dd5 76be fd01 debe 1f8a 43bf d2dd 02be
00000310: 6a8f 7bbf fc64 5bbf 82c6 28be 6f38 17bf
00000320: de92 2dbf acab 70bf 628a 0b3e f46a 253f
00000330: 224d 0bbf ca8d 483d bc80 33bf 6326 563c
00000340: 3d6a eabe 41bd 27be 1aff 15bf 4653 41be
00000350: 3931 8fbe 9e86 33bf 0e5d 4fbe 9507 4cbf
00000360: 3208 fbbe 5143 2dbf 6836 ac3e b8a9 34bf
00000370: cd0c 45bf adde 8ebf a470 2bbf 9552 6fbf
00000380: d4ae 0fbf b94e 40be 6297 a4be 040d 71bf
00000390: 5ddd 4fbf 8123 df3e dda9 3d3e fe45 de3e
000003a0: 33fc 4cbf 3d80 93be 4567 5bbf 2add 783d
000003b0: c4ae 79bf eb31 08be 1b2b aebf 53ac 6fbe
000003c0: 5c54 20bf 2e9e 57be 3588 c9be e4fb 87be
000003d0: 0973 5ebf a676 32bf aa97 463e e729 75bf
000003e0: 2369 dfbe a702 cabe 3fa6 c8be 53be f1bc
000003f0: f162 a0bf 65c5 62bf 7f3e 9cbf 2202 c13d
0.15237437 -0.12022828 -0.08712252 -1.4164573 -0.21434954 -0.22822328 -0.5144623 -0.14133461
-0.52379566 -1.4914533 -0.7981695 -0.84979373 -0.24898756 -0.3001425 -0.95684516 -0.1374399
-0.6031832 -0.36602426 -0.12835807 -0.584519 -0.24347045 -0.63825315 -1.4654633 -1.0810063
-0.6505384 -0.070156954 -0.26030877 -0.7076882 -0.65930986 -0.9026727 -0.3446175 -0.8817277
-1.0538137 -0.022355208 -0.78990865 -1.1095786 -1.083175 -1.1993552 0.23723567 0.20977065
-0.77740836 -0.9316884 -0.25886 -0.91032946 0.07510808 -0.22917987 -0.6973799 -1.6197793
0.18879803 0.9582369 -1.0802032 -0.49735898 -0.60153425 -0.1623133 -0.6701731 -1.4510775
-0.4853205 -0.55373347 -0.37618268 -0.014249287 -0.0227543 -0.719606 0.15430439 -0.66403127
-0.8767364 0.36286783 -0.17769042 -0.65002424 0.1432781 -0.84109503 -0.4185732 -1.3855945
-0.21305746 -0.649208 -0.9453345 -0.39547673 -0.8824497 -0.37786862 -0.09327162 -1.378454
-0.28860226 -0.37357226 -0.31925967 0.003410444 -1.0319563 -0.52781546 -1.7329683 -0.64858323
-0.21572724 0.02733993 -1.2210695 -0.696915 0.17775817 -1.0089587 -0.20534903 0.023245586
-0.8277623 -1.2568154 -1.3457626 -1.3937647 -0.42794266 -0.4120519 0.14802122 -0.91627216
-0.31007543 0.41536367 -0.35611555 -0.0063612326 -0.11555447 -0.25642142 -0.13920817 -0.19901405
-0.8649171 0.63121176 0.056616887 -0.3719423 -0.27065644 -0.12082647 -0.96028185 -0.6687766
1.0638341 -0.49456927 -0.67256635 0.0943543 -0.6294132 -0.6569139 -1.9288921 -0.66905046
-0.82508236 -0.57096714 -1.0440028 -0.9490349 -1.0005265 -0.27707896 -0.7926993 -0.76358366
0.05012224 -0.3544086 0.12590986 -0.53569305 -0.51048785 -0.77293336 -0.34157988 -0.53748024
-0.5118161 -0.65582544 -0.3313123 -0.26003563 -0.74438053 -0.37229642 -0.68999815 -0.5973301
0.14604117 -0.60138136 -0.3158739 0.49754822 -0.8764993 -0.19268031 0.41619322 -0.454044
-1.2334962 -0.54324085 0.17153025 -0.22362052 -0.8143847 -0.5476065 -0.06486585 -0.39559412
-1.0838926 -0.7443363 -0.38934845 -1.2194562 -0.46932358 0.0674589 0.0713122 -0.80034375
-0.9573011 -1.0643159 -0.2148344 -0.1255586 -1.1631193 -1.0376834 0.15484501 -0.8780959
0.05872952 -1.0201743 -0.93436617 -0.50933564 0.015978832 -0.30421224 -0.9384445 -0.74533504
-0.24104781 -0.43360892 -0.7638263 -0.1277993 -0.9826571 -0.85700965 -0.16481975 -0.59070486
-0.67802227 -0.9401195 0.13627008 0.6461632 -0.5441457 0.048963346 -0.7011831 0.013070676
-0.45784178 -0.16380788 -0.5859238 -0.18879423 -0.2796724 -0.70127285 -0.20250341 -0.7969907
-0.4902969 -0.6768084 0.3363526 -0.7057147 -0.7697266 -1.1161705 -0.6696875 -0.93485385
-0.5612614 -0.1878003 -0.32146746 -0.94160485 -0.8119715 0.43581775 0.18521829 0.43412775
-0.80072325 -0.28808776 -0.8570445 0.060757793 -0.97532296 -0.13300292 -1.3606905 -0.2340558
-0.6262872 -0.21056435 -0.3936173 -0.26559365 -0.8689428 -0.69712293 0.19393793 -0.9576706
-0.436349 -0.3945515 -0.39189336 -0.029509699 -1.2530195 -0.8858245 -1.2206572 0.09424235

shared.3.weight f4 [256, 256]
00000000: 2f77 a43d 14f5 fdbe 1865 98be 84fb 0d3e
00000010: 7bd4 543e e669 273e 672c 08bf 68fb a3bc
00000020: ad59 03bf f84f dd3d f424 903e 5e6e c9bd
00000030: fffd c03c 453d 5b3e b1dc a5bd d3fe 48be
00000040: 4830 5d3c 8194 d03e 0dcf 263f 0d72 413e
00000050: e469 333e 6b97 e2bd 1166 ad3e 77ea 383d
00000060: 66ca e3bd 6e40 1e3e 91f7 813f 7dba a5bd
00000070: 2e9f a3bf f650 92be 1339 343e 08cd 97bf
00000080: 10e4 dabd 5e81 2e3d 8c57 f8bf 7569 cebe
00000090: d295 8f3e 8174 8bbe b9c8 e5bd 69d0 aebd
000000a0: 5880 47be fb40 73be 2202 683e 141a e13d
000000b0: 072c 5c3d cded b43e 6088 54bc 1a0e 0bbd
000000c0: db0b f6bd 5da0 c9bd 6e6d 4c3d c583 1a3d
000000d0: cc1c 00bf 2df5 3abe 4330 603d b0fd 10bf
000000e0: 10f8 1bbf 3e1b 1abd c21d 82be 1940 2d3e
000000f0: 0cba ac3e 32c1 bf3e 083c 59be 713c 0dbe
00000100: bc95 c6bd 1c00 8c3d 9f79 9f3e eae2 9d3e
00000110: 85e8 e53e c2b8 413e 95ee 28be e14b b0be
00000120: 9319 0ebe 46a1 2ebd e039 193c d6ff 76bc
00000130: 204a da3c 4cd7 ccbe 7d71 27be 1c7b 3b3e
00000140: 0a3f 86bd 89cf fbbc a6be a5bd bf50 843d
00000150: 5ccc a8be 482c 893e 2d53 53bc 8dc0 8cbd
00000160: f99e 413c 3945 103d b0f3 a93a 7119 603c
00000170: 338b 513e 0518 88be 0a8b c2bd 995d 313e
00000180: 79d8 ce3d eb09 aebd a860 03bd 2911 81be
00000190: 42c1 d53e c3f1 fdbe 00d0 673e 3a55 7abd
000001a0: 3028 f73d ac0e 39bd 5934 0dbf 8395 8abe
000001b0: b028 b03d 641f 2c3c 225f 46be 549a 89be
000001c0: ef4e 6fbe 4b1b 1cbe d10a 4abd d4c0 6fbe
000001d0: 7e1f bbbe 525f 493e c224 513c 2ae3 6dbe
000001e0: cc4a 5e3e 56e6 b2be 8898 b23d 54f1 e83d
000001f0: 9d83 5f3d 7cdd 9c3b 3dbf 0cbe ba9d 81bd
00000200: 8fcb b6bd 02f6 243e 81e4 10bf 1dc5 99be
00000210: ce46 253e 7fbe 8dbe 9c88 d53d 1b73 6d3d
00000220: d5f1 003f ff1c 3abf ccd2 aa3d 4dee 6fbe
00000230: 1989 dd3d f13e 80bd 4b6e d5bc 055a f2bd
00000240: 43ed 1cbf 16ba 7bbe c6e0 c0bc dab0 d43e
00000250: b286 4ebe 3f3c 203e 0c08 123e 8d30 e43d
00000260: 7bad 8abe 5c6d 213f ed75 dcbd 5922 95bd
00000270: fdcc 38bf 785c 093e 85fc 5fbe 16df 2f3e
00000280: b029 d6bd b5b5 ac3d 6455 f8bd 3cfe a13e
00000290: 9406 55be c930 37c0 b8cf 00be 2b6f 02bf
000002a0: dc17 213e 9c28 04bf da6a 23be c638 0dbe
000002b0: 6ad0 e93d fa90 903e 4e56 083c e291 55bf
000002c0: eb98 0d3e 392d b5be 1ec8 723e 56e4 363e
000002d0: 344e 5e3e b8c2 083e 40a0 97bd 1b05 8cbf
000002e0: 2853 18be d653 04bf 092a 15bf a9b9 33bc
000002f0: 71b2 92be 717e 263e d89d 5bbd fcd4 16be
00000300: 1c23 653b 03e3 66bd 9aa7 cbbe 1f63 293e
00000310: 279c 53bd fa99 3fbf 40a9 1cbf b7d4 f33d
00000320: a2c1 67be 1c4a a5bd 1be4 b03d 88df 5b3d
00000330: 63e6 93be af0e 86be b153 eabd 3242 983c
00000340: 0034 2dbd fc90 2cbe 3d07 c73e 7017 48bd
00000350: 55c4 89bb c5b6 ea3d 816b d6bc a4a0 713d
00000360: 5803 a7bf a796 c1bd dc1a 11bd e75a 423b
00000370: 0739 14bb 8151 d3bf fad1 9c3e 6166 0d3e
00000380: d695 d6bb 6ccd 25bf 5fb3 69be 0ba7 ee3d
00000390: 77c7 aebe cc83 5dbd 41be bcbd 71b1 733e
000003a0: 39cd 14be 28b1 91bd 3ddb 27bf 5d79 bb3e
000003b0: 5c57 2ebf b080 3fbe bed4 fa3d 11b9 b3bf
000003c0: 9eb5 0bbf 51ac b73e 122f 513f 9faa 01bb
000003d0: 239f 97be a369 6cbd 5e08 53be d82c b5bd
000003e0: b281 4d3d 3261 ca3d 45bd d33e 3084 073e
000003f0: e63a 37bd 76af 51be 43a7 94bf 6652 13bf
0.08030545 -0.49601042 -0.29764628 0.13865477 0.2078418 0.16348991 -0.5319275 -0.02001734
-0.5130871 0.108062685 0.28153193 -0.09835504 0.023558615 0.21410091 -0.08098734 -0.19628458
0.013500281 0.407383 0.65159684 0.18891163 0.17520863 -0.11064037 0.33866933 0.045145478
-0.11122589 0.15454265 1.0153676 -0.080922104 -1.2782953 -0.28577393 0.17599897 -1.1859446
-0.10688031 0.042603843 -1.9401717 -0.40314832 0.2804399 -0.27237323 -0.112199254 -0.08535845
-0.19482553 -0.23755257 0.22657064 0.10991302 0.053752925 0.35337678 -0.012971967 -0.033948995
-0.1201398 -0.0984504 0.049909048 0.03772332 -0.5004394 -0.1825759 0.054733526 -0.56637096
-0.6092539 -0.037623636 -0.25413328 0.16918983 0.33735693 0.37452084 -0.21214306 -0.13792588
-0.09696528 0.06835958 0.31147477 0.30837184 0.4490396 0.18918136 -0.16497262 -0.3443289
-0.13876943 -0.04263427 0.009352177 -0.0150756445 0.026646674 -0.40008008 -0.16351886 0.18308681
-0.065549925 -0.030738609 -0.08093004 0.064607136 -0.32968414 0.26791596 -0.012898249 -0.06872664
0.011817687 0.035222266 0.0012966301 0.013677941 0.20463257 -0.26580825 -0.09499176 0.17320861
0.10099883 -0.084979855 -0.0320746 -0.25208405 0.41749007 -0.49598512 0.2263794 -0.061116435
0.12068212 -0.045180008 -0.55158 -0.27067193 0.086015105 0.010505531 -0.19372228 -0.26875556
-0.23369955 -0.15244786 -0.04932672 -0.23413402 -0.36547464 0.19665268 0.012765111 -0.23231187
0.2170822 -0.34941357 0.08720499 0.11374155 0.054568876 0.004787145 -0.13744827 -0.06328912
-0.089255445 0.1610947 -0.5659867 -0.30033198 0.16140291 -0.276844 0.10426447 0.0579711
0.50369006 -0.72700495 0.083409876 -0.23430748 0.10817165 -0.06262005 -0.026053568 -0.11833576
-0.6129953 -0.24582705 -0.02354468 0.41541177 -0.2016857 0.15647982 0.14260882 0.11142073
-0.2708548 0.63057494 -0.1076468 -0.07281942 -0.7218779 0.1341418 -0.21873672 0.17174944
-0.1045717 0.08433095 -0.12125662 0.31639278 -0.2080329 -2.8623526 -0.12579238 -0.5095088
0.15731758 -0.51624465 -0.1595873 -0.13791189 0.11416705 0.28235608 0.008321358 -0.83425725
0.13827865 -0.35386065 0.23709151 0.17860541 0.2170952 0.1335553 -0.07403612 -1.0939058
-0.14875472 -0.51690423 -0.58267266 -0.010969558 -0.28651765 0.16259171 -0.05361733 -0.14729685
0.0034963554 -0.05636884 -0.39776307 0.16541718 -0.05166259 -0.74844325 -0.61195755 0.119058065
-0.22632459 -0.08070776 0.08637258 0.053679973 -0.2888671 -0.26183078 -0.11441744 0.018586252
-0.04228592 -0.16852182 0.3887271 -0.048850477 -0.004204313 0.11460642 -0.026174309 0.05899109
-1.3047895 -0.09452563 -0.035426006 0.0029656233 -0.0022616999 -1.6509248 0.3062895 0.13808586
-0.0065486236 -0.64766574 -0.22822331 0.11652955 -0.34136555 -0.05408077 -0.092159756 0.23798157
-0.14531411 -0.07113868 -0.65568906 0.3661603 -0.6810205 -0.18701434 0.122476086 -1.4040853
-0.54574 0.35873654 0.8171245 -0.0019785536 -0.296136 -0.05771793 -0.2060866 -0.08846444
0.050172515 0.0988182 0.4135534 0.1323402 -0.044733904 -0.2047709 -1.1613544 -0.57547605

shared.3.bias f4 [256]
00000000: 6a3b 0b3e 3501 4c3e 6117 d1bd fe5b 3e3e
00000010: 540d 63be c151 a7bd 02c3 a23e 326b f73e
00000020: 3205 8ebd 7036 62bf aa71 9cbd 62b6 843d
00000030: ab15 8f3e 47f6 103e 5ee6 b7bd fb9e 4b3d
00000040: 3f8d f23e 3b4b 483e e3c1 fdbe 4faa 12be
00000050: 3d7a 94bf d954 e5be 387b 0fbe dcfc c43d
00000060: c604 6abe 7eb3 5c3e cb61 f63d 970a a93d
00000070: fb94 d83e 9cb2 70bd 1ced 9a3d 9632 c53e
00000080: 8a8a 9fbe 04a3 f73e b6b9 c03d c5ce abbe
00000090: dab8 3cbf b1ff 22be 6a2b ad3e 980e 173f
000000a0: c54d 76be ca38 323d d537 49bf 2773 aebf
000000b0: fd24 abbd 7c87 f53c 78a8 f1bd a74f 1b3d
000000c0: 830f 75be b5a5 9e3e 7bdf b2be 0bca 033f
000000d0: 711a 51bf 2255 11bd aec1 b9be eec7 acbd
000000e0: 3ccf 433d c9ed 22bd 1cb7 51bf e5b4 873d
000000f0: 17e6 8f3b 9695 98bf 99ea a93d 317a 76be
00000100: 2396 33bc 9e98 bf3e 1c9c 56be 23b0 97be
00000110: 4d7a ec3d f280 913e d468 023f 5bdb 67be
00000120: bf6a 91be 2a68 643d edbd 543e fbfc e6bd
00000130: dcee 8f3d 6e91 c83d 0995 d1bd ecc1 2b3e
00000140: 7fcd 54bf dafe 0f3e 5866 f83d d653 94bf
00000150: 21f5 743e c0c5 583e f2f6 d53d b54a 91bf
00000160: aea9 fc3d 6fbc af3d 0701 cebe 0149 c9bd
00000170: 5419 e5be ef80 a33e e18f 533e 4bf5 3ebe
00000180: 4abe cf3e 40da 9e3e e4bc 7b3d 33a4 ad3e
00000190: 6153 e23d d761 6cbf b414 313e 56e8 6b3e
000001a0: 7d10 91be 2f9e b4be 4aca 843e 8eca e73d
000001b0: 35f1 a2be 3cd6 f9bd 4da2 4d3e b295 a9bc
000001c0: 596a dbbe 5026 6a3e 815f 413e f9dc 093e
000001d0: 2e70 18bf f00f 253e d161 1c3f 0dbc 0a3e
000001e0: 299d 223e 449a 913e baae aebe 0ab2 b43e
000001f0: b3a4 8ebe 130d 753e c399 03bf 41ba 85bf
00000200: 2c7c 89be a9e8 8cbe 11f8 b5bd 5098 d93d
00000210: 4ea5 713d 6c40 fd3d b1ae 7ebf 54d0 2e3e
00000220: f8a7 42be 4576 85bd eb02 693e 3567 7a3e
00000230: e194 0d3c aca5 44be e5ac 51bf fcba 9d3e
00000240: 7754 db3d f0d2 823e 7310 ac3e c546 c2bd
00000250: f81d 5ebf 43d7 bbbf 5d90 5a3e 4443 58be
00000260: ef0f 223e d58f 8dbe 5385 c43e d12e 05bf
00000270: 0b49 983e 4e2c bc3e 1ffa f13e 79af fcbd
00000280: 588e 9c3e 204e 773e b7dd 9dbe a2cb 8abd
00000290: bba0 4ebf 83b0 34be 87e0 b23e 4863 50bd
000002a0: 973d e7be 9c73 8bbe ea48 6d3e 51aa e9bd
000002b0: fbdb 063f 0947 4dbd 8cf5 f7be d117 3dbd
000002c0: ce19 813e 4d79 b23e 7e35 05bf d2a0 dfbd
000002d0: ee1e 29bf c0c0 c63e 328a d6be f2b1 423e
000002e0: 82f6 28bf 5d17 eabd 86de c73e 79fa 723e
000002f0: 627c 86bd 25b9 bebd cb82 013f 923c cbbf
00000300: 0b78 dcbe d758 dcbe 9b06 a3bd b85a 2e3f
00000310: ab0c a4be 075f d43d d95e 793d e490 acbe
00000320: 3239 bc3e e2ba bbbe e8db 873e d989 febe
00000330: 38e4 913e ff83 803e 433f 32be 5033 393d
00000340: 62f1 72bf 2b95 253e cfdf 5a3e 40a6 103e
00000350: baf5 5ebd 7fc1 a4be 559e 2bbf aa8a bebf
00000360: 36b4 0c3e cc9e 463e a0fe 3bbf a901 1cbf
00000370: 0c18 153e 58b5 a13e e029 5abe 6d85 f23e
00000380: e1ac 0abf 6070 eabe a8f1 3b3e 8066 e6bf
00000390: f804 79bd 73e7 b3be e9cf 8cbf 1f39 b13e
000003a0: c7f4 95bf 65c6 893e ef46 91be 9211 e83d
000003b0: c035 783e 95b3 1b3f abcf acbe 0c81 27bf
000003c0: 4bc1 b43e 2b3b 3a3e 3b70 033d fb63 13bf
000003d0: e494 4b3d e018 e93d 8a7f 15bf f91d ab3d
000003e0: 0e0a 35bf 3635 bdbd 2b60 c5bf 508e 113e
000003f0: 07d6 cabe a902 443e a226 063f 531a c23e
0.13596883 0.19922335 -0.10209537 0.1858978 -0.22173053 -0.0816989 0.31789404 0.4832397
-0.06934585 -0.88364315 -0.07638867 0.06480099 0.2794622 0.14156447 -0.08979486 0.049712162
0.47373387 0.19559948 -0.49561986 -0.1432278 -1.1599804 -0.44791296 -0.14011848 0.096185416
-0.22853383 0.21552846 0.12030371 0.08253973 0.42301163 -0.058764085 0.07564756 0.38515157
-0.31160384 0.4836656 0.094104216 -0.3355619 -0.7371956 -0.15917851 0.33822185 0.59006643
-0.24053104 0.04351119 -0.7860082 -1.3628892 -0.08356664 0.02997183 -0.11799711 0.03791776
-0.23931699 0.309858 -0.34936127 0.5148017 -0.8168097 -0.03548158 -0.36280578 -0.08436571
0.047805056 -0.03977755 -0.8192003 0.066263 0.0043914425 -1.192065 0.08296699 -0.2407005
-0.010961088 0.37421125 -0.20957989 -0.2962657 0.115467645 0.2841869 0.50941205 -0.22642271
-0.28401753 0.0557634 0.20775576 -0.11278721 0.07027981 0.097933635 -0.10233504 0.16773194
-0.8312606 0.14062062 0.121288955 -1.1588085 0.23921634 0.21169186 0.10447492 -1.1350924
0.12337051 0.08580863 -0.4023516 -0.098283775 -0.44745886 0.31934306 0.20660354 -0.1864826
0.40574867 0.31025887 0.061459437 0.33914337 0.110510595 -0.9233679 0.17293054 0.23037848
-0.28332892 -0.35276935 0.25935584 0.11317931 -0.3182465 -0.12199065 0.20081444 -0.020701263
-0.42854574 0.22866178 0.18884088 0.134632 -0.5954617 0.16119361 0.61086756 0.13548298
0.15880264 0.28438008 -0.3411768 0.35292083 -0.2786003 0.23930769 -0.51406497 -1.0447465
-0.26852548 -0.27521256 -0.088852055 0.106247544 0.058995537 0.12365803 -0.9948531 0.17071658
-0.19009387 -0.06516699 0.2275502 0.24453433 0.0086414525 -0.19203824 -0.8190444 0.3080672
0.1070947 0.25551558 0.336063 -0.094861545 -0.8676448 -1.4675068 0.21344133 -0.2111941
0.1582639 -0.27648798 0.38382968 -0.5202456 0.29743227 0.36752552 0.4726114 -0.12338156
0.3057735 0.24150896 -0.30833218 -0.06777121 -0.80714005 -0.17645459 0.34936926 -0.050875932
-0.45164177 -0.2723664 0.23172346 -0.114094384 0.52679414 -0.050116573 -0.48429525 -0.04616529
0.25215 0.3485817 -0.5203475 -0.10919346 -0.6606282 0.38818932 -0.4190231 0.19013193
-0.6600114 -0.114302374 0.3903696 0.2372836 -0.06566693 -0.09312657 0.505902 -1.587786
-0.43060336 -0.4303653 -0.07960244 0.68107176 -0.32040915 0.103696875 0.06088147 -0.33704293
0.36762387 -0.36666018 0.26534963 -0.49714544 0.2849443 0.25100705 -0.17406945 0.04521495
-0.9489957 0.16170184 0.21374439 0.1412592 -0.05443356 -0.32178876 -0.6703847 -1.4886067
0.1374062 0.19396514 -0.734354 -0.60940033 0.14559954 0.31583667 -0.21305037 0.4736742
-0.5417004 -0.4578886 0.18353903 -1.800003 -0.060795754 -0.3513752 -1.1000949 0.34613892
-1.1715325 0.26909176 -0.2837443 0.11331476 0.24239254 0.60820895 -0.33752188 -0.65431285
0.3530372 0.18186633 0.032089453 -0.57574433 0.04970254 0.11381698 -0.58397734 0.08355326
-0.7071847 -0.09238665 -1.5419973 0.14214444 -0.39616415 0.1914164 0.524027 0.3791071

mean.weight f4 [6, 256]
00000000: 1b7f ad3c 974d 823d d16b ef3b a7a7 fb3d
00000010: ac32 313e 90d2 abbe 751b 39be b5fe 36be
00000020: 7277 753e 679d d2bf 04a3 f63c 92d2 cb3d
00000030: 8f82 933d a74c 7b3d 6b5f 4fbd b3b7 29be
00000040: a4e7 a1be 8766 b93d 472a 8abe a239 9fbe
00000050: d0b8 ebbd bcdd 08bc c4a2 57bd b58b 0a3e
00000060: c36b 2d3d 18d1 63bd 2923 32be 6d47 57bb
00000070: 7b91 7e3d 2692 103e c759 45be 19f1 fc3e
00000080: 163e 643b aa0d 2fbe 3eaf 4e3d 374a f33b
00000090: d3e8 dbbf 7359 3e3d 292d 0dbe 3ccd e7bc
000000a0: b4eb 143f 1bde ed3d 8474 85be 17a5 dc3e
000000b0: 67c0 853e 9b6b 513a aef0 b53b e9ac 743e
000000c0: 08ce 723e a0d2 13be 63e1 863d 9a96 3e3d
000000d0: a503 4c3e f24f 24be 2bdc 0c3e 19e7 403c
000000e0: 0159 cbbc e5f6 76be 3f64 0840 f4b5 f3be
000000f0: 83a8 6e3c dfa3 46be 7eb9 463a a9df c9be
00000100: cd53 c9bd 9f59 d33c 8bb8 96bd f4fa 5f3d
00000110: 8458 50bd eab0 1b3c 6a7b 043d 7537 c93d
00000120: 10a7 37be bf09 ca3e ac6a 89bc 5947 74bc
00000130: 639b 12be 4435 e6bc c1d7 d73c 6231 8d3e
00000140: 11c6 4fbc b4e6 683e 2d8a 313c 0e9c 1bbe
00000150: ab6f babc f3d5 c0bd 00a2 26be 0c43 aa3c
00000160: b764 413e 0dd8 26bf 4152 543e 3f24 dabe
00000170: 5c8e a33e fee9 433e e7d2 d8bc ccce 98bd
00000180: 47b0 513d bf3e 0c3f 73d6 e73e dcaf 6ebd
00000190: 01cf cd3e be27 6abc fae3 b9be 5ce8 3dbe
000001a0: 8cba bfbe f0ba ecbd 850d 19be f4f8 23be
000001b0: 3a02 733e 8795 323e 1066 063d 3a5a a7bd
000001c0: 766a bd3e f2eb cfbd cbfc 74be 0714 04be
000001d0: 69e4 b3bd ecdf d1be 68cb 6abe 97d0 043e
000001e0: 45e2 0b3e fddb 823d 7ce3 483b 21f1 23be
000001f0: d055 b6bd 9e03 d83d 7ff3 76be 335b 083f
00000200: 7cf1 843c 5f95 973f 5ae0 3cbe f7dc dc3d
00000210: 452f 003f c508 893e 7391 51bf a23b eb3e
00000220: fe6a 113d 4456 8f3e dd87 e43e 62f8 a93e
00000230: d9b6 4e3e 7480 30bd 0070 ddbe 0c18 953e
00000240: 0f03 313b ac38 083e 1d72 883e a754 8cbc
00000250: 4721 bfbe e3d7 43be 85a0 b2be ede7 b6bd
00000260: fc9d 0a3e 3c2f 39bd 84f8 7ebd 5877 7dbd
00000270: ced3 663d a16f 0fbe 74bc 833d e08c b23d
00000280: 57b2 8cbd 0e3d b83e 4aed 98bd 4330 bcbc
00000290: 696c 54be d812 c53e 2eeb 723d 3b78 e9bc
000002a0: 1802 5dbe b4c9 b7be a204 e03c 0f4e 56bd
000002b0: 9e6c 45be fd87 0bbf d065 3c3f 7040 07bc
000002c0: 2378 113f a165 b53d e32e ce3d cfba 13bd
000002d0: 00a0 8bbd 1ee0 6c3c 5af1 d3bf d740 dabd
000002e0: 03f5 133e 5ecc 4b3c dc51 4fbc 9476 24be
000002f0: 28b1 5dbe fd97 fa3c 030f d43c 3b9f 6d3d
00000300: 21af afbc b7cc 753e 5076 e0be f3b3 f63c
00000310: ef98 14bd 3455 23bf 420a 263f 9660 de3f
00000320: fb0f abbe 5936 cc3e c216 24bd 1ed5 cdbc
00000330: 5a9e a7be 957e 063d 66b0 05be 3635 29be
00000340: 7dc3 6e3f 766e ae3d 624a 78bd f0c6 753e
00000350: 8cbb 0cbd b6bf b9bb 6128 7ebe 8067 a83e
00000360: 66e0 513e 8fea d7bc 209c 543d eff4 2f3e
00000370: 2644 b73e a966 e13d 55cf e93c 374f 513e
00000380: 6e0f 08bd 59b8 38bc 0b91 5abc 583c c6be
00000390: 66fd 2bbd cd18 56bd 0b06 783e dc4c 09be
000003a0: 32af 4bbd cbb3 623e 16e2 8abd 75c0 473e
000003b0: c3bd e5be bc64 ed3d fc4d 4dbe 742e 2b3e
000003c0: adcf 83be c4d3 ccbd 9175 fd3d c5b1 ebbd
000003d0: 7097 bb3c b7ce ad3e a8cc 643d e388 c73d
000003e0: dfba 163d b089 173e 100e 75be 243b 883d
000003f0: a409 e4bb c537 4dbe 3bc6 0b3f 2a3e 9ebd
0.021178773 0.06362455 0.007306554 0.122878365 0.17304486 -0.33559084 -0.1807688 -0.178706
0.23971346 -1.6454285 0.030107029 0.099522725 0.072026365 0.0613524 -0.050628107 -0.16573982
-0.3162204 0.09052759 -0.2698538 -0.31098658 -0.115098596 -0.008353647 -0.05264546 0.13529857
0.042339098 -0.05561933 -0.17396225 -0.003284897 0.06215046 0.14118251 -0.19272529 0.49402693
0.0034827045 -0.17095056 0.050460093 0.0074246186 -1.7180427 0.046472024 -0.13786758 -0.028296106
0.58172154 0.11614629 -0.26065457 0.43094704 0.26123354 0.0007988752 0.005552373 0.23894085
0.23711407 -0.14435816 0.06585958 0.046530344 0.19923265 -0.16046122 0.13755862 0.011773848
-0.024822714 -0.2411762 2.1311185 -0.47599757 0.0145665435 -0.1939845 0.0007580741 -0.39428452
-0.09830437 0.02579957 -0.073594175 0.054682687 -0.050865665 0.009502629 0.03234426 0.09825031
-0.17934823 0.3946056 -0.016774498 -0.014909589 -0.14317088 -0.02810157 0.026347997 0.2757674
-0.0126815 0.22744256 0.010836166 -0.15196249 -0.022758326 -0.094158076 -0.16272736 0.020783924
0.18886076 -0.6517342 0.20734502 -0.4260578 0.3194455 0.1913223 -0.026467754 -0.074613184
0.0511935 0.5478324 0.452808 -0.05827318 0.40196994 -0.014291702 -0.36306745 -0.1854567
-0.3744701 -0.11559093 -0.14946564 -0.16012937 0.23731318 0.17439853 0.032812178 -0.08171506
0.36995286 -0.10152425 -0.23924558 -0.12898265 -0.087838 -0.4099115 -0.22929156 0.12970196
0.13660534 0.06389616 0.003065317 -0.16009952 -0.08903086 0.10547565 -0.24116324 0.5326416
0.01622843 1.184246 -0.18444958 0.10784333 0.5007213 0.26764503 -0.8186256 0.45943934
0.035502426 0.27995503 0.44634905 0.33197314 0.20186938 -0.043091252 -0.43249512 0.2911991
0.002700988 0.13302869 0.26649562 -0.01713021 -0.37330076 -0.19125323 -0.34888092 -0.08930955
0.13536829 -0.04521106 -0.06224872 -0.061881393 0.056354336 -0.14007427 0.06432429 0.08718276
-0.06869953 0.3598408 -0.07467134 -0.022972232 -0.2074448 0.3849094 0.059306316 -0.028499713
-0.2158283 -0.35896075 0.02734596 -0.052320536 -0.19279715 -0.54504377 0.73592854 -0.008255109
0.5682394 0.08857275 0.10067537 -0.036066826 -0.06817627 0.014457731 -1.655803 -0.106568985
0.14448933 0.012438862 -0.012653794 -0.16060859 -0.21649611 0.030590052 0.025886064 0.058013182
-0.021445813 0.24003874 -0.43840265 0.030115103 -0.03627866 -0.63801885 0.648594 1.7373226
-0.3341063 0.39885214 -0.040060766 -0.025126036 -0.32738 0.03283556 -0.13055572 -0.16524205
0.9326704 0.085171625 -0.060617812 0.2400167 -0.034358546 -0.0056686057 -0.24820091 0.32891464
0.20495757 -0.026356963 0.051906705 0.17183279 0.3579418 0.11005909 0.028541246 0.20440374
-0.03321784 -0.011274421 -0.013340245 -0.38717914 -0.041989706 -0.052269746 0.24221055 -0.13408226
-0.049727626 0.22138898 -0.06781404 0.1950701 -0.4487134 0.11591479 -0.2004928 0.16716939
-0.25744382 -0.100013286 0.1237594 -0.11508516 0.02289936 0.33946773 0.055859238 0.09742906
0.036799308 0.14798617 -0.23931146 0.06651905 -0.006959157 -0.20040806 0.5459935 -0.077267006

mean.bias f4 [6]
00000000: cebf eb3b 82e2 643e d0bc 033e 26d9 6cbd
00000010: d41b e63e 516f 803f
0.0071944958 0.22352031 0.12864995 -0.057824276 0.44943106 1.0033971

log_std.weight f4 [6, 256]
00000000: 04ac 083d 9625 fc3b a019 e4bb ec13 923c
00000010: 50d1 4abb cc06 2cbc 4f9c 2c3e 7862 babd
00000020: 4c5f 4cbd 98cb da3e 9be1 b4bc 2dc8 d23c
00000030: 752c ce3d 4ded 9cbd 1567 bb3c afc0 8a3d
00000040: e033 9e3d b759 68bc deb2 1b3e a947 dd3d
00000050: e24d 3e3c d608 4dbd b7a0 3b3d d694 d73d
00000060: a09e 94bd 895c f33d 2a79 abbc 7e43 16bd
00000070: 0040 52bc 25fa 18bd d89b 0f3d 8139 053e
00000080: 930e e33a 3bb5 a8bd 8e1d 713a 5c9d c7bd
00000090: fa5e 073e 8836 a73c 8f51 c63c b8c3 883c
000000a0: f79b d4bc 68b3 be3d 4f38 a4be 73f7 e93d
000000b0: 3d3c 2b3e 4193 813c a219 903c a214 223e
000000c0: ef1d d2bc c15c 803d 8c10 9738 1131 2abe
000000d0: 2777 703e 0887 6a3b 9e8b ca3d 8d9b 333c
000000e0: 9f2c 87bd 28cb c3bc 8d6b 263f 263a 473e
000000f0: 18ce 903d 1c58 c33d c260 8dbd aa6a 513d
00000100: 76b1 3e3d 8948 683d 9334 a93c 2f48 c9bb
00000110: 0c50 84bc 56ca c5bc 84b3 afbb 1754 633d
00000120: e07b 65bc 1d05 3e3e 8c09 20bd 51c0 dabd
00000130: 181a e73d 4744 1bbd f78d bf3c bd9a d53d
00000140: c1fa 373d cfac 1e3d 077b 96bb f87e 063d
00000150: 64d8 27bd d4e7 083c 76b7 613b 1be9 0c3e
00000160: a004 003e 1448 9b3e defd da3d c759 a23e
00000170: 4370 413e b051 583d d9b1 8a3c e5bf d3bd
00000180: e971 113d 6aec 96bc 987a 4f3e da2d 0dbd
00000190: 7b4a 453e 5286 19bd 5d4c a23e eabb 133e
000001a0: 15f0 063d 32aa 2e3b 89e8 0abd c5cf 3f3e
000001b0: ceb0 173e 7f9f 013e 10cf 6fbd 2784 113e
000001c0: 868c f13c 6cb9 553d b12a 573e 1787 11bd
000001d0: adf3 61bd cd41 223e 15ea 273e 6924 153c
000001e0: 8214 793c ef68 1e3c bab5 683c e9b6 36bc
000001f0: 280e fdbc 7a85 3abd 211e 803d 9db3 d73d
00000200: 0f9a 5cbd 3037 e03e e6bc fb3d a04f 483d
00000210: e310 983e 1436 15be a886 3d3e 95d5 953e
00000220: 3e7b 023d 49a7 8f3d 2e09 b43e 1f1a 8b3d
00000230: 9baf 063d 3b24 c1bd 1222 283e 260e 913d
00000240: 3ee8 853c 06d0 cfbd 097b 063e cfc5 aa3d
00000250: 9a40 2f3e a1e2 a33c 98a8 4b3d 4518 bdba
00000260: dae9 a73d 42c2 bd3c 37cc 62bc 4256 0d3a
00000270: 7870 253b c6a3 d43d 9bd6 29bd ca2f 8cbc
00000280: 99df f3b9 d35b 743e 4c35 82b9 c77e 8bbd
00000290: d654 7b3d 913a 563e 7dfa b4bd 279f c7bc
000002a0: ac24 c23c 183f d53c 0a15 403d bb40 a53c
000002b0: 4ec1 1b3e 5399 623e 1d67 933e 8397 183d
000002c0: b9ec ae3c 65e3 ed3c 963a 18bd 22ae d93b
000002d0: fcd0 afbd 1581 d5bc c65f 793e 0a38 3c3d
000002e0: e431 983c 0f82 27bc 2838 cfbd 50fc a93d
000002f0: 4516 903c 356d 68bd 70ed cd3b 2362 37bd
00000300: 805f 863c 56bd 4b3c 5f00 e13c 21df e0bc
00000310: bb73 a33b 8b5a 0c3e 1063 ab3e a858 84be
00000320: e12e 783e a26f 153e b405 98bd a59e 8ebd
00000330: 1822 2d3c 0506 603d b1f9 463d aa9e 5bbd
00000340: 7f63 573e c720 9c3c 1c0e 9e3d 93aa b63d
00000350: 4ec9 a23c 2007 a9bd f10c 7cbe d846 8e3d
00000360: fd44 013e b370 dbba 9c95 4abd e36a a73d
00000370: ed66 183e fd57 d03c d185 903c 06f2 bcbd
00000380: 3967 99bb 2e2c 1f3d cafa 153c b8ab b73d
00000390: a81e e6bc 160f 2cbd 2d85 ddbd b7cb 0a3d
000003a0: 4bee 0b3d feaa b03d 505b 18b9 95be df3d
000003b0: ccaf 973e 23da 13be bee7 153e 21c0 103e
000003c0: 3191 0d3e 2820 513d c2e8 513d b883 ac3d
000003d0: 525d 3dbb df6c 433d 7d8f 1a3d 5ee5 603c
000003e0: 21a0 fcbc cb9a 943d 7a91 403c 5460 c43c
000003f0: 0fce 1ebd b116 7e3d 6bda b23e 84a3 333d
0.033367172 0.0076949103 -0.0069610626 0.017831765 -0.0030947514 -0.010499667 0.16856502 -0.09100813
-0.04989557 0.42733455 -0.022080233 0.025730217 0.10067073 -0.07662449 0.022876302 0.06775033
0.07724738 -0.014181546 0.15204951 0.10804684 0.011615248 -0.050057255 0.045807566 0.10526435
-0.07256818 0.11882884 -0.020931799 -0.03668546 -0.012832642 -0.03734793 0.035060734 0.13010217
0.0017323069 -0.08237692 0.00091978244 -0.09746811 0.13219824 0.020411745 0.024208812 0.016694888
-0.025953276 0.09311563 -0.3207421 0.1142415 0.16722198 0.015817286 0.017590348 0.15828183
-0.02564904 0.062676914 7.203323e-05 -0.1662028 0.23482953 0.0035786051 0.09889911 0.010962379
-0.06600308 -0.023900583 0.6500786 0.19455776 0.07070559 0.0953829 -0.06903221 0.051127113
0.04655596 0.0567098 0.020654952 -0.006142638 -0.01615145 -0.024144333 -0.005361976 0.055500116
-0.014006585 0.18556638 -0.039071605 -0.10681213 0.11284274 -0.03790691 0.023383124 0.104299046
0.044916872 0.038739022 -0.0045923027 0.03283593 -0.04097785 0.008356053 0.0034441627 0.13760798
0.12501764 0.3032843 0.106929526 0.3170912 0.1889048 0.05281228 0.016930507 -0.10339335
0.035509024 -0.018423278 0.2026161 -0.034467556 0.19266693 -0.037481613 0.31698886 0.14427152
0.032943804 0.0026651737 -0.03391317 0.18731602 0.1481354 0.12658499 -0.05854708 0.14210568
0.029485952 0.052178785 0.21012379 -0.035529222 -0.055164028 0.15845414 0.16397889 0.009102919
0.015202643 0.009668573 0.014203483 -0.011152008 -0.03089054 -0.04553745 0.06255747 0.105323054
-0.05385786 0.43792105 0.12291889 0.04890406 0.29700384 -0.1457141 0.18508399 0.29264513
0.031855814 0.07014329 0.35163254 0.067920916 0.032882314 -0.094307385 0.16419247 0.07082777
0.016346093 -0.10147099 0.13132872 0.0833851 0.17114487 0.020005526 0.04972133 -0.0014426789
0.081989005 0.023163918 -0.013842634 0.00053915766 0.0025244039 0.103828 -0.04146443 -0.017112631
-0.00046515165 0.23863153 -0.00024835241 -0.0681129 0.061360203 0.20920779 -0.08836839 -0.024367882
0.023699127 0.026031062 0.046895064 0.020172467 0.15210459 0.22128801 0.28789607 0.037253868
0.021353113 0.029039094 -0.037165247 0.0066430727 -0.085847825 -0.026062528 0.24352941 0.04595188
0.018578477 -0.0102238795 -0.10118133 0.08300078 0.017588744 -0.056744773 0.0062844083 -0.044771325
0.01640296 0.012435278 0.027465997 -0.027450146 0.0049881614 0.13706414 0.33474016 -0.2584889
0.24236633 0.14593366 -0.07422963 -0.06963853 0.010567211 0.05469324 0.048577968 -0.05361811
0.21034048 0.019058598 0.07717535 0.08919253 0.01987138 -0.08253312 -0.24614312 0.06947106
0.12623973 -0.0016741961 -0.049459085 0.08174684 0.14883013 0.025432581 0.017641934 -0.0922585
-0.0046814946 0.038860492 0.009154031 0.089682996 -0.02809079 -0.042006575 -0.10816417 0.033885684
0.0341628 0.08626364 -0.00014529866 0.109250225 0.2962631 -0.14438681 0.14639184 0.14135791
0.13824917 0.051056057 0.051247366 0.08423561 -0.0028894735 0.04771125 0.037734497 0.01372656
-0.030838074 0.07256087 0.011753434 0.023971714 -0.03877073 0.06203336 0.34932265 0.043857113

log_std.bias f4 [6]
00000000: 4a7c fbbf 8025 d8bf 6886 f4bf a2d4 02c0
00000010: b321 c1bf c329 9fbf
-1.9647305 -1.6886444 -1.9103518 -2.044228 -1.5088409 -1.243462
