trained_models/Walker2dNormal-v3/sac/critic_5.pt (torch, 582034 bytes, 10 tensors)

Q1.0.weight f4 [256, 23]
0	0xbe64cbb7	-0.22343336
1	0x3f4447a5	0.7667182
2	0x3fbf8e6e	1.4965341
3	0x40434a73	3.051419
4	0xbe5b35a8	-0.21407187
5	0x3f83ff6e	1.0312326
6	0xbf39cff0	-0.7258291
7	0x3dabf746	0.08396773
8	0x3ebca8d5	0.3684756
9	0xbed1cfa1	-0.4097872
10	0x3df9121a	0.12161656
11	0xbe5229b7	-0.20523725
12	0xbd8d1168	-0.068880856
13	0x3dab7f73	0.083739184
14	0x3e2dba93	0.16965704
15	0x3e9b9b5a	0.3039196
16	0xbdfa4eb3	-0.12222042
17	0xbe36d021	-0.17852832
18	0x3edd5fd9	0.43237188
19	0x3f47e01b	0.7807633
20	0xbf5d916e	-0.86550033
21	0x3f07258b	0.5279166
22	0xbe9fc124	-0.31202042
23	0xbf2d8c16	-0.6779188
24	0xbffb7a7c	-1.9646754
25	0x3f54373c	0.8289678
26	0xbe0169dc	-0.12638038
27	0xbe597cd0	-0.21239018
28	0xbeb03d38	-0.34421706
29	0xbea95c51	-0.33078244
30	0x3f614f27	0.880114
31	0x3ec2dd76	0.38059586
32	0x3eafac5c	0.34311187
33	0x3d4d493e	0.050118677
34	0x3da9589f	0.08268856
35	0xbd18621e	-0.037202947
36	0x3dc0b5b3	0.094096564
37	0xbda663f8	-0.08124536
38	0x3d660275	0.056154687
39	0x3cacebdd	0.021108562
40	0x3e73cfbb	0.23809712
41	0x3dff1b68	0.12456399
42	0x3f4f5ae4	0.80998063
43	0x3f311980	0.69179535
44	0x3e147957	0.14499412
45	0x3bd97acd	0.0066369534
46	0x3f027df6	0.5097345
47	0x3fb54adc	1.416347
48	0xbecdb7a4	-0.4017917
49	0xbdae5d8b	-0.08513936
50	0xbfa08b5c	-1.2542529
51	0x3f8bfe4a	1.0936978
52	0x3ed7a763	0.42119893
53	0x3f60c237	0.8779635
54	0x3dc182c8	0.09448773
55	0x3f71d866	0.9447082
56	0x3c95541f	0.018228589
57	0x3b133c73	0.002246645
58	0x3d09fb49	0.03368691
59	0x3d959a28	0.073047936
60	0xbd4e74fb	-0.05040453
61	0xbe07a782	-0.13247493
62	0x3d51e48f	0.05124336
63	0x3e2f7a6d	0.17136545
64	0x3ec41107	0.3829424
65	0x3ec4e82f	0.38458392
66	0x3e044134	0.12915498
67	0xbd34708b	-0.04405264
68	0xbe9942bb	-0.29933724
69	0x3e46c40b	0.19410722
70	0x3feaad69	1.833417
71	0xbe93da25	-0.2887737
72	0x3da6f12f	0.08151471
73	0x3ed911ab	0.42396292
74	0xbf7e4cb0	-0.99335766
75	0x3bc7af7d	0.006093918
76	0xbea64358	-0.32473254
77	0x3e77166e	0.2412965
78	0xbc83e3f6	-0.016099911
79	0xbde90bd3	-0.113792084
80	0xbe119c9e	-0.14219901
81	0xbdb37c68	-0.08763963
82	0x3d981e05	0.07427601
83	0x3d2ab988	0.041680843
84	0x3d49547e	0.049152844
85	0xbae2b34b	-0.0017295865
86	0xbc2c2bb4	-0.0105084665
87	0xbe17579a	-0.14779511
88	0x3dc47ae2	0.095937505
89	0xbe059833	-0.1304634
90	0xbcf6b57b	-0.030115834
91	0xbe69b14c	-0.2282154
92	0xbf1195fc	-0.56869483
93	0x3f2383e9	0.63873154
94	0xbfcb116c	-1.5864692
95	0x3e9f0e7a	0.31065732
96	0x3e3c634c	0.18397254
97	0x3f050446	0.51959646
98	0x3cc4df40	0.024032235
99	0xbe1691d4	-0.14704067
100	0x3d8505dd	0.06495259
101	0xbd0f05f3	-0.034917783
102	0x3df0daa8	0.11760455
103	0x3d846c99	0.06466026
104	0xbd5af2f8	-0.05345437
105	0x3c0341e1	0.008011312
106	0xbd8930fb	-0.066987954
107	0x3b9c9fe1	0.0047798012
108	0xbd0cf04b	-0.03440885
109	0x3e87a0fb	0.26490006
110	0xbdb3ab35	-0.087728895
111	0x3e621ae4	0.2208057
112	0xbe5f3e4a	-0.21801105
113	0x3d9f5471	0.07779778
114	0x3e55647b	0.20839112
115	0xbfd227c9	-1.6418391
116	0xc07494a6	-3.8215728
117	0xc0187574	-2.3821688
118	0xbfda588c	-1.7058272
119	0xbbf373f5	-0.0074295946
120	0xc01a316c	-2.4092665
121	0xbfcfe773	-1.6242508
122	0x3d1d7c4d	0.03844862
123	0xbfb456c4	-1.4088979
124	0xbea0c12f	-0.31397387
125	0x3d40897f	0.047006126
126	0xbd2eaaf5	-0.042643506
127	0x3d39a9e1	0.045328025
128	0xbb35fd24	-0.0027769292
129	0xbbeb7e80	-0.007186711
130	0x3d68572f	0.05672377
131	0x3c0f21d3	0.008736092
132	0xbf1e5fc9	-0.61864907
133	0x3d3dc1c7	0.04632738
134	0x3d7981dd	0.060914863
135	0xbf094ca5	-0.53632575
136	0xbb9b0399	-0.0047306535
137	0x3cda6394	0.02665881
138	0xbf49c2f5	-0.78813106
139	0xbfddeeca	-1.7338498
140	0x3e72f64a	0.23726764
141	0x3c77bf02	0.015121223
142	0xbf32c104	-0.6982577
143	0xbf706d00	-0.9391632
144	0xbfb0c12c	-1.3808951
145	0x3ffec5a7	1.9904069
146	0x3d9ef479	0.07761473
147	0xbf17449b	-0.5908906
148	0x3d8802d9	0.06641168
149	0x3d52aee2	0.051436312
150	0xbb8fa789	-0.0043839854
151	0xbcce0a57	-0.025151415
152	0xbe29ab5c	-0.16569275
153	0xbcc0a1aa	-0.023514587
154	0x3ca4f7f9	0.020137774
155	0xbddbcf48	-0.10732895
156	0xbe14f291	-0.14545657
157	0xbe333cb8	-0.17503631
158	0xbec76df4	-0.38951075
159	0xbd8d92af	-0.06912743
160	0x3de4038b	0.11133488
161	0xbf724d89	-0.9464956
162	0x3e73e657	0.23818336
163	0xbe5e937d	-0.2173595
164	0xbe9526a1	-0.29131034
165	0xbfe787a9	-1.8088275
166	0xc02d33f2	-2.7062955
167	0xbf66d608	-0.90170336
168	0xbeef3d7a	-0.4672659
169	0xbe0e55a1	-0.13899852
170	0x3e6c03ec	0.23048371
171	0x3e88a9d1	0.2669206
172	0xbe016b77	-0.12638651
173	0xbe546964	-0.20743328
174	0x3e1bf295	0.15229256
175	0xbe608a66	-0.21927795
176	0x3c96f1d2	0.018425856
177	0xbd89c269	-0.06726534
178	0x3e93c6df	0.28862664
179	0xbd07ac40	-0.033123255
180	0x3f51eb8c	0.8200004
181	0x3e33055d	0.17482515
182	0xbd2a7582	-0.04161597
183	0x3f2a1912	0.66444504
184	0xbdc17a3f	-0.09447145
185	0x3f1952ac	0.5989177
186	0x3f12122b	0.5705897
187	0xbe6a4c9a	-0.22880784
188	0x3f424362	0.7588407
189	0x3ef4b30d	0.47792855
190	0x3df0eb18	0.117635906
191	0xbf7082d7	-0.93949646
192	0xbe9d2b85	-0.30697265
193	0xbea77fc9	-0.3271468
194	0x3f2718e0	0.6527233
195	0xbeae286d	-0.34015217
196	0xbdc94746	-0.098280475
197	0xbcc864b5	-0.024462083
198	0xbeba4ace	-0.36385196
199	0xbe7059aa	-0.23471704
200	0xbdcae3be	-0.099067196
201	0xbde89d0f	-0.113580815
202	0x3eb6be6f	0.35692164
203	0xbe2f22dc	-0.17103142
204	0x3df54415	0.11975876
205	0xbe8b038f	-0.27151152
206	0xbe8b44af	-0.2720084
207	0xbf090934	-0.5352967
208	0xbf3fef7d	-0.74974805
209	0x3fec2c9f	1.8451117
210	0xbfd84f71	-1.6899244
211	0xbf628e88	-0.88498735
212	0xbec9956d	-0.39371815
213	0xbeb1065a	-0.34575158
214	0xbf9bf896	-1.2185237
215	0x3e5a4e6a	0.21318975
216	0xbcebbbcc	-0.028776072
217	0x3d42cf4e	0.047560982
218	0xbe0389df	-0.12845562
219	0xbb07c786	-0.002071829
220	0x3ce08bf6	0.027410489
221	0xbdb2a772	-0.08723344
222	0xbe8f7454	-0.2801844
223	0x3c0a6cab	0.00844876
224	0xbf01b367	-0.5066437
225	0xbe4cdfd7	-0.20007263
226	0xbda0ed82	-0.07857801
227	0xbf09aeb7	-0.5378222
228	0xbc84ff69	-0.01623507
229	0x3f653610	0.8953562
230	0xbf8a0dd5	-1.0785471
231	0xc090d596	-4.5260725
232	0xbfc34aee	-1.5257242
233	0xbf2c59e2	-0.6732465
234	0x3f08c86c	0.5343082
235	0xbfd0ab0f	-1.6302203
236	0xbf2d4521	-0.6768361
237	0xbeb9dd54	-0.36301672
238	0xbf1ddc63	-0.6166441
239	0xbe80cc20	-0.25155735
240	0xbe6095cc	-0.21932143
241	0x3e30f6a9	0.17281593
242	0x3db3e7ef	0.08784472
243	0xbd04c44a	-0.03241376
244	0xbe0a7d33	-0.13524322
245	0x3c0feb8d	0.008784187
246	0xbbce18ec	-0.006289592
247	0xbf711ee7	-0.9418778
248	0xbe79732e	-0.24360344
249	0xbdc988dc	-0.09840557
250	0xbf932643	-1.1496052
251	0x3f2230c2	0.6335565
252	0x3ea4ae30	0.32164145
253	0x3f5f1288	0.8713765
254	0xc06ff14d	-3.7491028
255	0xbeaf28cb	-0.3421081

Q1.0.bias f4 [256]
0	0xbed746e1	-0.42046264
1	0xbd6585ab	-0.05603568
2	0x3e1cd7b8	0.15316665
3	0x3f9f80eb	1.2461218
4	0x3f984322	1.1895487
5	0xbfaee4e1	-1.3663598
6	0xbee100f8	-0.43946052
7	0xbe8d0aaf	-0.27547213
8	0x3f39b763	0.7254545
9	0xbf46ce74	-0.7765877
10	0xbf8da822	-1.1066935
11	0xbf6215a5	-0.88314277
12	0x3f871d16	1.0555751
13	0xbf4fffa8	-0.81249475
14	0x3fbb1262	1.4614985
15	0xbe9a3bdb	-0.3012379
16	0xbec1ce25	-0.37852588
17	0xbf019b41	-0.50627524
18	0xbff1c337	-1.88877
19	0x3ea6c5c6	0.32572764
20	0xbef4ed3b	-0.47837242
21	0xbf3576be	-0.7088431
22	0xbf92d940	-1.147255
23	0x3fa059b1	1.2527372
24	0xbe42cd18	-0.1902355
25	0x3e84bb95	0.25924364
26	0xbf162184	-0.5864489
27	0x3f35744f	0.708806
28	0x3eb51637	0.3536851
29	0xbf7a6d32	-0.9782287
30	0xbf24ee1e	-0.6442584
31	0xbf4a6ad4	-0.79069257
32	0xbedebdc7	-0.43504164
33	0xbf6d3ba2	-0.9266912
34	0x3facba42	1.3494341
35	0x3f8311ec	1.0239844
36	0x3f7268c2	0.946911
37	0xbf0f6438	-0.56012297
38	0xbf16360a	-0.5867621
39	0xbf772062	-0.9653379
40	0xbecbb9c8	-0.39790177
41	0x3f8a713e	1.0815809
42	0x3eced01e	0.40393156
43	0xbf507af1	-0.81437594
44	0xbf54a44e	-0.8306321
45	0x3f5d3ea9	0.86423737
46	0xbf5fee97	-0.87473434
47	0x3f1f5678	0.62241316
48	0xbeee41cb	-0.4653457
49	0x3fb850c1	1.4399644
50	0x3fafbbf2	1.3729231
51	0x3f92ff31	1.1484128
52	0xbedc4f33	-0.43029174
53	0xbf43cbbe	-0.7648276
54	0x3fbbcf0b	1.467256
55	0x3f8fbe09	1.1229869
56	0xbf8d9b9c	-1.1063113
57	0xbfe9d407	-1.8267831
58	0x3fa9816a	1.3242619
59	0x3f879de1	1.0595056
60	0x3fa50306	1.2891548
61	0x3f5c7aa6	0.86124647
62	0xbeb775c2	-0.3583203
63	0x3e9c8996	0.3057372
64	0xbf2cabef	-0.6744985
65	0xbeaeb871	-0.34125093
66	0xbed4dbfd	-0.41574088
67	0xbf79560e	-0.97396934
68	0x3ee44426	0.44583243
69	0x3f4aaa9c	0.7916658
70	0xbe0cb3d7	-0.13740478
71	0x3f6281af	0.8847913
72	0xbf8318fd	-1.0242001
73	0xbfea43f0	-1.8301983
74	0xbef5368f	-0.47893187
75	0x3ed9c9b9	0.42536715
76	0xbf432a0d	-0.7623604
77	0xbde17f0c	-0.110105604
78	0xbf805e94	-1.0028863
79	0xbfcfa5c0	-1.6222458
80	0x3f8b3e60	1.087841
81	0x3ebbaa26	0.3665325
82	0xbf167247	-0.58768123
83	0x3f8413d0	1.0318546
84	0xbf6e843e	-0.93170536
85	0x3da964b4	0.08271161
86	0xbf800eab	-1.0004476
87	0xbf01805b	-0.5058648
88	0xbf005668	-0.50131845
89	0x3f57ff28	0.8437371
90	0xbe87e4f0	-0.26541853
91	0xbd2bd1ec	-0.041948244
92	0x3f38908b	0.72095555
93	0xbf80e29d	-1.0069157
94	0xbeb37cba	-0.35056096
95	0xbfd07e12	-1.6288474
96	0x3ee6bc0d	0.45065346
97	0xbf6ba29f	-0.92045015
98	0xbe8f1563	-0.27946004
99	0xbefb3b10	-0.490685
100	0xbf82c28f	-1.0215625
101	0xbf8a935c	-1.082622
102	0x3ee3960c	0.44450414
103	0x3e025510	0.12727761
104	0xbf8fead5	-1.124354
105	0x3f0990ca	0.53736556
106	0xbd5128e2	-0.05106438
107	0x3d8ce252	0.06879105
108	0xbfaa51ce	-1.3306215
109	0xbeb8941f	-0.36050507
110	0x3fd032a6	1.6265457
111	0x3f52690d	0.82191545
112	0xbf3fedf4	-0.7497246
113	0xbe87d0a1	-0.2652636
114	0xbf1d9ecb	-0.61570424
115	0xbf9ec3a1	-1.2403451
116	0x3fd10152	1.6328528
117	0x3e321c68	0.17393649
118	0x3e3985b1	0.18117405
119	0xbf993cbd	-1.1971661
120	0xbf25fb33	-0.64836425
121	0xbee2bd64	-0.4428512
122	0x3f8c0489	1.0938884
123	0x3fc38594	1.527514
124	0xbfabb480	-1.3414459
125	0xbe5db2a7	-0.21650182
126	0xbf404a8b	-0.75113744
127	0x3eff995a	0.49921685
128	0x3faac41b	1.3341097
129	0x3d6ff379	0.058581803
130	0x3cb87e3d	0.022521133
131	0xbf04b1be	-0.51833713
132	0xbf4a978a	-0.7913748
133	0xbfb7dcb5	-1.436423
134	0xbfa0121c	-1.2505527
135	0x3eafe07b	0.34350953
136	0x3fc6372c	1.5485587
137	0x3d62fbf4	0.055416062
138	0xbf2c70bf	-0.67359537
139	0x3fd924b8	1.6964331
140	0x3f5d6f06	0.86497533
141	0x3cf110e7	0.029427005
142	0x3f2a5177	0.66530555
143	0x3fc73272	1.556227
144	0xbf657a15	-0.8963941
145	0xbcaae544	-0.020861275
146	0x3fb71159	1.4302169
147	0xbdf065a1	-0.11738134
148	0x3cac5546	0.021036755
149	0xbf379113	-0.7170574
150	0x3ea7725d	0.3270444
151	0x3faabd3f	1.3339003
152	0x3f9ebd6a	1.2401555
153	0xbf9f1cfb	-1.2430719
154	0x3dfe911a	0.1243002
155	0xbf4d818d	-0.80275804
156	0xbea7280c	-0.3264774
157	0xbf73a1a8	-0.9516854
158	0xbf8fe19f	-1.1240729
159	0x3e221fc7	0.15832435
160	0xbe8b9508	-0.2726214
161	0x3f35fb32	0.7108642
162	0xbf083570	-0.5320654
163	0xbeaec4f9	-0.34134653
164	0x3d8a447e	0.06751345
165	0xbd1b58cd	-0.037926484
166	0xbf195a20	-0.59903145
167	0xbf0bead5	-0.546552
168	0x3ec1b780	0.37835312
169	0xbd77df26	-0.060515545
170	0x3fb3c3d1	1.4044133
171	0x3fafb7e8	1.3727999
172	0xbed8be7b	-0.42332825
173	0xbf25497b	-0.6456525
174	0xbf3a120b	-0.7268378
175	0xbe7fedd9	-0.24993075
176	0x3e43eb12	0.19132641
177	0xbee546e3	-0.44780645
178	0xbf3c882f	-0.736453
179	0xbf94a3a6	-1.1612442
180	0x3fabcd4f	1.342203
181	0x3f8d17b4	1.1022859
182	0xbcea0999	-0.02856903
183	0x3ec94eb9	0.39317873
184	0x3edabfdb	0.427245
185	0x3f985983	1.1902317
186	0x3f9d16bc	1.2272563
187	0x3d7f3932	0.062310405
188	0xbe9417d3	-0.28924426
189	0x3f709bb7	0.939876
190	0xbf9dd306	-1.2330024
191	0x3e83d36f	0.2574725
192	0xbf75d8f0	-0.96034145
193	0xbe701a47	-0.23447524
194	0xbe37a081	-0.17932321
195	0xbece9531	-0.403482
196	0x3ec08fd2	0.37609726
197	0x3ed7c389	0.4214137
198	0x3e2ff684	0.17183882
199	0xbf158bb0	-0.5841627
200	0x3ca8440d	0.020540262
201	0xbf957c2f	-1.1678523
202	0x3f9f5b98	1.2449827
203	0xbdac3f79	-0.08410544
204	0x3f1545ab	0.5830943
205	0xbf0b1207	-0.5432438
206	0x3f7d974c	0.99058986
207	0xbfe53dc8	-1.7909479
208	0x3e824878	0.25445914
209	0x3fe492ed	1.7857338
210	0x3ed9e8ba	0.4256037
211	0xbd63da17	-0.05562791
212	0xbf4f0dfc	-0.80880713
213	0x3f986cb8	1.1908178
214	0x3edba557	0.42899582
215	0xbe1d0e1e	-0.15337417
216	0x3e462bc7	0.19352637
217	0x3e176b82	0.14787105
218	0x3f69c763	0.91319865
219	0xbe96b928	-0.29438138
220	0xbde12d2d	-0.10994945
221	0xbfb8c5f4	-1.443541
222	0xbe5e6454	-0.2171796
223	0x3f3a0940	0.72670364
224	0xbf66e5fe	-0.9019469
225	0xbfb66466	-1.4249389
226	0xbe5a1086	-0.21295366
227	0x3e90ad8d	0.2825741
228	0xbe386c8c	-0.18010157
229	0x3fb410e0	1.406765
230	0xbed86a2e	-0.4226851
231	0x3fb2bc07	1.3963631
232	0x3d9868a1	0.074418314
233	0x3f4144e6	0.75495756
234	0xbf3447cd	-0.7042206
235	0xbf67b8ce	-0.90516365
236	0xbebae10f	-0.3649983
237	0x3fa78648	1.3087854
238	0xbf1b60fa	-0.6069485
239	0xbf542d08	-0.8288121
240	0xbf08f833	-0.5350372
241	0x3eff05e7	0.4980919
242	0xbfa71f96	-1.3056514
243	0xbdba7e78	-0.09106153
244	0xbed3b0d4	-0.41345847
245	0x3f4b3840	0.79382706
246	0x3eea0f36	0.4571473
247	0x3fbdcd6a	1.4828312
248	0x3f51e252	0.8198596
249	0xbf185953	-0.595113
250	0x3f4ec1f8	0.8076472
251	0x3ea6f870	0.32611418
252	0xbcffc16d	-0.031220162
253	0xbead9cf7	-0.33908817
254	0x3fae6708	1.3625193
255	0x3f89b245	1.0757529

Q1.2.weight f4 [256, 256]
0	0xbc924cd3	-0.017858898
1	0xbe594904	-0.2121926
2	0x3d064b84	0.03278686
3	0x3eb76615	0.3582007
4	0xbda8f0a9	-0.08249027
5	0xc09fa4e2	-4.9888773
6	0xbeb47ec3	-0.35252962
7	0x3d851137	0.06497424
8	0xbdd14739	-0.10218663
9	0x3e7d6536	0.2474564
10	0xbf2d72cb	-0.67753285
11	0xbe640127	-0.22266065
12	0x3d1e9833	0.038719367
13	0xbda30386	-0.079596564
14	0x3eafe021	0.34350684
15	0x3d8b749f	0.06809353
16	0x3ddcb22e	0.107761726
17	0xbdc37032	-0.09542884
18	0xbe31d392	-0.17365864
19	0x3e2df297	0.16987072
20	0xbe893c58	-0.2680385
21	0x3e0c942d	0.137284
22	0xbea773c1	-0.327055
23	0x3e6c8e24	0.23101097
24	0x3e6ef55d	0.23335786
25	0xbe98e8f9	-0.29865244
26	0x3cfb18b4	0.030651428
27	0x3e4df0f5	0.20111449
28	0xbe8b03a4	-0.27151215
29	0xbe066411	-0.1312411
30	0xbdc6ab80	-0.0970068
31	0xbecb5244	-0.397112
32	0xbe218cda	-0.15776387
33	0x3e17c389	0.14820684
34	0x3e49bad6	0.19700179
35	0x3e8410dc	0.25794113
36	0x3e8fddbd	0.2809886
37	0x3e28bfd6	0.1647943
38	0xbc0ef35e	-0.008725015
39	0xbea180f8	-0.31543708
40	0xbefb4599	-0.49076536
41	0x3e4ea275	0.2017916
42	0xbde0cab8	-0.109761655
43	0xba5c5a8f	-0.0008405828
44	0x3df42a8b	0.11922177
45	0x3e019020	0.12652636
46	0xbdd33e0b	-0.10314568
47	0xbddc8f1d	-0.10769484
48	0x3e8a62bb	0.2702845
49	0xbde3d6a7	-0.11124926
50	0x3e48e3bc	0.19618124
51	0xbcd5f2c0	-0.026116729
52	0x3e172adb	0.14762442
53	0xbda2780a	-0.07933052
54	0xbcbf9cfd	-0.023390288
55	0x3d2baaa0	0.041910768
56	0xbeba30fd	-0.363655
57	0xbd5ba55f	-0.053624507
58	0x3c9e1c01	0.019300463
59	0x3e8e80dd	0.2783269
60	0x3eb971a9	0.36219528
61	0xbdba2ac6	-0.0909019
62	0x3ca87dd3	0.02056781
63	0xbdaaf285	-0.08347038
64	0x3c582a2d	0.013193649
65	0x3ea39b73	0.31954536
66	0xbd5c19a8	-0.053735405
67	0xbf1b730b	-0.60722417
68	0xbcba6763	-0.022754377
69	0x3e823cf3	0.25437126
70	0xbe9b3485	-0.30313507
71	0x3dbc8da1	0.09206701
72	0x3d8a8dba	0.067653134
73	0xbf109587	-0.5647816
74	0x3e4c043d	0.19923492
75	0xbe2902e5	-0.1650501
76	0xbea4a7f6	-0.32159394
77	0x3e141c79	0.14463986
78	0xbe9b3183	-0.30311212
79	0xbe0998e3	-0.13437228
80	0x3d808916	0.06276147
81	0x3bd7decc	0.0065878388
82	0xbe5d6dbe	-0.21623895
83	0xbc0934e4	-0.0083744265
84	0x3d40fce3	0.04711617
85	0x3e031011	0.12799098
86	0xbd7aee00	-0.06126213
87	0x3dcd0459	0.10010595
88	0x3e504cd4	0.20341808
89	0x3e355ca6	0.17711124
90	0xbe9c45ca	-0.30521995
91	0x3e0a4b69	0.13505329
92	0xbe39304a	-0.18084827
93	0xc025962f	-2.5872915
94	0xbe8f04c8	-0.27933335
95	0x3cf38891	0.029728206
96	0xbdc2cd2c	-0.0951179
97	0xbf0617ac	-0.5237987
98	0xbe1ae7dd	-0.15127511
99	0xbe842c76	-0.2581517
100	0xbe2d2f13	-0.16912489
101	0xbe3058f9	-0.1722144
102	0xbd7ec10d	-0.062195826
103	0xbe08dfd7	-0.13366638
104	0x3e3aec6c	0.1825425
105	0x3db5e0d3	0.088807724
106	0x3e31192f	0.17294763
107	0x3e8287ec	0.25494325
108	0xbe3b909b	-0.18316881
109	0xbdfe027a	-0.12402816
110	0xb97eb974	-0.00024292414
111	0xbc8a0367	-0.016847325
112	0x3dbd7e51	0.092526086
113	0x3de1d399	0.11026687
114	0xb9c9095e	-0.00038344687
115	0xbd99a4dc	-0.075021476
116	0xbdb8dc6e	-0.090264186
117	0x3da077d9	0.07835359
118	0xbdc9643a	-0.0983357
119	0xbe1c5251	-0.15265776
120	0xbe5794ed	-0.21052904
121	0xbd62abbc	-0.05533956
122	0x3979e0df	0.00023830261
123	0x3e44f136	0.1923264
124	0xbec2b320	-0.38027287
125	0x3ef5aef6	0.47985047
126	0xbdaba485	-0.08380989
127	0x3e8ccb38	0.27498794
128	0x3ecabffb	0.39599594
129	0xbdc1b925	-0.09459142
130	0x3e2d1397	0.16902004
131	0x3d8b5bc0	0.06804609
132	0xbe838cde	-0.2569341
133	0xbe2ad6b4	-0.16683465
134	0xbe8cd7b2	-0.27508312
135	0xbd361fab	-0.044463795
136	0x3ec0cba5	0.37655368
137	0xbe832d37	-0.25620434
138	0xbe9010dd	-0.28137866
139	0x3e1bbd6d	0.15208979
140	0x3e47dca0	0.19517756
141	0x3cc84640	0.02444756
142	0x3e0fb4ba	0.14033785
143	0x3da06c61	0.07833172
144	0xbf314f9f	-0.6926212
145	0x3df63d63	0.12023427
146	0x3da3453e	0.07972191
147	0xbdd143c3	-0.10218003
148	0x3e82f924	0.25580704
149	0xbe1a14d6	-0.15047011
150	0x3f0ddb3c	0.5541265
151	0x3e1d210d	0.15344639
152	0xbdc01f4e	-0.09380971
153	0xbb2a3775	-0.0025972996
154	0x3e87d2c7	0.26527998
155	0xbe4badc7	-0.1989051
156	0xbd26d3cb	-0.040729325
157	0x3e3a0be1	0.18168594
158	0xbd974796	-0.07386701
159	0xbd2de593	-0.042455267
160	0x3dcac46e	0.09900747
161	0x3e7df5ef	0.24800847
162	0x3c8e2454	0.017351307
163	0xbe7d41e4	-0.24732167
164	0x3ecc55f8	0.3990934
165	0x3d4ab695	0.04949053
166	0xbe30ccc2	-0.17265609
167	0xbd2c5290	-0.042070925
168	0xbec2f935	-0.38080755
169	0xbe1feed5	-0.15618451
170	0x3eb364e5	0.35037914
171	0x3d5cc14a	0.053895272
172	0xbe657d04	-0.22410971
173	0xbe149e16	-0.1451343
174	0x3e5884a7	0.21144353
175	0xbe1ecd2d	-0.15507956
176	0x3db4ae7e	0.08822344
177	0x3da566fc	0.08076283
178	0xbe3df8d4	-0.18551952
179	0x3e5a8ebc	0.21343511
180	0x3cb281b6	0.021790367
181	0xbd588b64	-0.05286731
182	0x3dfcc61d	0.123424746
183	0x3d87a867	0.06623917
184	0xbee6f585	-0.45109192
185	0xbed87c00	-0.42282104
186	0x3d098cb2	0.033581443
187	0x3eb7936e	0.35854667
188	0x3df9e9d4	0.12202802
189	0xbd72224e	-0.059114747
190	0xbec30ab1	-0.38094094
191	0x3e20cbb8	0.15702713
192	0xbec70978	-0.38874412
193	0xbeec6a01	-0.46174625
194	0xbc1cfc0f	-0.00958158
195	0xbc3f569d	-0.011678365
196	0x3d30b922	0.043145306
197	0xbd293e0b	-0.041318934
198	0xbdfe4903	-0.1241627
199	0xbc6ea01b	-0.014564539
200	0xbde3434f	-0.110968225
201	0x3cc85c03	0.024457937
202	0xbd4f7d12	-0.050656386
203	0xbe2cb16e	-0.16864559
204	0xbde51e85	-0.11187462
205	0x3c830827	0.015995098
206	0x3e6c8d3e	0.23100755
207	0xbea1e3b2	-0.3161903
208	0x3d4af97e	0.04955434
209	0x3c62c62a	0.013841191
210	0xbdc48b2e	-0.09596859
211	0xbd23abe0	-0.039958835
212	0xbc935697	-0.017985625
213	0x3e0cdc42	0.13755897
214	0x3b2705e1	0.0025485682
215	0xbea0fd2c	-0.31443155
216	0x3d63fa7d	0.055658806
217	0x3b99d6ca	0.0046947943
218	0x3dadb805	0.084823646
219	0x3df223f6	0.11823265
220	0x3e3ef49f	0.18648003
221	0xbe72c6d6	-0.23708662
222	0x3d053304	0.032519355
223	0x3dbd9816	0.09257524
224	0x3dcb2c98	0.09920615
225	0xbe8a67f8	-0.27032447
226	0xbe0e8fb2	-0.13922003
227	0x3e48710a	0.19574371
228	0xbe557600	-0.20845795
229	0x3e96919c	0.29407966
230	0x3e1adc06	0.15122995
231	0xbc1e0f52	-0.009647207
232	0xbe728d21	-0.23686649
233	0x3eaf41ca	0.3422988
234	0x3e18c9db	0.14920752
235	0xbe85a7ba	-0.26104528
236	0xbe100951	-0.14066054
237	0x3d9c790d	0.07640276
238	0x3e357fb3	0.17724495
239	0x3c0b51fd	0.008503434
240	0xbe887d9d	-0.26658335
241	0x3e10ed0f	0.1415293
242	0x3d522ce5	0.051312346
243	0x3db7cff6	0.08975212
244	0xbc4baa48	-0.012430735
245	0x3db4cdc9	0.08828313
246	0x3ed36588	0.412884
247	0xbdfe2788	-0.12409884
248	0x3db12cc0	0.086511135
249	0xbdb718e6	-0.08940296
250	0x3e9e0534	0.30863345
251	0xbde885c3	-0.11353638
252	0x3ef88eca	0.4854644
253	0x3f42ffd3	0.76171607
254	0x3cf7f510	0.030268222
255	0x3eaf924a	0.34291297

Q1.2.bias f4 [256]
0	0x3fcf61ac	1.6201682
1	0x3f9898a7	1.1921586
2	0x3fbfc98b	1.4983381
3	0x3fb866cd	1.4406372
4	0xbf41f118	-0.75758505
5	0x3fca2da5	1.579518
6	0x3fb46f44	1.4096456
7	0xbe2ac806	-0.16677865
8	0x3fc4f8d1	1.5388433
9	0xbe9a131a	-0.30092698
10	0xbf89f527	-1.077794
11	0x3f99650c	1.1983962
12	0x3f8c8209	1.0977184
13	0x3fb53bc2	1.4158862
14	0xbf8e6a76	-1.1126239
15	0x3e7d6df7	0.2474898
16	0xbdd0e704	-0.10200313
17	0x3fa5d8ac	1.2956748
18	0x3fb1b2ab	1.388265
19	0x3fc1df74	1.5146317
20	0x3fb84b60	1.4398003
21	0x3fa47862	1.2849238
22	0x3fc779ce	1.5584047
23	0xbf909d76	-1.1298053
24	0xbf518f92	-0.81859696
25	0xbf190142	-0.59767544
26	0x3f8cbc69	1.0994998
27	0xbf715d61	-0.9428311
28	0x3fb8e045	1.4443442
29	0xbe9f0f33	-0.31066284
30	0xbf068d05	-0.5255893
31	0xbf98c43c	-1.1934886
32	0xbd876c3f	-0.06612443
33	0xbf372a18	-0.71548605
34	0x3fabbf52	1.3417761
35	0xbf89f810	-1.0778828
36	0xbfb710de	-1.4302022
37	0x3fb8e0e4	1.4443631
38	0x3fa69954	1.3015542
39	0x3fb6cdb9	1.4281532
40	0xbe9401df	-0.28907678
41	0x3f85c104	1.0449529
42	0xbdf411bf	-0.11917447
43	0xbf2dc214	-0.67874265
44	0x3fafaa40	1.3723831
45	0x3f84b767	1.036847
46	0xbf1c8807	-0.6114506
47	0x3fc8e18e	1.5693834
48	0xbe036b4f	-0.12833904
49	0x3d06e8e3	0.03293694
50	0xbe92e74e	-0.28692096
51	0x3fad66ec	1.3547034
52	0xbf8f4d88	-1.1195536
53	0x3fa0b9f7	1.2556752
54	0x3fa8f342	1.3199236
55	0xbe8b8ffc	-0.2725829
56	0x3fc9008a	1.570329
57	0x3fcc102d	1.5942436
58	0xbf7579e7	-0.95889133
59	0xbf6b11a0	-0.9182377
60	0xbfa13cc6	-1.2596672
61	0xbf621bb8	-0.88323545
62	0xbf83611c	-1.026401
63	0xbf459d3c	-0.77193046
64	0xbe9edd01	-0.31027988
65	0x3fb0abf6	1.3802478
66	0x3fb2ef09	1.3979198
67	0xbe0d7a22	-0.13816121
68	0xbf8aaffc	-1.0834956
69	0x3fb260d3	1.3935798
70	0xbfa196ad	-1.2624108
71	0xbf905e15	-1.1278712
72	0xbe5fe2ce	-0.21863863
73	0x3fbd7c89	1.480363
74	0xbf5e1282	-0.8674699
75	0xbf60c254	-0.8779652
76	0xbb8607b4	-0.0040902738
77	0xbf0cf598	-0.55062246
78	0xbef1a158	-0.47193408
79	0xbf769de5	-0.9633468
80	0x3f9470ea	1.1596959
81	0xbed92323	-0.4240962
82	0x3f696305	0.91166717
83	0x3f9e8899	1.2385436
84	0xbedd6299	-0.43239287
85	0x3fd3e6d3	1.6554817
86	0xbf36e2c3	-0.7143976
87	0x3faa27a4	1.3293347
88	0xbf015b74	-0.5053017
89	0x3f4e5c37	0.8060946
90	0x3fa9dd88	1.3270731
91	0x3fa73a51	1.3064672
92	0x3fbe56a5	1.4870192
93	0x3f825288	1.0181437
94	0xbf9939ad	-1.1970726
95	0x3f7efe96	0.9960722
96	0xbfa6a8a9	-1.3020221
97	0xbf824270	-1.0176525
98	0xbe88cd0a	-0.26718932
99	0xbf301dbf	-0.6879539
100	0xbf0a1463	-0.5393736
101	0x3fb50411	1.4141866
102	0x3fbb3c41	1.4627763
103	0xbf7c2107	-0.98487896
104	0x3fa67e06	1.3007209
105	0xbe5f7cbd	-0.21824928
106	0xbf879b8b	-1.0594343
107	0xbef9a8af	-0.48761508
108	0xbf7e239b	-0.9927308
109	0x3fc9b0ca	1.5757077
110	0xbe4bce82	-0.19902995
111	0xbf27e844	-0.65588784
112	0xbd63c96e	-0.05561202
113	0xbf944c8d	-1.1585861
114	0x3fccc3c2	1.599724
115	0x3fbb9a2a	1.4656422
116	0x3fccc04e	1.5996187
117	0xbeb0f75c	-0.3456372
118	0x3f97510e	1.1821611
119	0x3fa5ffca	1.2968686
120	0x3fab4539	1.33805
121	0xbf916af0	-1.136076
122	0x3f99d933	1.2019409
123	0xbf85eb3c	-1.0462413
124	0x3fa7b3af	1.310171
125	0xbf7f2580	-0.99666595
126	0xbe8ed0d5	-0.278937
127	0xbf944a9e	-1.1585271
128	0xbf694103	-0.91114825
129	0x3fb1e90c	1.3899245
130	0xbe8f9eaa	-0.2805074
131	0x3fd5db58	1.6707563
132	0x3fad31e4	1.353085
133	0xbea27d22	-0.31736094
134	0xbf67ee7e	-0.90598285
135	0x3f9509d4	1.1643624
136	0xbe12d3e9	-0.1433865
137	0xbe49d92b	-0.1971175
138	0x3f9e142c	1.2349906
139	0x3f9d4e39	1.2289497
140	0x3fa8cdb6	1.3187778
141	0x3fc24dfe	1.5180051
142	0x3fcb7cf5	1.5897509
143	0x3f91c2c8	1.1387568
144	0x3f3301f0	0.6992483
145	0x3fb94de7	1.4476899
146	0xbf850f50	-1.0395298
147	0xbf73fdb4	-0.95308995
148	0x3fc35b6b	1.5262274
149	0x3d17bf07	0.037047412
150	0x3fa5d10b	1.295442
151	0xbf705282	-0.93875897
152	0xbdfc510d	-0.12320147
153	0xbf871a66	-1.0554931
154	0x3fbd53d1	1.4791204
155	0xbf645f67	-0.8920807
156	0xbf1f2eb6	-0.6218065
157	0xbf61b832	-0.88171685
158	0xbf0f29f8	-0.55923414
159	0x3fbdf7ab	1.4841207
160	0xbe26c599	-0.16286315
161	0x3fb5c4d6	1.4200695
162	0x3fa5d50c	1.2955642
163	0xbf00d08f	-0.50318235
164	0xbf4f0498	-0.80866385
165	0x3f4f510f	0.8098306
166	0xbf32e88c	-0.6988609
167	0x3fbae134	1.4599977
168	0xbe95ac99	-0.29233244
169	0xbf984cec	-1.1898475
170	0xbde0ffab	-0.10986265
171	0x3fc7d3cc	1.561151
172	0xbeb3c216	-0.35109013
173	0xbf5bdb9a	-0.8588196
174	0xbf6d7813	-0.92761344
175	0xbcf699d6	-0.030102652
176	0x3fb8dc3c	1.444221
177	0x3e778a1c	0.24173778
178	0x3faf6536	1.3702762
179	0x3fa90499	1.3204528
180	0xbd453f59	-0.048156116
181	0xbf8abf48	-1.0839624
182	0x3fb4a3e8	1.411252
183	0xbf87e541	-1.0616838
184	0x3fa79c9b	1.3094667
185	0x3f8595b4	1.0436311
186	0xbf18b1cd	-0.596463
187	0x3fa08859	1.254161
188	0xbf9f5b4b	-1.2449735
189	0x3f9ec90e	1.2405107
190	0x3fb11eac	1.3837485
191	0xbfacee0b	-1.3510145
192	0x3fa1fdab	1.2655538
193	0x3faa3b1e	1.3299291
194	0xbf757d80	-0.9589462
195	0x3fb5f3f1	1.421507
196	0xbf4576ce	-0.77134407
197	0xbf1f9a37	-0.6234469
198	0x3fc5f290	1.5464649
199	0x3fb1da97	1.3894833
200	0x3fad6953	1.3547767
201	0x3fbe5d17	1.4872159
202	0xbf936ca7	-1.1517533
203	0xbf8a7f0b	-1.082002
204	0x3fa505d8	1.2892408
205	0x3fd0ab22	1.6302226
206	0x3f9d7e68	1.2304201
207	0x3fa01493	1.2506279
208	0xbf5cdf1c	-0.8627794
209	0xbf497594	-0.78695035
210	0xbef208b1	-0.47272256
211	0x3f99435e	1.1973684
212	0x3fd0e273	1.6319107
213	0xbf89f222	-1.0777018
214	0xbf6771be	-0.9040793
215	0xbf2349bb	-0.6378438
216	0x3fb7a2c3	1.4346546
217	0xbe87a550	-0.2649331
218	0x3f86ff17	1.0546597
219	0x3f8129d0	1.0090885
220	0x3fcbc142	1.5918353
221	0xbf896447	-1.0733727
222	0x3f964eab	1.1742758
223	0xbf94ef1c	-1.163547
224	0x3fc20d96	1.5160396
225	0x3fb4e0e3	1.413113
226	0x3fc7b0e6	1.560086
227	0x3fc52bb6	1.5403965
228	0xbf177d3b	-0.5917546
229	0xbe2d301b	-0.16912882
230	0xbf0973e1	-0.5369244
231	0xbf43af6b	-0.7643954
232	0xbf34f124	-0.7068045
233	0x3fb0ef12	1.3822958
234	0x3f99b8f0	1.2009563
235	0xbec6c42c	-0.38821542
236	0xbf7177b0	-0.94323254
237	0x3cc0848e	0.023500707
238	0x3fa4c38b	1.2872175
239	0x3f9a12b7	1.2036961
240	0x3fa7749e	1.3082464
241	0x3fcc838b	1.5977644
242	0x3fcc6b14	1.5970178
243	0xbf1fa848	-0.6236615
244	0x3fb72106	1.4306953
245	0x3faba724	1.3410382
246	0x3fa75774	1.3073564
247	0xbf62a593	-0.88533896
248	0x3fa2a46e	1.270643
249	0xbebb6085	-0.36597076
250	0x3fa8504a	1.3149502
251	0x3f50f156	0.8161825
252	0xbef28471	-0.4736667
253	0xbe3eed54	-0.18645221
254	0xbf840937	-1.0315312
255	0x3fa517c0	1.2897873

Q1.4.weight f4 [1, 256]
0	0x3ef8a811	0.48565724
1	0x3f1f63ec	0.62261844
2	0x3f63b578	0.88948774
3	0x3e60caa4	0.21952301
4	0xc080fa1e	-4.030532
5	0x3f94ec4a	1.163461
6	0x3f84b1e2	1.0366786
7	0xc050d951	-3.263264
8	0x3f4aad34	0.79170537
9	0xbfea45d8	-1.8302565
10	0xbf770aa6	-0.96500623
11	0x3f4d0f91	0.8010188
12	0x3f4a5d3b	0.7904851
13	0x3e79245d	0.24330278
14	0xbfac7b05	-1.3475043
15	0xc0974d38	-4.728176
16	0xc005fca7	-2.0935457
17	0x3d858133	0.065187834
18	0x3e1c3521	0.15254642
19	0x3e9537a4	0.29144013
20	0x3ec7bb69	0.3901017
21	0x3e9eae91	0.3099256
22	0x3e567aa3	0.2094522
23	0xc006361a	-2.097052
24	0xbf360ec4	-0.7111628
25	0xc0a4e3a9	-5.1527905
26	0x3f2be557	0.6714682
27	0xc04488b8	-3.0708447
28	0x3fa51dc4	1.2899709
29	0xc0beec75	-5.9663644
30	0xbffb6e9d	-1.9643131
31	0xbf94dee3	-1.163052
32	0x3d3ab3ad	0.04558151
33	0xc0be142e	-5.9399633
34	0x3dddffb7	0.10839789
35	0xbf6f30ba	-0.93433726
36	0xbf708a0c	-0.9396064
37	0x3ea234e5	0.3168098
38	0x3e5276b9	0.20553102
39	0x3eb90c91	0.361424
40	0xbffd7111	-1.980013
41	0x3f4a93b0	0.79131603
42	0xc08d7bae	-4.4213476
43	0xc0604db7	-3.5047433
44	0x3eb1a113	0.34693202
45	0x3fb9ca01	1.4514772
46	0xbf9c00c0	-1.2187729
47	0x3fa018ee	1.2507608
48	0xc05b4cd4	-3.4265642
49	0x40bf952e	5.9869604
50	0xc01b1dcc	-2.4236937
51	0x3e8830c8	0.26599717
52	0xc1056a13	-8.338397
53	0x3f6ac47e	0.91706073
54	0x3ecce520	0.40018559
55	0xc00622a1	-2.0958636
56	0x3ecd82d2	0.4013887
57	0x3eed66b8	0.4636743
58	0xbf9d5a0a	-1.2293103
59	0xbf67a98f	-0.904931
60	0xc03a43b0	-2.9103813
61	0xc007d537	-2.1223886
62	0xbfc96926	-1.5735214
63	0xc0bd79f6	-5.921138
64	0xbfea4b8f	-1.8304309
65	0x3f05e357	0.5230002
66	0x3ea8b97f	0.32954022
67	0xc0d7bedb	-6.742048
68	0xbffb0593	-1.9611076
69	0x3e8ce0fd	0.27515402
70	0xbf63cee9	-0.88987595
71	0xbf7473a8	-0.9548898
72	0xc0a2551b	-5.072889
73	0x3ea084eb	0.31351408
74	0xbf2c9faa	-0.6743113
75	0xbfa1b3e7	-1.2633027
76	0x3c027eb9	0.007964783
77	0xc12036db	-10.013392
78	0xc105f508	-8.372322
79	0xc0370e1d	-2.8602364
80	0x3f39de7f	0.7260513
81	0xc05f46c0	-3.4886932
82	0x3f5056dc	0.81382537
83	0x3ffba1dc	1.965877
84	0xbffeeff8	-1.9916983
85	0x3f55e1c5	0.8354762
86	0xc02f9af1	-2.7438319
87	0x3eb0400e	0.3442387
88	0xc029d6eb	-2.6537426
89	0x3fc15d62	1.5106623
90	0x3cfe4421	0.031038346
91	0x3f5fe7d7	0.87463135
92	0x3fb9fab5	1.4529635
93	0x3f3950a7	0.7238869
94	0xc09b82ab	-4.8597007
95	0x3f3b314d	0.731221
96	0xbf8e8820	-1.1135292
97	0xc04bdf11	-3.18549
98	0xc066f3e7	-3.6086366
99	0xc053a42b	-3.306895
100	0xc0072ee7	-2.1122377
101	0x3e0314c8	0.12800896
102	0x3e9e5822	0.30926615
103	0xbfab809b	-1.3398622
104	0x3ea397b0	0.31951666
105	0xbff90acb	-1.9456419
106	0xbf134ed5	-0.57542163
107	0xc064d476	-3.5754676
108	0xbf6b0391	-0.91802317
109	0x3f8e032a	1.1094716
110	0xc0a1b90f	-5.05384
111	0xbf8cb7b7	-1.0993565
112	0xbd369609	-0.04457668
113	0xbfd55ed0	-1.666956
114	0x3f246eac	0.6423137
115	0x3eb8f464	0.36123955
116	0x3ef8b35a	0.48574334
117	0xc00da735	-2.2133305
118	0x3da470b9	0.08029313
119	0x3d37368f	0.044729766
120	0x3f11b076	0.56909883
121	0xbfb7f6ba	-1.437217
122	0x3ee08ce1	0.43857482
123	0xbf983b6a	-1.1893132
124	0x3f1b370d	0.60630876
125	0xbf8fc82a	-1.123296
126	0xc006b78f	-2.1049535
127	0xbf69a38e	-0.9126519
128	0xc00824e3	-2.1272514
129	0x3e76a140	0.2408495
130	0xc088ede5	-4.27904
131	0x3f7e8efa	0.99436915
132	0x3e4a9fe8	0.19787562
133	0xc11ba651	-9.728105
134	0xc00ee420	-2.2326736
135	0x3f52a28f	0.82279295
136	0xc0e60cb3	-7.18905
137	0xc00866a7	-2.1312654
138	0x3e8c5a38	0.2741258
139	0x3db41ffd	0.08795164
140	0x3d57a951	0.052651707
141	0x3ed3b5b7	0.41349575
142	0x3eee7871	0.46576265
143	0x3bcfec36	0.006345297
144	0x3fd8e312	1.6944296
145	0x3e983303	0.2972642
146	0xc0613901	-3.5191042
147	0xbfe30c7d	-1.7738186
148	0x3e4fe2da	0.20301381
149	0xbc1cce6b	-0.009570698
150	0x3f57141d	0.84015065
151	0xbfd1e9a5	-1.6399428
152	0xc008db11	-2.1383708
153	0xbfa1403a	-1.2597725
154	0x3e79877b	0.24368088
155	0xbfcef46f	-1.6168345
156	0xbfffe5e4	-1.9992032
157	0xbfdb8af1	-1.7151777
158	0xc13632e8	-11.387428
159	0x3eae4240	0.3403492
160	0xc050125f	-3.2511213
161	0x3eafbcdd	0.3432378
162	0x3e68e4f5	0.2274359
163	0xbfc8e263	-1.5694088
164	0xc0c09f07	-6.0194125
165	0x3fe448c6	1.7834709
166	0xbfe23553	-1.7672523
167	0x3e96ac81	0.29428485
168	0xc0330fad	-2.7978318
169	0xbfa23e79	-1.2675315
170	0xc012f5e8	-2.296259
171	0x3ed38392	0.41311318
172	0xc0ce22d2	-6.4417505
173	0xc00d8c14	-2.2116747
174	0xbfeac220	-1.8340492
175	0x40df6f3e	6.9823294
176	0x3f934b05	1.1507269
177	0x400b2a63	2.174462
178	0x3ec87758	0.39153552
179	0x3efb613c	0.4909762
180	0x3c1efd40	0.009703934
181	0xbf8d8516	-1.105624
182	0x3ee0bb9f	0.43893144
183	0xbff3734b	-1.901956
184	0x3e169da9	0.1470858
185	0x3f5b358e	0.8562859
186	0xbf85fd51	-1.0467931
187	0x3d894c15	0.067039646
188	0xbf7af70a	-0.980332
189	0x3e6b75d4	0.22994167
190	0x3ee335b7	0.4437692
191	0xc050231d	-3.2521431
192	0x3ddeb384	0.10874084
193	0x3e30f41a	0.17280617
194	0xbf3e20c8	-0.7426877
195	0x3eb4c3de	0.35305685
196	0xbfa59bb1	-1.2938138
197	0xc024e42c	-2.5764265
198	0x3ebab4da	0.36466104
199	0x3df98edc	0.121854514
200	0x3e849287	0.25893041
201	0x3def95b2	0.11698474
202	0xbfa6648a	-1.2999432
203	0xc044c55a	-3.0745454
204	0x3d1d3d0f	0.03838831
205	0x3f8f5aae	1.1199548
206	0x3f637671	0.888526
207	0x3f60b525	0.87776405
208	0xbf95d606	-1.170594
209	0xc15d1282	-13.8170185
210	0xc02474bd	-2.5696251
211	0x3ef501c5	0.47852913
212	0x3ed23285	0.41054168
213	0xc0116b46	-2.2721725
214	0xc064f5ab	-3.5774944
215	0xc02d82c5	-2.7111065
216	0x3f53f2dd	0.82792455
217	0xc13259cc	-11.146923
218	0x3f358f70	0.70921993
219	0x3fa636ad	1.2985436
220	0x3f62ad08	0.88545275
221	0xbf97e5e5	-1.1867033
222	0x3f36a8f6	0.71351564
223	0xc0214bd2	-2.5202527
224	0x3f6ec717	0.93272537
225	0x3f48dd6d	0.7846287
226	0x3f078cfa	0.5294949
227	0x3f8bd00d	1.0922867
228	0xbf8ddadf	-1.1082419
229	0xc0e3e9d2	-7.1222925
230	0xc033d27e	-2.8097224
231	0xc013f7db	-2.312003
232	0xc015108b	-2.3291347
233	0x3ec52c14	0.3851019
234	0x3ec3ef8a	0.3826869
235	0xc0655205	-3.583131
236	0xc00446c6	-2.0668197
237	0xbc91cc00	-0.01779747
238	0x3ed71ebb	0.42015633
239	0x3f46d758	0.7767234
240	0x3e00e14c	0.12585944
241	0x3f8ff9b0	1.1248074
242	0x3ec7df92	0.39037758
243	0xc0172ab9	-2.3619826
244	0x3e38d686	0.18050584
245	0x3ed792fb	0.42104325
246	0x3f16b8be	0.58875644
247	0xc002743b	-2.0383441
248	0x3e8ec4a9	0.27884415
249	0xc0e2a268	-7.082325
250	0x3ec31609	0.3810275
251	0x40086d96	2.1316886
252	0xc01397bd	-2.3061364
253	0xc0a601b8	-5.18771
254	0xc0fd092a	-7.9073687
255	0x3efba2b0	0.49147558

Q2.0.weight f4 [256, 23]
0	0xbdc54334	-0.096319586
1	0xc0397090	-2.8974953
2	0xbf6ca3fd	-0.92437726
3	0x3fbe8074	1.4882951
4	0xbf90fe88	-1.1327677
5	0xbf2e7e47	-0.68161434
6	0x3eb3075e	0.34966558
7	0xbf9688dc	-1.1760516
8	0xc02d0ec6	-2.7040267
9	0xbf1d67a7	-0.61486286
10	0x3dbc2ae8	0.09187871
11	0xbdd1d068	-0.102448285
12	0x3c88fc1d	0.01672178
13	0x3c8d16ba	0.017222751
14	0x3e40043d	0.18751617
15	0x3e54e644	0.20790964
16	0xbc3485d5	-0.011018236
17	0xbee64552	-0.44974762
18	0xbe05d348	-0.13068879
19	0xbd66ae71	-0.056318704
20	0xbe9c6116	-0.3054282
21	0x3e02c1af	0.12769197
22	0x3c97bc98	0.018522546
23	0x3ed7774e	0.4208321
24	0xc02ffc9f	-2.7497938
25	0xbe38beaa	-0.18041483
26	0xbff2e702	-1.8976748
27	0x3f33fcc2	0.7030755
28	0xbcc575bd	-0.024103994
29	0x3eab3b1a	0.33443528
30	0xbe9596e4	-0.29216683
31	0x3dbcfb25	0.092275895
32	0x3ba02f41	0.0048884456
33	0xbdfc604f	-0.12323057
34	0x3cc568c0	0.0240978
35	0xbd335ebd	-0.04379152
36	0xbcb8713c	-0.022514932
37	0x3e26aa43	0.16275887
38	0x3dd75dc5	0.10515932
39	0xbd8bd85a	-0.06828375
40	0xbdae5053	-0.085114144
41	0xbe9c114e	-0.30481952
42	0xbd53421c	-0.05157672
43	0xbe16517d	-0.14679523
44	0x3d904c42	0.07045795
45	0xbeb2354a	-0.3480628
46	0x3df172aa	0.117894486
47	0xbfd1edac	-1.6400657
48	0x3e9356a9	0.28777054
49	0x3f832075	1.024428
50	0xbe8c5ebf	-0.27416036
51	0xbf890797	-1.0705441
52	0xbe364a1d	-0.1780171
53	0xbd80bd00	-0.06286049
54	0x3f17169d	0.5901888
55	0xbdf5953b	-0.11991354
56	0x3de828d6	0.11335914
57	0x3d3230f0	0.0435037
58	0xba070d59	-0.000515183
59	0xbcef22d5	-0.029191414
60	0xbe47ef60	-0.19524908
61	0xbd939e9b	-0.07207986
62	0xbc436582	-0.011926057
63	0x3db89eb8	0.09014648
64	0xbdd3a880	-0.10334873
65	0x3ccfe4e3	0.025377696
66	0xbe135218	-0.14386785
67	0xbca08eea	-0.019599397
68	0xbd305138	-0.043046206
69	0xbe41cc13	-0.18925504
70	0xbfb66be0	-1.4251671
71	0x3d447b9a	0.047969438
72	0x3f8155f3	1.0104355
73	0xbf3bb535	-0.73323375
74	0x3fa13472	1.259413
75	0xbcef3ecb	-0.029204747
76	0xbcc00c6b	-0.023443421
77	0xbe69a916	-0.22818407
78	0x3e9fd3d6	0.31216305
79	0x3e0e7874	0.13913137
80	0xbc71c4ca	-0.014756391
81	0xbda08759	-0.078383155
82	0xbe470c42	-0.1943827
83	0xbdc8fe81	-0.09814168
84	0x3d9bd310	0.07608616
85	0x3e98b6ca	0.29826957
86	0x3da45c08	0.08025366
87	0xbe36b109	-0.17840971
88	0xbd1ac776	-0.037787877
89	0xbeedb1bc	-0.46424663
90	0xbd18acb9	-0.037274096
91	0xbeb8d408	-0.36099267
92	0x3f12ca17	0.57339615
93	0x3fe7a3e8	1.8096895
94	0x3e26a778	0.16274822
95	0x3f7287a7	0.9473824
96	0xbe5d7f8d	-0.21630688
97	0x3d4e6667	0.050390627
98	0xbe15520d	-0.14582081
99	0x3e1fe4f3	0.15614681
100	0xbeefa1a4	-0.4680301
101	0x3e3e88f1	0.18606927
102	0x3dbe5197	0.09292906
103	0xbe1be993	-0.1522582
104	0xbe3b8535	-0.18312533
105	0xbda154b8	-0.07877487
106	0x3d9a18dc	0.07524273
107	0x3da653f2	0.0812148
108	0x3a87bba0	0.0010355599
109	0x3e73ec9f	0.23820733
110	0xbef427d7	-0.47686645
111	0x3ec99ffe	0.39379877
112	0x3e248ab7	0.1606854
113	0x3e4998d0	0.196872
114	0x3ef483c8	0.4775679
115	0xbecef41c	-0.40420616
116	0x3ebd3dcc	0.3696121
117	0x3e0fca7b	0.14042084
118	0x3f276ac0	0.6539726
119	0xbe59fbb9	-0.21287431
120	0x3f9b7588	1.2145243
121	0x3f71d5fb	0.94467133
122	0xbcdc29dc	-0.026875429
123	0x3caf7e00	0.021422386
124	0x3e09803b	0.13427822
125	0xbd3ec4ef	-0.04657453
126	0x3dd0dfca	0.101989344
127	0xbd85feca	-0.06542738
128	0xbdb4c4ca	-0.08826597
129	0xbe07ef69	-0.13274921
130	0xbe02d3df	-0.12776135
131	0xbd860225	-0.06543378
132	0xbed82166	-0.4221298
133	0xbe51436f	-0.2043588
134	0x3e6f293f	0.23355578
135	0x3d19b874	0.037529424
136	0xbf312af2	-0.69206154
137	0xbf1c8aa8	-0.6114907
138	0x3efcf784	0.4940759
139	0x3f997119	1.198764
140	0xbe66b788	-0.22530949
141	0xbe8f973f	-0.2804508
142	0x3e2d6561	0.16933204
143	0x40425427	3.0363863
144	0xbe14a60c	-0.14516467
145	0x3f3c16eb	0.7347247
146	0x3f06d76e	0.5267247
147	0xbe313e06	-0.17308816
148	0x3ddcf8ff	0.1078968
149	0x3dfa0aa7	0.12209063
150	0xbc0f92b9	-0.008763009
151	0xbd599eaa	-0.05312983
152	0xbd897d24	-0.06713322
153	0xbcee19db	-0.029065063
154	0xbd2d8af4	-0.042368844
155	0x3e35a834	0.17739946
156	0xbe8987d2	-0.26861435
157	0xbe82c48a	-0.25540572
158	0xbe016105	-0.12634666
159	0x3d8bfa9c	0.06834909
160	0x3d906baf	0.07051789
161	0xbedc04f8	-0.4297254
162	0xbc52a704	-0.012857202
163	0x3f111cdb	0.56684655
164	0x3ef3d7c5	0.47625557
165	0x3e6aeae7	0.2294117
166	0xbfa0ab43	-1.2552265
167	0xbe9a4f43	-0.30138597
168	0x3b1ac727	0.002361724
169	0x3e3f915b	0.18707792
170	0xbece466d	-0.40288106
171	0xbddb83f7	-0.1071853
172	0x3d778ccd	0.060437012
173	0x3d21933e	0.03944706
174	0x3cb02eee	0.021506753
175	0x3e27a3d8	0.16371095
176	0x3d02316c	0.031785414
177	0x3d171c29	0.03689209
178	0x3b4dbc60	0.0031392798
179	0x3b953ccd	0.004554367
180	0x3e59cfff	0.2127075
181	0x3caddf4c	0.02122464
182	0x3dc89c9f	0.09795498
183	0x3cd99dfe	0.026564594
184	0xbeded4c0	-0.4352169
185	0xbeb333fd	-0.350006
186	0xc00ad8c4	-2.1694803
187	0xc03818e0	-2.8765182
188	0xbf743ef5	-0.95408565
189	0x4025e729	2.592234
190	0xbbd0ccd0	-0.006372072
191	0x3f018579	0.5059429
192	0xbf68d4af	-0.9094953
193	0x3f080860	0.5313778
194	0x3e769341	0.2407961
195	0xbd7cc6f5	-0.061713178
196	0xbc8286d8	-0.01593344
197	0x3ccbef21	0.024894299
198	0xbd902014	-0.070373684
199	0x3b9983de	0.0046849092
200	0x3c084ca5	0.008319055
201	0x3d41e172	0.047334142
202	0xbd99bdbd	-0.07506893
203	0x3d8b9389	0.068152495
204	0xbcfa941d	-0.030588204
205	0xbbdeb3ab	-0.0067963204
206	0x3d2baf55	0.041915257
207	0x3e104831	0.14090039
208	0x40227967	2.5386598
209	0x3ea4ca3f	0.32185552
210	0xbe4d7356	-0.20063528
211	0x3d9826e9	0.074292965
212	0x3f4cb9b4	0.7997086
213	0x3e397904	0.1811257
214	0xbe17b9a9	-0.14816917
215	0x3e1a8d9c	0.15093082
216	0x3e994067	0.29931948
217	0xbe2ddf53	-0.16979723
218	0xbca60608	-0.020266548
219	0xbd8b10a9	-0.06790287
220	0x3c3fb227	0.01170019
221	0x3ded0d1d	0.11574767
222	0x3ddcb6d0	0.10777056
223	0x3cb9d178	0.02268289
224	0x3e3db013	0.18524198
225	0xbd4c9075	-0.049942452
226	0xbe073087	-0.13202105
227	0xbe4892cd	-0.1958725
228	0x3e80254d	0.25028458
229	0x3e042d7d	0.12907977
230	0x3f86056d	1.0470406
231	0xc044c457	-3.0744836
232	0x3f555900	0.8333893
233	0x3eba29e0	0.36360073
234	0xbc3f68ba	-0.011682684
235	0x3fa3169d	1.2741276
236	0xbef4e097	-0.47827598
237	0xbdf6afe8	-0.1204527
238	0x3f064855	0.5245412
239	0x3e464571	0.19362427
240	0x3abc6d1c	0.0014375779
241	0xbdce6078	-0.10076994
242	0xbd6451d8	-0.055742115
243	0xbd04a264	-0.03238143
244	0x3ddad093	0.106843136
245	0x3d508bc5	0.050914545
246	0xbbf2f331	-0.0074142446
247	0xbc181f8b	-0.009284864
248	0xbcc1bd60	-0.023649871
249	0xbc44037c	-0.011963721
250	0x3db14dd8	0.08657426
251	0x3ddafb14	0.106924206
252	0x3e0269ac	0.12735623
253	0x3e7c7e06	0.24657449
254	0x402bf8be	2.687057
255	0xbdb0f1ff	-0.08639907

Q2.0.bias f4 [256]
0	0xbb250781	-0.0025181475
1	0xbf898274	-1.0742936
2	0x3f899df5	1.075133
3	0xbeb0502b	-0.34436163
4	0x3f97bef0	1.1855145
5	0x3fa41101	1.2817689
6	0xbfcce0e4	-1.6006131
7	0x3f954452	1.1661475
8	0x3f1e1030	0.6174345
9	0x3fa1696b	1.2610296
10	0xbf6ec0f6	-0.93263185
11	0xbe814759	-0.25249746
12	0xbeb42931	-0.35187677
13	0x3dcb85d0	0.09937632
14	0x3b719fd1	0.003686894
15	0xbf2ea656	-0.6822256
16	0xbed7621d	-0.42067042
17	0x3dd21028	0.10256988
18	0xbf65e0e7	-0.897963
19	0xbe29b05b	-0.1657118
20	0xbf8e2521	-1.1105081
21	0x3f59ac9f	0.85029024
22	0xbeaf8592	-0.34281594
23	0x3e2867f1	0.164459
24	0x3f85340f	1.0406512
25	0xbf330a3b	-0.69937485
26	0xbfb8eac1	-1.4446641
27	0xbfdc1c6a	-1.7196171
28	0xbf9c2820	-1.2199745
29	0x3f824dad	1.0179955
30	0xbd94bd75	-0.072626986
31	0xbe3c24bd	-0.1837339
32	0xbfa4268f	-1.2824267
33	0x3fa7a024	1.3095746
34	0xbf93b267	-1.1538819
35	0x3f5c2a16	0.8600172
36	0x3f70836b	0.9395053
37	0x3fa9036d	1.320417
38	0x3ec464ce	0.38358158
39	0xbd381022	-0.04493726
40	0x3c9cd51f	0.019144593
41	0xbe54c821	-0.20779468
42	0xbf856c49	-1.0423671
43	0xbfd3d0cb	-1.6548094
44	0xbf1fdd59	-0.62447125
45	0xbd3f4082	-0.04669238
46	0x3f9d5f0c	1.2294631
47	0xbfc86e40	-1.5658646
48	0xbfba26e5	-1.454312
49	0xbefc1ac7	-0.4923918
50	0xbeb54636	-0.3540513
51	0xbeae001a	-0.33984452
52	0x3f5ea802	0.8697511
53	0x3f2b4e1a	0.6691605
54	0xbe4859c7	-0.19565497
55	0x3fb70f3a	1.4301522
56	0xbf8b78e2	-1.0896266
57	0x3f9df485	1.2340246
58	0x3fa18565	1.2618834
59	0xbfa2bb1a	-1.2713349
60	0xbe85fd32	-0.26169735
61	0x3ea8925f	0.32924172
62	0x3efba693	0.49150524
63	0x3f094a79	0.5362926
64	0xbf4551ae	-0.7707776
65	0xbee3649d	-0.444127
66	0xbe16a9f8	-0.14713275
67	0xbf1950a2	-0.5988866
68	0xbe94b431	-0.29043725
69	0x3fae2e37	1.3607854
70	0xbf7ee39d	-0.9956606
71	0x3f8a0f59	1.0785934
72	0x3e341025	0.17584284
73	0x3e7579f7	0.23972307
74	0x3f668cdb	0.9005868
75	0x3df99b4b	0.12187823
76	0x3f04e0f1	0.51905733
77	0xbe7915ef	-0.24324773
78	0x3f04842d	0.51764184
79	0xbe251a0e	-0.1612322
80	0x3fa665de	1.2999837
81	0x3f0f7e44	0.5605204
82	0x3d84d99b	0.064868174
83	0xbf248433	-0.6426422
84	0xbf69eafc	-0.9137418
85	0x3ebf0279	0.37306574
86	0xbff19a0a	-1.8875134
87	0xbe00253c	-0.12514204
88	0x3e9b80d9	0.3037174
89	0x3f2eee42	0.683323
90	0xbedf0f54	-0.43566382
91	0x3f4ed9cc	0.8080108
92	0x3fcafbf3	1.5858139
93	0x3e30e8b0	0.17276263
94	0x3fa2b8a3	1.2712597
95	0xbf0881e2	-0.53323185
96	0x3fb0174e	1.3757112
97	0x3ef5c2bb	0.4800013
98	0x3f18d999	0.5970703
99	0x3fb248f7	1.3928517
100	0xbf4c424b	-0.79788655
101	0xbfa8f908	-1.3200998
102	0xbf4db017	-0.80346817
103	0xbd7e9fd2	-0.062164135
104	0x3ee405a8	0.44535565
105	0xbc62c270	-0.013840303
106	0x3f84f3b3	1.0386871
107	0xbf2c2583	-0.6724474
108	0x3f0661ca	0.52492964
109	0x3f37271e	0.71544063
110	0xbfb0fe1e	-1.382755
111	0xbf6d9bd4	-0.928159
112	0xbd15220c	-0.036409423
113	0xbee29e2c	-0.442613
114	0xbf4c73ff	-0.79864496
115	0x3f65da53	0.8978626
116	0x3f724e8d	0.9465111
117	0xbfe04c5e	-1.7523305
118	0x3f9d852a	1.2306263
119	0x3d06ba27	0.032892372
120	0xbe6e6e6d	-0.23284312
121	0xbed4fa45	-0.4159719
122	0xbe138dc6	-0.14409551
123	0xbf03737c	-0.5134809
124	0xbf2b1d0c	-0.66841197
125	0x3f29277b	0.6607587
126	0xbe1d7117	-0.15375172
127	0x3fbc25e8	1.4699068
128	0xbf471ef6	-0.7778162
129	0xbfa63311	-1.2984334
130	0xbf165e36	-0.58737504
131	0x3e2c5e1c	0.16832775
132	0xbddae746	-0.10688643
133	0x3f30a440	0.69000626
134	0x3df42a6c	0.11922154
135	0xbf765d34	-0.96235967
136	0xbfcb102a	-1.5864308
137	0xbf08060e	-0.5313424
138	0xbe4a43e0	-0.19752455
139	0xbdd7889a	-0.105241016
140	0xbecc7478	-0.3993261
141	0xbdb1e987	-0.0868712
142	0x3eb278a6	0.34857672
143	0xbf319543	-0.6936838
144	0x3f0e7b2a	0.55656683
145	0xbbc21e80	-0.005924046
146	0x3f8836ce	1.0641725
147	0x3edbce12	0.42930657
148	0x3f4ad181	0.7922593
149	0x3fd1357f	1.6344451
150	0x3f2393b3	0.63897246
151	0xbfc21de5	-1.5165373
152	0x3fbcc0ca	1.4746335
153	0x3f200087	0.62500805
154	0xbf5b3df9	-0.8564144
155	0xbe1cf221	-0.1532674
156	0xbf3bc56b	-0.7334811
157	0xbf145c5c	-0.5795343
158	0xbe34533c	-0.17609876
159	0xbf01436c	-0.504935
160	0xbf8cd789	-1.1003276
161	0xbebde276	-0.37086838
162	0xbf6875f7	-0.90805
163	0xbf8bcc69	-1.0921756
164	0xbe338bd5	-0.1753381
165	0x3f2a38c5	0.66492873
166	0xbf02a085	-0.51026183
167	0xbf4de2ee	-0.8042439
168	0xbe3f11d4	-0.18659145
169	0xbd6ae00e	-0.05734258
170	0x3f85c467	1.0450562
171	0xbfd1d11a	-1.6391938
172	0xbf98e05a	-1.1943467
173	0x3ee7dc35	0.45285192
174	0x3e7ce527	0.2469679
175	0x40007fc7	2.007799
176	0x3ea26a04	0.31721509
177	0xbec4ebda	-0.3846119
178	0x3d7d938f	0.0619083
179	0xbf35419e	-0.7080325
180	0xbf818bf2	-1.0120833
181	0x3eb80a84	0.35945523
182	0x3fa07b13	1.2537559
183	0xbeb73689	-0.35783795
184	0x3e0de93c	0.13858503
185	0xbefa3283	-0.48866662
186	0x3d818721	0.06324602
187	0x3eb7797c	0.35834873
188	0xbf0fedfd	-0.56222516
189	0x3ed7d808	0.42157006
190	0xbf5e95f7	-0.8694758
191	0xbe2194df	-0.15779446
192	0xbe86dceb	-0.26340422
193	0x3f9130ba	1.1342995
194	0x3ecc54ca	0.3990844
195	0xbe97ea3c	-0.29670894
196	0x3c9be5ac	0.019030415
197	0xbf79e84c	-0.9762008
198	0x3f2f143c	0.6839025
199	0xbe393ad1	-0.18088843
200	0x3fafd6c9	1.3737422
201	0x3ece0367	0.4023697
202	0x3fcc9b33	1.5984863
203	0x3f94a91f	1.1614112
204	0xbf9081af	-1.1289576
205	0xbf9bb4d6	-1.2164562
206	0x3f449120	0.76783943
207	0xbeef5557	-0.46744797
208	0xbf3959f3	-0.72402877
209	0xbf97abd3	-1.1849312
210	0xbf8e5052	-1.1118262
211	0x3f93c9ba	1.1545937
212	0xbee8f508	-0.45499444
213	0xbed2c0b6	-0.41162652
214	0xbf7ab51a	-0.9793259
215	0xbd791803	-0.060813915
216	0x3ef5f03f	0.48034856
217	0xbe366296	-0.17811045
218	0x3ef03dd7	0.4692218
219	0xbf199eeb	-0.60008115
220	0x3f837e1e	1.0272863
221	0xbfe555aa	-1.7916768
222	0xbf06e800	-0.52697754
223	0x3e017d5c	0.12645477
224	0xbfd1e725	-1.6398665
225	0x3e2d8c08	0.16947949
226	0x3ebab2cc	0.36464536
227	0x3fceabfe	1.6146238
228	0x3fa971a4	1.3237805
229	0x3d9e4e5c	0.077297896
230	0x3d873396	0.06601636
231	0xbed5d7fd	-0.41766348
232	0xbf5de7ab	-0.8668162
233	0xbd826dbe	-0.06368588
234	0x3d3577c6	0.044303678
235	0xbeec38e6	-0.4613716
236	0xbfafef5d	-1.3744923
237	0xbe35a9bb	-0.17740528
238	0xbfda3bce	-1.7049501
239	0xbf90c9c7	-1.1311578
240	0x3fa6d5ae	1.303396
241	0xbf788d80	-0.9709091
242	0x3d12d35b	0.035846096
243	0x3e2b9dc1	0.16759397
244	0xbe92a6cf	-0.2864289
245	0x3ed01c14	0.40646422
246	0x3fb3e29e	1.4053533
247	0xbf6e0620	-0.92978096
248	0x3f9513f3	1.1646713
249	0x3f955ace	1.1668336
250	0x3f4cd0fd	0.8000639
251	0xbf281fb5	-0.6567338
252	0x3e46a5bb	0.19399159
253	0x3e939850	0.28827143
254	0x3f9d89b7	1.2307652
255	0x3eb35341	0.35024455
