trained_models/HalfCheetahNormal-v3/lamour/actor_4.pt (torch, 296896 bytes, 8 tensors)

shared.0.weight f4 [256, 17]
00000000: 2d76 d63f 61b9 01c0 9874 1e3d a6ee 27bf
00000010: 1c64 27be 30b9 8d3f 2d0c 233e 7d98 27be
00000020: 3ede 88be 8cb2 b33e 52ad efbd 4a62 c3bb
00000030: 88ae 2cbb 55d8 5ebc b0f2 30bd 77e1 1ebd
00000040: 435d 50bc d3ea b740 d99f be3f 8fdb 70be
00000050: 2fb2 483e f309 6f3e dcf4 9c3d 1af0 013f
00000060: 119c f03c 9e1d 90bd f548 0dbf b0fa 63be
00000070: ed54 483d b2be bd3c 4dd7 6b3c 46ea 1ebd
00000080: d18e 22bc 8f5c 64bb eacf 59bf 2507 2bbf
00000090: 6c1f 49be 8b62 a2bd c556 273f 3b52 3dbe
000000a0: d6df 583e 13a6 1b3e 5bc3 a03c fd4e adbe
000000b0: 1c1d 0b3f 5c05 ac3d d6f9 ed3c d4cf f73a
000000c0: 6a8e 5b3d ce50 d83c 8c3c 163c ba65 d6bf
000000d0: d40b 64bc 71b2 e8bf a76c 83be 6abb 823f
000000e0: b647 a73b 4549 fd3e bc8b b0be 0e04 1fbf
000000f0: b5de db3e e2ce db3e 66ca 24ba 1254 ebbc
00000100: 1433 563d 2916 783d abbc b13d a6aa 2bbd
00000110: 1489 43c0 42f3 873e 04df d93f 3e61 993f
00000120: fa4a 483f 3639 70bd 45ef d3be 12ba 8fbe
00000130: b677 a2bd 70ef 82bc 39b1 f13d 51d4 133c
00000140: 9da5 c4bb 4b2d 6b3d b56b 45bd b058 8cbc
00000150: a509 d0ba b134 213f fa5f c6be 4cf5 80bd
00000160: 9c51 14c0 e445 acbe 4d45 673d 7dd7 db3e
00000170: c165 aabe a31b 80bd 5ac7 00be 1e7e e7bd
00000180: 6438 803c 613d b53b 6c00 15bc 6590 7ebd
00000190: 6bdf 30bc 6c31 84bc 77df 92bf 1dbf 3abf
000001a0: edc7 d6bd e49a 1cbf 808f 133f 37e2 1d3f
000001b0: b44a 073f 6f55 f33e 9eff afbe c736 f8be
000001c0: 94e2 d53d f037 ef3d d962 023e 5970 bc3c
000001d0: ff61 e6bd b2d5 3cbd fbf3 cabc d7a8 97bf
000001e0: 6939 cc3e b7ef 97bc 1276 4ebf 9284 5cbe
000001f0: d3eb ac3e 5017 01bf cca1 6a3e c6af 87be
00000200: e636 8ebe 2d8e d9be 0b19 a3bd bcd2 90bd
00000210: 9cbf 9bbd c4be 63bd 9505 2dbe 0679 223b
00000220: 08a5 13c0 22e0 2940 e726 ef3e 8c68 e83b
00000230: f887 a93c cda0 1c3f fc4b 3e3f cf4d 12ba
00000240: 9c74 d93b d713 d8be 11d4 813e 49af 023c
00000250: 2c25 8bbb 9a00 2cbc 3c00 803c 6ba2 d93c
00000260: 6238 7b3c 77ec 9f3f 4bc4 cdbf f84d 27bf
00000270: f73b e33e 7722 19be bd4d 69bf 536b b1be
00000280: edac 12be fa10 7abe 6917 743e 71d8 f1bd
00000290: 2b91 8d3d 18b2 ccbc 36d8 aa3c 1f5a fc3b
000002a0: e8b4 a4bc 6aa1 a2bc 6ee7 df3f 4915 a43e
000002b0: 9c68 f5bf 3cee d0bf 72e8 efbe 98ab 283f
000002c0: 788e d03e 0330 91bd da66 76bc 1546 7c3e
000002d0: 7737 7e3e 4b15 9bbd 5f1b 403c abb7 babc
000002e0: a5b4 963c 6590 9a3b 0e9a e63a 3a0c 11c1
000002f0: 922e 8cc0 8d83 90be 3b44 cbbf 2a3f fb3e
00000300: 77ad b4bd 3feb 11bd d2ba 743d 5d8b 953b
00000310: 2b96 8b3c 6843 a03b 83e9 173d e37f b53b
00000320: f43d 943c 451a 2f3c 7528 af39 38c5 d83a
00000330: 70ab 3d3e 8175 0ac0 106c 883f 3a10 e3be
00000340: 2275 763d f2a0 1dbe 3267 3abf a20b 0abf
00000350: 1f61 4ebc b32c 1c3f df60 6dbe 0d41 cdbd
00000360: 4228 5dbc 639b 21bd afea c33d bd98 273d
00000370: 35ce a13c d937 4b40 d3ed ac3d 4de9 bfbf
00000380: fe9d 36bf 8f9b 89bc c75f 9a3e 3735 993e
00000390: 2a7c 99be 2016 21bf c497 af3f 99d2 703e
000003a0: 7582 073e f7c2 f13d 0828 a4bc a871 433e
000003b0: e8ca 773d 6f53 3b3c cf16 1840 0f3c 2f3f
000003c0: 02ad ebbd 5799 8a3e e766 bd3d 18eb 183f
000003d0: 3479 ddbe b9a3 2b3d 6212 46be e99d 8ebe
000003e0: 049e c8bd d93c fbbd 309e f7bc c74f 9fbd
000003f0: 20b3 db3d ff6f 4c3d 9698 de3c 9726 5640
1.6754814 -2.0269396 0.03868541 -0.65598524 -0.16346782 1.107214 0.15922613 -0.16366763
-0.26732057 0.35097158 -0.1170298 -0.0059626447 -0.0026349146 -0.013601382 -0.043200195 -0.03878924
-0.012717548 5.747415 1.4892532 -0.23521255 0.19599222 0.23343639 0.07663891 0.5075699
0.029371293 -0.07036899 -0.5518945 -0.22263598 0.048909117 0.02316222 0.014394593 -0.03879764
-0.009921745 -0.0034845208 -0.85082877 -0.66807777 -0.19640893 -0.07928952 0.65366775 -0.184884
0.21179137 0.15200071 0.019624403 -0.33849326 0.5434129 0.0839946 0.029049795 0.0018906542
0.053602614 0.026405718 0.009169709 -1.6749794 -0.013918836 -1.8179456 -0.25668833 1.0213444
0.005104984 0.49469963 -0.3448161 -0.6211556 0.4294335 0.42931277 -0.0006286263 -0.028726611
0.052294806 0.06056801 0.08678564 -0.04191079 -3.0552416 0.26552778 1.7021184 1.1982801
0.78239405 -0.05864831 -0.41393486 -0.28071648 -0.07932989 -0.015983313 0.11801381 0.009022788
-0.006001188 0.05741624 -0.04819842 -0.017132133 -0.0015872015 0.62971026 -0.387451 -0.06296787
-2.317481 -0.33647072 0.056462575 0.42937842 -0.33280757 -0.06255271 -0.12576047 -0.11303352
0.01565189 0.0055309986 -0.009094339 -0.062149424 -0.0107954545 -0.016136847 -1.1474446 -0.72947866
-0.104873516 -0.61173844 0.5764084 0.616733 0.5284836 0.47526118 -0.34374708 -0.48479292
0.10443607 0.11680591 0.1273302 0.02300279 -0.1124916 -0.046102233 -0.024774542 -1.1848401
0.3988755 -0.018546922 -0.8064891 -0.21534947 0.3377367 -0.504262 0.22913283 -0.26501292
-0.2777626 -0.42491284 -0.07963761 -0.070714444 -0.07604906 -0.05560185 -0.1689666 0.0024791374
-2.3069477 2.654305 0.46709368 0.007092541 0.020694718 0.6118286 0.7433469 -0.00055810524
0.0066362154 -0.42202637 0.25357106 0.007976362 -0.0042463746 -0.01049819 0.015625112 0.026566705
0.015333267 1.2494038 -1.6075529 -0.65353346 0.44381687 -0.14954554 -0.91134244 -0.34652194
-0.14323778 -0.24420539 0.23837055 -0.11808861 0.06912454 -0.024987265 0.02085505 0.007701173
-0.020105794 -0.019852359 1.7492502 0.3204749 -1.9172549 -1.6322703 -0.4685703 0.6588683
0.40733695 -0.07089236 -0.01503917 0.24636109 0.24825846 -0.07572421 0.011725276 -0.022792658
0.018396685 0.00471692 0.0017593519 -9.065485 -4.380685 -0.28225365 -1.5880197 0.49071628
-0.08822148 -0.03562474 0.05974848 0.0045637325 0.01703938 0.004890848 0.03708793 0.005538927
0.018095948 0.0106874155 0.00033408744 0.0016538268 0.1852243 -2.1634219 1.0657978 -0.44348317
0.0601703 -0.15393427 -0.72813714 -0.53924 -0.012596398 0.61005706 -0.23181485 -0.10022173
-0.013498368 -0.03945483 0.09566247 0.040917147 0.019751647 3.1752837 0.08443799 -1.4993073
-0.71334827 -0.016797809 0.30151197 0.29923412 -0.29977542 -0.62924385 1.371819 0.23517837
0.13233359 0.11804765 -0.02003862 0.19086325 0.06049624 0.011433466 2.3763921 0.6845102
-0.11507608 0.27070114 0.09248143 0.59733725 -0.43256533 0.041904185 -0.1934295 -0.2785485
-0.09795764 -0.12267465 -0.030226797 -0.07778888 0.10727525 0.049911495 0.027172368 3.3461053

shared.0.bias f4 [256]
00000000: e450 683f edcd a6be e936 36bf c7de 06bf
00000010: 260a 03bf 4128 8ebf c07d 55be 0505 69bf
00000020: 1e25 87bf 52bf b93f 953c 04c0 09d4 c6bf
00000030: bd72 a0bf 12c5 f1be a1a3 b7bf 55bc bebe
00000040: 82bc 4cbf a7c4 c9bf 5fb9 50bf f5e9 b4bf
00000050: ecad 98bf 10af 0fbf d559 96be 423a 1fbe
00000060: 3523 d1bf c9a1 66be 0904 92bf ac3f f83d
00000070: 6b89 c1bd b328 5fbe fe59 65bf b2e1 85bf
00000080: 2336 533e bcd6 85bf da61 bcbf b07b e2bf
00000090: 114b f7bf b54d 0bbf 935f 9cbf d608 373f
000000a0: c5e8 5a3e 13bd 9cbf 62b1 653f 2a89 8d3e
000000b0: 670b 9bbe b7b0 85bf 95ca debe 11c9 f8be
000000c0: 1031 b4bf e250 fabf 311c 9fbf 5031 58bf
000000d0: addc d53e 129a 63bf b772 cebf a7e4 9abf
000000e0: 4967 77bf 2f34 bfbf 1173 8bbe 3308 bb3f
000000f0: 72f9 9dbf c756 293f b977 9fbf 202f 79bf
00000100: f533 58bf 558d 333f 9b9d 94be ad2f ffbe
00000110: 65e0 0cbf 9d7d c0be 6223 49bf 5d27 f8be
00000120: dc6d a4bf dae6 0e3f 3664 c53e ed7c 633e
00000130: 99b6 83bf a240 e4be d6ff 6a3d b6fe d4be
00000140: 977c b1bf 78f8 e5bf 9fdd 7bbf 7df8 9abe
00000150: fb2a 29bf bd24 56bf e5d6 a8be a10f 4b3e
00000160: db6a b5bd 0b33 ae3f 4903 c1bf 936c 833e
00000170: 3e09 50bf d602 5e3e 571f e23e 8e49 82bf
00000180: ac1e 10bf 6093 b3bf 1223 68bf 036d 9abf
00000190: b6d6 13bf 182b debf abde 65bf 4df6 f1bf
000001a0: 62a2 9f3e c677 2bbe 4d77 c4bf 3369 933d
000001b0: ed70 723f eb01 57bf f641 18bf afa2 2bbf
000001c0: d401 abbf 128f f7be 4b86 edbe c6f7 bbbf
000001d0: 4b75 89bd f0e5 55bf c8e8 80bf 5c28 a8bf
000001e0: 23fb 73bf 053e e5bf 223e babf 1cfa 80bf
000001f0: 8a5a 38bf 131b 04c0 9ea6 9fbf 008b a2bf
00000200: 2e24 46bf 7e7d 0abf fa2c ddbf 0db4 7ebf
00000210: c67b acbf d068 88be 90c9 26c0 a3bf b1bf
00000220: 5ab7 30be 6c9e debe 6785 a93f a485 edbf
00000230: 2d22 d0bc e14f c9bf faed cabf faf6 41be
00000240: 4643 9cbf 73ef e8bf 6405 29bf 2ff9 14c0
00000250: 6073 99bf 0e30 20bf 2d37 5ebf 42b5 aebf
00000260: 4dba 04bf dec6 48bf 84bf 88bf 2c96 b8bf
00000270: 971f 903f 4431 97bf c50e 91bf b2d4 2cbf
00000280: 9f5b cdbe 6517 93bf 71ab 5fbd 2cff f6bf
00000290: 0f26 59bf f1cb 6cbf a6ab 5cbf 0435 99bf
000002a0: dc06 f8be eea3 f7be c421 983e a0f5 ffbf
000002b0: 94bc f6bf f918 0e3e 225a 6dbf ac51 e7bf
000002c0: 19e8 0dbe 4226 44bf dec7 cebf 948c 17be
000002d0: 2e59 c7bf 52bf 04c0 5b2a cebf 981b adbf
000002e0: a7fe 82bf 15f5 81bf 2b87 97bf 3696 d0bf
000002f0: b8f0 70bf 2b0d afbf e593 bb3f 2cd0 06c0
00000300: 2572 99bf 0e1c 15bf 3d5c afbf c2d5 08bf
00000310: 9b80 32bf b4e6 8abf ca28 f43e 1fde 65bf
00000320: 0665 28bf 38a9 edbe 2f59 4bbf 1774 f4be
00000330: 8999 3cbe a2ed f4bf ca61 adbd 99dd acbf
00000340: 57e7 d3bf 4517 c2bf 6dd6 803e 3dfe 87bf
00000350: c9b8 f1bf a7b1 6abf b53c cebe e2ae 58bf
00000360: 0d77 a8bf 4014 b5be 5be2 d5be fdef a4bf
00000370: c020 14bf c407 5fbf 177c 4dbf 406a a7bf
00000380: f447 3b3f fafd eabe 0841 92bf 85dc 60bf
00000390: 4c25 b4bf 72e4 bcbe c5ea b0bf 1a90 10bf
000003a0: fe0b 8bbe 06f8 63bf 864f 98bf 1e9c 87bf
000003b0: 612a 97bf 4d47 50bf 205a cabf f0ac ebbe
000003c0: cd52 a5bf 9781 b0bf f0da 1b3f 313c 32bf
000003d0: 5136 f3bf a68e 0cbe d119 73bf 7a5b 513d
000003e0: e853 e1be ab0d aebf 917b acbf 9f5b edbf
000003f0: 5b8a d8bf 4c05 cebf 6a17 c8bf d9f0 8fbf
0.9074843 -0.32578984 -0.71177536 -0.5268368 -0.5118736 -1.1106035 -0.20848751 -0.91023284
-1.0558202 1.4511511 -2.0661976 -1.5533458 -1.2535015 -0.47220665 -1.434681 -0.3725306
-0.7997514 -1.5763139 -0.81532854 -1.4133898 -1.1928077 -0.561265 -0.2936541 -0.15549567
-1.6338869 -0.22522654 -1.1407481 0.121215194 -0.094500385 -0.2179287 -0.8959044 -1.0459502
0.2062612 -1.0456157 -1.4717362 -1.7693996 -1.9319783 -0.54415447 -1.2216667 0.7149786
0.21377857 -1.2245201 0.8972379 0.2764371 -0.30282137 -1.0444554 -0.43513933 -0.48590901
-1.4077473 -1.9555933 -1.2430478 -0.84450245 0.41769925 -0.8890697 -1.6128758 -1.2101029
-0.96641976 -1.49378 -0.27236226 1.4611877 -1.234175 0.66148037 -1.2458411 -0.9733753
-0.8445428 0.7013753 -0.29026493 -0.4984106 -0.550299 -0.37595835 -0.78569615 -0.48467532
-1.2846026 0.55821 0.38553017 0.22215624 -1.0290099 -0.4458056 0.05737289 -0.4160058
-1.3866147 -1.7966452 -0.9838504 -0.30267707 -0.6608121 -0.8364981 -0.32976452 0.1983018
-0.08858272 1.3609327 -1.5079128 0.25668773 -0.812641 0.2168077 0.44164535 -1.0178697
-0.562968 -1.402935 -0.90678513 -1.2064518 -0.577495 -1.7356901 -0.8979289 -1.890329
0.31178576 -0.16744909 -1.5348908 0.071977995 0.9470356 -0.839873 -0.5947565 -0.6704511
-1.3359933 -0.4835134 -0.4639152 -1.468499 -0.06711825 -0.8355398 -1.0071039 -1.3137317
-0.9530508 -1.7909552 -1.4550211 -1.0076327 -0.7201315 -2.0641525 -1.2472723 -1.269867
-0.77398956 -0.54097736 -1.7279351 -0.99493486 -1.3475273 -0.26642466 -2.6060524 -1.3886608
-0.17257443 -0.4348024 1.3243836 -1.8556409 -0.025406921 -1.5727502 -1.5853875 -0.1894187
-1.220803 -1.8198074 -0.6602385 -2.327709 -1.1988335 -0.62573326 -0.8680294 -1.3649065
-0.5184677 -0.7842845 -1.0683446 -1.4420829 1.125964 -1.181191 -1.1332632 -0.6751205
-0.40108964 -1.1491514 -0.05460686 -1.9296622 -0.848237 -0.9249869 -0.86199415 -1.1969304
-0.48442733 -0.48367256 0.2971326 -1.9996834 -1.92763 0.13876714 -0.92715657 -1.8071799
-0.1385807 -0.76620877 -1.6154745 -0.1479972 -1.557409 -2.0741773 -1.6106676 -1.3524046
-1.0233964 -1.0152918 -1.1838125 -1.6295841 -0.9411731 -1.3675894 1.4654509 -2.1064558
-1.1987959 -0.58245933 -1.3700024 -0.5345117 -0.69727486 -1.0851655 0.4768737 -0.89792055
-0.6577915 -0.46418166 -0.7943296 -0.4774482 -0.18417944 -1.913502 -0.084659174 -1.3505126
-1.6554974 -1.5163351 0.25163594 -1.0624462 -1.8884517 -0.91677326 -0.4028069 -0.8464185
-1.3161331 -0.35367012 -0.41774258 -1.2885739 -0.5786247 -0.87121224 -0.8026747 -1.30793
0.73156667 -0.45896894 -1.1426096 -0.87836486 -1.4073882 -0.3689304 -1.3821646 -0.5646988
-0.27157587 -0.8905033 -1.1899269 -1.0594518 -1.1809808 -0.81358796 -1.5808754 -0.46030378
-1.2915894 -1.3789548 0.6088095 -0.69623095 -1.9000951 -0.13726291 -0.9496127 0.05111263
-0.44009328 -1.3597921 -1.347521 -1.8543586 -1.6917223 -1.6095366 -1.5632145 -1.1245376

shared.3.weight f4 [256, 256]
00000000: 82e7 a3bf ba12 d33d 9e2d f0bd 8c15 fcbe
00000010: 68f1 5c3e c029 f7be 8c6a 043e 91c0 423d
00000020: 9710 bd3d f5bc e2bd 9ff5 453e b4f8 ed3e
00000030: eec1 5fbf 1c5c abbe 987e 88be fd9b 73be
00000040: 03dd c33e 9ad2 e63d 715a c8be ff21 b73d
00000050: 30f5 273d 6ade efbe 0354 04bd 0e87 ac3d
00000060: 58fd 0b3e eb66 1dbe b2a1 cd3e 0fad 293d
00000070: bbae 18be 310e 91bd 97da 143d 2249 a9bb
00000080: d6b0 a7bd 9e7d e2bf 4b27 333d bc5c 353d
00000090: d9c9 df3c f000 733d 0ae0 783b 3fac 183e
000000a0: e37e 58bf ccd7 22bf 260a 1ebf de19 ecbb
000000b0: d4b6 873e c122 1abf 5e13 d0bc 5264 c2bf
000000c0: f524 21c0 e147 513e 0ca5 363e a58b 203d
000000d0: 100a 03bf 96d0 553f 1127 d23d 4fd7 103e
000000e0: f371 68bf ebe5 09bd 800e 193f ba9a 2ac0
000000f0: a49e dbbe 58c3 c5bf cd27 0e3e bd22 55be
00000100: bc06 e9bc cff0 673d 06b6 f23e 11e2 37bf
00000110: 392a 38be d1b8 1ebe 64f9 8bbb f83a 08bf
00000120: e66d 92bf 348d 0ebe c441 dbba 7023 cbbf
00000130: d641 3dbe 777c 5cbf 2619 a9bd a152 83bf
00000140: 22f9 c0bd 26a8 233f 407b 3abe d699 63bf
00000150: 7409 d7bb 0d61 6d3d 168e 96be fa24 bdbd
00000160: 73e2 c73e 72ee 15c0 ab93 c03d ce9c 14bf
00000170: b9cf 27bf 77d2 a1be 78fd 20bf 8857 fbbd
00000180: ca4d dfbd 6cdf f73d 9229 45bf b88d afbe
00000190: fcc3 0bbf 1952 cb3e b64f 953c d628 063e
000001a0: 24bb 21c0 56bc b13b 4b1d 113d 19ac d5bc
000001b0: 1fa0 2fc0 84c1 a4be db19 6abd 44d2 753c
000001c0: cfee 3abd 422b 353e 1a14 3dbd e202 dbbd
000001d0: 3f92 2b3c 6530 12bf b92f 4fbe e9bd 3b3e
000001e0: 2bd6 a93e 0ca4 a33e 712c 56be 3e79 b33d
000001f0: 34c0 07bf 9a74 123e 4a45 433d 8762 a03e
00000200: c0ac 653d 8010 d23e b806 693e c63a fb3e
00000210: 8a6b 4d3d 8e9a 30bd ddde a4be 3c21 8fbe
00000220: 4b85 1d3d 078a 12be 3b7d f4bf 14eb 23c0
00000230: 6fcc 2ebe 271d 1cbf 3537 073e fb44 65bd
00000240: 1c5e 4cbe 26aa 153e f1ef eebf 4566 39bd
00000250: 0c63 01bf 230b bb3e f3bb 86be e686 16bf
00000260: d4cf d8be 78a1 643d 04e0 d5be 2936 5b3d
00000270: 487e 90bf 0595 443d 215f d9bc 01e4 b3be
00000280: c9bd bf3d f9fc 553e f875 e8bd 3afd 82bd
00000290: 03e1 fabc a790 0fbf c491 98be 962d dabe
000002a0: 45c8 a7bd 9423 c93d a8ec 9fbc 9e7c 933d
000002b0: 2ed5 7fbd beb1 7fbd 622f 9b3e a2b3 113e
000002c0: df7e 00bf 39b4 26bd b9dd b43d 7c28 6bbf
000002d0: c985 723e e033 043f 71e5 453e 4978 cb3d
000002e0: 1a59 063e 9a1d 87be bc7e 9abf d1e6 7fbe
000002f0: 371a 2cbd 1263 233e 8833 20c0 d977 4e3e
00000300: 3db5 18bf 6f04 393e e636 29be 1324 a03e
00000310: 09ec 3c3e 6ccd 14be c559 33c0 2d5b 12be
00000320: 36df 8cbf 5911 34bf 3b37 d33e dafd d43c
00000330: 4497 84c0 eb55 c13e cfc2 b6bd 6f3b 30bd
00000340: 0711 c7be a5dc 94be 076a 7d3d aee6 4cbf
00000350: 2912 3d3e 9fbd cdbe 4d49 6d3e cba9 663d
00000360: ede5 8d3e ad91 8f3d 5e2e 4f3e 32df f3be
00000370: a8b5 1c3f 5074 80bc 1d69 e3bf 940a 1ebc
00000380: 0f83 95be 4467 5c3e 5526 b8bc c03e adbf
00000390: f0d1 42be a29d ffbd 87da 4cbe 8b1b 39bf
000003a0: 9c0e 563f 9832 e53d fb23 083d 8b7b 3fbd
000003b0: 4649 883e 7681 ba3c dc29 a53d 53c1 a43e
000003c0: 148c 313e 9072 2a3e b4a6 adbc bb23 09c0
000003d0: 76dd 4e3e bac1 bb3d 83f4 f03b 152d 253e
000003e0: 097d 4fbf f423 fd3d f1dd 4bbe aaca 7abb
000003f0: 5061 f2bd 479b d43d b725 003e 99aa c3bd
-1.2805026 0.10306306 -0.11727451 -0.4923519 0.21576464 -0.4827404 0.1293127 0.047546927
0.0923168 -0.11071197 0.19331978 0.46478808 -0.8740529 -0.3346871 -0.26659083 -0.23789974
0.38254556 0.11270638 -0.391315 0.08942031 0.041005313 -0.46849376 -0.032306682 0.08424197
0.13670862 -0.15371291 0.40162426 0.041424807 -0.14910404 -0.07082785 0.036341276 -0.005166189
-0.08188026 -1.7694585 0.043738645 0.04427789 0.027317928 0.059327066 0.0037975335 0.14909457
-0.84568614 -0.6361053 -0.61734235 -0.007205232 0.26506674 -0.6020928 -0.02539986 -1.5186865
-2.5178807 0.20437576 0.17836398 0.039195675 -0.5118723 0.835214 0.102613576 0.14144634
-0.9079887 -0.033666532 0.5978775 -2.6656938 -0.4289447 -1.5450239 0.1388237 -0.20814033
-0.028445594 0.056626137 0.47404498 -0.71829325 -0.17984857 -0.1550019 -0.004271673 -0.5321498
-1.1439788 -0.13921052 -0.0016727974 -1.587019 -0.18482146 -0.8612742 -0.0825675 -1.0259591
-0.09422518 0.6392845 -0.18211079 -0.8890661 -0.006562406 0.057953883 -0.29405278 -0.09235568
0.39039955 -2.3426785 0.094031654 -0.58051765 -0.65551335 -0.31605884 -0.6288676 -0.12272555
-0.10903509 0.12103161 -0.77016556 -0.3428781 -0.54595923 0.39711073 0.018226486 0.13101515
-2.5270472 0.0054240627 0.035428327 -0.02608304 -2.744148 -0.3217889 -0.057153564 0.0150037445
-0.045637902 0.17692283 -0.04616175 -0.10693909 0.0104718795 -0.57105094 -0.20233048 0.18334164
0.3317121 0.31961095 -0.2091539 0.087633595 -0.53027654 0.14302292 0.0476735 0.3132517
0.05607295 0.41028214 0.22756469 0.49068278 0.050151385 -0.043116145 -0.3220128 -0.27955043
0.038457196 -0.14310466 -1.9100717 -2.561223 -0.17070173 -0.6098198 0.13204654 -0.055973988
-0.19957775 0.14615688 -1.8666974 -0.045263547 -0.5054176 0.36531934 -0.2631527 -0.5879959
-0.4234606 0.05581805 -0.41772473 0.053518448 -1.1288538 0.04799368 -0.026534619 -0.3513489
0.093623705 0.20897283 -0.11350626 -0.063959554 -0.030624872 -0.56080097 -0.2979871 -0.42612904
-0.08192495 0.09821239 -0.019522026 0.07201503 -0.062459163 -0.062425368 0.30309588 0.1422868
-0.5019359 -0.040699217 0.08831353 -0.9185865 0.23683847 0.51641655 0.19325806 0.09935052
0.13119927 -0.26389772 -1.2069926 -0.24990393 -0.042017188 0.15955761 -2.5031452 0.20162906
-0.5965155 0.18068098 -0.16524848 0.31277522 0.18449415 -0.14531487 -2.802354 -0.14292593
-1.1005619 -0.7033897 0.41253075 0.025999952 -4.143465 0.37760863 -0.089238755 -0.04302543
-0.38880178 -0.29074588 0.061868694 -0.8003949 0.18463959 -0.40183732 0.23172493 0.05631427
0.27714482 0.07010207 0.20232531 -0.47631222 0.61214685 -0.015680462 -1.7766453 -0.009646077
-0.29201552 0.21523768 -0.022479216 -1.3534775 -0.19025397 -0.12481238 -0.20005237 -0.7230765
0.8361604 0.111912906 0.03323744 -0.04674868 0.26618403 0.02276681 0.08064625 0.32178745
0.17338592 0.16645265 -0.021197654 -2.1428058 0.20201668 0.0916781 0.007353367 0.16130479
-0.81050164 0.12360373 -0.19908883 -0.003826777 -0.11834967 0.10381179 0.12514387 -0.09554023

shared.3.bias f4 [256]
00000000: 37de 56bf f5a2 c1be a5c9 f03e f1ec 2ebf
00000010: d9fb b03d d5bf 95bc 23cc 9cbf 427a 743e
00000020: 5834 86bf 5a6f f23e 2992 ab3d 9170 1d3e
00000030: 0e4e 1cbf fa77 bbbe d046 b73f dc3a d53e
00000040: 57d5 613f b525 bc3e c555 b2bf e54a 363f
00000050: 9959 043f 516b 253f 639c 483f 5c57 0dbd
00000060: ba71 923e 36f9 233f b5e3 d13e 2149 18bd
00000070: 40a1 23bd 1ff2 ac3e 5b94 2d3f e1e2 32be
00000080: 0526 04bd d78d 473f 22ae b2bd f536 c23e
00000090: c8ac d8be a0c1 1b3e 782d dd3e 46bf d33e
000000a0: e43a 573f 80e3 d3bf 2bfa 4f3e c7f4 ccbd
000000b0: a636 893e 12f9 fe3e 681c d1bd f821 ddbd
000000c0: 814b d13e f89e 10be 3914 863e c9c8 b93c
000000d0: f44b d13d 6a93 dfbd d1fe ac3e 1c15 b23e
000000e0: 53ef c63e 4e55 2e3f f1ce 4e3e 919c 203f
000000f0: f5df 90be 7593 5a3f b5ba 6f3f 37a5 82bd
00000100: 9ec3 073f 3567 873f 4866 0bbe 0114 3b3f
00000110: f5d4 18be ec43 bdbd 19cf 983e adc1 633f
00000120: 4e22 04bd 8e9b 56bd 658d f23e a04c 493e
00000130: 34aa a0bf 0c81 6b3f f46b 493f 17de 793f
00000140: 2c4a eb3e 1679 0bbf d74e 2b3e 7fde 053f
00000150: cc6c bf3c e6b9 09bd 161d 893f deeb df3e
00000160: c6e5 053b b5a8 9ebd 617b d23e adb9 afbf
00000170: ca03 843f 8230 6f3e 9d1f 193f a750 87bd
00000180: c641 4a3f a210 d4bd e581 5e3f 69d2 353c
00000190: 7023 253f 6348 bb38 a2f5 803f 7b6b b6bd
000001a0: b5ed 0c3f 7901 46bd ef80 19bf a25e 123f
000001b0: 7e99 e4bd cbad 41bf 770a d5bc 43ff aebe
000001c0: 0e81 723f a6e6 063f e825 5d3e 88c4 5cbf
000001d0: 888c 053e ae40 e43e 7f33 7b3e 473f be3e
000001e0: 3aa5 c1bd 415d 8ebe 411e 823e 313b b83e
000001f0: e398 233f 86e0 f6bd 5ec4 e0be 5610 813f
00000200: 4acf 5ebf bcb0 3f3f 208e 903d b32e 063f
00000210: e9e1 613e 22ae bd3e d658 cf3e aefc fdbd
00000220: 7e50 8e3f f189 113f 8e76 323f ef4c 8b3e
00000230: a9f6 e13d 361e 243e 71bf 68bf 1dc3 473f
00000240: b800 3e3f 097f f33d eed3 a6bf b757 3c3f
00000250: 53e9 0cbe cadb 73bd 340c 4ebd e247 393f
00000260: 7363 44bd 7af3 6dbd 1ad3 6a3e ad0d a5be
00000270: 3005 6bbe bf8b 933f 9b03 ef3e a725 3b3f
00000280: c313 83b8 7467 6dbd 2a30 c0be d98f 063f
00000290: e045 a13e 7e56 d23e 1c44 933e 8a6a 663f
000002a0: 256c 423f 19a3 393f 02bc 753f 3008 6cbf
000002b0: 93e5 b73e 7195 8e3f e627 b7bf 80b7 c33e
000002c0: 7deb 01c0 6c19 463d 7cce 81be a38d a03e
000002d0: 8267 823e a526 023e 4823 d4bd bc78 153f
000002e0: 5d9b 18bf 1ae4 a2bd f7ef 523e b5f4 af3e
000002f0: cbd1 743f c0e4 0f3f aa07 02bf ee63 873d
00000300: a25f b63e 3a1b ea3e a825 8cbe c81c 293f
00000310: fb8b dc3e 29b8 cd3e 2531 013f cbae a4be
00000320: d347 69be 6fa0 073f 65d8 0b3f 155f 573e
00000330: eaf2 bd3e 8523 b03d 4b00 fe3e b686 bcbe
00000340: 3c22 ba3e bf42 6dbf 254d 1e3f 959e 4cbe
00000350: 06df 303f 6d19 3f3e df44 043f 06bc 0f3e
00000360: b6d6 cfbc c420 afbd 2a3e 253f a36e f73e
00000370: 5351 bcbe 6ef9 d93e f0ea 713f 77d0 e03e
00000380: 18f9 59be e233 b23e a523 b33d 5676 a73f
00000390: 07bb 1f3f 7700 b33e 6f8f f73e be1d b13e
000003a0: 4f3e 14bf 1b54 8f3d 05f9 273f f53e 413f
000003b0: 5181 213f a3c3 b23e e4d2 c53e 390f 3bbe
000003c0: dbe4 b23c 4485 823e 41fc 013f 4c14 283f
000003d0: 65ba 6e3f 5f76 363f 6301 41be 953b 453f
000003e0: 847e 82bf cd22 03be abc3 11bf 80b0 b1be
000003f0: 5464 84be 17a3 a03e 3b0b 4c3f 2092 dcbf
-0.8393282 -0.3781964 0.47028843 -0.68330294 0.08641786 -0.01827995 -1.2249798 0.23874763
-1.0484724 0.4735058 0.08377487 0.15374972 -0.610566 -0.36614972 1.4318485 0.4164647
0.88216156 0.36747518 -1.3932425 0.7120803 0.51699215 0.64616877 0.7836363 -0.03450714
0.2860239 0.6405214 0.4099404 -0.037179116 -0.0399487 0.33778474 0.678045 -0.1746936
-0.03226282 0.77950805 -0.087246194 0.37932554 -0.42319322 0.15210581 0.43198752 0.41356868
0.84074235 -1.6553802 0.20310275 -0.10007625 0.26799506 0.497994 -0.10210496 -0.10797495
0.40877917 -0.14123142 0.26187304 0.02267875 0.10219565 -0.10916789 0.3378816 0.3478173
0.38854465 0.68098915 0.2019613 0.627389 -0.28295866 0.8538125 0.9364427 -0.063791685
0.53032863 1.0578371 -0.13613236 0.730774 -0.14924987 -0.09241471 0.29845503 0.889674
-0.032259278 -0.052394442 0.473735 0.19658136 -1.2551942 0.91993785 0.7868035 0.9760451
0.45955026 -0.5448164 0.16729294 0.5229263 0.023367308 -0.033624552 1.0712001 0.4373464
0.0020431145 -0.07747022 0.41109756 -1.3728539 1.0313656 0.23358348 0.59813863 -0.0660718
0.7900661 -0.10354735 0.86916953 0.011097529 0.645072 8.930338e-05 1.0074961 -0.08907219
0.5505021 -0.04834125 -0.5996236 0.5717565 -0.11162089 -0.7565581 -0.026005967 -0.34179124
0.9472817 0.5269569 0.21596491 -0.8623738 0.1304189 0.44580597 0.24531363 0.37157652
-0.094553426 -0.27805522 0.25413707 0.3598266 0.6390516 -0.12054543 -0.43899816 1.008311
-0.8703505 0.7487905 0.07058358 0.5241501 0.22058834 0.37046915 0.40497464 -0.124017105
1.1118314 0.56851107 0.6971215 0.27207133 0.11033375 0.1602715 -0.90917116 0.78032094
0.74219847 0.118894644 -1.3033426 0.7357134 -0.13760881 -0.05953578 -0.050304607 0.7237531
-0.047946405 -0.058093525 0.22932091 -0.32236996 -0.22951198 1.1527022 0.46682438 0.7310433
-6.250248e-05 -0.05795999 -0.37536746 0.52563244 0.31498623 0.41081613 0.287629 0.90006316
0.75946265 0.7251449 0.9599 -0.92199993 0.3591734 1.1139356 -1.4309051 0.38225937
-2.029998 0.048364088 -0.25352848 0.3135806 0.25469595 0.12710054 -0.10358292 0.5838735
-0.59612066 -0.07953663 0.20599352 0.34366384 0.9563262 0.5620842 -0.50792944 0.06610857
0.35619837 0.45723897 -0.2737248 0.6605954 0.43075547 0.40179566 0.50465614 -0.32164606
-0.22781305 0.5297918 0.54627067 0.21032365 0.3709939 0.08600525 0.496096 -0.36821526
0.36354244 -0.9267997 0.61836463 -0.19982369 0.69090307 0.18662043 0.5166759 0.14036569
-0.025370937 -0.085511714 0.6454798 0.48326597 -0.36780795 0.42573112 0.9449911 0.43909046
-0.21286428 0.34805208 0.08747033 1.3082988 0.62394756 0.34961292 0.4835162 0.34593004
-0.57907575 0.06998464 0.6561435 0.7548669 0.63087946 0.34914884 0.3863746 -0.18267526
0.021837642 0.254923 0.50775534 0.6565597 0.93253165 0.7127437 -0.18848185 0.7704404
-1.019486 -0.12806244 -0.5693919 -0.3470497 -0.25857794 0.31374428 0.79704636 -1.7232094

mean.weight f4 [6, 256]
00000000: 5941 8abd d048 13bc c5f9 a03d dc87 eb3f
00000010: 64af 1d3c e6f6 37bd adb3 7bbd 9fb3 c6bc
00000020: 9851 9e3f 27d3 773e 81d8 d8bd 5679 84bd
00000030: 9503 d6bc b8d6 be3d daa8 b83e 3415 e03d
00000040: 22a9 973b cb21 95bd a244 5bbe fadc 86be
00000050: b11c 923d b2e2 5b3e d1be 23be e7be c7ba
00000060: bc49 14bf e50f c2be bac6 bfbc dfa1 093f
00000070: b77f af3b 2450 033d cda6 b93d cc7c 153d
00000080: b3a3 26bd 1935 b4bd f9a3 1e3d 3696 c23d
00000090: 6fdf 7ebc e52e 0a3e 8983 a1c0 2ab9 19be
000000a0: 857d 0cbe 6842 f6be 3a49 3b3f f14f 73bc
000000b0: 15e1 cf3d ab5a dc3d 8e26 95bd 8a79 09be
000000c0: f012 01c0 195f e9bc e954 4abe 7e44 68be
000000d0: 0f7f 1dbd 7271 8ebc 412d 063f ec78 8c3e
000000e0: 398d 2a3d 5202 37be e79b 20bd 126a 8abc
000000f0: a235 4bc0 bed2 87bd 2c44 a23d 9ecf df3b
00000100: e590 d53f 31c0 86bd 61a8 0ebf 29d1 d03d
00000110: 48de f73d 835f d3bc e5c6 e43c adbd b6be
00000120: d303 fcbd f2ca 8ebc 6a9e 81bb e1c2 9f3d
00000130: 7d1c 24be d9c7 d43d 5d23 8bbe b97e 08be
00000140: 6cf2 0abd f497 9e3f 1b84 1cbd 945d 69be
00000150: 8c48 c6bd 56f7 73bd d2df 633c ae52 68be
00000160: 4ee7 033d e7fb 9bbc 332e 33bb 0401 153f
00000170: bb9d 133e 47fa c93c a617 bebd 5367 693d
00000180: 3565 1fba a796 023c 2a27 153d 5ee5 35bd
00000190: 45d0 3c3e c56f 4abe 9c86 0cbe ff58 8dbc
000001a0: 21b5 0abc 1928 a23d 640f 6f3d e413 51bd
000001b0: 37ae 62bd 4219 5ebc 8d25 b63d da83 143d
000001c0: 4087 19be 8e40 363c e076 1d3d ddd2 1f3d
000001d0: e052 833d 7605 333d 8f9c a3bc a7fe 953d
000001e0: e3bf 1a3d b874 2e40 d27f 78be f578 1b40
000001f0: 0a1a 41be 5934 5f3d 9a63 80bb 30a9 57be
00000200: cd32 9d3b 5fdf b63e f221 07be 7c2a 2ebd
00000210: f06c f93e 664a 233e 2a79 073d 9f58 10bd
00000220: bb7d 16bd e78d aabd 69bd 053e 4a08 eebc
00000230: bdc0 0d3e 3cce 7e3d af46 5f3d 9356 91bd
00000240: 39d9 1a3e b387 2cbe 947c f8bc 32aa 46be
00000250: d663 863c 839b 18be 65af ac3f 28e8 af3e
00000260: 37d5 f53b cade 993c 20b1 3cbe a5a7 03be
00000270: 5037 033e 5d1b 263d d8a2 e2be 631b 133e
00000280: ebb1 7fbd 832c 4cbc 006b f83c 16b2 0a3c
00000290: 86c3 733f 969a 983e a133 da3d caa8 d7bd
000002a0: 228e 8c3e 2385 ff3d b17f 8cbe 3b4a 32bf
000002b0: 5683 2e3d abe8 52bd c7df 113e 2b17 aa3d
000002c0: d9da f7bd b49c 0bbe f9d0 7dbd 07db a13c
000002d0: c7e6 2dbe 14d2 8fbd 5146 ba3c 5188 8abd
000002e0: 1a49 40bc e9ad 803e d983 f63d a962 8bbe
000002f0: 1f84 50be 0a70 aabe d545 7f3d 0820 b13e
00000300: 1d73 8c3d 283a a43d 2a83 503d 7627 92bd
00000310: cf42 5a3d 68cb f43b 9838 d1bd fb99 853b
00000320: 72e4 c1bd 75b0 55bf 78c0 be3e 1f83 793e
00000330: eb94 4e3c 6961 7dbd 44e3 9abe 7edb 233e
00000340: d3ab c73e 65a6 943d c586 d9bc 1cf7 cf3d
00000350: 29a1 31bc 4c5f 0dbc 32fb 2b3d 34dc 553e
00000360: 6bc4 b0bc 5589 b63b a6f5 c7bd f0fc 603d
00000370: 74d7 f3bc a058 04be af27 84bd c7e4 273d
00000380: e35d 4f3c dfef 183f dbf3 9d3d c21c 87be
00000390: 704c 12be 7532 eb3c 1ae6 8d3f 8b27 0cbf
000003a0: 93c3 be3d f6d8 26bd 7e31 1e3e 8247 593d
000003b0: 48f7 a53e d6b3 2f3d eac3 26be 5e95 eabd
000003c0: 9882 d33e 591e 683c 58f9 a3bd f18e 943d
000003d0: 7903 26be 850e a23c 9502 29bf 4e78 8dbc
000003e0: 5516 2c3e 462e 2dbd 9e2d 89bd 0eed 69bb
000003f0: f720 d03c 1c76 b0bd af0b 07bf 195e 323e
-0.06750745 -0.008989528 0.0786014 1.8400836 0.009624336 -0.044913195 -0.06145065 -0.024255572
1.236865 0.24201642 -0.1058817 -0.064684555 -0.026124755 0.09318298 0.36066324 0.10941544
0.0046283165 -0.07281836 -0.214129 -0.26340467 0.07134379 0.21473196 -0.1599076 -0.0015239388
-0.5792501 -0.37902752 -0.02341019 0.5376262 0.005355801 0.03205885 0.09065018 0.03649597
-0.04068346 -0.0879919 0.038730595 0.09501307 -0.0155562 0.13494451 -5.0473065 -0.1501204
-0.13719757 -0.4809754 0.7315861 -0.0148506025 0.10150353 0.10759481 -0.07282744 -0.1342527
-2.0167809 -0.028487729 -0.19758953 -0.22682378 -0.03845125 -0.01738808 0.524128 0.27436006
0.041638587 -0.17871979 -0.03921118 -0.016896281 -3.1751485 -0.06631993 0.07923159 0.00683017
1.6684843 -0.06579626 -0.55725676 0.10196144 0.12102944 -0.02580238 0.027926872 -0.35691586
-0.12305417 -0.017430756 -0.003955652 0.07800842 -0.16026492 0.103896804 -0.27175418 -0.13329591
-0.033922598 1.2390122 -0.038211923 -0.22789603 -0.09681806 -0.05956205 0.013908343 -0.2268779
0.03220301 -0.019041015 -0.002734077 0.58204675 0.14415638 0.024655474 -0.09281854 0.056983303
-0.00060804497 0.007970489 0.036414303 -0.044408195 0.18438824 -0.19769199 -0.13723224 -0.01725435
-0.008466036 0.07917804 0.058364287 -0.05104436 -0.055341925 -0.013555827 0.08893881 0.036258556
-0.14993 0.0111237895 0.038443446 0.039019454 0.064122915 0.04370638 -0.019972114 0.07323962
0.037780654 2.725874 -0.2426751 2.4292576 -0.1885759 0.054493282 -0.0039181234 -0.21060634
0.0047973157 0.35717294 -0.13196543 -0.042520985 0.48715925 0.1594635 0.033074535 -0.035240766
-0.036741 -0.08327847 0.13060535 -0.029056687 0.13843055 0.0622084 0.05451077 -0.07096591
0.15121926 -0.1684864 -0.030332841 -0.19400862 0.016405027 -0.14903073 1.3491026 0.3435681
0.007502224 0.018782992 -0.18426943 -0.1285692 0.12814069 0.04055344 -0.44264865 0.14365916
-0.062425535 -0.012461784 0.03032446 0.008465311 0.9522022 0.2980544 0.10654379 -0.10530241
0.2745219 0.12476566 -0.2744117 -0.69644517 0.04260572 -0.05149142 0.1424552 0.083052
-0.12102289 -0.13633996 -0.06196687 0.01975776 -0.16982566 -0.07022491 0.022738608 -0.067642815
-0.011736179 0.25132683 0.12036867 -0.2722371 -0.203629 -0.33288604 0.062322456 0.3459475
0.068578936 0.08018905 0.050906338 -0.07136433 0.05328637 0.007470537 -0.102158725 0.004077194
-0.094674006 -0.8347238 0.37256217 0.24366425 0.012608747 -0.061860476 -0.30251515 0.16001698
0.3899828 0.072583 -0.026553521 0.10154554 -0.010841646 -0.008628678 0.041987605 0.20884782
-0.021578034 0.0055705705 -0.097636506 0.05492872 -0.029765822 -0.12924433 -0.064528815 0.040989663
0.012656662 0.59741014 0.07712527 -0.26389128 -0.14286971 0.028710583 1.1085846 -0.5474784
0.093146466 -0.040734254 0.15448567 0.05304671 0.32415223 0.042896114 -0.16285673 -0.11454271
0.41310573 0.014167392 -0.08006543 0.072538264 -0.16212262 0.019782314 -0.66019565 -0.01726928
0.16805394 -0.042280458 -0.06698154 -0.0035694274 0.025406344 -0.086162776 -0.527522 0.17418708

mean.bias f4 [6]
00000000: 1fdc 383f fc63 8b3d be9d 233d b129 e73d
00000010: 2a03 b53e 5628 273d
0.7221088 0.0680618 0.039945357 0.11287249 0.35353976 0.04080995

log_std.weight f4 [6, 256]
00000000: 9523 3ebd ecd5 7cbc a6c4 933b fd46 b53e
00000010: ef25 bb3c 034c b33c 2742 9dbc 62a3 c93a
00000020: 9f80 913e c898 303e 1d56 253d 627a d2bc
00000030: 8393 62bc 13c7 283d 9921 6e3e ea30 8a3d
00000040: 1442 5a3b b7bd fc3c f70a 4dbd 4d33 ff3c
00000050: a065 463d 4f48 dc3d a906 763d f8ca b23c
00000060: c7a9 3e3e 8cb1 d33d 7253 4aba d75e 063e
00000070: 1482 81bc 7d49 873c 01df 763d 1572 123c
00000080: 2198 0b3b 98d2 b83b 5b68 fc3a eaf9 023d
00000090: 7213 c33b 20f7 6f3d 2ad1 fbbe 8999 a5bd
000000a0: 282d 543c 61d6 15be a103 523e 2406 9d3d
000000b0: 16c6 783d c069 503d fc40 21bd d93a c73c
000000c0: 397d 2cbe ddaf 04bc 11d6 ae3d 3d62 a4bd
000000d0: e2ab b43c 55f7 8f3c 1339 3e3e 1b9e c93d
000000e0: 5862 583c 746a 553d f20b 493c 024e 623c
000000f0: 1d35 233f f1bd 243d ddc2 f53c 8f90 073c
00000100: c3cf 52be 3bc8 b0bb adc2 ab3d f969 dc3c
00000110: e56b 5a3d 43d3 813b 634c d43c 1bc4 663d
00000120: ab53 213d 15bb 38bb 59da 1b3c 3584 aa3c
00000130: dc89 6bbb 1c57 1c3d 864a cc3d e646 0c3c
00000140: 2e6d b93a 1460 e1bc a027 8d3c ab30 973d
00000150: 922a 363d 935b e43d 515a bd3b 0931 0ebe
00000160: 5a67 9b3a 07db c3bc 809f f7bb 8cc8 a93c
00000170: 4351 843d f657 ec3c 2ffa f93c e250 793c
00000180: f615 563c 1d13 d13d 1105 e2bb 0a6a 973b
00000190: 7cd8 473d 92a3 723c af95 733d 565e 2dbb
000001a0: 20f4 b2bb e474 893c 1c45 8c3d f272 06bd
000001b0: 4fb8 323d e08c 133c b9ee 6e3d 1f7b 8abc
000001c0: 5a06 9c3d 1585 e43c 0e15 703c 81e3 913c
000001d0: 2fa1 193d 0ee4 303d 1ec3 7f3c e174 ac3c
000001e0: 29df 643d 98b1 c63e ea03 bc3d 7a95 e0be
000001f0: 78b5 9c3b a0de 563d 2c76 953b 67a5 b13d
00000200: 789d dbbb 8bc2 fb3d 21df 123d ecb8 b63b
00000210: 735f 003e bf0c 473d fafc 893c 3e4a 1cbd
00000220: 1722 e4bc aa2b 14bd ec04 443d 9528 e43b
00000230: deea fb3c e2c5 5a3d b839 6e3c 7aaf 153d
00000240: c599 9f3d 53c1 8f3d e9af 033c d096 7c3d
00000250: 0d6a c9bc dcb9 ef3c c13c 063d 2d01 b13d
00000260: a73e 8fbc c822 633b cca3 653b 3a58 153b
00000270: 6f9b 853d 7306 a43c a92c 0dbe 3826 503d
00000280: a9d6 083d ba43 f43b 20c2 ef3b f75f 9abc
00000290: d00b 4cbc 5471 fb3c e738 1a3d c60b 003d
000002a0: eb39 ec3d 5de6 a33d 597f c23d 2844 0a3e
000002b0: cfe0 0e3d 04b7 f6bb 640d 32bd 39b3 2c3d
000002c0: f91f b1bd 9355 023d f850 0b3c 31b8 a03c
000002d0: 7979 ca3c d750 0d3c 7f60 f7bc 56d3 f43b
000002e0: d872 b8ba db6f e0b8 88fa 503d 6f29 b43c
000002f0: 17a1 473d cee4 d53d 2064 d7ba c6c4 c4bb
00000300: 071e a63c a251 283d 845e ac3c e070 933c
00000310: 016d 043d 805e 5e3c 1e96 483c 0395 a13c
00000320: b035 56bb 100d 37be 6d1b df3d 422c cc3d
00000330: 0abb bfbd 8976 65bb 7b2a ba3d ff70 e73c
00000340: 1a8e 9e3c bc05 443d 56df 82bc d9b6 503d
00000350: 95a0 b0bc 3ae6 a0bb 8520 d73b bb68 46bd
00000360: 6f8f fc3b 967c 363d eadf 8c3b 5407 6b3c
00000370: a378 a4bb 1bd5 9639 1f6b 3a3b 5fcd d7bc
00000380: 243d d03b 3c42 063e f77d 413d ed30 013d
00000390: e34e d33c 181d df3c fba2 b73d 599a 353e
000003a0: d123 423d 43a3 2dbc 7423 5f3d 8d58 733c
000003b0: 9134 ce3d dc2f f13c d845 593d 3a2d 82bd
000003c0: df60 063e f8e1 5a3c db82 00bc 22fc d03c
000003d0: c97b 393d 4eea 4d3c f960 683d 3c33 e7bc
000003e0: 8f88 893d f7d7 2bbc 0bee 443c 0af1 e7bb
000003f0: 730a b23c dfcb 45bb 8e66 e93c faf6 1c3d
-0.046420652 -0.015431862 0.0045095263 0.35405722 0.022845237 0.021886831 -0.019196583 0.0015383775
0.28418443 0.17245781 0.040365327 -0.025693122 -0.013829115 0.041205477 0.23255004 0.06747611
0.0033303546 0.030852182 -0.050059285 0.031152392 0.04843676 0.10755979 0.060064945 0.021825299
0.18619452 0.10336599 -0.0007718123 0.13122116 -0.015809096 0.016514534 0.060271267 0.008938332
0.0021300393 0.005640339 0.0019257175 0.031976618 0.005953246 0.058585286 -0.49183017 -0.08085925
0.012950219 -0.1463256 0.20509197 0.07667187 0.060735784 0.0508821 -0.039368615 0.024320053
-0.16844644 -0.00809857 0.08536924 -0.0802655 0.022054616 0.017573992 0.1857646 0.09844609
0.013207041 0.052103475 0.012270914 0.013812544 0.6375292 0.040220205 0.030000145 0.008274212
-0.20587067 -0.005394963 0.08386741 0.026906 0.053325552 0.003961952 0.02591533 0.056339364
0.039386433 -0.0028187681 0.009512507 0.020814994 -0.0035940325 0.03816901 0.09975152 0.008561825
0.0014146918 -0.027511634 0.017230809 0.073823296 0.044474192 0.11150279 0.005778589 -0.13885893
0.0011856363 -0.023908151 -0.0075568557 0.020725511 0.06460812 0.028850537 0.030514805 0.015217038
0.013066759 0.10208724 -0.0068975766 0.004620795 0.04879044 0.014809506 0.05946892 -0.0026453934
-0.005461231 0.01677937 0.06849119 -0.032824464 0.0436328 0.009005755 0.058333132 -0.016904412
0.07618399 0.02789549 0.014653457 0.017808678 0.037507232 0.04318624 0.015610484 0.021051826
0.055876885 0.38807368 0.09180434 -0.43864042 0.004782375 0.052458405 0.0045612063 0.08674126
-0.0067021213 0.122929655 0.035857324 0.0055762436 0.12536411 0.04859614 0.016844261 -0.03815674
-0.027848287 -0.036174454 0.047856256 0.0069628456 0.030751642 0.053411372 0.014540128 0.0365443
0.07793001 0.070192955 0.008037546 0.061667264 -0.024586702 0.02926343 0.032772783 0.086428024
-0.01748593 0.0034658182 0.0035040257 0.0022788183 0.06523787 0.020022606 -0.13786568 0.0508177
0.03340784 0.0074543627 0.0073168427 -0.018844588 -0.012453988 0.030693687 0.037651923 0.031261228
0.115344845 0.08002923 0.09496946 0.13502562 0.034882363 -0.0075291414 -0.0434698 0.042163108
-0.086486764 0.03181989 0.008503191 0.01961908 0.024716126 0.008625231 -0.03019738 0.0074714823
-0.0014072312 -0.00010701987 0.051020175 0.021992413 0.04873761 0.10444032 -0.0016433038 -0.0060049025
0.02027799 0.041093476 0.021041162 0.017998159 0.032330517 0.013572335 0.012242822 0.019724375
-0.003268581 -0.17876077 0.10893903 0.09969379 -0.09361847 -0.003501328 0.09090134 0.028252123
0.019354869 0.04785703 -0.015975635 0.050955627 -0.021560946 -0.0049102576 0.006565156 -0.048439723
0.0077075283 0.04455241 0.0042991536 0.014345009 -0.005019264 0.00028769005 0.0028445197 -0.026343046
0.006354945 0.13111204 0.04723927 0.0315408 0.025794452 0.027235553 0.08966633 0.1773466
0.04739744 -0.010598007 0.05447717 0.014852655 0.1006862 0.029441766 0.053045124 -0.063562825
0.13122891 0.013359539 -0.007843698 0.025510851 0.045284066 0.01256807 0.056733105 -0.028222673
0.067154996 -0.010488502 0.0120196445 -0.0070782946 0.021733498 -0.003018133 0.028491285 0.038321473

log_std.bias f4 [6]
00000000: cbf5 bebf c693 debf ed72 cabf 5b82 f8bf
00000010: 567d a9bf 3edc 66bf
-1.491876 -1.7388847 -1.5816323 -1.9414781 -1.3241374 -0.9017981
