trained_models/HalfCheetahNormal-v3/lamour/actor_5.pt (torch, 296896 bytes, 8 tensors)

shared.0.weight f4 [256, 17]
000000 cc 60 4a c1 7d 8a a2 3f 90 bf 5b 3f 0d 42 60 be
       -12.648632 1.2698513 0.85839176 -0.21900196
000010 20 03 7a 3e cb b0 df be 62 a7 0f 3f 0f 8f 09 3f
       0.24415255 -0.4368957 0.5611478 0.53733915
000020 71 a5 fa bc dd 90 2b 3e 69 3b b1 be 4d b4 69 bd
       -0.030596467 0.1675448 -0.3461564 -0.057056714
000030 cd 67 54 bd 88 4b 03 3b c1 d8 04 bd f7 cd ed 3c
       -0.051856805 0.0020034034 -0.032433275 0.029028876
000040 52 ae 4a 3c 51 51 59 40 4f 53 1f c0 d9 bc 23 bf
       0.012370663 3.3955882 -2.4894598 -0.63960034
000050 b7 55 d2 be 27 36 81 3d 7f c7 dc 3f bb 91 4c 3f
       -0.4108102 0.06309157 1.7248381 0.7990987
000060 e3 26 04 3c 5d 41 bb bd 80 f3 86 3f 8a 1e a8 be
       0.008065912 -0.091433264 1.054306 -0.328358
000070 28 41 19 bd 68 13 35 bc 32 96 ac bb c7 7a 79 3d
       -0.037415653 -0.01105199 -0.005266928 0.060908105
000080 fe 7a 90 3b 3b 8d bd 3a ac 86 0e 40 00 8c c3 bf
       0.004409193 0.0014461646 2.2269697 -1.52771
000090 db 74 cb bf e8 30 33 bf 35 d3 aa 3d 1a ea 0d be
       -1.5895036 -0.699965 0.08341066 -0.13858834
0000a0 17 6d 83 3f 57 c7 7e 3e 9e 4a 93 be 35 6d 5e 3e
       1.0267667 0.2488073 -0.28767866 0.21721347
0000b0 79 2a 44 3e c6 51 31 bd 45 7d a1 bd 20 21 98 bd
       0.19156827 -0.043290876 -0.078852214 -0.07428193
0000c0 d2 9f f9 bd 09 dd b7 bd 61 b1 22 bd 74 dd c9 be
       -0.121886864 -0.08977706 -0.039719943 -0.39426768
0000d0 f6 30 93 bd e4 97 37 bf f4 92 c6 be 90 cb 27 3e
       -0.07187073 -0.7171614 -0.3878399 0.16386247
0000e0 e7 69 1a 40 12 a7 b6 3e 68 9b da 3d 0c 81 30 bd
       2.4127138 0.3567434 0.10674173 -0.04309182
0000f0 d1 fe 66 be 22 18 14 3e d6 b9 42 3b 70 db f3 bc
       -0.22558142 0.14462331 0.0029712818 -0.029767722
000100 eb d9 0a 3d ea 27 fc bd 1f 82 d8 3c 86 6e 70 bc
       0.03389923 -0.123123005 0.026429234 -0.014674788
000110 9d ff 18 3e 03 2e 93 3f ab cc 81 3f bc 14 9c 3f
       0.14941259 1.1498417 1.0140585 1.2193828
000120 9d 10 43 3f 00 31 a3 3f 71 9c de bd b4 70 15 3e
       0.76197225 1.2749329 -0.108696826 0.14593774
000130 72 be 0c be 29 51 db 3d 5e 22 78 3e 68 71 ec 3c
       -0.13744524 0.107088394 0.2423186 0.02886267
000140 1d 56 06 3e f8 76 81 3d 5f 4c 79 bd 5e 5d 35 bd
       0.13118787 0.063215196 -0.06086385 -0.044278495
000150 fb 65 e6 bc 3f 66 d4 40 ba cd fd bd 2b 25 7b 3f
       -0.0281248 6.637481 -0.12392755 0.9810359
000160 8f 75 2d 3f 91 d2 7a be 79 66 0b be b3 ab 4e bf
       0.67757505 -0.24494387 -0.13613309 -0.8073074
000170 b3 3c 85 be a3 6b 11 be 6a 53 c1 3d c0 b8 7d be
       -0.26022872 -0.14201216 0.09439738 -0.24777508
000180 9c 7f 5f bc ee ec 6c bc 2b 10 3a 3b 43 1a b9 3c
       -0.013641264 -0.014460785 0.0028390985 0.02259553
000190 4c 04 08 bb 92 4f 4b 3b bb 83 5e c0 3c 5c 0c c0
       -0.0020754514 0.003102277 -3.4767902 -2.1931295
0001a0 cd 4b 9c 3f 47 63 a3 3e 2a 6a 55 bf 66 39 a9 be
       1.2210633 0.3191168 -0.8336512 -0.33051604
0001b0 25 c1 18 be 1b 02 aa be c0 2c 34 be 4b a6 98 bd
       -0.14917429 -0.3320473 -0.17595196 -0.07453593
0001c0 64 ec c1 be 1f 6d cd bb 3e 34 86 bd 71 d9 26 bc
       -0.37875664 -0.0062691118 -0.06552933 -0.010183678
0001d0 48 4d 6b 3d 70 91 13 3c af 2e 1e 3d f2 a0 fc 40
       0.057446748 0.009006843 0.03861874 7.8946466
0001e0 79 85 80 c0 8d fb ef 3d 64 17 af 3e d2 dc 4b be
       -4.016293 0.117179014 0.34197533 -0.19908455
0001f0 c5 44 b1 bf 6d da 12 bf a5 ee 07 be 5b 08 22 bd
       -1.3849112 -0.5736454 -0.1327463 -0.03955875
000200 8f 65 10 3f d4 57 87 be 47 e3 58 bc 50 5e 7a bb
       0.56404966 -0.26434195 -0.013237781 -0.0038203187
000210 d3 b2 7d ba cc bf 32 bd b2 98 28 bc 2b 43 e1 ba
       -0.0009677831 -0.043639943 -0.010290312 -0.0017186155
000220 e9 13 26 c0 7e 63 97 3f cf 4f 74 3f f5 2c f6 3f
       -2.5949652 1.1827238 0.9543428 1.923247
000230 d2 e1 cb 3e 47 3c 74 be 70 f5 4c bf cc 6a 3a 3e
       0.39820725 -0.23851119 -0.8006201 0.18204802
000240 4a 23 48 be 53 3e 3e bf d3 bb d2 3e 37 38 ed 3c
       -0.19544712 -0.7431385 0.41158924 0.02895747
000250 c2 44 4b bd fd 66 ba bc ec 03 63 3d d7 5c 6e 3b
       -0.04962612 -0.022754187 0.055423662 0.0036371255
000260 a8 52 93 bc ef 1a 26 41 86 84 ca bf c3 3c 20 c0
       -0.01798375 10.381576 -1.5821693 -2.5037086
000270 20 f4 2b 3f ad e3 72 be 5c 67 e5 be 38 e7 02 bf
       0.6716938 -0.23719664 -0.4480542 -0.5113406
000280 73 1f 8d bf 61 0e 74 bd a3 55 18 3d da 42 b8 3e
       -1.1025223 -0.059584025 0.037191045 0.35988504
000290 91 92 5b 3c 80 5f 1f 3d dd 4b ec 3b 15 9b aa 3d
       0.013401643 0.038909435 0.007211192 0.08330361
0002a0 c7 a5 cf 3a 18 35 d8 bc f7 09 ef bf a1 3c f2 3f
       0.0015842252 -0.026392505 -1.8674916 1.8924752
0002b0 f5 78 98 3e 89 25 92 3e 7c a8 b2 3e 5a ca 69 3f
       0.29779783 0.28544262 0.34894168 0.9132439
0002c0 26 4b da 3e e9 af f0 3d ed 92 f3 3d da 8a 1f bd
       0.4263546 0.11752302 0.11893258 -0.03895078
0002d0 9a b2 92 3e 99 0e 45 3d d5 ca 49 3d a5 f2 8f 3b
       0.28651887 0.048109625 0.0492657 0.004392939
0002e0 a4 72 51 bb 8a 10 53 3c cc 63 87 3c 29 13 e8 be
       -0.00319592 0.012882361 0.016527079 -0.45327118
0002f0 e4 b2 25 3f 00 1d 2c 3f ce f2 d4 be 58 4b 01 3f
       0.6472609 0.6723175 -0.41591495 0.5050559
000300 e2 c9 66 b9 20 8b f6 be d9 0b fd be 19 e8 49 bd
       -0.00022009716 -0.4815302 -0.49423102 -0.04929361
000310 5a 79 a0 be 13 22 ae 3e a3 81 9c 3d b1 c8 88 3d
       -0.31342584 0.34010372 0.07641914 0.06678904
000320 92 f8 9f bb 1e ad 2d 3d 55 9e 2f 3b 37 bd 6e bc
       -0.004881927 0.042401426 0.0026797254 -0.0145714795
000330 4d 83 89 3f cd 0c 34 3f 69 d4 98 bf 86 12 cc be
       1.0743195 0.7033203 -1.1939822 -0.39857882
000340 c3 8f a8 bc 97 f7 09 bf fd 96 0c 3f 0f 19 53 3e
       -0.020576363 -0.5389342 0.5491789 0.20615028
000350 b6 12 22 3e a0 0e 3e 3e 23 37 59 3e 05 af 4a 3c
       0.1582745 0.18560266 0.21212439 0.0123708295
000360 5c df 02 3d e0 3c 17 bb 85 63 e6 3b c6 8f 09 bd
       0.031951293 -0.0023077056 0.0070309066 -0.03358438
000370 c7 f0 2d bd 3e 9c 82 40 f9 d3 64 40 db 91 48 3f
       -0.04246595 4.0815725 3.5754378 0.7834756
000380 a2 d4 1a 3f ce 58 72 3d 89 46 2e 3e 95 4b 92 3d
       0.604807 0.059166722 0.17019095 0.071433224
000390 24 87 c5 3c 7b e9 d1 3b 11 fd 3e 3e 12 fa 21 3e
       0.024112292 0.006406007 0.18651225 0.1581805
0003a0 32 75 45 3d 87 83 d6 3c 1e 7a 17 3c 52 fa 35 3c
       0.04820747 0.026185764 0.009245424 0.011107044
0003b0 b8 e1 1d 3c 8b 1a 1e 3b 91 0c 0f c0 f9 72 53 c0
       0.009636335 0.0024124708 -2.235142 -3.3038924
0003c0 c7 56 80 be 5b 3c 8d 3f df f3 1d 3f 8f 0a 16 3e
       -0.25066206 1.1034044 0.6170024 0.14652465
0003d0 fa 8f 3a be 41 e7 88 be 37 cf 2b bd c4 c7 4d bf
       -0.18218985 -0.26738933 -0.041945662 -0.80382943
0003e0 79 84 44 be 26 cd 00 be a3 a5 08 bc a7 86 4d bc
       -0.1919116 -0.12578258 -0.008340272 -0.012544311
0003f0 dd 6b 8f bc 63 1c aa bd 17 d1 50 bd e0 77 06 bf
       -0.017507488 -0.083061956 -0.050980654 -0.52526665

shared.0.bias f4 [256]
000000 9c 68 46 bf fd de 77 bf d5 c5 bd bf 72 22 5a bf
       -0.7750337 -0.9682463 -1.4825999 -0.8520881
000010 9b d1 f7 bf 7a d7 1b 3f d7 b9 80 bc af a8 0a be
       -1.9360842 0.60875666 -0.015713615 -0.1354091
000020 31 08 84 bf 25 06 30 bf 33 7b 1d c0 08 c0 5e bf
       -1.0315 -0.68759376 -2.4606445 -0.87011766
000030 0e 59 c9 bf c6 18 2c bf 11 8d ec bf 54 68 6f bf
       -1.5730302 -0.672253 -1.848055 -0.9351857
000040 02 05 a7 bf 76 44 98 bf e7 a3 b9 3e b0 34 e7 bf
       -1.3048403 -1.1895893 0.3625786 -1.8062954
000050 8e 87 f5 be 15 53 53 bf ec b0 e0 bf 2e fc ef 3b
       -0.47954983 -0.8254865 -1.7553992 0.0073237633
000060 f2 f2 7b 3e ba 0b cb bf 6a d8 12 3f be 81 47 bf
       0.24604395 -1.5862954 0.5736147 -0.77932346
000070 d1 44 c9 3e 1a fd 91 bc b2 29 86 3d a3 7b 30 bf
       0.39310315 -0.017820884 0.065509215 -0.68938655
000080 df 75 89 3f 09 a3 74 bf 67 d5 b0 be f4 0d 47 3f
       1.0739096 -0.9556127 -0.34537813 0.77755666
000090 23 f0 d4 bf fb d8 f4 bd 6d 5f bd bf 39 10 be be
       -1.6635784 -0.11955448 -1.4794747 -0.37121752
0000a0 09 aa 96 bf 31 77 3c bf d0 89 89 3e 61 37 b3 bf
       -1.1770641 -0.7361937 0.26862955 -1.4001275
0000b0 64 8f bd bf 57 41 62 be 14 88 c8 bf 69 fa 3e be
       -1.4809384 -0.22095238 -1.5666528 -0.18650211
0000c0 47 da d1 bf b8 9e c6 bf 2e 2d 56 bf 63 ac 81 bf
       -1.6394738 -1.5517187 -0.8366269 -1.0130733
0000d0 dc ad 7f 3e 33 7c 85 bf 1f d9 9f bf 05 0d 3f be
       0.24968666 -1.0428528 -1.2488135 -0.1865731
0000e0 35 4a eb bf 27 19 c4 bf aa 07 f7 bf c4 ee 89 3d
       -1.8382021 -1.5320176 -1.9299214 0.06734994
0000f0 a7 12 13 c0 d3 a0 f0 3c 7f 83 3f 3e 60 ce a6 bf
       -2.2980134 0.029373562 0.18702506 -1.3031731
000100 b1 05 00 c0 0e db b8 bd c3 72 b2 bf 39 ec 39 bf
       -2.0003474 -0.09026156 -1.3941272 -0.7262607
000110 c3 b6 b1 bf f3 0e b2 bf a8 93 02 c0 8e 18 8c bf
       -1.38839 -1.3910812 -2.0402622 -1.0944993
000120 ad e9 d8 bf 09 3b 23 bf 44 22 ef bc f0 49 05 c0
       -1.6946312 -0.63761955 -0.029191144 -2.0826378
000130 c2 55 88 bf 08 e2 ea bf 9a 7c 30 bf 73 e5 2a bf
       -1.0651171 -1.8350229 -0.68940127 -0.6675636
000140 28 08 8a 3f 3a 46 c9 3e 12 fb fd be 85 d0 2f be
       1.0783739 0.3931139 -0.49605614 -0.17169388
000150 9e 88 13 bf a3 94 44 3f 39 e7 27 bf 29 61 80 bf
       -0.57630336 0.767893 -0.6558719 -1.0029651
000160 14 a4 0b c0 ef 5a a9 bf d1 76 0b bf b7 a5 c0 bf
       -2.1818895 -1.3230876 -0.54478174 -1.5050572
000170 c7 ba ab bf 10 51 a7 bf 4b 8b 35 bf 29 c8 92 bf
       -1.3416375 -1.3071613 -0.7091567 -1.1467334
000180 5a 70 89 bf 5e ed e0 bd 50 fb 55 bf 7c 84 8b be
       -1.0737412 -0.10982774 -0.835866 -0.27249515
000190 fe bb bb bf 72 66 a6 bf e9 c0 93 bf 54 16 a6 bf
       -1.4666746 -1.3000014 -1.1543247 -1.2975564
0001a0 b7 5a e1 bf 06 71 64 bf 98 35 64 be f6 8a 61 bf
       -1.7605809 -0.8923496 -0.2228607 -0.8810266
0001b0 ff 85 d7 bf 92 41 4d bf c3 93 a1 bf 39 c6 df bf
       -1.6837767 -0.8017818 -1.2623218 -1.7482368
0001c0 fa cf a5 bf 32 63 13 3f b7 fc 40 bf 4c f0 34 bf
       -1.2954094 0.57573235 -0.7538561 -0.70679164
0001d0 2e e5 a4 bf bd 4b 4f 3e 30 e8 d6 bf f3 8f 69 bf
       -1.288244 0.20243736 -1.6789608 -0.91235274
0001e0 bd d2 40 bf 24 3b 88 bf 11 ce 98 bf d1 d8 b4 bf
       -0.7532156 -1.0643048 -1.1937886 -1.4128667
0001f0 00 f4 a7 bf 5c 58 62 bf 78 80 8f bf 92 6b a0 bf
       -1.3121338 -0.88416076 -1.121108 -1.2532828
000200 28 35 2a bf 50 17 88 bf 65 a8 37 be d1 91 79 3e
       -0.6648736 -1.0632114 -0.17935331 0.24372031
000210 37 e0 22 bf b0 0d a4 be 55 44 9a bf 61 c9 86 bf
       -0.63623375 -0.32041693 -1.2052103 -1.0530206
000220 df f5 92 bf 02 7f bc bf bd a7 95 bf 4f ff 58 bf
       -1.1481284 -1.472626 -1.1691815 -0.8476457
000230 71 dd e7 bf 2b 2e c6 bf 59 e9 21 c0 8c 8d ed bf
       -1.8114454 -1.5482839 -2.5298674 -1.8558822
000240 05 d5 af bf ae 12 23 bf 52 89 d9 bf 3c f5 4b bf
       -1.3736883 -0.6370038 -1.6995032 -0.7967107
000250 4e 38 08 c0 c8 3c 52 bf ab 88 d3 be 54 3b 00 3f
       -2.1284366 -0.82123995 -0.41315207 0.5009053
000260 01 a4 0f c0 67 a2 fe be ef de b0 bf d7 60 a4 bf
       -2.244385 -0.49733278 -1.3818034 -1.2842053
000270 f3 4b e3 be c2 45 c6 bf 0c 31 01 3f 48 0c a5 bf
       -0.44393882 -1.5490038 0.50465465 -1.2894373
000280 d3 10 7d bf 19 1e 04 c0 7a 08 99 be 86 b3 b6 3e
       -0.98853797 -2.064337 -0.2988928 0.3568384
000290 d6 bb b3 be 73 c0 92 3d ac 7d ba bf 46 76 20 bf
       -0.35104245 0.07165613 -1.4569602 -0.6268047
0002a0 6f bf 04 bf b1 ba dc bf b7 91 42 bf 6d 0e 8f bf
       -0.51854604 -1.7244474 -0.76003593 -1.1176277
0002b0 26 e7 c0 bf cd cf da bf 77 43 ef be 5c f0 1d bf
       -1.5070541 -1.7094666 -0.4673116 -0.61694884
0002c0 a2 ef a3 bf 74 e3 c9 bf 04 74 59 3d 1e 7f 8a bf
       -1.2807505 -1.5772538 0.053089157 -1.0820043
0002d0 ea 5c 3d 3e e6 b3 9a bf f5 28 aa be b2 a0 9a bf
       0.18492475 -1.2086151 -0.33234373 -1.208029
0002e0 37 0d 06 3e 00 2d cb bf 32 17 b0 bf 7e cf 64 bf
       0.13090979 -1.5873108 -1.3757079 -0.8937911
0002f0 4b 64 be be 72 b0 d4 bf 17 72 88 bf 91 59 23 c0
       -0.37185892 -1.6616347 -1.0659817 -2.5523417
000300 12 d1 03 c0 35 fc 96 bc d7 2e aa bf e8 a8 cc be
       -2.0596356 -0.018430809 -1.3295544 -0.39972615
000310 f1 be fe bf 44 fc df bf cd c8 81 bf 29 d8 d5 bf
       -1.9902021 -1.749886 -1.0139405 -1.6706592
000320 68 a9 fe bf b0 9f a8 bf a1 0e 14 3f 0f e7 ad bf
       -1.9895449 -1.3173733 0.5783482 -1.3586138
000330 fb 49 f5 bf b4 f1 97 be c6 12 ac bf 0b 88 95 bf
       -1.9163202 -0.29676592 -1.3443229 -1.1682142
000340 7c b3 25 bf 46 a6 ab be 21 65 b5 bf bc a1 df bf
       -0.64726996 -0.33525294 -1.4171487 -1.7471232
000350 f8 c7 27 3e fc 29 fe bd 92 3e ca bf c9 9a 9f bd
       0.16384876 -0.12410352 -1.5800345 -0.07793195
000360 3d 95 bc 3e d8 aa 99 bf 61 b6 28 bf f2 1e 90 be
       0.3683261 -1.2005262 -0.6590329 -0.2814861
000370 89 8e 47 be a9 b0 18 bf 8a e5 ce bf 5f d9 90 bf
       -0.19487967 -0.5964456 -1.61638 -1.1316336
000380 92 0d 24 bf 17 ca c4 bf e5 0d bf bf 00 aa d8 bf
       -0.64083207 -1.5374173 -1.4926115 -1.692688
000390 6c 00 2e bf 6c 53 ad bf 5e b3 c1 bf 8d 81 b3 bf
       -0.67969394 -1.3541083 -1.5132864 -1.4023911
0003a0 25 56 9e bf 1c a4 75 bf e9 1a ec be 14 f2 74 bf
       -1.2370039 -0.95953536 -0.4611428 -0.9568188
0003b0 a7 6d cf bf 24 93 30 bf de 3b 24 bf d4 27 38 bf
       -1.6205338 -0.6897452 -0.6415385 -0.7193577
0003c0 89 05 92 bf 0c 97 e4 3e a2 f1 f0 bf 73 da 7d be
       -1.1407939 0.4464649 -1.882374 -0.24790363
0003d0 e2 da d0 bf 80 7e 89 bf 52 1d d7 bb 52 9c eb bf
       -1.6316798 -1.074173 -0.0065647746 -1.840708
0003e0 3b 25 b3 bf 9c f8 90 3e 1d 23 0b bf 5e 03 a7 bf
       -1.3995737 0.28314674 -0.54350454 -1.3047903
0003f0 b5 05 63 bf 78 15 c3 3e c4 15 bf be f0 22 c8 bf
       -0.88680583 0.38102317 -0.37321293 -1.5635662

shared.3.weight f4 [256, 256]
000000 28 1d c7 3c e0 a0 ae 3b c1 8d 20 3e a6 b2 0e ba
       0.024305895 0.0053292364 0.15679075 -0.0005443491
000010 80 d3 06 bf 05 7b 87 be ef 07 66 3e 5c 74 48 3d
       -0.52666473 -0.26461044 0.22463964 0.048939094
000020 3e 12 12 3d e0 26 bc 3d 8c d5 3a 3e 0e 49 57 be
       0.03566193 0.09187102 0.18245524 -0.21023962
000030 7a ad 9f 3c bb 9c ef bf e7 8e 4d 3d d4 a8 5f be
       0.0194919 -1.8719705 0.05018511 -0.21841747
000040 08 6e 05 bf 9c a5 99 bd 87 2f d3 bc eb 00 c3 bf
       -0.5212102 -0.075022906 -0.025779499 -1.5234655
000050 dc 7e 99 be 6f 16 6e be 50 8b 56 3e f2 bc 6a 3d
       -0.299796 -0.23250745 0.20951581 0.0573091
000060 62 c1 d2 3d a3 c5 9d bd 11 3e 16 bb 02 ef 06 3e
       0.10290791 -0.07703712 -0.0022925178 0.13177112
000070 49 d3 07 bf 02 a4 ea 3d b0 bb 8a bf 68 c9 12 be
       -0.5305677 0.11457063 -1.0838528 -0.14334643
000080 e1 cb c6 3c 68 10 72 3d ac 1e 61 bd 96 fa a1 bd
       0.024267139 0.059097677 -0.05496089 -0.079091236
000090 3e 46 39 c0 fa a6 33 be ff 42 11 bd 12 b4 d2 3d
       -2.8949122 -0.17544165 -0.035464283 0.10288252
0000a0 79 da 2d bf 73 44 93 be d3 c8 d3 3d a9 7c 93 3e
       -0.6791149 -0.2876316 0.103410386 0.28806046
0000b0 c9 89 14 3d 72 4a 4d 3e b4 ad 89 3c e2 15 8a bc
       0.036264215 0.2004793 0.01680646 -0.016856138
0000c0 2c 3e 3c be 15 2d e0 bd aa 96 7c be 6f a1 07 bd
       -0.18383092 -0.10946099 -0.24666849 -0.03311294
0000d0 22 d9 67 3e f2 c8 bc be 60 b8 58 bf 49 6e 97 be
       0.22641423 -0.3687206 -0.84656334 -0.29576328
0000e0 fe f7 f9 bd e4 0f be 3d 26 ec 94 3d 6c e4 37 bd
       -0.12205504 0.09280375 0.07271604 -0.044895574
0000f0 34 95 5a 3e 6c 19 70 3c 67 12 1d 3d 8b a9 a3 bf
       0.21345979 0.014654499 0.038347628 -1.2786115
000100 7c 97 3a c0 57 f3 08 bd ff a4 00 bd 3d 18 6a 3d
       -2.9154959 -0.033435192 -0.031407353 0.05715202
000110 50 ee ad bd ec 2b a1 bd 7e 10 82 bd 64 fc 85 c0
       -0.0849272 -0.078697056 -0.06350802 -4.1870594
000120 f1 cb f6 bf 97 f2 28 bd 38 2f 01 bd f1 4d 30 3d
       -1.9280988 -0.041246977 -0.031539172 0.04304308
000130 30 57 99 3d 46 57 89 3d ba f2 48 3d 7f e6 2e be
       0.07487333 0.06706099 0.049059607 -0.17080115
000140 f4 4e 84 bc 47 97 3e be 9a 6e db bd b3 6d c2 bd
       -0.016150929 -0.18612395 -0.10714455 -0.0949358
000150 ad d6 18 3e f1 fa 73 3b da d9 12 be 20 b4 17 bc
       0.14925642 0.003722843 -0.14340916 -0.009259254
000160 2a c3 3d bf 10 41 d4 bd 8d bf c3 be c6 6d aa bc
       -0.7412592 -0.10363972 -0.3823208 -0.020804297
000170 45 8d 2f b9 1a 31 1f bd 8d d7 23 3d 7f e3 c5 bc
       -0.00016741928 -0.038865186 0.040000487 -0.02415633
000180 65 7c f4 be ba 7c 89 be b8 73 8e be 53 35 8e bd
       -0.47751155 -0.2685297 -0.2782266 -0.069437645
000190 40 cb 33 bf 9f a1 33 bf 5e af 1f 3e 48 a6 2c bc
       -0.7023201 -0.7016849 0.15594241 -0.010537691
0001a0 f0 fe 0a 3e 77 fe 24 bb 9b 65 fc 3d 80 2e 99 c0
       0.13573813 -0.0025176087 0.12324067 -4.7869263
0001b0 a4 82 f7 be 8e 06 6e bc 49 4a 07 3e 91 39 94 bf
       -0.48341858 -0.01452793 0.13211931 -1.1580068
0001c0 5e 8a 07 3e 91 78 13 be 6a 58 a8 bc a7 9d 00 3e
       0.13236377 -0.14401461 -0.020549972 0.1256014
0001d0 60 bc 7c c0 e3 49 2d 3d d8 9d b6 bd a1 f8 1c be
       -3.9489975 0.042306792 -0.08916825 -0.1532922
0001e0 bb a5 91 3d e6 88 43 3e 77 36 d5 bf f3 cf 3b be
       0.07111689 0.19095191 -1.6657246 -0.18341045
0001f0 45 dc 88 c0 1c 58 0c bf 3b 65 bc 3e 7f 2e ca bd
       -4.2768884 -0.54821944 0.36795983 -0.0987215
000200 cc f2 e3 bc 64 f4 fe bd 11 62 9b 3c d2 0a 0f 3d
       -0.027825736 -0.124489576 0.01896766 0.03492243
000210 47 2d 30 bf 3c 3c 23 3e 8e 17 88 3d 47 eb 42 be
       -0.6881909 0.15940946 0.06645118 -0.19035064
000220 f4 3c ff be e3 34 3a 3e f9 14 10 bc a4 5c da bd
       -0.4985119 0.18184237 -0.008794063 -0.10662201
000230 7e ea ea ba 5b c9 32 bf 4b c6 14 c0 68 b0 92 bc
       -0.0017922667 -0.69838494 -2.3246028 -0.017906383
000240 60 ae f0 3d fc 35 df bd 96 a5 95 be 61 03 9c 3d
       0.117520094 -0.108989686 -0.29227895 0.07617832
000250 3c 47 20 be f2 9c d3 3d d6 49 2a 3c 0d 08 d9 bd
       -0.15652174 0.10332669 0.01039358 -0.10597239
000260 da e8 79 c0 d2 b9 21 be e6 cb 26 be e8 7d 19 3b
       -3.9048371 -0.15793541 -0.16288719 0.0023420993
000270 e5 2b 05 3d 75 80 64 bd 5c 86 3e bd 27 d5 b5 3d
       0.032512564 -0.05578657 -0.046514854 0.08878546
000280 a0 41 3a 3e ff fb 83 be a9 91 bd be 19 9c 22 3c
       0.18189096 -0.25778195 -0.37025192 0.009924912
000290 0b 36 57 be 81 22 9b c0 86 ef c3 bf e8 6d 71 3c
       -0.2101671 -4.847962 -1.5307472 0.014735676
0002a0 6b f1 b2 bd 84 e0 c3 3d a2 ed 57 bb 2e 2c 13 bd
       -0.08737453 0.09564307 -0.0032948037 -0.035930805
0002b0 8a 93 d4 be 84 f3 65 bc d4 08 69 bd 53 a5 37 3d
       -0.41518813 -0.014035109 -0.056893185 0.0448354
0002c0 c9 db 8d 3c 6d a4 9d 3e e1 72 c2 bd 79 42 7d bf
       0.017316716 0.3078951 -0.09494568 -0.98929554
0002d0 ec 7e db bc a3 7a 41 3f 52 59 2f be 4c 3e 8b 3d
       -0.02679392 0.75577754 -0.17123917 0.067989916
0002e0 fe 04 d4 3c 49 b0 19 3e ed 10 fc bd 0f 65 d5 3d
       0.025881287 0.15008654 -0.12307916 0.10419666
0002f0 62 6b 3a bd 90 1a 02 3e c0 d4 12 c0 89 a3 1a bf
       -0.045512564 0.12705445 -2.2942352 -0.60405785
000300 58 cc e5 bf 72 5b 10 3d ed 4a 00 bf c2 00 64 bd
       -1.7952986 0.03524346 -0.5011433 -0.055664785
000310 97 2a d6 3e 37 20 6f be 2d d7 37 3e 47 ed b4 3c
       0.41829368 -0.23352133 0.17953177 0.022085799
000320 ae 8e 45 3e 29 1f ec be 24 76 2a 3c 17 8d 2b 3e
       0.19292709 -0.46117523 0.0104041435 0.1675304
000330 6d 9a 15 3e 15 c9 90 bd b4 e8 11 3e 81 48 0c be
       0.1460969 -0.07069603 0.14248925 -0.13699533
000340 e2 6e a0 be 07 32 6c bd fc ff cf be ac 6d 6a bf
       -0.31334597 -0.057664897 -0.40624988 -0.91573596
000350 82 db a5 3d f6 8d 63 3b 0a f4 2b 3e 6f 84 0e bc
       0.080985084 0.0034722066 0.16792312 -0.008698567
000360 59 9f 0d bd bb a7 77 c0 0f d9 8d be c7 92 8e be
       -0.034575794 -3.8696125 -0.27704665 -0.27846357
000370 30 e9 b0 be 74 d7 71 3d f8 76 99 3d 83 72 b7 bf
       -0.34552908 0.059043363 0.074933946 -1.4331821
000380 bd db a2 3c 09 87 31 bc f0 2a 84 be 5e 0f 3c c0
       0.01988017 -0.010835418 -0.2581401 -2.938438
000390 15 91 a4 bc 1e 0f 84 3c 4c b5 6f 3e 2b 08 09 be
       -0.020088712 0.01612049 0.23409003 -0.13382022
0003a0 c1 3e 99 bd 9c a8 63 3d ba 7f 78 bd 99 76 d9 3d
       -0.074826725 0.05558072 -0.060668685 0.10618324
0003b0 e3 4e 2d 3e 6a f1 00 3e 90 48 93 3d aa 4e bf 3d
       0.16924624 0.12592092 0.071915746 0.09341176
0003c0 ec 14 8d 3d 09 a2 c5 3d f6 28 3e bd e5 a9 cc 3d
       0.06888756 0.096500464 -0.046425782 0.09993342
0003d0 e8 33 dd be a2 cd 8a 3d 69 95 17 3e 30 d2 39 3e
       -0.43203664 0.067775026 0.14803089 0.18146586
0003e0 48 4d 31 be 61 3f a6 3c e9 06 1d 3d df 67 a8 3d
       -0.17314637 0.020293893 0.03833667 0.08222937
0003f0 6f 90 57 bf 26 c5 05 3d a4 fb f5 3d cc f8 5c bd
       -0.84204763 0.03265872 0.12010887 -0.05394821

shared.3.bias f4 [256]
000000 93 9a 08 3f de 52 48 3f 6f 05 34 3f 2b 87 56 bf
       0.5336086 0.78251445 0.7032079 -0.838
000010 32 a1 24 3e 29 ee e6 3e 0c 14 9a be 61 b1 b3 3e
       0.16077116 0.45103577 -0.3009342 0.35096267
000020 6b f7 a6 be ef bd 21 be 69 81 90 be dd b0 68 3f
       -0.3261064 -0.1579511 -0.28223732 0.9089487
000030 a0 6f 9f 3e 5b 33 a5 be ef 1c 64 3f c4 7c 6a be
       0.3113985 -0.32265744 0.8910665 -0.22899157
000040 e3 e8 b4 3d e3 3b 03 3e ff d6 1a 3f ca 7b 84 3c
       0.08833482 0.12815814 0.6048431 0.016172308
000050 14 1f 5c 3e 01 5a 80 3f e7 eb d9 3e e4 3b c6 bd
       0.2149623 1.0027467 0.42562792 -0.09679392
000060 a2 16 51 3f 81 24 c3 bf 78 4a cb bd 05 45 1c 3f
       0.8167516 -1.5245515 -0.09926313 0.61042815
000070 38 68 0f be 2c cb 3b 3e c6 05 01 3f a3 27 f8 3e
       -0.140046 0.18339223 0.50399435 0.4846774
000080 17 e6 55 3f 8e b4 c2 bc 2c f3 1b 3f 4d af 57 3f
       0.83554214 -0.023767736 0.60917926 0.8425186
000090 62 03 1e bd 0d 9a b0 3e 63 8b ac 3e 8c 04 d6 3e
       -0.038577445 0.3449253 0.33700094 0.41800344
0000a0 f2 99 b7 3e d1 bd 08 3f c8 20 5c 3f 28 3d 9f be
       0.35859638 0.53414637 0.8598752 -0.31101346
0000b0 ef 0d 41 bf 13 ec c1 bd 4b 66 35 bf 59 6c 83 3f
       -0.75411886 -0.09468856 -0.7085921 1.026744
0000c0 bf 6c d0 bf 6d b3 3c 3f fe d7 85 bf 61 fc 0e 3f
       -1.6283187 0.7371128 -1.045654 0.5585385
0000d0 5a ea ea be 6e 8f e3 3e b5 98 4b 3e 1a 21 bb 3d
       -0.4588192 0.44445366 0.19882472 0.09137173
0000e0 d9 b8 06 bf f8 d0 58 3f d6 16 17 3f 51 40 2c 3f
       -0.52625805 0.8469386 0.5901922 0.6728564
0000f0 04 9d 31 3e 5b fd 62 3f c8 40 0c 3f 43 59 3b 3f
       0.17345053 0.8866784 0.5478635 0.7318308
000100 c7 5d 1f 3f 01 87 ff bc 8e 5f 3d 3f 70 9f 8f 3e
       0.6225247 -0.031192305 0.7397393 0.2805133
000110 34 72 82 bf 4a 82 e3 be 23 2d 1a bf 6f 28 79 3f
       -1.0191102 -0.4443534 -0.60225123 0.9732732
000120 f3 17 10 3f 5c 35 88 3e 4a 4d ba bf ca cd 37 3f
       0.56286544 0.2660321 -1.4554837 0.71798384
000130 3f 11 18 bf 04 d5 a4 be f9 53 73 be a2 69 69 3f
       -0.59401315 -0.32193768 -0.23762502 0.9117681
000140 3e d9 b6 3e 51 c6 27 3f e7 1d 57 3f 58 f3 cf be
       0.35712618 0.6553698 0.8403 -0.40615344
000150 e0 10 6c 3d 15 5a 03 be d7 65 17 3f 9b bd 96 3e
       0.05763328 -0.12827332 0.5913977 0.29441532
000160 ce 80 7d 3f 41 33 32 bf 80 fa 55 3f e8 8b 8d 3f
       0.99024665 -0.6960946 0.8358536 1.1058321
000170 44 5b 24 3f a8 9a cd bf 44 da de bd dd d3 15 be
       0.6420176 -1.6062822 -0.108814746 -0.146316
000180 41 81 9d 3e 6a a1 91 3e f1 4b 21 bf 5e 56 0c bd
       0.30762675 0.28443462 -0.630065 -0.034262054
000190 eb a2 bf 3e 2d 01 c6 be 70 dd 82 3c 87 7c 12 3f
       0.37428984 -0.38672772 0.01597473 0.57221264
0001a0 34 77 a3 3d 01 bb 1d be 89 03 b8 3e 21 fd 4c bd
       0.079817206 -0.15403368 0.35940197 -0.05004609
0001b0 62 d3 b4 3e 53 a7 56 3f 26 63 1d 3f 19 fd a7 3e
       0.35317522 0.83849066 0.61479414 0.32810286
0001c0 96 86 b4 3d 81 d5 21 3f 63 02 c3 be 8e b3 5f 3d
       0.08814733 0.63216406 -0.38087758 0.054614596
0001d0 42 46 83 3e 6c 6b 4b 3d 9e 23 38 3f be 62 05 3f
       0.2563954 0.049662992 0.7192935 0.52103794
0001e0 f4 5e 68 3f 63 b7 5d 3f 0f c3 d4 bf 1f 50 49 bd
       0.90769887 0.8660795 -1.6622027 -0.049148675
0001f0 16 2f ab 3e fc c1 eb 3e 72 5c 01 3f 03 a4 de 3e
       0.3343436 0.46046436 0.50531685 0.43484506
000200 53 67 1c be 61 90 91 3e 30 f8 71 bd 60 70 f1 be
       -0.1527379 0.28430465 -0.05907458 -0.47156048
000210 89 3a 76 3d 47 8f 45 3f 3c 35 23 3c bf a9 15 3e
       0.060114417 0.7717175 0.0099614225 0.14615534
000220 ed 6e 31 bc e1 6a 09 3e a3 ce f0 bd a1 0c bf 3e
       -0.010829669 0.13419677 -0.11758163 0.37314323
000230 8a cd 6f bf 9b 49 62 3f 34 23 d6 be 07 8f 64 3f
       -0.93673 0.88393563 -0.41823733 0.8928074
000240 9b a9 18 3f 11 8c 12 bd 41 f5 30 3f 1c e3 8a 3f
       0.596338 -0.03577811 0.6912423 1.0850558
000250 53 f1 c1 3e ec 5c bf 3e b9 c9 b7 3c 97 e1 87 3e
       0.37879428 0.3737558 0.022435056 0.265393
000260 c1 99 a3 3d 0d b6 1f 3f 92 cf ca 3e 27 b7 bc bd
       0.079883106 0.6238716 0.3961149 -0.09214621
000270 fa 3a 8b 3e 9b a0 00 bf 9e d0 d0 3e 75 5a 39 3f
       0.27193433 -0.50245064 0.40784162 0.7240365
000280 80 96 2d 3f 75 37 22 bd 9b db 8c bf dd 62 53 be
       0.6780777 -0.03960367 -1.1004518 -0.20643182
000290 4d d6 96 be 1c 38 5b 3f 92 62 c8 be 1a 81 36 be
       -0.29460374 0.8563249 -0.39137703 -0.17822686
0002a0 52 c3 04 3f fa 9a 47 bf e5 05 dd 3e d4 1a 57 3f
       0.51860535 -0.7797085 0.4316856 0.8402531
0002b0 ac 10 15 3f a5 21 a8 3e 94 8a bb bd 0d 25 2d 3f
       0.58228564 0.3283817 -0.09157291 0.6763466
0002c0 4a 4d 17 3f 24 0c c4 be 36 89 92 bf 89 81 f2 3e
       0.5910231 -0.38290513 -1.1448123 0.47364452
0002d0 6f 91 6c 3e 81 51 0e 3f 60 09 4c 3f 29 bb 8d bf
       0.23102354 0.55593115 0.79701805 -1.1072742
0002e0 fb 10 1c 3d 7f de cf 3e a8 0b dc 3e fc 63 d3 3e
       0.03810213 0.4059944 0.42977643 0.4128722
0002f0 58 bd 81 bf 88 64 68 be 1f 89 b7 3e b5 43 26 3f
       -1.0135908 -0.226946 0.35846803 0.6494706
000300 4b 46 cb 3e 15 e8 36 3f bf 33 2e 3f 5b a8 cb 3e
       0.39702067 0.7144788 0.6804771 0.39776883
000310 ee 99 35 bf d8 d8 3e bf 8d 9b 37 bf e7 1e 17 3f
       -0.70938003 -0.7454963 -0.71721727 0.5903153
000320 de b9 50 3f 0e ee 8b be 51 55 b0 3e 6a 81 b5 be
       0.8153361 -0.2733006 0.3444009 -0.35450298
000330 18 86 df 3e 50 bc cc bd ec 13 41 3f 1a 90 59 be
       0.43656993 -0.09996855 0.75421023 -0.21246377
000340 dd 1e 02 bf c0 3e b4 ba 25 4b 38 bd 4c 8d 08 3f
       -0.50828344 -0.0013751611 -0.04499354 0.533406
000350 da dc 5d 3f 03 d3 9b 3e 6f 90 a9 be dc 24 08 3e
       0.8666512 0.30434427 -0.33118007 0.1329531
000360 4b e4 06 bf e5 11 00 3f 65 73 1f bf bd d3 bc be
       -0.526921 0.50027305 -0.62285453 -0.36880293
000370 f8 a2 18 3f 80 40 cc 3e 9d d8 74 bf f1 a1 0b 3f
       0.5962367 0.3989296 -0.95643026 0.5454398
000380 60 ef 0f 3f d9 a9 59 3f 46 63 30 bf c5 5c 6b be
       0.5622463 0.8502479 -0.6890148 -0.22984608
000390 30 e3 a8 bc 3f f4 62 3e 22 fa 1e bd 80 b6 49 bf
       -0.020616144 0.22163485 -0.038812764 -0.787941
0003a0 af 2a 96 bf 29 8c cc 3e 12 b6 d8 3e c9 bd bc bd
       -1.1731776 0.39950684 0.4232641 -0.09215886
0003b0 5f 4a 54 bd da a3 ed bc f8 d4 d3 3e e7 07 4a 3f
       -0.05182874 -0.029008795 0.4137342 0.7891831
0003c0 c1 9c ce 3d 6a f8 c3 be 37 86 e3 3e 2e f1 80 3e
       0.10088492 -0.38275462 0.44438335 0.25184005
0003d0 c5 4a 6d 3f af 3f 0d 3f 24 55 ee bd 01 56 e7 3e
       0.92692214 0.551753 -0.11637333 0.45182803
0003e0 b8 85 56 3f f5 fe be 3e b6 b4 25 3f 78 3c 9b 3e
       0.8379779 0.37303892 0.6472887 0.30319571
0003f0 d2 a7 e1 3e 82 82 bb bc cf 34 c5 3d 0f 3a be 3d
       0.4407335 -0.02288938 0.09629213 0.092884175

mean.weight f4 [6, 256]
000000 84 fd 33 bd 03 17 9e be b3 99 71 be e5 11 5a 3c
       -0.043942943 -0.30876932 -0.23593788 0.01330993
000010 a7 9f ca bc 74 4a ab bd c8 25 ea 3c 95 cb 24 be
       -0.024734331 -0.0836381 0.028582469 -0.16093285
000020 66 1f a2 3e 1f dd f3 3d 47 5c 06 bc 83 54 76 3c
       0.3166458 0.1190741 -0.008200712 0.015034798
000030 f2 a0 10 be 9c 94 b5 bd 3b 6d 95 3c f2 59 94 3e
       -0.14123896 -0.088662356 0.018240562 0.28974873
000040 bf ae 4d 3d a4 47 94 3c 4c f5 3b bd af b2 04 3c
       0.05021548 0.018100567 -0.04588823 0.008099242
000050 04 c9 86 3f 1d d7 73 3e 3d 57 8f 3e a9 87 5c 3d
       1.0530095 0.23812528 0.27996245 0.053840313
000060 88 f8 a3 bc 68 3b 8c be cc 82 2c bd 31 ab ce bf
       -0.02001597 -0.27389073 -0.042116925 -1.6145993
000070 f8 c8 00 bd 4a ad cc 3e 1b 64 82 be 82 31 4d be
       -0.03144166 0.3997596 -0.25467 -0.20038417
000080 9d 1a 84 3e 73 02 58 be 47 f9 fc 3d 43 bb 28 3e
       0.25801554 -0.21094684 0.123522334 0.16477685
000090 5e ec a3 bc 92 da f2 3e 49 a8 dd bd 4b b3 90 be
       -0.02001017 0.4743238 -0.108231135 -0.2826179
0000a0 c3 ca 92 3d e5 1c c9 3c 02 29 44 3e 9e be 0e 3e
       0.0716758 0.02454991 0.19156268 0.13939902
0000b0 9e 8c 87 3d dc 94 00 be c9 57 95 3e 96 8d 35 bd
       0.066186175 -0.12556785 0.29168537 -0.04432448
0000c0 b7 b1 51 3d 9c 3f 19 be 9d b9 03 3f e1 f8 c2 be
       0.051194873 -0.14965671 0.514551 -0.38080505
0000d0 9d 6b ba 3d 8e 17 0a bf 7f fd ad bd f6 35 1a be
       0.09102557 -0.5394219 -0.08495616 -0.15059647
0000e0 62 10 97 3b b6 22 1e be cc cf b2 3d 31 f3 d5 be
       0.0046101073 -0.15442929 0.0873104 -0.41787103
0000f0 cb bb 27 be 30 75 56 3e 3a 5d 69 3e 8e 59 8a bd
       -0.16380231 0.20943141 0.2278947 -0.067553625
000100 3a 55 19 bd 2d 1a 56 be e2 58 ef 3e 29 f0 2e 3d
       -0.037434794 -0.20908423 0.467475 0.042709503
000110 de bd b3 3d e6 7f 30 be 1e 06 ff bc 37 d2 b5 3d
       0.08776449 -0.1723629 -0.031130847 0.08877986
000120 e7 87 82 3e 7b c9 a1 3d 6f 1e b3 be 4a e3 00 3c
       0.2549431 0.078997575 -0.34984156 0.00786669
000130 c5 c6 e1 bc 6c 43 e0 bc d8 65 2e be 18 d9 15 3e
       -0.027560601 -0.0273759 -0.17031038 0.14633596
000140 1e 9b ae be 74 a4 27 3e a2 52 1f 3e ce 14 8d 3d
       -0.3410272 0.16371328 0.15558866 0.06888734
000150 11 76 a2 3e e4 d0 e2 3c cf a7 b6 bd 28 d5 f9 3a
       0.31730703 0.027687497 -0.08918726 0.0019060718
000160 a4 3e 9e 3c c3 1b e5 bc b7 e9 1b 3c 53 f8 08 3e
       0.019316979 -0.02796734 0.009516171 0.13375978
000170 f1 c5 0a bd c0 bf f8 bd 61 30 6b bd 83 dd 10 bc
       -0.033880178 -0.121459484 -0.057419185 -0.008841875
000180 bd 87 1a 3e da 39 2b 3d 02 09 9c bd 88 7a 0b bc
       0.15090843 0.04180322 -0.076189056 -0.0085131
000190 27 f9 9b be 50 2a b9 bb 6a fb df bb 44 fa 94 be
       -0.30463526 -0.005650796 -0.006835391 -0.29097188
0001a0 43 be a4 bf 60 3e 04 3e a4 0b 4d 3d 43 34 7b 3b
       -1.2870563 0.12914419 0.05005993 0.003833071
0001b0 a8 24 e2 be 18 32 ae 3d 3d f8 99 ba 0c fb 7f be
       -0.44168591 0.085056484 -0.0011746954 -0.2499811
0001c0 65 b7 11 bc 02 c6 93 be 59 b8 06 3d cf 4a c8 3c
       -0.008893822 -0.28862005 0.03289065 0.024449734
0001d0 83 ef 81 bc 8c 2d 91 3d fb 74 3b be 41 53 dd 3e
       -0.015861278 0.070887655 -0.18306343 0.4322758
0001e0 08 4e ee 3d 36 2c 0e bf 1d 8f cf 3e b7 a2 66 bb
       0.11635977 -0.5553621 0.40538874 -0.00351922
0001f0 50 9d 99 bd d6 23 34 be a5 9f 16 3d f0 3f 40 3c
       -0.07500708 -0.17591795 0.036773343 0.011733994
000200 77 11 d6 3b 10 da 09 3e c8 67 1f bd 42 d8 b4 3e
       0.0065328437 0.1346209 -0.038917333 0.35321242
000210 07 f7 6e bd 14 7c df 3d fe c8 90 3a 83 3c e0 3c
       -0.058341052 0.10912338 0.0011046228 0.027372604
000220 8d 5e 88 3e 86 83 4c 3c 3f 3a 33 3d 72 ec 83 3d
       0.26634637 0.0124825295 0.04375672 0.06441583
000230 cd aa 40 be d7 ed 06 be b2 46 72 bf a2 86 ed 3d
       -0.18815155 -0.13176666 -0.9463912 0.11597945
000240 d6 b4 6e 3c 36 83 a2 bd 75 6a 09 bd 22 4c 8e 3e
       0.014569482 -0.07935183 -0.03354879 0.2779246
000250 55 3a 65 bd 73 ab 87 bd c0 bc 82 3b 90 b5 25 be
       -0.055963833 -0.06624498 0.003989786 -0.16182542
000260 f4 60 9b 3d 8a a9 aa 3d c9 fe fb be 70 07 9e 3a
       0.07586852 0.08333118 -0.49217823 0.001205666
000270 2f aa c8 3c 8b 5d 84 3c 97 c8 80 3e 59 55 ef be
       0.024495212 0.016157886 0.25153038 -0.46744803
000280 35 a3 ac be e8 02 a3 3c 5b e2 13 3d 17 ab 8d bc
       -0.33718267 0.019898847 0.03610454 -0.017293496
000290 1b 0e 83 3d cc ad 14 3e 8a e8 88 3d 46 87 ba 3c
       0.06399175 0.14519423 0.06684978 0.022769582
0002a0 a1 9a b2 3d 3c 2b 6e bd bc a2 d1 be 48 9b 3d 3e
       0.087208994 -0.0581467 -0.4094447 0.18516266
0002b0 91 b3 0e 3c eb 90 85 be 31 fc 17 bd 9f 7b ab be
       0.008709804 -0.26087126 -0.037105743 -0.33492753
0002c0 8c 2a 11 3d 0a 88 82 3d e3 13 cc 3d c8 11 c4 3c
       0.035440966 0.06373604 0.099647306 0.02393426
0002d0 ee ca ca be 37 31 82 3e 48 f7 15 3d 87 30 9a bb
       -0.39607948 0.25428173 0.03661278 -0.004705492
0002e0 18 57 d5 3d 85 8d c3 bb fe 95 2d bb 25 c6 c9 3c
       0.104170024 -0.005967798 -0.0026487107 0.024630615
0002f0 e5 79 2c 3d 8d 02 6d bd e1 9b 93 bd 41 82 2d bc
       0.042108435 -0.05786376 -0.07207466 -0.010590137
000300 51 08 81 bc 4c 00 aa 3d 11 e4 6f be 91 b7 15 be
       -0.015751036 0.08300838 -0.23426844 -0.14620806
000310 60 53 d0 3d 07 87 0d bf 2b 50 56 bd d0 da b6 3d
       0.101721525 -0.5528416 -0.052322548 0.08928454
000320 7d 67 a6 3d 43 c1 42 3e ea 14 e5 be 04 a8 32 3d
       0.081252076 0.19019036 -0.4474252 0.043617263
000330 8d 4a 01 3e f2 24 92 3d 9d 7e ba 3c b3 22 d4 be
       0.12626095 0.07135953 0.022765452 -0.41432723
000340 37 fa 17 3e 60 0a 74 bb 36 ad a6 bc fa aa 92 be
       0.14841543 -0.003723763 -0.020346265 -0.2864607
000350 08 74 36 3e db 43 62 3e 0d 65 5e bc b3 79 a8 3b
       0.178177 0.22096197 -0.013573897 0.005141461
000360 c7 02 77 bf 29 6e 97 3c 6a f6 da bc 26 53 5b bd
       -0.9648861 0.018485146 -0.026728828 -0.053546093
000370 cb 50 25 3d 64 a5 20 bf c5 25 86 bd f4 4b d7 bd
       0.040360253 -0.62752366 -0.06550173 -0.10512534
000380 7a f5 8b bb 5c 06 8a 3e cd 12 21 3f 24 fb a5 bc
       -0.0042712064 0.26957977 0.6291931 -0.020261355
000390 fc 99 7e bd 12 1a 84 bd 14 cc b0 bc 5f c7 c6 bc
       -0.06215857 -0.06450285 -0.021581687 -0.02426499
0003a0 5e 2e 53 be d6 cf 9e be fc a6 bc 3e 1f b8 4e 3d
       -0.20623156 -0.3101794 0.3684615 0.05046856
0003b0 83 00 87 bd 13 12 47 3e d2 c9 64 3d a3 87 ff be
       -0.065918945 0.19440489 0.055856533 -0.4990817
0003c0 b4 68 2f be 3a 6e 8a bd f1 3a 8b 3d 2a 42 92 bd
       -0.17129785 -0.06759305 0.067983516 -0.07141526
0003d0 5e 5f a2 3d 46 32 09 3d 58 f9 4c 39 17 08 f1 bd
       0.07928346 0.03349521 0.00019547844 -0.11769121
0003e0 d1 f4 1e bc 1e 1f f0 3d 8f d7 0f 3e 8d a3 dd bc
       -0.0097019235 0.11724685 0.14047073 -0.027055526
0003f0 7f f5 d7 3c db 47 48 3d c2 8a 2e 3d 81 ba 09 bc
       0.026362179 0.04889665 0.0426128 -0.008406282

mean.bias f4 [6]
000000 5d 7f f0 3e d5 c6 ab be 80 65 8f be b5 65 4b bd
       0.4697217 -0.33550134 -0.28007126 -0.049657542
000010 d5 1f 8a bd cc b3 bd be
       -0.06744353 -0.37051237

log_std.weight f4 [6, 256]
000000 15 5c 8b bd 36 63 cb 3d aa c8 cb 3d 37 d4 e6 ba
       -0.06804673 0.09931032 0.09950383 -0.0017610852
000010 dd 45 2b 3d c2 32 86 3c 8e 02 2b 3c d9 bf 82 3d
       0.041814674 0.016381625 0.010437621 0.06384248
000020 10 27 11 3d cd e3 c9 3d 9c d0 01 bd 23 fd 28 bc
       0.035437644 0.09857903 -0.031693086 -0.010314259
000030 53 32 c8 bb 84 1b a2 3c 51 b2 0e bd d9 a8 36 bd
       -0.0061095147 0.019788511 -0.034838025 -0.04459462
000040 c2 0f 26 3d de 6f da bb 01 51 e6 bc 47 a0 4c bd
       0.04054237 -0.0066661676 -0.028114798 -0.04995754
000050 a7 60 79 3e 79 ac 6e 3d 4e 57 00 3e 18 dc 32 3d
       0.24353276 0.05826995 0.12533304 0.04366693
000060 66 54 4c bc 22 db c2 bd fd f0 ab bc bb 85 3a bf
       -0.012471294 -0.095144525 -0.020988936 -0.72860307
000070 e2 14 60 bd 89 0c f3 bb 09 59 f0 3d 04 1e 9c 3d
       -0.054707415 -0.007417266 0.11735732 0.076229125
000080 a1 0a d8 3d f1 c4 52 3d eb b7 c5 3d 43 a9 d7 3d
       0.10548902 0.05145735 0.0965422 0.10530331
000090 f9 fd 77 3d 8f 2b 8b 3d 9d 78 64 3d 64 a9 c0 3d
       0.06054494 0.067954175 0.05577909 0.09407309
0000a0 63 30 07 3d 9b f9 24 bc 29 1e 04 3e cf 2f 94 3d
       0.03300513 -0.010069276 0.1290213 0.07235681
0000b0 e7 88 5b bd 61 14 61 3d a8 6a f5 3d fb 10 e3 3c
       -0.053597357 0.054951075 0.11983234 0.027718058
0000c0 98 9c a3 3c 21 e1 d5 bd d0 d4 2f 3e 15 1e d8 be
       0.01997213 -0.104433306 0.17171025 -0.4221045
0000d0 ce 46 53 3d dc a5 72 3d 91 33 44 3d 8d 16 9e bd
       0.051581196 0.059240207 0.04790074 -0.07719145
0000e0 8a c9 80 3c d7 8b 02 3d 40 84 71 3c 25 7c 06 3e
       0.015721101 0.031871643 0.0147410035 0.13133295
0000f0 97 41 45 3d 35 ef b5 3d 8d 9e 42 3e 43 a8 85 3c
       0.048158254 0.08883516 0.19005795 0.016315585
000100 d1 4f b6 3c a2 00 a1 3d 95 53 1d 3e 81 03 ea 3c
       0.022254856 0.07861449 0.15363915 0.028566124
000110 a1 61 14 3d 37 3f 91 3d 17 14 0a 3c a3 93 9f 3d
       0.03622592 0.070921354 0.008427641 0.07791831
000120 03 7a 74 3d ed a4 a2 3d 2c dc 06 bc 7e d9 34 bc
       0.059686672 0.07941613 -0.008231204 -0.011038182
000130 41 5f 30 3d a4 d6 25 bd 2f 9f 8b 3d 90 cb c8 3c
       0.04305959 -0.0404879 0.06817471 0.024511129
000140 67 63 e6 3d 82 ce ec 3d 4f 89 b9 3c 98 28 a7 bc
       0.11249428 0.11562826 0.022648482 -0.020405099
000150 fe 95 9d bd 20 a2 ee 3c 07 10 0f 3a 56 3a a3 bb
       -0.07694624 0.029130042 0.00054574054 -0.0049813194
000160 d5 79 73 3c 70 f3 9f bb b9 52 83 bc 62 40 b2 3d
       0.01486059 -0.004881315 -0.016030656 0.08703686
000170 3c 57 75 bc bf c3 ab bd fb 32 b5 3c 98 5c 06 bd
       -0.014974412 -0.08386945 0.022119036 -0.032803148
000180 6d 76 39 3d 15 66 99 bc 35 19 ba bc 8c 01 7e 3d
       0.045278955 -0.018725434 -0.022717098 0.062013194
000190 5f d0 84 3d db 15 43 bd f3 b0 f4 3c a6 47 86 3d
       0.06485056 -0.047628265 0.029869532 0.065566346
0001a0 3a 36 12 3e 8a 71 2a bd 56 bb c5 3c 39 a0 13 3d
       0.14278498 -0.041612186 0.02413718 0.036041472
0001b0 a4 6f 1c 3e 98 a2 49 3d c8 72 ba bc c4 c4 98 3d
       0.15276963 0.049227327 -0.02275981 0.07459405
0001c0 ec 5d 1c 3d 2d 82 e1 3d f9 ac e5 3c 3f e5 fb bc
       0.03817551 0.11011157 0.028036581 -0.030748961
0001d0 df 50 85 bb 3f 30 3a 3d d6 8d f9 3c 44 e4 c6 3d
       -0.0040684785 0.045456167 0.03046314 0.09711507
0001e0 48 eb 11 3d 9d 3c 1a 3a 95 9b 0c bd 89 89 c2 3c
       0.035624772 0.0005883666 -0.034328062 0.023747222
0001f0 55 66 e2 3b 7f 46 07 be ea 28 ef bc 61 17 b0 3c
       0.0069091716 -0.13210486 -0.029194314 0.021495523
000200 e6 ed 04 bc d3 80 21 3d 8a 62 ac 3b 75 45 21 3e
       -0.00811336 0.039429497 0.00526077 0.15749152
000210 e6 be ae bd e4 59 56 3d 3b 93 93 3c 60 40 f6 3c
       -0.08532505 0.05233182 0.01801454 0.030059993
000220 2e a9 8a 3d 1c 33 3e 3b 89 3b 98 3c 73 d7 39 3d
       0.0677055 0.0029022163 0.018583076 0.045371484
000230 66 e0 fe bb 49 77 55 3c 7b f3 13 3e 30 b5 13 3d
       -0.007778215 0.013028928 0.14448349 0.036061466
000240 31 76 30 bc ec d0 70 bc 0b 77 3e 3c 05 4e ce 3d
       -0.0107703665 -0.014698248 0.011625062 0.10073475
000250 16 7a 3d 3d 34 69 96 bc aa 3b 00 3d 14 e2 18 be
       0.04625901 -0.018360712 0.0313069 -0.14929992
000260 dd 4a 95 3d d5 64 cb 3b 72 30 ce 3c 9c 3d a2 bb
       0.0728967 0.0062070885 0.025169585 -0.004951192
000270 15 52 c5 3b 6b 95 ee 3c ac d1 5b 3e 67 51 a4 3d
       0.006021748 0.029123982 0.21466702 0.08023339
000280 86 20 fb 3d ec 22 ae bc 36 d5 1d 3c c9 a8 0a 3d
       0.12262063 -0.021256886 0.009633353 0.033852372
000290 8f f3 14 3d f4 05 b9 3c ef 54 d8 3c db 8c 8d bb
       0.036365088 0.022585846 0.026407687 -0.00431977
0002a0 b5 cf 84 3d 11 60 31 bb 99 d5 38 3e c6 b3 12 3e
       0.064849295 -0.0027065317 0.18050231 0.1432639
0002b0 90 e7 cb bc 3e bd d4 3d d5 f7 a9 3c ca bc f9 3d
       -0.024890691 0.103876576 0.020748058 0.12194212
0002c0 7d 22 6a 3c d8 66 f4 3b 66 1f b0 bc 37 39 24 3c
       0.014290449 0.007458549 -0.021499347 0.010023407
0002d0 1d 91 30 3e f3 95 ec b8 03 9a a8 3c b5 40 dd bc
       0.17242856 -0.00011281287 0.020581251 -0.027008394
0002e0 79 ac 5d 3d 13 10 cb 3c 33 4a 8d bd 93 92 6a 3a
       0.05411956 0.024787938 -0.06898918 0.0008948233
0002f0 a1 29 ae 3c 19 54 8b 3c e2 7a b1 3c 45 2d 80 bc
       0.021260085 0.017007874 0.02166504 -0.015646586
000300 36 34 a0 bc ab cf 26 3d ac 69 a5 3d 00 6e 74 3d
       -0.019556146 0.04072539 0.08076796 0.059675217
000310 5e b7 bf 3c d5 9d 42 be 1b 45 21 bc d2 f7 71 3d
       0.023402866 -0.1900552 -0.009843136 0.05907423
000320 d0 6b 81 3d 24 75 94 3d cd 1b 13 3e 99 e4 f7 ba
       0.06319392 0.07248905 0.14366074 -0.0018912732
000330 79 ce 31 3d 2a bd dd 3a e8 f5 0d bc 6f 09 c8 3d
       0.0434098 0.0016917337 -0.008664586 0.09767424
000340 57 fb ad 3d fe 2a b7 bc 13 ee 11 bc f3 f7 5c bd
       0.08495205 -0.022359367 -0.008906859 -0.0539474
000350 db a7 e6 3d 53 e4 6e 3d 75 29 11 bd 65 fb 79 bd
       0.11262485 0.058323216 -0.035439927 -0.061030764
000360 8d 16 c5 bc 02 ea 00 bc 88 83 2a 3d 90 12 aa bc
       -0.024058605 -0.007868292 0.041629344 -0.020760804
000370 74 50 06 3c d2 bb 7a bc 41 dc 50 bc a3 9d da 3c
       0.008197892 -0.015303569 -0.012747825 0.026686495
000380 0f f3 dd 3b 36 a9 1a 3e e5 64 13 3e 28 c3 58 bd
       0.0067733596 0.15103611 0.14393957 -0.05292049
000390 81 fd 5b 3c b9 96 64 bd 10 24 37 3d 61 c2 71 bd
       0.013427139 -0.055807803 0.044712126 -0.059023265
0003a0 4f 74 17 3d c5 8c 25 ba c8 78 21 3e 8f a0 08 3d
       0.036976155 -0.0006315227 0.1576873 0.033356246
0003b0 a6 98 3b 3d f6 8e d0 3c 95 86 39 3c 9e d7 f7 3d
       0.045799874 0.025458794 0.011323591 0.121016726
0003c0 eb 52 ab bd 45 68 3f 3c b7 d4 dd 39 24 f4 00 bc
       -0.08365425 0.011682575 0.0004231089 -0.007870708
0003d0 47 1e 45 3d 05 ff 12 3d f6 77 8e bd de 8d 58 3d
       0.048124578 0.035887737 -0.069564745 0.05286967
0003e0 af 6e c8 bc 6a 96 14 3d 26 d5 ff 3c f9 dd 93 bc
       -0.02446684 0.03627626 0.031229567 -0.01805018
0003f0 46 07 99 3c 74 c4 98 bd 93 5e fb bb a1 27 89 bc
       0.018680226 -0.074593455 -0.0076711862 -0.01674253

log_std.bias f4 [6]
000000 f9 34 d2 bf 2b f6 db bf c3 eb c3 bf 42 74 f2 bf
       -1.6422416 -1.71845 -1.5306324 -1.8941729
000010 c0 e5 ce bf f0 90 7e bf
       -1.6163864 -0.9943991
