trained_models/PushChairNormal-v1/lamour/actor_4.pt (torch, 442900 bytes, 8 tensors)

shared.0.weight f4 [256, 131]
000000 b7 86 92 bf 25 1f 4b be 52 c5 92 be 4c 7d 4b be
       -1.1447362 -0.198361 -0.28666168 -0.19872016
000010 56 a4 3c be 86 c5 bb bc d5 fa 1f be 1d d8 68 3d
       -0.18422064 -0.022921335 -0.15623029 0.056846727
000020 f2 44 25 3f 8b 3e 85 3f 62 a1 1e bf 66 47 0c 3f
       0.6455833 1.0409712 -0.61965 0.54796445
000030 3f 1c aa be 64 44 69 3c ae 0c 8b be 0e 63 af 3a
       -0.33224675 0.014237497 -0.2715811 0.0013380961
000040 6e e8 f5 be 11 68 7c bf c2 17 aa be 71 34 94 3e
       -0.48028892 -0.9859629 -0.3322125 0.2894626
000050 30 ed a7 bd 06 8d 6d 3d c7 b4 5b 3a ae 88 47 3d
       -0.08199537 0.05799582 0.0008381125 0.048714332
000060 96 55 06 3d 74 44 80 3c 72 67 b1 bd 82 b7 de 3b
       0.032796465 0.015657641 -0.08662309 0.006796778
000070 b0 df 26 3e eb 4c c7 3c 30 9a 54 bd c7 3b 19 bd
       0.16296268 0.02432867 -0.051904857 -0.037410524
000080 13 5e c6 3d 3c db a6 3c 4b 71 27 bc 18 c1 24 bd
       0.09685912 0.020368211 -0.010219882 -0.04022321
000090 d6 a1 cd bd 8c 96 15 3d c8 50 84 3e 6d d6 19 bf
       -0.100406334 0.036520526 0.2584288 -0.6009281
0000a0 82 9b 36 be 77 a6 1a bf 22 65 15 3f 02 9c 8a 3d
       -0.17832759 -0.60410255 0.5835744 0.067680374
0000b0 6f e7 aa 3f 5b 7a 99 be 6f fe 8d bf 97 7a 30 3f
       1.3351878 -0.29976162 -1.1093272 0.6893706
0000c0 2a b9 39 bf cf d8 4f c0 e3 cb e6 3f b4 f9 3a be
       -0.7254816 -3.247608 1.8030971 -0.18259317
0000d0 e3 48 be 3e 9e 10 ee be 2c 3a 0d 3d 87 ec 77 3c
       0.37164983 -0.46497053 0.034479305 0.015132076
0000e0 2a 29 a0 bc b5 40 b1 3f ca 67 5e 3f 8d 79 c9 3e
       -0.019550879 1.3847872 0.8687712 0.39350548
0000f0 c5 9e b0 bd e3 44 bc 3e 70 e9 ce be b6 71 a0 3f
       -0.08624033 0.36771306 -0.40412474 1.2534702
000100 c0 d4 d5 3e 18 4b ac 3e 89 e3 39 3d 83 19 8f bf
       0.41763878 0.33651042 0.04538301 -1.117966
000110 9f ec a2 3e 2b 1a 20 3e 61 e2 cf 3f e3 18 b5 be
       0.31821153 0.15634982 1.624096 -0.3537055
000120 7d b8 32 be 2e 01 96 be 63 15 d0 3b ca ff 5c bd
       -0.17453189 -0.29297775 0.0063502057 -0.053954877
000130 ff 45 9f 3c 60 99 58 bd fb 66 52 bd 18 0f 50 3c
       0.019442556 -0.052880645 -0.05136774 0.012698911
000140 d1 b5 c7 3c 9c 07 83 3d 81 bf 41 3d a0 89 3b bc
       0.024378689 0.06397936 0.047301773 -0.011446387
000150 28 d7 80 bd 25 98 34 3c 69 39 8e 3c 1d 0b cd 3c
       -0.06291038 0.011022602 0.01736136 0.025029713
000160 d7 9b 8c 3b d9 b1 23 bd 33 0f c8 bc 9c c0 43 3c
       0.0042910385 -0.03996453 -0.02442131 0.011947777
000170 d4 48 90 3d 43 f5 26 bd 8b b2 fe bb 52 b9 e2 bc
       0.07045141 -0.040761244 -0.007772749 -0.027676258
000180 aa 24 9e bd a5 51 31 3f d2 cc c0 bd 6f 48 49 bd
       -0.07721837 0.69265205 -0.094140664 -0.049141344
000190 10 b0 67 bd 27 51 61 bc e2 fc 9d 3d 6e f0 2e 3d
       -0.05656439 -0.013752258 0.07714249 0.04270976
0001a0 68 6f 4c bd 86 6e fa 3c f5 82 ea 3c 04 f0 15 bf
       -0.049910933 0.03057028 0.028626898 -0.5856936
0001b0 f5 44 ab bc b5 43 4b 3e 43 40 29 bf b4 e2 62 3e
       -0.020906905 0.19850047 -0.6611368 0.22156793
0001c0 3a db b9 3d bb 39 e5 be 82 3a 1d 3f f8 3c 1c be
       0.09075017 -0.44770607 0.614174 -0.15257633
0001d0 5c 40 22 bf b6 9c b6 3e 3b f1 85 be 4f dd 98 3d
       -0.63379455 0.35666436 -0.26160607 0.07464086
0001e0 f1 c3 61 bd 03 07 04 3e 7d 3d ab bc b9 4e 05 bb
       -0.055118505 0.128933 -0.020903343 -0.0020341112
0001f0 7a 18 b9 bd db ab 1f 3c 89 58 67 bc 37 09 de 3d
       -0.09037872 0.009745563 -0.0141202295 0.10841601
000200 47 35 0d 3d 8f e8 2e be f5 d8 b0 bd eb a6 4f 3c
       0.034474637 -0.17080902 -0.08635131 0.012674074
000210 0e ff 09 3f ec c0 13 be e2 55 55 be 09 7b 82 3d
       0.5390481 -0.14429063 -0.20833543 0.06371123
000220 18 3a c0 3d b7 ec 2e 3e 50 ca a6 3e a6 d9 a6 be
       0.093860805 0.17082487 0.32576227 -0.32587928
000230 24 80 ec be 51 64 f7 be af da d4 3e 82 aa 5a bd
       -0.46191514 -0.48318723 0.41573092 -0.053385265
000240 45 c6 1d be ec 03 e1 bd ec b6 c9 3d d0 96 4d 3e
       -0.15407665 -0.10987076 0.09849343 0.20077062
000250 68 9f f1 be 6c e2 95 bf 0a 43 d4 3e 46 47 3d 3d
       -0.4719193 -1.1709723 0.41457397 0.04621055
000260 58 aa ae bd 86 17 20 3d bb 3c 7b ba bb 71 7d bb
       -0.08528584 0.039084934 -0.00095839397 -0.0038672525
000270 7f 82 b8 bc 6e 2e 3f bd ce 84 05 3e 48 5f d3 bd
       -0.022523163 -0.04667514 0.13038942 -0.10320908
000280 16 ff a5 3d c0 4b f2 bc 04 39 10 bc cc 46 e4 3d
       0.081052944 -0.029577136 -0.008802656 0.11146316
000290 d8 1e 26 3c e1 eb 4a 3b a8 35 14 3d 4c af ae bc
       0.01013919 0.0030963349 0.036183983 -0.021323822
0002a0 81 1f 10 be 43 9b 30 bf c3 46 5f 3f 52 a0 9a 3d
       -0.14074518 -0.6898691 0.8721735 0.0755011
0002b0 78 e1 38 3d 9f c2 9e 3c 1b ce 0e be fe 25 1a c0
       0.0451369 0.019379912 -0.1394581 -2.4085689
0002c0 18 1c bc 3e 63 9a 39 be f2 f1 86 be 9c d2 ae 3f
       0.36740184 -0.181253 -0.26356465 1.3658023
0002d0 1f 7e 90 bf f8 4d ef 3e 28 fd 2b 3e ca 71 c2 bd
       -1.1288489 0.46739173 0.1679579 -0.0949436
0002e0 33 4f 1d 3e 1f af 83 bd 5f 09 85 3e 61 0d a5 ba
       0.15362243 -0.06429886 0.25983712 -0.0012592488
0002f0 20 1e 24 bf d6 83 35 bf ad 49 15 3f c1 68 a1 be
       -0.6410847 -0.7090429 0.58315545 -0.31525233
000300 4e b3 17 3f fc 53 26 bf c8 db ca 3e ba 32 2c 3f
       0.5925797 -0.649719 0.39620805 0.672649
000310 53 ed 12 3f dc bc 05 bf 2f a5 ab 3e 02 4f 07 3f
       0.5739338 -0.522413 0.33524463 0.5285493
000320 81 43 98 3e bc cb a7 be 10 33 28 bf 3d cc 35 bf
       0.29739 -0.32772624 -0.65702915 -0.7101477
000330 2e db 4c bf 88 e6 a1 bd 94 84 8c 3d 62 dd 20 3d
       -0.8002194 -0.079052985 0.06861225 0.039273627
000340 ea 87 83 bd df 61 92 3d dc da a7 3c 2c ed 85 bc
       -0.06422408 0.07147574 0.020490102 -0.016348444
000350 66 b5 93 3d a2 27 96 3c c6 94 89 ba 49 fe d6 bc
       0.072123334 0.018329445 -0.0010496608 -0.0262443
000360 2e 64 77 3b 52 a2 0e bc bf 17 16 bd e4 d0 4c 3c
       0.003774892 -0.008705692 -0.03664374 0.012500975
000370 85 ce 0b bd bf ff 59 3d af ce 34 3b 76 07 58 bc
       -0.0341325 0.053222414 0.0027589013 -0.013185373
000380 79 c5 82 bd 22 65 5a 3b d5 25 1c bd de cb 7f 3d
       -0.06385321 0.003332444 -0.038122017 0.062450282
000390 b2 ab b7 3e 64 d2 96 bd 34 68 2b 3d b4 74 87 3b
       0.3587318 -0.073643476 0.041847423 0.004133785
0003a0 fc d3 9d bd ad fc 63 3d 7f 05 03 bb ad bf 8c bd
       -0.077064484 0.055660892 -0.001999229 -0.06872497
0003b0 0d 77 00 bc a8 2d 0a bd 96 6f d6 3e 5e e8 4e be
       -0.007840884 -0.033734947 0.41882008 -0.20205829
0003c0 58 34 bd 3e 07 0b d0 3e 6b ff db bc fd 2f 94 3e
       0.36953998 0.40633413 -0.026855191 0.28942862
0003d0 16 58 f5 3d 42 a8 a9 be 00 c4 6f bb a6 24 5d 3e
       0.11979692 -0.33136183 -0.003658533 0.21596012
0003e0 4a 22 a1 bd 84 3a 69 3d f2 c4 c0 bd 56 f7 dc 3d
       -0.07867868 0.05694057 -0.09412564 0.10789363
0003f0 90 70 bc 3d 41 0c a0 bd 0b 41 eb bd d1 0e 11 3d
       0.09201157 -0.07814837 -0.11487015 0.03541452

shared.0.bias f4 [256]
000000 ed 45 cb be 9f 47 15 bf 3f b0 a1 be ff 39 90 3d
       -0.39701787 -0.5831241 -0.31579778 0.07042312
000010 48 d0 18 bf 92 5b 3a bc df b4 9b be 54 eb 8f be
       -0.5969281 -0.011374371 -0.3041143 -0.2810923
000020 c5 b8 3b 3f 48 dc e0 be 45 24 df be e4 7a bf bb
       0.7332881 -0.4391806 -0.4358236 -0.005843507
000030 f4 ec a5 be 65 a8 57 be 78 ec 83 be e9 42 d1 be
       -0.32407343 -0.21060331 -0.2576635 -0.4087136
000040 7e 70 40 bf 82 b9 d9 be 69 50 6b be d6 75 0f bf
       -0.7517165 -0.42524344 -0.22979893 -0.5603918
000050 7a 27 49 be 99 b1 12 be 39 ac 32 be d9 68 4b be
       -0.19643965 -0.1432556 -0.1744851 -0.19864215
000060 55 0f 08 3e 1c 9a ba 3e 78 1d 55 be 4e 63 0a bf
       0.13287099 0.364457 -0.20812023 -0.54057777
000070 1b 86 a2 be a4 9a da be 15 49 47 bf 61 84 73 be
       -0.3174294 -0.42696106 -0.7784589 -0.23780967
000080 95 d3 57 be 61 22 d4 be 07 34 52 bf b8 90 52 3d
       -0.21076806 -0.4143248 -0.8211064 0.051407546
000090 2c 1a b9 3e 5f 3b 6a bd 20 20 ad be 81 62 6e 3d
       0.3615278 -0.057185527 -0.33813572 0.05819941
0000a0 86 ed e9 be 09 7c a3 3d 83 09 08 be 1b e6 bb bd
       -0.45689029 0.07982642 -0.13284878 -0.091747485
0000b0 a9 0b 07 bf 05 08 1a bf fc e5 bf 3e 34 d1 c1 bd
       -0.52752167 -0.60168487 0.37480152 -0.094637305
0000c0 b5 69 a9 be 8d 5c 27 bf 29 1d 0e bf 5f c0 df be
       -0.3308846 -0.65375596 -0.55513245 -0.43701455
0000d0 bb 58 75 be 81 6c fe be 73 4b 4c bf a8 cb f8 be
       -0.23959629 -0.49692157 -0.79802626 -0.48592877
0000e0 d6 6d 1a bf e5 ce 22 bd 04 46 81 3e 91 84 0a bf
       -0.60323846 -0.03974809 0.2524873 -0.5410853
0000f0 b3 84 f2 be 1d 12 5d 3c b0 65 18 be 7e 94 07 bf
       -0.47366866 0.013493088 -0.1488254 -0.52960956
000100 cd fa ea be 97 0e 89 be 86 3a 04 bd 9f 6a cf be
       -0.4589447 -0.26768944 -0.032282375 -0.40511033
000110 35 83 ea bc f9 39 cd be 5e 2b a6 be 6b 9a c7 3c
       -0.028627018 -0.40083292 -0.32454962 0.024365624
000120 55 93 1c be 63 58 3e bf 4b 6e d5 be ab 7f 94 be
       -0.15290578 -0.7435362 -0.4168571 -0.29003653
000130 45 01 9f bd 29 14 9e be fb 8c b1 be b8 82 9d be
       -0.07763914 -0.30874756 -0.34677872 -0.30763793
000140 07 99 f0 be 39 c7 23 bf d0 cf 71 bd 99 c4 b2 be
       -0.4699175 -0.63975865 -0.059036076 -0.34915617
000150 05 58 36 bf 07 15 d9 be 08 dd 81 bd e6 70 42 3e
       -0.7122806 -0.42398855 -0.063409865 0.1898838
000160 d2 47 e2 be 88 74 41 bf 5e 7d 43 bf 02 d5 51 3e
       -0.4419542 -0.7556844 -0.7636317 0.20491412
000170 4d 3d 07 bf 3e 9b 57 be 85 38 8b be 79 19 8b be
       -0.5282791 -0.21055314 -0.27191558 -0.27167872
000180 c5 96 03 bf f6 5d 32 bf f5 88 a2 bd 09 d2 af 3e
       -0.5140193 -0.69674623 -0.07936279 0.34339932
000190 02 de 14 be b5 39 3b be 4a b6 49 bf 5e c4 04 bf
       -0.14537814 -0.18283732 -0.78793776 -0.5186213
0001a0 d1 0f fc be 7e 2e 2a bf 48 9b 47 3e 29 5e 96 be
       -0.49230817 -0.6647719 0.19492829 -0.29368713
0001b0 3b 36 3d be 80 f6 34 bf 31 d0 66 be 79 c7 40 bf
       -0.18477719 -0.7068863 -0.22540356 -0.7530437
0001c0 ec b5 bf be 6f 2d 1b bf 8f 8b 55 bf dc be e3 bd
       -0.37443483 -0.606162 -0.83416075 -0.11120388
0001d0 75 85 99 3e f5 f9 2d bf 54 99 2a be f9 cf 91 be
       0.29984632 -0.6795953 -0.16660053 -0.28478983
0001e0 3f 29 a7 bd e7 50 03 be 44 37 f0 be 6e 09 86 be
       -0.08162164 -0.1282383 -0.46917164 -0.2617907
0001f0 e4 40 9e be a4 93 cf bd 7c 34 22 bc bd c9 f2 be
       -0.30908883 -0.10135582 -0.009900209 -0.4741954
000200 6a 98 ad bd 4a 1a 59 3c 54 4a d2 be 71 19 1d bf
       -0.08476336 0.013250897 -0.41072333 -0.61366946
000210 94 32 ad be fd 20 9e be 3f b7 9a be 2c ad 3f 3c
       -0.3382765 -0.30884543 -0.3021793 0.011699002
000220 cd 26 a9 be 01 96 a8 be b2 b8 dd be e5 0d ea be
       -0.33037415 -0.32926944 -0.43304974 -0.45713726
000230 17 02 48 be 95 90 e3 bd df 6c ce be d2 aa f9 bd
       -0.19532047 -0.11111561 -0.40317437 -0.121907845
000240 93 8a b1 be 23 4d ab be 27 02 bc bd 5f f7 b3 be
       -0.34676036 -0.33457288 -0.09180098 -0.35149667
000250 0f de 8f 3e f8 87 e8 be 0d 44 c5 3d 03 a9 aa be
       0.28099105 -0.45416236 0.0963212 -0.3333207
000260 9b b1 9e be 96 e8 35 3b 7d 12 02 bc 51 72 fc be
       -0.30994877 0.002775704 -0.007938978 -0.49305966
000270 24 e8 b4 be 2b 1c 5d bd d9 64 e1 be 2d 5f 85 be
       -0.3533336 -0.05398194 -0.44022253 -0.26049176
000280 02 65 80 be 26 ef 95 bc 51 c2 1c bf b4 ff f1 be
       -0.25077063 -0.018302511 -0.61234003 -0.47265399
000290 37 f4 0a bf 62 bc d5 be 81 92 19 bf 20 66 c1 be
       -0.5427889 -0.41745287 -0.5998917 -0.37773228
0002a0 a8 90 ee be 1c fb 6b bd da 4d 12 be 62 d7 01 bf
       -0.4659474 -0.057612523 -0.1428751 -0.50719273
0002b0 bb 88 ba be 26 cc b6 be 08 06 63 be 3f 5c 1b bf
       -0.36432442 -0.35702628 -0.2217027 -0.6068763
0002c0 c6 0d f1 be 89 31 05 bf ef a1 13 bf d4 5f 22 3e
       -0.4708082 -0.5202871 -0.57668966 0.15856868
0002d0 37 69 71 3d ae 2d 33 bf 54 12 55 be ab da d3 be
       0.05893823 -0.69991577 -0.20807773 -0.41377768
0002e0 a6 69 f7 be b0 eb cf bd f4 c8 e2 bd bf 32 c4 bc
       -0.4832279 -0.10152376 -0.11073485 -0.023949979
0002f0 fe c5 91 3e c4 f1 42 bf 04 8d 36 bf 46 cc 67 bf
       0.2847137 -0.76150155 -0.7130892 -0.9054607
000300 48 32 93 be 21 e7 9c bd 86 ff 74 be 01 cd bb be
       -0.287493 -0.07661272 -0.239256 -0.36679843
000310 2a 9d ac be 0c 07 ff be f7 dd 03 bf 76 3a c6 be
       -0.33713657 -0.49810064 -0.51510566 -0.38716477
000320 fa c4 1c be f7 21 15 bf a0 49 50 be 92 ad cb be
       -0.15309516 -0.5825495 -0.20340586 -0.3978086
000330 98 58 49 bf 4a 4a b9 be 2d a2 c6 bc 1e 46 4c 3a
       -0.7865081 -0.3618949 -0.024247253 0.00077924307
000340 b5 97 fc be ac 78 b2 be 08 54 f5 3d 5a 64 db be
       -0.49334493 -0.3485769 0.11978918 -0.4285
000350 82 12 db bc 71 f7 ab 3d 1e 5e 0c bf b0 49 b1 be
       -0.026742224 0.08396805 -0.5483111 -0.34626532
000360 45 11 4e be bc 0d 09 bf 32 90 2b bf 64 33 b8 be
       -0.20123775 -0.5353658 -0.670169 -0.35976708
000370 09 75 08 bf 19 55 f1 be 09 3f 31 bf fd 7e 44 bf
       -0.5330358 -0.47135237 -0.6923681 -0.7675627
000380 57 bd 7c be 38 33 fc be df 1a b8 be c4 64 ee be
       -0.24681602 -0.49257827 -0.35958 -0.46561253
000390 86 f9 2e 3d 29 16 2e bf 89 c2 4e be 4e e6 93 be
       0.042718433 -0.68002564 -0.20191397 -0.28886646
0003a0 4a f6 1e 3e a4 2c 8d be 79 6a fc bd 16 91 fd be
       0.1552364 -0.2757312 -0.123249955 -0.49524754
0003b0 a0 ba 06 bf 9d 02 81 3e 53 15 f2 bd 3b 3d a1 3e
       -0.5262852 0.25197306 -0.118204735 0.31492028
0003c0 0b d3 86 be 41 12 5c be 48 f3 3b be d1 e2 05 bf
       -0.26332888 -0.21491338 -0.18354523 -0.5229922
0003d0 a0 90 65 bd f5 6b b1 be 44 9e db be 81 71 4b bc
       -0.05604613 -0.34652677 -0.42894185 -0.012417198
0003e0 08 15 ec be 6a 5f ee be fc 79 9a be 78 8b cf be
       -0.46109796 -0.4655717 -0.30171192 -0.40536094
0003f0 69 08 c3 3e f9 52 de be a2 af 1c bf 13 6b 4b bf
       0.38092354 -0.43422678 -0.61205494 -0.7946026

shared.3.weight f4 [256, 256]
000000 2b 81 1f bf 92 9a 20 3e 45 b8 b0 ba 02 6f 39 be
       -0.6230647 0.15683964 -0.0013482651 -0.18108752
000010 d3 11 c3 be 68 46 fb be 36 23 78 3e 61 3f 0a be
       -0.38099536 -0.49077153 0.24232182 -0.1350074
000020 7b 99 cd bd e8 1c eb be ef 44 4e be c3 54 f4 bd
       -0.1003904 -0.4592049 -0.20143484 -0.119302295
000030 1b 08 fa be 81 ef 02 bd b0 1b 3e 3e 7b 27 2a c0
       -0.4883431 -0.03196669 0.1856525 -2.6586597
000040 71 14 6b bc a5 c6 c0 be 11 5e 57 3d 4e cd 2a be
       -0.014348135 -0.37651554 0.052579943 -0.1667988
000050 fc 69 01 3d ca ea 82 bd fc 5e b0 bc 96 0c eb bd
       0.031595215 -0.06392439 -0.021529667 -0.1147701
000060 af c7 e4 bd 6d a8 02 3e ff 27 a8 be a2 fe 2e be
       -0.11170899 0.12759562 -0.32843015 -0.17089322
000070 f3 4e e0 3e 08 d4 81 3e e9 57 20 3e b7 5d cf bd
       0.43810233 0.2535708 0.15658535 -0.101252966
000080 8c 58 bf be ac 63 18 3c 96 8e f9 3c e5 0c b7 be
       -0.37372243 0.009301107 0.030463498 -0.35752025
000090 b9 e8 0d 3c 13 3e b1 be 31 6c 36 bf 35 c5 e5 be
       0.008661442 -0.3461767 -0.71258837 -0.4487702
0000a0 a1 5b 36 3e ba 96 65 bc a4 a2 b4 bd cb 55 b7 bc
       0.17808391 -0.014012987 -0.08820084 -0.022379776
0000b0 93 80 6c be d6 2e a1 3d 2b ec 51 be 88 40 49 3e
       -0.23095922 0.07870261 -0.20500247 0.19653523
0000c0 c6 81 5c bc 71 0f 38 bf 91 a9 15 3e 9e 75 6e 3d
       -0.013458675 -0.7189856 0.14615466 0.058217637
0000d0 79 6a 5a bf a0 bf 80 3d 2a 70 80 bd 4c da 62 3f
       -0.85318714 0.062865496 -0.062713936 0.88614345
0000e0 e4 9a 0b be da bf 66 bd 6b f1 1f 3d 00 9c 2c bf
       -0.13633305 -0.056335308 0.039048593 -0.6742554
0000f0 e7 b8 2a 3d 8d 19 0c 3e c6 2c a3 3d 26 15 5d bf
       0.041680243 0.13681622 0.07967524 -0.86360395
000100 a2 52 6a bd 87 96 09 be f7 39 e7 3d bd e1 60 be
       -0.05720771 -0.13436328 0.11290353 -0.21961112
000110 27 9d 31 be e7 2b 92 3d 5b b9 b2 3d d2 c5 ac be
       -0.17345105 0.0713728 0.0872676 -0.33744675
000120 41 19 01 3f c6 ed dd bf 0c 7f fa 3c a9 3c 60 3e
       0.5042916 -1.7338188 0.030578159 0.2189814
000130 79 f9 26 be 59 4b 44 bd 80 4b 3e be ed 22 2e bf
       -0.16306104 -0.04792342 -0.18583488 -0.6802204
000140 6c 30 50 3e c3 53 c1 3d 37 11 1c be f0 67 00 be
       0.20330971 0.094398044 -0.15240942 -0.12539649
000150 54 e0 f3 3d 81 c2 aa bc ee ea 9d be 03 e8 19 3d
       0.119080216 -0.0208447 -0.308433 0.03757478
000160 1b 5e 7d 3d 7d 88 05 3e 2f e5 35 bf bf 57 6e bc
       0.061857324 0.13040347 -0.7105283 -0.0145472875
000170 f7 62 5c 3e 95 2e 92 bd 72 63 b6 bd af 51 59 be
       0.21522127 -0.07137791 -0.089056864 -0.21222566
000180 8d 79 9e bc d3 33 98 bf 72 20 49 bd 2d 3b 03 3e
       -0.01934507 -1.1890815 -0.049103208 0.12815543
000190 7b 29 18 bd de eb 01 be 30 d3 ce be 94 45 60 be
       -0.037148934 -0.12687632 -0.40395498 -0.21901542
0001a0 5b f3 7c bd 0e b7 a6 3d b1 4b 43 bd a7 2a c6 bb
       -0.06175552 0.08140384 -0.047679607 -0.006047565
0001b0 03 f5 7d bd 48 ff 18 bf bd 86 09 c0 3c bb a1 bc
       -0.06200124 -0.5976453 -2.1488488 -0.0197426
0001c0 f8 55 d9 bd 64 e2 1d 3c 05 30 d0 be 3d fd 42 be
       -0.106121 0.009636495 -0.40661636 -0.19041915
0001d0 06 0c 60 3e 40 74 1b 3e 3e 78 07 3d 9e a7 ce bd
       0.21879587 0.15181065 0.033073656 -0.10090564
0001e0 cf e9 05 3f 06 3f 2f be 91 9b 68 bd 88 45 6a 3c
       0.5230989 -0.17113885 -0.056788985 0.014298804
0001f0 dd 0a 81 3d 62 55 b1 be 95 0f 74 3e 45 b8 60 be
       0.063009 -0.34635454 0.23834069 -0.21945293
000200 36 a4 c2 3c b5 29 4b be 77 ad ab 3d 3f 1b 19 be
       0.023759943 -0.19840129 0.08382695 -0.149518
000210 ad 09 8f be 01 5f 68 be 35 dd ea be 97 99 31 3e
       -0.2793707 -0.22692491 -0.45871893 0.17343746
000220 dc 14 e5 3d fe 8f 85 3e 42 ed 3c 3e 93 81 9b bc
       0.11185619 0.2608642 0.18449882 -0.018982684
000230 ba 40 bf 3d fa db 50 3e ce 06 33 bd ef 01 02 3d
       0.093385175 0.20396414 -0.04370766 0.031740125
000240 43 1b 07 bc 04 2c 9a bd fb 9b ef be e8 c3 4c bd
       -0.008246246 -0.075279266 -0.4679869 -0.04999152
000250 59 39 72 be f4 1d 26 bf fd ec 2c 3e df fa 26 3d
       -0.23654689 -0.64889455 0.16887279 0.040766593
000260 64 6b ad 3d 45 60 ed 3c 4b 88 9c bc 1e e3 07 c0
       0.08467749 0.028976569 -0.019107958 -2.1232371
000270 dc 13 47 3d 2e 80 65 be 77 5b 91 3e 61 c0 d5 be
       0.048602924 -0.22412178 0.28390095 -0.41748336
000280 19 11 d9 3d ae 3c 4c bd 77 bb 68 bd fa 09 1a be
       0.10598964 -0.049862556 -0.056819405 -0.15042868
000290 44 21 a9 3e 9f f6 75 bd 33 a1 a9 bd 2f 97 93 be
       0.33033192 -0.06004965 -0.082826994 -0.2882628
0002a0 f2 3b 96 3d b6 1a 01 3c 25 55 05 bf 68 02 75 be
       0.073356524 0.007879904 -0.52083045 -0.23926699
0002b0 f8 dd bf 3e bc 54 9b be fa 65 9e 3d f8 7c 08 3d
       0.37474036 -0.30338085 0.07734294 0.033322304
0002c0 86 92 0f be 5c 9d 43 3e 94 1d a4 3e 34 b6 80 3e
       -0.14020738 0.19102997 0.32053816 0.2513901
0002d0 d9 8f d7 bd 86 06 2e bd e1 67 95 3b 28 78 f3 3d
       -0.10525484 -0.04248669 0.0045595025 0.11888152
0002e0 1c 07 c3 be 7d c6 0a 3e 83 82 40 bc 71 fa af 3e
       -0.38091362 0.1355228 -0.011749866 0.3437076
0002f0 5a c6 5c bd b8 40 81 3e 78 99 e8 3d 46 c9 80 3a
       -0.0539001 0.2524469 0.11357397 0.0009825609
000300 3b 7b 18 3e a3 19 51 be ca 85 d2 bd 48 c3 1a 3b
       0.14890759 -0.20419936 -0.102794245 0.0023614932
000310 a3 dc 95 bd 23 26 8b 3e 47 a2 b8 3e 2c 0c 91 3e
       -0.07317474 0.27177534 0.36061308 0.283296
000320 f0 73 41 3d df d2 9d 3e c7 d8 37 bc 89 aa 9d bd
       0.047229707 0.30824944 -0.011221117 -0.076985426
000330 46 c8 4c 3d 38 31 9e bc 90 60 c7 bd ab 97 11 3e
       0.049995683 -0.019310579 -0.09735215 0.14218013
000340 f3 c4 9b 3e f6 9e 4a 3d c7 ff 37 bf 0c 59 91 bd
       0.30423698 0.049468003 -0.7187466 -0.070970625
000350 f7 07 a9 bd 74 6f 8a 3e b2 dc 12 3e 63 07 ed bd
       -0.08253472 0.27038157 0.14342001 -0.115736745
000360 3b 00 fc 3d 9b ad e9 bd 10 8f 54 3c 58 fd a8 3e
       0.123047315 -0.11410066 0.012973562 0.33005786
000370 ed 25 20 3e 79 78 83 bb 7a 87 5f be 92 8a 18 bd
       0.15639468 -0.004012164 -0.21829024 -0.037241526
000380 03 98 aa bd a9 58 ff 3c 4a f2 c5 3e c4 a4 39 bc
       -0.08329775 0.031170206 0.38661414 -0.011330787
000390 25 c2 df 3d 88 93 ff bf df e2 7d be ad 0c ce bd
       0.10925702 -1.9966898 -0.24793576 -0.100610115
0003a0 65 c8 d3 be fa c9 84 be a5 dd 06 be 2d ac 96 3d
       -0.41363826 -0.25935346 -0.13170488 0.07357059
0003b0 a1 ef 9b 3e 4f 62 cb be 39 5b 95 bc 63 16 ac 3d
       0.3045626 -0.3972344 -0.018231975 0.084027074
0003c0 e0 bc 77 be e3 44 48 be 9f e8 08 3e d5 52 86 bd
       -0.24193144 -0.19557528 0.13369988 -0.06558768
0003d0 f6 59 97 bd c7 1a f6 3d bb 68 23 3e db c0 96 be
       -0.073902056 0.12016826 0.1595792 -0.29444012
0003e0 28 36 ee bc 2a c6 00 3f fd 72 b0 bd 7f ae ec 3e
       -0.029078558 0.50302374 -0.08615682 0.4622688
0003f0 dd d0 96 bd 8f 3e 32 bd 69 71 ba bf c9 3f b1 bc
       -0.07364056 -0.04351669 -1.456586 -0.02163686

shared.3.bias f4 [256]
000000 06 6f 43 3f 22 1f bc be 66 b7 90 3e de a4 c6 3f
       0.76341283 -0.36742502 0.28264922 1.5519063
000010 4a c6 06 3c 98 1a da be 1d b0 9d 3f d5 57 e5 3c
       0.008225987 -0.42598414 1.231937 0.027995983
000020 50 02 48 3f 43 1d 84 3f f5 ff a3 3e a6 7f 65 3e
       0.7812853 1.032143 0.32031217 0.22411975
000030 8a ee e7 3f 6b 0f 35 3e 41 8f 07 c0 92 41 ba 3c
       1.8119671 0.17681663 -2.1181185 0.022736344
000040 36 6a e8 3e 4c d5 18 be d7 ab 6b be f6 c5 8c 3f
       0.45393533 -0.14925116 -0.2301477 1.0997913
000050 77 fb 80 3f 5c a0 58 bf a5 57 5a 3f b9 cc 99 bf
       1.0076741 -0.8461969 0.85289985 -1.2015601
000060 b0 ed 69 3f 0e d9 ec 3e db 46 8f 3f d4 46 49 3f
       0.9137831 0.4625935 1.1193498 0.786237
000070 86 83 ca 3f 3f 0e a9 3f a7 33 4a be 4f d7 8d 3f
       1.5821388 1.3207473 -0.19746266 1.1081332
000080 63 53 23 3f fe 1e f5 3e 4f c5 c9 3f 2a 29 81 3f
       0.63799113 0.47875208 1.5763339 1.0090687
000090 7b 90 a7 3f 6e 37 09 bf e9 e6 1f 3f fc e3 68 bf
       1.3090967 -0.53600204 0.62461716 -0.90972877
0000a0 1e 20 04 3f 99 54 4d bf 29 23 65 3a ac f7 f8 bf
       0.51611507 -0.8020721 0.0008740896 -1.9450583
0000b0 e6 0f 87 be f0 17 11 3f a8 cc 5a bf 1c ef ae 3f
       -0.26379317 0.5667715 -0.8546853 1.366672
0000c0 45 c5 4c be 4d 6b 57 3f 06 9b e0 3e 17 4e 9c 3f
       -0.19997127 0.84148103 0.43868273 1.2211331
0000d0 83 1c b2 3e 60 16 98 3f b7 8d e8 3e 2e 49 9c bf
       0.34787378 1.1881828 0.4542062 -1.2209833
0000e0 0f bc ad bc 8f 5e 9b bf 5a fa 53 3f 4c 35 25 c0
       -0.021207837 -1.2138232 0.8280388 -2.581378
0000f0 9b 2a 12 3f 8b a4 8f 3f 6d cc 91 3f 38 e6 18 3f
       0.5709626 1.122209 1.1390511 0.59726286
000100 1a 29 1f 3f 9e ae 13 c0 de 84 18 bd a2 23 dd 3f
       0.6217209 -2.3075328 -0.037236087 1.7276499
000110 06 a6 f7 3e 3e 43 d8 be ff 67 24 3f 95 5a 7b 3f
       0.48368853 -0.42238802 0.64221185 0.9818509
000120 49 8f 78 3f 85 cb ee bf 8f 33 c1 bf 6f 7b 18 3f
       0.97093636 -1.8655859 -1.509386 0.59563345
000130 16 b4 c2 be 2f 73 e4 3e cd 0d aa bf 6b d5 9e 3f
       -0.3802802 0.44619128 -1.3285462 1.240888
000140 e1 e2 c2 3f ab 85 18 3e 30 39 89 3e 37 04 10 c0
       1.5225488 0.1489474 0.26801443 -2.2502573
000150 10 49 51 3e 39 6c 4a 3f c4 61 89 bf 59 ab 3d bc
       0.20438027 0.79071385 -1.0732961 -0.011576497
000160 11 8a c7 3e 78 74 e4 3d 9f fd 6a 3f 58 f1 d4 3f
       0.38972524 0.11155027 0.91793245 1.6636152
000170 a5 35 38 3f 5c ef ce bf 08 34 e7 3e e3 c2 8e 3e
       0.71956855 -1.6166797 0.45156884 0.27883062
000180 eb ed 09 bf 47 87 05 3e ff fc 65 3e 37 c6 08 c0
       -0.5387866 0.13039885 0.22459792 -2.137098
000190 5f 45 fd 3e 5d 3f 89 3e bb a2 29 3f 81 ee 0e c0
       0.49466988 0.26806155 0.6626393 -2.2333071
0001a0 c2 37 29 bf 92 fb c6 bd 26 97 0b c0 47 ec 41 3f
       -0.66100705 -0.09715952 -2.1811004 0.75751156
0001b0 e5 10 06 c0 9a 1f 00 c0 2c b1 75 3f 34 c7 b8 3f
       -2.0947812 -2.0019288 0.9597347 1.4435792
0001c0 99 4c 59 3f e2 65 31 bf b8 35 f1 bc f0 2d 63 3e
       0.84882504 -0.69296086 -0.02944456 0.22185493
0001d0 93 28 2f 3f d6 94 50 bf 1a bc 7e 3f a6 e1 8e 3f
       0.68421286 -0.81477106 0.9950577 1.1162612
0001e0 8e 48 43 3f b7 ad 96 3f 14 eb 3c 3f 0b 72 39 3f
       0.76282585 1.1771764 0.737962 0.7243964
0001f0 25 8d ed 3e 5e 0c 1f be 7d 13 6c 3f 40 c0 b2 3f
       0.46396747 -0.15532061 0.92217237 1.396492
000200 34 45 91 bf f2 3c 8d 3f c0 f4 07 be 45 ad c6 3e
       -1.1349244 1.1034224 -0.13276958 0.3880407
000210 d3 b8 06 3e eb c4 13 be 33 ea 18 3f 33 63 88 3f
       0.13156442 -0.14430587 0.5973236 1.0655273
000220 5a 34 25 3f f7 ba 81 3f 9d db 10 c0 c5 2f 3e be
       0.6453301 1.0135182 -2.2634041 -0.1857291
000230 6b 6e 15 3f 32 13 9b bc e0 f0 5e 3f 5e e6 44 3f
       0.5837161 -0.018930051 0.87086296 0.7691401
000240 9d ac ed be 78 5c 55 c0 e2 da 08 3f 04 a0 b1 bf
       -0.46420756 -3.3337688 0.5345899 -1.3876958
000250 fa 18 88 be 51 0b 19 c0 e2 6d 00 be c0 c3 81 3f
       -0.26581556 -2.3913157 -0.12541917 1.0137863
000260 05 31 7d 3f 0e 54 5a bf 21 f9 55 bf 1e f1 d9 3e
       0.9890292 -0.8528451 -0.83583266 0.4256677
000270 e4 58 98 be ed a0 81 3f 5b ec 00 3f 4e ef 0a c0
       -0.29755318 1.0127236 0.5036065 -2.170856
000280 fc 95 94 3f d3 88 7b bf 71 f0 a5 3e 2e ba 47 bf
       1.1608272 -0.9825565 0.32410005 -0.7801846
000290 80 dd a6 3f 3d a6 43 bd 99 c0 bc 3e b3 55 1a bd
       1.3036346 -0.04776596 0.3686569 -0.037679385
0002a0 66 66 c0 bf 11 0a f7 be 1b 28 bb bf 4c 65 9a be
       -1.503125 -0.48249868 -1.4621614 -0.30155408
0002b0 ae b3 a0 bf 76 94 ba 3f a1 b0 87 3f 2a f4 7a 3f
       -1.2554834 1.4576557 1.0600778 0.98028815
0002c0 ea 13 d5 3e b0 3c 65 3f 13 b2 65 3f a4 05 c9 3f
       0.41616756 0.89545727 0.89724845 1.5704846
0002d0 40 40 58 bf 86 ba 16 be b8 6d f3 3e af 4f 0b c0
       -0.8447304 -0.1471959 0.47544646 -2.1767385
0002e0 72 94 79 3f 17 93 a3 3f 4c 06 de be 3b 23 6e 3f
       0.97492135 1.2779263 -0.4336418 0.9302251
0002f0 c5 67 3a 3f d7 57 fe 3e 75 0f 65 be b3 5d 63 3f
       0.7281459 0.4967639 -0.22369178 0.8881485
000300 d3 3c 11 c0 4e d5 aa 3f f0 21 c8 3f d7 e7 06 c0
       -2.2693374 1.3346345 1.5635357 -2.1079004
000310 31 77 01 c0 59 8a 62 3e 67 f0 1b 3f fc 50 56 bf
       -2.0228999 0.22123088 0.609137 -0.8371732
000320 86 0b 86 bf 86 fa 80 3d 41 21 6e bf 31 59 31 3f
       -1.0472267 0.062977836 -0.9301949 0.6927672
000330 16 7e fc bf a3 07 26 bf 5a 6e 95 3f f7 2e de be
       -1.9725978 -0.648554 1.1674302 -0.43395206
000340 6e 0c 0d 3e 9f 65 bf bd 5f 5f 0a c0 9d a6 b7 bf
       0.13774273 -0.093455546 -2.162071 -1.4347721
000350 32 33 b7 bf 4d cf 9e be 15 97 60 3f 78 d0 a1 3e
       -1.4312499 -0.31017533 0.8773053 0.31604362
000360 8e 85 e2 be 99 92 19 3f c1 6e 93 bf 27 ad 01 bf
       -0.4424252 0.59989315 -1.1518174 -0.50654835
000370 84 29 9c 3e aa 44 38 be e6 11 f8 bf 29 46 9f 3f
       0.30500424 -0.17994943 -1.9380462 1.2443286
000380 95 20 a9 3f 28 e4 97 bf 4d 7b 1a 3f 67 fe 1c 3f
       1.3213068 -1.1866503 0.6034439 0.6132569
000390 8e ef b6 be 5c 53 ac 3f d4 be ea 3e bb 3f 66 3f
       -0.3572964 1.3462939 0.45848715 0.89940995
0003a0 07 2b fa bd 7f f5 fc 3e 5f d2 3f 3f 71 a4 74 3e
       -0.12215238 0.4940605 0.74930376 0.23890854
0003b0 d3 27 98 3f fa ad cc bf a1 9b ce bf 13 04 04 3f
       1.1887153 -1.5990593 -1.6141244 0.51568717
0003c0 1f 04 1e bf b0 bb be be 72 ae e2 be c4 c3 df 3f
       -0.6172504 -0.3725257 -0.44273716 1.7481618
0003d0 b1 8c e1 be 89 5a aa 3d c6 2a 13 3f 4c 0d 30 3d
       -0.44052652 0.083180495 0.5748714 0.04298143
0003e0 22 d3 ca bf 1c b6 e9 3e d5 42 83 3d e9 53 70 bf
       -1.5845683 0.4564675 0.064092316 -0.93878037
0003f0 33 01 66 bf a2 79 00 bf dd 3c 2d 3f ce 9c 21 c0
       -0.8984558 -0.50185597 0.67670995 -2.5251956

mean.weight f4 [20, 256]
000000 d0 71 3c 3c 97 d3 13 3d 80 be 00 bc 17 76 fa b9
       0.011501744 0.03609046 -0.007857919 -0.000477717
000010 72 f5 ba bc 20 4a 36 3e fa b2 c9 bd eb f4 1b 3d
       -0.022822116 0.17801714 -0.0984859 0.03807537
000020 f4 d2 7d 3c 24 1a 50 3c 9b 68 2a 3d d1 55 e3 3c
       0.01549219 0.012701545 0.041603666 0.027750881
000030 81 2e 49 bf 44 7f 2c bc 22 6c f3 bd 30 c3 0c bc
       -0.78586584 -0.010528389 -0.11885859 -0.008591458
000040 36 ed af 3d b0 ba 3f bd ed e8 d7 bc 02 36 26 3d
       0.08590166 -0.0468089 -0.026356185 0.04057885
000050 0a a2 c5 3d 43 8d 26 3d a4 3d 5f 3d ea b4 0f 3e
       0.09650047 0.04066206 0.054502144 0.14033857
000060 7c 36 4b bd bb 62 6c bb 30 9f 0b 3d d2 8e 01 bd
       -0.049612507 -0.003606959 0.03408736 -0.031630345
000070 db f9 02 bd d8 9f a4 3d 8a b7 38 bd ad ee 01 bd
       -0.031976562 0.080383 -0.04509691 -0.03172176
000080 28 63 c2 bc 7b 8b 36 3b ac c8 05 bd f0 50 ad bd
       -0.023728922 0.0027854133 -0.03266208 -0.08462703
000090 55 a1 a3 bc d2 b4 71 3d 86 af 8d be 95 9c c8 bd
       -0.01997439 0.059010334 -0.27672976 -0.09795491
0000a0 58 13 9b 3d 67 ed c2 3d e4 e9 1f 3f c5 d8 c1 3d
       0.07572049 0.09517937 0.62466264 0.09465174
0000b0 eb 41 7d bd 89 54 4b 3d 4b 28 0e bd 7e db 68 3c
       -0.061830442 0.049641166 -0.034706395 0.014212487
0000c0 1c 6a 8e 3c 05 ed f4 3c f7 f4 c9 3c c3 71 a7 bd
       0.017384581 0.029898176 0.024652941 -0.08175995
0000d0 d0 84 a6 bd c0 59 c5 bd 72 72 96 bc 7a a6 0a 3d
       -0.08130801 -0.09636259 -0.018365119 0.03385017
0000e0 b2 fc 61 bb f2 0d 1f 3e 13 f9 d6 3d 8d 4a 97 3e
       -0.0034482894 0.15532663 0.10496726 0.29549065
0000f0 b5 d5 8c bb 4e e5 2f 3d b2 21 d5 3d 8c 8f 6b bd
       -0.004297937 0.04294329 0.104068175 -0.057509944
000100 db 60 38 bc 2e 2b a7 be b5 21 85 bc 8d ad a3 bd
       -0.011253561 -0.3265013 -0.016251424 -0.079920866
000110 83 22 4c 3b 19 e2 9a be 28 e2 46 3c 3b 58 49 bc
       0.00311485 -0.30250624 0.012138881 -0.012289102
000120 49 5a 9e bd a5 90 51 be 76 12 2b 3f 48 25 d6 bc
       -0.07732064 -0.20465334 0.66825044 -0.026140824
000130 36 e9 1d bc b6 c1 ec 3c 04 95 09 3f 97 32 02 3d
       -0.009638121 0.028900962 0.53743005 0.031786527
000140 f8 67 90 3b ea 59 52 3d d9 76 f9 3d d6 12 d0 3c
       0.0044069253 0.05135528 0.121808715 0.025399607
000150 15 64 37 bd 69 e6 29 bd 5c 87 0b 3d b2 7f 3c 3d
       -0.04477318 -0.041479502 0.034064636 0.046020217
000160 9f 49 1f 3c 40 65 f2 3c f2 5a 1b bd 13 99 bf 3d
       0.0097221425 0.029589295 -0.03792853 0.093553685
000170 be 38 53 3b e3 fe 3c bd a6 a7 be 3c 41 f2 81 3d
       0.0032229866 -0.046141516 0.0232733 0.063450344
000180 38 f5 ff bb d1 b2 53 3d c6 97 6e 3b 77 9c 0f be
       -0.007811215 0.051684204 0.0036406382 -0.1402453
000190 d5 f0 43 bd be 6b d6 bc 14 eb 20 bc 63 39 b6 3d
       -0.047837097 -0.026174422 -0.009821672 0.088976644
0001a0 5f 2d 08 bf c9 c1 4f be 2c 35 9f 3d a3 80 df 3d
       -0.5319423 -0.20288767 0.077738136 0.109132074
0001b0 98 59 cd be 71 1f 12 3b 25 ca ab bc 2b 89 9d 3d
       -0.40107417 0.0022296573 -0.020970413 0.07692178
0001c0 b6 bc d1 bb 33 63 b4 be 17 4d fd 3d 66 f2 b2 3c
       -0.00640067 -0.35231933 0.12368219 0.0218441
0001d0 96 7c 5b 3d 48 77 1a 3f fd 26 89 bc cc 78 12 3c
       0.05358561 0.6033826 -0.016742224 0.008939933
0001e0 d8 27 48 3d 3a dc 83 3c 79 d7 76 bd 1b 41 b3 bc
       0.048866123 0.016096223 -0.060264084 -0.02188163
0001f0 2d 17 8f 3c c7 48 a7 3c be 72 97 3d bf 80 fd 3c
       0.017467106 0.020420445 0.07394932 0.03094518
000200 e6 16 82 3f 07 fc 06 bd f0 ad 7e 3d 51 76 74 3d
       1.0163238 -0.032955196 0.0621776 0.059683148
000210 20 28 9c 3d d5 49 1d bd 79 e8 6d 3d 4c 47 1f 3e
       0.07624841 -0.03840049 0.05808303 0.15554541
000220 b3 bf eb bd a4 4b f8 3c f7 bd c5 bd 1e 25 46 be
       -0.11511173 0.030309506 -0.096553735 -0.19350097
000230 e4 d1 0a 3e c0 02 3d bd 32 91 06 bd 4d 2d 6c 3d
       0.1355663 -0.0461452 -0.032853313 0.05766039
000240 86 18 31 3e e5 ec f8 ba 5d d2 37 3c 60 fb 3b bd
       0.17294511 -0.0018991499 0.011219588 -0.045894027
000250 db 4c 56 be 32 cb 83 3c 62 a9 31 bc f0 24 70 bd
       -0.20927756 0.016088102 -0.010843607 -0.058628976
000260 c6 34 1c 3d 00 e4 22 3d fc 7f 6f bd fa c7 bb bc
       0.038136266 0.03976822 -0.058471665 -0.022922505
000270 a2 5c fd bd 2f 42 b5 3d b1 c3 4b bc 2e f6 89 bb
       -0.12371184 0.08850514 -0.012436793 -0.004210255
000280 46 40 1b 3d d7 d0 dc bc 62 b7 e2 3d 0d 62 c3 3d
       0.037903093 -0.026955051 0.11070134 0.09540186
000290 59 61 05 3b 58 62 24 3e 07 f5 5d bc 2e f9 34 3c
       0.0020352213 0.1605314 -0.013547189 0.011045737
0002a0 39 f3 09 be 2c 62 19 3d 8f c0 9d bd e6 5c 78 3d
       -0.13471688 0.03744714 -0.07702743 0.06063547
0002b0 47 3e bd 3b 5e 10 20 bc b7 fd 3e bd 4b a4 2d 3d
       0.0057752463 -0.009769527 -0.04662868 0.04239301
0002c0 78 0e 10 3d d2 9f 5b 3d 6c 07 5a 3d ae 55 6f bd
       0.03517005 0.053619213 0.053229734 -0.05843132
0002d0 7d 92 c8 bd 57 96 73 be be 4b eb bd bd aa 74 be
       -0.097935654 -0.23787819 -0.11489056 -0.23893256
0002e0 c2 ae 48 bd 45 72 67 3d 34 be 84 3d 25 f7 02 bd
       -0.048994787 0.05650546 0.06481591 -0.031973977
0002f0 c0 ac dc 3d 5b c3 07 3a d7 5d 4d 3d 3b 8d a4 3c
       0.10775137 0.00051789515 0.05013832 0.020086875
000300 39 2c b7 bd 20 2c 4d 3d 00 4f c8 bb 39 7c f2 bd
       -0.08943982 0.05009091 -0.006112933 -0.118401
000310 30 82 ad 3d c4 01 ef bc 2c 4b 85 3c 5e eb 44 bf
       0.08472097 -0.029175647 0.016271196 -0.7692164
000320 ef 94 26 3f 0c a6 51 3d 59 22 43 bf d2 0c 07 bc
       0.65071005 0.051183745 -0.76224285 -0.008242803
000330 56 58 56 be 77 72 b2 3c 8f 88 6b 3b 53 7d c0 3d
       -0.20932135 0.021783097 0.003593955 0.09398904
000340 bb d0 59 3b 21 1a ed 3c 9e 1a bc 3d 19 22 7d be
       0.0033235985 0.028943123 0.09184764 -0.24720038
000350 2e c5 b9 ba 7a d9 90 3c 38 13 0a bd d9 88 c7 3d
       -0.0014173144 0.017681826 -0.033709735 0.097428985
000360 df fa 00 3e 35 4e 3b bd 46 4a c5 3e cf 58 07 3d
       0.125957 -0.04572888 0.3853323 0.03304368
000370 f5 ac 36 3d 94 64 74 3c 9e aa e3 bd 55 c9 ae b9
       0.04459854 0.014916558 -0.11116527 -0.0003333787
000380 4c a7 4f 3d fa bc 4b 3d 8e 8a 45 3d 00 32 94 be
       0.050696656 0.04974077 0.04822784 -0.28944397
000390 c0 4b 1f bc 92 8c b9 bc b6 2b 04 be 62 a6 4d be
       -0.00972265 -0.022650037 -0.129073 -0.20083001
0003a0 fc e1 5e 3d fc f0 3b bd 78 cd ad bd e1 47 a7 3b
       0.054414734 -0.045884117 -0.08486456 0.005105004
0003b0 22 de e6 3d 53 97 8a bc a5 5c 69 3e ed e4 78 3d
       0.11272837 -0.01691786 0.22789247 0.060765196
0003c0 08 2f 0f be a3 64 0a be 49 c4 94 3e 7b f2 a7 bc
       -0.13982785 -0.13514952 0.29056004 -0.020501366
0003d0 48 a6 18 3e ba 10 a3 bc d8 67 93 3c ec f9 09 bb
       0.14907181 -0.019905437 0.017993852 -0.0021053506
0003e0 cf f1 20 3d a4 a5 27 be a0 a9 9a 3d b5 aa 1c bc
       0.039293107 -0.1637178 0.07551885 -0.009562184
0003f0 62 cf 1a 3e b2 54 b7 3d f2 a0 db bc 88 d0 9c be
       0.15118173 0.08951701 -0.026810143 -0.30627847

mean.bias f4 [20]
000000 6d 04 0c 40 9b 63 93 3f 3d c3 52 bd f7 f5 de bf
       2.1877701 1.1514772 -0.051455725 -1.7418813
000010 9a 48 b1 bd 36 80 e4 3d c2 52 cd bb 82 9d 07 bf
       -0.08656426 0.11157267 -0.006265969 -0.5297471
000020 8d a2 49 be cd d7 9f 3f 28 60 75 3e 19 3e 32 bf
       -0.19690914 1.2487732 0.23962462 -0.69626004
000030 e2 bc 92 be 29 89 96 3f c6 2a 67 be 32 de a1 bc
       -0.2865973 1.1760608 -0.2257491 -0.019759271
000040 98 bd 6e be 92 5a 0f 3f 8b 25 d3 3e ef 6c 0b bf
       -0.23314512 0.55997574 0.4123958 -0.54463094

log_std.weight f4 [20, 256]
000000 97 0e d6 3a 08 fa a7 3c 2c 88 8e 3c fd e5 02 3c
       0.0016331252 0.020504966 0.017398916 0.007989404
000010 3e 2f 47 3b d0 dd 28 3d f3 af b7 bc 17 5e 17 3c
       0.0030393149 0.041227162 -0.022422766 0.009238741
000020 b9 fa c1 3c 2a 54 23 bc 8a 49 45 3c 5c 2b 41 ba
       0.023679124 -0.009968797 0.012041459 -0.0007368827
000030 f5 f2 84 be 35 4c 67 3b d1 be 9e bc d2 65 30 bc
       -0.25966612 0.0035293226 -0.019378098 -0.010766463
000040 f5 85 bc 3c 8d d0 1d 3c a5 c2 81 bc f0 70 66 3c
       0.023013094 0.009632242 -0.015839884 0.014065012
000050 72 a8 9b 3c 00 5f 8c 3c 3e 1a 70 3c 8d 15 dd 3c
       0.01900122 0.017135143 0.014654694 0.026987815
000060 1b c5 00 bd c3 30 90 3b ab 37 92 3c 5b 6b df bc
       -0.031437974 0.004400344 0.01784881 -0.02727287
000070 f0 ba 3d bc da cd 06 3d 0c 56 2a 3c a1 43 8a bc
       -0.011580214 0.03291116 0.010396492 -0.016877951
000080 07 e8 a4 3a 77 87 98 3b 52 b8 24 3c 04 78 a4 bc
       0.0012581357 0.0046548205 0.010053711 -0.02007676
000090 20 41 7c ba 83 1b ce 3c e5 99 34 bd b9 fe ed bc
       -0.00096227415 0.025159603 -0.044092078 -0.029052125
0000a0 aa 2e f6 3c 12 36 ff 3c 5c c5 d2 3e 82 08 02 3d
       0.030051548 0.031153712 0.41166198 0.031746395
0000b0 59 04 1f bd 1b c6 e0 3c 69 50 57 bc 2d 68 e8 3b
       -0.038822506 0.027438214 -0.01314173 0.007092497
0000c0 56 88 da 3c c5 a8 fe 3c 2f 5f ed 3b a5 65 2e bd
       0.026676338 0.031086335 0.007244013 -0.042577405
0000d0 1e 8d f4 bc a1 ec d0 bc 83 95 3d 3b 76 58 a4 3c
       -0.029852446 -0.025503458 0.0028928227 0.020061713
0000e0 0c 32 90 3c cb 3b 13 3e 5b 4d 09 3d 32 4b e3 3d
       0.01760199 0.14378278 0.033521038 0.11098327
0000f0 f5 11 d5 bb 9b c4 3f 3a 10 68 44 3d fa 76 9a bc
       -0.006502385 0.0007315368 0.047950804 -0.01885556
000100 ca fe 83 bc 76 d7 83 bc d4 6c 2a bc 80 6f 3c 3c
       -0.016112704 -0.01609395 -0.010401923 0.011501193
000110 42 70 0e bc b9 94 12 be 17 76 c4 bb d6 31 ff bb
       -0.008693757 -0.14314546 -0.0059955227 -0.0077879233
000120 12 54 af bc d4 04 90 bd 54 d8 45 3e 8f a6 a8 bb
       -0.021402393 -0.07032171 0.19320804 -0.0051468085
000130 3f 02 a7 3b 36 dc 48 bc 0a 5a 2e 3e 3d e5 4a 3c
       0.0050967033 -0.012259534 0.17026535 0.012383756
000140 7d 77 02 3c 3c b8 83 3c 8c 58 0a 3d 35 38 3c bd
       0.007963059 0.01607906 0.03377585 -0.04595204
000150 09 36 f0 bc 50 e0 7d bb 3f 78 ef 3c f9 3b dd 3c
       -0.029322641 -0.0038738437 0.029232142 0.027006136
000160 4b 0b 3a 39 a1 1e e3 bb 4a aa 86 bc c9 53 a1 3c
       0.00017742549 -0.0069311415 -0.016438622 0.019693272
000170 c6 44 a8 b9 b4 a6 ee bc 08 f2 09 bc de 2b 9a 3c
       -0.00032094697 -0.029132225 -0.008419521 0.018819746
000180 26 ad 55 bb 42 ac f6 b8 ec 94 fd bc 8f 32 6d bd
       -0.0032604425 -0.000117622796 -0.0309548 -0.057909545
000190 58 61 d6 bb 74 a7 02 bb bb da 4d 3c f6 e6 89 ba
       -0.006542366 -0.0019936236 0.012564356 -0.0010521102
0001a0 14 b3 9d bd ed 21 d4 3d d0 d7 ac bd e4 98 0a 3d
       -0.07700172 0.10358033 -0.084396005 0.033837214
0001b0 9b 04 cf bc e0 e1 25 bc 2e 46 44 bc 4f 29 3f 3d
       -0.02527075 -0.010124654 -0.011979623 0.046670254
0001c0 f2 e9 12 38 77 9f 35 3e ef 1e ca 3c 9d d1 99 3c
       3.502699e-05 0.17736612 0.024672953 0.01877671
0001d0 9c 0d 50 3c 1d a2 7e 3e fe 73 61 3c bc 70 73 bc
       0.012698557 0.24866529 0.013760565 -0.014858421
0001e0 70 74 f0 3b e7 6e 32 3b cd e8 19 3c 29 de 5a bd
       0.007338099 0.0027226747 0.009393883 -0.053434525
0001f0 5a 3b 0a 3c e5 b3 92 bb 70 1b d7 3c 91 a9 05 3c
       0.008437002 -0.0044770115 0.0262582 0.008158104
000200 5a 0e 9f 3e cf 68 55 bb e6 d9 09 3c 08 91 5d 3c
       0.31065637 -0.0032563691 0.008413767 0.013523348
000210 23 05 5c 3c 02 5a b6 bc 28 5b f6 3c 79 75 8c 3d
       0.013428959 -0.022259716 0.030072764 0.06858344
000220 62 a0 66 bd 9d ec cf 3c 03 6f ba bd 7c 4c 71 bd
       -0.056305297 0.02538138 -0.09103205 -0.05891083
000230 40 1b 3c 3d 94 28 06 bc ca 04 21 bd d6 67 95 3c
       0.045924425 -0.0081883855 -0.039311208 0.01823799
000240 93 4f 3b 3d 91 82 e5 bc cf 60 38 bb 61 b4 8e bc
       0.045730185 -0.02801636 -0.0028133874 -0.017419996
000250 a0 86 69 bd 5f ca f9 bc 59 cc 10 bb 10 f5 3b 3b
       -0.057013154 -0.030492006 -0.0022094457 0.0028680004
000260 ae b6 8a 3c 02 2a f1 bc a2 d1 dc bb ee 19 a7 bc
       0.016932812 -0.029438976 -0.0067388574 -0.020398106
000270 eb 72 2f bd c8 db 40 3c 31 61 39 bc f2 89 c6 bc
       -0.042834204 0.01177115 -0.011314676 -0.0242357
000280 b1 99 9a 3c 3d 6f 66 bc 8d 85 32 3d 2e eb 6b 3d
       0.018872114 -0.014064607 0.043584395 0.05759733
000290 b6 93 c8 bb ce 62 4d 3d 5a cc 07 bc 1a b9 cf 3b
       -0.006121124 0.050143056 -0.008288467 0.0063392045
0002a0 4a 74 ba bc 27 62 56 3c d7 0e d4 bd b7 d9 a5 3c
       -0.02276053 0.013084925 -0.10354393 0.020245416
0002b0 7b e2 93 bd f8 4a 18 3c c5 6d 7d bc 3f b1 45 3c
       -0.07220932 0.009295218 -0.015468066 0.012066185
0002c0 c5 f1 6d 3c 4b 36 b3 3c 53 35 89 3c 81 bb c9 bb
       0.014522974 0.021876475 0.01674906 -0.0061563854
0002d0 9c ce 9f bc 40 c5 b8 bc 8d 3d 2d bd 00 28 cc bd
       -0.019507699 -0.022554994 -0.042295028 -0.09968567
0002e0 10 f7 f5 bc 7d 7d b0 3b 50 99 85 3b c4 d2 cf bb
       -0.030025035 0.005386053 0.004077114 -0.006342264
0002f0 8a 93 84 3c 40 89 a3 bc 52 56 a6 3c 38 e9 95 ba
       0.016183633 -0.019962907 0.020304833 -0.0011437302
000300 f2 0a 12 bc 53 77 a5 bb 3b 95 15 bb 37 65 51 bd
       -0.008913742 -0.005049625 -0.0022824544 -0.051121917
000310 75 e7 f8 3c c7 44 57 38 a2 bf 89 bc 4f 31 dc bd
       0.030383805 5.132405e-05 -0.01681501 -0.10751592
000320 e1 53 82 3e d2 2a 46 3c 7f 74 c5 bd d2 7d a9 3a
       0.2545462 0.01209517 -0.096413605 0.0012931174
000330 b9 61 95 bd cd 3c 02 3c 24 4e 22 37 6a 56 46 3c
       -0.0729403 0.007949066 9.674146e-06 0.012105564
000340 91 f1 4c 3b 14 95 8a 3c 61 d7 37 3c da cf fd bd
       0.0031271914 0.01691679 0.011220784 -0.1239316
000350 fe 4f b4 3c 68 83 c3 3b 2e 82 f8 3c d7 6c 8e 3b
       0.0220108 0.0059665926 0.030335512 0.004346471
000360 93 aa 52 3d 83 94 71 bb f6 ed fe 3d 44 9c 9e bb
       0.051432204 -0.0036862202 0.12447731 -0.0048404057
000370 de 7e dc ba 95 65 19 3c bc 06 88 bd 1c 8f 36 bc
       -0.0016822477 0.009362598 -0.066419095 -0.011142518
000380 6f 41 8d 3c a8 15 df 3c 76 c4 f0 3c ee 58 b6 bd
       0.017243115 0.027232006 0.029390555 -0.08903681
000390 41 cc 5c bc f7 f5 15 3b 20 d2 4b bd 83 ff 71 bd
       -0.013476432 0.0022882202 -0.049760938 -0.059081566
0003a0 66 06 17 3c d4 dd 2c bc f2 0b 33 bc 82 ad 13 bd
       0.009217834 -0.010550935 -0.010928141 -0.03605414
0003b0 1a bc 0d 3d dc 73 a6 bc 9b f0 7a 3e 28 85 97 3c
       0.034603216 -0.020318918 0.24505846 0.018496111
0003c0 83 b2 2d bd 1a b0 b7 3d 4b 85 2c 3e 71 6a c4 3b
       -0.04240657 0.089691356 0.16847722 0.005994134
0003d0 af ab 8b 3d 60 8d 8b bc 5e 47 86 3c da a7 44 3c
       0.068198554 -0.017035186 0.016391452 0.01200291
0003e0 08 0b fd 3c 9e 33 85 bd e8 40 c5 3c 1d 72 30 3d
       0.03088905 -0.06503986 0.024078801 0.043077577
0003f0 ec 75 fa 3c 65 01 d3 3c 08 67 a1 bc 4e 7b 5a bd
       0.030573808 0.0257575 -0.01970245 -0.05334025

log_std.bias f4 [20]
000000 ec 7c 50 bf 9f 9b 99 bf 54 a5 29 c0 29 9b 67 bf
       -0.81440616 -1.2000617 -2.6507158 -0.9047113
000010 41 67 b9 bf 19 4c b0 bf 1d 59 c9 bf 3f 02 c1 bf
       -1.4484636 -1.3773223 -1.573032 -1.507881
000020 f5 ed 9d bf 4a f9 7a bf c3 8b 85 bf 6c 80 4a bf
       -1.2338244 -0.98036635 -1.0433277 -0.79102206
000030 d0 74 c0 bf 5f 22 9e bf fd d3 ca bf c6 99 d6 bf
       -1.5035648 -1.2354239 -1.5845944 -1.6765678
000040 9c 39 8b bf 5e 2f 8e bf 86 27 85 bf bf 0a 71 bf
       -1.0876956 -1.1108205 -1.0402687 -0.9415702
