trained_models/HopperNormal-v3/sero/actor_2.pt (torch, 284608 bytes, 8 tensors)

shared.0.weight f4 [256, 11]
00000000: 84de 01bf ef95 60c0 77b5 03be 22bd e7be
00000010: c887 373f 734d 273e 0a25 f73d 2d1b 24be
00000020: 6872 96bd ccd7 c53b b02b 613b 0f26 d93e
00000030: 802c f03f b5ab 6d3f 449a 313f 9cda 62bf
00000040: f205 1fbe 35a9 093d 4c09 953e 1e57 3ebe
00000050: b874 29be 4f1f 57bd bcc1 51bd 815b f5bf
00000060: 8691 aa3f 981e 133f 4aee a03f c1b6 c9be
00000070: ed2b 9cbd f1d7 debd 0827 a33b e951 713c
00000080: b09e 19be a915 9dbd 092e 02c0 e2ae 9d3e
00000090: 55ac 36bf 72b9 573f ccdc d9be fd52 8bbe
000000a0: d605 bbbd 4c2b f53d 4b5e f93d 97f1 0cbe
000000b0: b4b9 ebbe a258 983e 6ee1 523f 16e6 5a3f
000000c0: 19c3 8f3f 4314 2d3e 3fec 7f3d 7186 c7be
000000d0: 9560 893e 2205 113d 0c55 41be 0175 a2bf
000000e0: 5eb0 f3bf 8dde aebf 6bb5 0bbf a4b7 f5be
000000f0: 2c92 263e a881 1b3e 2302 d6be faa7 eb3c
00000100: c7f2 053d e7a7 1e3e d3a4 5ebe 54bf b43f
00000110: d8ed ab3f 324d a13d f6da c5be 6502 69be
00000120: 3944 dabd 1666 a13e 526e f73e 8cd8 ed3e
00000130: 88f4 1dbe 5dbb 253e 9a23 863f 591c 0d3f
00000140: 54c8 6bbd ad92 a83e ceb0 fa3d cbc3 c3bd
00000150: ceac 02bf 50bc 8f3e 518c 513e e223 2f3d
00000160: 0fda 6bbe a4a9 ac3d ed69 703e 8329 fabe
00000170: 4142 b6bf 3650 f9be e987 40bf 7f10 97be
00000180: 0ad7 cc3e c1ce 03be 0d35 76bd 1e6b d7bf
00000190: 161b b9be f67d 05be 61cb bc3e e6f8 a73e
000001a0: e36a a23e f5c8 42bf 3faa f3bd ab45 c83d
000001b0: 4a9e 0ebd 2b8b 67bb 9490 743e d3a7 053f
000001c0: 749a d63f c040 193f 940a 5abf 437b e9bc
000001d0: 989b ddbe 178b c03d dcba c6bd a832 bf3c
000001e0: d40f 15bd d434 a5bf 1fc7 59bf 2028 e5be
000001f0: 4bc5 383f f978 58be 57b9 88bd f83b c5be
00000200: 5936 853d 3cc1 08be 3b65 c73e 355a 3bbe
00000210: ea28 92bf 9b22 27c0 3055 8bbf 45b7 aa3d
00000220: 6658 c8be 4020 c23d 9c4c 1fbf c66c 02bf
00000230: cc3b e93e df2d 023e 5480 3e3d c99a 5abf
00000240: 9022 f2bf 082c 15bd 11b7 c03c 97b2 a83e
00000250: 37b5 e73e 8d83 343e e8e8 4abe 520d 163e
00000260: bc19 61bd 750d 71bc d431 8c3e 260b 5e3f
00000270: 18c2 5fbf 8481 953f 6572 47be ab58 4ebe
00000280: c68d 903d 75dc ae3e c062 a43d ab5a d33d
00000290: d267 60bd 048c 9e3c f258 e2bf 6456 ed3e
000002a0: 7b20 d63f 3b35 14bf 2f3a ac3e 4ef3 1b3d
000002b0: 11c4 d0bd 043c f33d c64e 3bbb d4d7 93bd
000002c0: 5045 65bf 1426 8b40 9c2b 06bf fdd4 0ebf
000002d0: 0e3f 30bf 6eaf 2c3e bd5f 083f 6d82 163e
000002e0: 6396 e6bd 3489 88bd 3990 a03c 6d2f 643d
000002f0: 224c 5dbf 11bd 48be 7390 c3bc 5b7c 523f
00000300: dc97 2bbf 77f3 803d bea4 b03e defa 8cbe
00000310: 1dee c3bd 2b4e b63d 000a 4abe d33b 87bf
00000320: 8010 19bf 6d49 6bbf a068 b43e 4a14 7ebe
00000330: f2ed 3e3d cf73 32be 2570 323e 6411 0e3e
00000340: 05bf bcbc 895f 653e a050 52bf c9bb 1940
00000350: 91e9 d83f ea0c 8c3d 0f5b a6be c076 8f3e
00000360: 1789 393e 7ad9 883e a6bc c6bd 8b4d e03d
00000370: 90a7 4bbf b530 66c0 e3fc 15bf 10c4 43bf
00000380: 399b 923d ca81 f3bd ea9f a0bd 4ebd e53d
00000390: 766e 5cbe b1c9 52be 07a4 d8bc 9bfd 19bf
000003a0: 188f 87c0 046c bfbe 9747 d4bd 8255 e1be
000003b0: cce7 2c3d 5adc a7be 7581 a2be 831f 683e
000003c0: 4c78 d63d b9e9 9f3c b675 0a3d f28b 983f
000003d0: 722c 2c3f a2d9 db3e 0431 bdbe 8047 31bf
000003e0: b19d 6e3e bd48 0d3e 08fd f43e 15e5 223f
000003f0: d321 39bd cf43 a43b eb29 fc3f 50a1 ae3d
-0.50730157 -3.5091512 -0.12862192 -0.45261484 0.7169156 0.16338138 0.120676115 -0.16025992
-0.0734604 0.006037688 0.0034358315 0.4241185 1.876358 0.9284013 0.69376016 -0.8861482
-0.15529612 0.033608634 0.29108655 -0.1858792 -0.16548431 -0.052520093 -0.05121015 -1.916855
1.332566 0.5746856 1.257272 -0.39397243 -0.07625566 -0.10881031 0.004979018 0.014729002
-0.1500194 -0.07670147 -2.0340598 0.30797487 -0.7135671 0.8426734 -0.42551267 -0.27211753
-0.091319725 0.11971149 0.12176188 -0.13764034 -0.46040118 0.2975512 0.8237523 0.85507333
1.1231414 0.1690226 0.06248116 -0.38969758 0.268315 0.035405286 -0.18880099 -1.2691957
-1.9038198 -1.3661667 -0.54573697 -0.4799167 0.16266698 0.15186179 -0.41798505 0.02876662
0.032702234 0.15493737 -0.21742563 1.4120889 1.3431959 0.07876052 -0.38643616 -0.2275482
-0.10657544 0.31523198 0.48326355 0.46454275 -0.15425313 0.16184755 1.0479615 0.5512138
-0.057564095 0.32924405 0.12240754 -0.09558829 -0.5104493 0.2807336 0.20463683 0.04275883
-0.23032402 0.08430794 0.23477907 -0.48859796 -1.4238969 -0.4869401 -0.7520738 -0.29504773
0.40007812 -0.12871839 -0.060109187 -1.6829565 -0.36153477 -0.13036332 0.36873916 0.32807082
0.31722173 -0.76087886 -0.11897706 0.09778913 -0.034818925 -0.0035330753 0.23883277 0.52209204
1.6765885 0.59864426 -0.8517239 -0.028501159 -0.4328277 0.09401529 -0.09703609 0.023339584
-0.036392048 -1.2906747 -0.8506946 -0.44757175 0.72176045 -0.21139897 -0.06675976 -0.38522315
0.065045066 -0.13354963 0.3894442 -0.1829613 -1.1418736 -2.6114872 -1.0885372 0.08335737
-0.39129943 0.094788074 -0.6222627 -0.50947225 0.45553434 0.12712811 0.046509102 -0.85392433
-1.8916798 -0.036418945 0.023524793 0.32948753 0.45255443 0.17628308 -0.19815409 0.14653519
-0.054956183 -0.014712681 0.27381766 0.8673576 -0.8740554 1.168015 -0.19477232 -0.20151012
0.07058291 0.3415257 0.080266476 0.10320028 -0.05478651 0.019353874 -1.7683394 0.46354973
1.6728662 -0.57893723 0.3363814 0.03807383 -0.10193647 0.118766814 -0.0028580888 -0.072189
-0.8955889 4.348398 -0.5241029 -0.55793744 -0.68846214 0.16863796 0.53271085 0.14698191
-0.11259153 -0.066667944 0.01960002 0.05570929 -0.86444294 -0.19603373 -0.02387259 0.82221
-0.67028594 0.06296437 0.34500688 -0.27535146 -0.09566901 0.08901628 -0.19730377 -1.0565132
-0.597908 -0.91908914 0.35236073 -0.24812427 0.04661364 -0.1742699 0.17425592 0.13873821
-0.023040304 0.22399725 -0.82154274 2.4020865 1.6946279 0.06838401 -0.32491347 0.28020287
0.18118702 0.2672842 -0.097039506 0.1095229 -0.79552555 -3.5967228 -0.58589 -0.7647104
0.071585126 -0.1188999 -0.07843001 0.11217748 -0.21526513 -0.20584752 -0.026445402 -0.60152596
-4.2362175 -0.37387097 -0.10365217 -0.4401055 0.042213246 -0.32785302 -0.31739393 0.22668271
0.104721636 0.019520627 0.033803664 1.1917708 0.6725532 0.42939478 -0.36951458 -0.69249725
0.23302342 0.13797279 0.47849298 0.636308 -0.045198273 0.005012966 1.9700292 0.08526862

shared.0.bias f4 [256]
00000000: bf4d d3be 91c5 013e 83ab fa3c 8750 22be
00000010: 8195 d7be 84fe 5dbf 9da3 fabd 5d27 cdbe
00000020: 66f0 e3be 701f 8dbe eef3 873e 0433 4abf
00000030: 9366 43be 6503 d1be 3559 2dbd 2129 a3be
00000040: efd9 1bbf 72fb 2fbe e53b bc3c 1425 603c
00000050: 1bb2 07bd 6e67 a83c 523c d4be 3e54 8cbc
00000060: fcfd 01bf e314 33be c7cb 74be 2b12 a63d
00000070: ba60 75bf 48f6 2cbc 2172 673e 3ed8 2cbd
00000080: d299 05bf b844 97bf c4bd acbe fb1b 9c3d
00000090: 63cf d8be f0ea 4dbf 1534 6b3d 39bc 49be
000000a0: cec8 23be be4a 7ebe 1d3c 33bf 13f1 9abd
000000b0: 737e 8dbc 6b6f 93be ed96 76be ebd7 43bf
000000c0: 59b1 1d3d c501 10be 7952 47bf 7ecc d83d
000000d0: f646 d23e 70ad 9bbe 4cb9 083d 04cc 47be
000000e0: 1ee8 d63d 1514 0ebf 6f0a bb3d 352e 9bbe
000000f0: c134 30bf dee6 193e d87d 88be 3d64 43bf
00000100: 0470 11be 6bbb a0be d5e5 15be 1f21 8e3c
00000110: 17bc 0fbf 8b8e 84bf 2f97 1cbf 2d6d 043d
00000120: 8da7 6bbe 32e7 493e a576 9ebe d955 b5bc
00000130: 97c6 1abe 3918 de3b a3fd 2ebf d7e7 79be
00000140: 2d80 f9be 5a8a 7dbe 8dd8 5ebe 4089 89be
00000150: 49e5 a1be ff04 90be 25eb 1d3d dd3e e1be
00000160: a8ea 49be 670c a4be 20a4 2cbf d041 07bf
00000170: a214 09be 99a4 89be c528 e9be 6139 cbbe
00000180: 8c15 01bf c907 cabd 2f1c 07bf 268a 813d
00000190: 6ab2 1dbf 11a0 bdbd acba 963c ea87 2fbf
000001a0: 23f9 f93d 9db8 643e 1a4a 9abe eb95 053e
000001b0: 3a52 473e 6448 3cbd a194 d2be ff9e a1bd
000001c0: c229 8fbf c8e7 bdbd 8b07 a9be 9635 1abe
000001d0: 23e9 e5bd 42da 223d eb9f 14bc 78e4 40be
000001e0: 386c dbbe 5f2e 353e 787e 7cbe 325a 32be
000001f0: d8dd e1be 8ce9 59be 9692 fa3d 4c30 983e
00000200: c157 ef3c cff1 a2be b578 94bf f5b3 5f3e
00000210: 1063 00bf b7f7 19be ce1b 65be 549f 3fbf
00000220: 1dd9 fdbd 828f d3be 24ef 63bd faa1 d53e
00000230: abdd 19bf e75d b0be 83a6 8bbe 215c c2bd
00000240: ca91 8abe ec56 9fbe e483 723c 555c e13d
00000250: 1e5d cabe ae03 6abe 89fc 1e3e 4ce8 a8bc
00000260: cda1 103e cb7b 5ebf 22c9 8e3d e6ed 41be
00000270: f6e5 01bf ede1 9d3d 4be2 79be 402e 28bf
00000280: 61bb eb3b 3d78 43be d3d1 3bbf 540c 4abd
00000290: 0208 b1be 75c3 27be aa83 d0be b585 ccbe
000002a0: 061d 24bf 369a 91be b464 f6bd d654 2ebf
000002b0: e9bd 1bbf d752 d73c d708 72bf d6c9 043d
000002c0: 9c92 4ebf 625d 06bf 7d38 48bf 83f8 e03d
000002d0: 2faf 72bf f54a 97be 3c0c 20bf 2ff2 debe
000002e0: 2b48 1ebf a1f4 75be 3dd7 8dbd 3109 81bf
000002f0: 2fd8 0bbe 556a 95be d532 8dbd 5c3f 563b
00000300: 23e2 5a3d cb4a a5be 3ecc aabf 2416 58bf
00000310: 1fc3 cdbe 96e9 bebe afe5 babe 2464 9ebe
00000320: a2ef e7be 5f0d 1abf 5e20 8bbe b42c da3e
00000330: 9614 bbbe b452 183d 1e91 3abf be13 bbbe
00000340: 20a9 46be 2aea 8ebd 2e8a 053e b0c6 f73b
00000350: 2086 dfbe 2842 57be 10b4 55be 3c51 14be
00000360: 5948 353e d041 f7be 2f87 10be 1b11 26bf
00000370: c3c6 1e3e fb36 30bf 94eb b23b 612e 8cbe
00000380: afb5 22bf 1358 cabd 8786 5bbe c11f abbd
00000390: f546 d23d 5522 92be 3f56 f5be d965 ae3d
000003a0: 0a8f 06bc 5eef d1be acac 563a 0ebb 2bbf
000003b0: 6078 0cbf 8e45 c9be dc32 2cbe 58b9 27bf
000003c0: bc69 34bf 5e23 5cbf 2cf1 80be dfa9 f0bd
000003d0: 7662 d7be b3b9 eebe b19b 013e 6c49 2cbd
000003e0: fbe4 0ebf 2242 27bf f4b7 bbbe 4e34 ca3e
000003f0: b77c 493e 549f 8dbe 2fb4 bfbe da02 20be
-0.41270253 0.12673022 0.030599361 -0.15851031 -0.4210625 -0.86716485 -0.12238238 -0.40069094
-0.44519347 -0.27563047 0.2655329 -0.78984094 -0.19082098 -0.40822902 -0.042321403 -0.31867316
-0.60879415 -0.17185763 0.022977779 0.013680715 -0.03312884 0.020557132 -0.4145227 -0.017130014
-0.50778174 -0.17488436 -0.2390586 0.08108934 -0.9585072 -0.010556765 0.2260213 -0.042198412
-0.52187836 -1.1817846 -0.3373853 0.07622524 -0.42345724 -0.8043661 0.057422716 -0.19700707
-0.1599457 -0.248332 -0.700136 -0.075655125 -0.01727221 -0.28795943 -0.24081011 -0.7650134
0.03849921 -0.14063175 -0.7786022 0.10585879 0.41069764 -0.3040576 0.033379838 -0.1951142
0.104934916 -0.5549939 0.091328494 -0.3030869 -0.68830496 0.15029475 -0.2665851 -0.76324826
-0.14202887 -0.3139299 -0.14638455 0.017349778 -0.5614638 -1.0356001 -0.6116819 0.03233068
-0.23013134 0.197171 -0.30949894 -0.022135662 -0.15114819 0.00677779 -0.6835577 -0.24404846
-0.48730603 -0.24759808 -0.21762295 -0.26862526 -0.31620243 -0.28128812 0.03855433 -0.43993273
-0.1971842 -0.32040712 -0.67437935 -0.52834797 -0.13386777 -0.2688339 -0.45538917 -0.39692214
-0.504235 -0.09864766 -0.5277738 0.06325178 -0.61600363 -0.09259046 0.018399559 -0.68566763
0.12205722 0.2233605 -0.3013466 0.1304547 0.1946496 -0.045967475 -0.4112902 -0.07891654
-1.1184618 -0.092727244 -0.33013567 -0.15059504 -0.11226108 0.039758928 -0.009071331 -0.18837154
-0.42856002 0.1769347 -0.24657619 -0.1741722 -0.44114566 -0.21280497 0.1223499 0.29724348
0.029216649 -0.3182511 -1.1599337 0.21845992 -0.5015116 -0.15035902 -0.22373888 -0.7485249
-0.12394927 -0.41320425 -0.055647984 0.4172514 -0.60103863 -0.34446642 -0.27275476 -0.094902284
-0.27064353 -0.31121004 0.014801953 0.11003939 -0.39524168 -0.22852966 0.15526022 -0.02061858
0.14124222 -0.86907643 0.06971957 -0.18938407 -0.5074152 0.077091075 -0.2440273 -0.6569557
0.007193968 -0.19088836 -0.7336704 -0.049328163 -0.34576422 -0.16383155 -0.40725452 -0.3994576
-0.64106786 -0.28437966 -0.12030926 -0.680982 -0.60836655 0.026284618 -0.9454474 0.03241905
-0.8069246 -0.5248624 -0.78211194 0.109849 -0.9479856 -0.29549375 -0.6251867 -0.43544146
-0.6182887 -0.240191 -0.06925819 -1.008093 -0.13656686 -0.29182687 -0.06894461 0.0032691574
0.053438317 -0.32283625 -1.334358 -0.84408784 -0.40187928 -0.37287587 -0.3650336 -0.30935776
-0.45300013 -0.6017665 -0.27173132 0.4261223 -0.36539143 0.037188247 -0.7287768 -0.365385
-0.19400454 -0.06978257 0.13040993 0.007561527 -0.43657017 -0.2102133 -0.2086947 -0.14484113
0.1770338 -0.48292398 -0.14114068 -0.6486985 0.15505509 -0.68833894 0.005460212 -0.27379134
-0.6355848 -0.0988008 -0.21438037 -0.08355666 0.1026744 -0.28541818 -0.47917363 0.0851552
-0.008212814 -0.41002935 0.0008189182 -0.670823 -0.5487118 -0.3931088 -0.16816276 -0.6551719
-0.7047384 -0.85991466 -0.25184 -0.1175115 -0.42067307 -0.46626052 0.12657048 -0.042062208
-0.55818146 -0.65335286 -0.36663783 0.3949303 0.19676481 -0.2766062 -0.37442157 -0.15626088

shared.3.weight f4 [256, 256]
00000000: 35a6 2e3c c81c fa3d 6db0 c3be 9e6e 1abe
00000010: 25e7 353c 2de3 0bc0 4d97 f8bc f040 563c
00000020: 228a 1fbe 78b3 453f 3a9f 923b a9f0 4cbe
00000030: a6b0 f73d d61a 8fbd 12d5 6ebe 837e 8e3d
00000040: 15c2 54be 5b57 e9bf b0ec 443d b14f 0cbe
00000050: 987f 6b3e d92f fbbe 8ad8 7dbf 1f8c ae3d
00000060: b82b 4f3d 04c8 22be 2f55 0c3f 8c4b 0f3e
00000070: 6619 48bf 4766 75bf 1f98 11bf 48f6 5b3d
00000080: 536c 18bf e29b 8abf d7d4 07bf f4ac e1be
00000090: de24 033d 03b5 cbbd e6ab 45bf 0be6 1fbf
000000a0: c3ae 6ebe 265b 9cc0 7420 833d 998d f3bd
000000b0: 7b91 693d f05a 4e3e def8 923c b229 393e
000000c0: 249a fbbd e78c 5cbf 5492 88be 8d90 57bf
000000d0: 2124 68bd 8fa6 0dbf 4388 6fbf 4e82 48be
000000e0: b74c d2bf e885 1ebe c9b4 05c0 d8bb a53b
000000f0: f304 653e 0803 473d 00b1 2fbf b854 3d3e
00000100: 36ce 953d ef10 383d f3b1 503e b6e6 1c3c
00000110: 5e34 663e f181 d8bd 63d5 3abe 86e1 a43d
00000120: b073 253d 6c8c 9dbd de51 c43d 56fe 3e3e
00000130: 6aee 28be fd78 983e 671e 8fbe 80c0 c03e
00000140: d0b9 04be 14fa 183d bd4d 3cbf cb52 4dbe
00000150: 43b9 973c 7de6 a3bf 4d95 c6be 4cb1 a5be
00000160: 48ff 43bf d10f 11be d6a0 3dbb b327 87be
00000170: 129f 753e 9f1d 56be 9a95 4cbf 1da7 20bd
00000180: 6b56 b23d 38fc d23d c781 c3be a94d 18bf
00000190: 75ae 8abd b7fa 08bd f91f 123e 7ffa 943e
000001a0: 07d9 07bd b8ee 33bf c346 4a3d 8e17 e8bf
000001b0: 045b d23d 60b9 81be ab68 cfbe 595a 4abd
000001c0: 2d02 06be 71a7 fbbe 5be1 343e 2a64 3b3e
000001d0: 41cf 9dbf 066c 79bd 8fdf 05bf 0778 5c3d
000001e0: 16f3 b23d 05aa 2abe 2125 efbd 3697 75bf
000001f0: 3486 50bd c287 94bd a0eb 47bf 91a6 40bc
00000200: 3b0c 79bd 971a 3ebf 016d 08be 5e21 bebd
00000210: 7818 b4be 74be d4bf 89bd 823c 0dcb 61bc
00000220: 4aa8 86bd 0a11 9bbe 9ea7 0f3f eb1b 2bbe
00000230: 74bc 36bf a9a2 7fbe b9a1 df3e 20a1 a0bf
00000240: 9cdd efbe dd4c 01c0 7ead 05bf ba2d bebe
00000250: a522 03bd 60b8 2d3c e1b3 2fbe 9f4c 033e
00000260: 8b9e 86be e2dc a6be fb28 a2bd 49dd 4d3e
00000270: b993 3e3d b456 a8be 0488 d2bf 6e40 54be
00000280: 6079 3ebe 6028 cd3c ee63 9abd fe49 a9bd
00000290: fc44 023e 143d 22be bacd 38be e56a 9b3f
000002a0: d9f4 903d 6c1d e5bd 1688 e1bf 350c 0cbe
000002b0: 9cb8 513d c056 d73b 623e 9dbf 2250 2dc0
000002c0: 5870 c63d 9d00 423b 6368 b43d 6b5d a4c0
000002d0: 7bc5 b33c 084f 413d 769c 2d3e 989a 79bd
000002e0: c8c3 8b3b 922e 1abe c3c7 9fbe 7617 b43e
000002f0: 25cf 6a3e cd33 0d3f 2e66 4dbe c9c3 95bd
00000300: d9af d1bd 2c7a 01bf e0c7 71be 6625 b23e
00000310: 18fd 0c3e b20e e03e be6f c43e 83ae 5dbc
00000320: 4c11 48bd aaeb 5ec0 f22d 2fbf bd1f 2bbe
00000330: c2bb 0ebb e413 bdbf 3754 b6bd 1b94 113e
00000340: ca83 0c3b de45 acba 6103 10bf 9dfe 563e
00000350: d3f7 033e b36c 8d3e 5406 e5bd 3a48 97be
00000360: 1b0d 4c3c 2e11 e5be 2109 30c0 be02 05bc
00000370: f272 65bf 2679 a63e 53ac e3bd 118f 1ebd
00000380: e180 59be 1f27 b8bd d0a0 76bd d984 a53e
00000390: f4b5 36be 73d1 453f 9b94 ffbf 4106 643c
000003a0: dddd a0bd 706b 713e d997 9abf 84ab 993e
000003b0: 9b20 9f3d f180 31bd 73e3 143f 1e12 bf3d
000003c0: 4f2d b93d 3f09 02be 4f00 3ec0 bb1e 003e
000003d0: f5d4 f1be 44fc bdbf 04c7 3ebf 967d f53d
000003e0: 857d babd b8c5 8d3e 7ad4 55bd 01df f4be
000003f0: a523 cdbd 171f 773d eaba 0bc0 b063 a63d
0.010659744 0.12212521 -0.3822054 -0.1508126 0.011102472 -2.1857407 -0.030345583 0.013077006
-0.15580037 0.7722697 0.0044745477 -0.2001368 0.1209424 -0.069875404 -0.23323467 0.06957724
-0.20777161 -1.8229784 0.048077285 -0.13702275 0.22997892 -0.49059942 -0.9915854 0.0852282
0.050578803 -0.15896612 0.5481748 0.13993663 -0.78163755 -0.9585919 -0.56872743 0.05370167
-0.5954029 -1.0828822 -0.5305914 -0.44077265 0.03201758 -0.099466346 -0.7721542 -0.6246039
-0.23308854 -4.8861265 0.06402674 -0.11892242 0.057023507 0.20151877 0.017940935 0.18082312
-0.12285259 -0.861525 -0.2667414 -0.8420494 -0.05667508 -0.55332273 -0.93567294 -0.19580957
-1.6429662 -0.15480769 -2.0891593 0.005057793 0.22365169 0.048586875 -0.68629456 0.18489349
0.07314722 0.044938024 0.20380382 0.00957649 0.22480914 -0.10571659 -0.18245463 0.08050828
0.04039353 -0.07692799 0.095859274 0.18651709 -0.16497198 0.29779807 -0.27952883 0.37646866
-0.12961507 0.037347868 -0.7355612 -0.20051114 0.018520957 -1.2804714 -0.38785782 -0.3236183
-0.76561403 -0.1416619 -0.0028934977 -0.26397476 0.23986462 -0.20909737 -0.79915774 -0.03922187
0.08707889 0.10302013 -0.3818495 -0.594935 -0.06771556 -0.033442225 0.14270009 0.29097363
-0.033165958 -0.7028613 0.04938389 -1.8132188 0.10271266 -0.25336742 -0.40509543 -0.04940257
-0.13086767 -0.49151185 0.17664091 0.18299928 -1.2328874 -0.060894035 -0.5229425 0.053825404
0.08737771 -0.1666642 -0.11677004 -0.95933855 -0.050909236 -0.07252456 -0.7809391 -0.0117584625
-0.06080268 -0.7425932 -0.13322832 -0.09283708 -0.35174918 -1.6620622 0.015959518 -0.013781321
-0.06575067 -0.30286437 0.5611514 -0.16709869 -0.71381307 -0.24964394 0.43678072 -1.2549171
-0.46848762 -2.0203164 -0.52217853 -0.37144262 -0.03201546 0.01060304 -0.17158462 0.12822197
-0.26292834 -0.32590395 -0.07917973 0.20103945 0.046527598 -0.3287865 -1.6447759 -0.20727703
-0.18600988 0.025043666 -0.07538591 -0.08266066 0.12721628 -0.15843612 -0.18047228 1.2141997
0.07077951 -0.111872524 -1.7619655 -0.13676532 0.051201448 0.0065716207 -1.2284663 -2.708016
0.096893966 0.0029602416 0.08808973 -5.1364036 0.021944752 0.04719451 0.16954216 -0.060938448
0.0042652823 -0.15056828 -0.31207094 0.3517415 0.22930582 0.55157167 -0.2005851 -0.07312734
-0.102386184 -0.50577044 -0.23611403 0.34794158 0.13768423 0.43761212 0.38366503 -0.013530376
-0.04884462 -3.4831338 -0.6842948 -0.16711326 -0.0021779393 -1.4771695 -0.089027815 0.14216654
0.0021440857 -0.0013143381 -0.56255156 0.20995565 0.12887506 0.27621993 -0.111828476 -0.29547292
0.012454296 -0.4473967 -2.7505572 -0.00811833 -0.8962852 0.32514304 -0.111168526 -0.038710658
-0.2124057 -0.08991837 -0.060211957 0.32327917 -0.17842847 0.7727272 -1.9967226 0.013917507
-0.07854817 0.2357614 -1.207759 0.3001367 0.07769891 -0.04333586 0.5815956 0.093296275
0.09041845 -0.1269884 -2.9687688 0.12511723 -0.47232786 -1.484261 -0.74522424 0.11986844
-0.09105972 0.2768991 -0.052204587 -0.47826388 -0.10016564 0.060332384 -2.1832833 0.08124483

shared.3.bias f4 [256]
00000000: 862d 3b3e ad15 a8be 1a5d 9f3e c8fc 82be
00000010: f381 26bf 9f84 eebe 0bd3 54be cbfe 8e3d
00000020: a8c9 603d 1f78 b33e cd5d 323e f183 c23e
00000030: a745 31be b189 33bf c3ae 133e 4e75 f83d
00000040: 8616 cd3e 2c90 2cbf e8af a3bd 6988 c8be
00000050: 6d2b 9ebf ea61 97be 1347 04be c798 b8bf
00000060: 9ec5 a1bc f756 9bbd ffa7 923b d8db df3d
00000070: 1295 643e 3429 893e 5f32 7e3b e667 883e
00000080: b265 ab3d 4932 afbc 30e6 893e 5111 993e
00000090: a492 35bf c2f0 533e 5c86 313e b881 803d
000000a0: 976a 62be 7ed3 a6bd 7c2f 9e3e 1cee 81bd
000000b0: e98f 433d cacc 063d 9b41 03be dfad 25bd
000000c0: 6c78 48bd 4229 b33e 4a28 e83e 85b7 8c3d
000000d0: 3497 acbe 5270 90b8 dbc0 5bbd 1c93 bcbb
000000e0: faf6 94bc 293d 3e3e 8f32 6f3e 35af 233d
000000f0: 2d0b 853e 801b 123c c04a a6bc 221c 9d3e
00000100: e6db 853d adb2 133e 850d 853e 5d03 6dbd
00000110: fde5 493d ce65 033e d205 febe 65e2 8b3e
00000120: 0985 df3d 3561 46bd 3332 8ebd 95fa 52be
00000130: 1536 fabd 603c 993e 006d 993e 10fe 063e
00000140: aaee 7b3e 5147 913e 6882 3f3e a6e6 1d3d
00000150: 059f debe 83b5 073e 656f 62bd 0345 fd3d
00000160: 4004 97bd a29a 8dbf d9ea 55be b502 023e
00000170: ad75 83be fe1f 22bf 1979 693d eeca d63e
00000180: 5235 98bc 96a7 debe 8b55 2ebe dc3a 813e
00000190: 6101 013e ddeb 47be 93fc 103e 2cc5 a33e
000001a0: 0ab9 aa3d 98e1 8ebd ba62 91be 3a18 3b3e
000001b0: aa67 cebd 4e05 29be 2d83 073e 83df 903d
000001c0: ae39 9d3e 0b02 adbc 523a 92be 89b8 d9be
000001d0: 0b83 7d3e 359c 623e e440 cf3d dc2c 2cbf
000001e0: 2644 7fbd 333f 81be fead 133e 339f 85bd
000001f0: 68e7 c73e d4b6 503d 8dde 0bbe cc22 f1be
00000200: b64c ae3e ed80 4d3d 8a78 0cbe f985 623e
00000210: cac3 c83d 4ab3 0c3f 400e 053e f7e8 493e
00000220: 496b 263e 8a0b 48be ffc1 50be fcb8 c3bd
00000230: 50b1 2e3e 701e c0bc 382d 92be a28b bf3e
00000240: 2ac5 0bbc cf75 803d b7d5 81be 59e6 a2be
00000250: d0ab bf3d e425 463e 0beb 013d a538 b43e
00000260: 5a66 933e 05fb 583e 7394 81bc 1c51 a63e
00000270: 6a80 7dbe 3cc7 883e 4201 c43e 7835 343e
00000280: 14b9 5a3e 2b03 97be fe06 403c 49aa f3bd
00000290: 4dcd 6d3e bd3b 583d 7d91 f43d 8845 37be
000002a0: 82cc 02bd e638 bb3d 88d8 92bf 6f44 a1bd
000002b0: 6284 b13e 874c a5bd 7a0d b03e edf9 2e3e
000002c0: 5c1f d6be 4f07 01bf e403 b3bd edde 35be
000002d0: c9ca 87bd b4ec 053e ef4a 2bbe acf3 173e
000002e0: 6513 78be c52b 26be 5caa 37be affe febe
000002f0: 7c28 1ebf 6aa3 b53d 90ea b63d dea5 b83e
00000300: 8c51 0ebe f30c 46be c1eb cfbd 4c9b ae3c
00000310: 75f8 56be 2af8 f9be 255e e03e 2da2 ccbb
00000320: 851e b2bd f64a 963e f8e7 62bd 5902 2bbe
00000330: 211a 883e b620 403d 2952 3e3e d751 85be
00000340: 6a26 c1bd 1123 a43d 51c2 6b3d 11fb f4be
00000350: edef 1d3e 26f6 893d 9c26 ffbd fec6 3d3d
00000360: 99e1 fbbe 680b 093e 7c0d 283c 2f7b dcbd
00000370: fcc8 53bf bbf2 df3b af11 34bf b062 363e
00000380: 5581 cabe 277e fbbe b9ac 9fbd 7b56 86be
00000390: 7d0b 383e 87c0 72be e83b 2bbf 527e c9be
000003a0: 53c4 c63e 3d98 efbc f9ab a6bd 6ba4 793e
000003b0: 97e1 2e3d fb95 25be 17f8 88bd d1d0 3cbe
000003c0: cfe9 0cbe ad13 8d3e c86b e0bd 2893 acbf
000003d0: d658 37be 6316 ea3e 4a50 3dbe 1a6c cf3d
000003e0: 41ec ba3e 92ce 5bbe 0921 08be 78dd 1b3e
000003f0: 48fe 56be 55de 973e f1ba 1e3e 9de3 e8bc
0.18279085 -0.32829037 0.31125718 -0.25583482 -0.65042037 -0.46585557 -0.20783632 0.06982192
0.054879814 0.35052583 0.17418595 0.37991288 -0.17311727 -0.70131975 0.14422135 0.12131749
0.40056247 -0.6740749 -0.07992536 -0.39166573 -1.2357002 -0.2956689 -0.12917738 -1.4421624
-0.019747552 -0.075849466 0.004475593 0.10930604 0.22322491 0.26789248 0.0038787348 0.26641768
0.08369006 -0.021386283 0.26933432 0.29896024 -0.7092688 0.2069731 0.1733641 0.06274742
-0.22110973 -0.08145808 0.30895603 -0.06344244 0.047744665 0.032910146 -0.12817995 -0.04044902
-0.04894297 0.34992415 0.45343238 0.06870941 -0.3370911 -6.8873764e-05 -0.05365072 -0.0057548415
-0.018184174 0.18578018 0.2335913 0.039962012 0.2598509 0.008917689 -0.020299315 0.30685526
0.06536083 0.14423628 0.25986877 -0.057864536 0.0492916 0.12831804 -0.49613816 0.27321163
0.10914046 -0.048432548 -0.069431685 -0.20603402 -0.122173466 0.29928875 0.29965973 0.13182855
0.24602762 0.28374723 0.1870209 0.03855004 -0.43480697 0.13252835 -0.055282015 0.123666786
-0.073738575 -1.1062815 -0.20890369 0.12696345 -0.25675717 -0.63330066 0.057000253 0.41951698
-0.018580113 -0.43487233 -0.1702482 0.2524022 0.12598182 -0.19523568 0.1415885 0.31986368
0.08336075 -0.06976622 -0.28395635 0.1827096 -0.10078366 -0.1650593 0.13233633 0.070738815
0.3070807 -0.021119138 -0.2856012 -0.42523602 0.2475702 0.22129901 0.10119799 -0.6725595
-0.06232085 -0.2524353 0.14421842 -0.065245055 0.39043736 0.05095561 -0.13659115 -0.4709686
0.340429 0.05017178 -0.13717857 0.22121419 0.09802969 0.54961073 0.12993717 0.19717775
0.16251864 -0.19535652 -0.20386504 -0.09556767 0.17059827 -0.023452014 -0.28550124 0.3741122
-0.008530894 0.0627247 -0.25358364 -0.31816366 0.093589425 0.19350392 0.031718295 0.35199466
0.28789026 0.21189506 -0.015817856 0.32483757 -0.24756017 0.26714504 0.3828221 0.17598522
0.21359664 -0.29494604 0.011720417 -0.11897714 0.23222847 0.052791346 0.11941812 -0.17897618
-0.031933315 0.09141712 -1.147233 -0.07874381 0.34671313 -0.08071237 0.34385282 0.17087527
-0.418208 -0.5040178 -0.087409765 -0.1776082 -0.06630475 0.13078576 -0.16727804 0.14839047
-0.24226148 -0.16227634 -0.1793608 -0.49803683 -0.61780524 0.088690594 0.08931458 0.36064047
-0.13898295 -0.19340877 -0.10152388 0.021314286 -0.20993216 -0.48822147 0.43821827 -0.006244919
-0.086972274 0.29354066 -0.055397004 -0.16700114 0.26582435 0.046906196 0.18586029 -0.26039
-0.09431155 0.08014501 0.05755836 -0.47847798 0.15423556 0.06736402 -0.12458536 0.046332352
-0.49195555 0.13383257 0.010257121 -0.10765683 -0.8272855 0.0068343556 -0.70339483 0.17811084
-0.39551798 -0.49119684 -0.07796616 -0.26237854 0.17973132 -0.23706256 -0.66888285 -0.39354187
0.38821658 -0.029247398 -0.0813827 0.24379127 0.042695608 -0.16170494 -0.066879444 -0.18439032
-0.13761066 0.27554074 -0.10958058 -1.3482409 -0.17904982 0.45720205 -0.18487659 0.101280406
0.36508372 -0.21465519 -0.13293852 0.15221202 -0.20995438 0.29661813 0.15501 -0.028428847

mean.weight f4 [3, 256]
00000000: 5f91 103c 72e7 ac3d 7088 1a3f 73da 963e
00000010: 8d89 e2bf ee7a f03e 9860 b6be 08ab 263e
00000020: 6958 b3bb 3a16 44bf 4a7d 153f 22b7 2d3d
00000030: 4988 bdbe 468c 943e 5ac5 2d3f 9d53 ba3f
00000040: c797 293e 9f2a a33e 8168 233f 7af1 3cbe
00000050: 5ba4 4abf b9ed 9c3d ae9f eb3e 9651 bf3d
00000060: 01b6 d43d c4f0 1a3d 35cf 32be 7164 f73d
00000070: 464a 90bd 295e 3abf aab0 4c3d 9f43 7d3c
00000080: 0754 99bf 49a9 173d d9ee 0fc0 54d2 23bf
00000090: d52f c7be 42eb 0d3f db0e 0a3e fe9b bebe
000000a0: ad48 9cbf 8e7c 5b3e e276 553e 8bef 44bb
000000b0: 48e6 babc 93c0 cabf 47cf 943f d19b 663c
000000c0: 3ee9 8fbf 134c 8abb cfff 7b3e a6a3 10be
000000d0: 9b0a acbd d019 85be b934 10be 5370 29bd
000000e0: 8229 e43e 18e5 39be 126a b0be 340c c63d
000000f0: 6168 e9bd faff 20bf 3cca 963e df8b 87be
00000100: 7812 7abe e560 013f be04 b53f 5999 003d
00000110: 6473 6fbc c306 33bd c41a 3b3d b09a 0dbd
00000120: b1e8 a03f 7b53 05be f0ee 88be 2b3e 74be
00000130: 891e 48be 38d2 933d ef5d f23e 2a26 5d3f
00000140: f4da d53e 28ad cf3e 83b3 183f 0f7b ce3e
00000150: 96f2 f4be 3388 c0be 97d9 48be bf84 4cbe
00000160: e4c6 2abf eab8 9cbf aa50 fb3d 9213 373e
00000170: 27e1 f7bc 678a f13e 67c2 2ebe b54d f73e
00000180: 77ce 3d3f d3b5 8a3e 4bb2 673c 7a71 b53e
00000190: 83a8 f4bc ee65 053f 5419 593f 8860 2f3d
000001a0: be5f c3bd fe8d d63c 882d 9f3d 80a6 093f
000001b0: 8130 33be 8394 7f3d 0fbf 90bf 7491 8c3f
000001c0: 60dd 9c3f 200b 09bd 1fee 9ebf 9fe0 39bf
000001d0: ad69 89bc e255 bc3e 5a8b 653c 0568 763f
000001e0: ef06 f7bc 3964 3f3f 7d75 a13d 86a0 00bf
000001f0: 114d fa3b 4768 c23e 5a13 d9be 2236 babe
00000200: 4f43 a23c 1184 fabd f7b8 2abf c7d2 82be
00000210: 98aa dfbe ba7b 94bb 834d 283f 15bb 58bd
00000220: f242 cd3b d0dc 0dbf c8ae 823e 3e12 9dbc
00000230: a032 903e 8c34 b73c ff65 ed3c 0356 89be
00000240: 97f3 4bbd d6ab 3fbc 5873 f1be 4f20 023f
00000250: 0b95 40be 0f7e d2bf 7ca0 803d a2b0 d63d
00000260: 3568 da3d 3eca 1a3f 50e8 2fbe a1c3 4f3e
00000270: 55c8 7bbf 22d6 0dbf 03f2 2940 e9bd fc3e
00000280: 3158 02be 10de 4ebf 49df 7e3f f797 6d3f
00000290: 31f4 76bf f459 2b3e 03b6 af3c e715 a7bd
000002a0: 29c8 82bf 275a cf3e 96ac 12be 6d80 863e
000002b0: 546c 3c3d 5183 2b3d 4f6e 6abc 59b3 503f
000002c0: fb87 b23e 326e c4bd 4686 653e 9681 97be
000002d0: 56cd d73c 77e3 c83e 9645 743e 9bf2 58bf
000002e0: dd0b 53bf c46d eb3f d43b 2dbf 2f15 593f
000002f0: d62f fabd 4e5c 253f ab72 6d3f fd16 0abe
00000300: b6b8 d2be 89ab e6be 3be1 a6be 5ebf 313f
00000310: 99fb a1be ebec 3ebf 7c1a 96be 2015 053e
00000320: 7dc6 47bf 9cee 0140 fb6b feba 8db7 08bf
00000330: 9f4c 8f3b 4cdd dd3e 9804 423f 35a1 713f
00000340: 2ef1 e8be 2d2d 2fbf 2575 f83b fe46 33bf
00000350: b14a c6bd 7185 313e ed25 bbbb 2778 ee3f
00000360: cf84 c13e f8c6 9d3e d522 9c3e 2596 7a3f
00000370: 8969 a83e d0c1 e93f 4995 80bd d6c9 f43f
00000380: 410c 9f3f fbbe a03c 7173 8dbc 13d6 073f
00000390: bfaa 47bf 71b0 e8bd 5a6c 2d3f 75ca bebd
000003a0: 3f62 243e f49c d73c 0b4b aabd 662f d3bf
000003b0: 4c9a 6fbe ebd7 5b3f b1b9 523e 4463 c0bf
000003c0: f718 05bf 5f14 28bf d90a 25bd dc59 b9bf
000003d0: 766a 92bf 4424 793c e85e c33e 82ec 6dbd
000003e0: 2e55 97bd 6717 b43d 0622 243f dd1c 22be
000003f0: b375 673f 6cf9 a33f deac ec3e 8b3d f63e
0.008823722 0.08442582 0.6036444 0.2946354 -1.7698227 0.46968788 -0.3562057 0.1627618
-0.005473186 -0.76596415 0.583943 0.042410977 -0.3701804 0.2901327 0.6787926 1.4556767
0.16561805 0.31868455 0.63831335 -0.18451491 -0.79157037 0.076625295 0.46020263 0.09341733
0.10386277 0.03782727 -0.17461856 0.120797046 -0.070454165 -0.72799927 0.049973167 0.015458017
-1.1978768 0.037026677 -2.248953 -0.6399281 -0.3890368 0.554371 0.1348223 -0.37228388
-1.2209679 0.21434233 0.20846131 -0.0030050005 -0.022814885 -1.5840019 1.1625756 0.014075235
-1.1243055 -0.0042204945 0.24609302 -0.14124927 -0.0840046 -0.25996256 -0.14082612 -0.041366886
0.44562918 -0.18153799 -0.34455925 0.09670296 -0.11396862 -0.6289059 0.29451168 -0.264739
-0.24421108 0.50538474 1.4142072 0.031396244 -0.014614914 -0.04370762 0.045679823 -0.03457135
1.2571012 -0.13020127 -0.26744795 -0.2385184 -0.19542898 0.072178304 0.4733729 0.8638636
0.4176861 0.40561795 0.59648913 0.4032826 -0.47841328 -0.37603912 -0.19614254 -0.19972514
-0.66709733 -1.2243931 0.12271245 0.17878559 -0.030258728 0.47175905 -0.17066346 0.48301473
0.74143165 0.27091846 0.014141629 0.35438138 -0.029865509 0.5210866 0.8480427 0.04281667
-0.09539746 0.026190754 0.07772356 0.53769684 -0.17498972 0.06239749 -1.1308306 1.0981889
1.2255058 -0.033457875 -1.2416419 -0.7260837 -0.016774023 0.36784273 0.014010275 0.9625247
-0.030154673 0.747623 0.07883737 -0.5024494 0.0076385816 0.37970182 -0.42397577 -0.36369425
0.019807486 -0.12232221 -0.66688484 -0.25551435 -0.4368484 -0.004531351 0.65743273 -0.05291279
0.006264084 -0.5541506 0.25523973 -0.019173738 0.28163624 0.022363923 0.0289793 -0.26823434
-0.049792852 -0.011698684 -0.47158313 0.5083055 -0.18806855 -1.644472 0.0628061 0.10482909
0.10664407 0.6046485 -0.17178464 0.2028947 -0.9835256 -0.55404866 2.6553962 0.4936364
-0.12728955 -0.8080759 0.99559456 0.92810005 -0.96466357 0.16733533 0.021449095 -0.081584744
-1.0217334 0.40498468 -0.14323649 0.26269856 0.046001747 0.04187328 -0.014308526 0.8152366
0.3486937 -0.095913306 0.22414503 -0.29591054 0.026343029 0.39236042 0.2385467 -0.84745187
-0.82439977 1.8392873 -0.67669415 0.8479795 -0.12216155 0.6459397 0.92753094 -0.13485332
-0.41156548 -0.45052746 -0.32593712 0.6943263 -0.31637266 -0.7458026 -0.2931708 0.1299634
-0.78037244 2.0301886 -0.0019410843 -0.53405076 0.0043731476 0.433329 0.7578826 0.9438661
-0.45496505 -0.6842831 0.007582324 -0.700302 -0.09682215 0.1733606 -0.005711308 1.8630418
0.37796637 0.30815864 0.30495325 0.9788535 0.32893017 1.8262272 -0.06278474 1.9124095
1.2425615 0.019622317 -0.01726696 0.53061026 -0.7799491 -0.113617785 0.67743456 -0.09315959
0.16053103 0.026319958 -0.083150946 -1.649884 -0.23398703 0.8587634 0.20578648 -1.5030293
-0.5199122 -0.65656084 -0.04029355 -1.4480548 -1.1438739 0.0152064 0.38158345 -0.05808688
-0.073892936 0.08793526 0.64114416 -0.15831323 0.9041397 1.2810493 0.46225637 0.4809383

mean.bias f4 [3]
00000000: 3871 ef3c f31c e43d 075a fdbc
0.029228792 0.11138334 -0.030926717

log_std.weight f4 [3, 256]
00000000: eb0e 2dbd 5b35 193e ca29 a53e 3091 0bbc
00000010: df9f fe3e 1259 313e c205 383e e1bc 66bd
00000020: bc75 0a3d b276 e23e 0bc8 0a3f 0025 bcbc
00000030: 9e8e 46bc c182 843d 109e dd3e abca 033f
00000040: 8025 87bc 7118 c13d 6956 8e3e 6de6 bfbe
00000050: 638d f43e 2961 f7bd dabb 383e c20f 10be
00000060: b341 963e 74c3 803e c153 203d b2ac b03d
00000070: b18f 01be 8a00 113f 316e 173c 4d6e b4bd
00000080: 212a f03e 6b21 183d a033 c7be 2890 1b3e
00000090: 8559 69bd 7287 3b3a 3fb4 f4bc a0de 2e3e
000000a0: 80b8 9c3e 698b 443b 0a8d d13d 1831 0d3d
000000b0: 6027 db3b d8fb c83e 2bb7 163f 0f32 0c3d
000000c0: d0c3 a13e 797a e1bd 220c c5bd 8b77 293e
000000d0: 8087 07bc fc4d 693d 2226 073e a89d c83d
000000e0: cffb e7bd 080b 9a3d df73 9a3e 2459 81bd
000000f0: a27a 24be 58a4 cf3e 6005 093e 336c 153e
00000100: 61c0 c83d 17bf 2abd 7b83 003f 5dce d43c
00000110: 923d f83d fd9d 53be c20e a2bd 6cf2 8cbd
00000120: a7ae 4b3e fa54 0a3e af22 c93d 85ec c03c
00000130: d8fc ca3d 7eb6 8d3a fc5b 883c 3747 6f3e
00000140: 84a3 e73d 92e8 45be e662 953e 2829 083e
00000150: 454f 073e a257 3b3e 49ef 41bd 8944 963e
00000160: f695 8c3c 7d49 9d3e 11f5 db3d 098f 1e3e
00000170: b9f4 f2bc a23d 9f3a 4e1f e83d f476 913e
00000180: 120b e93e 6bb5 173e 43be d63e 65bf 6a3e
00000190: fdd4 8a3c 6ad3 2a3e cc17 3cba c126 21bd
000001a0: e413 523d da2d 2abd bcb3 e73c abc5 01bd
000001b0: 409d 073e 6887 8cbd ff76 6ebe 6df5 563e
000001c0: 4ad1 093e 9b30 3abc cdf6 b13e c305 a13e
000001d0: 8de8 dc3c db1a aabe 4da3 27be fc7d 343e
000001e0: ce47 07bc 38e5 fa3e 7d72 cebd 8fea c63e
000001f0: 6305 ae3c 3338 9abd 73a4 a23e d557 a93b
00000200: 745b 47bd 1ba2 4fbd 01ad f83e 73d6 123d
00000210: be65 73bd f46d 39be ce35 dc3e b50e 5dbd
00000220: c97f 293b 70d1 3f3e 8a73 723d 4cc2 663d
00000230: f92a 6a3e 5a19 57be 5db8 81bd 5de4 6bbd
00000240: 7fc7 54bd 1230 cfbe 6347 493e 4673 a73d
00000250: b1b4 e23d 15d9 2d3f 2524 c93d 5163 a1bc
00000260: 4a85 13be 5ac1 b63d 5bd7 0dbe 86cf 05be
00000270: 5b6d 153f 3170 6e3d d0f9 913f 73e2 f33d
00000280: eff4 403d affc 6c3e 980d cb3e a2d3 f73e
00000290: 4647 9c3e 8d3f 173e 54b4 ab3b 4363 15bd
000002a0: 9659 fe3d 5849 7f3d 6c52 643c 1a53 12bd
000002b0: fb0d 19be 478a cabc 3731 65bd 9267 4c3e
000002c0: e023 4b3e 7e12 7a3d eeba a43d ec6e 8c3d
000002d0: 4eb2 51bd b421 373e ef58 b83d 724d b9bc
000002e0: a148 d3bb 603d 563f 4688 3a3e c8fd e63e
000002f0: 59f0 953c 9cdf a03e 9a55 733e 42c8 b0bd
00000300: 454a 143e a6ba f53d cbc8 94bd 47e5 fc3e
00000310: 16b9 c8bc 1fd2 843e 8948 913e 8089 af3e
00000320: 6bde eb3d ab28 633f 87bd 963c 4cd9 bb3e
00000330: 51a2 c7bb 16d4 fb3c b2f2 e93e df83 1d3f
00000340: 4bee 003d 7bcb 7a3e 4732 24be b120 4a3e
00000350: 6840 8a3c 1746 eb3c 51aa 523d 6f3c 683f
00000360: fa4f 0c3f 0128 3c3e cc84 0b3e 4954 613e
00000370: 85bf f73c 837d f43e db8e 47be fc6c 003f
00000380: d1d7 4d3f f1c5 733d 2f97 6e3d 63c6 273e
00000390: 4c9a 873d 74f8 3a3f 2012 b03e 1bfa f03d
000003a0: e093 f7bd 0c69 6d3d 8dc5 f83d ed23 143f
000003b0: f02a f63d 3d1a 893e 8e0d 87bd 6d38 293f
000003c0: a6c8 823e fdfb c53e 0af9 9e3d 0c4a 1bbe
000003d0: 335f 20bd 69ce 18be 9c50 433e 1e34 d13d
000003e0: 9217 1bbc 2f55 6dbd a93d 373e f189 9bbd
000003f0: 3e8b 353f 6d0c 363f e1da 10bd 31c4 963e
-0.042250555 0.1496176 0.32258445 -0.008518502 0.49731347 0.17319134 0.17970946 -0.056332473
0.033803686 0.44231182 0.5421149 -0.022966862 -0.0121189635 0.06470252 0.43284655 0.5148112
-0.016497374 0.0942849 0.278003 -0.37480488 0.4776412 -0.12079079 0.1804041 -0.14068511
0.29347 0.2514912 0.039142374 0.08626689 -0.1265247 0.5664145 0.00924258 -0.08810101
0.46907142 0.037141245 -0.38906574 0.1519171 -0.056970138 0.0007153667 -0.029871104 0.17077112
0.30609512 0.0029990321 0.10231979 0.034470648 0.0066880435 0.39254642 0.5887324 0.034227427
0.31594706 -0.11009688 -0.09621455 0.16549508 -0.008272052 0.056959137 0.1319814 0.097956955
-0.113273256 0.07521635 0.30166528 -0.0631583 -0.16062406 0.40555072 0.13380957 0.14592056
0.09802318 -0.041686144 0.50200623 0.025977308 0.121211186 -0.20665736 -0.07912971 -0.06882176
0.19890843 0.13508978 0.098210685 0.023550281 0.09911507 0.0010811833 0.016645424 0.2336701
0.11310485 -0.19327 0.29177016 0.1329695 0.13213833 0.18295148 -0.04734734 0.29349163
0.01716135 0.3072013 0.10740102 0.15484251 -0.029657708 0.0012149105 0.11334096 0.28411067
0.45516258 0.14815299 0.41942033 0.22924574 0.016947264 0.1668221 -0.0007175177 -0.0393436
0.0512885 -0.041547634 0.028283946 -0.03168265 0.1324358 -0.06861764 -0.23287581 0.2099206
0.13458744 -0.0113641275 0.34758607 0.31449708 0.026966358 -0.33223614 -0.16370888 0.17626184
-0.008256866 0.49003005 -0.10080431 0.3885083 0.021242803 -0.075302504 0.3176609 0.005167941
-0.0486712 -0.050691705 0.48569492 0.035849046 -0.0594232 -0.1810835 0.430098 -0.053969104
0.002586352 0.18732238 0.059192218 0.05633764 0.22867955 -0.21005765 -0.06333993 -0.05759083
-0.051948067 -0.40466362 0.19656138 0.081762835 0.110696204 0.67909366 0.09821347 -0.019700678
-0.14406314 0.08923598 -0.13851683 -0.13067445 0.5836999 0.058212463 1.1404362 0.11908426
0.047108587 0.23143266 0.3965881 0.4840365 0.30523127 0.14770336 0.0052400026 -0.036471616
0.12419431 0.062325805 0.0139356665 -0.035723783 -0.1494674 -0.024724139 -0.055955138 0.19961384
0.19837904 0.06105279 0.080434665 0.06857094 -0.051195435 0.1788395 0.09001338 -0.022619937
-0.006447867 0.836874 0.18216047 0.45115495 0.018303083 0.314206 0.23763123 -0.08631946
0.14481457 0.11998491 -0.07264861 0.49393675 -0.024502318 0.2594156 0.28375652 0.34284592
0.11517032 0.8873393 0.01840092 0.36689222 -0.0060923477 0.030740779 0.45692974 0.61529344
0.031477254 0.24491684 -0.16034804 0.19739033 0.016876414 0.028719945 0.051431958 0.90717214
0.54809535 0.18374635 0.13624877 0.22004808 0.03024269 0.47752008 -0.19488089 0.50166297
0.80407435 0.059514944 0.05824965 0.16384272 0.06621227 0.7303536 0.34388828 0.11766454
-0.12088752 0.05796151 0.12147055 0.5786732 0.120199084 0.2677783 -0.06594382 0.66101724
0.25543708 0.38668814 0.07762344 -0.15164965 -0.03915329 -0.14922489 0.19073719 0.10215019
-0.009466069 -0.057942566 0.17894615 -0.075946696 0.7091559 0.7111271 -0.03536499 0.29446557

log_std.bias f4 [3]
00000000: 4c0c e4bf ea67 d3bf b491 e8bf
-1.7816253 -1.6516087 -1.8169465
