trained_models/HopperNormal-v3/sero/actor_4.pt (torch, 284608 bytes, 8 tensors)

shared.0.weight f4 [256, 11]
00000000: 0a94 b7be b3c7 8cbf eb86 cdbe 5a5c 5abf
00000010: 065f 8ebf e3b3 debe 8e9c 84be be44 c4bd
00000020: 7ab8 a63d 8cfc 2c3e 86a1 3b3c 6df0 0dbe
00000030: 786c 953f 6ebb 993f 19a5 33be 0258 1cbf
00000040: 598e cfbe 8b9c ccbe 9623 be3d dbd0 ab3d
00000050: 8c1d 533e 68c6 2e3e d900 c3bf 7a11 a6bf
00000060: 7042 26be cdbf 583d 1b81 143e e6de 753d
00000070: 52fe 35bf b364 9bbe 3b50 5d3e 1f65 c93d
00000080: 4ca9 653d 6fdf 74bf d4ca 6dbf d99c 77bf
00000090: e111 cdbe e59d ac3d 78ba fc3d 6615 083e
000000a0: a101 e73d ff3f d6be f837 87be 79b7 52bd
000000b0: 6737 ecbe d530 74bf a331 3cbf eeff 30bf
000000c0: 17c4 09bf 9832 ffbe e75b babd c239 61bd
000000d0: b209 a3be 4b05 e3b9 d0fa 18be 35a8 0cbf
000000e0: ceab a240 9a32 1d3f df53 943d ba84 913c
000000f0: d7a8 b53e 585d 5e3d 4b1e daba 932d b43d
00000100: e59d ac3c ead0 2e3d 5602 8bbe 04fe b33e
00000110: 0a76 e03e d22c 87bf 4e2f 803d a2fb 09be
00000120: 931d 33be 6f90 b73e 3df3 afbe 7475 b7be
00000130: a99e 9cbd 04b0 53bf a4ed 51c0 bac1 2fbf
00000140: 81e2 e9be fa69 86bc 784c c0bd 3507 48be
00000150: adcf 5cbe fe90 093e aca7 9a3d 2f60 903b
00000160: bfcd 7f3e 8126 5940 a812 05bf bef8 dabe
00000170: e616 9ebd 7e1a 9fbe ab6f 0dbe 73cc 1bbe
00000180: dc92 21bb a981 073e 4692 3fbd 7322 efbe
00000190: 8277 10be ab3a c83e d7b8 c93d 66c0 c4bf
000001a0: 5e90 3c3e 8297 1ebf eda1 16bf 8b43 133f
000001b0: 07e6 c43e 39ff dd3b b93b 0bbf f4c4 f13f
000001c0: a1b3 bfbf 58fc 37bf 380a 55be 01c8 8b3e
000001d0: e5a1 e3bd 988c 25bc 1667 96bb 70f1 f7bc
000001e0: fd32 243c 0281 1d3f 503c b8be a58d 763d
000001f0: 1ddb bfbd 811d e63e bb17 d5bd 8714 983c
00000200: a9f5 34be adab f73d d53c b13d 182d 5e3c
00000210: dbd9 7dbe 21ab ec3e a920 923d 74bf 6e3e
00000220: 7afb 10c0 4516 52be d717 edbd c142 a33e
00000230: c4bd 76be aecb 08be 8f35 90bd 00e6 23bf
00000240: 8806 81bf 7c97 9abe 6a0e 35bf 79f6 6abe
00000250: bfdf d4bd 5333 3cbe 585f c7bd 7fe7 39be
00000260: 84d7 11be 2c6e febd 60fd 7d3e ec89 3340
00000270: 0c8c c5be e716 cbbe 0d16 2d3f 825d 48bf
00000280: 83b9 f73c ed0b 91bd e4a9 c93d ec6e 6c3c
00000290: b1c7 e8bd dea1 bf3e 0c26 99bf 5518 7e3f
000002a0: e2e6 c73e 8c7d a0bd de0c 2bbf 9d8f 0d3f
000002b0: 007d c8bd 899a 823d c89a b43c 30a5 acbc
000002c0: ad20 9abe 9c8c d33f 6ba7 57bf d4cd 03bf
000002d0: e4a0 2cbe fb12 ce3e 11c3 81bd 3968 b73b
000002e0: e3e0 e03c 27c2 f0bb 1f93 073d 9aa8 60bb
000002f0: 1209 e43e 2c49 5dbf 8906 013f ba7e 3bbe
00000300: 346c 53be 90f4 a73e a0bb 063f b991 ebbe
00000310: 9967 56be 23cb cd3d f3ff 84bf ba40 df3f
00000320: cbf3 d2be 72e5 b4bd 910c 9abe 264e 103e
00000330: e70f 4a3f 05d3 aabe cc78 b93e cbbc 493e
00000340: ec42 273d 1b93 233f df1f e6bf 17e0 bb3f
00000350: 6b62 863f bc1c 2b3e 5bb5 b1be 7224 9dbd
00000360: 4963 ed3d 96dc a8bd 1afe 8bbc 5f75 dcbb
00000370: 6761 7fbd efc4 ed3f 2844 abbf 96cc c3be
00000380: 24e5 3f3f 699e 06be a77e fe3e 54fc 70be
00000390: 295c 863e 3129 5c3e 71fd 7d3d 5474 263e
000003a0: c1f4 0b40 db93 15be 9f23 85be a124 1f3d
000003b0: 15bf 66bf 7b4f 343e 5074 1c3d c4e1 cc3d
000003c0: 5837 b43d 89ac c3bd ab6d 7fbf df2b 5d3f
000003d0: 3707 e43f ffe5 c53f c87c 8d3d d0dc e43d
000003e0: 408b 113e fd15 0e3e bc88 2a3d 3eeb e53d
000003f0: 9e25 89be 67b5 8abe 1b88 603f 9215 903f
-0.35855132 -1.0998443 -0.40141997 -0.8529717 -1.1122749 -0.43496618 -0.25900692 -0.09583424
0.08140655 0.16893214 0.011452084 -0.13861246 1.1673727 1.2010324 -0.17543449 -0.6107179
-0.4053829 -0.39963183 0.09284131 0.083894454 0.2061674 0.17067873 -1.5234634 -1.2974083
-0.16236281 0.05291729 0.14502375 0.060027026 -0.71091187 -0.30350265 0.21612637 0.098337404
0.056069657 -0.9565343 -0.92887616 -0.96723706 -0.40052703 0.084285535 0.123402536 0.13289413
0.112796076 -0.418457 -0.26409888 -0.051444504 -0.4613602 -0.9538701 -0.7351324 -0.6914052
-0.53814834 -0.49843287 -0.0909956 -0.054986723 -0.31843334 -0.00043300758 -0.14939427 -0.54944164
5.0834723 0.61405337 0.0724256 0.017763484 0.35480377 0.05428824 -0.0016641108 0.08797755
0.021071384 0.042679705 -0.2715022 0.35154736 0.43840057 -1.0560553 0.06259023 -0.13474897
-0.1749175 0.35852382 -0.34365264 -0.35831797 -0.076474495 -0.82690454 -3.2801294 -0.6865498
-0.4568062 -0.016407955 -0.09389585 -0.19534 -0.21563597 0.13434216 0.07551512 0.004405997
0.2498083 3.392975 -0.5198159 -0.427679 -0.07719211 -0.310749 -0.13812129 -0.1521471
-0.0024654185 0.13233055 -0.046770357 -0.4670597 -0.14108089 0.3910726 0.098497085 -1.5371215
0.18414447 -0.6194993 -0.5884083 0.5752494 0.38456747 0.0067748097 -0.54388005 1.888823
-1.4976693 -0.7186942 -0.2080468 0.27301028 -0.11114863 -0.010104321 -0.0045899255 -0.030266494
0.010021922 0.61524975 -0.35983515 0.060193677 -0.093679644 0.44944385 -0.10404917 0.018564476
-0.17671837 0.120932914 0.08654181 0.013560556 -0.24790137 0.4622431 0.07135136 0.23315221
-2.265349 -0.20516308 -0.11576813 0.31886867 -0.24095827 -0.13358948 -0.070414655 -0.6402283
-1.0080118 -0.30193698 -0.7072512 -0.22945584 -0.10394239 -0.18378954 -0.09734982 -0.18154715
-0.14242369 -0.12423357 0.24803686 2.805293 -0.3858341 -0.3966591 0.6761177 -0.7826768
0.030239826 -0.07082353 0.09846857 0.014430743 -0.11366213 0.37428182 -1.1964736 0.9925588
0.39043337 -0.07836446 -0.6681651 0.5529726 -0.09789467 0.063771315 0.022046462 -0.021074861
-0.30103055 1.6527286 -0.84239835 -0.51485944 -0.1685825 0.40248856 -0.06336034 0.005597141
0.027450984 -0.0073473635 0.03309929 -0.0034280182 0.4453817 -0.86439776 0.50400597 -0.18310061
-0.20646745 0.32803774 0.52630043 -0.46009615 -0.20937957 0.10048511 -1.039061 1.7441628
-0.41201624 -0.08832826 -0.30087712 0.14092311 0.78930515 -0.3336412 0.36224973 0.19700925
0.040835306 0.6389634 -1.7978476 1.4677762 1.0498785 0.1671018 -0.34708676 -0.07672967
0.11591203 -0.082451984 -0.017088939 -0.006727859 -0.06234875 1.8575724 -1.3380175 -0.38242024
0.74959016 -0.13146366 0.49706003 -0.23533756 0.26242188 0.21500088 0.06200928 0.16255313
2.1868136 -0.14607184 -0.2600374 0.03885329 -0.9013532 0.17608444 0.03819686 0.10003999
0.087996185 -0.09554393 -0.99776715 0.86395067 1.7814702 1.5460814 0.06908566 0.11174929
0.14213276 0.13875575 0.041634306 0.112265095 -0.26786512 -0.27091524 0.8770768 1.1256583

shared.0.bias f4 [256]
00000000: f8f2 a43e d346 2d3e cd9a e439 fd25 39bf
00000010: 62aa 50bf 2037 24bd 83a5 03bf da51 a63e
00000020: 7bb2 c6be 11cf 49bf 8709 37bf dcd3 32bf
00000030: ee08 5abf a4fb 03bf 0c7d 893c 6c75 bf3d
00000040: 89c2 9fbf 04af b9be 6181 30bf 50ae f33e
00000050: 38b2 a9be a33f c83e 1fa5 e0be 16b8 cbbe
00000060: 7323 fbbe 9586 153e cd27 10bf 901a 9fbe
00000070: f398 eabe e5eb 00be 0866 85bf d1cd 3fbf
00000080: c7be 243f 1009 adbe fd9c c4be e5e8 46bf
00000090: 516c 1cbf a6bb 26bf 7975 68bf 16fe d1be
000000a0: 2657 17be a3a7 efbe 9257 adbe 8645 91be
000000b0: 73e8 8d3d a5d0 cdbe 07d4 393e 4f11 74be
000000c0: 1900 b4be d38c d83d bcd1 dabe 9dff cabe
000000d0: cff6 36bf a922 e13c 1cb4 a7be 8176 8ebd
000000e0: fc51 6ebd a521 83be 1281 23bf 61d6 97be
000000f0: 2cee 273e 8aa7 8d3d 4072 b1bc 5dd0 0bbe
00000100: 129a bebe 70e0 2cbf 7881 363f c30b f1bd
00000110: 7df7 d73c 9c62 3bbf 6679 7ebe 43ec b23e
00000120: 99ec d23d 8672 3dbe badd f3be 6ad1 bbbe
00000130: 277f 50bf b75e fbbe a8d5 83bf e40f 14bf
00000140: e35a 3b3e 03a2 10be fff3 8fbe 7751 eabd
00000150: 32dd c5be 54d9 bfbe c193 9c3d a353 50bf
00000160: f5b0 9e3e 5a64 8fbe 4cf2 24bf b9c5 b5bd
00000170: b5f6 85be 3031 52be 43e5 c63e a844 4abf
00000180: f03d 36bf cbe8 31bf 20e5 c3bb d4e8 ee3d
00000190: cc1b 6e3e 34c6 9cbe 02e5 e53d c807 0c3d
000001a0: 4b2d b8be 26cc 2dbf 8135 82bf 597e 13be
000001b0: ba3f bebe c797 8bbe cc72 b83e a978 1dbd
000001c0: 98fd 27bf f4ac 47be 677c 86bf 0a4c 4b3e
000001d0: 252d 513d b249 48bd ea40 36bf 5578 d5bd
000001e0: b817 a139 50e5 e0be 5903 4cbe 0d54 ebbe
000001f0: da4f 20bf 1504 4ebf 8047 1cbf 5073 45bc
00000200: 3b7e 05bf 5e63 f6bd 175c fbbe 1b46 dfbd
00000210: 42a2 96bf 8002 c7be 8d2f 463e d413 dd3d
00000220: 84cd 4abf bbe7 93be 0796 5cbf fc64 c03e
00000230: 81b9 1abf ea70 31be 0f9d c0be 4e8f 30bf
00000240: 685f 2dbf 6c38 c8be 532e a13e 9e3b dcbd
00000250: 7816 4a3d dd20 c8be 11e8 99bc 344e b3be
00000260: 258c 95be a272 65bc 9236 f23d bbe5 d9bd
00000270: f59a ae3d 9c92 5c3d d5f5 34be 4788 8dbf
00000280: 709a 94be b557 78be f9bf 843e f4fa 17be
00000290: 5569 04be 079b a2bf 29d1 f9bd eab7 ef3e
000002a0: 1c0d 80bd 5412 ed3e ca56 96be d5ca c8be
000002b0: 6750 20be d360 113d 2563 40bf 5533 9bbe
000002c0: be14 83bd 2a36 ecbe 61b9 42bd b52e b6be
000002d0: 21a7 1abf a420 c23d fadc 06bf 6918 27bf
000002e0: 07d3 13bf 9572 85bf 1f6b 8cbe 1ca3 c1be
000002f0: f57b 703e 18aa 66bd 1d09 19be d2d1 03bf
00000300: e253 2ebe 7f5b 76be 16e5 323e 1a4c febd
00000310: 8407 c3bc 3225 283e 2424 a0be 83de 623e
00000320: cf4b a8be 41c0 c3be 0971 0bbf 90ce 25bf
00000330: e67e 90bd cb1b 92be 291f 35bf 84d4 f8be
00000340: fba4 0cbf 2d00 fbbe 4112 3dbf 0602 b8bf
00000350: 2fb0 7fbe 5310 07bf 8c14 1cbf aa66 89be
00000360: d1a2 f33c ac6f 6bbe 73b5 33bd a789 f1be
00000370: e5f9 adbe 1ff9 9ebe 2f5f c2be 4bae de3e
00000380: a105 d2bc 415b 8abf 93b7 e2be 624e 9abe
00000390: 9b5b 083e 79e6 a2bf ca49 90bf 3e8d 8dbe
000003a0: 749b 3dbe b590 62bf d116 97be 2456 d63e
000003b0: 813a 1fbf f02e 5fbf 964b 17be 5aff 0abf
000003c0: 0713 24bf a222 4abe 99f2 15bd 5921 20be
000003d0: 2e41 1dbf 8b5e 40be 2e10 83be e691 27bf
000003e0: c224 5ebf e16e e6be 255c 94be e8df 7bbf
000003f0: 2801 23bf fc8e 0abe 0935 573e 5c03 3ebe
0.3221662 0.16921549 0.00043602884 -0.7232359 -0.81509984 -0.040091634 -0.51424426 0.32484323
-0.38808045 -0.78831583 -0.7149891 -0.6985452 -0.85169876 -0.5155585 0.01678326 0.09348568
-1.2481242 -0.3626634 -0.68947417 0.47593927 -0.33143783 0.3911105 -0.43875977 -0.39788884
-0.49050483 0.1460212 -0.5631073 -0.31074953 -0.45819816 -0.12589987 -1.0421762 -0.74923426
0.64353603 -0.33795977 -0.38401023 -0.7769912 -0.6110278 -0.6513008 -0.9080425 -0.41014165
-0.14779338 -0.46807584 -0.33855873 -0.28373355 0.06929102 -0.40198246 0.18147288 -0.23834728
-0.35156325 0.10573735 -0.4273814 -0.39648142 -0.7147035 0.027482348 -0.327546 -0.069561966
-0.058183655 -0.25611606 -0.6386882 -0.29655746 0.16399449 0.06916721 -0.021660924 -0.13653703
-0.3722692 -0.67529964 0.71291304 -0.117698215 0.026363129 -0.7319734 -0.24850997 0.34945878
0.10299034 -0.18500718 -0.476301 -0.36683208 -0.8144402 -0.490957 -1.0299578 -0.5783675
0.1829639 -0.14124303 -0.28115842 -0.114413194 -0.3864532 -0.37470496 0.07645369 -0.8137762
0.30994383 -0.2800625 -0.64432216 -0.08875603 -0.26164785 -0.20526576 0.38846788 -0.7901101
-0.7118826 -0.6949584 -0.0059782416 0.11665502 0.23252791 -0.30619967 0.112253204 0.03418711
-0.35972056 -0.6788963 -1.0172578 -0.14403667 -0.37157995 -0.27264234 0.36025083 -0.03844515
-0.6562133 -0.1949957 -1.0506715 0.19853225 0.051068444 -0.048898406 -0.711928 -0.10423342
0.00030725985 -0.43924952 -0.19923152 -0.45962563 -0.62621844 -0.8047498 -0.610466 -0.012051418
-0.5214574 -0.120306715 -0.49093696 -0.109020434 -1.1768267 -0.38869095 0.19354077 0.107947975
-0.7921984 -0.28887734 -0.86166424 0.37577045 -0.60439306 -0.1732823 -0.37619826 -0.68968666
-0.67723703 -0.39105546 0.31480655 -0.107535586 0.049337834 -0.39087573 -0.018787416 -0.35020602
-0.29208484 -0.014004381 0.11826815 -0.10639521 0.085256495 0.053850755 -0.17671902 -1.1057214
-0.29024076 -0.24252208 0.25927714 -0.14841825 -0.12930806 -1.270356 -0.12198097 0.46820003
-0.062525004 0.46303046 -0.2936309 -0.3921725 -0.15655671 0.03549273 -0.7515128 -0.303126
-0.06400441 -0.46135074 -0.047540072 -0.3558251 -0.6041127 0.09478882 -0.52680933 -0.6527162
-0.5774388 -1.0425593 -0.27425477 -0.37819755 0.23484786 -0.056314558 -0.14944883 -0.51492035
-0.17024186 -0.2405834 0.17470202 -0.12416859 -0.023807295 0.16420439 -0.31277573 0.22155194
-0.32870337 -0.38232616 -0.5446935 -0.64768314 -0.07055454 -0.2853683 -0.7075067 -0.48599637
-0.5493924 -0.49023572 -0.7385598 -1.4375618 -0.24969552 -0.52759284 -0.6096885 -0.2683614
0.029740723 -0.22991818 -0.043874215 -0.47175333 -0.33979717 -0.3104944 -0.37963244 0.4349235
-0.02563745 -1.0809098 -0.4428068 -0.30137926 0.13316195 -1.2726585 -1.1272519 -0.27646822
-0.18516332 -0.88502055 -0.29509595 0.41862595 -0.62198645 -0.87180996 -0.14774927 -0.54295886
-0.64091533 -0.19739774 -0.036608312 -0.15637721 -0.6142758 -0.18786065 -0.25598282 -0.65457
-0.8677484 -0.4500647 -0.2897655 -0.9838853 -0.6367364 -0.13531107 0.21016325 -0.18555969

shared.3.weight f4 [256, 256]
00000000: 0753 e4be d6d8 27bc 0faa 163f 4d0c 37bf
00000010: 7624 55be 3bbf 79be 6290 9fbe eaf0 dfbf
00000020: f212 043e 4d9a 9d3f 7a44 923d 09a2 2abf
00000030: f264 1ebf 0a0e 2dbf cd87 50bf 3073 98bc
00000040: 8696 113e 7f3c 593e 584c a7bf 4c50 c0bf
00000050: 2310 28bd c7d5 0ebe 197f 57be bf19 3bbd
00000060: dfdd 6dbf b587 21bf 7dab bcbd c7e9 c8be
00000070: 1a95 f4be 1263 68be ac16 0abf 3711 0ebf
00000080: 8f64 9fbd d56f 62bf ed0e 1abe 34f2 df3c
00000090: 58bd 1abf 92e3 cf3e 939f 283d f283 91bd
000000a0: 0282 24bf 60a4 83be 624c d03e 453e 4c3e
000000b0: ab5d a7bd bb54 23be 9b41 65bf 7fef 30bd
000000c0: 70c7 03bd 5706 73bf 01f1 ab3d f16c 993c
000000d0: 7d96 2a3e 7e1c 50bc be48 2bbf 2ce8 52bf
000000e0: 655f fbbe 1c51 593d 2fea 7fbf 0a3e c8bf
000000f0: 9dc5 2c3f b563 b13e 9393 c3be 62a5 73bd
00000100: 5d8f 78be e9c4 033e 7e3e 42be ee1f e2bd
00000110: 989d 33bf 7106 f6be 7c5f a63d cc90 cd3e
00000120: 37f3 93be 4377 28be 5a72 adbe a4ab fc3e
00000130: da53 2bbd 4ed5 9e3d af9b dc3e d93d 9abe
00000140: 6c76 f8be d6da f5bf c620 adbe 2708 54be
00000150: 4ec0 0b3f 74a9 a9bf fb07 73bf 1753 0e3e
00000160: 2b64 fbbe 06a8 e03c 63a7 bcbf de56 b0bd
00000170: cee6 1bbf 0444 f53d 2c68 fdbe e9de 0d3e
00000180: 25bf 2cbf b1dd 93be 8a3b 48bf 7b16 94bd
00000190: b8fa 06bf 7b74 583c 61b0 783e 687b a23e
000001a0: b3a0 e7bc 5039 013e ef92 d7be 3a79 ddbe
000001b0: 56b6 60bf daba 80bf 6489 b2bf 4cae f0be
000001c0: 3877 0cbf cc33 4dbf 9873 4fbc b341 4cbf
000001d0: 8749 5fbd 9259 d8bf 50df 6fbf 8828 023f
000001e0: aa4e 05be 5b65 f3be 0120 abbe 6e43 fcbf
000001f0: 0a13 3dbf b913 2dbd 5355 33bf f65d 453e
00000200: 0d34 01bf 262c 3ebd 8922 173e e714 b23e
00000210: 7823 a93d ad03 ba3d 5049 b8be 60ef 53be
00000220: 6994 373e d19b 343c e83b 123f 9965 c7be
00000230: 37cf 10bf 624f ccbd ee47 18bf 051d f5be
00000240: 8b88 f73c 8e72 29bf 502a 82be 0713 a3be
00000250: 7fc3 57bf eb6c f13e a146 8abf f7db 4abf
00000260: 4966 91bf de0e f73e c00f 43be 2c40 d4bd
00000270: 2336 303e 48c6 88be 66f6 223d dfeb a6bd
00000280: 6c41 e3be 0bef 0b3d 61e4 01bf 12ca 86bf
00000290: 9e2f 253d 6cc8 a23e 0cb4 333e a4f5 1bbf
000002a0: d670 bcbe 979b b1bf 467f b2bd 4eb3 ea3e
000002b0: 0cd0 08bd 3f66 1abf a241 a5bc 8532 063c
000002c0: 132b 47be cadd dfbe 8ad8 7cbe a6df 123f
000002d0: 3a2f 01bd 1a2f f43d 7d6b 313e a5d6 8cbe
000002e0: 2d18 fd3c 1591 3fbe 56fa a83c 3f9f 1bbf
000002f0: 2063 b3bf adbf 43be a81d e2be c5fe 3dbe
00000300: d51b d4be c826 b2bd 49cc dd3e b2cf 1ebe
00000310: cdf2 9ebe fb56 93bf 9dd6 5fbf fa32 56bf
00000320: dcdd 83bd 63e4 00bf e75f 20bd d25c 983c
00000330: 0dae 723e 0a37 0b3f e53b 993e b5c1 fbbd
00000340: 8d75 d4bf 24d5 e7be 0a2a 3f3f 0e2e 323f
00000350: 9422 fabe 6287 06c0 599f 093e 7c61 1fbe
00000360: e8a2 dabe 9f51 70bf 71b2 c2bd 8381 22bf
00000370: a3fb c33e ca22 bfbe 7d5f e93d c5d3 c83d
00000380: de70 59bf e29d e83e af97 8ebf d090 80bf
00000390: a22c 1bbf 2c89 613f 7b9f 513f 5528 61bf
000003a0: d023 49be b2fd a3be cfc6 b53d 3f8a a5bf
000003b0: e403 05bf 0f8b 22be 4131 403f 9ab7 fb3c
000003c0: e258 303e 3954 f13e 590e 873d ed0e c6bf
000003d0: 7236 41bf 67cb c8be 2147 29bf bd69 0dbf
000003e0: 66ae 38be 3c5f cebd b839 a23e 51b2 c43b
000003f0: 65f6 b9bf 28cd 24bf 3eed 213e 0154 96bf
-0.44594595 -0.010244569 0.5885324 -0.71503145 -0.2081469 -0.24389355 -0.31164843 -1.7495396
0.12897852 1.2312714 0.07141967 -0.66653496 -0.6187278 -0.67599547 -0.81457216 -0.018609613
0.14217576 0.21214484 -1.3070173 -1.5024505 -0.041031014 -0.13948737 -0.21044578 -0.04567885
-0.92916673 -0.630977 -0.09212396 -0.39240858 -0.47770005 -0.22694042 -0.53940845 -0.5549502
-0.07782852 -0.8845189 -0.15044756 0.027337171 -0.60445166 0.4060331 0.041167807 -0.07105245
-0.64260876 -0.25711346 0.40683275 0.19945629 -0.081721626 -0.15950291 -0.8955323 -0.04319715
-0.03217262 -0.9493155 0.08395577 0.018728705 0.16658969 -0.012702106 -0.6690787 -0.82385516
-0.49096218 0.053055868 -0.9996671 -1.5643933 0.67489034 0.34646383 -0.38198528 -0.059483893
-0.24273439 0.12868084 -0.18969151 -0.11041246 -0.70162344 -0.4805179 0.08123681 0.40149534
-0.28896496 -0.16451745 -0.33876306 0.493497 -0.041828014 0.077555284 0.43087527 -0.3012531
-0.4852785 -1.9207408 -0.33814067 -0.20706235 0.5459031 -1.3254838 -0.9493405 0.13898884
-0.4909986 0.02742387 -1.4738582 -0.086103186 -0.60899055 0.119758636 -0.4949354 0.13854565
-0.67479163 -0.28880075 -0.7821585 -0.0723085 -0.52726316 0.013211365 0.24286033 0.31734776
-0.02827487 0.12619519 -0.4210429 -0.4325655 -0.8777822 -1.0057023 -1.3948178 -0.47007978
-0.54869413 -0.8015716 -0.012661837 -0.7978775 -0.05451348 -1.6902335 -0.9370012 0.50843096
-0.13018289 -0.47538266 -0.33422855 -1.9708078 -0.73857176 -0.042255137 -0.7005207 0.19274125
-0.5047005 -0.046428822 0.14759268 0.34781572 0.08258718 0.09082732 -0.35993433 -0.20696783
0.17927708 0.011023478 0.5712266 -0.389447 -0.56566185 -0.099760786 -0.59484756 -0.47873703
0.030216476 -0.6619042 -0.25422907 -0.31850454 -0.8428268 0.4715341 -1.0802804 -0.7924189
-1.135934 0.4825353 -0.19048977 -0.10363802 0.17208152 -0.26713777 0.039785765 -0.081504576
-0.4438585 0.034163516 -0.50739104 -1.0530417 0.040328614 0.31793535 0.17549151 -0.6092169
-0.36804837 -1.3875607 -0.08715682 0.45839924 -0.033401534 -0.60312265 -0.020172898 0.008190756
-0.19450025 -0.437239 -0.24691978 0.5737251 -0.03153918 0.119230464 0.1732616 -0.2750751
0.030895317 -0.18707688 0.020627182 -0.60789865 -1.4014626 -0.19116087 -0.4416325 -0.18554218
-0.41427484 -0.08698803 0.4331992 -0.15508917 -0.31044617 -1.1510919 -0.8743685 -0.83671534
-0.06438801 -0.5034849 -0.03915396 0.018598948 0.23699208 0.5438086 0.29928508 -0.12292806
-1.6598374 -0.452798 0.7467352 0.69601524 -0.48854506 -2.102013 0.13439693 -0.15564531
-0.42702413 -0.93874544 -0.09506691 -0.6347887 0.3827792 -0.3733123 0.11395166 0.09806017
-0.84937847 0.45432955 -1.114004 -1.0044193 -0.6061498 0.8809993 0.8188397 -0.87952167
-0.19642568 -0.32029492 0.0887581 -1.2932814 -0.5195906 -0.15873359 0.75075155 0.030727196
0.17221406 0.4713457 0.065945335 -1.5473305 -0.754737 -0.39217684 -0.6612416 -0.5523947
-0.18035278 -0.10076758 0.3168466 0.0060027023 -1.4528319 -0.64375544 0.15813157 -1.1744386

shared.3.bias f4 [256]
00000000: f77c 75be 0e33 d6be 5fb6 09be 8164 783e
00000010: f8b0 c6bd a567 f93d d0de d03d 9588 0c3e
00000020: 71c9 d83d 7e05 6f3d 115c 433e 1584 30be
00000030: 2068 843c cc79 383d 6d83 22be 5be7 c8be
00000040: 5a58 a4be 4515 b9be 70ba b4be 1098 d1bd
00000050: 6958 c53e 8b5f 953e 6af5 b53d cc46 abbd
00000060: 3d5d 873e 690c cabe 0bd9 a53d b903 97bc
00000070: 7b37 5abd 1955 80be 41af 863e 36ba 763e
00000080: 81a4 5fbe b194 103e cb0b 9fbe da64 d73d
00000090: 7963 1d3d 23c4 0dbf 7cc5 a13e 1198 f3bd
000000a0: 23af ce3d d89b f63d 5760 6abe 9f88 4d3e
000000b0: 60b2 95be 0c7d babe 791a 8ebe c567 27bf
000000c0: 52f0 d83c 57ba d5bb b7c5 cbbe e458 b53d
000000d0: 1406 883e 56f4 ba3d 487b dabd a4ef a63d
000000e0: f26a c1bd e75e 283e d94c a93d 55c9 303d
000000f0: 9f3f bdbe 0bbd 2fbf 66a9 0abf 0497 2ebe
00000100: 2be6 29bf b386 a33e 40e3 a8be 9b7b 23bf
00000110: 60ae bb3c fac9 d0bd 9656 963e 6853 07bf
00000120: e2e5 21bf 97a3 bb3e 8d39 aabd a502 07bf
00000130: 7076 473d c093 7cbe 5bd9 9cbd aa60 20be
00000140: a3c7 f73c 3cc8 913c b1f1 cdbe 94bc e7be
00000150: 1757 f4be 601e 743e ba65 603e d2a3 853e
00000160: a51a f9be 8b9c eebe a04c 9dbd a2d3 193e
00000170: 02c2 823d 757b df3e ce26 a83c 89f9 8a3b
00000180: bab7 2bbe 2c70 773d 5cd9 62be b44c 423d
00000190: 93e9 83be df32 30be 02fa 3fbe dd7a 1d3e
000001a0: a81a 94be 86df 1e3e d229 a7be 9040 0cbe
000001b0: 20c2 043d 5cc7 bd3c de98 4ebe 9ba2 243c
000001c0: db50 ad3e 7456 54be 59d6 a2be fd87 a6be
000001d0: c020 763e fd9a 38be dc0f 2dbe 8bb7 69be
000001e0: 691e 6ebe cc5c b9be e93a 9abd 03c2 33bd
000001f0: 6f57 bcbe 1e9a 01bf 6a14 1cbd 2473 52bf
00000200: 2be6 b6bd 5fa6 0bbe f4bc dabd 2abe e6be
00000210: 9b7b cebe 8ca3 5abe d616 503d 7476 683d
00000220: e5b2 9db9 0db3 94be 9971 c9bd 8d3f 6dbe
00000230: d221 9e3d 8bdf 69be 6724 aabe 0cbc 8a3e
00000240: 0949 5bbd d20b b4bf 766c 88bf 8607 513e
00000250: 7b66 243e c5d0 3dbe f636 ab3d 2717 0c3e
00000260: 141c 1fbe dfc0 9c3c 3236 60be 0352 b0bb
00000270: 02ab 6fbd 51d8 01bf a345 883e b82b efbd
00000280: b127 08be fd16 acbe 98bd 173d 8d60 4b3e
00000290: 05bd aabe 2b08 2e3e 2c88 d9ba caab cfbb
000002a0: 48d7 1dbf ea99 92be ed7f 0a3e e918 f13c
000002b0: 0328 e23d 70b0 023e cfad 1b3e a66d 80bd
000002c0: 1f22 2f3e 820c 54bd e874 8dbd 967f b8be
000002d0: 7e2e a73d 7b34 a43e 837f d13e 6a77 873c
000002e0: bd25 823d d648 f6bc 8486 773e ae7b 53bf
000002f0: 8cca b43d 2c03 09be 9589 b8bd bb1d f3be
00000300: 3dbf 9f3b 0433 d8be ea3c 37bd c017 babb
00000310: fb57 a93e 428f 153c 3f57 5e3c 0b60 86be
00000320: 60e1 9f3c f4af aebd b7b8 163e 4bfe 5ebf
00000330: aebb 373c 773e 6ebc 955c 48be 1f68 f2bd
00000340: c8f0 b3bd 02ca 0dbd 6348 ca3d 0d1a a3be
00000350: 551f 43bd 6142 3bbe a879 dfbe 6f9e 323d
00000360: 0df5 4bbe e3da bc3d fe58 733e a162 38bc
00000370: cd60 75bd 46f5 73bd ae1f 47be de9a 813e
00000380: 7229 ebbb 4df6 efbc 285b 963e 320f bcbd
00000390: f1f9 22bf aa38 b6be 52f0 0e3c 0767 073e
000003a0: 9818 12be 0ddf 0abe 3944 8dbe c5f9 2cbd
000003b0: 6c2f bfbd d5c5 57bd 3794 0fbe 4cc2 45be
000003c0: ceab c9be 29e1 33bf c618 893d 7d4a 393e
000003d0: 7394 01bf cf48 2c3e 8d61 97be 6be5 943e
000003e0: cf45 7cbe d49c 243d 6433 b63d e7e5 113e
000003f0: 19db 29bf 28b1 7e3e c51c d3bd 3811 17bf
-0.23973452 -0.41835827 -0.13448475 0.24257089 -0.09701723 0.12177972 0.10198748 0.13723977
0.10585297 0.058354847 0.1907809 -0.17237885 0.016162932 0.04503803 -0.15870447 -0.3923901
-0.32098657 -0.3614904 -0.3529849 -0.10234082 0.38544014 0.29174456 0.088847 -0.08363113
0.26438323 -0.39462593 0.08098038 -0.018434392 -0.053275567 -0.25064924 0.26305583 0.24094471
-0.21840097 0.14119221 -0.31063685 0.10517283 0.038424943 -0.55377406 0.3159598 -0.11894239
0.100919984 0.120414436 -0.22888313 0.20071648 -0.29237652 -0.36423528 -0.27754572 -0.65392715
0.026481781 -0.0065224576 -0.39799282 0.08854845 0.26567137 0.09128635 -0.10668045 0.081511766
-0.09444226 0.16442452 0.08266611 0.043160755 -0.36962602 -0.6864783 -0.5416473 -0.17049795
-0.66366833 0.31938705 -0.32985878 -0.6386048 0.022910297 -0.10194774 0.29362935 -0.5286164
-0.632414 0.36648247 -0.08311758 -0.5273841 0.048696935 -0.24665737 -0.07658645 -0.15661874
0.030246561 0.017795675 -0.40223458 -0.4526106 -0.47722694 0.23839712 0.21913806 0.26101547
-0.4865314 -0.46603808 -0.07680631 0.15022138 0.0638466 0.43648878 0.020526316 0.0042411727
-0.16769305 0.06040971 -0.22153229 0.04743643 -0.2576414 -0.17206906 -0.18747714 0.153789
-0.28926587 0.15514955 -0.32649094 -0.13696504 0.032411695 0.023166351 -0.20175502 0.010048534
0.3385075 -0.20736104 -0.3180416 -0.32525626 0.2403593 -0.18027873 -0.16900581 -0.22823922
-0.23253788 -0.3620361 -0.075307675 -0.043886196 -0.36785457 -0.5062579 -0.038105406 -0.8220694
-0.0893062 -0.13637684 -0.10680571 -0.4506696 -0.40328678 -0.2135145 0.050803028 0.05675359
-0.0003007866 -0.29042855 -0.0983612 -0.23168774 0.077212945 -0.22839181 -0.33230898 0.27096593
-0.05353645 -1.4066107 -1.06581 0.20413026 0.16054718 -0.1853667 0.08360092 0.13680707
-0.15538055 0.019134937 -0.21895674 -0.0053808703 -0.058512695 -0.507207 0.2661563 -0.116782606
-0.13296391 -0.3361129 0.037046045 0.1986105 -0.33347335 0.16995303 -0.0016596369 -0.0063376175
-0.6165662 -0.28633052 0.13525362 0.029430823 0.11042788 0.12762618 0.15203021 -0.06270914
0.1710286 -0.05176974 -0.06907064 -0.3603484 0.081631646 0.3207129 0.40917596 0.016536433
0.06354854 -0.030064028 0.24172407 -0.82610595 0.08827695 -0.13380116 -0.09010617 -0.4748362
0.0048750923 -0.42226422 -0.044735827 -0.0056791008 0.33074936 0.009128394 0.013570606 -0.2624515
0.019516647 -0.08529654 0.147189 -0.8710677 0.01121418 -0.01454126 -0.19566567 -0.11836266
-0.0878616 -0.034616478 0.09877088 -0.31855813 -0.047637302 -0.1828704 -0.43647504 0.043608125
-0.19917698 0.09221437 0.23764417 -0.011253984 -0.05990677 -0.059560083 -0.19445679 0.25313467
-0.0071765715 -0.02929225 0.29366422 -0.09182586 -0.6366263 -0.35590106 0.008724289 0.13222896
-0.14267194 -0.1356165 -0.27591112 -0.042230386 -0.09335217 -0.0526789 -0.14021383 -0.193124
-0.3938889 -0.7026544 0.06694178 0.18094821 -0.5061714 0.1682465 -0.29566613 0.29081282
-0.24636005 0.040188625 0.08896521 0.14247857 -0.6634994 0.24872267 -0.10308222 -0.5901065

mean.weight f4 [3, 256]
00000000: 0fd3 f6bf 634a 213f 23b1 2f3f 9cd1 a93d
00000010: 0cd8 493e d197 e53e 45b9 50bf b446 07bf
00000020: 14e4 e1bf 4b6b 183f d637 9c3f 8c69 85be
00000030: fc21 d8bf ab2a 5c3e d9cc 5e3e a802 aa3d
00000040: 4406 32bf ed07 0140 6f15 803e dec2 353f
00000050: 6b02 ed3d 5de9 3e3e 806a 0cbe 9904 873d
00000060: 78aa dabd 2da0 073e cadb 943e c41d 163f
00000070: e129 423d 060d 243c 8af7 09be 84f6 c93c
00000080: 903b 693f 087f acbd 3e56 103f 1add 4d3f
00000090: f91f 59be c8fd b8bc 0889 2ebe f0a4 7a3b
000000a0: 3403 cebf 76db 0d3f 9199 bf3d 8249 9f3e
000000b0: 9f86 af3e 1ee2 883f 0c88 8b3f 8c5e 6bbf
000000c0: 2c89 4c3d 9b03 bb3c 3ad2 1f3e 5c46 5dbd
000000d0: bcc3 dbbe ec71 273e ec15 4d3f 7e5a 84bf
000000e0: c548 68bb a99b c9bd ae9a b33e 4017 123e
000000f0: d539 593e cd58 dabe 4073 bb3d 7eed 44be
00000100: e14c 413e 2fd1 0dbf f90b 71be 4e6d 2dbf
00000110: 1068 1a3d 79aa 99be 483a e33d c485 103f
00000120: 6a08 19bf e870 8e3d 4d75 6fbc 6e31 b5bd
00000130: fb04 b0bd 6573 23bd e746 043f ac87 65bf
00000140: b906 943d 6f7e 2d3e aeb2 0cbf d35b f03f
00000150: 7108 eebd addd 09be 98bc 6fbd fde3 d93e
00000160: 661c e3be 37e4 74be de5c f43f 1b45 613c
00000170: 2e02 6dbf d7a0 fc3c 29bd f1be 382e adbe
00000180: e5c2 33bf 5dcf 39bd b6a1 5c3f 3db1 093f
00000190: 57d7 a7be 26f4 873f ef5b 483d 9cf9 57be
000001a0: f3c0 853f f5b1 043f 0cbc e4be f977 d1bd
000001b0: 163f 18bf c198 343f 9ecf 9abf 9214 d83e
000001c0: cd47 ad3d f41b 65bd 27af 56bf 3819 b5be
000001d0: 7b2b 22be 56f3 e83e eff0 dfbe 1a25 04bf
000001e0: 4e2d eb3c 9b7c 0e3f 18eb e23e 0c2e c63e
000001f0: ce37 d13d ccc7 843f 4eb5 56be 63aa 5b3e
00000200: 0179 41bd fc9c 0f3f 58fb d1bb 0247 26bf
00000210: d24b 5b3d 0c4d ed3d 7665 9f3f ae2f 07be
00000220: a729 173f b2ab 5c3f 6c0d f9bd 1677 3d3d
00000230: bbfa 1abe 01d2 06be 286e eabe 09a0 923d
00000240: 3c10 953d c95c ebbf 4822 28bf 46b3 e13e
00000250: 57db c73d 2450 1d40 1fb0 aabe 9d38 423f
00000260: 11cb 383f 42c1 82be 8ae4 9f3e 7d67 d33e
00000270: 4020 7dbe 24b1 263e 27e9 013d aee4 19bf
00000280: d1ca 383f c221 cc3e 95dd 363f 04fb e6bc
00000290: b53e c4be 0169 c4bc f164 833e f02e 25bd
000002a0: 8ba3 3fbf e98e 823c a0a1 8bbd 4cd6 d5bd
000002b0: 98e0 543e 5528 3dbf a826 85be 98ef 583e
000002c0: dcdd 53be a64c 63be 48cf f33e f892 2f40
000002d0: 702f 0a3d c347 be3d 10e6 a2bc 1a89 cabc
000002e0: f073 3e3e 4194 e3ba c759 9ebb ba8b 0940
000002f0: 044d 1dbe 1732 153f 63ca 4cbd 4855 d3bf
00000300: a3e7 aebe 1301 0ebd c390 2cbe c52f 563d
00000310: 4d81 be3c 8cc7 b03e cdd1 593d e787 52bf
00000320: 1070 843d 0ec3 3b3d ecd5 a5bc dacd 903b
00000330: 2ded 543e 51ce fcbe e030 83be 3097 363f
00000340: 1ed7 ecbf 818c 213f 1962 d7bd 8130 8d3f
00000350: 4252 19be 4721 fd37 3926 3dbc ebdf 82bf
00000360: a48f 07bc 9831 11bf 0cf4 a33e d06f 173f
00000370: 6367 423f fc48 c9be f3da 273e 9d8b 1cbe
00000380: 7b91 37bf 7faf c63c c18a 21bb 5c7f ae39
00000390: 713e d2bc ddef 003f 8345 f1be a914 00be
000003a0: daab 333f 522b 71bf 97eb b2be 2b1e 403f
000003b0: 4e94 d4be 7636 afbe 5577 20bf 7e21 d73b
000003c0: 8a52 76be 3780 cf3e 69d5 03bf c55c fbbc
000003d0: b8c2 143e 4612 86bd 57eb 88bc 2f5e 04bd
000003e0: 0c5f 4abf c9d5 e3be 6887 e33e 117a 633e
000003f0: 7813 6f3e b7fa 8e3c 6831 40bc 447a fdbe
-1.928316 0.6300413 0.68629664 0.08291933 0.19711322 0.4484239 -0.815327 -0.5284226
-1.7647729 0.59538716 1.220454 -0.26057088 -1.6885371 0.21500652 0.2175783 0.08301288
-0.6954081 2.0161088 0.25016353 0.7100047 0.11572727 0.18643709 -0.13712502 0.06592674
-0.106770456 0.13244696 0.29073936 0.5863917 0.04740322 0.010012871 -0.13473335 0.02465368
0.9110651 -0.08422667 0.56381595 0.804155 -0.21203603 -0.02258195 -0.17044461 0.0038245283
-1.6094728 0.55412996 0.09355462 0.3111077 0.34282395 1.0694005 1.0900893 -0.9194114
0.049935505 0.022828868 0.15607539 -0.054022178 -0.4292277 0.16352051 0.80111575 -1.0340116
-0.0035443765 -0.09844143 0.3507895 0.14266682 0.21213467 -0.42645875 0.091528416 -0.19231221
0.18876983 -0.55397314 -0.23539723 -0.6774491 0.037696898 -0.30012873 0.11095101 0.5645411
-0.59778464 0.06955129 -0.014615369 -0.088473186 -0.085947 -0.03990497 0.5167069 -0.89660144
0.07227845 0.16942762 -0.54960144 1.8778023 -0.11622704 -0.13463469 -0.058529466 0.42556754
-0.44357604 -0.23915182 1.9090841 0.013749386 -0.9258145 0.030838413 -0.4721463 -0.33824325
-0.7021926 -0.045363773 0.8618425 0.5378607 -0.3278148 1.0621383 0.0489158 -0.21091312
1.0449508 0.5183404 -0.44674718 -0.10227961 -0.5947126 0.70545584 -1.209461 0.42203194
0.084609605 -0.05593486 -0.8386101 -0.35370803 -0.15836899 0.4549815 -0.43738505 -0.5161911
0.028708126 0.5565888 0.44319987 0.38707006 0.10215722 1.0373473 -0.209676 0.21451716
-0.04723454 0.56098914 -0.0064081363 -0.649521 0.053539105 0.11586961 1.2452838 -0.13201782
0.5904793 0.86199486 -0.12160763 0.046256147 -0.15134709 -0.13166048 -0.45787168 0.071594305
0.07278487 -1.8387691 -0.6567731 0.44082087 0.09758633 2.4580164 -0.33337495 0.75867635
0.72184855 -0.2553807 0.3122905 0.41289893 -0.24719334 0.16278511 0.031716492 -0.6011456
0.72184473 0.39869505 0.7143186 -0.028195865 -0.38329092 -0.023975851 0.2566295 -0.040327966
-0.7485892 0.015937285 -0.06817937 -0.104412645 0.207888 -0.73889667 -0.26006055 0.21185148
-0.20690101 -0.22197208 0.4761908 2.7433453 0.033736646 0.09291031 -0.019885093 -0.024723578
0.18598914 -0.0017362909 -0.0048324796 2.1491532 -0.1536141 0.58279556 -0.0499977 -1.6510401
-0.341611 -0.034668993 -0.16852097 0.05229165 0.023255015 0.34527242 0.053178597 -0.8223862
0.06466687 0.045840316 -0.020243607 0.0044190707 0.207936 -0.49376157 -0.25623226 0.71324444
-1.8503149 0.63105017 -0.105167575 1.1030427 -0.14972785 3.0175446e-05 -0.0115447575 -1.0224584
-0.008273993 -0.567163 0.3202213 0.5915499 0.75939006 -0.39313495 0.16392116 -0.15287633
-0.7170636 0.024253605 -0.0024649354 0.00033282756 -0.02566454 0.50366 -0.47123346 -0.12507881
0.701841 -0.94206727 -0.34945366 0.7504603 -0.41519397 -0.34221238 -0.62682086 0.006565272
-0.24054924 0.40527508 -0.51497513 -0.030683884 0.14527404 -0.06546454 -0.016713781 -0.032316383
-0.7905128 -0.44499043 0.44439244 0.22214533 0.2334727 0.017453535 -0.011730529 -0.49507344

mean.bias f4 [3]
00000000: 2f48 3dbd 9bd6 4e3e e5c5 b7bd
-0.046211418 0.20199053 -0.08973292

log_std.weight f4 [3, 256]
00000000: b9d4 2c3f 994a 4f3f c64e 323e 9099 943d
00000010: 1d76 cbbd 89fb 4dbe d7c2 a73e 17c8 a23e
00000020: 0e56 d33f 19bb a03e d38c 43be be90 c53d
00000030: 9237 3b3f d50c 2a3d 8630 0dbe 4617 353d
00000040: 814f b83e 201e 223f 5a50 e33c e25b 123f
00000050: 2b00 6d3d 5967 933d 5358 da3d eb16 24bc
00000060: 96c9 34be 930d 7c3d 6709 e3bd 4e28 1dbc
00000070: fee4 ca3c 1eaf bebd 8059 f23d d137 04bc
00000080: ed4b 0c3f 3d21 013d f743 fa3c 9cb9 633e
00000090: b996 66be c907 4d3b 7ef0 b13c 1ac8 0f3d
000000a0: 7f77 2a3f b379 923d c016 3dbe d555 bc3e
000000b0: 2e84 0b3e c332 a93e 7d99 ac3e 3c87 f33e
000000c0: 1c5c 333e c66f 3f3e 94d7 8f3d 1a0c d1bd
000000d0: dcd9 9ebc b6fe 89be 32e9 d73e c4d1 213f
000000e0: 5196 903d 0e72 523e ad25 3f3e 84de b1bd
000000f0: b7f7 183e 4e91 bfbb 9307 e9bc e246 c73d
00000100: 5d4f 5b3d 4139 a03e b004 483e 3e52 bd3e
00000110: f38b 903d c07d f33d da39 1f3e 848a 963d
00000120: 31bf af3e 766e d7bc c078 1c3d 3da6 52bd
00000130: bbf2 963c 9b7f b8bd 69d0 093e 5a98 043f
00000140: 47a8 8d3e eb99 a33d 716a 293e a3fb 2d3f
00000150: 66c5 a0be 1135 52be 0956 92be 70cc 033f
00000160: 3a5a bb3e 262d 0d3f 53fc febe a85e fc3c
00000170: 2367 d23e a126 88be 8025 343d bfaa 663d
00000180: 8ad5 063f 9c27 173a bb7c eb3e 138b 773e
00000190: 0a2c 1a3e be25 123f 9a91 76bd 4ab0 8ebe
000001a0: e75a f43e 3f46 533e e1fe 493e d5a9 b93c
000001b0: 9973 b33e 0417 d13e 8c0f 0c3e fbd4 3e3e
000001c0: cb11 4abd d32e 5b3c b613 c43e b753 713e
000001d0: be2c 97bd ce3a 09be 03fe 63be be8a 243e
000001e0: 5d2e 6dbd be54 c63e d968 9e3e 881d 3d3e
000001f0: b482 bfbb 1a56 663f 317c cb3d 517a a63e
00000200: e275 dcbc 1674 203e 5f4c 57bd db0a 1a3e
00000210: cb76 a1bb 24bd 1cbc 3d3b 193f ba77 0f3e
00000220: 9505 ad3e 0052 de3e 9e50 853d ab65 353e
00000230: 4cbc 073e 2a48 4a3d a3af 643d c01e f23b
00000240: ca62 1c3d bf6a a63e 53e4 283d 19b4 b33d
00000250: 60a7 c33c a117 963f a49d 4b3c cbfd fd3e
00000260: 6435 6d3e 62e9 603c dfbb 4abe db71 423e
00000270: c670 843d 45fd 05bd 0ec8 2dbe 81ae 293f
00000280: 0531 093f 8c59 f33d cbe5 d13d 7be1 5abd
00000290: c9d0 4f3e f55d 7bbd 48e7 b13d a24d a13c
000002a0: d18e c73e 05d6 85bd 320c 0fbd 0c48 073e
000002b0: c5ce b7bd 6e17 d73e a19d 5e3e e83e 84bd
000002c0: 38a5 cc3c 0816 8d3d 1b57 533f 64ce c93f
000002d0: e24a 8bbe 6cf5 7d3d a44c 85be 4828 79bc
000002e0: 1562 e83e 31ce 463b 445a eebe 421a 813f
000002f0: 17d6 003e f169 053e b408 553c a2c1 3d3f
00000300: 1c60 733e 0d4b d1bd c605 3ebd 5455 42be
00000310: 3141 283e b6b7 a43e 7100 3d3e 6201 cd3e
00000320: df51 773c c044 d83d f56a 1cbc a178 87bd
00000330: b578 a13b ff71 703e aa74 7dbd 066a fc3e
00000340: ceac 8d3f 50bc f73e a2ee 3fbd 9919 0b3f
00000350: 9c1e 253d 704b 523d 055e 4c3f ffef 273f
00000360: fa4e 94bd b268 273e c9d2 363e 6357 a93e
00000370: 5ed9 493e 4b46 993e ea6f a9bb 65c6 873e
00000380: 5c65 d63e c566 9abc e340 56bd 6970 d43c
00000390: fe15 e03d 9980 043e c8ce 453e c74c 62bc
000003a0: 3d91 413e 9fc0 bc3e ece0 c43d bcc2 fc3e
000003b0: 4379 5c3e 6888 283e be16 d6bd 3fe7 413d
000003c0: 5c96 b33d 1037 fa3e c08b c33e 0466 85bd
000003d0: 448a d23d cbb2 a73d 169e 533c a32c 92bd
000003e0: a378 3abd 5e51 7e3e c245 303d 3ce3 3ebe
000003f0: 23a9 4f3e 27a6 eebc 10cd 213d 6959 a63d
0.6751209 0.809732 0.17412862 0.07255852 -0.09934638 -0.20115484 0.32765839 0.3179328
1.6510637 0.31392744 -0.19096689 0.09646748 0.7313167 0.041516144 -0.13788041 0.04421165
0.35998157 0.6332722 0.027748276 0.5717145 0.05786149 0.071974464 0.10661378 -0.01001523
-0.17655024 0.061536383 -0.11085778 -0.009592129 0.024767395 -0.09310745 0.11833477 -0.008069948
0.54803354 0.03152584 0.030549986 0.22238773 -0.22518434 0.0031285158 0.02172112 0.03510294
0.66588587 0.071521185 -0.1846571 0.36784235 0.13624641 0.3304654 0.33710852 0.47564113
0.17515606 0.18694982 0.0702354 -0.10207386 -0.019390993 -0.26952142 0.421701 0.632107
0.070599206 0.20551321 0.18666716 -0.086850196 0.14938246 -0.005846179 -0.028445994 0.09730317
0.053542484 0.3129368 0.19533038 0.36976808 0.07057943 0.11889219 0.15549412 0.073506385
0.34325555 -0.026297789 0.038201094 -0.05142807 0.01842629 -0.09008714 0.13458408 0.5179497
0.27667448 0.07988342 0.1654451 0.6796209 -0.31400603 -0.20528056 -0.28581265 0.5148382
0.36592275 0.55147016 -0.49801883 0.030806854 0.41094312 -0.26591972 0.043981075 0.05631518
0.52669585 0.0005766095 0.459936 0.24174146 0.15055862 0.5708884 -0.06019745 -0.27868873
0.47725603 0.20632266 0.19726135 0.02266399 0.35049132 0.40837872 0.13677806 0.18635933
-0.049333375 0.013377863 0.38296288 0.23567091 -0.07381581 -0.13401338 -0.22264867 0.16068551
-0.057905544 0.38736528 0.30939367 0.18468297 -0.0058444384 0.8997513 0.09935797 0.32515195
-0.02691168 0.15669283 -0.052563068 0.15043204 -0.0049274913 -0.009566579 0.59856015 0.14010516
0.3379332 0.43421936 0.06509517 0.17714565 0.13255423 0.049385227 0.055831563 0.0073889196
0.03818015 0.32503316 0.041233372 0.08774585 0.023883522 1.1725961 0.012427721 0.4960769
0.23164898 0.013727518 -0.1979823 0.18988745 0.06466822 -0.03271224 -0.16970846 0.66281897
0.5359042 0.11882314 0.10248908 -0.05343769 0.20294489 -0.0613689 0.086866915 0.019690339
0.38976148 -0.065349616 -0.03492374 0.13211077 -0.08974985 0.42010063 0.21739818 -0.06457311
0.024981126 0.06888968 0.8255479 1.576611 -0.2720557 0.06200163 -0.26035035 -0.015207358
0.4538733 0.0030335302 -0.46553242 1.0086138 0.12581669 0.13028695 0.013002563 0.74123585
0.23767132 -0.10219393 -0.046392225 -0.18977863 0.16431119 0.3217141 0.184572 0.40040118
0.015095203 0.10559988 -0.009546985 -0.06614805 0.0049277195 0.23480986 -0.061878838 0.4929964
1.1068361 0.4838586 -0.046858437 0.54335934 0.040312394 0.051341474 0.7983096 0.6560058
-0.07241626 0.16348532 0.17853846 0.33074483 0.19711825 0.29936442 -0.005170812 0.2651855
0.41874206 -0.018847832 -0.052307975 0.025932508 0.10941695 0.12939681 0.19317162 -0.01381225
0.1890306 0.36865708 0.09613213 0.4936732 0.21530633 0.16458285 -0.104535565 0.047339674
0.08768913 0.48870134 0.38192558 -0.065135986 0.10280278 0.08188399 0.012916109 -0.0713742
-0.045525204 0.24835727 0.043035276 -0.1864137 0.20279364 -0.029131962 0.039502203 0.081225224

log_std.bias f4 [3]
00000000: 086a 02c0 87a5 d0bf bd9d e7bf
-2.0377216 -1.6300515 -1.8095013
