trained_models/HopperNormal-v3/sero/critic_5.pt (torch, 563586 bytes, 10 tensors)

Q1.0.weight f4 [256, 14]
000000 8f 23 d1 3e c7 c3 bf 3f ee 80 f1 bc c9 74 48 bf
       0.40847442 1.4981622 -0.029480424 -0.783032
000010 f2 b4 83 be d0 d3 55 bf c5 ac 24 bf 9c a7 73 3e
       -0.25723988 -0.83526325 -0.64326125 0.23794407
000020 4a 1d 54 be f0 a9 ad 3e c4 5a 64 bd 9f 2a dc 3d
       -0.20714298 0.33918715 -0.055750623 0.10750317
000030 98 77 0c 3f 9d c6 05 3e 31 f3 5a 3e 30 d7 ae 3f
       0.54869986 0.13064046 0.21381833 1.365942
000040 d0 1d 80 3e e7 96 05 bf 77 11 99 bf de 26 94 be
       0.25022745 -0.52183384 -1.1958455 -0.28935903
000050 39 e9 83 3f 19 44 c6 be 65 52 89 3e 8b 4b 73 3e
       1.0305549 -0.3872383 0.26820675 0.23759286
000060 d2 48 8b 3e b0 df 02 be 30 0a 25 3e 5f ce 37 3d
       0.27203995 -0.12780643 0.16117167 0.044874545
000070 9a d2 c4 bd ee 4b 5b c0 5a 19 88 3c 4d 18 15 3d
       -0.096104816 -3.4265094 0.016613651 0.03640013
000080 e8 9a cd be 8b 9b 5c 3d cb ff 42 be 5b a4 ee 3e
       -0.40157247 0.053859275 -0.1904289 0.46609768
000090 d7 48 e6 3b 94 6f ee bd 7f b2 66 bd d5 83 7d 3f
       0.007027726 -0.116423756 -0.05632257 0.99029285
0000a0 9d 73 ec be d0 4b 9a be 49 0c 44 be 62 3d 39 40
       -0.46181956 -0.30135965 -0.19145311 2.8943715
0000b0 41 1b 90 3f dd bd 31 40 52 62 88 3e c9 fa a5 3d
       1.1258317 2.7772133 0.26637512 0.08104474
0000c0 41 6e 53 3d f7 8c 9c bd 1a ac cc 3e 55 4e 9b be
       0.05161882 -0.076440744 0.39975053 -0.303332
0000d0 c4 75 00 be a7 fc bc 3d 5a 1b 49 be ff fb ad 3d
       -0.12544924 0.09227877 -0.1963934 0.0849533
0000e0 fe ad 93 3e 75 37 01 c0 60 07 8d 3e 7f df ba bd
       0.28843683 -2.0190098 0.2754469 -0.0912466
0000f0 e5 7e c0 be 76 80 a8 bd eb f3 9c bd b7 7e a5 bd
       -0.37596813 -0.08227627 -0.07663711 -0.080808096
000100 42 fc 91 bd 2c c8 42 3d e8 e4 2d 3c d6 04 0c 3e
       -0.071281925 0.04755418 0.0106136575 0.1367372
000110 fa b3 28 be ca cb 04 bd 63 b1 b8 3e 13 40 70 3f
       -0.16474906 -0.03242091 0.36072835 0.9384777
000120 bf 73 9f 3e d2 8f f5 3e 8f 6e 2f 3e 1b 65 e4 3e
       0.31142995 0.4796129 0.17132019 0.44608387
000130 60 70 c9 3d d0 9a 9a 3e 13 fc 96 bd b0 d2 de bc
       0.09835887 0.30196238 -0.07372298 -0.027200073
000140 ec f6 ce bc 01 e9 c8 3d 0d ed fd 3d 0c 59 fd 3c
       -0.025264226 0.09810067 0.123987295 0.03092625
000150 ff 30 a0 3c df b1 a5 3e d8 e6 bb 3c db 8d ea 3e
       0.019554613 0.32362267 0.022937223 0.45811352
000160 af fc 80 3e e4 14 26 be e2 91 e6 bd a2 b5 35 3d
       0.25192782 -0.16218907 -0.11258294 0.04436267
000170 e4 01 1e bd 83 e5 71 3d da 10 ba bd d7 00 cb bd
       -0.03857602 0.05905677 -0.090852454 -0.099122696
000180 d0 48 90 3d 87 d4 17 3d 41 8a 23 3e 80 fc 04 3f
       0.07045138 0.037067916 0.15970708 0.51947784
000190 f1 d8 8a 3e dd cb b6 be e6 7e f5 be 01 79 ff bd
       0.27118638 -0.3570241 -0.47948378 -0.124742515
0001a0 54 81 17 be 7b 48 1f bd cc e5 ac bd 56 13 3f bd
       -0.14795429 -0.038887482 -0.08442268 -0.0466493
0001b0 5e 6b 6e 3d 4d 4d 1d be a7 2a 77 bc 65 e7 15 3e
       0.058207862 -0.15361519 -0.015085853 0.14639051
0001c0 a6 b4 4b bf 80 cf cc bf 9e 76 1f bf e7 73 c1 3d
       -0.7957252 -1.6000824 -0.6229037 0.09445935
0001d0 e9 c7 03 3f d0 aa 6f be 8d 6c ea 3e 75 ab 29 3d
       0.51476914 -0.23405004 0.45785943 0.04142328
0001e0 e3 32 26 3d ac 5a 0c be 6e 16 5d 3e 21 66 74 bf
       0.040575873 -0.13706464 0.21590587 -0.95468336
0001f0 3b a6 2a bf c5 84 90 3f d6 55 32 3e ab d5 3a be
       -0.666599 1.1290518 0.17415556 -0.1824557
000200 49 76 9b bf ed a5 05 bf 6a 10 60 3e 20 4f 35 be
       -1.2145473 -0.5220631 0.21881261 -0.17705965
000210 9a 72 f7 3e 85 6d 51 3e 27 02 46 be 18 91 60 3e
       0.48329622 0.20451935 -0.19336759 0.21930349
000220 85 8e dd 3d cc d5 16 bf 2e 90 07 3f b8 a3 a1 3c
       0.10818199 -0.5891998 0.52954376 0.019731387
000230 62 a9 63 bf 86 0f ae 3e 1d 9c 99 bf 5d 50 45 bf
       -0.8893033 0.33996218 -1.2000767 -0.7707575
000240 68 36 11 3f 73 03 59 3e aa e7 cc 3d d8 0a 36 3d
       0.5672364 0.21192722 0.10005124 0.044443935
000250 c2 99 61 be ea d3 40 be c8 fd 57 bd ff bb 61 be
       -0.2203131 -0.18830839 -0.05273226 -0.22044371
000260 64 57 d8 bd e9 0e 99 3d 29 ae a8 be 3a 74 8a 3f
       -0.105635434 0.07473547 -0.32945374 1.081672
000270 0b 42 af be 23 b3 58 bf 1a 51 8a 3e 00 1c a4 3e
       -0.34230074 -0.8464834 0.27015 0.32052612
000280 b1 68 59 be 5e 53 24 3e e0 c0 1d bd 62 35 80 3d
       -0.21231343 0.16047427 -0.038514018 0.06260182
000290 ec b3 04 3e f2 d8 80 3f ac be 21 be f7 7d 01 be
       0.1295926 1.0066206 -0.15795392 -0.12645708
0002a0 01 f6 1f 3f a5 01 9a bf c6 e4 8a bf 80 20 bd 3d
       0.6248475 -1.2031752 -1.0851066 0.092347145
0002b0 f6 02 95 3d 19 86 d7 3d c4 a4 71 3b bf f5 e6 3d
       0.072759554 0.10523624 0.003687189 0.11277341
0002c0 35 65 04 be e8 9f 2c bd 6a 50 bc bc 96 87 b9 bd
       -0.12929232 -0.042144686 -0.022987563 -0.09059064
0002d0 26 1b 83 3d b7 98 b2 bd a5 76 90 be c7 11 76 bf
       0.064016625 -0.08720534 -0.2821552 -0.96120876
0002e0 07 00 1a 3f 48 15 0f 3f 55 16 b1 3b 74 f5 64 3e
       0.6015629 0.5589185 0.0054042735 0.22359258
0002f0 b4 f0 90 bd 31 cc 4b bd 75 82 01 3d 23 75 6b bc
       -0.070771605 -0.04975528 0.031618554 -0.014371189
000300 5f d3 03 3d 7a 9b 0e bd 7c a8 f1 bc 01 8b a1 3d
       0.032184 -0.034816243 -0.029499285 0.07887841
000310 16 6a b8 3e e6 a2 2e 3f 9e 8c 87 be 61 cd 6d be
       0.36018437 0.68217313 -0.2647447 -0.23222877
000320 05 5e b2 be 79 b0 67 3e f7 37 81 be 4a fb b4 3d
       -0.34837356 0.22625913 -0.2523801 0.08836992
000330 6e 23 9e 3e fe d4 be 3c f6 0d c3 3c 87 20 0e 3f
       0.30886406 0.023294922 0.023810368 0.5551838
000340 4f 39 7f be 97 4b 4c bf e8 ab 26 3e fc 8b a3 3f
       -0.24924205 -0.7980284 0.16276515 1.2777095
000350 24 e8 2d 3d bf bb 8b 3e 6f 2e 6b be 3e 2d 95 3e
       0.042457715 0.27291676 -0.22966932 0.2913608
000360 1f 1a ee 3e a3 f4 1a be 01 07 5b bd 6c d7 41 3c
       0.46504304 -0.15132384 -0.053473476 0.011831146
000370 58 de 5e bd 6d 88 f0 bd aa 1d 92 bd 80 85 d4 3d
       -0.054411262 -0.11744771 -0.07134564 0.103770256
000380 37 05 5c be 76 27 de bf 78 63 fa bd fe 8c c5 3e
       -0.21486364 -1.7355793 -0.122260034 0.3858413
000390 4f 2f 23 3f 6d 6e 66 3f 4e 37 04 bf 19 65 f1 be
       0.6374406 0.90012246 -0.5164689 -0.47147444
0003a0 46 ef a7 3e 98 cf 09 3e 39 b3 3e bd 00 4f a7 bc
       0.3279974 0.13458097 -0.04655764 -0.020423412
0003b0 2f a5 94 bc 93 59 37 3d f4 61 e2 3c bb c4 24 3f
       -0.018145172 0.04476316 0.027634598 0.64362687
0003c0 98 41 4b 3e eb b2 87 3b 9d 40 1e be 26 1f f4 3d
       0.19849241 0.0041412017 -0.15454336 0.119200036
0003d0 c4 fa 0f be 6f c3 5d 3e f2 91 86 3d ad 0e 0a 3e
       -0.14060503 0.21656583 0.065708056 0.13482161
0003e0 94 ea 6b 3e 89 32 b8 be b7 f1 f3 3d 5b 90 cf be
       0.23038703 -0.35976055 0.11911338 -0.40539822
0003f0 50 c5 ca be 30 fc 24 3f f9 97 11 bf 30 a4 14 bf
       -0.39603662 0.6444731 -0.56872517 -0.5806303

Q1.0.bias f4 [256]
000000 af a0 9b 3e 22 5f bb 3d 5c e4 06 3e b5 35 6c 3a
       0.3039603 0.091490045 0.1317305 0.00090106885
000010 a0 e0 46 3f 81 9d 6a 3f 70 a3 20 3f eb c7 5d 3f
       0.776865 0.9164658 0.62749386 0.86633176
000020 65 73 1b bf bc 25 bc 3e 27 be d1 3d 0c e9 db be
       -0.60722953 0.3674754 0.10241347 -0.42951238
000030 24 e0 67 bf 7d b1 40 3f 74 c4 0e 3f b7 3e 5a 3f
       -0.90576386 0.75270826 0.55768514 0.85251945
000040 e4 f3 67 bf 04 73 07 3f 04 64 e9 bd 93 b3 48 3f
       -0.9060652 0.52909875 -0.113960296 0.7839901
000050 96 5f 27 3f 97 e8 a3 3d 8b 7b 29 bf 3b ca 13 bf
       0.6538023 0.08003347 -0.66204137 -0.57730454
000060 94 41 4e 3d bb c0 b8 bd 24 e2 65 3f 56 25 19 be
       0.05035551 -0.090211354 0.8979819 -0.14955649
000070 36 cc d3 bd db e8 85 3e f7 45 3d 3f 28 08 02 3e
       -0.103416845 0.26154217 0.7393488 0.12698424
000080 01 1c fe 3e 9b 68 cd be 28 73 1e bc 48 96 09 be
       0.4963074 -0.4011887 -0.00967101 -0.13436234
000090 81 3c 41 bf a8 cb f4 3e 12 ae 01 3f a1 fc cf be
       -0.75482947 0.47811627 0.50656235 -0.40622428
0000a0 9d d2 62 3f 7a 94 c1 be f3 21 37 3e 52 97 1c bf
       0.8860262 -0.3780859 0.17884044 -0.61168396
0000b0 28 bf 16 3d 33 8d b1 be 0e e5 37 be 39 14 09 bf
       0.036803395 -0.3467804 -0.17958471 -0.5354648
0000c0 d9 3a ac be 4d 2d 51 bd 7b 27 e2 3c 07 a7 46 3e
       -0.33638647 -0.051068593 0.027606716 0.19399653
0000d0 50 01 0f 3e 7a 4c cc 3e f3 e6 fb bd 70 41 9a 3e
       0.13965344 0.39902097 -0.122999094 0.3012805
0000e0 56 c7 91 be 30 b1 1a 3f 65 21 da be 82 79 2e bc
       -0.28472394 0.60426617 -0.42603603 -0.010649087
0000f0 80 95 4f 3e b7 a1 73 3e 42 aa 59 3f 6c 2d 00 bf
       0.20271873 0.23792158 0.8502542 -0.5006931
000100 b7 8a 58 3e 6d b7 26 bf d1 89 14 3f 2a e5 36 3e
       0.21146666 -0.65123636 0.5802279 0.17860857
000110 10 ca 8b be f6 fa c8 be e2 40 03 bf b9 05 13 3f
       -0.273026 -0.39253968 -0.5127088 0.5743061
000120 73 85 bf be 04 71 5f 3f 83 f8 95 be 75 e2 00 3f
       -0.374065 0.87281823 -0.29291162 0.50345546
000130 91 72 b4 bc e1 8f c6 bd 86 46 98 3d 30 f1 10 bf
       -0.022027286 -0.096954115 0.07435326 -0.5661802
000140 17 9e 79 3e 72 b7 5a be b7 83 4f be fc b2 41 be
       0.24376713 -0.21359041 -0.20265089 -0.18915933
000150 ef 2f 15 3f 10 33 f2 be a9 97 af 3e 4d d5 1d 3f
       0.58276266 -0.47304583 0.34295395 0.61653596
000160 82 c4 65 3e 61 a7 4c 3e 9e 8f 4e bf 0e 23 e8 3d
       0.22438243 0.19985725 -0.8068789 0.11334811
000170 db 22 0d be cb ef 32 be ee 74 78 3f 4a f3 51 3d
       -0.13782828 -0.17474286 0.9705342 0.05125741
000180 fb 07 e2 be be 4f 3b 3f 49 95 c9 be c5 59 0a bf
       -0.44146714 0.7316855 -0.39371708 -0.5404323
000190 e1 ee ab be a5 5b 23 3c 22 25 9b be 50 18 a7 be
       -0.33580688 0.00997058 -0.30301768 -0.32635736
0001a0 11 92 99 3e c1 51 f5 be 4d 57 42 bf e4 54 2a be
       0.29994252 -0.47913936 -0.7591446 -0.16633946
0001b0 dc 0b 66 be fa 0e 29 3f e9 91 6a 3f 0a 29 26 3f
       -0.22465461 0.6603848 0.9162889 0.6490637
0001c0 dd cc 23 bf 21 b8 43 3d cd 53 53 be 75 8e c5 3d
       -0.6398447 0.04778302 -0.20637436 0.09646312
0001d0 df 5a bc bd 08 c6 41 bc ab ed 95 3e da 4c c0 3e
       -0.0919702 -0.0118269995 0.2928289 0.37558633
0001e0 be 71 4a be c8 14 fe 3d 71 89 c9 3e a5 a2 1d 3f
       -0.19769952 0.124063075 0.39362672 0.615763
0001f0 53 f8 c6 be 6e 69 bc be 9e 85 13 3f 2f 86 fc be
       -0.3886133 -0.36799186 0.5762576 -0.49321124
000200 8e 1c 52 bd 4a 8d 9d 3e 03 c3 0d 3b db 0c 86 bd
       -0.051296763 0.30771858 0.0021631129 -0.06545421
000210 69 03 05 3f cb 41 04 be 77 42 3d bf f8 5f 53 be
       0.5195833 -0.12915723 -0.7392954 -0.20642078
000220 e2 6f 80 be 81 70 9e 3e 76 94 40 bf 9a 12 ee bc
       -0.2508536 0.3094521 -0.75226533 -0.029061604
000230 9c f5 95 3d 4d c3 3b be 7b c7 57 be 8c 62 5a 3f
       0.07322237 -0.1833622 -0.2107219 0.8530662
000240 29 3b 9b be 10 bf 3e 3d 1e ad e1 be 7c 50 3e bf
       -0.30318573 0.04656893 -0.4407739 -0.7434156
000250 a2 79 9c be 03 72 16 3f 7e 99 c2 3e 89 e1 df 3e
       -0.30561548 0.5876772 0.3800773 0.43726757
000260 f9 df 8e be 52 34 81 be f7 7b fc 3e 29 b4 b5 3e
       -0.27905253 -0.2523523 0.49313328 0.35489014
000270 b7 2b e4 3e dc 09 31 bf ec 0f d0 3e 48 70 65 3d
       0.44564602 -0.6915567 0.40637147 0.056015283
000280 85 ce 72 3d 7e cb e7 3e 2e 66 91 be ea d5 22 be
       0.059278984 0.4527244 -0.2839827 -0.15901914
000290 4f 5d 0b 3f f7 17 15 bf 34 0d a1 3f 03 7f 2d 3f
       0.5443925 -0.5823969 1.2582154 0.6777193
0002a0 5e 0b 38 be e3 27 a7 be 94 69 50 3f c6 f7 63 be
       -0.17973086 -0.3264762 0.814111 -0.22262487
0002b0 bd 1e ac bd 89 fd 0d bf 90 53 a4 be 79 32 2a bf
       -0.084043 -0.5546499 -0.32095003 -0.66483265
0002c0 08 4c d8 3e 38 5c 94 3e d4 a0 0f bf 30 69 94 bd
       0.42245507 0.28976607 -0.5610478 -0.072466254
0002d0 6d df b6 3e 3c 19 22 bf 51 c1 c1 be d1 fb 08 3f
       0.35717335 -0.63319755 -0.378428 0.5350924
0002e0 dc f9 ab bd fc 01 15 3f 10 a7 f4 be 3c ca e3 3e
       -0.08397266 0.5820615 -0.4778371 0.4449023
0002f0 b8 49 24 3e 36 86 01 bd 0a d7 06 3e 7d 44 b9 be
       0.16043746 -0.031622134 0.13167968 -0.36185065
000300 e7 6e b0 be 21 ee 03 be 88 d4 59 3b bd ee 09 3f
       -0.34459612 -0.12883808 0.003323825 0.5387991
000310 9d 10 ac 3c 0d 55 26 be 33 4e f3 3e dc 1d 1e bf
       0.021004016 -0.16243382 0.475206 -0.6176431
000320 d3 05 d2 be 2b 52 c0 be 90 0e 50 3f 0e 3f 5a 3e
       -0.4102007 -0.3756269 0.8127222 0.21313116
000330 47 9c 1f be 49 5c 5a 3f 95 92 0f 3f 6d 24 4b be
       -0.15586959 0.85297066 0.5608304 -0.19838114
000340 76 08 ca 3d 21 9b 67 3f 4e 8f 8a be df 93 9d 3d
       0.09864895 0.9047108 -0.27062458 0.0769422
000350 4d 93 a0 3c 67 f4 a6 3e 9f be 64 bf a3 10 ba 3d
       0.019601488 0.3260834 -0.89353365 0.090852045
000360 10 a1 59 be b7 11 45 bd 4d 5a e8 3d 48 6c 5c 3f
       -0.21252847 -0.048112597 0.113453485 0.86102724
000370 95 bc 4a bf 7b 9b 78 bf e1 3a 06 bf 1f 4c fe be
       -0.79194003 -0.97112244 -0.5243359 -0.4966745
000380 9b 8c 59 3e f4 c3 bd bd c7 a0 af bd 57 68 61 bf
       0.21245043 -0.09265891 -0.08575588 -0.88049835
000390 20 55 6f bd 18 5d 07 be 5c 19 ad be 1c a3 27 bd
       -0.05843079 -0.13219106 -0.3380841 -0.040927038
0003a0 95 d3 83 be 9b e5 63 3f 4a 5d a1 bd c9 3b 26 3e
       -0.25747362 0.89022225 -0.078791216 0.16233744
0003b0 ff ba 90 be 33 26 c0 be 31 fe df be aa 94 5c be
       -0.28267667 -0.37529144 -0.4374862 -0.21541086
0003c0 cb eb bd 3e 24 06 89 bd fe 85 36 3e b6 e3 14 bf
       0.37093958 -0.06690624 0.17824551 -0.5815996
0003d0 c0 42 36 be 73 b6 1e 3e 14 09 3a be fd 28 86 3e
       -0.177989 0.15499286 -0.18167526 0.26203147
0003e0 7a 38 a0 3d 71 1d 03 bf 87 f6 39 3f fa 0b bd be
       0.07823272 -0.512168 0.72641796 -0.369232
0003f0 97 b2 e5 3e 35 dd 8c be 60 b8 4c bc b9 93 77 3e
       0.44862816 -0.27512518 -0.01249513 0.24177445

Q1.2.weight f4 [256, 256]
000000 ad 72 31 be bc 8e 89 bd 0c 98 25 3b c6 a0 61 be
       -0.17328902 -0.067166775 0.002526763 -0.22033986
000010 56 c3 79 3d f7 46 57 3e 14 d3 91 bd e1 33 ed 3d
       0.060977302 0.21023165 -0.07120338 0.11582161
000020 80 ee 29 be 62 cc 0c 3e 85 43 4b 3e 1c ff 10 3e
       -0.16594887 0.13749841 0.19849975 0.14159817
000030 f0 6f 04 3e b7 12 e0 3d 94 d9 ab 3d f7 08 1c 3e
       0.12933326 0.109410696 0.08391109 0.15237795
000040 d5 02 0b 3d 16 ab b8 bd 9f 11 5e bc cb 78 08 3e
       0.033938248 -0.09017007 -0.013554006 0.13327329
000050 00 0f d4 bc d9 b4 bd 3d 34 7c d1 be 6b b5 92 3d
       -0.025886059 0.092630096 -0.40915072 0.07163509
000060 9a a0 14 bb f8 ea 4d 3d ca b3 2e 3e 42 6e 35 3e
       -0.0022678734 0.05027291 0.17060772 0.17717841
000070 46 22 b5 3c 94 dc e8 bc 7d 79 80 3d ad c1 12 be
       0.02211107 -0.028425492 0.06273172 -0.14331694
000080 ad 12 a9 3d 0b 69 32 3f 66 f0 17 3e 41 9d 8e 3e
       0.08255515 0.6969153 0.14837798 0.2785435
000090 ad 5f f0 bd 52 86 7d 3d 6d 5e 72 bd 1b 5a 62 3f
       -0.11736999 0.061895676 -0.059172083 0.8841874
0000a0 38 5a 04 3f cd cd 52 3e af a4 05 be 7c 9b 1f 3e
       0.5170016 0.2058632 -0.13051103 0.15586656
0000b0 34 7f e7 3b 6a 7a 08 3e 1d bf 65 3e 6a c8 13 bd
       0.0070647243 0.13327947 0.22436185 -0.0360798
0000c0 ad ea 18 3e a7 42 59 3f 25 4d dd 3d c5 0b 99 3e
       0.14933272 0.8486733 0.1080573 0.29891792
0000d0 07 91 5e be 47 17 e6 bc 8e bb 7b bd 70 2b 8a be
       -0.21735011 -0.028087271 -0.061458163 -0.26986265
0000e0 ef b7 97 3d e9 47 01 3e c4 65 30 3e 90 9e 0c 3e
       0.074081294 0.12625088 0.1722632 0.13732362
0000f0 5a 00 29 be f9 b6 66 bd 4a f2 99 bd d1 fe 92 3f
       -0.1650404 -0.05632684 -0.07516916 1.1484014
000100 77 45 cb 3d 3d 7c c7 3c 67 3c 42 bd ec 52 94 3d
       0.09925359 0.024351234 -0.047420885 0.072423786
000110 4e fd 92 3d f7 04 69 3c 15 f3 11 3f 84 13 fd bd
       0.0717722 0.014222375 0.5701154 -0.12357238
000120 a3 a2 9e 3e 91 22 db 39 11 f0 33 3f 22 cc 99 3c
       0.30983457 0.0004179669 0.7028819 0.018774096
000130 2d 8a 7d 3e 15 d5 94 3d d7 df 65 bd 01 62 95 3e
       0.24759741 0.07267205 -0.056121673 0.29176334
000140 ab 05 88 3d e5 f5 a9 3b 00 d2 31 bd 22 09 aa bd
       0.06641706 0.0051867836 -0.043413162 -0.08302523
000150 31 5a 67 3e 8e 3f 0e 3f 61 0e d2 bd 3e e2 0c be
       0.22592999 0.55565727 -0.10256649 -0.1375818
000160 c4 b1 d3 bd c4 26 27 bc 48 af b0 3e ed 48 bf 3c
       -0.103366405 -0.010202114 0.3450873 0.023350203
000170 30 f4 ad 3c 79 53 2d 3e b3 7f c9 3c 0a 59 1e 3c
       0.021234602 0.16926374 0.024597025 0.009664783
000180 3b 68 e5 3c 93 a3 89 3d 43 65 4c 3f 2e 24 de 3e
       0.028003803 0.067206524 0.79842013 0.43386978
000190 4e 80 23 be 02 f1 6a 3d 84 93 b3 3e e9 dd 2a 40
       -0.15966913 0.05735875 0.35073483 2.6697943
0001a0 3d 9f 4a bc ec 1b 51 be 5e 6d 42 3e e7 03 cc bd
       -0.012367067 -0.20420808 0.18987033 -0.09961682
0001b0 00 6f 82 3d bb cb 04 3d f1 96 a1 3d bb 3e d9 bb
       0.06368828 0.032420855 0.07890118 -0.0066297925
0001c0 fc a0 ce 3d 20 8f 56 3e a2 40 44 3e 91 41 88 3d
       0.10089299 0.20953035 0.1916528 0.06653131
0001d0 37 fd a0 bc e3 58 b9 3d 75 5b 90 bd 08 2e 80 be
       -0.019651992 0.09050157 -0.07048694 -0.2503512
0001e0 40 d1 18 3c a0 29 ae bd 12 8e 24 bd bc 3c 9c bd
       0.009327233 -0.08504033 -0.04017455 -0.07628772
0001f0 13 b2 b4 bd ae f7 62 3f f3 82 23 3e 20 0b c3 3e
       -0.088230275 0.8865918 0.15967922 0.38094425
000200 d7 d5 16 3e 34 43 84 3d df 02 23 bd a2 b9 76 be
       0.14730011 0.064581305 -0.03979766 -0.24094251
000210 4d 9c 94 3c 17 1d c8 bd d7 91 1d 3e 97 6d b2 bd
       0.018140936 -0.097711734 0.15387665 -0.08712309
000220 ad d2 07 bb aa 4d c7 3e 9c c2 3c 3e 8b f3 8f 3e
       -0.0020724938 0.3892644 0.18433613 0.28115496
000230 4e 93 87 be 39 00 84 bd 47 2c 9c be 36 89 a8 3e
       -0.26479572 -0.06445355 -0.3050253 0.32917184
000240 3d 9f ee 3d b6 98 dc bd c0 9e 0e 3e 9b 47 b2 bc
       0.11651466 -0.10771315 0.13927746 -0.02176266
000250 a3 c5 39 3c 4e e5 dd bd 02 48 30 be 10 a9 1f be
       0.011338624 -0.10834752 -0.17214969 -0.15591836
000260 a3 92 0e 3e 4f 40 63 bd 6f 7b 80 bd de c3 42 bd
       0.13923125 -0.05548125 -0.06273543 -0.047550075
000270 fc c7 0b 3e 5c 73 a6 bd 72 97 8b 3c 16 dc 83 bd
       0.13650507 -0.08127472 0.017039988 -0.064384624
000280 56 c8 17 3d ea b8 84 bd bb ea f3 3e 32 09 b4 3d
       0.03705629 -0.06480582 0.47640023 0.08790816
000290 d5 05 d6 bd 56 20 42 3e 03 ee e0 3b 91 05 ea 3d
       -0.10450331 0.18957648 0.0068643107 0.11426843
0002a0 5e f5 92 3d d0 7c 13 be 15 44 54 3e 77 c0 16 be
       0.07175706 -0.14403081 0.20729096 -0.14721857
0002b0 37 9b 1e be 01 14 48 3e 2f 3c 43 3f 6c 08 1d bd
       -0.15488897 0.19538881 0.7626371 -0.03833811
0002c0 55 cf bd bd 9c e2 2a 3d 48 1e 39 3e 34 59 db 3d
       -0.09268061 0.041720018 0.18077958 0.107103735
0002d0 69 95 01 be 05 0c 4c bc ee 03 07 3e 50 5f 41 3e
       -0.12654652 -0.012454038 0.13185093 0.18884015
0002e0 5c 4e 24 bd 3d 0f 37 be fb 0a 19 3e 5b e8 81 bc
       -0.04011379 -0.17876907 0.14945595 -0.015857866
0002f0 47 1d 2d 3e e3 9d aa bb b0 1d 3e be c6 1b e3 bb
       0.169057 -0.00520681 -0.18566012 -0.006930801
000300 6d 3d 8b 3d 8d 70 3d 3e 5d 65 2b 3f 10 d4 0c 3d
       0.067988254 0.18499966 0.66951543 0.034381926
000310 dc 90 9a bd f1 a9 2c 3a 9a ef cb 3c f1 c7 bd 3e
       -0.07547161 0.00065866025 0.024894524 0.37066606
000320 19 58 68 3d 63 d3 4a 3d 54 be c7 bc 65 36 f3 39
       0.05672464 0.049518 -0.024382748 0.000463891
000330 4c 7d 82 3f 5e 7b 84 bd 26 4f 26 be c1 61 23 3d
       1.0194488 -0.06468843 -0.1624113 0.039888147
000340 e8 13 1e be 53 57 39 3e 74 2b 7b bd 77 95 d9 bd
       -0.15437281 0.18099718 -0.061320737 -0.10624211
000350 b3 bc 93 bd 4e 57 e7 3c c5 05 e8 3e 0b 5d 3e 3e
       -0.07213726 0.028239872 0.45316902 0.1859018
000360 af a6 57 be 1d 14 3a 3e 9b e3 ec bb f6 f7 59 3e
       -0.21059678 0.18171735 -0.007229281 0.21285996
000370 d6 bf a3 3d 34 ab 7b 3e 95 5e 10 3e 1a 7e 8f 3d
       0.07995574 0.24577028 0.1409858 0.07006474
000380 d4 c2 7c be af 9d 5b 3c b9 e9 7a be c2 b3 70 3e
       -0.24683696 0.013404294 -0.2450322 0.23506072
000390 61 ef 8a 3c 89 d8 59 bd f2 35 e4 bd 8e c7 96 3d
       0.016959848 -0.05318502 -0.11143102 0.07362281
0003a0 7e 97 ce bc 47 76 61 3e b1 d1 40 3d d2 ad 79 bd
       -0.025218721 0.22017775 0.047074977 -0.060956784
0003b0 33 36 c5 bd ef 12 b1 bc d4 5e 79 3e fd 5c 82 bd
       -0.09629478 -0.021615474 0.2435258 -0.06365392
0003c0 1f d7 7e 3d 84 28 15 3e 17 62 12 3e 9a 02 ea bb
       0.062216874 0.14566237 0.14295231 -0.0071414234
0003d0 63 6b 45 bc a5 5f 25 3e 96 88 d6 3e f1 1a 02 3e
       -0.012049529 0.16149767 0.41901082 0.1270559
0003e0 22 77 26 bd a7 13 06 3e 47 e5 62 3d 13 11 77 3e
       -0.040640958 0.13093434 0.055394437 0.24127607
0003f0 91 cc 02 bd 3e fc 84 3d eb f8 40 bd 78 bb 11 be
       -0.03193337 0.06493424 -0.047112387 -0.1423167

Q1.2.bias f4 [256]
000000 97 91 2d 3f de 11 1f 3f 59 85 35 3f 61 30 b2 3e
       0.6780028 0.6213664 0.709066 0.34802535
000010 4f dc a6 bd cb 5e 1a bf f6 06 5e bc f1 9d 1f be
       -0.08147489 -0.6030089 -0.013551464 -0.15587594
000020 4f c0 34 3f e8 89 2b 3f 4f de 34 3f e5 eb 2b 3f
       0.7060594 0.67007303 0.70651716 0.6715682
000030 a8 16 85 bd 0e f8 23 3f fd 70 36 3f 8e 3d 0b 3f
       -0.06498462 0.64050376 0.71266156 0.543908
000040 e8 82 e2 bd de ac 3c 3f f4 b1 39 3f 44 38 8a be
       -0.11060125 0.73701274 0.7253716 -0.26996052
000050 81 7d 77 be 43 27 1f 3f 57 4d a0 be cf fc c5 3d
       -0.2416897 0.62169284 -0.31309006 0.0966736
000060 ab d2 25 3f bb 40 32 3f f3 2f 31 3f b4 fb 59 bc
       0.6477458 0.6963002 0.6921379 -0.01330464
000070 54 19 6d 3f 59 89 4c 3f ce 21 9e bd d6 cd b2 bd
       0.9261677 0.79897076 -0.077212915 -0.08730666
000080 fc 69 c3 3e 20 dc 67 3f c1 66 54 3d 43 f1 0c bf
       0.38166797 0.9057026 0.051855806 -0.55055636
000090 c8 16 a0 3b 6f 11 54 be 4c 34 4c 3f ea 80 50 3f
       0.0048855282 -0.20709775 0.797673 0.8144671
0000a0 4c 16 29 3f a0 61 37 3f 1d d0 fc bd 75 69 42 3f
       0.6604965 0.7163334 -0.12344382 0.75942165
0000b0 56 a7 db 3e cf 8e 25 3f 50 78 26 3f 76 e9 62 3f
       0.42901105 0.64671034 0.6502733 0.88637483
0000c0 51 ef 25 3f a5 fc 48 3f a0 82 15 be 24 87 1c 3f
       0.6481829 0.78510505 -0.1460061 0.6114371
0000d0 16 2a 26 3f 67 22 28 3f 27 9e 35 be 61 b8 2a 3f
       0.6490797 0.65677494 -0.17736112 0.6668759
0000e0 f2 f2 0b bc 09 3e 25 3f 29 79 7a be a5 1c 59 3f
       -0.008541809 0.64547783 -0.24460281 0.84809333
0000f0 04 08 78 be 5f d3 8d bd ff de 45 3f 22 43 33 3f
       -0.24221808 -0.069250815 0.7729339 0.7002431
000100 8f ce 2f 3f d7 88 38 3f 55 eb d4 bc 30 f3 3d 3f
       0.6867456 0.720838 -0.025991121 0.741992
000110 87 17 39 bf 0d b7 c0 3e 71 fb 4b bd fa 59 51 be
       -0.72301525 0.37639657 -0.04980034 -0.2044448
000120 f0 3b 29 3f f6 5d 12 be 48 d2 24 3f 98 81 47 3f
       0.6610708 -0.14293656 0.64383364 0.7793212
000130 14 51 26 3f e3 04 1b 3f 7e f6 3c bd 88 22 91 3c
       0.64967465 0.6055433 -0.04613351 0.017716661
000140 f8 38 ed 3e 2a 27 3c 3f 8f 4f 88 bd 55 8f 20 3f
       0.46332526 0.7349726 -0.066557996 0.6271871
000150 59 a7 2b 3f d6 b6 5b 3f 14 20 73 be 0c d4 37 3f
       0.6705223 0.8582586 -0.23742706 0.7180793
000160 05 e6 26 be 65 d5 29 3f ec 9c b0 bd c5 53 3a bd
       -0.16298683 0.6634124 -0.086236805 -0.045490045
000170 71 f6 10 bd c2 84 3c bd 07 09 1b bd e9 e2 25 bd
       -0.035391275 -0.046025045 -0.037850406 -0.0404996
000180 dc c3 29 bd 3c d9 5b 3f f5 13 1c 3f 87 01 f7 bc
       -0.04144655 0.8587835 0.6096795 -0.030152095
000190 1c b5 29 3f 62 b7 1f 3f a8 be 36 3f d4 2b 70 3f
       0.66291976 0.62389195 0.7138467 0.93816876
0001a0 50 8a 1a bf 09 da 39 3f 16 ff 3e 3f 95 73 01 3b
       -0.603673 0.7259832 0.7460798 0.001975273
0001b0 cf 2d 14 3d 4b 5b 58 bd ea dc 60 be 8a f0 62 3f
       0.0361765 -0.05282144 -0.21959272 0.88648283
0001c0 d5 ca 48 3f b1 2e 4b 3f 17 a2 ac bd 72 00 3c 3b
       0.784345 0.7936812 -0.08429354 0.002868679
0001d0 53 77 6b be 1a 4a cc bd bd bf 87 3e 32 44 5b 3f
       -0.22994737 -0.09975071 0.26513472 0.8565093
0001e0 c3 82 3c 3f 2e c4 b9 be c3 95 67 3f 9d 69 09 3e
       0.73637027 -0.36282486 0.90462893 0.13419195
0001f0 f1 a1 3b be b4 d2 4c 3f 21 9a 3a 3f fc 56 3d 3f
       -0.18323494 0.8000901 0.7289143 0.7396085
000200 31 bd 1c 3f 76 91 4f 3f e0 d4 75 be 66 b2 9a bd
       0.61226183 0.8108133 -0.24006987 -0.07553558
000210 11 fa 24 3f 09 1d 45 3f 1f b4 5e bc b1 eb fb bc
       0.6444407 0.7699743 -0.013592749 -0.030752035
000220 a9 67 e6 3e 8f 67 22 3f fd 28 d3 bd eb c4 3a be
       0.4500096 0.6343927 -0.10310552 -0.1823918
000230 97 0a 29 be f4 3f 5d 3f df 71 31 3f ca 55 39 be
       -0.16507946 0.8642571 0.6931438 -0.18099132
000240 c3 08 fe bd 8a f4 bd bb 22 40 06 3f 58 9d db 3e
       -0.12404015 -0.0057969736 0.5244161 0.4289348
000250 0a 30 83 bf bc 0f 5a 3f af bd 90 be 19 13 f7 be
       -1.0249035 0.8518026 -0.28269717 -0.48256758
000260 9a 62 39 bd 9b 1e 22 bf 29 70 30 be de f4 38 3f
       -0.04526005 -0.6332795 -0.17230286 0.7224864
000270 cd 2d f9 3e c0 d2 4c be a2 ac 0e 3f ed 7f 33 bf
       0.48667756 -0.2000227 0.55732167 -0.70117074
000280 99 d2 34 3f cf 77 93 bd 47 6f d2 be be 2e 1b bc
       0.70633847 -0.07200586 -0.41100523 -0.009471593
000290 aa 34 3d 3f 87 85 29 3f 12 e4 da 3d b7 d6 cb be
       0.73908484 0.6621937 0.10688032 -0.39812252
0002a0 73 77 fe be 1e 92 eb be bf 50 29 3f 1c 61 bd 3c
       -0.49700508 -0.46009916 0.66138834 0.023117594
0002b0 20 d1 39 3f 3c 92 b4 be 5e cf ad bc d8 95 a8 be
       0.72584724 -0.35267818 -0.021217044 -0.32926822
0002c0 cf d9 49 bd 44 1e 4d 3f ed b6 51 3f 46 83 6c be
       -0.049279984 0.80124307 0.8191975 -0.23096952
0002d0 e0 56 19 3c e7 35 59 3f 15 79 8e bc f9 d4 4a bd
       0.0093590915 0.84847873 -0.01739172 -0.049519513
0002e0 c5 0b 23 bf 4d 46 20 3f 90 17 aa 3b 15 47 99 be
       -0.63689834 0.6260727 0.005190797 -0.29937044
0002f0 25 89 22 3f b1 4d fa be cb 28 ff 3e a5 b3 24 3f
       0.63490516 -0.488874 0.4983581 0.64336616
000300 e9 31 fd 3c b3 95 b6 bd df eb c1 be 55 10 0a 3f
       0.030907588 -0.089152716 -0.37875268 0.5393117
000310 c0 cd 5e 3f ee b5 58 3f 3c 3d f4 be d7 1b 4e 3f
       0.870327 0.846526 -0.47702968 0.8051123
000320 00 73 2b 3f 15 ce a1 3e 49 28 df 3e db d8 91 bd
       0.6697235 0.3160254 0.43585423 -0.0712144
000330 2b 1a 30 3f 86 54 bd bd b6 9e 5b 3f b2 ce 27 3f
       0.6878993 -0.09244637 0.8578905 0.65549767
000340 07 c9 90 bd e9 b1 05 3c 7c 1a 31 bf 2b 01 5d 3f
       -0.07069593 0.008160093 -0.69181037 0.8632991
000350 cd 89 59 3f 15 41 3d bd b1 99 55 3f 72 1d fe bb
       0.8497589 -0.046204645 0.8343764 -0.007754975
000360 89 c0 b7 be 66 e7 11 bd 22 68 d5 be 74 28 88 be
       -0.3588908 -0.03562107 -0.4168101 -0.26593363
000370 fa 7d 3d be 05 f1 22 3f cc ef 6f 3d 5f c0 9b be
       -0.18505087 0.63649017 0.058578297 -0.30420205
000380 a5 2c e1 bd c7 03 9d 3e d4 08 6a bc 79 17 45 bd
       -0.109948434 0.30666944 -0.014284331 -0.04811809
000390 98 15 90 3c 25 45 33 3f a7 03 2c 3f 84 41 24 3f
       0.017588422 0.7002738 0.67193073 0.6416247
0003a0 0c 9e 91 3c 0d ed 24 3f 41 4e d5 bd 94 78 5c 3f
       0.017775558 0.6442421 -0.104153164 0.8612149
0003b0 90 a8 32 be 04 33 30 3f ff 3d d0 bd ac 9f cc bc
       -0.17447114 0.68827844 -0.10168075 -0.024978481
0003c0 38 43 e8 3c 6d 91 1d 3f 07 83 d4 3e f0 ce ef 3e
       0.028352365 0.6155003 0.41506216 0.46837568
0003d0 0c 10 06 bf c4 80 48 3f b1 27 37 3f 0a e5 d4 be
       -0.52368236 0.7832148 0.7154494 -0.41580993
0003e0 8e ac 75 3f d1 30 53 bf 9d 64 2b 3f 15 72 25 3f
       0.9596642 -0.8249636 0.669504 0.646272
0003f0 29 de f7 bb eb 9d eb 3e 8d 20 0d bd 49 3f 2c 3f
       -0.0075643254 0.4601892 -0.03445487 0.67284065

Q1.4.weight f4 [1, 256]
000000 cd b1 23 3e be 42 bf 3d ad 6c 55 3e 7a 5a 77 3f
       0.15985794 0.09338902 0.20842238 0.9662243
000010 ea a0 de c0 e0 98 62 bf ea ae d0 c0 e8 af c3 c0
       -6.957143 -0.8851452 -6.521352 -6.115223
000020 9d f7 84 3f 0d 35 10 3e 8e 15 47 3e ea 0a f7 3d
       1.0388066 0.14082737 0.19441816 0.120626286
000030 b8 38 0c c1 52 ca 0b 3e 05 98 31 3e 8a 07 74 3f
       -8.763847 0.13651398 0.17343147 0.95324004
000040 fa 91 82 c0 93 3b a7 3f 37 09 28 3e 95 52 6f bf
       -4.0803194 1.3065056 0.16409765 -0.93485385
000050 ed 5f f5 c0 c0 13 e8 3d 63 cc 2a c0 3c c3 57 c0
       -7.6679597 0.11331892 -2.6687248 -3.3712912
000060 b2 10 f6 3d df 81 b1 3d b4 1b 49 3e c1 fe aa bc
       0.12014903 0.08667349 0.19639474 -0.02087343
000070 93 d5 b9 3f 48 77 96 3f 8f 4d e6 bb 8d 64 be c0
       1.4518303 1.1755152 -0.0070282887 -5.9497743
000080 dd f1 53 3f 90 fd 88 3f 5c 4d 53 bd 29 f7 f3 bf
       0.8279093 1.0702381 -0.051587448 -1.9059802
000090 85 26 1a bd 0f c1 ac c0 c3 bc 71 3f 4a 80 87 3f
       -0.03763439 -5.3985667 0.9442865 1.0586026
0000a0 89 5c 9b 3f 7d 57 16 3e f5 d4 b5 c0 98 39 62 3e
       1.2137614 0.14681812 -5.6822457 0.22092283
0000b0 af 94 b5 3f fa ef 31 3e 82 a5 17 3e a2 75 86 3f
       1.4186 0.173767 0.1480923 1.0504649
0000c0 85 4e 94 3f 22 6d 37 3f ad 3d 20 bf a6 62 2b 3e
       1.1586462 0.716509 -0.6259411 0.1673685
0000d0 1b f1 2c 3e 4b 3f 66 3f fd 72 a2 bf 00 c2 27 3e
       0.1688885 0.8994033 -1.2691342 0.16382599
0000e0 2e 0d d6 bf 31 4a 19 3e 59 ca e6 c0 9c 94 7c 3f
       -1.6722772 0.14969708 -7.2122006 0.9866426
0000f0 34 09 9a c0 09 74 67 bb 26 e3 5c 3f c9 8a 14 3e
       -4.8136234 -0.0035316965 0.862841 0.14506067
000100 15 6a 07 3e 31 16 47 3e e5 30 04 c1 f9 54 a4 3f
       0.13224061 0.19442059 -8.261937 1.2838432
000110 d3 14 0c c0 14 7b be 3f 7b 7b 34 bd 39 27 c8 bf
       -2.188771 1.488131 -0.044063073 -1.563697
000120 64 c0 e9 3d c6 be b9 bf d1 62 f4 3d 1f 3b 95 3f
       0.11413649 -1.4511344 0.1193291 1.1658667
000130 c8 91 26 3e d4 eb 2d 3e 0f c0 00 3d b3 c5 b4 c0
       0.16266549 0.16984493 0.03143316 -5.649133
000140 07 56 85 3f dc a2 48 3e 3a 81 c2 c0 d5 94 3b 3d
       1.0416878 0.19593376 -6.0782747 0.045796234
000150 d6 cc 1d 3e 8e b9 1a 3f 08 37 a4 bf db d2 07 3e
       0.1541017 0.60439384 -1.2829294 0.13264029
000160 d5 dc 07 c0 7b af 24 3e 3e 09 d7 bf 23 fe 07 c1
       -2.1228535 0.16082565 -1.6799695 -8.499545
000170 8e 14 db c0 e3 c9 99 c0 49 94 55 bd 0f ba 10 bd
       -6.846259 -4.8058944 -0.05214337 -0.03533369
000180 fe e6 08 c1 88 31 43 3f 43 0b ee 3d 98 1e 10 c1
       -8.556395 0.76247454 0.11623242 -9.007469
000190 42 f1 27 3e dd 0f b6 3d 53 9c 48 3e 2e 4e 89 3f
       0.16400626 0.088897444 0.19590883 1.0726984
0001a0 3a 0b 9f bf bf 22 a2 3f 63 d3 8b 3f 0a 62 10 c1
       -1.2425301 1.2666854 1.0923885 -9.023935
0001b0 00 3f 78 3b 68 19 f1 bc 81 99 5b c0 5e 9d 99 3f
       0.0037879348 -0.02943106 -3.4312441 1.200115
0001c0 f6 42 80 3f aa f3 29 3f b1 c8 06 c1 71 20 fc bc
       1.0020435 0.66387427 -8.423997 -0.030777188
0001d0 44 6f 13 c0 b6 b5 8a c0 2e 8a cd 3f 42 9a 29 3f
       -2.303666 -4.3346815 1.6057794 0.66251004
0001e0 19 e1 33 3e c7 b4 10 c1 f5 08 70 3f 7c 81 79 3f
       0.17566337 -9.044135 0.9376367 0.974632
0001f0 3a ac 9c c0 54 19 82 3f fc c0 fa 3d a2 a8 05 3e
       -4.8960238 1.016398 0.1224384 0.1305261
000200 1d 70 f9 3d 00 a1 43 3f d9 db a3 c0 e3 f5 74 bf
       0.12179587 0.7641754 -5.120587 -0.95687693
000210 bb 33 13 3e 06 28 3d 3f 2e 7d 1d c0 3d 5b e8 c0
       0.14375202 0.73889196 -2.4607654 -7.2611375
000220 14 68 64 3f d5 5b bb 3d c2 1f 4a bf ef 1e ab bf
       0.8922131 0.09148375 -0.7895471 -1.3368815
000230 6a 8d 99 c0 bf 37 99 3f 22 b4 2a 3e cf b6 30 40
       -4.7985125 1.1970137 0.16670278 2.7611578
000240 8c a7 14 c0 c2 d4 cd bf 14 bd 6c 3f ad 6d cb 3f
       -2.3227262 -1.6080554 0.9247601 1.5892845
000250 d6 71 07 c0 81 4b 6f 3f 89 21 c8 bf a2 38 50 bf
       -2.116323 0.93474585 -1.5635234 -0.81336415
000260 07 75 61 c0 72 57 94 bf 70 14 d7 bf 3f a8 05 3e
       -3.5227678 -1.1589186 -1.6803112 0.13052462
000270 e0 58 4b 3f 15 50 91 c0 56 02 80 3e 3d ab ab bf
       0.7943249 -4.5410256 0.25001782 -1.3411633
000280 c4 ac ed 3d 06 82 6c c0 fc e9 4a bf 33 9a 00 c0
       0.11605218 -3.695436 -0.7926328 -2.0094116
000290 1e fe 25 3e 23 e3 33 3e 09 37 40 c0 c5 b9 14 c1
       0.1621022 0.17567115 -3.003359 -9.295354
0002a0 46 d6 96 bf c4 97 c2 bf 0f 26 eb 3d 53 76 07 bc
       -1.1784141 -1.5202565 0.114818685 -0.008267957
0002b0 a7 ee b1 3d e5 98 f1 bf 3d 4d 85 c0 dc 80 3c c0
       0.086880974 -1.8874785 -4.1656785 -2.945365
0002c0 ac 9a 32 bd c8 a7 82 3f 71 4b 47 3f b7 3d 52 40
       -0.043604538 1.0207453 0.7784949 3.2850168
0002d0 90 e5 19 3c bc 22 2d 3f 61 a5 04 c0 2a 7e 96 bf
       0.009393111 0.67631125 -2.072594 -1.1757252
0002e0 45 8d bc bf b9 af 28 3e 83 26 80 bc 0b da c3 bf
       -1.4730612 0.16473283 -0.015643364 -1.5300916
0002f0 b9 ae 22 3e 41 3a 60 bf 2f ec c4 3f 0a 4a 5f 3d
       0.15886964 -0.8758889 1.5384578 0.05451397
000300 88 c8 e1 39 85 4b e7 c0 e5 b6 87 bf cb 98 ae 3f
       0.00043064752 -7.2279687 -1.060269 1.3640379
000310 b5 a8 a0 3f 90 b9 31 3f b9 3c 89 bf c0 f1 98 3f
       1.2551485 0.6942377 -1.0721656 1.1948776
000320 6d 1f ac 3d f1 15 ae 3f db 8a 91 3f 46 06 31 c0
       0.084044315 1.3600446 1.13705 -2.766008
000330 7c 5d 57 3e 1f 98 dd bf 53 d4 92 3f 54 16 40 3e
       0.21031755 -1.7312049 1.1471046 0.18758518
000340 24 40 34 bb bf 51 a4 bf 3d 23 53 c0 16 2c 31 3f
       -0.002750405 -1.2837447 -3.2990258 0.69207895
000350 a1 56 2d 3f e1 87 2c bd 1d 00 24 3f a1 30 c4 3a
       0.6771031 -0.04212177 0.6406267 0.0014968106
000360 19 81 fd bf b6 9f 98 c0 3f 0e 93 bf 7b f7 c6 bf
       -1.9805022 -4.769496 -1.1488723 -1.5544275
000370 0c b4 1d c0 4e 30 8b 3f af 67 aa c0 10 a6 6f bf
       -2.4641142 1.0874116 -5.3251567 -0.93612766
000380 01 bf 03 c0 1f e1 ab 3f f3 91 4e bd 64 68 dd bf
       -2.058533 1.3428077 -0.050432157 -1.7297482
000390 be c6 e0 3a 2c b7 bb 3d 1a 0a f2 3d a2 97 26 3e
       0.0017149074 0.09165797 0.11818333 0.16268781
0003a0 4c 25 4a 3b 73 f4 cf 3d e6 2b 0d c1 4e 02 75 3f
       0.0030844985 0.10154047 -8.823217 0.9570664
0003b0 dd 3b 4f bf df 73 e9 3d 74 43 02 c1 1d aa 02 c0
       -0.8095072 0.11399054 -8.141468 -2.041633
0003c0 a2 f5 26 bc 60 de 2a 3e 2b 3c 76 3f 79 1f 6e 3f
       -0.010190399 0.16686392 0.9618556 0.93016773
0003d0 69 6e e4 bf ce 1d 33 3f 07 9c 84 3f 8c 48 55 bf
       -1.7846195 0.69967353 1.0360116 -0.8331382
0003e0 e1 0f 8b 3f 1c 9a f7 bf d8 d6 fe 3d 38 8b 35 3e
       1.0864221 -1.9343905 0.12443322 0.17728889
0003f0 c6 77 bc bf 2f c2 b5 3f 19 50 b6 bf 98 39 2a 3e
       -1.4724052 1.4199885 -1.4243194 0.16623533

Q2.0.weight f4 [256, 14]
000000 a6 c6 5e bd f2 7e 6a c0 7f ad 14 3f b5 34 0b bf
       -0.054388665 -3.6639981 0.58077234 -0.543773
000010 06 0c 0e 3e 91 86 11 bf 58 86 b5 3e 77 62 9a bd
       0.13871774 -0.5684596 0.3545406 -0.07538312
000020 4b 2f 2c bc 30 17 6e bc ce a9 65 bd 28 28 d3 bd
       -0.010509322 -0.0145318955 -0.05607014 -0.103103936
000030 85 5e f1 bd 8a bf e0 bd 36 49 9b be da 7a 89 bf
       -0.11785606 -0.10974033 -0.30329293 -1.0740616
000040 b2 be b5 bd 79 94 db 3c a9 ac 48 3c d4 36 66 bd
       -0.08874263 0.026804196 0.012248197 -0.056204632
000050 89 cf 52 bd 58 09 cd 3e 70 0a 6f be 44 04 fe bd
       -0.051467452 0.4004619 -0.23343825 -0.12403157
000060 29 26 02 bd 1a c3 62 be 5d 35 4a 3d d9 4c 83 bc
       -0.031774674 -0.22144738 0.049367297 -0.016027855
000070 0e e2 5a 3e 51 97 c6 3f 35 75 06 3f 14 23 f5 3d
       0.21375296 1.5514928 0.52522594 0.11969581
000080 c7 c0 09 3f 4c 21 ea be 2c da c9 be 7f 42 aa be
       0.5380978 -0.45728528 -0.39424264 -0.33253857
000090 95 82 20 3e 49 48 7b bd 04 48 8b be 24 f9 0b bc
       0.15674813 -0.061348233 -0.2720338 -0.0085432865
0000a0 1b ed ed 3e 63 d7 0a bf 06 77 e6 be 65 3f 46 c0
       0.4646996 -0.54234904 -0.45012683 -3.0976193
0000b0 66 a1 b1 3d de 39 55 be c8 8d af 3e 20 12 9e bd
       0.086733624 -0.20822856 0.34287858 -0.07718301
0000c0 b4 81 2d be d4 d6 ea 3e c6 30 ce be 6f 2c ea bd
       -0.16944009 0.45867026 -0.40271586 -0.11434256
0000d0 fb fb 1d bf 2d 74 13 bf 28 fe d6 be 2b 65 c4 be
       -0.61712617 -0.57599145 -0.4199078 -0.38358435
0000e0 45 21 29 3e 79 49 0a 3e b9 e5 af be 13 97 9c 3e
       0.16516598 0.1350459 -0.34354952 0.3058401
0000f0 b7 f3 16 3e 8a aa 2b 3e 13 e1 61 3f 04 81 4d 3e
       0.14741407 0.16764274 0.8823406 0.20068747
000100 61 d5 e1 be d6 d5 8b 3e 9c 4b 62 3e 6a c3 02 bf
       -0.44108108 0.2731158 0.22099155 -0.5107943
000110 7e a4 37 3f 6a e6 61 3e 22 18 ac bd bc c9 f2 3f
       0.7173537 0.22060552 -0.084030405 1.8967814
000120 38 4c 50 3e d3 66 3c bf 8c b7 b7 3e 45 e1 37 3e
       0.20341575 -0.735944 0.35882223 0.17957027
000130 b9 02 2c be 2d 79 08 bd 2f 43 6e bd bf e6 0a bd
       -0.16797914 -0.033318687 -0.05816954 -0.033911463
000140 73 d1 94 3d 56 93 21 3f 46 ab 2b be 33 b2 04 bf
       0.07266512 0.6311544 -0.16764554 -0.5183441
000150 df 78 02 bf 28 e9 75 bf 64 97 c5 3f d1 c8 22 be
       -0.50965685 -0.96058893 1.5436826 -0.15896918
000160 06 43 6b bf 40 c4 63 be a5 f9 fc bd d1 b9 8b be
       -0.91899145 -0.22242832 -0.123523034 -0.27290204
000170 7d 1c f6 3d 95 c9 2c bd 3a ab 95 3e 69 e2 b6 be
       0.120171525 -0.04218443 0.29232198 -0.35719612
000180 ba 37 be 3d c5 f9 c5 3d 61 ff 1a bd a7 42 29 40
       0.09287973 0.096667804 -0.037841205 2.6446931
000190 3e 8d 86 be ae bd 1a bf 35 66 ce bd f4 e4 1a 3f
       -0.26279634 -0.6044568 -0.10078088 0.60505605
0001a0 95 35 49 3d e1 2b 68 3e ae cf 7c bd aa ee 9a bd
       0.049123365 0.22672988 -0.061721496 -0.07565053
0001b0 c6 1b 32 3d ca 26 4e 3f 0b 84 fe 3c 4d 1f b9 3e
       0.043483518 0.8052794 0.031068822 0.36156693
0001c0 d2 c0 2d 3e c2 22 1d be 2d 7f 47 3f 9c 2a 2c be
       0.16968086 -0.1534529 0.7792843 -0.16813129
0001d0 10 17 97 be 6f 8f 63 bf 05 44 1d 3f 2a 2a 08 3e
       -0.29509783 -0.8889074 0.61431915 0.13297334
0001e0 1b a3 14 3f 71 e5 1c 3d 76 33 72 3e e7 4c d6 3c
       0.5806138 0.03830475 0.23652443 0.026159717
0001f0 19 b0 fd 3e f8 a6 b1 be ff 22 d7 be 82 e2 6c c0
       0.49548414 -0.346977 -0.42018887 -3.701325
000200 b7 0c 33 3e 55 72 0d bf 5d 30 6a be d9 15 a2 3d
       0.17485319 -0.5525258 -0.22870012 0.07914323
000210 61 24 92 3d 61 69 ec bd 5c 53 b9 bc 99 fc 81 bd
       0.07135845 -0.11543537 -0.022622757 -0.06347007
000220 9b 34 77 3c 71 11 8d 39 41 97 44 be 3d 14 b0 3d
       0.015088226 0.0002690661 -0.19198324 0.0859761
000230 b9 35 68 3e 1d 93 12 be 6e d6 f3 bd cd bb 3d be
       0.22676744 -0.14313932 -0.119061336 -0.18528672
000240 46 e6 00 3c 68 a2 24 be 6d 73 d1 3d 1f c3 bf bd
       0.0078674015 -0.16077578 0.10227094 -0.09363388
000250 c4 c8 b4 bd 63 85 7b bd 59 22 00 bc 0d d0 39 bc
       -0.088273555 -0.061406504 -0.007820689 -0.011341107
000260 dc 86 f7 bd 12 8e ec 3d 84 3e 34 3e 7a ef 90 be
       -0.12086269 0.11550535 0.17601973 -0.28307706
000270 8a 48 39 3e 7f 8e c7 3e db 30 3d 3e 16 37 af be
       0.18094078 0.38975903 0.18475668 -0.34221715
000280 c9 51 88 39 d0 5c 5c be 46 b2 e5 3e b9 70 74 3e
       0.00026000876 -0.2151978 0.44862574 0.23871125
000290 e6 71 0a 3e 93 4e f3 3e 21 13 86 3e 07 9e 2e 3f
       0.13520011 0.47520885 0.2618647 0.6820988
0002a0 e6 d0 0f 3e e4 bd 9f 3f 19 46 2e 3e 13 26 0b bf
       0.14044532 1.2479825 0.17018928 -0.5435497
0002b0 ee e0 4b be 6e 5e a0 3e 62 36 34 3e c5 37 18 be
       -0.19910023 0.31322044 0.1759887 -0.14865024
0002c0 da 2d b4 bd b2 88 a6 bd 49 ff 95 bd 7b fa ee bd
       -0.08797808 -0.08131541 -0.073240824 -0.11668869
0002d0 4d cb 9c 3e 7e 82 19 3e 21 a1 a4 3d ba a4 bf 3f
       0.30623856 0.14991185 0.080385454 1.4972146
0002e0 22 59 0c bf 1b 73 05 3e 86 ad 7b bc 63 4a 34 be
       -0.54823506 0.1303219 -0.015361195 -0.17606501
0002f0 33 37 e6 be a5 ba 11 3e 76 be fc bc f9 c6 65 3e
       -0.4496399 0.14231355 -0.030852538 0.22439183
000300 bd 38 b4 bc 3a fa 9e 3e 4e d7 be 3d 6a f0 75 3d
       -0.021999711 0.31050283 0.0931841 0.06004373
000310 fd 46 57 be fc b1 db bf f9 c6 2b 3f 16 bb c1 3f
       -0.21023174 -1.7163692 0.67100483 1.5135219
000320 18 ac 06 bf da 9d 42 bf 66 2b 31 bf 90 9e cc bd
       -0.52606344 -0.7602211 -0.69206846 -0.09991181
000330 68 eb 96 3e 32 6d ee 3d 42 d0 7e be 8c ff d5 3d
       0.29476476 0.11641921 -0.24884132 0.10449132
000340 d9 96 3b be 3f af 4b be b1 c8 90 bd f4 b5 31 c0
       -0.18319263 -0.1989107 -0.07069529 -2.7767305
000350 51 20 32 3f ea b1 0a 3d e9 9e 87 3e 3e 1b 56 3d
       0.6958056 0.03386108 0.26488426 0.052272074
000360 10 f9 bb be 23 fc 99 be 85 ce ab 3e 12 eb 85 3e
       -0.36713457 -0.30075178 0.33556 0.26155907
000370 9c 75 38 be 96 6d 16 3f 46 78 e8 3e e5 05 b1 be
       -0.18013614 0.58760965 0.4540426 -0.3457481
000380 76 f8 ec 3e 34 62 fc 3f ad bb 27 bf b4 5c b8 3e
       0.4628331 1.9717469 -0.65520746 0.36008227
000390 54 5f 69 bf 73 a2 f6 bc ef e9 b2 3e d2 70 59 be
       -0.91161084 -0.030106759 0.34944102 -0.21234444
0003a0 41 62 c0 3d 70 ff 2d be bd 5a 37 be 40 c9 61 bd
       0.093937404 -0.16991973 -0.17905708 -0.055123568
0003b0 da 7c 63 be 6e b0 64 be c4 c9 43 bf e3 dc d4 bf
       -0.22215596 -0.22332928 -0.76479745 -1.6629909
0003c0 b2 e6 11 be bd 4c 02 3e 9a 19 8f 3f 95 e1 88 be
       -0.1424816 0.12724586 1.1179688 -0.26734605
0003d0 e5 f6 d0 be 6a a4 22 be 45 bd 77 be 8b 16 c7 be
       -0.40813366 -0.15883031 -0.24193294 -0.38884386
0003e0 b5 5d b0 be ba 79 0c be 81 e2 3c 3d 20 7c 88 bd
       -0.34446493 -0.1371831 0.04611445 -0.066643
0003f0 7c 96 7a 3d 60 43 ef bf d6 d0 39 3f 26 f4 ad 3e
       0.06117867 -1.8692436 0.72584283 0.33975333

Q2.0.bias f4 [256]
000000 be 79 6e bd 6a a3 40 3f ab 26 0e 3d 08 6e 78 be
       -0.05822157 0.7524935 0.034704845 -0.24260724
000010 2f d4 1a be 97 d5 e9 be fc 0a d0 be f8 2a 0e bf
       -0.15120004 -0.4567077 -0.4063338 -0.55534315
000020 a7 32 80 3e e1 40 83 be af b1 74 3f e1 4e 84 3d
       0.25038645 -0.25635436 0.95583624 0.064603575
000030 52 0e 2e 3f 61 7e 2d 3f ff 14 c9 3d 17 ca d5 be
       0.679906 0.67770964 0.09818458 -0.41755745
000040 c9 6b c6 3e 7c 84 bd be 25 c2 49 3f fb 6b b9 be
       0.3875411 -0.3701514 0.78811866 -0.36215195
000050 18 ee 5a be d8 ee e0 3e 88 a2 32 3f 83 b1 e4 3d
       -0.21379888 0.43932223 0.69779253 0.1116667
000060 38 42 98 be 05 af e4 bd 28 83 23 3f 5d d9 32 3d
       -0.2973802 -0.11166195 0.63872004 0.043664325
000070 00 53 78 3f 3d 46 a5 be fe 63 4f be 86 56 df 3e
       0.9700165 -0.3228015 -0.20252988 0.436207
000080 57 ff 4b bc 7c a4 c2 be 26 94 47 3f 9b 0c b3 bd
       -0.0124510145 -0.38016117 0.7796043 -0.08742639
000090 63 d1 64 3d 8e df c4 3e 3f f3 66 3f 80 38 c3 bd
       0.05586375 0.3845181 0.90214914 -0.09532261
0000a0 fd b3 d1 3c f4 1a 06 bd 74 91 5f 3f 06 2d 96 be
       0.02559852 -0.03274055 0.8733132 -0.29331225
0000b0 43 cc b9 3e 71 e7 b6 be 5f 7a b0 be fa 20 f6 be
       0.36288652 -0.3572345 -0.34468362 -0.48072034
0000c0 b4 90 ea bd 7b dd e8 3e 71 92 d8 3e 1c 1e 0f be
       -0.11453381 0.45481476 0.42299226 -0.1397633
0000d0 1c 98 8b be de 8b c6 bd 00 30 1e bf 9d c3 40 3f
       -0.27264488 -0.09694646 -0.6179199 0.7529848
0000e0 b8 8c c7 bd 19 bf de be bd e1 56 3e ad 3b 07 3e
       -0.09743637 -0.4350517 0.2098455 0.13206358
0000f0 64 91 00 3f 2d fe a4 3e 78 81 4b 3f 24 05 37 3f
       0.5022185 0.3222517 0.7949443 0.7149222
000100 b0 74 f6 bd 76 44 e7 be 53 cf 01 3f 70 f5 4d 3e
       -0.12033975 -0.4516942 0.50706977 0.20113158
000110 c8 1a 49 be f4 95 1f bf 92 b8 d4 3e 9b 6e 24 bd
       -0.19639122 -0.62338185 0.41547066 -0.040144544
000120 67 3d 90 3d 27 7a 6f 3e da aa 38 be bb 43 7a be
       0.070429616 0.23386441 -0.18033925 -0.244399
000130 eb 37 15 bf d6 aa 1b be a1 16 ce 3e 9b c9 46 bf
       -0.5828845 -0.15201887 0.4025164 -0.77651376
000140 3a ea 90 be 65 91 44 3f 24 30 bc 3e 65 79 9d 3e
       -0.283037 0.76784354 0.36755478 0.3075668
000150 97 e9 09 bf 28 d3 67 3e 0c 63 3f 3f d7 65 86 be
       -0.53872055 0.22639143 0.7476051 -0.26249573
000160 86 d8 34 3d 9f 8a 87 bf ae 2f 21 3f e1 cf 34 3e
       0.044151805 -1.0589179 0.6296338 0.17657425
000170 40 84 87 3d 21 38 3d 3f 28 b7 8b be 1a 79 88 be
       0.066170216 0.7391377 -0.27288175 -0.26654893
000180 89 2f 8a bf a7 8a d7 bd 79 c0 ca 3e bd 99 ce be
       -1.0795757 -0.10524493 0.3959997 -0.40351668
000190 d3 9f 1b 3f 29 3c d0 be 96 63 47 3f 11 18 24 be
       0.6079075 -0.406709 0.7788633 -0.16024806
0001a0 7e 19 b9 3e ef 5f d2 be f1 2d 36 3f e1 71 1b 3f
       0.36152261 -0.41088817 0.7116385 0.6072064
0001b0 11 23 29 be 6c bd 03 3f 05 46 a8 3e 8f 01 f8 3e
       -0.16517283 0.5146091 0.3286592 0.4843869
0001c0 62 ff 86 be 44 ba 0e be f9 17 47 3f 0b 13 2b bd
       -0.26366717 -0.13938242 0.77770954 -0.041766208
0001d0 4c 92 95 3c fa a7 13 be 52 fb e7 3e 40 90 de 3d
       0.018258236 -0.14419547 0.4530893 0.10867357
0001e0 30 90 b9 3c 5d fc 25 be 56 a7 46 bf b9 92 95 bd
       0.022651762 -0.1620955 -0.77599084 -0.07303376
0001f0 40 eb 31 bd da 70 34 bf 66 6d 3a 3f c0 56 46 be
       -0.043437243 -0.704847 0.7282318 -0.1936903
000200 f7 09 21 bf 0f e1 94 3d 97 02 45 3f d9 3d c4 3e
       -0.6290583 0.07269489 0.76957077 0.38328436
000210 7f f4 48 3f 4e 41 0b bf 77 21 7c bc f3 9b 17 be
       0.7849807 -0.5439652 -0.015388838 -0.14805584
000220 33 19 98 3e 81 1d 57 3f 60 22 57 ba 3f cf bc 3e
       0.29706725 0.84029394 -0.00082067214 0.36876866
000230 24 7f 04 bf 06 24 bd bc 0c 40 6d 3e 5c a4 b9 bc
       -0.517565 -0.023088466 0.23168963 -0.02266138
000240 f8 1c 70 3e 09 09 4a be ae 86 69 bd 83 16 1f bf
       0.2344855 -0.19730009 -0.057013206 -0.62143725
000250 05 19 1a 3f ec 3a 56 3d 7c c6 8f 3f 1b 02 34 3e
       0.60194427 0.052302286 1.1232448 0.17578928
000260 de b1 ca be cb 0b e8 3e 9c 69 2a bf 3c a2 8c be
       -0.39588827 0.45321497 -0.665674 -0.27467525
000270 89 d3 c7 3e 02 48 64 3e d0 52 47 3f 91 cc 73 bf
       0.39028576 0.22293094 0.77860737 -0.9523402
000280 7c 8c 19 3e eb 6b 02 bf 20 c9 9f 3d 6a 7e be be
       0.14994997 -0.5094592 0.078020334 -0.3720582
000290 9c 1a 36 3f ed a2 b5 3c 7e a6 bc 3e 4f d1 44 bf
       0.7113435 0.022172416 0.36845773 -0.7688188
0002a0 e6 bf 47 3f 19 a8 04 be 80 5a 9c 3c b7 96 d5 3e
       0.7802719 -0.12954749 0.019086123 0.4171655
0002b0 80 16 a7 be be e0 09 bf f2 b1 e7 3e be 3b 6a 3c
       -0.32634354 -0.53858554 0.4525295 0.01429647
0002c0 8a 3d 67 bf fd 36 6a bf 72 d8 93 be 69 73 b4 3b
       -0.90328276 -0.91490155 -0.28876072 0.005506922
0002d0 88 17 e4 3d a9 d6 d9 3e 8f 58 f9 be 47 e8 39 3e
       0.11137301 0.42546585 -0.48700377 0.18155013
0002e0 19 b3 18 3d ed a1 87 be dc 63 a2 be 43 86 0c be
       0.037280176 -0.26490727 -0.31716812 -0.13723092
0002f0 77 fb 0d 3f d6 f5 ae be 6e f2 82 3d d1 5b 3e bc
       0.5546183 -0.34171933 0.06393896 -0.01161857
000300 27 d6 b5 be 23 e4 30 3f 6d e3 ad 3e fd ef 21 3f
       -0.35514948 0.6909811 0.33962575 0.6325682
000310 19 b5 52 3e aa ed d7 bd 28 23 18 3e 12 5a 32 3e
       0.20576896 -0.10543378 0.14857161 0.17417172
000320 64 09 4c 3f 7a 14 d5 3e 12 97 5c 3f fd bc 94 3e
       0.7970183 0.41617185 0.86168015 0.29050437
000330 5a 95 8a be 80 3a 80 3e c9 b6 20 be d8 39 32 3f
       -0.2706707 0.25044632 -0.15694727 0.6961951
000340 0c b8 3b 3f 2a cf c3 be ee 15 dc be a6 8b 0b 3f
       0.7332771 -0.3824399 -0.4298548 0.5450996
000350 0c 28 a0 be f7 74 d8 3e 3d ea c7 be 6c 36 7c bf
       -0.31280553 0.42276737 -0.39045897 -0.9852054
000360 0c a0 08 be fd d6 16 3f 97 a3 07 bf df 94 30 be
       -0.13342303 0.58921796 -0.52983993 -0.1724429
000370 c0 54 8f 3d 15 7d ae 3e e3 9f 79 be 8a 45 9a bd
       0.06998587 0.34079805 -0.24377398 -0.07532795
000380 fc de 94 be 69 08 7c be f3 77 30 bf 11 d3 03 bf
       -0.29076374 -0.24612583 -0.6893303 -0.51493937
000390 3a 1a 5d bf d8 51 02 bf eb 48 c6 be 61 31 04 be
       -0.86368144 -0.50906134 -0.38727507 -0.12909462
0003a0 82 14 9b 3e da e5 67 be ff 2e b3 bd 27 05 9c bd
       0.30289084 -0.22646275 -0.08749198 -0.0761817
0003b0 ca d3 15 3f 0e 70 d9 be a2 f6 32 be 76 33 df bd
       0.5852629 -0.42468303 -0.17476895 -0.10898487
0003c0 ae 06 12 3d e9 4c 95 3e 17 6e ec 3e 8b 42 c2 be
       0.0356509 0.2916024 0.46177742 -0.37941393
0003d0 87 04 7c 3e cc 15 05 be 28 6a 05 3f 94 7a 95 3e
       0.24611102 -0.12996596 0.52115107 0.29195082
0003e0 ab b9 e5 3e 1b 1d e0 be c6 4d d7 bc da fe cf bc
       0.44868216 -0.43772206 -0.026282202 -0.025390077
0003f0 1b 46 bc 3e ab 6a 37 3f 3f 52 b6 bd f9 07 04 3f
       0.36772236 0.7164714 -0.08902406 0.51574665
