trained_models/Walker2dNormal-v3/sero/actor_4.pt (torch, 296896 bytes, 8 tensors)

shared.0.weight f4 [256, 17]
-0.48715582 0.34393322 2.4024193 0.88725895 -1.0151789 1.2980766 2.4380193 -0.11627804
-0.3733941 0.17275453 -0.09988884 -0.13285613 0.051204685 -0.1346004 -0.031747572 0.07636245
0.027795242 -0.79157794 -1.1568165 0.5302864 0.19230916 0.08718975 -2.3946311 -0.8080275
-0.7282705 -0.07478823 0.10430391 0.0046221516 -0.057509962 -0.063516155 -0.038704813 -0.008422707
0.0074035972 0.1793711 0.07466433 -0.009465084 2.1651566 1.6417205 0.3485579 0.19709875
-0.20361656 0.14006434 0.20471543 0.31259176 -0.28031674 0.2234327 0.09731644 0.03281443
-0.03142063 -0.036268294 -0.034587618 -0.13484095 0.37807104 2.451652 0.20858821 0.46220124
2.4676337 1.1811938 -0.38394096 -0.6834687 -0.6539458 0.18454479 -0.025464235 -0.111602254
-0.022902587 -0.0829098 0.087067455 0.046136178 0.21558176 2.4451647 -0.66670954 0.07300007
-0.26764134 0.007546507 0.005227176 -0.09274239 -0.96297014 0.45184016 0.22315465 0.14243773
0.12152891 0.055380143 -0.119407594 -0.07018231 0.035372946 -1.1886467 -3.265755 -0.81746477
-0.49779475 -0.33078215 -1.7922591 -1.1484176 -0.0059943898 -0.11361819 -0.6251527 -0.08035177
-0.020960111 -0.027795956 -0.0017666757 -0.019608965 -0.00022118865 -0.0029648503 -0.24186099 -4.2837715
2.4970758 2.122686 0.29075524 2.2902944 2.5378137 -0.05648015 -1.568334 -0.20792961
0.21824287 -0.08609244 0.02750367 0.01138405 -0.043797377 0.016036704 0.0014770183 -1.3627224
1.2556815 0.4677744 -0.65410703 -0.28185964 0.24172427 -0.009550768 0.7720729 0.16048677
-0.6476366 0.11810083 0.0024269081 -0.0017880847 -0.17500016 -0.060166497 -0.16944255 -0.07964237
0.13892086 1.5467503 -0.68942785 -0.1735437 0.5766489 0.048305575 -0.4834921 0.15254398
0.35717022 -0.12955561 -0.21650426 0.033463098 0.010723965 0.030488776 0.13038541 0.025246564
0.019619104 0.23881952 1.2429373 -1.5479013 0.668997 0.68156844 0.9859703 0.45217824
0.32485205 -0.2488865 -0.04531556 -0.21373023 0.24726042 0.09541209 0.020935068 -0.03377696
0.07142522 0.043672957 -0.9845109 -0.15546034 0.5792119 -0.26265877 -1.199404 -0.1122982
0.642805 0.801975 0.5633213 0.36517003 0.17100291 0.22610606 0.0087112505 -0.009436588
-0.03583362 0.12059219 -0.010553175 -0.24338524 -3.623712 5.2469974 3.1027107 -0.6181796
-0.98332447 0.20184577 -0.23367321 -0.0063374746 0.26223803 -0.051770177 -0.046852008 0.11352916
-0.09353852 0.07699479 0.08137996 0.062475596 -0.42818433 0.9648106 -2.202617 -0.31851017
0.95817 3.8449686 3.2510984 0.35915852 -0.9306713 0.38484406 0.22206564 0.120488554
0.10646878 -0.04477752 -0.17998555 -0.0035828261 -0.01995327 -0.7220612 2.3615897 0.058011502
0.5666341 0.039907064 -1.4116255 0.3772131 -0.49021983 0.40619102 0.1734258 0.28478324
-0.19606178 -0.12068608 -0.003622324 -0.10581548 0.05309322 -0.011311952 -0.13929711 -2.1273267
0.16020744 0.04774082 0.26384518 1.232102 -0.43077078 0.26955262 -0.43629715 1.013488
0.14569539 0.04707585 0.024634322 -0.021658257 -0.1402244 -0.12498983 0.07836038 -0.17821738
00000000: 7d6c f9be 0418 b03e 3dc1 1940 6723 633f
00000010: 62f1 81bf 6027 a63f 8208 1c40 2e23 eebd
00000020: 832d bfbe 90e6 303e 8592 ccbd 700b 08be
00000030: 01bc 513d b0d4 09be be09 02bd eb63 9c3d
00000040: d9b2 e33c daa4 4abf 9012 94bf d9c0 073f
00000050: b1ec 443e 8a90 b23d a341 19c0 e4da 4ebf
00000060: ef6f 3abf 922a 99bd 4a9d d53d 6b75 973b
00000070: 918f 6bbd c214 82bd f088 1ebd 65ff 09bc
00000080: e099 f23b 0fad 373e 9de9 983d 7113 1bbc
00000090: ed91 0a40 e623 d23f 2e76 b23e 41d4 493e
000000a0: dc80 50be 076d 0f3e eca0 513e 070c a03e
000000b0: ad85 8fbe 8bcb 643e d74d c73d 6c68 063d
000000c0: ebb2 00bd 108e 14bd bfab 0dbd bf13 0abe
000000d0: 8792 c13e dee7 1c40 2698 553e a4a5 ec3e
000000e0: b6ed 1d40 5c31 973f e993 c4be cef7 2ebf
000000f0: fe68 27bf 4ff9 3c3e 5f9a d0bc b98f e4bd
00000100: 359e bbbc 9dcc a9bd 6c50 b23d 4af9 3c3d
00000110: 77c1 5c3e 947d 1c40 7aad 2abf 1081 953d
00000120: 4908 89be b048 f73b bb48 ab3b b9ef bdbd
00000130: 3685 76bf 9857 e73e a782 643e 32db 113e
00000140: 26e4 f83d 4ad6 623d f88b f4bd bebb 8fbd
00000150: 39e3 103d 9325 98bf 2102 51c0 5f45 51bf
00000160: f4de febe 475c a9be bf68 e5bf 59ff 92bf
00000170: 966c c4bb a7b0 e8bd 020a 20bf 788f a4bd
00000180: 8ab4 abbc 58b4 e3bc cd8f e7ba fba2 a0bc
00000190: e0ee 67b9 ef4d 42bb 68aa 77be a814 89c0
000001a0: 17d0 1f40 16da 0740 dfdd 943e 2f94 1240
000001b0: 8a6b 2240 bb57 67bd 2bbf c8bf 80eb 54be
000001c0: 0f7b 5f3e 3c51 b0bd 604f e13c 2b84 3a3c
000001d0: e164 33bd 685f 833c 8398 c13a b06d aebf
000001e0: 2cba a03f 2080 ef3e 8f73 27bf e84f 90be
000001f0: 9186 773e d37a 1cbc 92a6 453f a556 243e
00000200: 83cb 25bf d9de f13d c30c 1f3b 2b5e eaba
00000210: 3e33 33be 2571 76bd 5982 2dbe 8a1b a3bd
00000220: 4541 0e3e eafb c53f 587e 30bf 71b5 31be
00000230: 439f 133f 11dc 453d 478c f7be 7d34 1c3e
00000240: 04df b63e 3aaa 04be 4bb3 5dbe 9a10 093d
00000250: 92b3 2f3c 99c3 f93c c183 053e e2d1 ce3c
00000260: 3eb8 a03c 1b8d 743e 9218 9f3f a121 c6bf
00000270: 6343 2b3f 457b 2e3f 8d68 7c3f e883 e73e
00000280: 0253 a63e 1adc 7ebe cf9c 39bd 19dc 5abe
00000290: d631 7d3e 6a67 c33d 0580 ab3c b659 0abd
000002a0: 6347 923d 6ae2 323d e808 7cbf ff30 1fbe
000002b0: 3b47 143f 367b 86be 1286 99bf 99fc e5bd
000002c0: de8e 243f 3c4e 4d3f d335 103f 91f7 ba3e
000002d0: 631b 2f3e 5988 673e a2b9 0e3c eb9b 1abc
000002e0: 46c6 12bd 0af9 f63d 39e7 2cbc fb39 79be
000002f0: e6ea 67c0 67e7 a740 d092 4640 0541 1ebf
00000300: 27bb 7bbf a8b0 4e3e 0848 6fbe 97aa cfbb
00000310: 1044 863e f70c 54bd e4e7 3fbd fa81 e83d
00000320: 2091 bfbd 72af 9d3d 89aa a63d 69e6 7f3d
00000330: fa3a dbbe d4fd 763f adf7 0cc0 c413 a3be
00000340: a14a 753f f713 7640 ff11 5040 a0e3 b73e
00000350: 7940 6ebf 480a c53e 2d65 633e b4c2 f63d
00000360: 4e0c da3d a268 37bd 224e 38be d9cd 6abb
00000370: 0a75 a3bc 01d9 38bf 4924 1740 789d 6d3d
00000380: ef0e 113f 9775 233d 25b0 b4bf 1322 c13e
00000390: 18fe fabe 45f8 cf3e 8896 313e 1ccf 913e
000003a0: 6bc4 48be 432a f7bd 8364 6dbb c9b5 d8bd
000003b0: 4778 593d c455 39bc e7a3 0ebe 1f26 08c0
000003c0: 6b0d 243e e18b 433d b716 873e 85b5 9d3f
000003d0: fd8d dcbe cd02 8a3e 5762 dfbe fab9 813f
000003e0: 2c31 153e 9bd2 403d ebcd c93c a86c b1bc
000003f0: fc96 0fbe abfa ffbd 687b a03d 9e7e 36be

shared.0.bias f4 [256]
-0.6354342 -0.9327369 -0.376428 0.10883484 0.091533475 -0.6079675 -0.30909073 -0.29893854
-2.0701282 -0.78174067 -1.0537981 -0.42827988 -0.10888846 -0.01842852 -0.2998434 -0.77653223
-0.5706134 0.14585918 0.31030005 -0.69812447 0.48360732 0.065562226 -0.7436607 -0.60516906
-0.9482922 -0.31203857 -0.28330863 -0.16393366 -0.22948554 -0.07192422 0.15041174 -1.1113286
-1.063554 -0.10145066 -0.98505586 -0.5383325 -0.9067008 -0.12878004 -0.10574498 -0.76261705
-0.06815101 -0.034964718 -0.57626057 -0.22269036 0.004480708 -0.7609282 -0.44813254 -0.9834676
-0.39079556 -1.3401974 -0.085581414 -0.67004025 -0.50663793 -1.0261523 -1.2891564 -0.54896873
-0.8864051 -0.5494106 -0.62036824 -0.28122753 -1.1941886 -1.421114 -0.46254343 0.12315828
0.27548957 -0.4868117 -0.81387514 -0.6358218 -0.78890073 -0.6338183 -0.18757059 -0.5083179
-0.56523925 -0.40627927 -1.0839515 -0.80477506 -0.6339322 -0.5814096 0.38257465 -0.34792945
0.23665711 -0.43237165 -0.16765156 -0.45723644 -0.571448 -0.13249241 -1.1046621 -0.7805102
-0.6271642 -0.15045182 -0.6719881 -0.8160964 -0.5556511 -0.63085526 -0.73925465 -0.605242
-0.31569335 -1.1124308 -0.33412936 -0.39928088 -0.14317259 -0.7888373 -0.32874388 0.10101134
-0.43915203 -0.9821045 -0.4323695 -0.4937698 -0.19726376 -0.31016713 -0.24102268 0.41704705
-0.25657633 -0.3443037 -0.45411664 0.21620268 0.0067959237 -0.959138 -1.433597 -0.35902247
-0.3663166 -0.06758837 -0.37212443 0.068685494 -0.54081887 -0.8329048 -0.49040532 0.18440826
-0.34878382 -0.6518528 -0.17880295 0.19167787 -1.0075806 0.23373005 0.47870788 -0.019105423
-0.034985688 -0.5946013 -0.73084706 0.50147384 -0.07389501 -0.16985837 0.00951595 -0.42689
-0.07958425 -0.56583905 -0.45088956 -0.77112865 -0.24949682 -0.4179407 -0.21050297 -0.4651778
-1.0297384 -0.33951664 -0.64061207 -0.73846966 -1.165608 -0.6543353 -0.04046146 -1.4258314
0.0062892414 -0.65255713 -0.45067486 -0.26713252 -0.34550497 -0.37149313 -0.08174967 -0.4116578
-0.8354878 0.2613234 -0.99338824 0.067459404 -0.16525862 -0.922411 -0.24676767 -0.42169565
-0.6875339 0.17017767 -1.4041704 -0.49088353 -0.38977143 -0.71915436 -0.7219073 -0.96284485
-0.18740956 -0.44492367 -0.119028375 -1.1791929 0.16786772 -0.46601528 -0.20186777 -0.39204696
-0.89033717 0.4381777 0.09609645 0.04170597 -0.7116649 -0.97332156 -0.26732278 -0.97037035
-0.08840311 -0.76634103 -0.5220145 -0.9050386 -1.1181253 -0.60813916 -0.3165862 -0.009316523
-0.2854089 -0.74784505 -0.2885014 -0.834934 -0.002302622 -0.3838374 -0.6600925 -0.65521497
-0.19792311 0.2565639 0.14017871 -0.48750457 -0.4475805 -0.42785308 -0.1760334 -1.053769
-0.7220892 -0.2003923 -0.8378657 -0.41243502 -0.45903915 -0.46440062 -0.8148135 -0.46390036
-0.728098 -0.9877205 -0.64166343 -0.95992297 -1.1146382 -0.9883467 -1.2482156 -0.15661241
-0.5725377 -0.63430387 -0.2446515 -0.3180292 -0.9622407 -0.08914171 -0.002372025 -0.5483003
-0.7619934 -0.36159265 -1.1486619 0.13576865 -0.9109218 -0.5826426 -0.43439624 -0.8139595
00000000: d1ab 22bf d8c7 6ebf 2cbb c0be cde4 de3d
00000010: e775 bb3d c2a3 1bbf 2441 9ebe 790e 99be
00000020: fb7c 04c0 2820 48bf dbe2 86bf 8047 dbbe
00000030: ea00 dfbd 68f7 96bc 1385 99be d1ca 46bf
00000040: b813 12bf 1c5c 153e a6df 9e3e 49b8 32bf
00000050: 619b f73e 7d45 863d 8c60 3ebf 5cec 1abf
00000060: 47c3 72bf 85c3 9fbe d40d 91be 3ade 27be
00000070: 42fe 6abe 014d 93bd 8905 1a3e 0440 8ebf
00000080: 8a22 88bf 5dc5 cfbd 9f2c 7cbf 29d0 09bf
00000090: 8b1d 68bf eade 03be d390 d8bd df3a 43bf
000000a0: c292 8bbd 2a37 0fbd d085 13bf f108 64be
000000b0: e7d2 923b 31cc 42bf a171 e5be 88c4 7bbf
000000c0: 5b16 c8be 978b abbf 4f45 afbd c287 2bbf
000000d0: 06b3 01bf f558 83bf 1403 a5bf 3789 0cbf
000000e0: 72eb 62bf 2ca6 0cbf 74d0 1ebf 0efd 8fbe
000000f0: 2cdb 98bf 10e7 b5bf 7ed2 ecbe 693a fc3d
00000100: f80c 8d3e 623f f9be 1f5a 50bf 38c5 22bf
00000110: 66f5 49bf eb41 22bf 8112 40be 1f21 02bf
00000120: 85b3 10bf d603 d0be ecbe 8abf bd05 4ebf
00000130: 6149 22bf 42d7 14bf d3e0 c33e cf23 b2be
00000140: 3e56 723e d15f ddbe daac 2bbe e51a eabe
00000150: 6b4a 12bf 17ac 07be 9165 8dbf 84cf 47bf
00000160: d58d 20bf 0b10 1abe 6a07 2cbf b2eb 50bf
00000170: 273f 0ebf bb7f 21bf cb3f 3dbf 24f1 1abf
00000180: 8fa2 a1be 2264 8ebf 0113 abbe 8b6e ccbe
00000190: d69b 12be 3ef1 49bf 1e51 a8be 09df ce3d
000001a0: 89d8 e0be 336b 7bbf 895f ddbe 65cf fcbe
000001b0: 83ff 49be 3ace 9ebe a6ce 76be 3187 d53e
000001c0: f95d 83be 9348 b0be fa81 e8be 3c64 5d3e
000001d0: 57b0 de3b 118a 75bf 1b80 b7bf cbd1 b7be
000001e0: d98d bbbe c56b 8abd 1887 bebe fbaa 8c3d
000001f0: 1b73 0abf 4039 55bf 6816 fbbe 85d5 3c3e
00000200: cb93 b2be d3df 26bf 1f18 37be 3447 443e
00000210: 67f8 80bf ee56 6f3e 3319 f53e fa82 9cbc
00000220: 274d 0fbd ca37 18bf cb18 3bbf 9760 003f
00000230: 4456 97bd 5aef 2dbe cae8 1b3c 5391 dabe
00000240: 11fd a2bd d4da 10bf ffda e6be b068 45bf
00000250: 187c 7fbe 53fc d5be 178e 57be c92b eebe
00000260: 78ce 83bf 20d5 adbe 27ff 23bf 590c 3dbf
00000270: a532 95bf 8582 27bf eaba 25bd a581 b6bf
00000280: fb15 ce3b fc0d 27bf dbbe e6be 98c5 88be
00000290: 07e6 b0be 5934 bebe 5f6c a7bd d0c4 d2be
000002a0: 87e2 55bf 2ecc 853e b14e 7ebf 2828 8a3d
000002b0: 8e39 29be 2123 6cbf aab0 7cbe 7ee8 d7be
000002c0: 3902 30bf 0e43 2e3e dbbb b3bf 1655 fbbe
000002d0: 1f90 c7be 801a 38bf ebce 38bf 007d 76bf
000002e0: 4be8 3fbe 09cd e3be 26c5 f3bd cbef 96bf
000002f0: 84e5 2b3e 8e99 eebe 6db6 4ebe 61ba c8be
00000300: 23ed 63bf d458 e03e 37ce c43d e1d3 2a3d
00000310: ac2f 36bf 9a2b 79bf 88de 88be 316a 78bf
00000320: b10c b5bd ed2e 44bf bea2 05bf 9cb0 67bf
00000330: bb1e 8fbf 02af 1bbf 9617 a2be 54a4 18bc
00000340: 1e21 92be c672 3fbf 75b6 93be 3cbe 55bf
00000350: 96e7 16bb 5686 c4be d2fb 28bf 2bbc 27bf
00000360: 5bac 4abe 585c 833e 028b 0f3e 339a f9be
00000370: 4529 e5be 8f0f dbbe 1a42 34be e7e1 86bf
00000380: d6da 38bf a433 4dbe 5e7e 56bf af2a d3be
00000390: 2e07 ebbe ebc5 edbe 9e97 50bf 5984 edbe
000003a0: a164 3abf 40db 7cbf 0e44 24bf 83bd 75bf
000003b0: 77ac 8ebf 4a04 7dbf 87c5 9fbf 015f 20be
000003c0: d591 12bf bd61 22bf ec85 7abe b9d4 a2be
000003d0: 6855 76bf ee8f b6bd fa73 1bbb 695d 0cbf
000003e0: 0012 43bf ac22 b9be 5a07 93bf f006 0b3e
000003f0: 2c32 69bf 1128 15bf 2f69 debe a65f 50bf

shared.3.weight f4 [256, 256]
-0.43893543 -0.036116995 -0.91586375 0.34253803 -0.17623888 0.3418405 0.62563354 0.11215739
-0.41811028 -0.23068821 -0.085242085 -0.20825584 -0.0145533355 0.0928149 -0.21125652 -1.4844886
0.2152562 -0.115636185 0.08851697 0.28141806 -0.010468641 -0.02968366 0.0690076 -0.48196292
-0.48419774 0.024489418 -0.30309516 -0.16188037 0.036540434 -0.30347234 0.2077215 0.026214594
0.18847571 -0.9453277 -0.04906069 0.020818835 -1.5372039 0.1505777 -0.08100725 -0.53519815
-0.4183607 -0.0017824715 0.043229498 0.12302864 -0.13883077 0.4468333 -0.13422142 -0.61864126
0.3415314 -1.255898 -0.11088699 -0.065117046 -0.56807345 0.07816121 -0.03821899 0.06024722
0.5181529 0.11296139 -0.15727049 -0.006444637 0.10964537 0.19928332 0.0030535476 0.097840786
-0.3432101 0.036204185 0.41434935 -0.2743234 0.06912488 0.15604024 0.008601514 -0.086305715
-0.16289113 0.07200203 -0.018397087 -1.0978976 0.07809557 -0.28604883 0.13689978 -0.3255305
-0.015632907 -0.3540139 0.40553045 0.079985164 0.042732924 0.072843805 -1.2264448 0.34610063
0.16621318 -0.24899647 -1.9047284 -0.48377553 -0.682945 -0.58111733 -0.24970424 -0.067418545
0.029730398 0.09437597 -0.2787505 0.13456255 -0.42803788 0.022681272 -1.6823915 -0.015626607
-0.09108141 -0.46047688 -0.07075422 0.13569193 -0.84853065 -0.7546806 0.37204623 0.01589329
-0.2520834 0.8754477 -0.037836835 -0.21807304 0.010500452 -0.027964925 0.22676665 -0.012721765
-0.06142589 0.334358 0.06534598 -0.5507537 -0.09823392 -0.04708217 0.2095339 0.26545203
0.10069726 -2.3998322 0.013727469 0.09723257 0.09055801 0.1509261 -0.18494333 -0.24798274
-0.061654706 0.050428316 -0.14188935 -0.06519422 -0.09349211 -0.36383933 0.61833316 -0.27027857
-0.5890532 -0.61854506 0.041881718 -1.5071642 0.9055985 -0.09990965 -0.75015527 0.31605092
0.08015996 0.04390394 0.011475212 -1.8233337 -0.31021848 -0.034600887 0.09866395 0.11578679
-0.036188528 0.028874233 -0.8762491 -0.8232051 -0.048224434 0.009602795 -0.47299632 0.0618409
0.13229668 0.256801 0.19918114 -0.33695891 0.04042408 -0.1279161 0.027253052 -0.028857052
-0.39795077 -0.32368442 -0.80417365 0.014760434 -0.03316991 -0.020971173 -1.3562651 0.0017153247
-0.5603344 -0.8095014 -0.084862396 0.014923006 -0.12735115 -0.9391186 -1.0909915 -0.13448305
0.12434793 -0.08337545 -0.084968224 -0.14336862 -1.7586086 -0.30945203 -0.58160985 0.12789485
0.012550363 0.20181921 -0.7748761 -0.008339406 0.3885221 -0.80556846 0.52736855 -0.40871188
0.010162661 -0.3478048 -0.0028584858 0.095854096 0.081786096 0.24783193 0.02081159 0.083220124
0.07784262 0.05328222 -0.46063387 0.040230006 -0.55914176 0.32432464 0.11437069 0.21249233
-0.08576205 -0.51789016 -0.32358754 0.1419652 -0.2502562 -0.24781542 0.23960035 0.085280046
-0.104562506 0.1798548 0.24492517 0.16701871 -0.025216207 0.021374704 -0.0406973 0.12559944
-2.2100573 -2.0245104 -0.47333866 -1.6691711 0.34090003 0.21452047 -0.62917584 -0.5647951
-0.5274302 -0.21118319 -1.0967387 -0.6822452 0.19981284 -0.045802794 -0.1469821 -1.2797163
00000000: 25bc e0be 6aef 13bd 0c76 6abf 2561 af3e
00000010: f777 34be b805 af3e 8529 203f c6b2 e53d
00000020: 8d12 d6be 8839 6cbe 6793 aebd 0541 55be
00000030: 1d71 6ebc bd15 be3d a153 58be b903 bebf
00000040: 1f6c 5c3e aad2 ecbd 6348 b53d 0716 903e
00000050: aa84 2bbc 262b f3bc db53 8d3d d8c3 f6be
00000060: c4e8 f7be 089e c83c 4a2f 9bbe f8c3 25be
00000070: 6cab 153d ba60 9bbe f2b4 543e fdbf d63c
00000080: c7ff 403e ff00 72bf ddf3 48bd 438c aa3c
00000090: 19c3 c4bf 0a31 1a3e 21e7 a5bd bf02 09bf
000000a0: 6033 d6be d2a1 e9ba 6a11 313d 71f6 fb3d
000000b0: a729 0ebe 56c7 e43e 5771 09be 465f 1ebf
000000c0: 34dd ae3e 44c1 a0bf b818 e3bd 165c 85bd
000000d0: 436d 11bf fc12 a03d 848b 1cbd cac5 763d
000000e0: aba5 043f 4d58 e73d 840b 21be 892d d3bb
000000f0: c08d e03d ed10 4c3e 071e 483b c060 c83d
00000100: 3cb9 afbe d74a 143d 9925 d43e 1e74 8cbe
00000110: 5891 8d3d 03c9 1f3e 5ded 0c3c 0dc1 b0bd
00000120: efcc 26be cd75 933d 7db5 96bc e987 8cbf
00000130: 92f0 9f3d fe74 92be 752f 0c3e efab a6be
00000140: 9510 80bc 4f41 b5be b0a1 cf3e 43cf a33d
00000150: b808 2f3d 222f 953d 25fc 9cbf 1a34 b13e
00000160: ca33 2a3e eef8 7ebe 24ce f3bf 6db1 f7be
00000170: 7cd5 2ebf 1bc4 14bf 78b2 7fbe bc12 8abd
00000180: 2a8d f33c 3048 c13d 63b8 8ebe c4ca 093e
00000190: c827 dbbe 13ce b93c 9b58 d7bf 5f03 80bc
000001a0: e488 babd a0c3 ebbe 97e7 90bd d3f2 0a3e
000001b0: 4e39 59bf bf32 41bf d87c be3e a532 823c
000001c0: 1311 81be 571d 603f ccfa 1abd 8a4e 5fbe
000001d0: 160a 2c3c b316 e5bc 8435 683e f36e 50bc
000001e0: b799 7bbd f930 ab3e 1dd4 853d 32fe 0cbf
000001f0: de2e c9bd 3cd9 40bd 0e90 563e 54e9 873e
00000200: 5d3a ce3d da96 19c0 2ee9 603c df21 c73d
00000210: 7a76 b93d 5f8c 1a3e c961 3dbe 30ef 7dbe
00000220: a589 7cbd ec8d 4e3d 714b 11be 8c84 85bd
00000230: cb78 bfbd 2649 babe 154b 1e3f f461 8abe
00000240: 31cc 16bf f858 1ebf 2a8c 2b3d c2ea c0bf
00000250: 4ed5 673f 6e9d ccbd 2d0a 40bf 6dd1 a13e
00000260: e82a a43d 9ed4 333d 8702 3c3c 0063 e9bf
00000270: f5d4 9ebe a9b9 0dbd 5310 ca3d a021 ed3d
00000280: 6c3a 14bd a889 ec3c dc51 60bf 92bd 52bf
00000290: fc86 45bd 0b55 1d3c 932c f2be e24c 7d3d
000002a0: c878 073e 6c7b 833e 24f6 4b3e e185 acbe
000002b0: b893 253d 70fc 02be cb41 df3c a065 ecbc
000002c0: 34c0 cbbe f7b9 a5be 53de 4dbf bfd5 713c
000002d0: 2cdd 07bd bdcb abbc 189a adbf bfd4 e03a
000002e0: 1372 0fbf 7c3b 4fbf 56cc adbd a07f 743c
000002f0: 5768 02be 146a 70bf 9ca5 8bbf edb5 09be
00000300: 21aa fe3d bfc0 aabd d203 aebd 39cf 12be
00000310: 161a e1bf 7f70 9ebe 62e4 14bf def6 023e
00000320: 0aa0 4d3c b2a9 4e3e 485e 46bf 01a2 08bc
00000330: 5eec c63e bc39 4ebf a001 073f af42 d1be
00000340: 4a81 263c 7913 b2be 6f55 3bbb 274f c43d
00000350: 787f a73d a7c7 7d3e 117d aa3c 506f aa3d
00000360: f46b 9f3d 753e 5a3d 34d8 ebbe 38c8 243d
00000370: ea23 0fbf e10d a63e 2e3b ea3d 9797 593e
00000380: 03a4 afbd 7394 04bf 44ad a5be 535f 113e
00000390: 9521 80be 53c3 7dbe cb59 753e 4ea7 ae3d
000003a0: de24 d6bd db2b 383e aacd 7a3e f406 2b3e
000003b0: 3892 cebc 011a af3c 36b2 26bd 249d 003e
000003c0: 9471 0dc0 9491 01c0 7259 f2be 66a7 d5bf
000003d0: 738a ae3e 41ab 5b3e ab11 21bf 6996 10bf
000003e0: aa05 07bf 6840 58be ef61 8cbf 9fa7 2ebf
000003f0: bd9b 4c3e b69b 3bbd 7a82 16be becd a3bf

shared.3.bias f4 [256]
0.021242136 -1.2019807 -0.27613163 0.0011638927 0.004239487 0.118824326 0.062574044 0.37017456
0.36321595 -0.17642356 -0.256558 -1.4018277 -1.0251865 -0.5481759 0.28371882 0.46868008
0.011233317 0.21390992 -1.4057549 0.028493105 0.126913 -0.73791844 -0.03562613 -0.932937
-0.12261818 0.2894609 -0.53762674 -0.6107262 0.45176515 -0.234951 -0.8649035 0.44117293
0.2076175 -0.22122099 -1.0937746 -0.3718558 -0.14759265 0.5362251 -0.08560365 0.005237421
-0.36625838 0.40685573 0.016067427 -1.1082554 -0.1159725 -1.0141064 0.44436866 -0.07336268
-0.61972785 -0.05408077 -0.29023063 -0.12611872 -0.77608913 0.111222796 0.33063132 -0.74892145
-0.1409061 0.16028938 0.5843689 0.006131078 -0.45258325 -0.4382408 -0.09577349 -0.20040986
0.31124014 0.5548253 0.23595452 0.08454383 0.058434516 0.34467041 0.26688004 0.1398937
0.4387281 -0.1763401 0.066710524 0.28746456 -2.3263466 -0.6767216 -0.4922276 -0.578756
-0.103614144 -0.085447304 0.73599875 0.56776494 0.13749462 0.18997744 0.59739715 0.23528577
-0.49040192 0.18091959 0.13919815 -0.14631797 0.22315231 -0.038657367 -0.3215648 0.24658719
0.2671079 0.40702215 -0.2169369 -0.45302176 0.39513028 -0.4879354 -1.0850565 0.45570612
-0.91917765 0.08251622 -0.20614354 0.45585534 -0.5032751 0.05940963 -0.67259747 0.27460447
-0.67870325 -0.742222 -0.42216587 -0.78275126 0.35456017 0.014693859 0.4551 0.15029982
-0.1623683 0.025090158 0.26945308 0.24829194 0.44674075 0.32483065 -0.56082225 -0.2209655
0.00653014 -0.47311372 -0.15967028 -0.0951564 0.48781362 0.12615119 0.48246834 0.28231958
-0.2975155 0.092543185 -0.6383119 0.16814722 0.25572884 0.64946043 0.41982007 0.16229568
0.20907864 0.20120436 -0.7416726 -0.02739813 -1.6390713 0.09637254 -0.15713543 0.14821224
-0.48993033 0.26376823 -0.952151 -1.8300211 0.4837004 0.55006045 -0.006061826 -0.10086887
0.090065844 0.4008409 0.15585585 -0.19782104 -0.00723917 -0.7143737 -0.12650037 0.34380183
0.10245081 0.3730703 0.08025855 -0.22146945 -0.6334972 0.12271978 -0.054911874 0.15592934
-0.19516167 -0.8421601 -0.2590499 0.25232103 -0.3521503 -0.07320508 -0.021352334 0.14978004
-0.31984475 0.2610835 -0.3705022 0.13081811 0.1376867 0.0016287531 -0.40855274 0.030558469
-0.36693743 0.36991173 0.13879803 0.5968214 0.056340132 -0.0778261 0.38769576 0.63586426
0.12815817 0.27044293 0.08945117 -0.023404388 0.123326324 -0.046446398 -0.40676475 0.5561058
0.099437 0.052737467 0.108670786 0.25390524 0.16550118 -1.7348827 -0.14403112 -0.0766043
-0.025731517 -0.88240576 -0.2878092 0.4797922 -0.085151814 0.24658401 0.48092046 0.13507187
0.49186182 0.057205856 0.49092776 -0.5271753 0.09576557 -0.024457712 0.39799562 0.19953635
-0.8163936 -0.95635074 0.34570864 -0.10622519 0.1393369 0.15826246 0.11142471 0.12843233
0.26987624 0.01273156 -0.51123625 -1.0992818 0.2895911 0.26287434 -0.31457853 0.11390551
0.26384854 -0.09038307 -0.27454138 -0.6512519 0.19480431 0.2636986 -0.2749614 -0.03078015
00000000: fd03 ae3c 81da 99bf 2061 8dbe c28d 983a
00000010: 65eb 8a3b 2b5a f33d d226 803d 8587 bd3e
00000020: 71f7 b93e 61a8 34be 925b 83be 176f b3bf
00000030: 5039 83bf 4155 0cbf 9843 913e d6f6 ef3e
00000040: f20b 383c 340b 5b3e c7ef b3bf 5f6a e93c
00000050: 7bf5 013e 39e8 3cbf b4ec 11bd f6d4 6ebf
00000060: 3e1f fbbd 3834 943e e8a1 09bf 8d58 1cbf
00000070: c34d e73e ff96 70be 516a 5dbf 6be1 e13e
00000080: af99 543e c187 62be ce00 8cbf e263 bebe
00000090: 8722 17be 0c46 093f f750 afbd ac9e ab3b
000000a0: 3886 bbbe 654f d03e d69f 833c 50db 8dbf
000000b0: fd82 edbd 3dce 81bf 4a84 e33e 2c3f 96bd
000000c0: 7ca6 1ebf cc83 5dbd 1c99 94be 4425 01be
000000d0: c7ad 46bf c7c8 e33d 8248 a93e 51b9 3fbf
000000e0: b049 10be e622 243e 3399 153f 36e7 c83b
000000f0: feb8 e7be 1961 e0be e424 c4bd 3e38 4dbe
00000100: de5a 9f3e 0809 0e3f 109e 713e 5125 ad3d
00000110: 0859 6f3d a478 b03e 80a4 883e 4b40 0f3e
00000120: f8a0 e03e 8092 34be 879f 883d 8e2e 933e
00000130: dde2 14c0 a03d 2dbf 4205 fcbe 5a29 14bf
00000140: a733 d4bd fffe aebd 6a6a 3c3f 0b59 113f
00000150: 64cb 0c3e 7289 423e 05ef 183f c1ee 703e
00000160: f615 fbbe fc42 393e f689 0e3e 61d4 15be
00000170: 0a82 643e 3057 1ebd 24a4 a4be 5a81 7c3e
00000180: 5ec2 883e 3565 d03e b524 5ebe 78f2 e7be
00000190: 844e ca3e abd2 f9be 22e3 8abf 5052 e93e
000001a0: 3a4f 6bbf 44fe a83d 4b17 53be df65 e93e
000001b0: a3d6 00bf 8357 733d 592f 2cbf f598 8c3e
000001c0: 7fbf 2dbf 4302 3ebf 2026 d8be 6362 48bf
000001d0: e988 b53e 83be 703c de02 e93e 32e8 193e
000001e0: e043 26be e089 cd3c c1f5 893e 3e40 7e3e
000001f0: 34bb e43e 3450 a63e 0c92 0fbf c844 62be
00000200: c9fa d53b f63b f2be 9b80 23be 5ce1 c2bd
00000210: b5c2 f93e c72d 013e 1706 f73e 318c 903e
00000220: f453 98be 4887 bd3d 6968 23bf c92e 2c3e
00000230: e4ee 823e 0a43 263f a8f2 d63e d730 263e
00000240: b618 563e 8408 4e3e 41de 3dbf 0b72 e0bc
00000250: 17cd d1bf f75e c53d 1ce8 20be f3c4 173e
00000260: 26d8 fabe a10c 873e 2bc0 73bf 223e eabf
00000270: 94a7 f73e c3d0 0c3f 48a2 c6bb 5794 cebd
00000280: 7174 b83d 053b cd3e ad98 1f3e 9991 4abe
00000290: 8f36 edbb 32e1 36bf 5089 01be cb06 b03e
000002a0: bbd1 d13d 1203 bf3e 985e a43d e3c8 62be
000002b0: df2c 22bf 8254 fb3d 46eb 60bd f1ab 1f3e
000002c0: 76d8 47be ce97 57bf 30a2 84be 3930 813e
000002d0: 0b4d b4be 8cec 95bd 17eb aebc f05f 193e
000002e0: b1c2 a3be bdac 853e 77b2 bdbe 2ff5 053e
000002f0: befd 0c3e e37b d53a d32d d1be c155 fa3c
00000300: 39df bbbe 1265 bd3e 1221 0e3e 4ac9 183f
00000310: e9c4 663d 4a63 9fbd 0f80 c63e 00c8 223f
00000320: e53b 033e 7f77 8a3e 2d32 b73d 8fba bfbc
00000330: 8392 fc3d 943e 3ebd 7843 d0be f35c 0e3f
00000340: a0a5 cb3d 3e03 583d ca8e de3d deff 813e
00000350: 2479 293e a310 debf e57c 13be b7e2 9cbd
00000360: e7ca d2bc 58e5 61bf ba5b 93be 53a7 f53e
00000370: 1364 aebd 8580 7c3e 353b f63e 4850 0a3e
00000380: 50d5 fb3e b050 6a3d e25a fb3e f6f4 06bf
00000390: bd20 c43d 8a5b c8bc 15c6 cb3e 4253 4c3e
000003a0: 2cff 50bf 67d3 74bf b900 b13e 988c d9bd
000003b0: 55ae 0e3e 8e0f 223e a332 e43d c483 033e
000003c0: 382d 8a3e 0898 503c 61e0 02bf 44b5 8cbf
000003d0: 4945 943e 7797 863e 7010 a1be 4b47 e93d
000003e0: 2817 873e c21a b9bd b090 8cbe 72b8 26bf
000003f0: c87a 473e 8103 873e bec7 8cbe a726 fcbc

mean.weight f4 [6, 256]
-0.048243683 -0.3931452 0.11122154 -0.033813216 -0.026031619 -0.20293857 0.30211294 0.39970124
0.0048337867 0.26497456 0.005478397 0.2632197 0.3037113 -0.1358475 -0.2795906 0.22405824
0.005013725 -0.36158577 -0.01986184 -0.017078914 -0.06775741 0.022528566 -0.07202529 -0.18577965
-0.009203316 -0.13672441 -0.06300465 -0.030471057 -0.03732524 0.320835 -0.80871224 0.29884472
-0.29478833 0.0022422834 0.2400599 -0.01399768 0.061022982 -0.3327756 0.40262598 0.33280617
0.015818482 -0.2567626 0.031168636 0.046211038 0.021675574 -0.40890953 0.038644753 0.018832233
-0.5772611 0.0022488853 0.10842948 -0.010693398 -0.06104039 -0.16257523 0.113978826 -0.08943255
0.63513714 0.0464343 0.037295997 0.34743714 -0.38539764 0.06911604 -0.084257714 0.06886948
-0.06114848 -0.010906002 1.1044575 0.10366024 -0.017587623 0.47520468 0.06501946 -0.020107144
0.08337127 0.02578029 -0.054842368 0.040483437 -0.49100757 0.012846503 -0.37679532 -0.05816096
-0.0367283 0.012409765 0.36530513 -0.22531812 0.13296305 -0.12741427 -0.062452853 -0.042637624
0.4495355 0.19873072 -0.061707594 0.33477214 0.0017930412 -0.50053287 -0.07186191 0.002105146
0.07416457 0.19719669 1.0898142 0.061293557 0.2918377 0.026320696 0.11281983 -0.27882203
0.0018948981 2.241713 -0.031007636 -0.39903238 0.43257993 -1.6281052 -0.21823765 -0.11381579
0.124556795 -0.22175522 0.4786077 0.1874296 0.06911375 0.15245527 0.1659412 0.01314306
0.56997055 -0.1480514 -0.25037307 0.061476287 -0.05763254 0.25709984 0.044348665 -0.11697546
0.45433232 0.45872408 0.19505505 0.08386754 0.20454605 -0.2745207 -0.42178348 0.22008668
0.17127314 -0.14130674 0.07904582 0.282897 -0.14958191 0.07366471 -0.036528416 -0.06558615
-0.21789528 -0.21246104 -0.20733483 -0.03516508 0.114229076 -0.1001487 0.21269237 0.023753125
0.13008228 0.04395886 0.115324385 -0.4176914 -0.1664654 -0.3920397 0.44205922 0.04027306
0.3459325 -0.017315343 0.22129603 -0.12616765 -0.14917271 0.029376017 0.12687093 -0.024939133
-0.07700751 0.07729764 0.031599768 0.1413596 -1.3106683 -0.017096419 0.14283273 -0.05255598
0.023711612 -0.5572148 0.020631578 -0.060907245 0.21553764 0.040413518 0.12103935 -0.0068268175
0.23860395 0.00474933 -0.104084946 -0.3871212 -0.04027141 0.026001683 0.09658397 0.030747049
-0.2680432 0.22492166 0.075574145 0.15451369 0.05153256 -0.36542755 0.16517588 -0.058420993
-0.052248396 0.09382078 0.76366 0.10562845 -0.10547702 -0.26915327 0.024033815 0.05870663
0.32418627 -0.21035148 -0.009199326 0.3992 0.98196423 -0.39832407 0.3308768 -0.064414464
0.3267135 -0.841679 0.18350989 -0.44320333 0.021881785 0.4253954 0.16455965 0.53546625
0.073831685 -0.19620503 0.18918183 -0.30032322 0.04619052 -0.3401038 0.080175675 -0.008599265
-0.8068631 0.4052144 -0.34154406 -0.045360975 0.04184977 0.03508593 0.16616394 -0.069992945
0.20464699 0.09829395 0.023884816 0.3993233 1.1200271 -0.048161123 -0.101826474 -0.0051472005
-0.3781084 -0.033923812 -0.10113483 0.008644888 -0.096938565 0.5697653 -0.17488343 0.050591674
00000000: 2b9b 45bd 544a c9be 1ec8 e33d ba7f 0abd
00000010: 4340 d5bc 21cf 4fbe 8cae 9a3e a4a5 cc3e
00000020: be64 9e3b bfaa 873e 2084 b33b bcc4 863e
00000030: 0c80 9b3e 9b1b 0bbe 8026 8fbe 866f 653e
00000040: 2c4a a43b c521 b9be 4cb5 a2bc 14e9 8bbc
00000050: 66c4 8abd d48d b83c ff81 93bd 053d 3ebe
00000060: 81c9 16bc 7c01 0cbe 9508 81bd 709e f9bc
00000070: 5ae2 18bd 7c44 a43e c407 4fbf 2d02 993e
00000080: 7fee 96be 46f3 123b 43d2 753e 8656 65bc
00000090: 3cf3 793d 9061 aabe fe24 ce3e 9265 aa3e
000000a0: c395 813c 6376 83be 5e55 ff3c c947 3d3d
000000b0: f990 b13c 975c d1be f649 1e3d 0e46 9a3c
000000c0: 62c7 13bf 0962 133b 4610 de3d 5d33 2fbc
000000d0: 7d05 7abd 1f7a 26be bb6d e93d 6a28 b7bd
000000e0: 5998 223f e431 3e3d b0c3 183d 48e3 b13e
000000f0: d752 c5be b68c 8d3d 4f8f acbd 710b 8d3d
00000100: d476 7abd 16af 32bc dd5e 8d3f d24b d43d
00000110: eb13 90bc 074e f33e ec28 853d bdb7 a4bc
00000120: 8ebe aa3d 3031 d33c 64a2 60bd f6d1 253d
00000130: 5865 fbbe 247a 523c 51eb c0be 303a 6ebd
00000140: 6a70 16bd 5452 4b3c 4609 bb3e cbb9 66be
00000150: 7727 083e e378 02be 90ce 7fbd caa4 2ebd
00000160: 8429 e63e 1180 4b3e 1ac1 7cbd 4167 ab3e
00000170: 7b04 eb3a ec22 00bf 562c 93bd 7df6 093b
00000180: 98e3 973d eeed 493e 087f 8b3f f40e 7b3d
00000190: c06b 953e 809e d73c 150e e73d c3c1 8ebe
000001a0: 3b5e f83a 3a78 0f40 ba03 febc f94d ccbe
000001b0: 1e7b dd3e c065 d0bf b179 5fbe 4118 e9bd
000001c0: a217 ff3d cd13 63be 120c f53e 8ced 3f3e
000001d0: 828b 8d3d 3c1d 1c3e 7dec 293e fd55 573c
000001e0: 97e9 113f c99a 17be e630 80be 8fce 7b3d
000001f0: 1910 6cbd 97a2 833e f2a6 353d d490 efbd
00000200: 3f9e e83e e2dd ea3e 83bc 473e bfc2 ab3d
00000210: 8574 513e fa8d 8cbe 01f4 d7be 675e 613e
00000220: 3a62 2f3e b7b2 10be c6e2 a13d e0d7 903e
00000230: 002c 19be 86dd 963d d29e 15bd 0852 86bd
00000240: f11f 5fbe 638f 59be 954f 54be 4209 10bd
00000250: eff0 e93d c31a cdbd 07cc 593e ea95 c23c
00000260: 4a34 053e 350e 343d 312f ec3d a6db d5be
00000270: e875 2abe 6db9 c8be 9655 e23e 5df5 243d
00000280: 111e b13e e8d8 8dbc 6d9b 623e 1832 01be
00000290: bbc0 18be f9a5 f03c 74ea 013e 274d ccbc
000002a0: 1db6 9dbd 3a4e 9e3d c26e 013d 92c0 103e
000002b0: fbc3 a7bf ca0d 8cbc be42 123e f044 57bd
000002c0: db3e c23c a1a5 0ebf 8e03 a93c e079 79bd
000002d0: e6b5 5c3e a588 253d 7be3 f73d 7fb3 dfbb
000002e0: 9854 743e 45a0 9b3b 7d2a d5bd c034 c6be
000002f0: a2f3 24bd 7b01 d53c d1cd c53d 3ce1 fb3c
00000300: f53c 89be dd51 663e 9ec6 9a3d d638 1e3e
00000310: ce13 533d 5219 bbbe de23 293e da4a 6fbd
00000320: 6a02 56bd 1c25 c03d 397f 433f bb53 d83d
00000330: 5604 d8bd 75ce 89be 90e2 c43c 5d76 703d
00000340: befb a53e 6166 57be c5b8 16bc f163 cc3e
00000350: 0262 7b3f 22f1 cbbe af68 a93e bbeb 83bd
00000360: fe46 a73e 4678 57bf 04ea 3b3e 8ceb e2be
00000370: 6e41 b33c 6dcd d93e 5382 283e 5114 093f
00000380: 1135 973d f9e9 48be e2b8 413e f7c3 99be
00000390: 4532 3d3d 1622 aebe 2533 a43d eee3 0cbc
000003a0: 958e 4ebf 4378 cf3e ddde aebe 6ecc 39bd
000003b0: aa6a 2b3d 44b6 0f3d e126 2a3e 7658 8fbd
000003c0: fb8e 513e 574e c93d 17aa c33c 1b74 cc3e
000003d0: 0c5d 8f3f 9944 45bd 668a d0bd d9a9 a8bb
000003e0: 6d97 c1be b2f3 0abd c71f cfbd 4aa3 0d3c
000003f0: ba87 c6bd 24dc 113f a414 33be 3739 4f3d

mean.bias f4 [6]
-0.15422349 0.25768542 0.3171697 0.14748637 -0.02192536 -0.07393571
00000000: c3ec 1dbe 58ef 833e 1164 a23e ab06 173e
00000010: d09c b3bc 9b6b 97bd

log_std.weight f4 [6, 256]
-0.10095922 0.34026527 0.047947157 0.002247209 -0.05868031 0.08726141 0.13714218 0.25845334
-0.05238346 0.029878484 -0.018574553 0.19280764 0.09709238 0.021611825 0.092595756 0.10333912
0.023640431 -0.06936668 -0.07426762 0.059563007 0.009571599 0.007803384 0.009412469 -0.019113345
0.041381836 -0.015553993 0.014089436 0.11307435 -0.024435906 0.0053743585 0.2177064 0.1529335
-0.1105926 -0.04146352 0.05977376 -0.035131764 0.005621953 -0.04771872 0.18754835 0.021033105
-0.03290986 0.12899166 0.02291078 -0.099108376 -0.020615378 -0.03835602 0.023895467 -0.020768339
-0.34601557 0.030968944 -0.0038391724 0.010557493 -0.03955354 0.06306999 -0.06883889 -0.026347844
0.34464192 0.23425773 -0.019621909 -0.0068078255 -0.024288977 -0.053742692 0.06450628 0.030867271
0.023535147 -0.05726375 0.54540086 0.051072955 -0.0059828986 0.30912337 -0.106556565 0.018217804
-0.014075684 -0.019162714 0.008014039 0.024624543 -0.017336639 -0.030984562 -0.20576361 -0.05467765
0.011971304 0.073618904 0.22758797 0.10024937 -0.04113788 -0.0010706418 -0.028386801 -0.023690734
0.24883601 0.07898359 -0.02055379 0.15677206 0.03500712 0.29342103 -0.0024967163 -0.07464648
0.043730248 0.025175955 0.41242087 -0.044092625 0.12147105 -0.023170898 -0.043070327 -0.06965891
0.0774045 0.045503218 -0.08913544 -0.027304996 0.51896983 0.5781131 -0.1317631 -0.055785377
0.065662146 0.13601318 0.25454524 -0.06463609 0.04111108 0.06990466 0.016355986 -0.04243653
0.3207093 -0.05370527 0.060854316 -0.007489026 -0.019331679 0.1011181 -0.0032900877 0.082895815
0.2726141 -0.027995681 -0.12385038 -0.06319881 0.017076928 0.17161074 0.18177994 -0.002476733
-0.1916465 -0.03400858 0.008656095 -0.02199098 0.040033847 0.017708857 0.097646005 0.009909404
-0.060578726 0.17895551 0.025143744 -0.009471636 -0.017594777 -0.021907397 0.009187021 -0.02431602
-0.021525381 0.036441173 0.04914533 0.1266382 0.0079563325 0.19576232 0.27360916 -0.011320789
0.16639882 0.012525268 0.10955173 -0.034272272 0.010687 -0.06329937 0.07300661 -0.03586769
-0.009622169 -0.037347775 -0.06510213 0.14287512 -0.079353414 -0.0457039 0.11722996 -0.1399613
-0.008299815 0.081459366 0.04209487 0.042852428 0.039895155 0.030423816 0.01373083 -0.06203468
0.0376471 -0.027581464 0.014997064 0.062553525 0.026464973 0.045770716 -0.1102246 0.008455507
0.16768454 0.064892374 0.04807738 0.014530968 0.026660522 0.012143646 0.12998064 -0.026879348
-0.048061877 0.01557096 0.41244337 -0.035526626 -0.10887527 0.17941055 -0.017046591 0.014746754
0.12657547 -0.2734691 -0.03706544 0.23272479 0.16775344 0.19749908 0.16954887 0.022016577
0.21872051 0.04214934 0.16377832 0.11630637 -0.024026278 0.31489718 -0.03324299 0.042317558
0.031619795 0.13498735 0.045899954 0.14680022 -0.008457651 0.05495035 0.020024095 0.007846271
-0.25411677 0.015367777 0.25366843 -0.013665772 -0.0019272447 0.02149833 0.09801621 -0.028587287
0.1176696 -0.022327565 -0.03014478 0.20073561 0.8064625 0.026997188 0.018496688 -0.09409597
0.107421026 -0.003300075 0.02904255 -0.05782347 0.020458413 0.3088118 -0.024900213 -0.052127186
00000000: b5c3 cebd 4037 ae3e 3d64 443d e945 133b
00000010: c45a 70bd 1cb6 b23d 006f 0c3e ff53 843e
00000020: 0a90 56bd b9c3 f43c a929 98bc 5e6f 453e
00000030: 5fd8 c63d 480b b13c d8a2 bd3d 76a3 d33d
00000040: 94a9 c13c 1e10 8ebd 9f19 98bd 57f8 733d
00000050: 32d2 1c3c 88b3 ff3b c236 1a3c 9793 9cbc
00000060: 0080 293d 2dd6 7ebc 61d7 663c 8693 e73d
00000070: cf2d c8bc 631b b03b 6dee 5e3e 999a 1c3e
00000080: 607e e2bd a7d5 29bd 55d5 743d 53e6 0fbd
00000090: 5c38 b83b b474 43bd ad0c 403e 9e4d ac3c
000000a0: 7dcc 06bd 6416 043e 63af bb3c 55f9 cabd
000000b0: 95e1 a8bc 341b 1dbd 6dc0 c33c 5d22 aabc
000000c0: f428 b1be 95b2 fd3c a09a 7bbb 56f9 2c3c
000000d0: e502 22bd d72a 813d 67fb 8cbd 6fd7 d7bc
000000e0: e874 b03e 42e1 6f3e 20be a0bc 2e14 dfbb
000000f0: adf9 c6bc 4c21 5cbd de1b 843d 5cdd fc3c
00000100: c8cc c03c 658d 6abd 649f 0b3f e031 513d
00000110: 310c c4bb 6b45 9e3e 543a dabd 813d 953c
00000120: b39d 66bc 20fb 9cbc 514d 033c 69b9 c93c
00000130: 9105 8ebc 56d3 fdbc b2b3 52be acf5 5fbd
00000140: 4a23 443c 82c5 963d d20c 693e 8b4f cd3d
00000150: 3280 28bd c754 8cba 708b e8bc 1213 c2bc
00000160: dece 7e3e 26c2 a13d 6c60 a8bc db88 203e
00000170: a063 0f3d 483b 963e f39f 23bb 41e0 98bd
00000180: 7d1e 333d ce3d ce3c d428 d33e 789a 34bd
00000190: d0c5 f83d e5d0 bdbc 836a 30bd 55a9 8ebd
000001a0: 4086 9e3d 9561 3a3d a48c b6bd baae dfbc
000001b0: 35db 043f 38ff 133f e8ec 06be 357f 64bd
000001c0: e079 863d 0a47 0b3e c153 823e ed5f 84bd
000001d0: 1864 283d 2d2a 8f3d fdfc 853c edd1 2dbd
000001e0: 0234 a43e 0ffa 5bbd 6042 793d 8166 f5bb
000001f0: 785d 9ebc 0217 cf3d 839e 57bb 48c5 a93d
00000200: 1394 8b3e 3357 e5bc 45a5 fdbd 616e 81bd
00000210: eae4 8b3c baba 2f3e 8524 3a3e af50 22bb
00000220: fb3e 44be 954c 0bbd 4bd2 0d3c 6d26 b4bc
00000230: 88fa 233d 2a12 913c a1fa c73d 0e5b 223c
00000240: 6621 78bd 1d40 373e 41fa cd3c ec2e 1bbc
00000250: ec22 90bc 2477 b3bc 2985 163c 6432 c7bc
00000260: ff55 b0bc 5743 153d 9d4c 493d 72ad 013e
00000270: 475b 023c eb75 483e 8016 8c3e d57a 39bc
00000280: 7464 2a3e c836 4d3c a85c e03d 1561 0cbd
00000290: 8718 2f3c 1aa3 81bd 7d84 953d 00ea 12bd
000002a0: 4da6 1dbc fbf9 18bd 4454 85bd db4d 123e
000002b0: 0b84 a2bd 0334 3bbd 4316 f03d 0452 0fbe
000002c0: f2fb 07bc 2bd4 a63d ac6b 2c3d 0786 2f3d
000002d0: 1a69 233d 5e3b f93c 46f7 603c 1418 7ebd
000002e0: d833 1a3d 86f2 e1bc 3fb6 753c 101c 803d
000002f0: 12cd d83c 137a 3b3d 6fbd e1bd f888 0a3c
00000300: 7fb5 2b3e 4be6 843d c9ec 443d 4c13 6e3c
00000310: 2b67 da3c 25f6 463c a519 053e 1432 dcbc
00000320: 88dc 44bd 571d 7f3c c72b d33e 5e84 11bd
00000330: fff9 debd 66b7 373e 4ba5 8bbc 5f9c 713c
00000340: 009d 013e 2404 8cbe eed1 17bd 684f 6e3e
00000350: 8fc7 2b3e 333d 4a3e 389e 2d3e 1c5c b43c
00000360: 45f8 5f3e c9a4 2c3d 81b5 273e 0932 ee3d
00000370: c2d2 c4bc 343a a13e cd29 08bd 2d55 2d3d
00000380: c283 013d 203a 0a3e 9701 3c3d cc52 163e
00000390: f691 0abc 9e13 613d 9209 a43c a58d 003c
000003a0: 981b 82be 21c9 7b3c d4e0 813e 67e6 5fbc
000003b0: 9a9b fcba 441d b03c b9bc c83d e32f eabc
000003c0: c2fc f03d 4ce8 b6bc 30f2 f6bc a38d 4d3e
000003d0: 5474 4e3f 3529 dd3c 5e86 973c 63b5 c0bd
000003e0: 8eff db3d 1246 58bb a4ea ed3c 4ed8 6cbd
000003f0: 6798 a73c 951c 9e3e 88fb cbbc 5183 55bd

log_std.bias f4 [6]
-1.9203378 -1.6201833 -1.7970946 -2.0095365 -1.7261521 -1.8076742
00000000: a1cd f5bf 2b62 cfbf 3207 e6bf 3f9c 00c0
00000010: 8df2 dcbf de61 e7bf
