trained_models/Walker2dNormal-v3/sero/actor_1.pt (torch, 296896 bytes, 8 tensors)

shared.0.weight f4 [256, 17]
000000 1d f2 80 bf e7 c7 7f 3f a7 11 ef bf a7 33 c1 be
       -1.0073887 0.999144 -1.8677262 -0.3773472
000010 39 e0 11 be db 13 13 40 fc fa c3 3f da e0 a2 3e
       -0.1424569 2.298087 1.5310969 0.31812173
000020 5e ef da bd 0a a7 04 be 79 e4 15 3e 6e 0b ab bd
       -0.10690187 -0.12954345 0.14637937 -0.083517894
000030 76 2b e2 bc a3 60 b4 bc 14 a4 4d bd a5 61 29 bd
       -0.027608614 -0.022018736 -0.050205305 -0.041352887
000040 b4 64 aa 3b fd f5 c2 be 19 7c 1b c0 26 c3 49 bf
       0.005199993 -0.380783 -2.4294493 -0.788134
000050 46 60 44 bf e1 a6 13 be 14 28 14 3f 67 fd 52 bf
       -0.767094 -0.14419128 0.57873654 -0.8241791
000060 ea af ae bf e9 af d9 be 4d 5e d3 3e da b7 f9 3d
       -1.3647435 -0.4251702 0.41282883 0.1219327
000070 b3 5b ab be 76 13 0e be ec d3 64 bb 36 1e 2e 3e
       -0.33468398 -0.13874611 -0.0034916354 0.17003712
000080 ac 95 ea 3c 75 18 2b bb 4d ab 76 bf d0 9f 23 c0
       0.028635822 -0.0026107107 -0.96355134 -2.5566292
000090 71 17 4f bc e5 ff df be 62 18 b8 3e b2 fa 29 3f
       -0.012639866 -0.4374992 0.35956103 0.66398156
0000a0 11 ac 11 3f e7 be b9 bd 5a d3 03 3e 9f a7 d1 be
       0.5690318 -0.09069615 0.12873593 -0.40948197
0000b0 8f 05 90 3e 4a d5 a1 be f9 df 7e be 8d be 0a be
       0.2812924 -0.3160804 -0.24890126 -0.13549252
0000c0 00 d5 00 3e c9 a5 2c bd 29 21 0f bd 0d 29 d8 3d
       0.12581253 -0.042150293 -0.034943733 0.10554705
0000d0 98 a9 de 3e ea 28 de 3f 02 17 2d 3f 5f 61 86 bf
       0.43488765 1.7356236 0.6761323 -1.0498465
0000e0 9f de 14 c0 52 0e ae be 82 80 93 3d f8 57 9a be
       -2.3260877 -0.339953 0.07202245 -0.3014524
0000f0 fd 84 19 be 2e 02 6a 3b 87 8b 90 3c 3f 32 19 bc
       -0.14992137 0.0035706866 0.017644657 -0.0093503585
000100 e6 ad cf 3c 56 e2 c1 3c 37 76 4d 3d 01 c1 33 bc
       0.025351476 0.023667496 0.050161567 -0.010971309
000110 f7 2a 62 bf 62 98 4c 40 08 da 78 3f a1 d9 30 3f
       -0.8834681 3.1968007 0.9720769 0.69082075
000120 d8 e7 2d bf 25 20 eb 3d 79 fa 96 3c 45 00 8e 3e
       -0.6793189 0.114807405 0.018429982 0.2773458
000130 40 2b 89 3e f5 b2 20 3c 14 b4 c8 3e 62 e2 90 be
       0.2679081 0.009808292 0.3919989 -0.28297716
000140 cc ef 5f be e7 35 ed bc 8b 5f 25 bd a9 1a 39 bd
       -0.21868819 -0.028956367 -0.04037432 -0.04519144
000150 e2 0b f7 bc 57 d9 e9 3e cf 19 4f c0 4e 2e 56 40
       -0.030157033 0.4567363 -3.2359502 3.3465762
000160 63 b9 e8 3f 06 49 25 bf 16 76 dd 3e 1b 0c 5b 3f
       1.8181576 -0.6456455 0.43254155 0.85565346
000170 11 5c fd 3d ba d3 c5 3a 76 c3 83 3d 32 c5 7e 3e
       0.12371076 0.0015093007 0.064337656 0.24879912
000180 19 2a d6 bd d2 d5 80 bd d1 74 38 3c 4d 60 80 bd
       -0.10457248 -0.06290783 0.01125832 -0.06268368
000190 c0 d9 29 bd 1b 86 e2 3b b1 5a f4 be f9 65 34 40
       -0.04146743 0.0069129593 -0.47725442 2.818724
0001a0 48 db 74 bf e3 1a 46 bf 4e 25 81 be 8a 38 8b bf
       -0.95647097 -0.77384776 -0.25223774 -1.0876629
0001b0 70 f8 37 be 0b 6d 8d bd 11 3e ad bd 4b a7 25 be
       -0.17965865 -0.06905564 -0.08459104 -0.16177098
0001c0 10 c8 cf be fb 15 8b 3c dd 23 50 3d e0 77 af 3c
       -0.40582323 0.016978255 0.050815452 0.021419466
0001d0 1e 96 a5 3e 14 96 4a 3d 99 96 35 bc 8e b8 8b bd
       0.32341093 0.049459532 -0.011083269 -0.068223104
0001e0 5b c6 29 bf 81 d5 59 3e f6 0f 7d bf 2f 39 30 be
       -0.6631829 0.21272852 -0.9885248 -0.17209314
0001f0 81 5f 8e 3f ba 1e 8c 3f 3c 35 1d bf 4e 23 a4 3d
       1.1122895 1.0946877 -0.61409354 0.08014546
000200 37 a3 b1 bd 85 5d 37 be b4 d3 4e 3e c1 5d 81 3e
       -0.08673709 -0.17906769 0.20197946 0.2526684
000210 34 d0 3b 3d 9f 48 c7 bd e4 e3 b9 bd b7 e5 09 bd
       0.045852855 -0.09730648 -0.0907667 -0.03366634
000220 d6 01 15 bf a0 45 b8 40 41 5a 11 3f e1 74 8d 3d
       -0.58205926 5.758499 0.5677834 0.069070585
000230 c9 bc af bd fc 56 4a bf 83 28 40 3e fc cc d8 3d
       -0.0858093 -0.7903898 0.18765454 0.10585973
000240 c5 2a 4b 3e 18 8e 84 3d e1 e9 4a 3e 94 2a e6 bc
       0.19840534 0.06472415 0.1981578 -0.028096475
000250 e0 b1 2c bd 90 4d fa bb 5d 73 b4 bd 69 39 29 bd
       -0.042161822 -0.0076386407 -0.08811066 -0.041314516
000260 11 3f ee 3b 8a a1 b8 3e b8 f8 6f 3f af b4 ee 3b
       0.0072707017 0.36060745 0.9373889 0.0072847228
000270 93 f4 ca 3e 95 c8 14 3d 17 37 cf 3e 65 5e b0 bd
       0.3963972 0.036324102 0.40471718 -0.08611754
000280 58 a6 f3 3e 02 4a 66 3e 8d 97 3a 3e a8 65 ea be
       0.47587848 0.22489169 0.18221875 -0.45780683
000290 8f 79 7b 3e b9 56 a7 3d b2 58 24 3c 59 5c 14 3e
       0.2455809 0.08170838 0.010030912 0.14488353
0002a0 17 5f 50 bc e4 e1 16 bd a2 75 0d 3f bf 63 0b c0
       -0.012717984 -0.03683652 0.5525762 -2.177963
0002b0 ed fc 03 40 53 94 34 40 ad e0 22 3e 79 7e 7b bf
       2.0623124 2.821553 0.1590602 -0.98239857
0002c0 2d 7c 68 be f1 05 f3 bd 6f 97 8a bd 30 ea 61 3d
       -0.2270362 -0.118663676 -0.06767165 0.05515498
0002d0 3c ff 8e bd e2 3a 36 3e 81 ae d2 3d 4e 6d 14 3c
       -0.06982276 0.177959 0.1028719 0.009059263
0002e0 de 13 97 bd 3c 2f 1f bd a2 e3 2b ba 2a a8 68 bf
       -0.07376836 -0.038863406 -0.0006557052 -0.908816
0002f0 a7 7c 88 3e 09 e6 53 bf 91 e7 c4 3e af d7 46 be
       0.26657602 -0.8277288 0.3845792 -0.19418214
000300 69 e5 a1 3e 43 d7 90 3f c3 91 e3 be cd 64 b6 3e
       0.3162034 1.1315693 -0.44447145 0.3562378
000310 73 4c 42 be 60 f1 35 bf f6 78 d6 3e 3f 22 71 3e
       -0.18974476 -0.71071434 0.4188916 0.2354822
000320 ab eb f2 bd 43 c2 24 3e df 74 49 3d 4e e2 a1 3c
       -0.11861356 0.1608973 0.049183723 0.01976123
000330 e9 35 c1 be cb 4a 71 3f bf 36 5f 3d a8 10 63 3e
       -0.37736443 0.9425475 0.05449557 0.22174323
000340 ca 45 b1 3e 67 e2 67 bf 34 94 81 3e a6 e4 54 bf
       0.34623557 -0.9057984 0.25308383 -0.8316139
000350 60 d9 43 3d a0 b4 ca 3d a6 c9 b6 3e a3 fa 7c be
       0.047814727 0.09897733 0.3570072 -0.24704985
000360 f1 c7 c4 bd 07 ee 9c 3c 8b a8 29 bd 71 22 82 bd
       -0.09608448 0.019156469 -0.0414205 -0.063542254
000370 59 10 a8 3d 37 0e dd be f1 7c 72 3f 17 4b 90 bf
       0.08206243 -0.43174908 0.94721895 -1.1272916
000380 68 4c 0d bf c1 19 e2 3e 86 d8 04 40 be 03 ff 3f
       -0.5519471 0.44160274 2.0757155 1.9923017
000390 02 47 a6 3d 88 fe a9 be b1 21 a7 be aa e4 c9 bd
       0.081190124 -0.33202004 -0.32642892 -0.09858067
0003a0 48 71 f2 bd 1b 0f 35 3c 61 a6 d9 3d 04 07 48 3e
       -0.11838013 0.011050965 0.106274374 0.19533926
0003b0 47 32 21 3e 4f 1a 5e 3d a4 36 bd 3c a6 64 ec bf
       0.15741836 0.05422431 0.023097344 -1.8468215
0003c0 95 95 c1 be f6 e6 0e 3f d4 35 84 bf 11 fb 8f 3e
       -0.37809435 0.5582117 -1.0328927 0.28121236
0003d0 12 22 36 be 0f 8d c3 bf 6e dd 0b bf eb e4 d8 be
       -0.17786434 -1.5277423 -0.5463475 -0.4236215
0003e0 f4 b7 c3 3e 09 b1 9b bd 79 a9 43 3c 2f 66 57 bc
       0.38226283 -0.07602126 0.011942261 -0.013146921
0003f0 d9 9f 48 be 5a a5 ed bd 3a d3 2b bd 50 ff 3c 3e
       -0.19592227 -0.11603804 -0.04194949 0.18456769

shared.0.bias f4 [256]
000000 e3 30 75 3f da a1 24 3c 26 ef bb be 6d 80 67 be
       0.9577772 0.010048354 -0.36705893 -0.22607584
000010 b4 72 e7 be 08 ba a3 3d 13 70 5a bf 84 b5 af be
       -0.452047 0.07994467 -0.8532726 -0.34318173
000020 9f 2e 90 bf 49 b1 8f bf e4 08 2b bf f5 81 97 bf
       -1.1264228 -1.1225978 -0.6681044 -1.1836535
000030 57 f9 20 bf f5 91 04 bf c4 4a df be 4d 15 b4 bb
       -0.6288046 -0.5178521 -0.4361173 -0.0054957033
000040 44 31 5c bf b1 b7 f3 bf 01 1b 2e 3e 6f 13 02 bf
       -0.86012673 -1.9040433 0.17002489 -0.50810903
000050 66 f5 7b bf 3d 9a 77 bf a1 52 d5 bf fd 37 20 be
       -0.98421323 -0.96719724 -1.6665841 -0.15646358
000060 ea 06 58 bf db 9a 88 bf 93 34 80 bf e3 1d 02 bf
       -0.8438555 -1.0672258 -1.0016044 -0.50826854
000070 39 27 ba bc 00 c0 d5 3b be 3c 39 bd a3 d5 0a bf
       -0.022723781 0.0065231323 -0.045223944 -0.54232234
000080 88 86 0c be 8d ea 0d bf d6 46 43 3e 3a 4f 75 bf
       -0.13723195 -0.5543602 0.1906999 -0.95824015
000090 c1 97 eb be 61 48 bf bf 22 7c a4 be 25 26 a4 bf
       -0.46014217 -1.4943963 -0.32125956 -1.2824141
0000a0 02 5e 9e be fd 6b 13 bf 76 0c 61 bf ba c2 fc be
       -0.30931097 -0.5758665 -0.8790964 -0.49367315
0000b0 34 c6 28 bf e6 9a 4a 3e 92 d3 cd bf 79 62 9e bf
       -0.65927434 0.19785652 -1.6080191 -1.2373801
0000c0 a7 fb 03 bf 03 34 1f bf 32 d0 91 bf 8d 5e 31 be
       -0.51555866 -0.6218874 -1.1391661 -0.17321225
0000d0 ad fb 4c bd 2e 44 0b bf d7 ef 30 bf 5a 1e 2d bf
       -0.050044704 -0.5440091 -0.69115967 -0.6762444
0000e0 a6 07 96 be 00 86 0a bf dd 01 01 bf 24 b5 49 bf
       -0.2930271 -0.5411072 -0.5039347 -0.78792024
0000f0 af 59 ab bd 9b ac 2c bf 72 63 33 bf 9b 86 f4 be
       -0.08366715 -0.67450875 -0.70073617 -0.47758946
000100 61 c7 97 bf 02 6f 0d 3e 9f 71 8a bf 39 15 c9 bf
       -1.1857721 0.13811877 -1.0815924 -1.5709602
000110 0a b5 16 be dd ad 0b bd 1a 7a 6b bf 75 fc 0b bf
       -0.14717498 -0.034101356 -0.9198319 -0.54682094
000120 62 31 e2 be 35 a8 95 be 89 14 0c be b5 d6 f8 be
       -0.441783 -0.29229894 -0.13679709 -0.48601308
000130 72 46 03 bf 7c 16 0a bf 09 ad 81 bf ea 41 70 bd
       -0.51279366 -0.5394056 -1.0130931 -0.05865661
000140 42 65 93 be 20 5b 5a bf 8d 1a 08 bf af 47 d2 bf
       -0.2878819 -0.85295296 -0.53165513 -1.6428126
000150 71 ec 78 3d 2c d5 8c bf d5 6d 09 bf 58 9f 1f be
       0.060772363 -1.1002555 -0.53683215 -0.15588129
000160 ac 6b b6 bf 15 cb 88 bf d5 95 7b be ae 90 f0 be
       -1.4251609 -1.0686976 -0.24568875 -0.46985382
000170 1c 3f 79 bb 83 98 14 3e c0 80 b8 bc b6 13 97 3e
       -0.0038032 0.14511304 -0.02252233 0.29507226
000180 a5 52 0d bf 81 44 2e bf ff c7 86 bf 83 8d 5a bf
       -0.5520423 -0.6807328 -1.0529784 -0.8537218
000190 e2 23 11 bf 01 5c bb bd 38 2a 45 bf e7 f9 8f bd
       -0.5669538 -0.09148408 -0.77017546 -0.07030087
0001a0 61 28 0d bf bf bb a2 bf bd 79 ed 3d 35 cd 62 be
       -0.5513974 -1.2713546 0.11595485 -0.22148593
0001b0 23 32 7d bf 2e 4a 0c bf 45 b8 24 3d 44 12 b7 bf
       -0.9890463 -0.5480069 0.040214796 -1.4302449
0001c0 4f b3 80 bf f0 fe 16 be 59 c7 9f bf 3a 90 0f bf
       -1.0054721 -0.14745688 -1.2482711 -0.5607945
0001d0 22 a0 40 bf 04 80 d4 bd 69 79 16 bf 81 07 a6 be
       -0.75244343 -0.103759795 -0.5877901 -0.324276
0001e0 79 26 be be 44 e1 d8 3e f8 12 44 bf 56 14 a5 bf
       -0.37138727 0.42359364 -0.76591444 -1.2896831
0001f0 27 a0 95 bf 4c 2c 1e bf 30 6e 02 bf ef ef 0c bf
       -1.16895 -0.6178634 -0.5094938 -0.5505361
000200 96 59 d6 be d1 9a 6a bf 68 73 88 be 12 98 24 bf
       -0.41865224 -0.9164248 -0.26650548 -0.6429454
000210 11 95 ba be 59 14 4e bf ae f9 d3 bf 72 ed 3f bf
       -0.36441854 -0.804998 -1.6560571 -0.7497169
000220 08 eb bf be 62 46 df bd ef 30 2c bf 1d 8e cb be
       -0.37484002 -0.10902096 -0.67262167 -0.3975686
000230 7c ee 8f be 22 1f 17 bf 4e 68 40 3f f7 ef db be
       -0.28111637 -0.5903188 0.75159156 -0.42956516
000240 54 85 da bf 44 1c af 3d 40 a1 0f bf 2e 6b d0 3d
       -1.7071939 0.08550313 -0.5610542 0.10176693
000250 6e c0 0a bf d2 42 28 bf 11 67 e6 be 5c 9d 43 bf
       -0.54199874 -0.6572696 -0.45000508 -0.76411986
000260 1e 58 91 3d f2 78 3d be bb b7 4a bf 41 b0 80 bf
       0.07096885 -0.18503168 -0.791866 -1.0053788
000270 c4 54 0c 3d 21 4e aa bf 21 30 df be 91 2f 8a bf
       0.034260526 -1.3305093 -0.43591407 -1.0795766
000280 16 79 cb bf e9 85 f9 be 89 c8 80 bf fd 0c 5c bf
       -1.5896327 -0.48734978 -1.0061198 -0.8595732
000290 8b 33 30 3d 6c 7a 5f bf d8 41 6e be bf 7e 76 be
       0.043017905 -0.87296176 -0.23267305 -0.24071787
0002a0 d4 b9 ce be b6 76 83 bf 8c c5 34 bf ae fa 4e bf
       -0.4037615 -1.0270603 -0.7061393 -0.80851257
0002b0 93 26 c9 be 9b 01 41 bf 9c 99 8b bf 47 b9 51 bf
       -0.39287242 -0.75393075 -1.0906253 -0.81923336
0002c0 d3 97 09 bf 4e 2d 02 bf 7a 3c ca 3d 6a 02 e6 be
       -0.5374729 -0.5085038 0.09874816 -0.44923717
0002d0 bd ce af bf 15 8a ef bd 44 c0 2e be 85 f1 f5 ba
       -1.3734967 -0.11696259 -0.17065531 -0.0018763995
0002e0 6a 9f 54 bf 60 b2 70 3e 0c 42 ba be 0e dd 42 bf
       -0.83055747 0.23505545 -0.36378515 -0.7611855
0002f0 27 38 36 bf 16 1f fd bb 2c 98 68 bf cc 3a 30 bf
       -0.7117943 -0.007724653 -0.90857196 -0.68839717
000300 bb 69 03 bf f9 72 2c 3f cd 49 9f 3e 2a 5a cd bc
       -0.51333207 0.67362934 0.31110993 -0.025067408
000310 3a 0b fb bc 41 5e 0d 3f 3f e3 e9 bf 60 0c 01 bf
       -0.030645002 0.55221945 -1.8272475 -0.5040951
000320 7d 39 02 c0 26 21 8f bf 11 e5 2a bf a2 96 9e 3e
       -2.0347588 -1.1181991 -0.6675578 0.309743
000330 85 6a ee be c8 5e 2c be d3 48 b3 bf 69 81 54 bf
       -0.46565643 -0.16833031 -1.4006599 -0.83009964
000340 dd 92 a6 3e e8 86 1c bf 79 45 bb be 76 8d a0 be
       0.32533923 -0.6114335 -0.3657644 -0.31357926
000350 bc f1 52 be 8f 55 4a 3e 41 64 a8 bf ee 3a 21 3e
       -0.20600027 0.197592 -1.3155595 0.15745136
000360 10 2c 71 bf 3d 4d a1 bd 8f ce f7 be 92 09 86 3f
       -0.9420786 -0.0787606 -0.4839978 1.0471671
000370 32 9f 08 bf a3 41 08 bf b1 4b dd be e0 5a 60 be
       -0.5336791 -0.53225154 -0.4322181 -0.21909666
000380 2d 24 9b bf 98 00 74 bf dd a1 37 bf b0 a5 81 be
       -1.2120415 -0.95313406 -0.7173136 -0.25321722
000390 e4 06 43 3f 13 e4 25 bf 95 59 93 3e 52 14 c9 be
       0.7618239 -0.6480114 0.28779283 -0.39273316
0003a0 bb 0b 7a bf 76 9a 8a bf 31 f0 d0 be 02 06 9f bd
       -0.9767415 -1.0828388 -0.40808252 -0.07764818
0003b0 d8 3b 91 bf bc c8 6d 3d d4 fb e5 bd a9 c6 dd 3d
       -1.1346388 0.058052763 -0.11229673 0.10828907
0003c0 d2 ac fe 3d e2 3e 92 bd 2e d6 1a 3f b0 21 d2 be
       0.124353066 -0.071409 0.6048306 -0.41041327
0003d0 ec e8 af bf 97 18 e4 bd ba ce 86 3e a9 3b a9 be
       -1.3742957 -0.11137503 0.26329595 -0.3305333
0003e0 2d db f5 3c 32 34 63 bf 01 a0 a6 be 19 e2 2f be
       0.030011738 -0.8875152 -0.32543948 -0.17176093
0003f0 71 8e 32 be 91 16 5b be e3 70 16 bf 8f 94 f5 3d
       -0.1743715 -0.21395327 -0.58766 0.11991226

shared.3.weight f4 [256, 256]
000000 ba c8 c1 3e 61 69 80 bc ec d2 c8 3e 90 6d d9 bc
       0.37848455 -0.015675249 0.3922342 -0.026541501
000010 63 d1 38 3d de 46 cf 3c 31 f8 97 be 12 ac 15 bd
       0.04512156 0.025302347 -0.29681543 -0.036541052
000020 5d 6a 28 3d 59 c2 81 3e d8 14 a8 3d 4c e7 97 3d
       0.04111706 0.25343588 0.08207101 0.07417163
000030 64 76 80 bd 1a 23 9e be af a8 17 bd 0d ff d0 be
       -0.06272581 -0.30886155 -0.037026104 -0.40819588
000040 a2 42 d3 3e fe e1 fc bd 99 f7 ae be 4c 77 bd 3e
       0.41261774 -0.12347792 -0.34173277 0.3700508
000050 0e e2 b8 bb c6 26 d0 3d e0 9d bc bd 4d 55 8a 3e
       -0.005642182 0.101636454 -0.092098 0.27018204
000060 f9 e9 27 bf ac a2 ab be 41 30 b9 be dc 3b 11 be
       -0.6559139 -0.33522546 -0.36169627 -0.14182991
000070 c9 79 43 bd 17 a3 88 3e 62 e7 01 be da 14 68 3d
       -0.047723565 0.26686928 -0.12685922 0.05666051
000080 5c 0f 2c be 91 a7 97 bf 8f 4a b4 bf 89 e6 9f 3d
       -0.16802734 -1.1848012 -1.4085253 0.07807643
000090 16 6b ad 3e ae 5e b3 3c 02 9d 93 3e fa 70 81 bd
       0.33870763 0.021895733 0.28830725 -0.06320377
0000a0 68 23 a1 3e 99 78 a4 3e 22 e2 36 3e aa 48 e0 3d
       0.31472325 0.3212326 0.178597 0.109513596
0000b0 8d 94 07 3e 87 21 b3 be ab 2a f1 be 7e 66 0d 3e
       0.13240261 -0.34986517 -0.47102866 0.13808629
0000c0 89 eb 8c 3d 86 95 2c 3e 71 c2 e3 bd 8e 7a 19 3e
       0.06880862 0.16853914 -0.11121071 0.14988157
0000d0 de f9 9a bf 8b 14 8e bf 8e a9 a1 be cf ac d7 be
       -1.2107503 -1.1100019 -0.31574672 -0.4212403
0000e0 7c ac b4 bf 62 e4 27 3f 82 4b 40 bf 57 2f c5 3d
       -1.4115138 0.6558286 -0.75115216 0.0962817
0000f0 e0 e4 d0 bc 23 0e 64 3d f0 48 c1 3e 05 8f dc bd
       -0.025499761 0.055677544 0.3775096 -0.10769466
000100 58 de 1c 3e 2a e5 59 3d 9f db 88 bc 2e 0e 01 bf
       0.15319192 0.053197064 -0.016706286 -0.5041226
000110 fc e2 32 3e 3a 93 2a 3e b8 b3 3a 3f b0 5f 50 be
       0.174694 0.16657725 0.7293048 -0.20349002
000120 18 34 36 bf 18 ec b8 be 66 4e 60 3e cc 8a 30 bf
       -0.7117324 -0.36117625 0.21904907 -0.6896179
000130 fb 09 d6 3e 7f a2 a3 bd 9f 10 0d be 44 85 84 bf
       0.4180449 -0.07989978 -0.13775872 -1.035317
000140 56 d7 97 be ab fa d2 be f2 c9 84 3e ef e6 8d 3d
       -0.29656476 -0.4120687 0.25935322 0.06928813
000150 68 4e 45 3d ca e0 ba 3d d5 9a 90 be 92 e7 f0 be
       0.048170477 0.09124906 -0.28243127 -0.47051674
000160 b2 10 d6 be 64 5d 50 3d a8 3d eb 3e ec 6d 05 bf
       -0.41809613 0.050870314 0.45945477 -0.5212085
000170 1b 2f 21 3e 79 56 55 be a2 2b c2 3e 63 92 85 be
       0.15740626 -0.20833768 0.37923914 -0.26088247
000180 5e da 91 be 75 1a 1b bf 5d d7 38 bd c3 82 60 bd
       -0.28486913 -0.60587245 -0.04512726 -0.054812204
000190 9a 88 af 3c 3d 63 81 be 53 60 f3 3d b4 4a 1b 3f
       0.021427441 -0.25271025 0.11883607 0.6066086
0001a0 cf 17 6f 3d 84 d2 23 3f eb 49 6f 3d 19 01 be bd
       0.058372315 0.63993096 0.058420103 -0.09277553
0001b0 c1 e1 0d be 30 28 1d be bd cf 19 be 76 ae 5a bf
       -0.1385565 -0.15347362 -0.15020652 -0.85422456
0001c0 81 b9 c0 3c 41 89 dd 3d bd eb 48 bd bd 47 d5 3d
       0.023525955 0.10817195 -0.049052943 0.104140736
0001d0 25 3e b0 3c 5f 11 28 bf e6 7a 11 bc 88 04 3b 3c
       0.021514008 -0.65651506 -0.008879399 0.011414655
0001e0 a2 ca ac 3b f5 f8 44 bf 5c 77 e7 3d 13 ee 78 3e
       0.005273179 -0.7694238 0.11302063 0.24309568
0001f0 9b 80 25 3f ea fd c1 3c 7b 6d ce 3d 26 22 43 be
       0.6464936 0.023680646 0.100794755 -0.19055995
000200 35 1e 1e bf 17 74 6d 3c d4 49 e2 bd e8 5b d1 bc
       -0.6176484 0.01449301 -0.11049238 -0.02555652
000210 6c 2e f2 bd 64 14 27 be 94 ed e7 3d 5d d7 82 3d
       -0.118252605 -0.16316372 0.11324611 0.063887335
000220 6d fb 53 3e 2d 29 b9 3e ce 5d df bc 57 dc d1 bd
       0.2070138 0.36164227 -0.02726641 -0.102471046
000230 7a 40 9d 3e ad d0 5b bc 7e 69 9f 3d 34 66 27 3c
       0.30713254 -0.013416451 0.07783793 0.010217238
000240 a0 43 6a 3c 77 f6 c7 be 3d 6e c5 3c 15 13 b7 be
       0.01429835 -0.39055225 0.024100417 -0.35756746
000250 88 b9 8b 3d 10 9b c5 bd 4c 2c 10 bf d9 e1 06 be
       0.06822497 -0.096487164 -0.5631759 -0.13172092
000260 48 76 70 3e a1 b5 7b 3e 74 b9 44 3e d9 2c 00 bf
       0.2348262 0.24581005 0.1921137 -0.5006843
000270 00 97 8d bd b3 59 13 bf e6 c7 3f be 47 ef b9 bb
       -0.069135666 -0.57558745 -0.18728599 -0.005674276
000280 04 c3 f4 bd c1 9d 81 3d 6c b0 9d bf 00 8b 3a 3d
       -0.11951259 0.06328917 -1.2319465 0.045542717
000290 7f df fc 3e e0 5c a2 bc b4 7d 6f 3e 98 d9 80 3c
       0.49389264 -0.019819677 0.23387796 0.015728757
0002a0 74 ae 59 be 26 ff bc be 16 ed ae be 16 9f 2a 3e
       -0.21257955 -0.36913413 -0.34165257 0.16662249
0002b0 03 6b 49 be 2c e5 9c bd 82 c7 63 be 33 df 07 3d
       -0.19669728 -0.076608986 -0.22244075 0.033171844
0002c0 02 d5 9a 3e cc a6 6d bd b6 ec ae bf 74 0b b3 3d
       0.30240637 -0.058020398 -1.3665988 0.08742419
0002d0 8e a7 67 3a ff c0 42 3e 36 90 85 3e fa ba 11 bf
       0.0008836918 0.19018935 0.26086587 -0.5692593
0002e0 8d ba 8f 3e 61 8b ec 3d 16 fe 17 3d 4b b4 ee 3c
       0.28072014 0.11550022 0.03710755 0.029138705
0002f0 14 b9 82 be 0c 21 3b bd 8d 59 95 3d a7 ac 20 bf
       -0.25531828 -0.045685813 0.07292471 -0.62763447
000300 60 9d 1c 3d a8 12 9b 3e 7e 1d d5 3d 50 42 be 3e
       0.038236022 0.3028767 0.10406016 0.37159967
000310 8e 5e ae 3e f0 11 80 be c7 4f a5 3e 9b 53 00 3e
       0.34056515 -0.25013685 0.32287428 0.12531893
000320 d6 ea c8 bb 42 fc fc be 5f db 0c bf 7c fa 62 bf
       -0.0061315103 -0.49411207 -0.55022234 -0.8866346
000330 2b 1b ab be 38 40 bb be 03 1e 5e bf 5c b7 09 bf
       -0.33419165 -0.36572433 -0.86764544 -0.5379541
000340 8e d1 88 3d 3e 18 f3 3c aa ec 10 3f 13 4b a3 3e
       0.066805944 0.029674646 0.5661112 0.31893215
000350 ac 7f 22 be 07 90 87 be 08 06 15 3e d9 ea 04 bf
       -0.15869015 -0.26477072 0.14553082 -0.5192085
000360 cf 5c 1c 3e 29 d8 9f be 9f d6 d9 be 0b c0 5c bc
       0.15269779 -0.31219605 -0.42546555 -0.013473521
000370 bc 05 ab 3d 7c 91 27 3f 35 15 fb bc b5 a8 30 be
       0.08350703 0.65456367 -0.03064976 -0.17251857
000380 99 aa c3 bd e2 97 58 3e 65 b3 f7 3d 9c a7 c7 3d
       -0.09554023 0.21151689 0.12094764 0.09748766
000390 b8 08 50 3e 89 a4 99 3e 48 a0 ae 3c f4 07 69 bf
       0.20315826 0.30008343 0.021316662 -0.9102776
0003a0 59 82 e0 be 1c 78 42 bf 68 e3 20 bf 2c ed 51 3e
       -0.43849447 -0.7596452 -0.62846994 0.2050063
0003b0 b1 51 37 3e 01 db 2a bd 2c 9b f8 3e f3 ab 44 be
       0.17902257 -0.041712765 0.48555887 -0.19206218
0003c0 fc ff 67 bd 86 44 0a 3e e2 81 84 3d e2 3b b4 bc
       -0.05664061 0.13502702 0.06470086 -0.02200121
0003d0 b0 8d 81 3d 85 ab cb be cd 98 10 be 0c 45 41 3d
       0.06325853 -0.39779297 -0.14120789 0.04718499
0003e0 4c 9f b6 3e f2 89 85 3e c0 c3 62 be 89 18 10 be
       0.3566841 0.26081806 -0.22144985 -0.1407186
0003f0 e4 a9 fb be 8a 77 f1 be 7b 48 ef 3d 29 1b b5 bd
       -0.49153054 -0.47161514 0.116837464 -0.08843071

shared.3.bias f4 [256]
000000 e3 5b c7 bd d9 b5 b2 bf 65 d4 d8 3d c9 90 f6 3e
       -0.09734323 -1.3961746 0.10587386 0.48157337
000010 25 4a d1 bd 99 c0 32 3d 4f af 0b be a5 2a 7c bf
       -0.1021922 0.043640707 -0.13641094 -0.9850257
000020 9d d0 de 3e 80 81 9c bf a7 4f be bd 34 51 87 bf
       0.43518534 -1.222702 -0.09292536 -1.0571656
000030 90 05 61 3e 27 59 60 3e 8c ac 9e be fb 28 38 bd
       0.21974778 0.21909009 -0.30991018 -0.044960957
000040 0f cb 91 bc e7 a3 b2 3d 81 1a 6b bf 7e 9b d4 3e
       -0.017797021 0.08722668 -0.91837317 0.4152488
000050 1f 60 75 be 5e 2e 5b 3e a4 b9 ce bd 1f 2e 2e 3e
       -0.23962449 0.21404406 -0.10094002 0.17009781
000060 33 62 fd be f5 f8 96 bc 31 b1 9b 3e 61 6d 62 bf
       -0.49488983 -0.018429259 0.30408624 -0.8844815
000070 d2 d7 39 be 26 80 d1 3e e3 8c 0a bf 18 cb 70 3e
       -0.18148735 0.40918082 -0.54121226 0.23514974
000080 f1 c3 61 be 98 4c 91 be 47 5b 94 3e 50 92 78 bf
       -0.22047402 -0.2837875 0.2897589 -0.97098255
000090 f1 ef 9b 3e 79 67 5d 3e 35 7d 9a 3e b4 4d d9 3e
       0.30456498 0.21621503 0.3017365 0.42442095
0000a0 32 6b c5 3e 30 5e 21 3c 5c 47 89 3e c5 90 94 3d
       0.38558346 0.009849116 0.26812255 0.07254175
0000b0 41 a1 a4 be 70 8b 1e bf 83 89 0b 3d ca ff 6d 3e
       -0.32154277 -0.61931515 0.03406669 0.23242107
0000c0 fe f3 1c bf 1d 3c 0e bf eb e8 7b 3e 9a e9 28 be
       -0.613098 -0.55560476 0.2460057 -0.16495362
0000d0 a9 04 e0 3e ba c6 b5 3e ef 60 22 3e d2 1b 79 bf
       0.43753555 0.3550318 0.1585729 -0.97308075
0000e0 ec 86 d9 be d3 71 ca be 73 d2 a3 be ec d0 8d 3e
       -0.4248575 -0.39539966 -0.31996498 0.27698457
0000f0 0a 3f 72 be 34 05 8e bf 7b c7 25 bf 31 22 66 3d
       -0.2365686 -1.1095338 -0.6475751 0.05618495
000100 ed d7 06 3f ee 20 26 3e f2 c6 a8 3e c3 08 f7 bd
       0.52673227 0.16223499 0.32964283 -0.12062218
000110 cf 91 46 bd 44 99 98 3e 2c e9 50 be 34 16 9b 3e
       -0.048478898 0.29804432 -0.20401448 0.30290377
000120 87 1a 9e 3d db 4d a3 3e 58 0f d5 3c fe 4b 83 bf
       0.077199034 0.31895337 0.026008293 -1.0257566
000130 3e 16 61 3e bf e1 9e bf 37 e8 2b be 55 64 40 3e
       0.21981141 -1.2412642 -0.16787802 0.18788274
000140 3c 2f 45 bf 10 9f 22 bf 20 1b 7c bf c4 44 15 bf
       -0.770252 -0.6352396 -0.9847889 -0.58308053
000150 b5 3e 30 3f 22 fe 86 be 7e 10 39 bf ef 81 0f bb
       0.68845683 -0.26365763 -0.7229079 -0.0021897515
000160 69 c8 f0 be 7e 7d c6 be ba 0f a4 3e e6 03 f7 3e
       -0.470279 -0.38767618 0.32043248 0.48245162
000170 6e ba ce 3d 7c 7c 2e 3e 47 8c 2b 3d 71 8b 16 bf
       0.100941524 0.17039675 0.041881826 -0.5880652
000180 36 6a 01 bf be 96 36 bf 67 86 aa 3e ae 73 c5 3e
       -0.5055269 -0.71323764 0.33305666 0.3856482
000190 02 c9 d3 3d 6e 9c 72 3e 90 be 4f bf 7a 4c 89 3e
       0.103410736 0.23692486 -0.8115015 0.2681616
0001a0 ad ff 9c 3d b2 89 81 bc f5 1b 93 3e 8d a1 6a 3e
       0.07665954 -0.015812729 0.28732267 0.22913189
0001b0 d2 f0 30 be 55 50 06 be 12 45 77 bd ca b1 bf 3c
       -0.17279366 -0.13116582 -0.060368605 0.023400206
0001c0 4b 07 a3 be 9b a1 2b 3e d0 8c 1a bd cf 45 94 3e
       -0.31841502 0.16760866 -0.037731946 0.2895951
0001d0 ab eb 07 3f 55 f6 93 3e aa fe 0a 3e 74 ad c4 be
       0.53093976 0.28898874 0.13573709 -0.38413584
0001e0 ee 7c 52 3e 87 b1 0c 3e bb 48 61 bf 48 33 7d 3d
       0.2055547 0.13739596 -0.880016 0.061816484
0001f0 9a c3 51 bf c7 a0 02 bf 32 73 49 3e ef 4a b1 bf
       -0.8193909 -0.51026577 0.1967285 -1.3850993
000200 bc dc 35 bf 28 bf 2f bf 40 60 81 be 48 3a 58 3e
       -0.7103994 -0.68651056 -0.25268745 0.21115983
000210 84 2e c1 bc bc cd 07 bf b8 7a 97 3e 7b 48 54 3e
       -0.02358175 -0.530483 0.29585814 0.20730774
000220 9e 65 7d be 1d f4 0b 3f 7b 58 d2 3e c5 f6 a5 3e
       -0.24745795 0.5466936 0.4108313 0.32414833
000230 2e d1 d8 be 11 6b 5f bf 59 9b a4 be 71 9d 8f 3e
       -0.4234709 -0.87272745 -0.3214977 0.28049806
000240 73 06 36 bf 87 a9 58 3e 69 e4 32 3e 9c bc 8a 3e
       -0.7110359 0.2115842 0.17469944 0.27097023
000250 fa c6 fc 3e 14 b1 f6 bb 42 30 a2 b9 14 d4 ab 3d
       0.49370557 -0.0075284336 -0.00030935003 0.0839006
000260 56 5f 26 3e 97 f4 7d be 62 65 bb 3e 33 c8 cc be
       0.16247305 -0.24800335 0.36600786 -0.3999649
000270 97 ec 0c 3f 91 78 94 3e cf 14 08 3e 0a 18 0a be
       0.5504851 0.28998235 0.13289188 -0.13485733
000280 09 e3 a8 3e 3a 1a c7 3e a8 ae a0 be f8 ff d2 be
       0.32985714 0.38887197 -0.31383252 -0.41210914
000290 21 aa 86 bd a0 50 37 be 97 ab 94 3d 3c 03 da 3e
       -0.06575418 -0.1790185 0.07259291 0.42580593
0002a0 93 e0 58 3e 1e f1 bd bd 81 a2 03 3f 13 2a d4 be
       0.21179418 -0.09274505 0.51419836 -0.4143835
0002b0 ac e3 ef 3e 1e 5d 61 bf bf 1b 8a 3e 24 07 84 be
       0.46853387 -0.8803271 0.26974294 -0.25786698
0002c0 bf 25 d8 3e 04 b7 bf 3e e8 75 5f 3d 5d 53 a5 bf
       0.42216298 0.37444317 0.054555804 -1.2916065
0002d0 b5 07 f6 3e 59 a1 df be 27 41 e0 bb cd 25 f1 3e
       0.48052755 -0.43677786 -0.0068437043 0.47099152
0002e0 ce 31 cf 3e c5 31 04 3f 04 77 a7 3e 9e 32 1f bf
       0.40467685 0.5163844 0.3270799 -0.6218661
0002f0 96 f8 26 bd ee d8 33 be ee 4b 55 bd f9 59 1b 3f
       -0.040764414 -0.17563221 -0.052074365 0.6068416
000300 48 97 5e bd 65 13 98 bd 44 eb 85 bf e0 33 d2 3e
       -0.05434349 -0.07425574 -1.0462422 0.41055202
000310 83 b5 03 3f c6 46 18 be 9d b5 09 3e d2 32 2c bf
       0.5144884 -0.14870748 0.13448186 -0.67265046
000320 76 0e 06 3e 07 63 8f be 6b 80 31 3e 6d 4f 27 bf
       0.13091454 -0.2800524 0.17334144 -0.6535557
000330 dc 05 e3 3d e6 e8 71 bd 55 7e e9 bd fc fb 06 bf
       0.11085102 -0.05906 -0.11401049 -0.5272825
000340 71 dd 86 3e 5b cf 91 3e f0 d8 c5 3a be 69 09 3c
       0.2634082 0.28478512 0.001509456 0.008387027
000350 5e 29 92 3e fe 13 d5 3e 38 9a 8a 3e 45 70 37 be
       0.28547186 0.41616815 0.27070785 -0.17913921
000360 4f 04 1b be 95 c8 96 3e 50 14 9e be 36 1f 8b 3e
       -0.15138362 0.29449907 -0.30874872 0.2717225
000370 02 3f 98 3e af de aa 3e 15 64 f4 3e 3d 8e 60 3e
       0.2973557 0.3337302 0.47732607 0.2192926
000380 30 1f c9 be ca f9 0c 3f 26 b7 65 be 19 26 02 bf
       -0.39281607 0.5506865 -0.22433147 -0.5083938
000390 8a eb ed bf 26 3b 33 be 17 c8 a4 3d 56 93 30 3d
       -1.8587506 -0.17503032 0.080459766 0.04310926
0003a0 e1 2a a3 3e c3 8c 9f be e7 1a dd bd e8 2b 98 be
       0.31868652 -0.3116208 -0.10796147 -0.29720998
0003b0 b0 46 51 3e 39 0b 01 be b2 37 8e be 15 0a 5c be
       0.20437121 -0.12601937 -0.27776867 -0.21488221
0003c0 f8 c8 6c 3d bb a0 cf 3e 2a 8e fa 3e 04 76 f7 3d
       0.057808846 0.40552315 0.48936588 0.120830566
0003d0 2c 08 f1 3e 27 34 af bc 01 ff 19 3f 3e a8 8c bd
       0.47076547 -0.021387173 0.6015473 -0.06868027
0003e0 80 2f 5e bc 15 6c 41 3e 4a a8 f7 3e 37 50 98 bf
       -0.01356113 0.18888886 0.48370582 -1.189948
0003f0 1e 12 80 3e 15 44 29 be d7 23 ba 3e 34 14 37 bf
       0.25013822 -0.16529877 0.3635547 -0.715152

mean.weight f4 [6, 256]
000000 ed af 80 bc 50 bc 84 be a6 40 97 be 66 2a e1 bd
       -0.015708888 -0.2592492 -0.2954151 -0.10994415
000010 83 ad 05 bd b6 fc 3d bd 50 a3 e7 bd 23 a3 ab 3e
       -0.032636177 -0.046383582 -0.11310446 0.335229
000020 e3 c2 df 3e 49 5a 30 3f 41 69 5b 3e 63 43 be bd
       0.43703374 0.68887764 0.2142687 -0.09290197
000030 01 ca 03 3e d1 b3 8f bc 09 4a 19 be d4 d5 22 3d
       0.12870027 -0.017541798 -0.14969648 0.039754704
000040 42 c3 d6 bd d1 b2 54 be 24 ab da 3d f0 50 a7 3e
       -0.10486461 -0.20771338 0.10677174 0.32678938
000050 d2 d2 50 3d c4 9c 83 bd 91 90 9e 3d 0f a3 85 be
       0.050982304 -0.06426385 0.077424176 -0.26100966
000060 6c 0c 83 be 31 ec b2 3d fd 6d 0f 3e 79 9d 4d be
       -0.25595415 0.08736456 0.14006801 -0.20079602
000070 21 8d 8c 3c e7 3f de bd 94 c2 27 be 3f 8d 1b be
       0.01715714 -0.10852032 -0.1638282 -0.151906
000080 71 14 9c 3d ae 84 c3 3d f7 24 ea 3d 6b 45 4e bd
       0.076210864 0.09546791 0.11432832 -0.05035917
000090 84 01 26 3e c7 16 45 3e a8 66 25 bf 46 00 dd 3d
       0.16211516 0.1924697 -0.64609766 0.10791068
0000a0 45 a9 bd 3d 65 c1 e8 3d eb 28 f8 be 39 2c d9 be
       0.09260801 0.11365012 -0.48468718 -0.42416552
0000b0 53 50 a5 3e 45 02 11 bd 63 dc e6 bd 5c 78 f2 3d
       0.32287845 -0.035402555 -0.11272504 0.11839363
0000c0 4a 27 de bc 3b de 88 bd 8f 89 34 be b6 04 44 3d
       -0.027118344 -0.06683012 -0.176306 0.047856055
0000d0 98 ef 35 3a 55 2f e9 3d 3a a0 a0 3c d8 c8 d5 3e
       0.00069403043 0.11385981 0.019607652 0.41754794
0000e0 00 b8 45 3e 2a f8 56 be 43 c8 c9 be d9 a3 f5 bb
       0.19308472 -0.20993105 -0.394106 -0.007496339
0000f0 f7 aa 0c bd af 47 7b be 6d 04 3c 3d 90 42 eb bd
       -0.034342732 -0.24539064 0.04590266 -0.11487305
000100 c8 15 b9 bd 24 e5 8f 3c f2 23 a1 3e 61 63 8d bd
       -0.090373576 0.017565317 0.31472737 -0.06903721
000110 cb 22 be bc 2c d2 ad 3e ab d5 3b bc 1e 98 1d 3c
       -0.02320995 0.3394941 -0.011464517 0.009618787
000120 29 9f 41 be b4 19 ce be de 46 64 be e1 1d d2 bd
       -0.18908371 -0.40253985 -0.22292659 -0.10259605
000130 a4 71 e0 3e 99 e9 91 be 2d b0 1c be b2 aa 60 bd
       0.438367 -0.28498533 -0.1530158 -0.054850288
000140 25 a0 5b 3e 86 0b ce bd 08 86 a0 be 06 82 07 be
       0.21447809 -0.10060792 -0.31352258 -0.13233194
000150 cc 98 ae be 01 9a 0f bd c3 a6 30 3e c4 56 99 3e
       -0.3410095 -0.03505898 0.17251115 0.2994901
000160 21 ee b2 bc cc 32 af 3e 5f d4 4b be 0c 20 0e 3c
       -0.021842064 0.34218442 -0.19905232 0.008674633
000170 a4 23 59 3c 61 b7 3b 3d db 9a 32 bd f5 e1 f6 3e
       0.013253126 0.04582918 -0.043604713 0.48219267
000180 bb 02 0a be ab 6b 03 be eb cb dc bd ed 76 b1 be
       -0.13477604 -0.12834041 -0.10781082 -0.34661046
000190 36 bc 6c 3e 1c 3b 1a bc 6a b3 08 3f cf 83 48 be
       0.23118672 -0.009413507 0.53398764 -0.19581531
0001a0 66 b8 83 bd fd 4e 01 3e 43 0c 53 3e d4 d5 94 be
       -0.064316556 0.12627788 0.20610146 -0.29069388
0001b0 5a f4 1e 3e 04 54 1b 3f 91 22 7d 3e 23 bd 87 3d
       0.155229 0.6067507 0.24720217 0.06627872
0001c0 b1 2b ba 3e a5 1c 5b 3e 56 8f 52 bb 1f 05 b6 3e
       0.3636146 0.21397646 -0.0032128892 0.35550782
0001d0 57 1b 4e bd 9c 3f ae bc ef 4b 09 be cf af 85 3e
       -0.050319042 -0.021270566 -0.13407873 0.26110694
0001e0 b1 97 d9 3e 1f f7 82 3d 37 38 e8 bd 23 f4 97 bd
       0.42498544 0.06394791 -0.11338847 -0.07419612
0001f0 5a 4f 10 bd 8c 9c 7c 3e 10 4a f1 3e 4e 40 95 be
       -0.035231926 0.24669093 0.47126818 -0.29150623
000200 a4 c4 34 3f 88 be a8 3e 7f 61 e3 bc 10 e6 b7 be
       0.7061255 0.32957864 -0.02775645 -0.3591771
000210 4d 0e 93 3e 70 c1 36 bb 34 32 93 bd 87 01 48 3e
       0.28721848 -0.0027886294 -0.0718731 0.19531833
000220 b8 ba 47 3d 75 29 9d be b7 29 b9 bd 07 b2 66 3c
       0.048762053 -0.30695692 -0.090411596 0.014080531
000230 d2 35 af bd 5d 7a cb be 7c a7 44 bf 71 29 06 3f
       -0.08555187 -0.39741793 -0.7681806 0.52406985
000240 e3 03 c1 ba b8 99 01 3f 5f 27 bd be 6e 78 c0 bd
       -0.001472589 0.5062518 -0.369441 -0.0939797
000250 32 a8 4d 3e bb e2 89 3d 49 ef a4 bb ed 0b 8b bd
       0.20083693 0.067326985 -0.005033408 -0.06789384
000260 80 80 77 be 85 58 22 be 89 1e 5e be 1b ab 64 bc
       -0.24170113 -0.1585408 -0.21691336 -0.01395681
000270 d5 c1 3b 3d e1 00 34 3e 30 85 28 3d ca 6e 54 be
       0.04583915 0.1757846 0.041142642 -0.20745388
000280 ac f7 b7 3d ce 13 14 3d d8 74 a9 3e c0 61 af be
       0.089827865 0.0361517 0.33096957 -0.34254265
000290 6e 3a c4 3d f6 73 1a be 9d ed 79 bd 6d d0 de 3d
       0.09581457 -0.15083298 -0.06101762 0.10879598
0002a0 1c 3a ca 3d 01 3a 8b bd c2 9e 83 3e c4 97 e9 3d
       0.09874365 -0.06798173 0.2570706 0.114059
0002b0 ab 90 1e bd 9b e8 b7 3e 8a a0 06 3e 6b 3f 21 be
       -0.038712185 0.3591965 0.13147178 -0.15746848
0002c0 8a f6 f5 be 53 f4 ed bd 59 a9 8a 3c bc 5c 81 be
       -0.48039657 -0.11618867 0.016926454 -0.25266063
0002d0 80 16 39 bd 64 6f 66 3e f3 81 88 3b 4c 4b 97 bd
       -0.045187473 0.2250343 0.004165882 -0.073874086
0002e0 01 7a 83 bd 7e fd 9b be 71 0f cd ba 21 d4 2e bc
       -0.06419755 -0.30466837 -0.0015644861 -0.010670693
0002f0 71 92 21 3e 98 3d 99 3d 28 9f 27 3e d2 26 e9 3e
       0.15778519 0.07482451 0.16369307 0.4553743
000300 51 95 f1 bd 4a 47 92 3d 59 06 90 bd 14 88 c2 3e
       -0.11796058 0.071425036 -0.07032461 0.37994444
000310 9e 3b f4 bd 15 b4 7f bd ad 7a c4 3c a4 be fd 3d
       -0.119254336 -0.0624276 0.023984278 0.123898774
000320 71 25 8c be 7b 05 11 be d5 1c b5 3e 16 75 85 3d
       -0.27372316 -0.14162247 0.3537356 0.06516473
000330 ae d5 b4 be df 56 00 be 5e 6b 26 bd 23 b8 74 bd
       -0.35319275 -0.12533139 -0.040629737 -0.05974592
000340 11 47 9a bd 37 23 5d 3e 9a 45 05 bf 5f 37 ba 3e
       -0.07533086 0.21595465 -0.5205933 0.3637037
000350 29 ec fc 3d d0 00 c6 bb 29 c3 6b 3d 96 b8 cd 3e
       0.123497315 -0.0060425773 0.057559166 0.4017989
000360 6a 14 5a bd 26 71 30 3e 82 48 46 3e ed 98 cc bb
       -0.053242125 0.17230663 0.19363597 -0.006243816
000370 50 fa 3f be e0 28 e2 3d 62 fe 56 bd bb 20 2f bd
       -0.1874783 0.110429525 -0.052488692 -0.042755824
000380 5d c5 ab 3c 28 8a e4 bc 00 d2 91 bc cc ea 8c 3d
       0.020968134 -0.02789791 -0.017800331 0.068807214
000390 a5 22 f8 bd 20 f3 6e bc 16 1b b1 3e bc 0c d2 be
       -0.12115983 -0.014584333 0.34590977 -0.4102534
0003a0 22 d8 c0 bd f6 bf b7 be 08 15 9a 3d 6d 22 66 3e
       -0.09416224 -0.35888642 0.07523543 0.2247407
0003b0 64 0a db bc d0 c8 a9 3a 16 1f 30 bf 96 2d 27 bd
       -0.026738353 0.0012953524 -0.68797433 -0.04081496
0003c0 0e a2 3d 3e 82 59 4f 3e b7 b3 17 be ea f7 38 3e
       0.1851885 0.20248988 -0.1481465 0.18063322
0003d0 25 8c 88 bc 79 9f d0 bd 08 41 c3 be 46 4d 91 3e
       -0.016668389 -0.10186667 -0.38135552 0.28379267
0003e0 ea ed fc bc 43 38 e3 3e 18 2f 4c bc 2d 09 28 3e
       -0.030875165 0.44378862 -0.0124624 0.1640975
0003f0 66 73 50 3c 35 1f f5 bd 81 39 12 be 1b af 28 3f
       0.012722826 -0.11968843 -0.14279748 0.6589219

mean.bias f4 [6]
000000 7b 89 96 3c 4a a9 d4 3e 75 7d a9 3d 08 51 73 be
       0.018376103 0.41535407 0.08275882 -0.2376138
000010 cb dd 4d 3e c8 43 11 3d
       0.20104139 0.03546503

log_std.weight f4 [6, 256]
000000 b5 66 43 3d eb 49 e6 3d ac 56 40 3e 7b 46 dc 3c
       0.04770537 0.112445675 0.18783063 0.026889076
000010 7c b2 8b bd 9e 3d 71 3c c0 f8 28 bc e5 c3 94 3e
       -0.068211526 0.014724163 -0.010313213 0.29055706
000020 ed 0e 60 3e 6d 13 73 3e 9e 10 3a 3c cf 02 aa b9
       0.21880694 0.23737879 0.011356501 -0.0003242702
000030 96 f8 21 bc 07 25 ca bb 26 ce bb 3d 2a 21 e6 bb
       -0.009885928 -0.006168965 0.09170179 -0.0070229964
000040 42 ee 2d bc 19 51 a2 bd 7d ff f6 bc 13 27 77 3d
       -0.010615887 -0.079256244 -0.030151123 0.06034
000050 7f d2 df bb c0 3c 87 bd 5d 0e c5 3c 18 df 4c 3e
       -0.006830513 -0.06603384 0.0240547 0.20006979
000060 9c 2c 4b 3c 2a eb 4f 3a 97 5b c6 3d 3f 8a 01 3d
       0.012400772 0.00079314655 0.09685438 0.031625982
000070 09 c9 ee 3b 82 d9 0e 3d 84 da fc bc 3a 7d 8a 3d
       0.007287149 0.0348754 -0.030865915 0.06762166
000080 21 5b 6c bc 89 59 5a ba b3 95 cc 3c 96 ad 1f bd
       -0.014426024 -0.0008329382 0.024973726 -0.038983904
000090 ec 67 c4 3d 37 dd 41 3c a2 32 fb 3e 5b 74 c9 bb
       0.09590134 0.011832527 0.49062067 -0.006147904
0000a0 43 20 0d 3d 96 39 74 3d d7 d7 85 3e 64 f8 c1 3e
       0.034454595 0.05962523 0.26141235 0.3788482
0000b0 03 e5 22 3e 2b 3c 9d 3d 4b 9a 9f 3d df 8d a8 bd
       0.15907674 0.07677492 0.07793101 -0.08230185
0000c0 47 b2 f6 bc 5f e9 4b bc 28 be 68 bc 92 3f a6 3c
       -0.030114306 -0.012445777 -0.014205493 0.020293985
0000d0 af 0f 6b bd f7 dd b1 bc 5e 14 c9 bd a8 67 b8 3e
       -0.057388004 -0.021712286 -0.09818338 0.36016583
0000e0 5c 53 36 3d 5b 1b 01 3e b8 1b 1b 3e a2 7e 30 3d
       0.04451309 0.12608092 0.15147293 0.043089516
0000f0 9c 21 81 bd 19 64 04 3e d7 7e 24 be 83 f6 c0 3e
       -0.063052386 0.12928809 -0.1606401 0.37688074
000100 91 7c 87 3d 23 4f fd bc eb 29 1f 3e 56 28 06 bd
       0.06615556 -0.030921524 0.15543334 -0.03275331
000110 01 ff 69 bd 4d c1 80 3e 42 c1 f6 ba 92 cc ff bd
       -0.057127956 0.25147477 -0.0018825906 -0.124901906
000120 ee d1 ad bd bd ad cc 3d 26 f0 cc bc b0 2b a3 bc
       -0.084873065 0.099940754 -0.025016855 -0.019918293
000130 31 24 93 3e 35 14 01 3e 45 1c 13 3d f3 62 bd 3d
       0.2873855 0.12605365 0.03591563 0.09247389
000140 fd 78 2e 3e 79 7f 26 3b 87 47 35 3e 6c 4c 60 bc
       0.17038341 0.002540557 0.17703067 -0.013690095
000150 d3 9c c5 3d 7a 27 6e 3a 02 48 5d 3d 5c 61 86 3d
       0.096490525 0.0009084862 0.05402375 0.065615386
000160 03 de 92 bc 42 69 07 3e de bb 28 bb 64 16 fc bd
       -0.017928129 0.13223746 -0.0025746743 -0.12308958
000170 c4 bb 7a bd 38 9a d7 3b 74 33 5f bb 4c e8 4d 3e
       -0.061214224 0.0065796636 -0.0034057768 0.20108145
000180 2d cc 60 3d 5f 2b 6f 3c b2 23 d6 bd ea a3 46 3e
       0.054882217 0.014597743 -0.10456027 0.19398466
000190 b3 8c 79 3d 96 5f 9d bd 53 a0 f9 3e 8b a5 00 3c
       0.060925197 -0.07684247 0.4875513 0.0078519685
0001a0 14 f3 b4 3c bc e6 d7 3d c2 b4 29 3c b0 11 01 3d
       0.022088565 0.10542056 0.010358037 0.03151101
0001b0 52 5c 1d 3c 35 bd 56 3e c9 56 ba bc 22 77 24 3b
       0.00960453 0.20970614 -0.02274646 0.0025095423
0001c0 6e ef 2e 3e ef be 04 3e 89 7d c5 3c 09 23 46 3e
       0.17083523 0.1296346 0.024107711 0.19349302
0001d0 c0 4e 77 bd 30 ac ff bc f7 b5 75 3c fc bd 29 3e
       -0.060377836 -0.031210035 0.014996997 0.1657638
0001e0 34 0b 93 3e d2 28 53 3d 45 5c 95 bc 18 1a 3f 3c
       0.28719485 0.0515526 -0.018232474 0.011663936
0001f0 50 61 7e 3d 7c 35 25 3e 1e 78 1d 3e 82 3a af 3d
       0.062104523 0.16133684 0.15377852 0.08556081
000200 ab 1e d4 be 60 35 fc 3d f9 03 45 bb 2a 2d 8f 3d
       -0.41429648 0.12314868 -0.0030062182 0.06991036
000210 e7 95 19 3e 07 cd 6d 3c cd a8 88 3c 6d 72 00 3e
       0.1499859 0.014514214 0.016682053 0.1254365
000220 27 5c ae 3b dd 30 ea bb f9 86 90 3d 06 d6 8a 3c
       0.005321044 -0.0071469382 0.07056994 0.016947757
000230 cc a2 2d 3c 9c 1c dc bd c4 c8 b8 be 84 fc 9c 3e
       0.010597896 -0.10747644 -0.36090672 0.30661404
000240 33 ba 3c bd 53 56 32 3e 6f c3 5a 3e 89 22 19 bd
       -0.04607601 0.17415743 0.21363614 -0.03738645
000250 4e 1a 78 3c d3 b3 d7 bd 62 00 1e bc 36 89 b5 3c
       0.01514299 -0.105323456 -0.009643646 0.022160154
000260 43 58 6a bc 58 5f 89 3d 00 93 45 3b 75 a8 25 3d
       -0.01430327 0.067076385 0.0030147433 0.040443856
000270 ec 31 c4 3c 27 f9 a8 3c ab d6 0d bc ac b4 c9 3d
       0.023949586 0.020626618 -0.008657138 0.098489136
000280 76 cf ba 3a 4e 17 9d bc 76 4e d0 3d dd b8 40 bd
       0.0014252502 -0.019176152 0.10171215 -0.0470513
000290 d4 18 bb bb 68 38 05 bd 6d ac 5c 3d 8a 4c b2 bd
       -0.005709747 -0.032524496 0.053875376 -0.08706005
0002a0 08 2e 01 3b fb 48 82 bc 25 c0 c7 3d ff 92 c5 bc
       0.0019711275 -0.01590394 0.097534455 -0.024117945
0002b0 ca b8 4a 3d ca d5 3f 3d 7e 1e 43 3d 1d 29 38 bd
       0.049492635 0.046834745 0.0476365 -0.044961084
0002c0 81 e3 bd 3e da 86 4b 3d a1 d1 3d bc ba 27 38 3e
       0.37087634 0.04968915 -0.011585624 0.17983904
0002d0 23 c4 ce bc 1e 33 7d 3d 05 9d d8 3b 96 7c 55 3d
       -0.02524001 0.061816327 0.006610515 0.052120768
0002e0 37 1e 90 bc 73 59 04 3e ed 9a c9 3b ef e4 97 3c
       -0.017592533 0.12924747 0.006152502 0.018541781
0002f0 0a ed ba 3d d1 dc 5d 3c cb 76 a0 bc 08 20 56 3e
       0.09127243 0.013541416 -0.019587895 0.20910656
000300 fa e7 65 3d 21 be cd 3c 64 84 e6 3c 21 87 38 3e
       0.056129433 0.025115075 0.0281393 0.18020298
000310 f6 18 b0 bc 1c c1 59 bd 6f 38 47 bd 0c 2b 81 bd
       -0.021496277 -0.05316268 -0.048637804 -0.06307039
000320 57 14 a7 bb b0 da 0f 3d 8e fe 4b 3e 1d f5 64 3c
       -0.0050988602 0.035120666 0.19921324 0.013974455
000330 e7 a4 66 3e 97 2d 0a 3d 59 c6 4e 3d b0 a2 65 3c
       0.22523843 0.033734884 0.050482128 0.0140158385
000340 e8 be fd 3c da d0 cb 3d b5 3f 2d 3e 74 28 e1 bd
       0.03097482 0.09951945 0.16918834 -0.10994044
000350 8c a1 4a 3d 2b 34 9a 3c d1 dc 26 bd c2 91 86 3e
       0.04947047 0.018823704 -0.04073793 0.2628308
000360 a9 a3 b0 bb ad 02 b8 bd 4c 10 31 3d ad 49 f4 bc
       -0.0053906036 -0.08984885 0.043228433 -0.029820288
000370 00 70 d6 3d a5 bb cc 3d 82 43 8d 3d ca a4 c1 bc
       0.10470581 0.09996728 0.06897642 -0.023638148
000380 8a 70 38 bd ab c6 03 bc 50 2d b8 bc 6c e0 67 3d
       -0.0450292 -0.008042972 -0.022482544 0.05661051
000390 1e d6 98 3d 84 d2 84 bc 7d 2d eb 3d a8 d6 d3 3d
       0.074627146 -0.016213663 0.114832856 0.10343677
0003a0 af b6 31 bc 9f c0 1e 3e 8a 2f ca bc 2f c0 94 3c
       -0.010846778 0.15503167 -0.024680872 0.018158047
0003b0 e2 12 25 3b 98 bd e9 bc b7 64 8c be ae 45 e8 3b
       0.0025188257 -0.028532788 -0.2742059 0.0070883846
0003c0 9d bb de 3c 5d ff 81 3d 73 b3 95 3d ed d4 e2 3d
       0.02718907 0.06347535 0.07309618 0.110757686
0003d0 79 7a d8 bc 75 6d 4f 3d 11 98 05 3e 98 06 19 3e
       -0.026425587 0.050641496 0.1304629 0.14943922
0003e0 aa d1 23 bd 83 78 b4 3e b2 8f b6 bd 86 71 24 3e
       -0.039994873 0.35248193 -0.089141265 0.16058931
0003f0 bd e9 56 bd 12 e7 1a 3d 3e 33 b9 bc 5f 6e 27 3f
       -0.052469004 0.037818022 -0.022607442 0.6540279

log_std.bias f4 [6]
000000 57 b8 fc bf d2 9e ca bf aa 28 e4 bf 61 53 fe bf
       -1.9743756 -1.5829718 -1.782491 -1.9869195
000010 f9 ab e4 bf 37 21 e3 bf
       -1.7864982 -1.7744511
