trained_models/Walker2dNormal-v3/sero/actor_2.pt (torch, 296896 bytes, 8 tensors)

shared.0.weight f4 [256, 17]
0	0xbf865c77	-1.0496968
1	0xc03d4d0a	-2.957827
2	0xbe3a9461	-0.18220665
3	0x3eb63270	0.35585356
4	0xbb6bb366	-0.0035965084
5	0xbfbe3557	-1.4860028
6	0x3f867580	1.0504608
7	0x3efbc87a	0.4917639
8	0xbe7a9657	-0.24471413
9	0xbe0e9277	-0.1392306
10	0x3ca1e698	0.019763276
11	0xbd69c4fa	-0.057072617
12	0xbe2c12ff	-0.16804121
13	0xbdc7c633	-0.097546004
14	0xbcd43d9d	-0.025908286
15	0x3e789587	0.2427579
16	0x3d09c1aa	0.033631958
17	0xbf21563d	-0.63022214
18	0xbff0ff7a	-1.8827965
19	0xc021d252	-2.528462
20	0xbf0d7a2f	-0.5526456
21	0xbce6fe4b	-0.028197428
22	0x3fba87f5	1.4572741
23	0x3f89c134	1.0762086
24	0x3f18264a	0.59433424
25	0xbf095395	-0.5364316
26	0x3eb17aa6	0.34663886
27	0x3ea2763d	0.31730834
28	0xbeb76a9a	-0.35823518
29	0xbe258689	-0.16164602
30	0xbd24e56d	-0.04025786
31	0x3d9b0085	0.075684585
32	0x3ce340da	0.027740885
33	0xbb01b302	-0.0019790535
34	0xbf8d8f9f	-1.1059455
35	0x40d097ca	6.518529
36	0xbf0533ec	-0.5203235
37	0x3ddb9eae	0.10723625
38	0xbdd8e9b6	-0.10591452
39	0x3ebd2713	0.36943874
40	0x3e063b90	0.13108659
41	0x3d058ff4	0.032607988
42	0x3ee29b21	0.4425898
43	0xbe13d53d	-0.14436813
44	0x3ea03a10	0.31294298
45	0xbe442225	-0.1915365
46	0xbd9ff017	-0.078094654
47	0xbb76a08d	-0.0037632317
48	0xbca9bfbd	-0.02072131
49	0xbc2da7d8	-0.010599099
50	0xbb6773c9	-0.0035316816
51	0xbeeb089b	-0.45905003
52	0xbf6d7af8	-0.9276576
53	0x3fd58149	1.668008
54	0x3f76537f	0.96221155
55	0x3db55970	0.088549495
56	0x4011acd2	2.276173
57	0x3fbb9bd8	1.4656935
58	0x3ecbead7	0.39827606
59	0xbf8c48b5	-1.0959688
60	0x3f26e112	0.6518718
61	0x3ea30ac1	0.31844142
62	0xbda29119	-0.079378314
63	0xbe1d5bff	-0.15367125
64	0xbd99e6ad	-0.07514701
65	0xbe43f5c8	-0.19136727
66	0x3da03c6b	0.07824024
67	0x3dbc4299	0.0919239
68	0x3e48a2ba	0.19593325
69	0x3f376437	0.7163729
70	0x3ef753d2	0.48306137
71	0xbe44b53f	-0.19209765
72	0xbf62623a	-0.8843113
73	0x401e5039	2.4736464
74	0x3f946071	1.1591932
75	0xbe0ba5e6	-0.13637504
76	0xbc4ce089	-0.012504705
77	0xbed38f69	-0.4132035
78	0xbdc6d6bd	-0.09708927
79	0x3cb5154f	0.022104887
80	0x3e024869	0.12722935
81	0xbd6fac1b	-0.058513742
82	0x3d1e79d0	0.03869039
83	0x3d8a9bd6	0.067680046
84	0x3de3c916	0.111223385
85	0x3d904fe7	0.0704649
86	0x3f9dc68d	1.2326218
87	0xbf03a68c	-0.51426005
88	0x3f9829db	1.1887773
89	0x3f09e5f1	0.5386649
90	0x3dd8e532	0.105905905
91	0x3fb230b5	1.3921114
92	0xbe0a3925	-0.13498361
93	0x3da4a6db	0.08039638
94	0x3e48c4ad	0.19606276
95	0xbe1df053	-0.15423708
96	0x3bb2eaf5	0.005460138
97	0xbd283081	-0.041061882
98	0xbd92087a	-0.07130523
99	0x3e2ff6f4	0.17184049
100	0x3df77b40	0.12084055
101	0x3cf73cc6	0.030180346
102	0x3ea99352	0.3312021
103	0x3d18e96a	0.037331976
104	0xbf464489	-0.77448326
105	0xbe87992c	-0.26484048
106	0xbebae717	-0.36504433
107	0x4027aa9e	2.6197886
108	0x3f8c4b24	1.0960431
109	0x3da0424b	0.078251444
110	0xbf023804	-0.50866723
111	0x3e8465ec	0.2585901
112	0x3d9fc0ff	0.07800483
113	0x3ceab402	0.028650288
114	0x3de7faeb	0.11327156
115	0x3c9ccb08	0.019139782
116	0xbd497526	-0.049183987
117	0x3d71858e	0.05896526
118	0xbcffb348	-0.031213418
119	0xbf624e53	-0.88400763
120	0xbfc50697	-1.5392636
121	0x3b3fc8fe	0.0029264088
122	0xbd786deb	-0.0606517
123	0x3fbc6c4a	1.4720547
124	0x3ef6886b	0.48150954
125	0xbda2ada3	-0.07943275
126	0xbf4335d3	-0.76254004
127	0x3c71c9b3	0.0147575615
128	0xbcf8aa57	-0.030354662
129	0x3e386788	0.18008244
130	0xbe7fc211	-0.24976374
131	0xbdae54dc	-0.085122794
132	0xbd1612fa	-0.03663919
133	0xbd3ec49a	-0.046574213
134	0xbd080f87	-0.033217933
135	0xbda553ca	-0.08072622
136	0xbf61b290	-0.8816309
137	0x3eee4516	0.46537083
138	0xbff3b1ea	-1.903867
139	0x3cc779f9	0.024350153
140	0xbf1160db	-0.56788415
141	0xbfa3d8b5	-1.2800509
142	0xbf939bb8	-1.1531897
143	0x3e7b41e6	0.24536857
144	0xbf123bbd	-0.57122403
145	0xbda82b34	-0.08211365
146	0xbd990481	-0.07471562
147	0x3e328c4c	0.17436332
148	0x3dc33051	0.095307
149	0xbcd6c021	-0.026214661
150	0x3d61a5a9	0.055089626
151	0xbddfe062	-0.109314695
152	0x3cf59b83	0.02998138
153	0xbf1336d3	-0.5750553
154	0x3ee80d9a	0.45322877
155	0xbc14a4ae	-0.009072466
156	0x3f9e5ce0	1.2372093
157	0xbf7be939	-0.98402745
158	0xbede5e22	-0.43431193
159	0xbf9fe796	-1.249255
160	0x3f7e0a2c	0.9923427
161	0xbfd991ad	-1.6997582
162	0x3dbc087f	0.09181308
163	0xbd0d88fc	-0.034554467
164	0xbdaaf30b	-0.08347138
165	0xbd8a21ac	-0.06744704
166	0x3b9f17f4	0.0048551504
167	0x3d9847aa	0.07435544
168	0x3e30bf3b	0.17260449
169	0x3c052a0a	0.008127699
170	0xbf5a3977	-0.85243934
171	0xbf5a4480	-0.8526077
172	0x402ce517	2.7014825
173	0x3d914cba	0.070947126
174	0xbfca4a3c	-1.5803905
175	0xbcb6376e	-0.022243228
176	0xbf39dcd3	-0.72602576
177	0x3f03e1a5	0.5151618
178	0xbdbd1410	-0.09232342
179	0xbf0c4713	-0.5479595
180	0x3e24f1de	0.1610789
181	0x3de9156f	0.11381041
182	0x3d3b3076	0.045700513
183	0x3e2fb631	0.17159344
184	0xbe3de436	-0.18544087
185	0xbd85cc34	-0.06533089
186	0xbda728e9	-0.081621
187	0xbf2394f8	-0.63899183
188	0x402f84c7	2.742479
189	0xbf8f66a4	-1.1203198
190	0x3e0b9ac1	0.13633253
191	0x3ee434d3	0.44571552
192	0xbfb484c6	-1.4103019
193	0x3ef4716c	0.47742784
194	0x3eac3abe	0.33638567
195	0x3e3e032b	0.18555896
196	0xbd693cd8	-0.05694279
197	0xbd6e6a1f	-0.058206674
198	0xbd4f46ae	-0.050604515
199	0x3b4035da	0.0029328973
200	0x3c3c66f6	0.011499157
201	0x3db375ba	0.08762689
202	0x3d078269	0.033083353
203	0xbcd621b1	-0.026139112
204	0xbe2d8a2e	-0.16947243
205	0xbe007b60	-0.12547064
206	0x3f9b6e06	1.2142951
207	0x3f90fd4d	1.1327301
208	0x3ef6f93c	0.48237026
209	0xbffa9f82	-1.9579928
210	0xbf40784b	-0.7518355
211	0x3ec748ec	0.38922822
212	0xbedcbdd1	-0.43113568
213	0x3e8636b7	0.2621362
214	0x3eafbea9	0.3432515
215	0xbd60f85c	-0.054924354
216	0xbd3ab88b	-0.04558615
217	0x3b22184c	0.002473372
218	0xbe1d0e1d	-0.15337415
219	0x3d9621c3	0.07330658
220	0xbd166ed5	-0.03672679
221	0x3e9aaa3b	0.30208
222	0xbf95e980	-1.1711884
223	0x3dc745dc	0.097301215
224	0x3e43dc55	0.19127019
225	0xbe44f4fb	-0.19234078
226	0x3f9014f5	1.1256396
227	0x3eaea33b	0.3410891
228	0xbe830a70	-0.255939
229	0xbf817a90	-1.0115528
230	0x3f4b141f	0.7932758
231	0x3e86bd0c	0.26316106
232	0x3e249ca2	0.16075376
233	0x3e0c08a7	0.13675176
234	0x3d88d2d5	0.06680838
235	0xbe616705	-0.22011955
236	0xbd954896	-0.07289235
237	0x3d595efd	0.053069104
238	0xbefc8607	-0.49321005
239	0x3ffb87ff	1.9650878
240	0xbe907efc	-0.2822188
241	0xbdc0f734	-0.0942215
242	0xbe55fd6a	-0.20897451
243	0xbedfd2bc	-0.43715465
244	0x3dfdf9fe	0.12401198
245	0x3f26e7ea	0.6519762
246	0xbccd7350	-0.0250794
247	0x3e51d18b	0.2049009
248	0x3e3b54b0	0.18294024
249	0xbd65e524	-0.05612673
250	0xbd464798	-0.04840812
251	0x3d03bdb3	0.032163333
252	0x3e1ae4ac	0.15126294
253	0x3d455e1b	0.04818545
254	0xbb3090ee	-0.0026941854
255	0x3e00ced3	0.12578897

shared.0.bias f4 [256]
0	0xbf7a276f	-0.9771642
1	0xbd2bbe74	-0.041929677
2	0xbf26effa	-0.65209925
3	0xbed4c7c2	-0.41558653
4	0xbe415ec3	-0.18883805
5	0xbed92923	-0.42414197
6	0x3ecde7a6	0.40215796
7	0xbdc49b07	-0.095998816
8	0xbf7ee2a1	-0.9956456
9	0xbee15202	-0.4400788
10	0xbf194d25	-0.5988334
11	0xbf0b474b	-0.5440566
12	0xbee7d83f	-0.4528217
13	0x3e199bd3	0.15000848
14	0xbeaa2866	-0.33233947
15	0xbe810336	-0.25197762
16	0xbe98f1f4	-0.29872096
17	0xbfed5aad	-1.8543297
18	0xbf2af61c	-0.66781783
19	0xbe5ed199	-0.21759643
20	0xbfa7c5b7	-1.3107213
21	0xbf34ec48	-0.70673037
22	0xbf8c28ce	-1.0949953
23	0xbf06eeff	-0.5270843
24	0xbe716528	-0.23573744
25	0x3e67f473	0.22651844
26	0xbf79c08a	-0.97559416
27	0xbc08db32	-0.0083530415
28	0xbe4b86d3	-0.1987565
29	0xbf95d31f	-1.1705054
30	0xbeb3adcb	-0.3509353
31	0x3e12d3aa	0.14338556
32	0xbed32390	-0.4123807
33	0xbeea2171	-0.4572864
34	0xbe75d275	-0.24006064
35	0xbf3a6499	-0.7280975
36	0xbf18e7a8	-0.5972848
37	0xbec968fe	-0.39337915
38	0xbf31d36f	-0.6946325
39	0xbf0364cf	-0.51325697
40	0xbf50a32f	-0.81499
41	0x3d5a4bde	0.05329501
42	0xbf8d2b90	-1.1028919
43	0xbd53b7c2	-0.051688917
44	0xbee1f882	-0.4413491
45	0xbed623ee	-0.41824287
46	0xbf503015	-0.8132337
47	0xbdd8f62b	-0.10593828
48	0xbf4527da	-0.77013934
49	0xbf12f297	-0.5740141
50	0xbee4fbb3	-0.4472328
51	0xbeccd81b	-0.40008625
52	0xbe156606	-0.145897
53	0xbf78db84	-0.97209954
54	0xbec85ade	-0.39131826
55	0xbe8db442	-0.27676588
56	0xbfaa07fd	-1.3283688
57	0xbe82ead2	-0.2556978
58	0xbe9f186e	-0.31073326
59	0xbf291679	-0.66049916
60	0x3f5e1e5e	0.86765087
61	0xbe100246	-0.14063367
62	0xbeb6a4f9	-0.3567274
63	0xbed7c31a	-0.42141038
64	0xbfafa5a8	-1.3722429
65	0xbf317686	-0.6932148
66	0xbe58c50d	-0.21168919
67	0xb9799905	-0.00023803495
68	0xbefa03ba	-0.48830968
69	0xbe9bd8c0	-0.30438805
70	0xbf3961ef	-0.7241506
71	0xbf3c0268	-0.7344117
72	0xbe0a9792	-0.13534382
73	0x3d73305a	0.059372284
74	0xbf3f3dd4	-0.7470372
75	0xbe060642	-0.13088325
76	0xbf1ba38b	-0.6079642
77	0xbf398917	-0.7247481
78	0xbf1c73a4	-0.61113954
79	0xbe0bad8c	-0.13640422
80	0xbecf04a6	-0.40433234
81	0xbe8ff420	-0.2811594
82	0xbf9e65fd	-1.2374874
83	0xbf7a5075	-0.9777902
84	0xbf3cedfb	-0.7380063
85	0xbed608c6	-0.4180357
86	0xbe88caba	-0.26717168
87	0xbfa0eb1e	-1.2571752
88	0xbe126c05	-0.14299019
89	0xbf68d4bd	-0.9094961
90	0xbf10b3e9	-0.5652452
91	0xbea0c78b	-0.3140224
92	0xbf90ee43	-1.1322712
93	0xbea508e3	-0.32233343
94	0xbe74bcfa	-0.23900214
95	0xbf7a2fe1	-0.9772931
96	0xbea315a1	-0.3185244
97	0x3cabea10	0.020985633
98	0xbf1981b5	-0.5996354
99	0xbee6233e	-0.44948763
100	0xbece61d8	-0.40309024
101	0x3eca5ea8	0.39525342
102	0xbf8715a4	-1.0553479
103	0xbf3ca0c3	-0.736828
104	0xbef4ee0a	-0.4783786
105	0xbf17476d	-0.5909336
106	0xbf87f3d8	-1.062129
107	0xbeb2eedc	-0.3494786
108	0x3ed0102e	0.40637344
109	0xbf500982	-0.8126451
110	0xbed4ef13	-0.4158865
111	0xbf429c1d	-0.7601946
112	0xbf3f1665	-0.74643546
113	0xbe0e421c	-0.13892406
114	0xbf2d46ad	-0.6768597
115	0xbf5e0e29	-0.86740357
116	0xbf537729	-0.826037
117	0xbdbc8791	-0.09205545
118	0xbf5b32ac	-0.85624194
119	0xbf2adba4	-0.66741395
120	0xbe4b3d45	-0.19847591
121	0xbede4b44	-0.43416798
122	0xbe724bc9	-0.23661722
123	0xbed89b91	-0.42306188
124	0xbe3dd02d	-0.18536444
125	0xbefaf4f0	-0.49014997
126	0xbecab52f	-0.39591357
127	0xbebf9756	-0.37420148
128	0xbf759926	-0.9593681
129	0x3e2fe828	0.17178404
130	0xbf580889	-0.84388024
131	0xbf7d8790	-0.99034977
132	0xbf4bb441	-0.7957192
133	0xbf342164	-0.7036345
134	0xbea3163d	-0.31852904
135	0xbf14ec15	-0.5817273
136	0xbf89de9d	-1.0771061
137	0xbdcbf570	-0.09958923
138	0xbf0ab177	-0.5417704
139	0xbfaaa9f1	-1.3333112
140	0xbf5cb1c5	-0.86208755
141	0xbc25bba7	-0.010115541
142	0x3df9fb29	0.12206108
143	0xbf0cc36f	-0.5498571
144	0xbe2f7fa3	-0.17138533
145	0xbf71193d	-0.94179136
146	0xbf18456c	-0.5948093
147	0xbf2320d2	-0.63721955
148	0xbeacb198	-0.33729243
149	0xbecc5e2c	-0.39915597
150	0xbf1403f4	-0.5781853
151	0xbed85975	-0.4225575
152	0xbe8d2879	-0.2756994
153	0xbd5ca21f	-0.05386555
154	0x3f8634da	1.0484879
155	0x3dcc04f7	0.099618845
156	0xbf32d560	-0.69856834
157	0xbd060e81	-0.032728676
158	0xbe93e8c0	-0.28888512
159	0xbf6bd2b2	-0.9211837
160	0xbf476576	-0.7788919
161	0xbe643f29	-0.22289719
162	0x3e7c4f95	0.24639733
163	0xbf124bd6	-0.57146966
164	0xbf3cf8a3	-0.7381689
165	0xbf99582c	-1.1980033
166	0xbe93f869	-0.2890046
167	0xbd7ce7bf	-0.061744448
168	0xbd49e461	-0.049290065
169	0xbf3d3f26	-0.7392448
170	0xbdfaa8e4	-0.122392446
171	0xbf018919	-0.5059982
172	0xbf7b990c	-0.98280406
173	0xbf287a38	-0.6581149
174	0xbf6c0132	-0.92189324
175	0xbf057200	-0.52127075
176	0xbf256bee	-0.6461781
177	0xbeea07f2	-0.45709187
178	0xbfc878ce	-1.5661867
179	0x3dc96007	0.09832769
180	0xbe229273	-0.15876178
181	0xbf4a032e	-0.789111
182	0xbf6f708d	-0.93531114
183	0xbc93e9bf	-0.018055795
184	0x3dd93b60	0.10607028
185	0x3e8169f0	0.25276136
186	0xbea0f051	-0.31433347
187	0x3e4bfdd2	0.19921044
188	0xbf8bb2d7	-1.0913953
189	0xbeca6516	-0.39530247
190	0xbf3d2b05	-0.7389377
191	0xbf5e63bb	-0.86870927
192	0xbdde16e9	-0.108442135
193	0xbf65968d	-0.8968285
194	0xbefa0652	-0.48832947
195	0xbf60ea7e	-0.87857807
196	0xbd82e68a	-0.06391628
197	0xbf3123c6	-0.6919521
198	0xbfac2834	-1.3449769
199	0xbdbaf20c	-0.09128198
200	0xbedd9180	-0.4327507
201	0xbf42954a	-0.7600905
202	0xbe4b47cd	-0.19851609
203	0x3e77ff2d	0.24218436
204	0x3e049e52	0.1295102
205	0xbf6ccbc1	-0.92498404
206	0xbedea22a	-0.43483096
207	0xbf77a38d	-0.96733934
208	0xbf394eac	-0.7238567
209	0xbe1da3d0	-0.15394521
210	0xbfbe6380	-1.4874115
211	0xbf2c1356	-0.67217004
212	0x3e73f98a	0.2382566
213	0xbf6588c6	-0.89661825
214	0xbe80a190	-0.25123262
215	0xbf5fa758	-0.8736472
216	0xbeebc2ad	-0.46046963
217	0xbfa9e43f	-1.327278
218	0xbf9ddb8b	-1.2332624
219	0xbf762817	-0.9615492
220	0xbf48c6f8	-0.784286
221	0xbeae66b6	-0.34062737
222	0xbefc841e	-0.49319547
223	0xbdfe13ef	-0.12406146
224	0xbda2cf1d	-0.0794966
225	0xbf8daec8	-1.1068964
226	0x3c18ae8e	0.009318961
227	0xbeefc443	-0.46829423
228	0xbead0fc3	-0.33801088
229	0xbf53d91f	-0.82753175
230	0xbf5f50ca	-0.8723265
231	0xbe91e372	-0.2849384
232	0xbf6da7bb	-0.9283406
233	0xbe852556	-0.26005048
234	0xbe8ae1c2	-0.27125365
235	0xbf3743b7	-0.715877
236	0xbfbe20a3	-1.485371
237	0xbf29b68a	-0.6629416
238	0xbefb69b6	-0.4910409
239	0x3ec367e8	0.38165212
240	0xbfadd207	-1.357972
241	0xbf8c8363	-1.0977596
242	0xbf031c4e	-0.51215065
243	0x3dd1dafb	0.10246845
244	0xbf178731	-0.5919066
245	0xbdea8dad	-0.11452804
246	0xbe30ed8e	-0.1727812
247	0xbfb5b93e	-1.4197156
248	0xbf291cf4	-0.66059804
249	0xbf7427c1	-0.9537316
250	0x3e219532	0.1577957
251	0xbf53878b	-0.826287
252	0x3dfb7afe	0.12279318
253	0xbf97746a	-1.1832402
254	0xbebcb15c	-0.36854064
255	0xbf5ad742	-0.8548471

shared.3.weight f4 [256, 256]
0	0xbee66255	-0.44996896
1	0x3f2bd8de	0.6712779
2	0xbfbfb15b	-1.4976
3	0x3e1705f8	0.1474837
4	0x3e030282	0.12793925
5	0x3db62e4e	0.08895551
6	0xbeda5129	-0.42640045
7	0xbe41a4e1	-0.18910553
8	0xbe56a211	-0.20960261
9	0x3e2ff170	0.17181945
10	0x3e35861f	0.17726944
11	0x3f813b23	1.0096172
12	0xbea4f32d	-0.32216778
13	0x3e15f5e0	0.14644575
14	0xbd2b59af	-0.041833576
15	0xbd2ed8c1	-0.04268718
16	0xbdc9d5ac	-0.09855208
17	0xbe27c57e	-0.16383931
18	0x3ed19958	0.40937304
19	0xbed96cc8	-0.42465806
20	0xbefc6376	-0.49294633
21	0x3e840cf9	0.25791147
22	0xbe377b36	-0.17918095
23	0xbea7e5d5	-0.32792535
24	0xbdc4d9e1	-0.096118696
25	0x3e5d2a14	0.21598083
26	0x3e9e876c	0.30962694
27	0x3e7e2cb7	0.24821745
28	0x3f279172	0.65456307
29	0xbdcb82ad	-0.09937034
30	0x3de444ea	0.11145957
31	0xbe508865	-0.2036453
32	0xbe5bea84	-0.2147618
33	0x3eefe0c9	0.46851185
34	0x3d1681e1	0.036744956
35	0x3c4cce50	0.012500361
36	0xbe403472	-0.18770006
37	0x3e83ac6f	0.25717494
38	0x3dcd0373	0.100104235
39	0xbe124afc	-0.14286417
40	0xbf8669f5	-1.0501086
41	0x3c2bd9c3	0.01048893
42	0x3e04a6b4	0.12954217
43	0x3d6ba652	0.057531662
44	0x3e7e21cf	0.24817584
45	0x3d86f4b3	0.065896414
46	0xbe1bcef1	-0.1521566
47	0x3dd97f4c	0.10619983
48	0xbd59a094	-0.053131655
49	0xbe07b21c	-0.13251537
50	0xbe0d5ed6	-0.13805708
51	0xbd92be3b	-0.0716519
52	0x3e1c7c51	0.15281798
53	0xbe490675	-0.1963137
54	0x3dea6ddf	0.114467375
55	0xba6dc79b	-0.0009070576
56	0xbf3c546c	-0.7356632
57	0x3d879eb9	0.06622071
58	0x3e81de4e	0.25364918
59	0x3e210475	0.15724356
60	0x3cfd940a	0.03095438
61	0x3eb0aadc	0.34505355
62	0xbd909e6b	-0.07061466
63	0x3ed2ff67	0.41210482
64	0x3dbbe69d	0.09174845
65	0x3e3b6528	0.18300307
66	0xbe72d695	-0.23714669
67	0x3e2297f3	0.15878277
68	0xbeb7dfcf	-0.3591294
69	0x3e6ee785	0.23330505
70	0xbe2d55a4	-0.169272
71	0x3d59a38c	0.053134486
72	0x3e8d1dbc	0.27561748
73	0x3e739995	0.23789056
74	0xbb3b4ff2	-0.0028581587
75	0xbeaab5d1	-0.3334184
76	0x3ef8e6a8	0.48613477
77	0xbe052b79	-0.13004865
78	0xbe8066a0	-0.25078297
79	0xbe9a6891	-0.30157903
80	0xbe938b96	-0.28817433
81	0x3e0dd6f3	0.13851528
82	0xbd965963	-0.07341268
83	0xbf1ab9cb	-0.6043975
84	0xbf02e000	-0.51123047
85	0x3e046f36	0.12933049
86	0x3e907d24	0.28220475
87	0x3df3da52	0.11906876
88	0xbddcb7a7	-0.107772164
89	0xbf1102ef	-0.566451
90	0x3e1c68ab	0.15274303
91	0xb923fab4	-0.00015638286
92	0x3efe0cc6	0.4961912
93	0x3e92ed6c	0.28696764
94	0x3ea384dd	0.31937304
95	0xbfd2d8c3	-1.64724
96	0x3e145ed6	0.14489302
97	0x3e036898	0.12832868
98	0x3e094441	0.13404943
99	0xbf5b50ef	-0.8567037
100	0xbeca1fc7	-0.3947737
101	0x3cea24a8	0.028581932
102	0xbc3435cd	-0.010999155
103	0xbde6fe21	-0.1127894
104	0xbc099934	-0.008398343
105	0xbe9bf26c	-0.3045839
106	0xbe3cd74c	-0.18441504
107	0x3f172c3f	0.5905189
108	0xbdb11a9e	-0.08647655
109	0x3dc2ee1e	0.095180735
110	0x3ec64cd0	0.38730478
111	0xbee14c5e	-0.44003576
112	0x3e6787c8	0.2261039
113	0x3cc7fed2	0.0244135
114	0xbf4a15f3	-0.7893974
115	0xbd2e4f25	-0.042555947
116	0xbe788cfa	-0.24272528
117	0xbd5d8950	-0.05408603
118	0x3e9be369	0.30446938
119	0x3e79cc9f	0.24394463
120	0xbe076949	-0.13223757
121	0xbec4374b	-0.38323435
122	0xbdb1f5fc	-0.08689496
123	0xbf828260	-1.0196037
124	0x3da60de8	0.08108121
125	0x3e57d9ee	0.21079227
126	0xbe2a0f87	-0.16607486
127	0xbcfe1599	-0.031016158
128	0xbe196938	-0.14981544
129	0x3e1a706a	0.15081945
130	0xbe632be6	-0.22184715
131	0xbf070383	-0.52739733
132	0xbe7c08d4	-0.24612743
133	0xbe906c43	-0.28207597
134	0xbf05d521	-0.52278334
135	0xbd859160	-0.06521869
136	0x3e45d871	0.19320847
137	0xbe1bfc59	-0.15232982
138	0x3e2af64f	0.16695522
139	0xbff17fbf	-1.886711
140	0xbf17cf20	-0.5930042
141	0x3ceed2dc	0.02915328
142	0x3ceaa9ec	0.028645478
143	0xbf989339	-1.1919929
144	0xbe990d36	-0.29892892
145	0xbe2c92e8	-0.16852915
146	0x3d87bbc0	0.06627607
147	0x3eaa05d2	0.33207566
148	0x3e5f4720	0.21804476
149	0xbed0fd48	-0.40818238
150	0xbd4f9dde	-0.050687663
151	0x3e33bfb2	0.17553595
152	0x3d72e7b0	0.059302986
153	0x3d8a74fe	0.06760596
154	0xbe1889fa	-0.14896384
155	0xbf10428c	-0.5635154
156	0xbf03d33b	-0.5149419
157	0xbe89dd84	-0.26926816
158	0x3cebd2c5	0.028787026
159	0x3e8b5d96	0.27219838
160	0x3e2a1518	0.16609609
161	0x3c40512d	0.011738104
162	0x3e41d532	0.18928984
163	0x3dd078c2	0.10179283
164	0x3d4380a5	0.047730107
165	0xbe15e44b	-0.14637868
166	0x3ac7ff96	0.0015258666
167	0xbef7437b	-0.4829367
168	0x3e45fc3e	0.19334504
169	0x3f300345	0.6875499
170	0x3e1045d3	0.14089136
171	0xbd954883	-0.07289221
172	0xbe3da700	-0.18520737
173	0x3eb7cfcb	0.3590072
174	0x3e7da180	0.24768639
175	0x3d948cc7	0.07253414
176	0xbdd876cc	-0.10569534
177	0xbe8185fc	-0.25297534
178	0xbf94d673	-1.1627945
179	0x3df81c47	0.121147685
180	0x3df33145	0.11874632
181	0xbc14da09	-0.009085187
182	0x3e03ad27	0.12859021
183	0x3bf35446	0.0074258177
184	0x3d3d6a3d	0.046243895
185	0x3eda6533	0.42655334
186	0x3ed5e584	0.4177667
187	0xbc2d2d01	-0.010569812
188	0xbf156e00	-0.5837097
189	0x3e318a82	0.17337993
190	0xbe83f9f7	-0.25776646
191	0x3d1d8818	0.038459867
192	0xbcfeb26b	-0.031090936
193	0xbea7f794	-0.32806075
194	0xbe1f9b36	-0.15586552
195	0xbeabf39c	-0.33584297
196	0x3eaf6725	0.3425838
197	0xbd97b7f3	-0.074081324
198	0xbefde1e2	-0.49586397
199	0xbe3afeaa	-0.18261209
200	0x3e8e7c3b	0.27829155
201	0xbf2e0f11	-0.6799174
202	0x3d71be5d	0.059019435
203	0xbb8155ee	-0.003947011
204	0x3f0e8255	0.5566762
205	0x3e09ac49	0.13444628
206	0xbea43f81	-0.320797
207	0xbe474f35	-0.19463809
208	0xbf30538e	-0.68877494
209	0x3dcb0536	0.09913103
210	0xbfc78047	-1.5586022
211	0xbe6c678a	-0.23086372
212	0x3d1e5e28	0.038664013
213	0xbeaafd72	-0.33396488
214	0x3e299103	0.16559224
215	0xbefcdde3	-0.49388036
216	0xbe3a57c2	-0.1819754
217	0x3ee2a799	0.44268492
218	0xbeec5da0	-0.4616518
219	0xbd257a0b	-0.040399592
220	0xbf12ac95	-0.5729459
221	0xbf0b3805	-0.54382354
222	0x3d8fda31	0.070240386
223	0x3eb6a4b9	0.35672548
224	0xbd6e92df	-0.058245536
225	0xbe23dd1b	-0.16002314
226	0x3eba18f8	0.36347175
227	0x3e83572a	0.25652438
228	0xbcb0bb98	-0.021573827
229	0x3dcf74a5	0.1012967
230	0x3d57a037	0.052643027
231	0xbdfd228a	-0.123601034
232	0x3cd67a3e	0.026181336
233	0x3ce956b1	0.02848372
234	0xbdea89b7	-0.11452048
235	0x3d7d38a2	0.061821587
236	0xbe124fc9	-0.14288248
237	0xbe4ee9f8	-0.2020644
238	0x3d88155d	0.066447
239	0xbd812550	-0.06305945
240	0xbf084f92	-0.53246415
241	0x3f06b126	0.5261406
242	0xbe5d46cc	-0.21609038
243	0x3e0758a4	0.13217407
244	0xbde44f9a	-0.11147995
245	0xbd2551c8	-0.040361196
246	0xbd6abadd	-0.057307113
247	0xbec7149d	-0.38882914
248	0xbdc2f744	-0.095198184
249	0xbf41f770	-0.75768185
250	0x3ed32298	0.4123733
251	0x3e8dc0e7	0.27686235
252	0x3e528754	0.20559436
253	0x3ee541f0	0.4477687
254	0xbf9d89f5	-1.2307726
255	0xbbded09e	-0.0067997715

shared.3.bias f4 [256]
0	0xbf8d80eb	-1.1054968
1	0xbe2c4314	-0.16822463
2	0x3ec3f230	0.38270712
3	0xbe4bbd72	-0.19896486
4	0x3edee112	0.4353109
5	0xbee2b24e	-0.4427666
6	0xbf26ad7e	-0.6510848
7	0xbdcd7691	-0.1003238
8	0xbe9c745e	-0.3055753
9	0xbf978a8b	-1.1839155
10	0xbf28f95b	-0.66005486
11	0xbf254009	-0.64550835
12	0x3f308fbb	0.68969315
13	0xbe4a218c	-0.1973936
14	0x3d3e8777	0.046515908
15	0xbf0e9634	-0.5569794
16	0xbd456b52	-0.04819805
17	0xbe8c294e	-0.27375263
18	0xbfbabfda	-1.4589798
19	0xbf13fe34	-0.5780976
20	0x3cf5ec9c	0.03002005
21	0xbf4224fb	-0.7583768
22	0xbdce60e5	-0.10077075
23	0x3d7a26f5	0.06107231
24	0xbe04faed	-0.12986346
25	0xbcade604	-0.021227844
26	0x3daed2f7	0.08536332
27	0x3e5a6f8e	0.21331617
28	0x3ef19dfc	0.47190845
29	0x3f0a73d0	0.54082966
30	0x3ed6b61c	0.41935813
31	0x3ea36b6f	0.31917903
32	0x3f01f940	0.5077095
33	0xbf7522b5	-0.95756084
34	0x3ece3c65	0.40280452
35	0x3e68b0fb	0.22723763
36	0x3f0653d2	0.5247165
37	0xbf0e7e63	-0.556616
38	0xbed3a01d	-0.41333094
39	0xbdf1d40e	-0.11808024
40	0x3f07187d	0.5277174
41	0x3dc49f52	0.096007004
42	0x3e026f58	0.12737787
43	0x3e28a914	0.16470748
44	0xbe643165	-0.22284468
45	0x3efe6194	0.4968382
46	0xbed62a47	-0.4182913
47	0xbe6c5924	-0.2308088
48	0xbfb7a9a1	-1.4348642
49	0x3eb631d7	0.355849
50	0x3d19a06c	0.037506506
51	0x3dbdf747	0.0927568
52	0xbe26c61b	-0.16286509
53	0x3d7cceac	0.061720535
54	0xbe384ad6	-0.17997298
55	0x3eb94a7e	0.36189646
56	0x3ed7b110	0.42127275
57	0xbeca2555	-0.39481607
58	0x3d1f6748	0.038916856
59	0x3edee5c6	0.43534678
60	0x3d12c3e0	0.035831332
61	0x3e8cbf77	0.27489826
62	0x3e9f64c7	0.31131575
63	0x3edc2189	0.42994335
64	0x3e17049c	0.14747852
65	0xbf2cee81	-0.6755143
66	0xbe17d1cd	-0.14826126
67	0xbe7125d1	-0.23549582
68	0x3c5afde7	0.013366199
69	0x3d849dad	0.06475387
70	0xbde96faa	-0.11398251
71	0x3db40036	0.08789103
72	0xbf6e17f5	-0.93005306
73	0xbf7194c3	-0.9436762
74	0xbead784b	-0.3388084
75	0x3eeab226	0.4583904
76	0x3f44f0c7	0.769299
77	0x3f0c2203	0.547394
78	0x39bebbb4	0.00036379474
79	0xbf7a599f	-0.97793
80	0x3c86d930	0.016460985
81	0xbecbdd8f	-0.39817473
82	0x3edaf166	0.42762297
83	0xbde72145	-0.112856425
84	0x3e68bd7d	0.22728534
85	0x3de8c884	0.1136637
86	0xbce46bd0	-0.02788344
87	0xbcc61655	-0.02418057
88	0xbf019c0d	-0.5062874
89	0x3f0e790d	0.5565346
90	0xbe06d424	-0.13166863
91	0xbf2d9062	-0.67798436
92	0xbf725a84	-0.94669366
93	0x3ece43c5	0.4028608
94	0xbe41786f	-0.18893598
95	0x3e59db3d	0.21275039
96	0x3e22eba0	0.15910196
97	0xbea1a33e	-0.31569856
98	0xbf0a79df	-0.5409221
99	0x3df78246	0.120853946
100	0xbe1858d1	-0.14877631
101	0x3f0ed8ec	0.55799747
102	0x3e3c7689	0.18404593
103	0xbecd440f	-0.40090987
104	0x3e7db1a1	0.24774791
105	0x3ee21e40	0.44163704
106	0xbe5b1557	-0.21394859
107	0x3d82ff4f	0.063963525
108	0x3c989e57	0.01863019
109	0xbdad689e	-0.0846722
110	0x3e5841e8	0.21118891
111	0x3dad1854	0.08451906
112	0xbe8ac06b	-0.27099928
113	0xbd1d1b0e	-0.03835588
114	0x3e8550c9	0.26038197
115	0xbf63d5f1	-0.88998324
116	0xbf406876	-0.75159395
117	0x3e5c980a	0.21542373
118	0x3dbc3f83	0.091918014
119	0x3e568860	0.2095046
120	0x3e98e50e	0.29862255
121	0x3c52ed62	0.012873979
122	0xbf3705f0	-0.71493435
123	0xbe21420a	-0.15747848
124	0x3ec16a7b	0.3777655
125	0xbf4e1317	-0.8049788
126	0xbced9638	-0.029002294
127	0xbf110641	-0.5665017
128	0x3e39abc3	0.18131928
129	0x3eda8bb2	0.42684704
130	0xbe43292f	-0.19058679
131	0xbf2141cd	-0.6299103
132	0x3e0be9d5	0.13663419
133	0x3e3ec69f	0.18630455
134	0xbe1f2bac	-0.15544003
135	0x3e9bd870	0.30438566
136	0x3e4cacd4	0.19987804
137	0x3eb476a1	0.35246757
138	0xbeb246c0	-0.34819603
139	0xbe062b4f	-0.13102458
140	0xbf720bf1	-0.9454947
141	0x3d265ad0	0.04061395
142	0x3e8a0b40	0.26961708
143	0x3f04d13f	0.51881784
144	0x3db5601f	0.08856224
145	0xbf06cf5e	-0.5266017
146	0xbee36101	-0.44409946
147	0x3f199fff	0.6000976
148	0x3e81daad	0.2536215
149	0xbe65081e	-0.22366378
150	0xbe0d4af5	-0.13798125
151	0xbee4a101	-0.44654086
152	0x3e325c77	0.17418085
153	0x3e06515c	0.13116974
154	0xbeb9b63e	-0.36271852
155	0xbcf182cd	-0.029481316
156	0xbf25991e	-0.64686763
157	0xbd784953	-0.060616802
158	0xbd06a032	-0.032867618
159	0xbf666dc4	-0.9001124
160	0xbe030bb4	-0.12797433
161	0x3e4f8a32	0.20267561
162	0xbea18866	-0.31549376
163	0x3ea109ae	0.31452698
164	0xbd3f8e02	-0.04676629
165	0xbe48fa02	-0.1962662
166	0x3e996ead	0.2996725
167	0xbf27bba6	-0.65520704
168	0x3e931fe3	0.28735265
169	0xbdce8f7b	-0.100859605
170	0x3d709a1f	0.05874073
171	0x3d86e227	0.06586104
172	0xbd6da770	-0.05802101
173	0x3eef2399	0.46706846
174	0x3db15167	0.086581044
175	0x3e87a490	0.2649274
176	0x3cecc8a7	0.028904272
177	0x3e709985	0.23496063
178	0x3e6d0aba	0.23148623
179	0x3ef155aa	0.4713567
180	0xbfcea68e	-1.6144578
181	0xbf74aa00	-0.955719
182	0x3c50ee53	0.012752133
183	0xbed9fe4a	-0.4257682
184	0xbec7ebd9	-0.39047125
185	0x3ec7e902	0.39044958
186	0xbe15d0f6	-0.14630494
187	0x3ecc9429	0.39956787
188	0x3cfdb958	0.030972168
189	0x3ec264c3	0.379675
190	0xbdd71af3	-0.10503187
191	0xbfb5a2c3	-1.4190296
192	0x3ebdb139	0.37049273
193	0xbe138018	-0.14404333
194	0x3e2a5a87	0.16636096
195	0xbf49eed5	-0.78880054
196	0xbed1d56c	-0.4098314
197	0x3e91f4eb	0.2850717
198	0x3ec9cb1c	0.39412773
199	0x3e870da6	0.263776
200	0xbf4bdd41	-0.7963448
201	0xbeb427dc	-0.3518666
202	0x3d6c790f	0.057732638
203	0xbf57a1bc	-0.8423116
204	0xbd9f0a47	-0.07765632
205	0x3eeb7422	0.4598704
206	0x3edc6512	0.4304586
207	0x3e944543	0.28959092
208	0x3e8621a6	0.26197547
209	0xbf4a0351	-0.7891131
210	0x3e915cd2	0.2839113
211	0xbfa9771f	-1.3239478
212	0x3edb29c8	0.42805314
213	0x3f1f6c38	0.62274504
214	0xbf56c4f3	-0.8389427
215	0xbea7f209	-0.32801846
216	0x3eca308c	0.39490163
217	0xbe73db8c	-0.23814219
218	0xbe2235fb	-0.15840904
219	0xbef2e28f	-0.47438475
220	0xbda5d4dd	-0.08097241
221	0xbf739dee	-0.95162857
222	0xbe3b2dde	-0.18279216
223	0xbd4ec0b4	-0.050476745
224	0x3efac559	0.4897869
225	0xbe3f3636	-0.18673024
226	0xbe24544f	-0.16047786
227	0xbee5c6bf	-0.44878194
228	0x3d2f7bc4	0.04284264
229	0x3ea65add	0.32491198
230	0xbdd61769	-0.10453684
231	0x3ef9d8cc	0.48798215
232	0x3e2cb0c7	0.1686431
233	0x3e25703f	0.161561
234	0x3f06fb74	0.52727437
235	0x3e54300e	0.20721456
236	0xbf4d8f40	-0.8029671
237	0xbffaf94f	-1.9607333
238	0x3d8b666a	0.06806643
239	0xbf69d3d5	-0.91338855
240	0x3e41b16e	0.1891534
241	0xbf1b016a	-0.6054903
242	0xbe3f2faf	-0.18670534
243	0xbcbfaad8	-0.023396894
244	0x3dcc1fc6	0.09966998
245	0xbdc48b63	-0.095968984
246	0x3ed07208	0.40712
247	0xbf2e2ec6	-0.6804012
248	0xbcf45a15	-0.02982811
249	0xbe606e7f	-0.21917151
250	0xbfce8d86	-1.613694
251	0x3ef314d8	0.4747684
252	0x3dfd8d67	0.12380486
253	0xbdf4cd12	-0.119531766
254	0xbdb39a6b	-0.08769687
255	0x3efc3329	0.49257782

mean.weight f4 [6, 256]
0	0x3dd8b383	0.10581114
1	0x3e8d7084	0.27624905
2	0xbe1bca60	-0.15213919
3	0xbc7e9724	-0.015538964
4	0xbd96f0d6	-0.073701546
5	0x3e0be572	0.13661745
6	0x3d5e272f	0.054236587
7	0x3cd8cbc7	0.026464356
8	0xbc0a3859	-0.008436286
9	0x3e17191c	0.14755672
10	0x3d2688bd	0.040657748
11	0x3daf8dd9	0.08571977
12	0x3d859cc9	0.06524045
13	0x3cefa0c7	0.02925147
14	0x3df4a892	0.11946215
15	0x3d876026	0.06610136
16	0x400cc0b6	2.1992621
17	0x3e681dd0	0.22667623
18	0xbdd387e5	-0.10328654
19	0xbda20944	-0.079119235
20	0x3e172652	0.14760712
21	0x3e5f447a	0.21803465
22	0xbd86ebfa	-0.06587978
23	0x3ec7779f	0.3895845
24	0x3d19f9b0	0.037591636
25	0xbc134ab5	-0.0089899795
26	0x3c94d6a0	0.018168747
27	0xbd1a2292	-0.037630625
28	0xbe3c31bb	-0.18378346
29	0x3dce24af	0.100655906
30	0xbd9a899c	-0.07545778
31	0x3e55b10e	0.20868322
32	0xbcae76eb	-0.021296939
33	0xbdb8beb6	-0.0902075
34	0x3e5c67ad	0.21523924
35	0xbd9f7cee	-0.077875
36	0x3ee3567c	0.4440192
37	0x3ce5a0b2	0.028030727
38	0xbda4ff34	-0.08056489
39	0xbcf288b0	-0.029606193
40	0xbed64971	-0.41852906
41	0xbdc4a585	-0.09601883
42	0x3ec3c627	0.38237116
43	0x3da36554	0.07978311
44	0xbf27d571	-0.6556006
45	0x3e51ce1f	0.20488785
46	0xbe14f416	-0.14546236
47	0x3c29fa54	0.010374624
48	0x3e851566	0.25992888
49	0xbe33e8d5	-0.17569287
50	0x3c45c118	0.012069963
51	0x3d5f7898	0.054558367
52	0xbcb2b222	-0.021813456
53	0x3d0aea35	0.033914763
54	0x3e20059b	0.15627138
55	0xbd151c47	-0.03640392
56	0xbe01742e	-0.12641975
57	0xbd1c56f6	-0.03816887
58	0x3d9da4c8	0.07697445
59	0xbedd3851	-0.43207029
60	0xbddd1a16	-0.10795991
61	0x3c877335	0.016534427
62	0x3b387824	0.0028147781
63	0xbe03ce73	-0.12871723
64	0x3e8675ae	0.26261657
65	0xbd816e38	-0.06319851
66	0x3de3add5	0.1111714
67	0x3b396e24	0.0028294409
68	0xbe51b829	-0.20480408
69	0x3d4bf36e	0.0497927
70	0x3d1e5696	0.038656794
71	0xbd97e02e	-0.07415806
72	0x3ef9bcd8	0.4877689
73	0xbdc9a733	-0.09846344
74	0x3e2e7525	0.17036875
75	0x3e5b463d	0.21413513
76	0xbe7d58f1	-0.2474096
77	0xbe9be80e	-0.3045048
78	0x3d86f862	0.06590344
79	0x3e1eac95	0.15495522
80	0x3d18c046	0.03729274
81	0x3c2ac287	0.0104223555
82	0xbe6a1970	-0.22861266
83	0xbeb9cc3d	-0.36288634
84	0xbcf7877b	-0.03021597
85	0x3ddb6244	0.10712102
86	0xbe4dc9e5	-0.20096548
87	0xbded7eb4	-0.11596432
88	0xbeace18b	-0.33765826
89	0xbec11ee9	-0.37718895
90	0xbd03a990	-0.03214413
91	0xbe5eb104	-0.21747214
92	0x3ed96e6b	0.42467055
93	0xbe5da4f9	-0.21644963
94	0xbdbe9e7d	-0.09307573
95	0x3e7412a9	0.23835243
96	0x3e084db0	0.13310885
97	0xbe160792	-0.14651325
98	0xbe26c1c7	-0.16284858
99	0x3ca4adad	0.020102346
100	0xbc9c9e96	-0.019118588
101	0x3e02587b	0.12729065
102	0xbe673f39	-0.22582711
103	0x3f4249c2	0.75893795
104	0xbe0e12e4	-0.13874394
105	0x3e60cd11	0.21953227
106	0x3d07e3cd	0.033176232
107	0x3c2189c9	0.009859511
108	0x3dc5cade	0.096578345
109	0xbe7fc0f8	-0.24975955
110	0xbca2f91d	-0.019894177
111	0xbc325bd1	-0.010886149
112	0xbbdda2b1	-0.006763779
113	0x3cc30348	0.023805276
114	0x3d80668b	0.062695585
115	0x3d488024	0.04895033
116	0x3f4a3c25	0.78998023
117	0xbda6542a	-0.08121522
118	0x3e1611ab	0.14655177
119	0x3ef51504	0.47867596
120	0x3d01003d	0.031494368
121	0x3f97a06f	1.1845835
122	0xbe3df99c	-0.1855225
123	0xbd89977e	-0.06718348
124	0x3d48eefd	0.049056042
125	0xbc44c88f	-0.0120107075
126	0x3c3241f1	0.0108799795
127	0xc010fdc9	-2.2654898
128	0x3e1b06a0	0.15139246
129	0xbb82b6cd	-0.0039890767
130	0x3dc19659	0.09452505
131	0xbd9b10d2	-0.075715676
132	0xbe13f820	-0.14450121
133	0x3dadc056	0.08483951
134	0x3e3d0bec	0.18461579
135	0xbe32b298	-0.1745094
136	0x3d126767	0.035743143
137	0xbe9d0431	-0.3066726
138	0xbcd7c07f	-0.026336906
139	0x3d7f9ca2	0.062405236
140	0x3dc259fe	0.09489821
141	0xbeec8e7e	-0.46202463
142	0x3e6f941f	0.23396347
143	0xbe78b611	-0.24288203
144	0xbe186e87	-0.14885913
145	0x3f4bccf8	0.7960963
146	0xbe351bc2	-0.1768637
147	0xbea15347	-0.31508848
148	0x3cbac47f	0.022798775
149	0xbe6356c0	-0.22201061
150	0x3e50f9f2	0.20407847
151	0x3c6ab771	0.014325962
152	0xbe8bde7d	-0.27318183
153	0x3f0420ed	0.5161274
154	0xbde588ae	-0.1120771
155	0xbc54a110	-0.012977853
156	0x3f7fc500	0.99909973
157	0x3ddfbdbd	0.109248616
158	0x3c17b65b	0.0092597855
159	0xbe046ed4	-0.12932903
160	0x3c15b30d	0.009136927
161	0x3d34720e	0.044054084
162	0xbd447e90	-0.047972262
163	0x3ee56a01	0.44807437
164	0xbd31c0ea	-0.043396868
165	0xbea6b028	-0.32556272
166	0xbe1e66a5	-0.15468843
167	0x3d184a09	0.03717998
168	0x3e204a00	0.15653229
169	0xbdac9393	-0.08426585
170	0x3dcf7856	0.10130374
171	0x3c51c33f	0.012802898
172	0xbd0f7cf7	-0.035031285
173	0x3eab38f9	0.33441904
174	0x3ea480b0	0.3212943
175	0xbee05dd0	-0.43821573
176	0x3dd3fea9	0.10351307
177	0x3e9221f7	0.28541538
178	0xbe48884d	-0.19583245
179	0xbc4a5365	-0.012348984
180	0x3ed3530a	0.4127429
181	0x3e01c979	0.12674512
182	0x3d58c345	0.0529206
183	0x3d554ebe	0.052077048
184	0x3e0d5e41	0.13805486
185	0x3d249f93	0.040191244
186	0xbc8a6399	-0.016893195
187	0x3d0c3ca0	0.034237504
188	0xbca26c1c	-0.019826941
189	0xbcaa5a2f	-0.020794956
190	0x3dc50c01	0.0962143
191	0x3c87c88d	0.016575122
192	0xbeb8ba32	-0.36079556
193	0xbe5c80a5	-0.21533449
194	0xbdf9c3a3	-0.12195518
195	0x3e5646f8	0.2092551
196	0xbfcd9f05	-1.6064154
197	0xbeaafc72	-0.33395725
198	0x3e315029	0.17315735
199	0x3d2778c1	0.040886644
200	0xbe601a05	-0.21884926
201	0xbd74603e	-0.059662096
202	0x3e18ace1	0.14909698
203	0x3f023c9c	0.5087373
204	0xbd534f7a	-0.051589467
205	0x3e71ef96	0.23626551
206	0xbcb86fb2	-0.022514198
207	0xbdafd329	-0.085851975
208	0x3e195eb3	0.14977531
209	0x3f005c08	0.5014043
210	0xbdf37f43	-0.118895076
211	0xbe9b5a33	-0.30342254
212	0x3e1401d1	0.14453818
213	0x3e331bec	0.1749112
214	0x3d5608cd	0.052254487
215	0x3d9e4277	0.07727521
216	0xbb88bfdf	-0.0041732634
217	0x3e79b9c8	0.24387276
218	0xbf47b0c9	-0.7800413
219	0x3e3ffe41	0.18749334
220	0xbf0aaa48	-0.5416608
221	0xbd663672	-0.056204267
222	0xbe229b44	-0.15879542
223	0xbe1fb87e	-0.15597722
224	0x3df5508c	0.11978254
225	0x3ce2466b	0.027621469
226	0xbe33b285	-0.17548569
227	0x3efe11a9	0.4962285
228	0xbdfec019	-0.124389835
229	0xbe79d69b	-0.24398272
230	0xbdb189fc	-0.086688966
231	0x3e0f2c87	0.1398183
232	0xbe216f7e	-0.15765187
233	0x3d2fb182	0.042893894
234	0xbe864e31	-0.2623153
235	0x3d0efb8a	0.034907855
236	0xbe4bbad6	-0.19895491
237	0xbed124f4	-0.40848505
238	0x3dcfeb6c	0.10152325
239	0xbe3d178d	-0.18466015
240	0x3eb1720c	0.34657323
241	0x3e5138b5	0.20431788
242	0xbe092471	-0.13392808
243	0x3ee52736	0.44756478
244	0x3dd9b7fc	0.10630795
245	0x3ec5e401	0.38650516
246	0xbd9df1e8	-0.077121556
247	0x3e14a3dd	0.14515634
248	0x3dda8e11	0.10671628
249	0x3e1eefe9	0.15521206
250	0xbeac1309	-0.33608273
251	0xbe124aa5	-0.14286287
252	0x3db404d8	0.08789986
253	0x3fa45ada	1.2840226
254	0x3e0cc9f6	0.13748917
255	0x3d50f8b5	0.051018436

mean.bias f4 [6]
0	0xbc19ee5b	-0.009395207
1	0x3f004a43	0.50113314
2	0x3def7227	0.11691695
3	0xbe048b34	-0.12943727
4	0x3e21df32	0.15807799
5	0x3ec3dc33	0.38253936

log_std.weight f4 [6, 256]
0	0xbcea4172	-0.02859566
1	0x3e1508ef	0.14554189
2	0xbc304f72	-0.010761129
3	0x3c1d48fa	0.0095999185
4	0x3d37661e	0.04477512
5	0xbe1b29d5	-0.15152676
6	0x3de09494	0.10965839
7	0x3d8db3c6	0.06919055
8	0xbc537576	-0.012906423
9	0x3d95595e	0.07292436
10	0xbd919f47	-0.07110458
11	0x3bf1ccde	0.0073791584
12	0x3b94b70a	0.0045384215
13	0x3abbded6	0.0014333378
14	0x3d47409d	0.048645604
15	0xbd8264bc	-0.0636687
16	0x3e7c0fa4	0.24615341
17	0x3d529186	0.051408313
18	0x3c03161f	0.00800088
19	0x3c9ebf30	0.019378275
20	0xbb14e83d	-0.0022721433
21	0x3e3801ed	0.17969485
22	0xbc52e548	-0.012872048
23	0x3e636336	0.22205815
24	0x3c72100c	0.014774334
25	0xbc5c5bfe	-0.013449667
26	0xbd4983fd	-0.04919814
27	0xbb7b4c12	-0.0038344902
28	0x3d9937d7	0.07481354
29	0x3d76ec7d	0.060284127
30	0x3c6cc74a	0.014451811
31	0x3e14592b	0.1448714
32	0x3c677fd5	0.014129599
33	0x3da0b27d	0.07846544
34	0x3e5bf6cd	0.21480866
35	0xbc7fb54f	-0.015607192
36	0xbdb24e81	-0.0870638
37	0x3d0d3ed2	0.03448374
38	0x3d4c8965	0.049935717
39	0xbd28c8c9	-0.04120711
40	0xbb3e6d9c	-0.0029057031
41	0x3c749cb3	0.014929938
42	0x3dd8bea3	0.10583236
43	0x3d80b41c	0.06284353
44	0x3eaf9161	0.34290603
45	0xbd475d1f	-0.04867279
46	0xbc087bf7	-0.008330337
47	0x3b65add6	0.0035046241
48	0x3e523cbe	0.20530984
49	0x3b5943ba	0.003315194
50	0xbcfb1d57	-0.030653639
51	0x3d0386eb	0.03211109
52	0xbc91ae74	-0.017783381
53	0xbd28c205	-0.041200656
54	0x3d1a230a	0.037631072
55	0x3cb9bda4	0.022673436
56	0x3d64b384	0.055835262
57	0x3c8ef6bd	0.017451638
58	0xbd97e8e3	-0.074174665
59	0x3e86938a	0.26284438
60	0x3d0ed60f	0.03487211
61	0xbc9319f5	-0.017956713
62	0x3dce5767	0.100752644
63	0x3ca8f6cd	0.020625496
64	0x3e448998	0.19193113
65	0x3c8d7442	0.01726735
66	0xbd847071	-0.06466759
67	0xbc7a4f89	-0.015277752
68	0x3dddeb31	0.10835875
69	0xbd17eb49	-0.03708962
70	0xbcadf535	-0.021235088
71	0x3d864cea	0.06557639
72	0x3e2f0db9	0.17095079
73	0x3d2c9df1	0.042142812
74	0x3ba6f2b5	0.005094851
75	0x3d230a88	0.039804965
76	0x3e1cfea6	0.15331516
77	0x3d73632c	0.05942075
78	0xbc0ac9e9	-0.008470991
79	0x3da29614	0.079387814
80	0xbc0d099e	-0.00860825
81	0x3b3de77e	0.0028977091
82	0x3dc37a31	0.095447905
83	0xbdebdb37	-0.11516421
84	0xbb8440d2	-0.0040360475
85	0x3cb73705	0.022365103
86	0x3d6f7c08	0.058467895
87	0x3d5d39d6	0.054010235
88	0x3e1b150a	0.15144745
89	0x3e8d560a	0.27604705
90	0x3d39d368	0.04536763
91	0x3c074e7c	0.008258458
92	0x3e44bce5	0.19212683
93	0x3d87509c	0.06607172
94	0x3d2e5d82	0.042569645
95	0xbe24bf41	-0.16088583
96	0x3d9209b9	0.07130761
97	0x3cf0262e	0.02931508
98	0xbd178247	-0.036989477
99	0xbd18b2e6	-0.037279986
100	0x3d5c86a8	0.053839356
101	0x3a86aa6b	0.0010274177
102	0x3e2f7d3a	0.17137614
103	0x3e8c4dba	0.2740305
104	0x3d758cae	0.059948616
105	0x3d336851	0.043800656
106	0x3d150b8a	0.036387958
107	0xbcbc7106	-0.023003113
108	0xbbf3951f	-0.007433548
109	0x3e3b36ab	0.18282573
110	0xbbfd4b29	-0.007729907
111	0xbcbb3727	-0.022853447
112	0xbdd97b74	-0.1061925
113	0x3d381aa9	0.0449473
114	0x3d1414ef	0.036152776
115	0x3d819baf	0.063285224
116	0x3e89cdf0	0.2691493
117	0x3c85cef2	0.01633403
118	0x3d88fe11	0.06689084
119	0x3ebad091	0.3648725
120	0xbd11eacd	-0.035624314
121	0x3e182f5c	0.14861816
122	0x3c2dcbb8	0.010607652
123	0xbcfea3ef	-0.031084029
124	0x3baf6239	0.005352285
125	0xbcc9a9fa	-0.024617184
126	0x3b97494e	0.004616893
127	0x3f0b02be	0.5430106
128	0xbd6e59ae	-0.058190994
129	0xbce43190	-0.027855664
130	0x3d98b573	0.07456484
131	0xbd22971f	-0.0396949
132	0x3d92fdb3	0.071772955
133	0xbc85eaca	-0.016347308
134	0x3c7178d9	0.014738285
135	0x3c84df1b	0.016219666
136	0x3d53fc64	0.05175437
137	0x3caddf69	0.021224694
138	0xbd91a395	-0.07111279
139	0xbd7fab8c	-0.06241946
140	0xbde33680	-0.110943794
141	0x3e4d10a0	0.20025873
142	0x3c846327	0.01616056
143	0x3d9c21af	0.07623612
144	0xbbee5122	-0.0072728554
145	0x3ef19b09	0.47188595
146	0xbe097f3f	-0.13427447
147	0x3e1be0b3	0.15222435
148	0x3b6750db	0.0035295996
149	0x3e087bda	0.13328496
150	0x3d86e978	0.065874994
151	0xb8956706	-7.124063e-05
152	0x3df50c7c	0.11965272
153	0x3dcaff58	0.09911984
154	0x3d01cc3a	0.031688906
155	0x3c57ae06	0.013164049
156	0x3eb6af72	0.3568073
157	0xbdb31351	-0.08743919
158	0x3c87fdb5	0.01660047
159	0xbe07cd95	-0.13262017
160	0xbde15ad8	-0.11003655
161	0x3c906c96	0.017629903
162	0x3b5c6b65	0.0033633348
163	0x3ec30867	0.38092348
164	0x3c36b55f	0.011151641
165	0x3e1752ab	0.14777629
166	0x3cf53c25	0.029935906
167	0x3d24fffa	0.04028318
168	0x3d54e250	0.05197364
169	0x3d1da5e7	0.038488295
170	0xbd0de4dd	-0.03464209
171	0xbd5286f2	-0.051398225
172	0x3b13386b	0.0022464048
173	0x3e280f3b	0.1641206
174	0x3d1527a5	0.03641476
175	0x3eb48b56	0.35262555
176	0x3d1f30a0	0.03886473
177	0x3e5515a4	0.20809036
178	0x3e02687f	0.12735175
179	0xbd00c67b	-0.031439286
180	0xbe013bc4	-0.12620455
181	0xbdfb714b	-0.12277468
182	0x3c3a4f9a	0.011371518
183	0xbcbafd5a	-0.022825886
184	0x3c9d4182	0.019196276
185	0xbcb59fb9	-0.022170888
186	0xbdbf17b7	-0.09330695
187	0xbd9e4abf	-0.077291004
188	0x3cc4eb18	0.024037883
189	0xbc0691df	-0.008213489
190	0xbd2d3f9a	-0.042296983
191	0x3b0b0be0	0.0021216795
192	0x3e085a92	0.133158
193	0x3dd8b1a4	0.10580757
194	0xbd8a2857	-0.067459755
195	0xbdced401	-0.1009903
196	0x3e8e03f3	0.27737388
197	0x3e56d649	0.20980181
198	0xbce6a3f3	-0.028154349
199	0xbd355848	-0.044273645
200	0x3eab8a33	0.33503875
201	0x3c501997	0.012701414
202	0x3c5afeeb	0.013366441
203	0x3f366bbf	0.7125816
204	0x3cfac418	0.030611083
205	0x3bed08a6	0.007233697
206	0xbc9c3d7a	-0.019072283
207	0x3d410d8f	0.04713207
208	0xba62c183	-0.00086500513
209	0xbdbb31d2	-0.09140362
210	0x3d0cf29d	0.03441106
211	0x3e01412c	0.12622517
212	0x3cb1f7ba	0.02172457
213	0x3a95742c	0.001140242
214	0xbcdb4fe0	-0.026771486
215	0xbd53c06c	-0.05169718
216	0x3c6048c8	0.013689227
217	0x3d1030a9	0.035202656
218	0xbdf6591f	-0.12028717
219	0x3de45709	0.11149413
220	0x3c969c87	0.018385185
221	0x3b492878	0.0030694287
222	0x3d917db9	0.07104058
223	0x3c29c0e0	0.010360926
224	0x3dd59ded	0.104305126
225	0x3c490b64	0.012270782
226	0xbc4f3984	-0.01264799
227	0x3dd7d73a	0.10539098
228	0x3dd2cd8f	0.102931134
229	0x3d9f0107	0.07763868
230	0x3d2c8c6d	0.042126108
231	0x3cb4b349	0.022058146
232	0x3d6f7704	0.05846311
233	0xbc3fef77	-0.011714808
234	0x3e0d1b56	0.13779959
235	0x3d624a71	0.055246774
236	0x3d039d3c	0.032132372
237	0x3dda466a	0.10657962
238	0x3d0c00c1	0.034180406
239	0x3c59a210	0.013283268
240	0x3e72f1d1	0.23725058
241	0xbd1975f7	-0.037466016
242	0x3d8e14e8	0.06937581
243	0x3eb82dca	0.35972434
244	0xbcf11dbf	-0.02943313
245	0x3e29cf60	0.16583014
246	0x3cdd15e0	0.02698797
247	0xbc5b222b	-0.0133748455
248	0xbdb6c149	-0.08923585
249	0x3d15ca6b	0.036569994
250	0x3e492d1d	0.19646116
251	0x3d6d8708	0.057990104
252	0x3c187090	0.009304181
253	0x3f59ee0c	0.85128856
254	0x3da572ff	0.080785744
255	0x3ca7b9aa	0.020474274

log_std.bias f4 [6]
0	0xc000583f	-2.005386
1	0xbfc3b08a	-1.528825
2	0xbff90b4a	-1.945657
3	0xc006ed3f	-2.1082304
4	0xbfd0f5c4	-1.6325002
5	0xbfdf58e3	-1.7449001
