trained_models/Walker2dNormal-v3/sero/actor_3.pt (torch, 296896 bytes, 8 tensors)

shared.0.weight f4 [256, 17]
0	0x3fc183a3	1.5118297
1	0x3f625d09	0.8842321
2	0x3d021cf0	0.03176588
3	0xbd96b449	-0.073586054
4	0x3c57d641	0.013173641
5	0xbf27bf43	-0.6552622
6	0xbe050b8f	-0.1299269
7	0x3d22b3d0	0.039722264
8	0xbcc377c2	-0.023860816
9	0xbd54d48f	-0.051960524
10	0xbbdce53b	-0.0067411936
11	0x3c3fd8c4	0.011709396
12	0x3bf274a5	0.007399159
13	0x3a05a4bf	0.00050980964
14	0x3c07e7fe	0.008295057
15	0x3ad10f8e	0.001595007
16	0xbbac33db	-0.005255205
17	0xbf88efd7	-1.0698193
18	0x3fb492fa	1.4107354
19	0xbeca1663	-0.39470205
20	0xbf83ad49	-1.0287257
21	0xbf4ac600	-0.79208374
22	0x3ebfd43a	0.37466604
23	0xbe784545	-0.24245174
24	0xbf3f1c70	-0.7465277
25	0xbe72cde9	-0.23711361
26	0xbe180965	-0.14847334
27	0x3dc90dfc	0.098171204
28	0x3d42fbee	0.04760354
29	0xbe462f75	-0.19354041
30	0xbd047adc	-0.03234373
31	0xbe9bd1c5	-0.3043348
32	0xbd1ceed2	-0.038313694
33	0x3aab3faf	0.0013065244
34	0xbf49bc1e	-0.7880267
35	0x3f44318f	0.7663812
36	0x3e241a9c	0.16025776
37	0xbf4552dd	-0.77079564
38	0x3e6314f7	0.22175966
39	0xbf84dcd1	-1.0379888
40	0xbeb59dda	-0.35471994
41	0xbf698332	-0.91215813
42	0xbeb6490b	-0.35602602
43	0xbed2cf03	-0.41173562
44	0xbe839f48	-0.2570746
45	0xbe00a301	-0.12562181
46	0x3d21ae46	0.03947284
47	0xbd02f792	-0.031974383
48	0x3eebe6c9	0.46074513
49	0x3e5493d1	0.20759512
50	0xbe254078	-0.16137874
51	0xbeaf65b8	-0.34257293
52	0xc024533b	-2.56758
53	0x3ebe7af2	0.37203175
54	0x3f882734	1.0636964
55	0xbefb21ba	-0.4904917
56	0x4030ebb0	2.7643852
57	0x3f67e706	0.9058689
58	0xbf823799	-1.0173217
59	0xbfb5ca67	-1.4202393
60	0xbec9f0e3	-0.39441594
61	0x3d41cd11	0.047314707
62	0x3e788b7a	0.24271956
63	0x3a97170b	0.0011527253
64	0xbc8d9831	-0.017284485
65	0x39c6dacf	0.00037928528
66	0x3d015677	0.0315766
67	0xbe1801b6	-0.14844403
68	0x3d6872bb	0.05675004
69	0x4033fb05	2.812196
70	0x3f2d75ea	0.6775805
71	0xbeadbbc3	-0.33932313
72	0x3de84b63	0.11342504
73	0xbf841cd0	-1.0321293
74	0x3df09f73	0.117491625
75	0x3eeb268f	0.45927855
76	0x3e7208ab	0.23636119
77	0x3f082adf	0.53190416
78	0x3ec6193e	0.38691133
79	0xbe1fecab	-0.15617625
80	0xbe08ccb4	-0.13359338
81	0xbc937c31	-0.018003555
82	0xbe50b351	-0.20380904
83	0xbdc6f065	-0.0971382
84	0x3d051c43	0.032497656
85	0xbf86e064	-1.0537229
86	0x401a35b0	2.4095268
87	0x3ef87639	0.48527697
88	0x3e7fd203	0.24982457
89	0x3f818ed6	1.0121715
90	0xbd9a02ea	-0.07520087
91	0x3e254d37	0.16142736
92	0x3dfa48b9	0.12220902
93	0x3f201a11	0.62539774
94	0x3da87c5c	0.08226845
95	0x3e97a909	0.2962115
96	0xbe207c06	-0.15672311
97	0xbdc511a1	-0.09622503
98	0x3c21166a	0.009832004
99	0xbe209dc7	-0.15685187
100	0xbde36290	-0.11102784
101	0xbc16a03c	-0.009193476
102	0xbec9868a	-0.39360458
103	0xbfb2e477	-1.3975972
104	0xbf55cb32	-0.83513176
105	0x3f52a596	0.82283914
106	0x3f83fdf5	1.0311877
107	0x3f2affae	0.66796386
108	0x3f16aa09	0.58853203
109	0x3d81d459	0.0633933
110	0xbd84b543	-0.064798854
111	0x3ebe078c	0.37115133
112	0x3cf5482e	0.029941645
113	0x3e0009b9	0.12503709
114	0x3d61bc6a	0.055111326
115	0x3b6a10fb	0.0035715688
116	0xbdbb7b32	-0.09154357
117	0xbd182d95	-0.037152845
118	0xbc92d4ce	-0.017923739
119	0xbf0e7bb3	-0.556575
120	0x4019a8dc	2.4009314
121	0x3fd5fad5	1.6717173
122	0x3ed463e7	0.4148247
123	0xbdecdeb5	-0.115659155
124	0xbe836b0f	-0.25667617
125	0xbe853bb9	-0.26022127
126	0xbef7b141	-0.48377421
127	0x3ee0dc11	0.43917897
128	0x3de2eb68	0.110800564
129	0xbe9b53fe	-0.30337518
130	0x3e974287	0.29542944
131	0x3d2b3f72	0.041808553
132	0xb926f15c	-0.00015920907
133	0x3dffb8a8	0.12486392
134	0x3de133df	0.10996222
135	0xbe12190d	-0.14267369
136	0xbe2d0eef	-0.16900228
137	0xbf3dc6b7	-0.7413134
138	0xbe8b252a	-0.2717679
139	0x402b3e4e	2.6756778
140	0xbe881919	-0.26581648
141	0x3e9c229b	0.30495152
142	0xbf2936c4	-0.6609919
143	0x3dfc7864	0.1232765
144	0xbea663aa	-0.32497913
145	0xbdff2368	-0.12457925
146	0x3e84ac28	0.25912595
147	0xbe761c49	-0.24034227
148	0xbd05d1c5	-0.032670755
149	0x3b9dff36	0.0048216833
150	0x3e11ff3f	0.14257525
151	0x3c0c446f	0.008561238
152	0x3cfdd57d	0.030985588
153	0xbef28d5a	-0.47373468
154	0x4041b258	3.0265102
155	0xbf6a8427	-0.916079
156	0x3f13e964	0.57778
157	0x3eb31c36	0.3498246
158	0x3f519739	0.8187137
159	0x3e934ccb	0.28769526
160	0xbe7b2804	-0.24526983
161	0x3e81fbf8	0.2538755
162	0x3e867e3f	0.26268193
163	0x3f01f76a	0.5076815
164	0xbe70df01	-0.23522569
165	0xbdf14978	-0.11781591
166	0x3d26ece4	0.04075326
167	0xbe511a1e	-0.20420119
168	0xbdad8777	-0.084731035
169	0xbceaebf8	-0.028676972
170	0xbf5bcc34	-0.85858464
171	0xbfc689e0	-1.5510826
172	0x3e491589	0.19637121
173	0xbdd7af0c	-0.105314344
174	0xbe361544	-0.1778155
175	0xc0492625	-3.1429532
176	0xbf357366	-0.7087921
177	0x3dec40ae	0.11535774
178	0xbd082e57	-0.033247318
179	0x3def093e	0.11671685
180	0xbd3057ed	-0.043052603
181	0xbd19783b	-0.037468176
182	0xbdbd2199	-0.09234924
183	0xbb9d27ea	-0.004796018
184	0xbc9ab6eb	-0.01888605
185	0x3d369f74	0.04458566
186	0x3c13fb2d	0.009032053
187	0xbc82b6e3	-0.015956348
188	0xbf7f14d9	-0.99641186
189	0x4094cd24	4.6500416
190	0x4052ecd0	3.295704
191	0x3f4860a3	0.78272456
192	0x402055a3	2.5052269
193	0x402d2d31	2.7058833
194	0xbe2f3a0b	-0.17111985
195	0xbf7637d9	-0.96178967
196	0x3f35d929	0.71034485
197	0x3e4d0118	0.20019948
198	0x3e2ae5a1	0.16689159
199	0x3e176662	0.1478515
200	0xbd2b68a4	-0.04184784
201	0xbd5cfa29	-0.05394951
202	0x3bafa9b1	0.005360805
203	0x3d3a258a	0.045445956
204	0x3d4f23f8	0.05057141
205	0xc08abe25	-4.335711
206	0x400dbfb8	2.2148266
207	0x3f951f23	1.1650127
208	0x3e340621	0.17580463
209	0xbf0f4bc0	-0.5597496
210	0xbf15f225	-0.5857261
211	0xbe8b5f68	-0.27221227
212	0xbdd40e51	-0.10354293
213	0x3e720823	0.23635916
214	0xbe632ea0	-0.22185755
215	0x3e031c0e	0.12803671
216	0x3da61c76	0.08110897
217	0xbc46fd4d	-0.012145353
218	0x3d55573f	0.052085157
219	0x3a91fc7c	0.0011137868
220	0x3b51164c	0.003190416
221	0xbeec6650	-0.46171808
222	0x403ca11b	2.947333
223	0xbf9a26e5	-1.204312
224	0xbf333354	-0.70000196
225	0xbf63565f	-0.88803667
226	0x3f238190	0.6386957
227	0x3f1936dc	0.59849334
228	0x3e619d71	0.22032715
229	0xbd7617e5	-0.06008138
230	0xbeb8d735	-0.3610169
231	0xbbfa7571	-0.0076433946
232	0x3d70b8d1	0.058770005
233	0x3e25b157	0.16180931
234	0x3dad6ec2	0.08468391
235	0x3ce1a04d	0.027542258
236	0x3d483aa7	0.04888406
237	0xbcc35648	-0.023844853
238	0xbf4de398	-0.80425406
239	0x40b51ed8	5.660015
240	0x3ebd174a	0.3693183
241	0x3ef805d7	0.48441955
242	0x3d1280f3	0.035767507
243	0xbf722b4e	-0.9459733
244	0xbe5ed473	-0.2176073
245	0x3e2b8e49	0.16753496
246	0x3ebe8a52	0.37214905
247	0xbe1ab7fd	-0.15109248
248	0x3d8f7611	0.07004941
249	0xbd9cc5fa	-0.076549485
250	0xbc7d147d	-0.015446779
251	0xbb1ceed1	-0.0023946057
252	0x3d3c9100	0.04603672
253	0xbb85a15e	-0.0040780744
254	0x3cdca694	0.0269349
255	0xbed2b0cb	-0.41150507

shared.0.bias f4 [256]
0	0xc002d7f6	-2.0444312
1	0xbf4e75e6	-0.8064865
2	0xbf80dee2	-1.0068018
3	0xbe810d19	-0.25205305
4	0xbf9dc365	-1.2325255
5	0xbf6dcd26	-0.92891157
6	0xbdec0245	-0.115238704
7	0xbf719846	-0.94372976
8	0x3dd04688	0.10169703
9	0xbf03a52b	-0.514239
10	0xbe043f3a	-0.12914744
11	0xbea0b289	-0.31386212
12	0xbd35df3d	-0.04440235
13	0xbf375d32	-0.7162658
14	0xbf8c93c5	-1.0982596
15	0xbec17133	-0.37781677
16	0x3d03f21d	0.03221332
17	0x3e3f6324	0.18690163
18	0xbedee519	-0.43534163
19	0xbdf5602e	-0.119812354
20	0xbeea7697	-0.45793602
21	0xbfadf181	-1.3589326
22	0x3d9dba77	0.07701581
23	0xbec2ce00	-0.3804779
24	0xbecee663	-0.40410146
25	0xbe980607	-0.29692098
26	0xbbc4973f	-0.0059994753
27	0xbeb01889	-0.3439372
28	0xbe863977	-0.26215717
29	0xbd4e7a16	-0.0504094
30	0xbf1e3078	-0.6179271
31	0xbf9e9465	-1.2389036
32	0x3c57267a	0.013131732
33	0xbecd0350	-0.4004159
34	0xbe7ca787	-0.24673282
35	0x3edd9191	0.4327512
36	0xbe2e97e3	-0.17050128
37	0xbf37afee	-0.7175282
38	0xbf29c78b	-0.66320103
39	0x3ea0473e	0.31304353
40	0xbeeb17e3	-0.45916662
41	0xbeb0f74c	-0.34563673
42	0xbdd87318	-0.105688274
43	0xbf7230ff	-0.9460601
44	0xbf28a765	-0.65880424
45	0xbe373a30	-0.1789329
46	0xbfa79214	-1.3091455
47	0xbf633a0b	-0.8876044
48	0xbfa9dce9	-1.3270541
49	0xbef566c7	-0.47929975
50	0xbd397ad9	-0.045283172
51	0xbd7f0dd8	-0.06226906
52	0xbe68c959	-0.22733058
53	0xbfa4d885	-1.2878577
54	0xbbbe9f33	-0.005817318
55	0xbf2e8856	-0.6817678
56	0xbf3ab00a	-0.72924864
57	0xbfc7543b	-1.557258
58	0x3d43910b	0.047745746
59	0xbf3b8c4d	-0.73260957
60	0xbf776d80	-0.9665146
61	0x3dea8b6c	0.11452374
62	0xbf85611d	-1.0420262
63	0xbfffae87	-1.9975137
64	0x3e3f7b1a	0.18699303
65	0x3e29a139	0.16565408
66	0xbf0ea53e	-0.5572089
67	0x3cec4958	0.028843567
68	0xbf433f60	-0.7626858
69	0x3ee3f43e	0.4452228
70	0xbe582363	-0.21107249
71	0xbf5dd3f3	-0.86651534
72	0xbe4b5dc0	-0.19859982
73	0xbf513948	-0.8172803
74	0x3dd79f30	0.105284095
75	0xbef4d41f	-0.47818086
76	0xbe67b6e4	-0.22628361
77	0x3ead0d51	0.33799222
78	0xbe88c99f	-0.26716325
79	0xbf320b84	-0.6954882
80	0xbe8be61a	-0.2732399
81	0x3dad4bb3	0.08461704
82	0xbef62537	-0.48075268
83	0xbf4da83f	-0.8033485
84	0xbf16bd37	-0.5888247
85	0xbee7e6d0	-0.45293283
86	0xbedaa6da	-0.42705423
87	0x3dfa9c1f	0.12236809
88	0xbef7d73f	-0.48406407
89	0xbd813abe	-0.06310032
90	0xbfcca60c	-1.5988173
91	0xbfa3f00e	-1.2807634
92	0x3a6fb050	0.0009143399
93	0xbf87a181	-1.0596162
94	0xbfa3e248	-1.280343
95	0xbf0c719e	-0.54860866
96	0xbf8e6404	-1.1124272
97	0xbe9bc6c9	-0.304251
98	0xbed36931	-0.41291192
99	0xbe0954d4	-0.13411266
100	0xbf280d41	-0.65645224
101	0xbf100834	-0.56262517
102	0xbeb4026f	-0.35158107
103	0xbec087aa	-0.37603503
104	0x3ea47921	0.32123664
105	0x3e24a15c	0.16077179
106	0xbe1af420	-0.15132189
107	0xbf3f74f9	-0.7478786
108	0xbf6b9c04	-0.92034936
109	0xbfa0c887	-1.2561196
110	0xbf83016a	-1.0234807
111	0xbe8356f4	-0.25652277
112	0x3e3e5cd7	0.18590103
113	0x3edfcc5a	0.43710595
114	0xbf014a94	-0.5050442
115	0x3cd234c2	0.025659923
116	0xbead9c0b	-0.33908114
117	0xbf7a856d	-0.9785984
118	0xbed648d5	-0.4185244
119	0xbf6839d8	-0.9071326
120	0xbe24b978	-0.16086376
121	0xbeecad22	-0.4622584
122	0xbd640143	-0.055665266
123	0xbedaaa1b	-0.42707905
124	0x3e6d6ea8	0.23186743
125	0xbdf7f60b	-0.12107476
126	0xbf5bf9b9	-0.8592792
127	0xbfddeac1	-1.7337266
128	0xbf20c66e	-0.6280278
129	0xbe942141	-0.2893162
130	0xbf1ca0e7	-0.6118302
131	0xbf7a11ac	-0.97683215
132	0xbf766532	-0.9624816
133	0x3e85fa23	0.26167402
134	0xbef406ba	-0.47661382
135	0xbd7cd5a1	-0.06172717
136	0xbe9fd4f2	-0.31217152
137	0xbe0b5c9c	-0.13609546
138	0xbf8ee5cb	-1.1163877
139	0xbedf1519	-0.43570784
140	0xbeb7daeb	-0.3590921
141	0xbece9144	-0.40345204
142	0xbe1a350d	-0.150593
143	0x3e2457f5	0.16049178
144	0x3de76959	0.1129939
145	0xbf214176	-0.6299051
146	0xbe1383c1	-0.14405729
147	0xbf41b0dc	-0.7566049
148	0x3e528ddf	0.20561932
149	0x3e8a9339	0.27065447
150	0xbf4f1c37	-0.8090243
151	0x3d99b1f4	0.07504645
152	0xbf036438	-0.51324797
153	0xbe6451b2	-0.2229679
154	0xbf49f129	-0.78883606
155	0xbf495ecd	-0.7866028
156	0xbedadfc2	-0.4274884
157	0xbf886d44	-1.0658345
158	0xbfb70f2a	-1.4301503
159	0xbea713b7	-0.3263223
160	0xbf0edc73	-0.5580513
161	0xbf8655c4	-1.0494924
162	0x3e02cd09	0.12773527
163	0xbe53e038	-0.20691001
164	0xbf21eebe	-0.63254917
165	0xbf4cf12d	-0.80055505
166	0x3c6f1b33	0.014593887
167	0xbf26cfab	-0.65160626
168	0xbe803ae2	-0.25044924
169	0x3cdf67c9	0.027271168
170	0xbf147a6c	-0.579993
171	0xbf264a73	-0.6495735
172	0xbf8bf018	-1.0932646
173	0xbf35ebfa	-0.71063197
174	0xbebfff94	-0.37499678
175	0xbf2f8f54	-0.68578076
176	0xbeae1bb1	-0.34005502
177	0xbe4c6080	-0.19958687
178	0x3e71aaae	0.23600265
179	0x3e8e6a87	0.2781565
180	0xbe66825e	-0.22510669
181	0xbe72f076	-0.23724541
182	0xbf0ed35a	-0.55791247
183	0x3eb9e2cc	0.36305845
184	0xbf780a6b	-0.96890897
185	0x3cf9b4a8	0.030481651
186	0xbf016ba1	-0.50554854
187	0xbdc66bb0	-0.096885085
188	0xbc0634d8	-0.00819131
189	0xbecfbd1c	-0.40573967
190	0xbf9a4620	-1.205265
191	0xbf8cba65	-1.0994383
192	0xbe886b09	-0.2664416
193	0xbe67a14f	-0.22620128
194	0xbe9cfc5f	-0.30661294
195	0xbf6721f1	-0.90286165
196	0xbe63ed1d	-0.2225842
197	0x3e518f0b	0.20464723
198	0xbe1e8771	-0.15481354
199	0xbfa02893	-1.2512382
200	0xbf3b3e9d	-0.73142415
201	0xbed18362	-0.4092055
202	0x3d95d727	0.07316428
203	0xbf342eea	-0.70384085
204	0xbd407595	-0.046987135
205	0xbf6d1a5b	-0.9261834
206	0xbf8646be	-1.0490339
207	0xbf4040a5	-0.7509864
208	0x3e966bd0	0.2937913
209	0xbdb6b16d	-0.0892056
210	0xbef0565e	-0.46940893
211	0xbdaf88cd	-0.085710146
212	0xbf719f76	-0.94383943
213	0xbf71efc6	-0.9450649
214	0xbed21965	-0.41035
215	0xbecb4417	-0.39700386
216	0xbf7b2643	-0.9810526
217	0xbfbfc6ab	-1.4982504
218	0xbe32c45c	-0.17457718
219	0xbf095a82	-0.5365373
220	0xbf6e28d3	-0.9303104
221	0xbf537e92	-0.82615006
222	0xbe941961	-0.28925613
223	0xbe7bf2d0	-0.24604344
224	0xbe50f70b	-0.2040674
225	0xbf05e35e	-0.5230006
226	0x3e18f503	0.14937215
227	0x3f134623	0.57528895
228	0xbf1651ed	-0.5871876
229	0xbf51bd5c	-0.81929564
230	0xbd82e30e	-0.063909635
231	0xbfc42934	-1.5325074
232	0xbfa31ef4	-1.2743821
233	0xbeb9d0c4	-0.36292088
234	0x3f225d73	0.6342384
235	0xbeca106c	-0.39465654
236	0x3e6bb4d1	0.23018195
237	0xbff4ca0d	-1.9124161
238	0xbebaab3d	-0.3645877
239	0x3d2144e2	0.039372332
240	0xbeb336a3	-0.35002622
241	0xbf8b4646	-1.0880821
242	0xbf19788b	-0.5994956
243	0x3e01cdd8	0.1267618
244	0xbda5d2cc	-0.08096847
245	0xbf4ab6ca	-0.79185164
246	0xbe37e1d6	-0.17957243
247	0xbfa0cce0	-1.2562523
248	0xbf782850	-0.9693651
249	0xbf9b8405	-1.2149664
250	0xbf854639	-1.0412055
251	0xbfc14491	-1.509905
252	0xbf957713	-1.1676964
253	0xbe9f4117	-0.31104347
254	0xbe91c1ee	-0.2846827
255	0xbfadb2d4	-1.3570199

shared.3.weight f4 [256, 256]
0	0xbddd8378	-0.10816091
1	0xbf6a3739	-0.91490513
2	0x3d643ff8	0.055725068
3	0x3e93722a	0.28798038
4	0xbed7a3a6	-0.4211704
5	0x3d0646fd	0.032782543
6	0x3e0579ba	0.13034716
7	0xbde35228	-0.110996544
8	0xbdc9dbaa	-0.09856351
9	0x3e112837	0.14175497
10	0x3c0306ca	0.007997224
11	0xbf325dca	-0.6967436
12	0x3e4f62a0	0.20252466
13	0x3e03f486	0.12886247
14	0xbf3f6813	-0.7476818
15	0x3dece26f	0.11566626
16	0x3e0bf6f4	0.13668424
17	0x3d9223da	0.071357444
18	0xbfbf8678	-1.4962912
19	0xbf448ea5	-0.7678016
20	0x3def4353	0.11682763
21	0xbf3c3544	-0.73518777
22	0xbd97ccef	-0.07412135
23	0xbdbd5072	-0.09243859
24	0xbd05bcbb	-0.03265069
25	0xbe834940	-0.25641823
26	0xbd4fcc92	-0.050732203
27	0xbf4d69f2	-0.80239785
28	0xbd2fde81	-0.042936806
29	0x3e51797d	0.204565
30	0xbef4fe51	-0.47850278
31	0xbe61478e	-0.21999952
32	0x3e0eda05	0.13950355
33	0xbe8ef247	-0.27919218
34	0xbe6f00df	-0.23340176
35	0x3e424b12	0.1897395
36	0x3ea478a8	0.32123303
37	0x3d683f84	0.0567012
38	0x3e85fb54	0.2616831
39	0xbe709561	-0.23494484
40	0x3e6602bb	0.22461979
41	0xbf0d3995	-0.5516599
42	0x3de23e60	0.11047053
43	0x3e0e13c3	0.13874726
44	0xbe3d1271	-0.18464066
45	0xbf298b94	-0.66228604
46	0xbe387016	-0.18011507
47	0xbf0116f8	-0.5042567
48	0x3dd28cc1	0.10280753
49	0xbe575589	-0.21028723
50	0xbf0c7a72	-0.54874337
51	0x3e6a7cd5	0.22899182
52	0x3dd2b6fc	0.10288808
53	0x3e17a5ef	0.14809392
54	0xbfacfd64	-1.3514829
55	0xbe0fa741	-0.14028646
56	0xbc43ded0	-0.011954978
57	0xbe26880d	-0.16262837
58	0xbf6a96d3	-0.9163639
59	0x3dc8f8e0	0.09813094
60	0xbf5a183a	-0.85193217
61	0xbe86c334	-0.26320803
62	0x3e051092	0.12994602
63	0xbe8d1fc2	-0.27563292
64	0x3de49696	0.111615345
65	0xbb9ad504	-0.0047251005
66	0x3e3c4579	0.18385877
67	0x3e53c9fd	0.20682521
68	0x3c255dc8	0.01009316
69	0xbcf913e1	-0.030404987
70	0xbd100c89	-0.035168204
71	0xbd74b229	-0.05974022
72	0xbe6342e4	-0.22193485
73	0xbd8f955d	-0.07010911
74	0x3e1a2f57	0.15057121
75	0x3cb0766c	0.021540843
76	0xbdfbf2b4	-0.12302151
77	0x3eee623d	0.46559325
78	0x3e804729	0.2505429
79	0xbf147a28	-0.57998896
80	0xbcdbdf50	-0.026839882
81	0x3eaf8ede	0.34288687
82	0xbe0db714	-0.1383937
83	0xbee92d93	-0.45542583
84	0xbedaa920	-0.42707157
85	0xbd06bdd8	-0.032895893
86	0xbe46c886	-0.19412431
87	0x3c84280a	0.016132373
88	0xbec085b9	-0.37602022
89	0xbf0b6097	-0.5444426
90	0xbd143fe4	-0.036193743
91	0x3e00baeb	0.12571304
92	0x3e6ea5c8	0.23305428
93	0x3e095c3e	0.13414094
94	0xbeedd97d	-0.46454993
95	0xbcd7de51	-0.026351126
96	0xbd26ac41	-0.040691618
97	0xbe9a33cd	-0.30117646
98	0xbcd1f9f9	-0.025631892
99	0x3da7cd5f	0.08193468
100	0x3d727897	0.059197035
101	0x3e15560a	0.14583603
102	0x3ed8975b	0.42302975
103	0x3e8b44e3	0.27200994
104	0xbea939a8	-0.330518
105	0x3ddb0e1b	0.1069605
106	0xbd0b9726	-0.034079693
107	0xbf00d974	-0.5033181
108	0x3dfec302	0.124395385
109	0x3e486a18	0.19571722
110	0xbe7e15b7	-0.24812971
111	0xbe8edff9	-0.27905253
112	0x3deab617	0.11460512
113	0xbea8bc6b	-0.32956252
114	0xbf249c18	-0.6430068
115	0xbe583ef3	-0.21117763
116	0xbf1e8c6f	-0.61933035
117	0xbe712332	-0.23548582
118	0x3cc1fe84	0.023680933
119	0xbe67d921	-0.22641422
120	0xbe9efcab	-0.31052145
121	0x3e45cdb8	0.19316757
122	0x3d81803e	0.063232884
123	0xbe9d1e98	-0.30687404
124	0xbeaa2d83	-0.33237848
125	0x3dc39264	0.09549406
126	0x3e845874	0.25848734
127	0xbe7ab4e1	-0.24483062
128	0x3ee40a53	0.44539127
129	0xbdcfd8bf	-0.10148763
130	0x3ee0d337	0.43911144
131	0xbf39766f	-0.7244634
132	0x3e367cde	0.1782107
133	0x3e6ee1d5	0.23328336
134	0xbdfb20ee	-0.1226214
135	0xbf59b510	-0.85041904
136	0x3ca67a36	0.020321947
137	0xbf7d6e98	-0.9899688
138	0xbf75ecb2	-0.96064293
139	0x3e1cbaee	0.15305683
140	0x3dec3234	0.11533013
141	0x3d8e8d46	0.069605395
142	0xbe819318	-0.25307536
143	0x3e55b3a5	0.2086931
144	0x3ebe82c6	0.37209147
145	0xbea91f76	-0.33031815
146	0xbe0eb11c	-0.1393475
147	0xbd812083	-0.06305029
148	0xbe3eb67b	-0.18624298
149	0xbe8d04ab	-0.27542624
150	0xbf2eda65	-0.68301994
151	0x3e6ae0a5	0.22937258
152	0xbe84829a	-0.2588089
153	0xbe81aca3	-0.25327024
154	0x3e830e88	0.25597024
155	0x3e8237f7	0.25433323
156	0x3cf03733	0.029323196
157	0xbe80a3f1	-0.25125077
158	0xbe55963f	-0.20858096
159	0x3d83a8d1	0.064286835
160	0x3f0e18d7	0.5550665
161	0x3ed61425	0.41812244
162	0x3e71c180	0.2360897
163	0xbe0166d6	-0.12636885
164	0x3f03cb39	0.5148197
165	0x3d8af002	0.06784059
166	0xbede9a80	-0.4347725
167	0xbeeb0f07	-0.45909902
168	0xbe479be9	-0.19493069
169	0xbde8f5bb	-0.11374994
170	0xbfcf6ef9	-1.6205741
171	0xbbabbd69	-0.0052410853
172	0x3ea6a9d2	0.32551438
173	0xbe05d5e4	-0.13069874
174	0x3eda0d33	0.42588195
175	0xbf3ee1f5	-0.74563533
176	0xbe014cf5	-0.12627013
177	0xbe8cfa25	-0.27534595
178	0xbe1bf91a	-0.15231743
179	0x3dd5dc37	0.10442393
180	0x3ea4cbc4	0.3218671
181	0xbf077cfb	-0.5292508
182	0xbe1f32b7	-0.1554669
183	0x3eaecb48	0.34139466
184	0xbe1c1094	-0.15240699
185	0x3e7f6a45	0.24942882
186	0xbe4ed6f4	-0.20199186
187	0xbf944af0	-1.1585369
188	0xbe64f80b	-0.22360246
189	0x3d5dd002	0.05415345
190	0xbfa953bc	-1.3228679
191	0xbea46039	-0.32104662
192	0xbe9a0b6c	-0.3008684
193	0xbdde6ff9	-0.10861201
194	0x3d4e640d	0.050388385
195	0xbccfd9c2	-0.02537239
196	0xbff71658	-1.9303694
197	0x3e0e2af5	0.13883574
198	0xbc940a2d	-0.018071258
199	0x3d93facf	0.07225572
200	0x3dee2802	0.11628725
201	0xbefbfe94	-0.49217665
202	0x3c215ad9	0.00984832
203	0xbe9c423e	-0.3051929
204	0xbdc82961	-0.097735174
205	0xbef008b3	-0.46881637
206	0x3f61e25e	0.88236034
207	0xbd500848	-0.050789148
208	0xbcbe533d	-0.02323305
209	0x3d24481f	0.040107843
210	0xbf14165d	-0.57846624
211	0x3e069982	0.13144496
212	0x3d5fd25a	0.054643966
213	0xbdec7023	-0.11544826
214	0xbbeb1b5d	-0.007174893
215	0xbf113e47	-0.5673565
216	0xbf0be41f	-0.5464496
217	0x3dfe6b09	0.12422759
218	0xbd2c3240	-0.04204011
219	0x3d1de96f	0.038552698
220	0x3e338c34	0.17533952
221	0xbe1134ef	-0.14180349
222	0xc012b63b	-2.2923725
223	0x3e05a432	0.13050917
224	0xbe7383b6	-0.23780712
225	0xbf362eaa	-0.71164954
226	0xbf417e55	-0.7558339
227	0xbdfaf284	-0.122532874
228	0x3c892a42	0.016743783
229	0xbd8c6d2d	-0.06856761
230	0xbf5c5b76	-0.8607706
231	0xbf8caf3c	-1.0990977
232	0xbe27bf1f	-0.163815
233	0x3d516497	0.05112132
234	0xbe5f89a9	-0.21829857
235	0xbf96e33f	-1.17881
236	0xbee7f1a0	-0.45301533
237	0xbf86c5d3	-1.0529121
238	0xbd75b60b	-0.059988063
239	0xbe142573	-0.1446741
240	0x3f5b7d02	0.8573762
241	0x3e5af637	0.21382986
242	0xbe1dd8b8	-0.15414703
243	0x3e19f75f	0.15035771
244	0xbf232bec	-0.63738894
245	0xbdf6c6be	-0.12049626
246	0xbbf68795	-0.007523487
247	0xbe3b411d	-0.18286557
248	0x3e01ace3	0.12663607
249	0xbf33fce0	-0.7030773
250	0xbf2faeea	-0.6862627
251	0x3e4b1e7d	0.19835849
252	0x3e1267b1	0.14297368
253	0x3e1826e4	0.14858586
254	0x3dda0c73	0.10646906
255	0x3e5101d7	0.20410858

shared.3.bias f4 [256]
0	0x3e91e478	0.2849462
1	0xbf8f4506	-1.1192939
2	0xbe9928f0	-0.29914045
3	0xbf8581ae	-1.04302
4	0x3ee394f5	0.44449583
5	0x3b9ab1cc	0.004720902
6	0x3ea4239d	0.3205842
7	0xbd579466	-0.05263176
8	0x3d70d2e5	0.058794875
9	0x3eb9154b	0.36149058
10	0x3edd647f	0.43240735
11	0xbe9a97fd	-0.30194083
12	0x3e8b91ea	0.2725976
13	0x3ac4417c	0.0014973129
14	0x3ec4d03c	0.3844012
15	0x3de40afc	0.111349076
16	0x3e74fca1	0.23924495
17	0x3ea6f031	0.32605127
18	0x3ce9374e	0.028468754
19	0xbf81c5f2	-1.0138533
20	0x3e3faf22	0.18719152
21	0x3e081fd8	0.13293397
22	0xbf456322	-0.7710439
23	0xbf2e89b4	-0.6817887
24	0x3d68f8c8	0.05687788
25	0xbf6b1465	-0.91827995
26	0x3e89d314	0.26918852
27	0xbc6d646e	-0.014489276
28	0xbf1cb225	-0.61209327
29	0x3d4d1ce0	0.050076365
30	0x3ecca5b9	0.39970186
31	0x3d51c73e	0.051215403
32	0x3f15a51c	0.5845506
33	0xbe1670fd	-0.14691539
34	0xbefc0795	-0.49224535
35	0xbf08423d	-0.5322607
36	0x3ef69619	0.4816139
37	0xbed818d9	-0.42206457
38	0xbd88d5e2	-0.0668142
39	0x3e21f3e0	0.15815687
40	0xbfa0803f	-1.2539138
41	0xbf6454b7	-0.89191765
42	0xbda397f8	-0.0798797
43	0xbe85d5b8	-0.26139617
44	0xbdb26bb2	-0.087119475
45	0xbf920193	-1.140673
46	0xbe30a050	-0.17248654
47	0xbd9d46a8	-0.07679492
48	0x3e44db74	0.1922434
49	0x3e2d6c3b	0.16935818
50	0x3e4c59de	0.19956157
51	0x3e894497	0.26810142
52	0x3f2b9f44	0.67039895
53	0x3e899235	0.2686936
54	0x3d598259	0.053102825
55	0xbd628b47	-0.055308606
56	0x3e81c831	0.25348046
57	0x3d983590	0.07432091
58	0x3b6f17a4	0.0036482597
59	0xbe5c13ae	-0.21491882
60	0x3ebcdab1	0.36885598
61	0xbf8efd38	-1.1171026
62	0x3e7c41ef	0.24634527
63	0xbe6d2d9e	-0.23161933
64	0xbf0aaa0c	-0.5416572
65	0x3ec1d043	0.37854204
66	0x3d3b4ba3	0.04572643
67	0x3e14179f	0.14462136
68	0x3ec10d60	0.37705517
69	0xbf550aa1	-0.83219343
70	0x3e510c32	0.20414808
71	0x3d8e3c37	0.06945079
72	0x3e181d7a	0.14854994
73	0xbf0bf6e1	-0.5467358
74	0x3e91d399	0.2848175
75	0xbe2c1d3b	-0.16808026
76	0xbe31940a	-0.17341629
77	0xbf53a349	-0.8267103
78	0xbf5dc2b5	-0.86625224
79	0xbef71b83	-0.48263177
80	0x3d4255f6	0.04744526
81	0xbe869824	-0.2628795
82	0x3e88d659	0.26726034
83	0x3f429dae	0.7602185
84	0xbe3133c8	-0.17304909
85	0x3f0a058a	0.539147
86	0x3e71d822	0.23617604
87	0xbec4f580	-0.38468552
88	0x3eb16f82	0.34655386
89	0x3e9a55ca	0.30143577
90	0xbd395569	-0.04524747
91	0x3d8dd10b	0.069246374
92	0xbec0ca26	-0.37654227
93	0x3e8df8a5	0.27728763
94	0x3e1e0cec	0.15434617
95	0x3e20d0c3	0.15704636
96	0x3e81e838	0.2537248
97	0x3cedecdc	0.029043607
98	0xbed33e89	-0.41258648
99	0x3e8658f7	0.2623975
100	0x3e470854	0.1943677
101	0x3d93c290	0.07214844
102	0xbe882230	-0.26588583
103	0xbf15af25	-0.58470374
104	0x3e97f90b	0.29682192
105	0x3eea4fe8	0.4576409
106	0xbf5aa06f	-0.8540105
107	0xbf29e7e4	-0.6636946
108	0xbf0b99a3	-0.54531306
109	0x3ea26a09	0.31721523
110	0xbd4d3777	-0.050101724
111	0x3e36aa36	0.17838368
112	0x3d505f86	0.05087235
113	0xbf2b7c39	-0.66986424
114	0xbe1a8d24	-0.15092903
115	0xbe9bdf27	-0.3044369
116	0xbeef5ad5	-0.46748987
117	0x3eb37b9f	0.35055253
118	0x3ec79f47	0.38988706
119	0x3e05e517	0.13075672
120	0x3eaf9cf3	0.3429943
121	0xbf413b2c	-0.75480914
122	0x3ebebef5	0.37255064
123	0xbea11dbd	-0.31468
124	0x3d7a2df8	0.061078995
125	0x3dc2447b	0.09485718
126	0x3eb98c6a	0.3623994
127	0xbcea0e08	-0.028571144
128	0x3ee34c78	0.4439428
129	0xbdb69a0e	-0.08916102
130	0xbe8e39fa	-0.27778608
131	0x3e8a60f7	0.27027103
132	0xbf9e1e91	-1.2353078
133	0x3e14b5d6	0.1452249
134	0x3f063330	0.52421856
135	0xbf5c80c3	-0.86133975
136	0x3f10784a	0.56433547
137	0x3b823278	0.0039733015
138	0x3e2f8ae0	0.1714282
139	0x3e5c4514	0.21510726
140	0xbe012922	-0.12613347
141	0x3e265f2f	0.16247247
142	0x3cb1893e	0.021671887
143	0xbf790b5b	-0.9728295
144	0xbe06db3e	-0.13169572
145	0xbdf54a84	-0.11977103
146	0x3e60f857	0.21969734
147	0x3e9dca64	0.30818474
148	0x3ecc2f25	0.39879718
149	0x3f283388	0.6570363
150	0x3e5a1b99	0.2129959
151	0x3ea8bf90	0.3295865
152	0xbecaa7f9	-0.39581278
153	0xbe40a0f2	-0.18811396
154	0x3dcd01fd	0.10010145
155	0x3ed7004a	0.41992408
156	0x3d83952e	0.06424938
157	0x38f1a669	0.00011522772
158	0xbf5cdfc6	-0.8627895
159	0xbd91d7c6	-0.07121234
160	0xbd66fbaa	-0.05639235
161	0xbdae0005	-0.084960975
162	0xbe31e16e	-0.17371151
163	0xbeec44b1	-0.46146157
164	0x3dcd189e	0.10014461
165	0x3d49aef4	0.049239114
166	0xbe9cb581	-0.30607226
167	0x3dc61ad1	0.096730836
168	0xbec30124	-0.38086808
169	0x3ecb3dc5	0.39695564
170	0x3e109bfd	0.14122005
171	0x3e5eecc1	0.21770002
172	0xbe986d83	-0.2977105
173	0x3dc63970	0.09678924
174	0x3f0dc268	0.55374765
175	0xbf15bb99	-0.58489376
176	0x3dd12c01	0.10213471
177	0xbeff9bd4	-0.49923575
178	0x3f0b2e2e	0.5436734
179	0x3d5eb5b8	0.05437252
180	0x3f01213f	0.50441355
181	0xbde16c7e	-0.11007021
182	0x3ecab08a	0.39587814
183	0x3c1a4b3a	0.0094173495
184	0x3d3e0922	0.04639543
185	0x3e30e702	0.17275622
186	0x3e3c3da5	0.1838289
187	0x3e8380cd	0.25684205
188	0x3eb048aa	0.34430438
189	0x3e8e9cb1	0.2785392
190	0x3ea5bd48	0.32370973
191	0x3e403c67	0.18773042
192	0xbe214723	-0.15749793
193	0xbe285597	-0.164389
194	0xbdf0b018	-0.11752337
195	0x3ee42c0d	0.44564858
196	0xbcf53748	-0.029933587
197	0x3d84034b	0.064459406
198	0xbf6b433b	-0.9189946
199	0xbf5c7646	-0.8611797
200	0xbdf2c7b3	-0.11854496
201	0xbeb94ce4	-0.36191475
202	0x3e6ed0cb	0.23321836
203	0x3ee2e0e4	0.44312203
204	0xbd87780e	-0.066146955
205	0x3bb6a422	0.0055737654
206	0x3e624923	0.22098212
207	0x3edc996f	0.4308581
208	0x3ebf4f7f	0.37365338
209	0x3e843dc4	0.25828373
210	0xbf8a5da7	-1.080983
211	0x3ec52dbe	0.3851146
212	0xbe93e421	-0.28884986
213	0xbe570d91	-0.21001269
214	0x3e7e2768	0.2481972
215	0x3eb7cef3	0.35900077
216	0xbceaa542	-0.028643254
217	0xbf581df5	-0.8442071
218	0xbdec44ce	-0.11536561
219	0x3f22c1ba	0.63576853
220	0xbf2cf4a0	-0.6756077
221	0x3ee8f652	0.45500427
222	0xbef9fd65	-0.48826137
223	0xbf552db1	-0.83272845
224	0xbefecebb	-0.49767098
225	0x3ec559bc	0.38545024
226	0xbd3f1c62	-0.046657927
227	0xbf825bc8	-1.018426
228	0x3e923966	0.28559417
229	0xbf4d4106	-0.8017734
230	0x3e3bb874	0.18332082
231	0x3e4c666a	0.19960943
232	0xbe561b85	-0.20908935
233	0x3d14acf3	0.03629775
234	0xbf176730	-0.59141827
235	0xbf1953bc	-0.59893394
236	0x3e01a355	0.12659962
237	0x3ec6cfae	0.38830322
238	0x3f5a9596	0.853845
239	0x3e0b29a1	0.13590099
240	0x3e58a2a0	0.21155787
241	0x3eb4e078	0.35327506
242	0xbdc2b931	-0.09507979
243	0xbf4939bc	-0.7860372
244	0xbf42897a	-0.7599102
245	0x3ee66904	0.45001996
246	0xbf6925e4	-0.9107344
247	0xbd6c426c	-0.057680532
248	0x3e0fb5eb	0.1403424
249	0x3dae2412	0.085029736
250	0xbdeccc9b	-0.11562463
251	0xbeb1b144	-0.34705555
252	0xbf17b99e	-0.59267604
253	0x3e5fad66	0.2184349
254	0xbe83b034	-0.2572037
255	0x3e8d376f	0.27581355

mean.weight f4 [6, 256]
0	0x3d9f9bc7	0.07793384
1	0xbda0f6b1	-0.07859553
2	0xbf64cd22	-0.8937551
3	0x3db549d4	0.08851972
4	0xbd0f8aac	-0.035044357
5	0x40912d6f	4.536796
6	0xbdb56841	-0.088577755
7	0xbe9f7954	-0.31147254
8	0xbe81c2f7	-0.2534406
9	0x3db2e047	0.08734184
10	0xbc153ee4	-0.009109233
11	0x3e8e117a	0.2774771
12	0x3e50c70d	0.20388432
13	0x3d9c90a3	0.07644775
14	0xbe53662e	-0.20644447
15	0x3d87e4ff	0.066354744
16	0xbe15ff1d	-0.14648099
17	0x3edc5d36	0.43039864
18	0xbe50af0e	-0.20379278
19	0x3f476321	0.77885634
20	0xbeaf47a9	-0.3423436
21	0x3e21b221	0.15790607
22	0x3da66853	0.08125367
23	0xbe12323d	-0.14276977
24	0xbafd0c06	-0.0019305951
25	0xbe4bb7ea	-0.19894376
26	0x3dfb6b2c	0.12276301
27	0xbf2994a5	-0.6624244
28	0xbee5e5fa	-0.4490202
29	0xbd2470c2	-0.040146597
30	0xbb53d993	-0.003232573
31	0xbe453374	-0.19257909
32	0xbbb5dc5d	-0.005549951
33	0x3d90d58e	0.07071982
34	0x3e85d5c9	0.26139668
35	0xbe73530a	-0.23762146
36	0xbe45bd03	-0.19310383
37	0x3db806f8	0.08985704
38	0xbdd891ee	-0.10574709
39	0xbdd76f2a	-0.1051925
40	0xbf2fd0ae	-0.68677795
41	0x3ea32efc	0.31871784
42	0x3bb7f454	0.005613843
43	0xbea3def7	-0.32006046
44	0x3d913488	0.07090098
45	0x3dd940c0	0.10608053
46	0xbcdb1590	-0.02674368
47	0x3ca868ad	0.020557726
48	0x3d3e81e8	0.046510607
49	0x3e92e0b8	0.28687072
50	0x3d87a6bf	0.06623601
51	0xbec44f25	-0.38341632
52	0x3e31d6f7	0.17367159
53	0x3e116fb1	0.14202763
54	0xbca3777e	-0.01995444
55	0x3e4142b9	0.18873109
56	0xbfe8113b	-1.8130258
57	0xbebf0a07	-0.37312338
58	0x3b7a97a1	0.003823735
59	0x3f0591d9	0.5217567
60	0x3de519f7	0.11186593
61	0x3e8add10	0.27121782
62	0x3cac27c9	0.021015065
63	0x3d84a86d	0.06477437
64	0x3cb0e8aa	0.021595318
65	0x3d909646	0.070599124
66	0x3e932007	0.28735372
67	0x3fdfe99c	1.7493167
68	0x3d318f87	0.04334977
69	0x3e9358b5	0.28778616
70	0x3bdd262e	0.006748936
71	0xbe12a5d9	-0.14321078
72	0x3e632446	0.22181806
73	0x3ccf10e9	0.025276618
74	0x3c6450d8	0.01393529
75	0x3dd190f7	0.10232728
76	0x3d8258c6	0.063645884
77	0xbc949743	-0.018138533
78	0x3e81514a	0.2525733
79	0x3cf79182	0.03022075
80	0x3c88c47d	0.016695255
81	0xbf3af56a	-0.7303072
82	0x3c62573f	0.013814746
83	0x3e633c54	0.22190982
84	0xbe6fcae5	-0.23417242
85	0xbdb74285	-0.089482345
86	0x3e159083	0.14605908
87	0xbe0f7f9f	-0.14013527
88	0x3e65b68c	0.22432917
89	0xbca86004	-0.020553596
90	0x3d743b76	0.05962702
91	0xbd2ce5a2	-0.042211182
92	0xbe77f63d	-0.24215026
93	0xbd90f67d	-0.07078264
94	0xbe056be6	-0.13029441
95	0xbe455e31	-0.19274212
96	0xbca24166	-0.019806575
97	0x3ff13266	1.8843505
98	0xbc8f8615	-0.01751999
99	0xbc4dfe42	-0.012572827
100	0x3e8b5948	0.27216554
101	0xbd91b2a4	-0.07114151
102	0x3e1d3a7e	0.15354344
103	0x3ee344a6	0.44388312
104	0x3e06fb43	0.13181786
105	0x3d137009	0.035995517
106	0x3f47b180	0.7800522
107	0x3d0ad6a0	0.03389609
108	0x3df585bf	0.11988401
109	0x3eb037f0	0.34417677
110	0xbde222a8	-0.110417664
111	0x3e30f1aa	0.17279688
112	0xbe8a5e7a	-0.27025205
113	0xbb7ac6c7	-0.0038265453
114	0x3e9e3939	0.30903032
115	0xbc99a8dc	-0.018757276
116	0xbf208619	-0.62704617
117	0xbd630bbf	-0.055431124
118	0x3e5ea851	0.21743895
119	0x3ed48956	0.4151103
120	0xbe4bf0da	-0.19916096
121	0x3dc964d0	0.098336816
122	0x3eb0931a	0.3448723
123	0x3cd41ef4	0.025893666
124	0xbce669e1	-0.028126659
125	0x3f43db4f	0.76506513
126	0xbe88178c	-0.26580465
127	0xbe8dd112	-0.2769857
128	0x3ea83241	0.3285084
129	0xbe4cbd0b	-0.19993989
130	0x3dbd4821	0.09242273
131	0x3e333f58	0.17504632
132	0xbe645e35	-0.22301562
133	0xbd6b78a4	-0.0574881
134	0xbc15030f	-0.0090949675
135	0x3d4ed241	0.050493483
136	0x3e83565a	0.2565182
137	0xbca34dc1	-0.019934537
138	0xbf9c275e	-1.2199514
139	0x3e1f92c1	0.15583326
140	0xbd63db3d	-0.055629004
141	0xbe24cb70	-0.1609323
142	0x3e04f680	0.12984657
143	0xbe457cb5	-0.19285853
144	0xbe81248b	-0.25223193
145	0xbe25aedd	-0.16179986
146	0xbe3241f9	-0.17407979
147	0x3dbba992	0.09163202
148	0x3e675b20	0.22593355
149	0xbee17685	-0.44035736
150	0x3ea8fda2	0.33006006
151	0xbe43061d	-0.19045301
152	0xbc6ee3d6	-0.0145806875
153	0x3e0c7623	0.1371694
154	0x3bc2da3d	0.005946426
155	0xbca02e7a	-0.019553412
156	0x3e118c58	0.14213693
157	0x3e066ea3	0.13128142
158	0x3e562ed8	0.20916307
159	0xbed6f350	-0.41982508
160	0x3f661e2c	0.8988979
161	0xbe52d93a	-0.20590678
162	0xbd783950	-0.060601532
163	0x3c3f3fa6	0.01167289
164	0xbf1ce35b	-0.61284417
165	0x3ccf121d	0.025277192
166	0x3e8b238e	0.27175564
167	0x3e9f48a7	0.31110117
168	0x3ea65ffd	0.32495108
169	0x3db24d37	0.08706134
170	0x3d913d50	0.070917726
171	0xbeb65872	-0.35614353
172	0xbc28b7e0	-0.0102977455
173	0x3d9763f2	0.0739211
174	0xbd5cd76a	-0.053916372
175	0x3f14ec93	0.58173484
176	0xbdefd946	-0.117113635
177	0xbedd1e6d	-0.43187276
178	0xbe8c355a	-0.27384454
179	0x3de3297d	0.11091898
180	0x3ec3cf89	0.38244274
181	0xbd07c79e	-0.033149354
182	0xbe00550b	-0.12532441
183	0xbde8b6f8	-0.113630235
184	0x3e4de1e7	0.20105706
185	0x3e2ec572	0.17067507
186	0x3cd89c9f	0.02644187
187	0x407abdbd	3.9178307
188	0x3db88fee	0.090118274
189	0x3da0eb8a	0.078574255
190	0x3eb5e8c7	0.35529158
191	0xbe1d57ab	-0.15365474
192	0x3c615f43	0.013755622
193	0x3d86f300	0.06589317
194	0xbdb3a914	-0.087724835
195	0xbf4cb04b	-0.799565
196	0xbd227651	-0.039663617
197	0xbe3627e8	-0.1778866
198	0xbcbc2b63	-0.022969907
199	0x3e86dbc8	0.26339555
200	0xbd486dd7	-0.048932876
201	0xbbfc50a4	-0.007700043
202	0x3d2e4089	0.042542014
203	0x3eedeef6	0.46471375
204	0xbd0b0601	-0.033941273
205	0x3e74204b	0.23840444
206	0xbecaf5ce	-0.3964066
207	0x3c8fe70b	0.017566225
208	0xbd38fa70	-0.04516071
209	0x3e717b72	0.23582247
210	0x3f178174	0.59181905
211	0xbcf49f1a	-0.029861022
212	0xbcafcd54	-0.021460213
213	0x3e48886d	0.19583292
214	0x3e591cd9	0.21202411
215	0x3e9c205a	0.30493432
216	0xbeed4b5f	-0.46346566
217	0xbda7e4cc	-0.081979364
218	0xbc8a68bd	-0.016895646
219	0xbeee0f9d	-0.46496287
220	0x3c8cfc77	0.017210228
221	0x3f25fae4	0.64835954
222	0xbd302901	-0.043007854
223	0x3f3ce5a5	0.7378791
224	0xbd17089d	-0.03687345
225	0x3e128311	0.1430781
226	0x3e90374c	0.28167188
227	0xbe8d1d38	-0.27561355
228	0x3f0b4487	0.5440144
229	0x3dba7d7c	0.091059655
230	0xbe17c0aa	-0.1481959
231	0xbe73ea3c	-0.23819822
232	0xbe105273	-0.14093952
233	0xbf895763	-1.0729793
234	0xbd09f43d	-0.03368019
235	0x3e329c58	0.17442453
236	0x3ca5d881	0.020244839
237	0xbb8bce10	-0.004266508
238	0x3dcbff95	0.09960858
239	0x3ea7c17a	0.32764798
240	0x3dcbd9ef	0.09953677
241	0xbdae4b9b	-0.08510514
242	0xbcd978bc	-0.026546828
243	0x3e9ab064	0.302127
244	0x3f64eaaa	0.8942057
245	0xbde27027	-0.110565476
246	0x3e335a04	0.17514807
247	0xbc556f23	-0.013026985
248	0xbe2dd4de	-0.16975734
249	0xbdb03ac0	-0.08604956
250	0xbd186cbc	-0.037213072
251	0x3e00f25b	0.12592451
252	0x3e9985c8	0.2998488
253	0xbe1b3cef	-0.15159963
254	0xbeba6488	-0.36404824
255	0xbdd311d2	-0.10306133

mean.bias f4 [6]
0	0xbeb66d80	-0.35630417
1	0x3e3aa187	0.1822568
2	0x3d545946	0.05184295
3	0x3dc5ece0	0.09664321
4	0x3e1cbe9b	0.15307085
5	0x3e5ef75a	0.21774045

log_std.weight f4 [6, 256]
0	0xbcd54c98	-0.0260375
1	0xbc6426f7	-0.013925306
2	0x3e325f27	0.1741911
3	0xbc973b70	-0.01846096
4	0x3d3ef9a0	0.04662478
5	0x3fa5fa0f	1.2966937
6	0x3d191a9f	0.037378903
7	0x3e25cd11	0.16191508
8	0x3de840c3	0.11340477
9	0xbdafbdd6	-0.0858113
10	0x3c6dcaaf	0.014513656
11	0xbc4b2883	-0.012399795
12	0xbc49d5e7	-0.012319065
13	0xbd6ad654	-0.057333305
14	0xbc9b4d82	-0.018957857
15	0x3d8baaac	0.068196625
16	0x3d69b75e	0.05705964
17	0x3e0aecc8	0.13566887
18	0x3dd25a78	0.10271162
19	0x3e9d75bd	0.3075389
20	0x3e36dfc8	0.17858803
21	0x3c849b8b	0.01618745
22	0xbda2a435	-0.07941476
23	0x3c5882ef	0.013214811
24	0xbc587d97	-0.013213537
25	0x3dcee99e	0.10103153
26	0x3ca0b07f	0.01961541
27	0x3e81d141	0.2535496
28	0xbc510906	-0.012758499
29	0x3d90ca02	0.0706978
30	0xbd2111a7	-0.039323475
31	0x3d892f55	0.06698481
32	0xbcb5d5c7	-0.022196664
33	0xbd69c32c	-0.057070896
34	0x3e239226	0.1597372
35	0xbe61a71e	-0.22036406
36	0x3da7992f	0.08183514
37	0xbd260998	-0.040536493
38	0x3d9a39ae	0.07530533
39	0x3cc2073b	0.023685088
40	0x3e0544c9	0.1301452
41	0x3e1fa92c	0.15591878
42	0xbc4291bc	-0.011875566
43	0x3cbf2c94	0.023336686
44	0xbd4182c5	-0.047243852
45	0x3de819ee	0.11333071
46	0x3c933491	0.017969402
47	0xbc9f4af6	-0.019444924
48	0xbd8561be	-0.065127835
49	0x3d82c9e9	0.063861676
50	0xbe0aa51b	-0.13539545
51	0x3e60cc9e	0.21953055
52	0x3cf9e17b	0.030503025
53	0xbc5b0842	-0.013368668
54	0x3d8387ba	0.06422372
55	0xbc13f5db	-0.0090307845
56	0x3d2c28e0	0.04203117
57	0x3e894e33	0.26817474
58	0xbc306a3a	-0.010767514
59	0x3f12bbaa	0.573176
60	0xbbb084ac	-0.0053869095
61	0x3cc7700d	0.024345422
62	0xbdac35c5	-0.08408693
63	0xbd849e69	-0.06475527
64	0xbdb4d8bb	-0.088304006
65	0x3c7d067f	0.015443443
66	0x3d665480	0.05623293
67	0x3f218bb7	0.6310381
68	0xbd4ed2f6	-0.050494157
69	0x3ce7f003	0.028312689
70	0xbc8992fd	-0.016793722
71	0x3da97522	0.082742944
72	0xbdef124d	-0.116734125
73	0x3cb03abd	0.021512384
74	0xbc2a8733	-0.010408211
75	0xbe144cc3	-0.14482407
76	0xbce82c86	-0.028341543
77	0xbc936335	-0.017991642
78	0x3e7ead2a	0.24870744
79	0xbd261039	-0.040542815
80	0x3cab291d	0.020893628
81	0x3e36c7e8	0.17849696
82	0xbcb0720c	-0.021538757
83	0x3d758d2e	0.059949093
84	0x3e1bbb5f	0.15208195
85	0x3c117438	0.008877806
86	0x3d166c2d	0.03672426
87	0x3dda7966	0.10667686
88	0xbd050b54	-0.032481506
89	0xbcd7249a	-0.02626257
90	0xbc1b9503	-0.009495976
91	0xbbcc73e3	-0.0062394007
92	0xbc075837	-0.008260778
93	0x3c86b314	0.016442813
94	0x3d996f10	0.074918866
95	0x3c2e874a	0.010652373
96	0xbbb94616	-0.005654107
97	0x3f82a2c4	1.0205922
98	0x3dca9524	0.098917276
99	0x3c2f06bb	0.010682757
100	0x3dc0b521	0.094095476
101	0x3ba63052	0.005071678
102	0x3cdadcb6	0.026716571
103	0xbd9c7ad4	-0.07640615
104	0xbcecedcc	-0.028921984
105	0xbc38e7b7	-0.011285714
106	0x3e8938c3	0.26801118
107	0xbcff2f13	-0.031150376
108	0x3a4f505c	0.0007908398
109	0x3e605774	0.2190836
110	0x3d17dde5	0.03707685
111	0xbab4e499	-0.0013801038
112	0xbd1f7943	-0.038934004
113	0xbd84e78c	-0.064894766
114	0x3e69a798	0.22817838
115	0x3bd65750	0.00654117
116	0x3ebec85b	0.37262234
117	0xbd1f94b4	-0.038960174
118	0x3dc9e6af	0.098584525
119	0xbdb94e7f	-0.09048175
120	0xbd2ef69a	-0.042715646
121	0x3d4b41ac	0.049623176
122	0x3e961208	0.29310632
123	0xbca527ed	-0.02016064
124	0xbbcd5434	-0.0062661413
125	0x3eabecc0	0.33579063
126	0x3d3d6b80	0.046245098
127	0x3e6e8962	0.23294595
128	0x3e1df85a	0.1542677
129	0x3c9c64f4	0.019091107
130	0xbd888a6f	-0.06667029
131	0x3c00b60e	0.007855905
132	0x3d91ea7f	0.07124805
133	0xbd7477e2	-0.05968464
134	0x3da0badd	0.07848141
135	0xbcaf7feb	-0.0214233
136	0x3d2dfbff	0.04247665
137	0xbdad2c63	-0.08455732
138	0x3e925972	0.28583866
139	0xbceb11dd	-0.028695041
140	0x3c8f2d5c	0.017477684
141	0x3dfba518	0.122873485
142	0xbd599724	-0.053122655
143	0x3dea024b	0.114262186
144	0x3c443453	0.011975366
145	0x3d539857	0.051658954
146	0x3dc1325e	0.09433435
147	0xbcf5c5cb	-0.030001542
148	0xbdf965c3	-0.12177613
149	0x3ddb2d42	0.107019916
150	0x3db26a88	0.087117255
151	0x3e03e16d	0.12878962
152	0x3c9dfcc6	0.01928557
153	0xbbfc891e	-0.0077067753
154	0xbbb779d4	-0.00559924
155	0xbd314164	-0.043275252
156	0x3c7f1dde	0.015571086
157	0x3d549dcc	0.0519083
158	0xbd8bd8c2	-0.06828453
159	0x3e586422	0.21131948
160	0x3e5a51a4	0.21320206
161	0x3e286b74	0.1644724
162	0x3cbc4ccb	0.022985836
163	0xbcc0039b	-0.02343922
164	0x3e311122	0.17291692
165	0xbd614316	-0.05499562
166	0xbe03bf54	-0.12865955
167	0x3db648f7	0.08900636
168	0x3e4d97e9	0.2007748
169	0x3afd8fa8	0.0019345181
170	0xbe1d9ed7	-0.15392624
171	0x3e2de366	0.16981277
172	0x3cac2a1f	0.021016179
173	0x3992fc6d	0.00028035362
174	0xbd1bdf72	-0.03805489
175	0x3e483e37	0.19554983
176	0xbd773f5c	-0.06036316
177	0x3da628bb	0.081132375
178	0x3e36e265	0.178598
179	0x3bdc39dc	0.0067207646
180	0x3e156b09	0.14591612
181	0xbd9eebf4	-0.07759848
182	0x3d64a52a	0.055821575
183	0x3d94b784	0.07261565
184	0x3ca6035b	0.020265272
185	0xbe1a62a3	-0.1507669
186	0xbc71eb09	-0.014765509
187	0x3efef068	0.4979279
188	0xbdde1e65	-0.10845641
189	0x3cccf43c	0.025018804
190	0x3d8be8c2	0.068315044
191	0x3c8e0e9c	0.01734095
192	0xbbe964e0	-0.007122621
193	0x3c224cfe	0.009906052
194	0xbc86bdc5	-0.016447911
195	0x3d67dfed	0.056610037
196	0x3d54417e	0.05182027
197	0x3d391242	0.045183428
198	0xbc3a87ef	-0.011384948
199	0xbd1c9561	-0.038228396
200	0xbe18459e	-0.14870307
201	0xbd060e7f	-0.03272867
202	0x3ccfd0b9	0.025368081
203	0x3ec34891	0.381413
204	0x3d83a1d9	0.06427354
205	0xbc5ae845	-0.013361041
206	0x3eab0259	0.3340023
207	0xbc9c6a38	-0.019093618
208	0x3d35890f	0.044320162
209	0x3d2fdc02	0.042934425
210	0x3e7b5563	0.24544291
211	0xbd9e0bcc	-0.07717094
212	0xbd1f93b8	-0.038959235
213	0x3d34223c	0.04397796
214	0x3c84707f	0.016166924
215	0x3d84c300	0.06482506
216	0xbad479a6	-0.001621057
217	0xbc3192ac	-0.010838192
218	0xbd33c738	-0.04389116
219	0x3e89d903	0.2692338
220	0xbd3be970	-0.04587692
221	0x3e8cb8c8	0.27484727
222	0xbd007a8e	-0.031366877
223	0x3e221a12	0.15830258
224	0xbcdb1435	-0.026743034
225	0x3daf1cd0	0.085504174
226	0x3de88466	0.11353378
227	0xbbfe53cb	-0.0077614537
228	0x3e31b5cd	0.17354508
229	0xbd95cb65	-0.07314185
230	0x3d973f21	0.07385088
231	0x3e0ef8e0	0.13962126
232	0x3d11600d	0.03549199
233	0x3ed786f3	0.42095146
234	0x3c2fd991	0.010733024
235	0x3d092822	0.03348554
236	0xbac2d762	-0.0014865214
237	0x3d4659e4	0.04842557
238	0xbda76581	-0.08173657
239	0xbaaeb4fd	-0.0013329085
240	0x3d1aa665	0.037756342
241	0x3c33823f	0.010956346
242	0xbd84bf62	-0.06481816
243	0x3dde1c22	0.1084521
244	0x3e8581c0	0.26075554
245	0x3cfeac29	0.031087952
246	0xbd150631	-0.036382858
247	0xbc3906ca	-0.011293123
248	0x3dbde29b	0.09271737
249	0x3cdcf11c	0.026970439
250	0x3d44e66d	0.048071314
251	0x3d5e8353	0.05432446
252	0xbdaae468	-0.08344346
253	0x3d20548b	0.039143126
254	0x3d89a4c2	0.06720878
255	0x3d6eade1	0.058271293

log_std.bias f4 [6]
0	0xbfe9c96b	-1.8264593
1	0xbfc90d86	-1.5707252
2	0xbfec5801	-1.8464357
3	0xbffc7613	-1.9723533
4	0xbfdbf785	-1.7184912
5	0xbfe6fbfc	-1.804565
