trained_models/Walker2dNormal-v3/sero/critic_1.pt (torch, 582018 bytes, 10 tensors)

Q1.0.weight f4 [256, 23]
0	0xbe962a64	-0.29329216
1	0x3f016fdf	0.50561327
2	0x3f799c5d	0.97504216
3	0x3e1b60ab	0.15173595
4	0xbda894d2	-0.0823151
5	0xbd8cd8a6	-0.0687726
6	0x3f3d3bb6	0.73919237
7	0x3f5e8fd8	0.8693824
8	0xbe37dbe1	-0.17954971
9	0xbefa6c49	-0.4891074
10	0xbe5119e7	-0.20420037
11	0x3e2dcab0	0.1697185
12	0x3e322b95	0.17399438
13	0x3dbb6cba	0.09151597
14	0xbdaa3e3c	-0.083126515
15	0x3e092215	0.13391908
16	0x3d1478f3	0.03624816
17	0x3c79bd9e	0.015242962
18	0xbf4f99df	-0.81094164
19	0xbead09ad	-0.33796445
20	0xbde5767e	-0.11204241
21	0xbf84879d	-1.0353886
22	0x3e0bd083	0.1365376
23	0x3f0e2f27	0.555407
24	0xc02a8aa5	-2.6647122
25	0x3ef3f657	0.4764888
26	0xbdf05dfb	-0.11736675
27	0xbe6b7240	-0.22992802
28	0x3e847efb	0.25878128
29	0xbf40b470	-0.75275326
30	0x3daffa14	0.085926205
31	0x3ef34982	0.4751702
32	0x3d43e2e6	0.04782381
33	0xbf0f9356	-0.5608419
34	0x3df6fa19	0.12059421
35	0x3e598844	0.21243387
36	0x3cda5ddc	0.026656084
37	0x3c6fc0e2	0.014633389
38	0x3db4898c	0.088152975
39	0xbd8b04a6	-0.06787996
40	0x3e94dd25	0.2907497
41	0x3e120d5d	0.1426291
42	0x3dcf675b	0.10127135
43	0x3eca67a5	0.395322
44	0xbe30e8c7	-0.17276298
45	0xbdb5f161	-0.0888393
46	0x3f582b6d	0.8444126
47	0xc07038c4	-3.7534647
48	0x4076f9e3	3.8590019
49	0x3fd4b630	1.6618099
50	0x3e6ced68	0.23137438
51	0x400460b7	2.068403
52	0x3f6a5607	0.9153752
53	0x3de95a8d	0.11394224
54	0x3d63a847	0.055580404
55	0xbe70a326	-0.23499736
56	0xbdab09d4	-0.08351484
57	0x3dd0b36c	0.10190472
58	0x3d3438d2	0.0439995
59	0xbc74808f	-0.014923229
60	0x3cd07c9c	0.025450043
61	0x3ccf173a	0.02527963
62	0xbb801119	-0.003908288
63	0x3e0bd737	0.13656317
64	0x3d44d0d8	0.04805073
65	0xbd770819	-0.060310457
66	0x3e28a35f	0.16468571
67	0x3d2a3c42	0.041561373
68	0xbc41b1fb	-0.011822219
69	0xbf4c7d1f	-0.7987842
70	0xbfda1ecc	-1.7040648
71	0xc01ab928	-2.417551
72	0x3f12c200	0.5732727
73	0x4020f5c9	2.5150015
74	0xbf28bae3	-0.65910167
75	0xb99d5740	-0.0003001038
76	0xbd6801df	-0.05664241
77	0xbbf7fbab	-0.007567843
78	0xbed326ae	-0.41240448
79	0x3e13ff97	0.14452969
80	0xbe116d97	-0.14201961
81	0xbda8b84d	-0.082382776
82	0x3d7ecd5c	0.062207565
83	0x3d03fadb	0.032221656
84	0x3cf18565	0.029482553
85	0x3d066758	0.0328134
86	0x3c08e0e1	0.008354397
87	0xbcae0cd5	-0.021246353
88	0x3e13ac53	0.14421205
89	0xbdb8e487	-0.09027963
90	0x3e0dc9a9	0.13846458
91	0x3e6fa219	0.23401679
92	0x3d3c9e14	0.046049193
93	0xc037c3da	-2.8713288
94	0xbf8ac51c	-1.0841403
95	0x3f99173b	1.1960214
96	0xbda8dbb2	-0.082450286
97	0xbf9a4b84	-1.2054296
98	0xbe11cc79	-0.14238156
99	0xbed81393	-0.42202434
100	0x3eba4a42	0.3638478
101	0x3f34ad45	0.7057689
102	0xbd8184b3	-0.063241385
103	0x3d1cbf59	0.03826842
104	0x3dd80819	0.105484195
105	0x3e29ceb5	0.16582759
106	0xbcd1d015	-0.025611917
107	0xbd1cf31c	-0.038317785
108	0x3c991e67	0.018691255
109	0xbf185ea2	-0.595194
110	0x3e1b67dd	0.1517634
111	0x3f567407	0.83770794
112	0x3ce9e91b	0.028553536
113	0xbe59df25	-0.21276529
114	0xbd3bbc52	-0.045833893
115	0xbcef7911	-0.029232534
116	0xbfd776d3	-1.6833137
117	0xbed21e15	-0.41038576
118	0x3ea28b11	0.31746724
119	0xbd460610	-0.048345625
120	0xbf820abf	-1.015953
121	0xbf1eca1f	-0.6202716
122	0x3eda02d8	0.42580295
123	0x3d15e41e	0.036594503
124	0xbe97ae71	-0.29625276
125	0xbec68e44	-0.38780415
126	0xbda2fd59	-0.079584785
127	0x3d39c444	0.04535319
128	0xbd753f55	-0.05987485
129	0x3ea81f9f	0.32836625
130	0x3e7f7bc9	0.24949564
131	0xbc4653b7	-0.01210492
132	0xbcc3fe08	-0.023924842
133	0x3ea2e30d	0.3181385
134	0x3f0ce317	0.5503401
135	0x3f2fe2fd	0.6870573
136	0x3ec0c668	0.37651372
137	0x3de61816	0.11235063
138	0xbc27c320	-0.0102393925
139	0x3fb03d7b	1.3768762
140	0x403d220f	2.9552038
141	0x3f47fa97	0.78116745
142	0x3f0f7e4a	0.56052077
143	0xbdeab338	-0.114599645
144	0xbeef575b	-0.46746334
145	0xbf5b3c3b	-0.8563878
146	0xbea153ca	-0.31509238
147	0xbd4a40e4	-0.04937829
148	0x3dfb39cf	0.122668855
149	0xbe7c3d24	-0.24632698
150	0xbd781d5b	-0.06057487
151	0xbde68d4a	-0.112574175
152	0x3e9d3313	0.3070303
153	0x3d7bcde4	0.06147565
154	0x3d3e05c8	0.046392232
155	0x3e925a70	0.28584623
156	0x3d95cd9e	0.07314609
157	0xbeb2dd67	-0.34934542
158	0x3f6730c5	0.9030879
159	0xbf1732cf	-0.590619
160	0xbe472a88	-0.19449818
161	0xbf900c49	-1.1253749
162	0x3bbd08a8	0.005768854
163	0xc017d805	-2.3725598
164	0xbfdeb525	-1.7399031
165	0xbf280b7f	-0.6564254
166	0x3f7cbb10	0.98722935
167	0x3e9b9eef	0.30394694
168	0x3f1b95fe	0.60775745
169	0xbf6d7432	-0.92755425
170	0xbe8887ff	-0.26666257
171	0xbf46d1c7	-0.77663845
172	0x3f010e2f	0.5041227
173	0x3eec3dfd	0.46141043
174	0xbdcb87c5	-0.09938005
175	0x3d91bb74	0.07115832
176	0x3df37d18	0.11889094
177	0x3cf42be6	0.029806089
178	0xbe139c90	-0.14415193
179	0xbdd1f28b	-0.102513395
180	0xbdddf92e	-0.10838543
181	0xbe7bfcce	-0.24608156
182	0x3d4b31ec	0.049608156
183	0x3de12cfa	0.10994907
184	0x3f259e6a	0.64694846
185	0x4030e159	2.7637541
186	0x3f8bc417	1.0919217
187	0xbed3c232	-0.41359097
188	0x3cb352fb	0.021890154
189	0xbfc6e408	-1.553834
190	0xbeda075a	-0.42583734
191	0xbeca1b74	-0.3947407
192	0x3ed85c79	0.4225805
193	0x3f05ab46	0.5221447
194	0x3e0aa6a1	0.13540126
195	0x3dcd4ee2	0.10024811
196	0x3e886806	0.26641864
197	0x3caeb4d5	0.021326462
198	0xbea2cf07	-0.31798574
199	0xbe350b51	-0.17680098
200	0xbe45ec42	-0.19328406
201	0x3e5ff7fc	0.21871942
202	0xbd7b3457	-0.061329212
203	0x3e3f81e9	0.187019
204	0x3e3e225b	0.18567793
205	0xbe9fa0dc	-0.31177413
206	0x3f05b82b	0.52234143
207	0xbdc368af	-0.09541451
208	0xbff023ed	-1.8760964
209	0xbef66c5c	-0.48129547
210	0xbe89bd5d	-0.26902285
211	0xbc4b6fe8	-0.012416817
212	0x3eb5bc71	0.35495332
213	0xbdf265ac	-0.118357986
214	0x3d9ae724	0.07563618
215	0xbc378fdb	-0.011203731
216	0x3e4e4733	0.20144348
217	0x3d68a7ae	0.056800537
218	0x3d0cb1a3	0.034349095
219	0x3d43cf4a	0.047805108
220	0xbbb13100	-0.0054074526
221	0xbcbb1321	-0.02283627
222	0x3bb2bb79	0.0054544774
223	0xbd1b332a	-0.03789059
224	0x3dada707	0.084791236
225	0x3c86207a	0.016372908
226	0xbcfebf13	-0.03109697
227	0x3e30c9e7	0.1726452
228	0xbeb03652	-0.34416443
229	0x3cd840ef	0.02639815
230	0xbe59f1d4	-0.21283656
231	0x3fbc7c4a	1.472543
232	0xbfd8b924	-1.69315
233	0xbf973596	-1.1813228
234	0xbf808604	-1.0040898
235	0xbdcb87a3	-0.0993798
236	0xbe87d213	-0.2652746
237	0x3e2572bc	0.16157049
238	0x3ee0fc85	0.43942657
239	0xbef2863b	-0.47368035
240	0xbecfddd2	-0.40598923
241	0x3e261687	0.16219531
242	0x3d8c5ede	0.06854032
243	0xbd724891	-0.059151236
244	0x3e0771c4	0.13226992
245	0x3c372748	0.011178799
246	0xbd1a9659	-0.03774104
247	0xbe92caf1	-0.28670457
248	0x3e07a6b4	0.13247186
249	0xbf4f509f	-0.80982393
250	0xbea21019	-0.31652907
251	0x3e1edbe5	0.1551357
252	0x3de24d4d	0.110499
253	0x3f2a6a2f	0.66568273
254	0xc05406da	-3.3129182
255	0x3cd9ee7a	0.026602972

Q1.0.bias f4 [256]
0	0x3f32c743	0.698353
1	0x3ecc2d56	0.3987834
2	0xbebbfe46	-0.36717433
3	0xbd6c6895	-0.057716925
4	0xbdcf2ef7	-0.1011638
5	0xbee68014	-0.4501959
6	0x3ef4b50f	0.47794387
7	0xbefeea6b	-0.49788222
8	0xbef40b51	-0.47664884
9	0x3fb95725	1.4479719
10	0xbfa7e8f8	-1.3117971
11	0x3f145aff	0.5795135
12	0xbf3c641f	-0.7359027
13	0xbf0ee001	-0.5581055
14	0xbf54d3e8	-0.83135843
15	0xbf322358	-0.6958518
16	0x3d4f5627	0.05061927
17	0xbef5360f	-0.47892806
18	0x3fc36f6a	1.5268376
19	0x3f766d14	0.9626019
20	0x3f940720	1.1564674
21	0x3f834a4a	1.0257046
22	0x3f877b8d	1.058458
23	0xbfb78820	-1.4338417
24	0xbf2229b9	-0.63344914
25	0xbca27f3e	-0.019836064
26	0xbeb2bb3f	-0.34908482
27	0x3f88fd2f	1.0702266
28	0x3ec80e9e	0.39073652
29	0xbd270b70	-0.040782392
30	0x3ec9e94e	0.3943581
31	0xbf7638bf	-0.9618034
32	0xbf6e038c	-0.9297416
33	0xbf49a8c9	-0.7877317
34	0xbe034451	-0.1281903
35	0x3daee8e3	0.08540513
36	0xbf8a6d17	-1.0814542
37	0xbf309cca	-0.6898924
38	0x3e854d96	0.26035756
39	0x3fb95800	1.447998
40	0x3d45ed98	0.04832229
41	0x3d440533	0.04785652
42	0x3e2641fa	0.16236106
43	0x3f697285	0.9119037
44	0xbd790e3c	-0.06080459
45	0xbf3a2711	-0.7271586
46	0x3fa38bb8	1.2777014
47	0x3f8b624c	1.0889373
48	0xbf8aea4f	-1.0852755
49	0x3f94f052	1.163584
50	0x3f948791	1.1603872
51	0xbd0579ed	-0.03258698
52	0xbf0e6f11	-0.55638224
53	0xbe932e2d	-0.28746167
54	0xbf02863f	-0.50986093
55	0xbdd79406	-0.1052628
56	0x3c724d1b	0.014788891
57	0xbf0d02bf	-0.55082315
58	0xbf9a9df1	-1.207945
59	0xbeb594ec	-0.3546518
60	0x3e2fd740	0.17171955
61	0xbecbcf79	-0.39806727
62	0x3f20ca94	0.6280911
63	0x3dbf64e8	0.09345418
64	0xbf8680a9	-1.0508014
65	0x3ef6ac92	0.48178536
66	0xbf56a62c	-0.8384731
67	0xbf011e66	-0.5043701
68	0x3d81e86e	0.063431606
69	0xbf5cb82a	-0.8621851
70	0xbf8a95f3	-1.0827011
71	0xbf9789a5	-1.1838881
72	0x3f9cca82	1.22493
73	0xbf227a53	-0.634679
74	0x3f33cc59	0.70233685
75	0x3fe81ee9	1.8134433
76	0x3f577b00	0.8417206
77	0x3f0f97d1	0.5609103
78	0xbe938e31	-0.2881942
79	0xbf483803	-0.7821047
80	0xbf1bfcf0	-0.60932827
81	0xbf503122	-0.8132497
82	0xbd457b16	-0.048213087
83	0xbe98848f	-0.29788634
84	0xbd5103d2	-0.051029034
85	0x3f5ed9f8	0.87051344
86	0xbe9eb68a	-0.3099864
87	0xbed0ee19	-0.40806654
88	0x3f04d68d	0.5188988
89	0x3f596d7f	0.849327
90	0xbf012928	-0.50453424
91	0x3e3ddb52	0.18540695
92	0x3f3d0ecb	0.738507
93	0xbf0d958f	-0.55306333
94	0xbf836ac0	-1.0266953
95	0xbf29f4a9	-0.66388947
96	0xbf94fe50	-1.164011
97	0xbe1249e6	-0.14286003
98	0xbf90228b	-1.1260542
99	0x3f8d1f07	1.1025094
100	0x3fb6f056	1.4292095
101	0x3fcc7bd8	1.5975294
102	0xbdbe0c0a	-0.0927964
103	0x3f2d1a33	0.676181
104	0xbf5f9b10	-0.8734598
105	0x3feab21e	1.8335607
106	0x3f1e8bdd	0.61932164
107	0xbf7e1be4	-0.9926131
108	0x3e967e18	0.29393077
109	0xbf531de1	-0.82467467
110	0x3f98f44c	1.1949553
111	0x3f8acecb	1.0844358
112	0x3f8499fe	1.0359495
113	0xbf5152af	-0.8176679
114	0xbd0609c4	-0.032724157
115	0xbecf8176	-0.40528458
116	0x3ebb2be3	0.3655692
117	0xbede57ef	-0.43426463
118	0x3fc55948	1.5417871
119	0x3ee0a29e	0.43874067
120	0xbf01d742	-0.5071908
121	0x3e456ccb	0.19279782
122	0x3f8e8a62	1.1135981
123	0xbf41217e	-0.7544173
124	0xbe68b66c	-0.22725838
125	0xbec20a14	-0.37898314
126	0xbd4697cc	-0.04848461
127	0x3e3004b1	0.1718929
128	0x3e92bf8d	0.28661767
129	0x3ffa021f	1.9531897
130	0xbf224871	-0.63391787
131	0xbea6cb5d	-0.3257703
132	0x3ecb4def	0.39707896
133	0x3f373178	0.7155986
134	0x4005291e	2.0806346
135	0x3ed84518	0.42240214
136	0xbdf261d5	-0.11835066
137	0xbf853ac8	-1.0408564
138	0xbf7e9fff	-0.99462885
139	0xbfbbbfc6	-1.46679
140	0xbe524e1d	-0.2053761
141	0x3fad3021	1.3530313
142	0x3e93bcef	0.28855082
143	0xbf9ebdc2	-1.240166
144	0xbea5ed34	-0.32407534
145	0x3d00ef3c	0.03147815
146	0xbfacb2d2	-1.3492072
147	0x3f9b6ba2	1.2142222
148	0xbe63f65d	-0.22261949
149	0x3f7282e7	0.9473099
150	0xbeccca89	-0.39998272
151	0x3f708e75	0.9396737
152	0x3fc38dbc	1.5277629
153	0x3f5f4398	0.87212515
154	0xbfedf73f	-1.8591079
155	0xbf3269de	-0.6969279
156	0xbea624cd	-0.32449952
157	0xbf76efcd	-0.96459657
158	0xbe8a27a7	-0.26983377
159	0x3e0b572e	0.13607475
160	0xbfc14ce2	-1.5101588
161	0xbec19acb	-0.3781341
162	0xbf4d1a3b	-0.8011815
163	0xbdd43cea	-0.10363181
164	0x3fb420cd	1.407251
165	0xbf2232e9	-0.6335893
166	0x3e52f6e8	0.20602
167	0x3fbbd3af	1.4673976
168	0x3ec61d08	0.38694024
169	0x3fc4360c	1.5328994
170	0xbf9b9e56	-1.2157695
171	0x3f8a51aa	1.0806172
172	0xbea1dd1e	-0.31614012
173	0xbf2a7843	-0.66589755
174	0xbfbbda1d	-1.4675938
175	0xbf4954e6	-0.7864517
176	0xbf03b0d4	-0.51441693
177	0xbcd94380	-0.026521444
178	0x3e83c4bf	0.25736043
179	0x3d67147c	0.05641602
180	0xbf079d83	-0.5297472
181	0xbf838635	-1.0275332
182	0xbe7357f4	-0.2376402
183	0xbe125fc3	-0.14294343
184	0x3e3783ff	0.17921446
185	0xbda8345f	-0.08213114
186	0x3fb68f24	1.4262433
187	0xbfa1b48b	-1.2633222
188	0xbf3b8574	-0.7325051
189	0xbea212a4	-0.31654847
190	0x3e3aa6ab	0.18227641
191	0xbf1a8bfd	-0.60369855
192	0xbd5c84ab	-0.05383746
193	0xbd78ca41	-0.06073976
194	0x3e00588e	0.12533781
195	0x3ed33c6f	0.41257045
196	0xbfaa6638	-1.3312445
197	0x3f147541	0.57991415
198	0xbf45c845	-0.7725871
199	0x3fa186a9	1.261922
200	0xbea00cfa	-0.312599
201	0xbeb058fd	-0.34442893
202	0x3fa5d60f	1.295595
203	0xbf9064d2	-1.1280768
204	0x3f5e994a	0.8695265
205	0xbf5e2208	-0.8677068
206	0xbf9359e8	-1.1511812
207	0x3f36b031	0.71362597
208	0xbf9c2c7b	-1.2201074
209	0x3b927e82	0.0044706473
210	0x3f189a62	0.5961057
211	0xbea56df1	-0.3231044
212	0xbf6f57c3	-0.9349329
213	0xbe890d6a	-0.26768047
214	0xbed88b6c	-0.4229387
215	0x3f81cd92	1.014086
216	0xbf03e764	-0.5152495
217	0x3d7c1dc7	0.061551835
218	0x3e9572b9	0.2918909
219	0xbfa77fb4	-1.3085847
220	0x3f8bf0b6	1.0932834
221	0xbe3a170e	-0.18172857
222	0xbf2f8f2f	-0.68577856
223	0xbe8d3a4a	-0.27583534
224	0xbf3ec5cf	-0.7452058
225	0x3fa8f4a3	1.3199657
226	0x3fa9ac5e	1.3255727
227	0x3e3fc7b4	0.18728524
228	0xbf9608f3	-1.1721481
229	0x3fc58727	1.543187
230	0xbf39f334	-0.72636724
231	0xbfd97c14	-1.6990991
232	0xbe97f76b	-0.29680952
233	0xbde3c5e4	-0.11121729
234	0xbe8fc24b	-0.2807792
235	0xbf5398d2	-0.8265506
236	0xbe927068	-0.28601384
237	0x3fc8506a	1.564954
238	0x3f8fdc21	1.1239053
239	0x3ef7bb8b	0.4838527
240	0xbfbe7cea	-1.4881871
241	0xbfa12f31	-1.2592527
242	0x3d957fb2	0.072997466
243	0xbf3b3888	-0.73133135
244	0xbe1a2d61	-0.15056373
245	0xbf8feacc	-1.1243529
246	0xbf3ce9b0	-0.7379408
247	0x3fc879ca	1.5662167
248	0xbe464b4d	-0.19364662
249	0xbd4053ea	-0.046955027
250	0xbfa28aac	-1.2698569
251	0xbe44a153	-0.19202165
252	0xbf56bed3	-0.83884925
253	0xbee79613	-0.45231685
254	0xbf960ce0	-1.1722679
255	0x3ff6fcd4	1.9295907

Q1.2.weight f4 [256, 256]
0	0xbe5f7ac7	-0.2182418
1	0x3e51d446	0.20491132
2	0x3dd9c488	0.106331885
3	0x3e8e5b30	0.27803946
4	0xbe0c7fcc	-0.13720626
5	0x3cff40c2	0.031158809
6	0x3e2703f6	0.16310105
7	0x3da2a180	0.0794096
8	0xbba948f1	-0.005166166
9	0xbe001d42	-0.12511161
10	0x3ea04666	0.3130371
11	0x3df61913	0.12016501
12	0x3e656baf	0.2240436
13	0x3e87d020	0.26525974
14	0x3de9b880	0.11412144
15	0xbcc9653d	-0.024584407
16	0xbf05ee17	-0.5231642
17	0xbc02027b	-0.007935162
18	0xbd0256fb	-0.031821232
19	0xbe51444e	-0.20436212
20	0x3d34140e	0.04396444
21	0xbeb24b13	-0.34822902
22	0x3e2edcaa	0.17076364
23	0xbebdf26c	-0.37099016
24	0xbe13876a	-0.14407125
25	0xbf31f5ef	-0.6951589
26	0x3e7a2467	0.24427949
27	0x3e1053e9	0.14094509
28	0xbf24e6f2	-0.64414895
29	0xbecac561	-0.39603713
30	0xbd953543	-0.072855495
31	0xbe4fc31f	-0.20289277
32	0xbddb6082	-0.10711767
33	0x3ec64c76	0.3873021
34	0x3e0e880b	0.13919084
35	0x3f1117ac	0.56676745
36	0xbec605f4	-0.38676417
37	0x3f27c3f8	0.655334
38	0xbf0a3510	-0.53987217
39	0x3de17641	0.11008883
40	0x3e30c15d	0.17261262
41	0xbd486aa6	-0.048929833
42	0x3e8eb86b	0.27875075
43	0xbe03a530	-0.12855983
44	0x3f4492b5	0.7678636
45	0x3ef7dd23	0.484109
46	0xbccc8974	-0.024967887
47	0xbd89890b	-0.06715592
48	0x3f231226	0.6369957
49	0x3d861d31	0.065485366
50	0xbd4726b1	-0.048620883
51	0xbef78636	-0.48344582
52	0xbe5ccac0	-0.21561718
53	0xbd9bacfd	-0.07601354
54	0xbdd80968	-0.10548669
55	0xbe3b52c5	-0.18293293
56	0xbf063358	-0.52422094
57	0xbe1b4261	-0.1516204
58	0xbeb9e20f	-0.36305282
59	0xbf56c5de	-0.8389567
60	0x3e2e2bb7	0.17008863
61	0x3d928d94	0.0715591
62	0x3bc8374b	0.006110107
63	0xbf18d0b1	-0.5969344
64	0xbd33c713	-0.043891024
65	0xbf5c6bf2	-0.8610221
66	0x3db2ac5f	0.087242834
67	0x3d59489f	0.053047772
68	0x3cd58cb6	0.026068073
69	0xbf23781a	-0.63855135
70	0xbf5e3c38	-0.86810637
71	0x3e3506a6	0.17678317
72	0xbe05021a	-0.12989083
73	0xbe0d38ac	-0.1379115
74	0xbee3e916	-0.44513768
75	0xbcf299b9	-0.029614316
76	0xbf7e7ec0	-0.99412155
77	0x3c7d2e3b	0.015452917
78	0xbea9ec09	-0.33187893
79	0xbde9d08f	-0.114167325
80	0x3e5b08ea	0.21390119
81	0xbcbfb297	-0.023400588
82	0x3e024dca	0.12724987
83	0xbda57ca8	-0.08080417
84	0xbbb73177	-0.0055906135
85	0x3dc4042f	0.095711105
86	0x3ed702b9	0.41994265
87	0xbda93369	-0.08261759
88	0x3c4f27f6	0.012643805
89	0x3c76482a	0.015031854
90	0x3d017c6c	0.0316128
91	0x3d8734c9	0.06601865
92	0x3f6a30df	0.9148082
93	0xbe81d527	-0.25357935
94	0x3bda00f3	0.006652945
95	0xbee8251d	-0.45340815
96	0x3ee53b7d	0.44771948
97	0x3ca4f669	0.020137029
98	0xbf84352f	-1.032873
99	0xbe5bee75	-0.21477683
100	0xbd4b6c91	-0.049664084
101	0x3e933019	0.28747633
102	0x3d85ea73	0.06538858
103	0x3d7dc796	0.061957918
104	0xbe4b5cb2	-0.19859579
105	0xbee03eba	-0.43797857
106	0xbee9d1d8	-0.4566791
107	0xbc20fd78	-0.009826057
108	0xbf16e539	-0.58943516
109	0xbd4dd09d	-0.050247777
110	0x3dc20e4f	0.094753854
111	0x3f31b0ac	0.69410205
112	0xbe2728ec	-0.16324204
113	0xbec81ce3	-0.3908454
114	0xbe67c19a	-0.22632447
115	0x3e5dfb3d	0.21677871
116	0xbec9fda1	-0.39451316
117	0x3e71529b	0.23566668
118	0x3e9986c5	0.29985633
119	0xbe220baa	-0.15824762
120	0xbe00d4e8	-0.12581217
121	0x3de9fa66	0.11424713
122	0x3d8b4e40	0.068020344
123	0xbf6292d0	-0.8850527
124	0xbe2e475d	-0.1701941
125	0x3e52c524	0.20583016
126	0xbcd7ceb6	-0.026343685
127	0xbd27fce9	-0.04101268
128	0xbe011165	-0.12604292
129	0x3f2288d0	0.6349001
130	0x3e2aa415	0.16664155
131	0x3ea2fbd1	0.31832746
132	0xbe26801b	-0.16259806
133	0x3ed9a36c	0.42507493
134	0xbf2dcc8a	-0.67890227
135	0xbe7cdba4	-0.24693161
136	0x3b54ed3a	0.003249003
137	0x3daf8f9f	0.085723154
138	0x3e88e238	0.2673509
139	0xbd31a6aa	-0.043371834
140	0xbdbb7449	-0.09153039
141	0xbd9cbe11	-0.0765344
142	0xbeec9214	-0.462052
143	0xbe802e3f	-0.25035283
144	0xbe27be70	-0.1638124
145	0x3e7a451a	0.24440423
146	0xbf177558	-0.5916343
147	0x3e9e2b72	0.3089252
148	0x3e9cedc6	0.30650157
149	0xbf200a0f	-0.6251535
150	0xbed33c48	-0.41256928
151	0x3e36a46f	0.17836164
152	0x3e5fe0a4	0.21863037
153	0xbc0c8bf6	-0.008578291
154	0x3f00744c	0.50177455
155	0xbe628ff9	-0.22125234
156	0x3d333e09	0.043760333
157	0x3e57d02b	0.21075504
158	0xbc5bb6f7	-0.013410321
159	0x3facc591	1.3497792
160	0x3d8aa8fb	0.06770512
161	0xbc888075	-0.016662816
162	0x3f423c83	0.75873584
163	0x3ed9bee4	0.4252845
164	0x3eb400e8	0.3515694
165	0x3e8fdd60	0.28098583
166	0xbe2f9f51	-0.17150618
167	0x3f1f5511	0.62239176
168	0x3ed14f8c	0.40881002
169	0xbdfecd5f	-0.12441515
170	0xbf1a207d	-0.60205823
171	0xbe41c7f4	-0.18923932
172	0xbe4c80ea	-0.19971052
173	0x3e8fdcde	0.28098196
174	0x3e71c8b0	0.23611712
175	0xbf0d115e	-0.55104625
176	0xbd0a0b56	-0.033702217
177	0xbe2871d2	-0.16449669
178	0x3edd8995	0.4326903
179	0xbf00317a	-0.50075495
180	0x3d752202	0.059846886
181	0x3d923310	0.07138646
182	0x3eca5ca4	0.39523804
183	0x3d94827c	0.072514504
184	0x3f1207fd	0.5704344
185	0xbee59719	-0.4484184
186	0x3ddc1066	0.10745315
187	0xbc7c66dd	-0.015405384
188	0x3ea17591	0.3153501
189	0x3f5e1ad0	0.8675966
190	0xbd5f504d	-0.05451994
191	0x3eb7b2f4	0.35878718
192	0x3ee5daa0	0.4489336
193	0xbf39ea37	-0.7262301
194	0xbf102959	-0.5631309
195	0xbede2048	-0.43384004
196	0xbe2eeb0d	-0.17081852
197	0x3d0bcd4b	0.03413133
198	0x3e198497	0.14991985
199	0xbdb20a17	-0.08693331
200	0x3db631fa	0.08896251
201	0x3e2a47a4	0.16628891
202	0xbe673489	-0.22578634
203	0x3d312ecd	0.043257523
204	0x3df1d1bd	0.118075825
205	0xbedc9e0e	-0.43089336
206	0x3dc5f8a5	0.09666566
207	0xbef3ada4	-0.47593415
208	0xbf599bed	-0.8500355
209	0xbe857545	-0.26066032
210	0x3e60f84a	0.21969715
211	0xbd49872c	-0.049201176
212	0x3e406e34	0.18792039
213	0x3eb72750	0.3577218
214	0xbeb480ea	-0.35254604
215	0xbf1ddbff	-0.6166381
216	0x3f0ce678	0.5503917
217	0xbf2c6ee7	-0.67356724
218	0x3ebdf7a8	0.3710301
219	0xbda51ff4	-0.08062735
220	0x3d824017	0.063598804
221	0xbc1eec7b	-0.009699936
222	0x3cd3fd64	0.025877662
223	0x3f9fc94b	1.2483305
224	0xbec5d290	-0.3863721
225	0x3e7a552b	0.24446552
226	0xbded0bae	-0.11574493
227	0xbdfa7a83	-0.122303985
228	0x3f15a898	0.5846038
229	0x3a1c541d	0.00059634616
230	0x3e9ebd60	0.31003857
231	0x3e9493a7	0.290189
232	0xbe96b5c6	-0.29435557
233	0xbed20bf8	-0.41024756
234	0x3f3caeae	0.7370404
235	0xbe83dab7	-0.25752804
236	0x3f22b41a	0.63556063
237	0x3d3da872	0.04630322
238	0xbea39e8c	-0.319569
239	0xbf8d0e0b	-1.101991
240	0xbf04b9e9	-0.51846176
241	0x3e3c545b	0.18391554
242	0xbdfaba7b	-0.122425996
243	0xbf737528	-0.9510064
244	0xbeb62d21	-0.35581306
245	0xbef87202	-0.4852448
246	0x3ded0d69	0.115748234
247	0x3ec02266	0.37526244
248	0xbe9dbdc4	-0.30808842
249	0x3ba0244a	0.0048871385
250	0xbddae9f1	-0.10689152
251	0x3f12db79	0.5736614
252	0xbf09e743	-0.538685
253	0xbe3f7ff8	-0.1870116
254	0x3c52481c	0.012834575
255	0xbc74a03a	-0.014930779

Q1.2.bias f4 [256]
0	0x3f4435c1	0.7664452
1	0xbf32fdcc	-0.69918513
2	0x3fbdecd8	1.4837904
3	0xbf826e21	-1.0189859
4	0x3fabe78c	1.3430037
5	0x3f92efd0	1.1479435
6	0xbf0778ec	-0.5291889
7	0x3fb5f91e	1.421665
8	0xbf87156e	-1.0553415
9	0xbea1862d	-0.3154768
10	0xbed4d930	-0.4157195
11	0xbf83a792	-1.0285513
12	0xbf5df179	-0.86696583
13	0xbf79c2c5	-0.9756282
14	0x3f8f789f	1.1208686
15	0xbf2e7133	-0.6814148
16	0x3fc5099e	1.539356
17	0xbf866779	-1.0500327
18	0x3fafe531	1.3741819
19	0xbdd5812e	-0.1042503
20	0x3fa70efb	1.3051447
21	0xbe0af69c	-0.13570637
22	0x3fa364b1	1.2765104
23	0x3e34a9dc	0.17642921
24	0x3f9dc1c6	1.232476
25	0xbf05c5b2	-0.52254784
26	0xbee7d7f7	-0.45281956
27	0x3f947a17	1.1599759
28	0x3fba8b8e	1.4573839
29	0x3fabd834	1.3425355
30	0xbd696161	-0.056977633
31	0xbf96b425	-1.1773726
32	0x3fbefe95	1.4921442
33	0x3f9cfee0	1.2265282
34	0x3f9fbfe9	1.2480441
35	0x3ea62707	0.3245165
36	0xbe8f32ce	-0.27968448
37	0x3fa1380e	1.2595232
38	0x3c74a57a	0.014932031
39	0x3f984c5d	1.1898304
40	0xbd536d6e	-0.051618032
41	0x3fc1367b	1.5094751
42	0xbf31b9d2	-0.69424164
43	0x3fb44dc1	1.4086229
44	0xbe6059c7	-0.21909247
45	0xbf88e239	-1.0694038
46	0x3fa16854	1.2609963
47	0x3d82c223	0.06384685
48	0x3fbad747	1.4596947
49	0x3fb99476	1.4498432
50	0x3f80d6a5	1.0065504
51	0xbf840908	-1.0315256
52	0xbf2f4ebc	-0.68479514
53	0x3f8f6e92	1.1205618
54	0x3fb3002a	1.3984425
55	0x3f9873f7	1.191039
56	0x3f95c6d9	1.1701308
57	0x3f9a7242	1.2066119
58	0xbf1388a8	-0.57630396
59	0x3fa65cd1	1.2997075
60	0x3fb486ae	1.4103601
61	0x3dbc84dc	0.092050284
62	0x3d1787b9	0.03699467
63	0xbf122e8e	-0.57102287
64	0x3fae3dbf	1.3612593
65	0xbee244e4	-0.44193184
66	0xbd85efe0	-0.06539893
67	0x3fae7c7d	1.3631741
68	0xbf3fac00	-0.74871826
69	0x3faef701	1.366913
70	0xbf1e6725	-0.61876136
71	0x3f9a9705	1.2077338
72	0x3f936a64	1.1516843
73	0x3fb62d77	1.4232625
74	0x3fa48774	1.2853837
75	0xbe2512f4	-0.16120511
76	0xbdbe6ad1	-0.09297717
77	0x3cd3e3cb	0.025865456
78	0x3edc9056	0.4307887
79	0xbf9e80a8	-1.2383013
80	0xbf67f01b	-0.90600747
81	0xbf659497	-0.89679855
82	0x3fbb3543	1.4625629
83	0x3f932f48	1.1498804
84	0x3fb45680	1.4088898
85	0xbc8d68c7	-0.017261876
86	0x3f409b52	0.75237
87	0xbf1968d0	-0.59925556
88	0x3dfce7ac	0.123488754
89	0xbf8bcc72	-1.0921767
90	0x3fafee0f	1.3744525
91	0x3fab8d83	1.3402561
92	0xbf830f7d	-1.0239102
93	0xbf0a7af8	-0.54093885
94	0x3d8703ea	0.065925434
95	0xbbca9867	-0.0061827186
96	0xbf6864f0	-0.9077902
97	0xbed76355	-0.42067972
98	0x3fac2a14	1.3450341
99	0x3faaaa23	1.3333172
100	0xbf39ea24	-0.72622895
101	0x3f9db22f	1.2320002
102	0xbf229ed0	-0.6352358
103	0x3f95d6b2	1.1706145
104	0xbf743378	-0.95391035
105	0x3f95035c	1.164165
106	0xbf9f5fb5	-1.2451082
107	0x3fb9de92	1.4521048
108	0xbfbfbad5	-1.4978892
109	0x3fa98474	1.3243546
110	0x3d411601	0.047140125
111	0x3d414106	0.04718115
112	0xbe86cd12	-0.2632833
113	0x3f9d7d57	1.2303876
114	0xbfae3c5c	-1.361217
115	0xbe556cab	-0.20842235
116	0x3fb8dc56	1.4442241
117	0xbf01351c	-0.50471663
118	0x3f9e05a5	1.2345473
119	0xbf2328e0	-0.63734245
120	0x3f92b4a5	1.1461378
121	0x3fb3f189	1.4058086
122	0xbf24b252	-0.64334595
123	0xbf5e0905	-0.8673251
124	0xbe2c47a7	-0.16824208
125	0xbf99a8b6	-1.2004611
126	0x3ce84e64	0.028357692
127	0x3cef4f0d	0.029212499
128	0x3fb61ffe	1.4228513
129	0x3fadc5d9	1.3576003
130	0x3fc02680	1.5011749
131	0x3f8cd7dc	1.1003375
132	0xbf53cba6	-0.8273262
133	0xbf2b9d8d	-0.6703728
134	0x3f9dafac	1.2319236
135	0x3f98f0f8	1.1948538
136	0xbf86a8e9	-1.0520297
137	0x3d70978a	0.05873827
138	0xbe8841c4	-0.26612675
139	0x3fbf6ffa	1.4956048
140	0x3c044afe	0.00807452
141	0x3fb61ba8	1.422719
142	0xbf32740e	-0.69708335
143	0x3fb55f24	1.416966
144	0xbf94e0f5	-1.1631151
145	0x3fba7bea	1.4569066
146	0x3f4b9ddf	0.7953777
147	0xbf659e3b	-0.89694566
148	0xbf4249b2	-0.758937
149	0xbf407d7b	-0.7519147
150	0x3fa6e51c	1.3038669
151	0x3fafce86	1.3734901
152	0x3fb34642	1.4005816
153	0xbf1db0ce	-0.6159791
154	0xbf78ca47	-0.9718365
155	0xbfa193d6	-1.2623241
156	0x3faee472	1.3663466
157	0x3f1c337a	0.61016047
158	0x3fb4afd0	1.4116154
159	0xbf57ec76	-0.84345186
160	0x3fb8a394	1.442492
161	0x3c89fd4c	0.016844414
162	0xbf75bd76	-0.9599222
163	0xbe41f5cf	-0.18941425
164	0x3f8054e6	1.0025909
165	0xbcdd8266	-0.027039718
166	0xbf5ec75e	-0.8702296
167	0xbfae2e4d	-1.360788
168	0x3fb92cfd	1.4466854
169	0x3f914f41	1.1352311
170	0x3fb49bd7	1.4110059
171	0xbe6dd01d	-0.2322392
172	0x3fb80405	1.4376227
173	0xbf08768b	-0.5330588
174	0xbf9b4c86	-1.2132728
175	0x3fb8af82	1.4428561
176	0xbf26b877	-0.6512522
177	0xbcd5ba69	-0.026089864
178	0xbf2fad6b	-0.6862399
179	0x3faeb45c	1.3648791
180	0xbf0b9b6b	-0.54534024
181	0xbd4998cd	-0.049217988
182	0x3f8b9806	1.0905769
183	0xbf5c4966	-0.860495
184	0x3fb17d6c	1.3866401
185	0x3fb3155e	1.3990896
186	0x3fb67487	1.4254311
187	0x3fa4c7b2	1.2873442
188	0xbf2bcda7	-0.67110676
189	0xbf6f556d	-0.93489724
190	0xbfa9ee10	-1.3275776
191	0x3d8df01f	0.06930565
192	0xbefa3f8a	-0.488766
193	0x3ea261c3	0.3171521
194	0x3fa3e77b	1.2805017
195	0xbf7449ad	-0.9542492
196	0xbf8f908f	-1.1215991
197	0x3fb1b765	1.3884093
198	0x3f9c1c6e	1.2196176
199	0xbf6c0933	-0.92201537
200	0x3fb74b53	1.4319862
201	0xbea1a14f	-0.3156838
202	0x3f9c36dc	1.2204242
203	0xbf2e123d	-0.6799658
204	0x3f9fc928	1.2483263
205	0x3fac8969	1.3479434
206	0x3f9522e5	1.1651274
207	0x3f974572	1.1818068
208	0xbf230337	-0.6367678
209	0xbf5bb5f4	-0.85824513
210	0x3f7f732f	0.9978513
211	0xbf2190f7	-0.63111824
212	0xbf1acc2c	-0.6046779
213	0x3fa804dc	1.3126483
214	0xbf9e4521	-1.2364846
215	0x3cbaa191	0.022782119
216	0x3f97a027	1.184575
217	0xbd8e4878	-0.06947416
218	0xbf8e141e	-1.1099889
219	0x3f98f594	1.1949944
220	0xbf0340f0	-0.5127096
221	0xbd889404	-0.06668857
222	0x3fc11b54	1.5086465
223	0xbf82aaed	-1.0208412
224	0xbf5a161b	-0.8518998
225	0x3f8b9054	1.090342
226	0x3fb57f1c	1.4179416
227	0x3fa9b574	1.32585
228	0x3fa57314	1.2925744
229	0x3fb235e8	1.3922701
230	0x3f397919	0.72450405
231	0x3f8eb7d1	1.1149846
232	0xbfa00b23	-1.2503399
233	0x3fb6298b	1.4231428
234	0x3fa82fc4	1.3139577
235	0x3f9b9a5f	1.2156485
236	0x3f9dc9c8	1.2327204
237	0x3f90469b	1.1271547
238	0x3f623273	0.8835823
239	0xbef6c3ec	-0.48196352
240	0xbf4b2cc3	-0.79365176
241	0xbe6adf94	-0.22936851
242	0x3df64695	0.12025181
243	0x3fb15675	1.385451
244	0xbf67607c	-0.903816
245	0x3fb823d6	1.4385936
246	0x3d5dc1ff	0.054140087
247	0x3fa4e047	1.2880944
248	0xbe8de170	-0.27711058
249	0xbef960bb	-0.48706612
250	0xbe0e277d	-0.13882251
251	0x3f9d8492	1.2306082
252	0x3fb7aa47	1.434884
253	0xbe976f32	-0.29577023
254	0x3f977676	1.1833026
255	0xbf792203	-0.9731752

Q1.4.weight f4 [1, 256]
0	0x3f81ae76	1.0131366
1	0xbfda35df	-1.704769
2	0x3ea8b884	0.32953274
3	0xbebfeda2	-0.37485987
4	0x3ea4e5b6	0.32206506
5	0x3d54afce	0.051925473
6	0xc1090c36	-8.565481
7	0x3ec08f79	0.3760946
8	0xbee0b4c4	-0.43887913
9	0xc123bf0d	-10.234143
10	0xc02dbee4	-2.714776
11	0xbf53b458	-0.8269706
12	0xc07da3df	-3.963127
13	0xbf4bea28	-0.7965417
14	0x3dc44f2b	0.095854126
15	0xbffdadf0	-1.9818707
16	0x3f45d31e	0.77275264
17	0xc0329d9d	-2.79087
18	0x3ea4d390	0.3219266
19	0xbfd8855d	-1.6915699
20	0x3edbca5e	0.4292783
21	0xc011d5f6	-2.2786841
22	0x3ecd3424	0.40078843
23	0xc00f25db	-2.2366855
24	0x3fce4d8f	1.6117419
25	0xc003142a	-2.0481057
26	0xbfbd7419	-1.4801055
27	0x3d51a5b6	0.051183425
28	0x3ec90255	0.39259592
29	0x3f3822f6	0.71928346
30	0xc002b1d4	-2.0421038
31	0xc00e1a78	-2.2203655
32	0x3ec68f3c	0.38781154
33	0x3e0ed558	0.13948572
34	0x3e09a573	0.1344202
35	0x3fca9807	1.5827645
36	0xc08b49c2	-4.3527536
37	0x3f21177e	0.6292647
38	0xc01154db	-2.2708042
39	0x3d93dca7	0.072198205
40	0x3d52a578	0.051427335
41	0x3ed9da76	0.42549485
42	0xc086c5a5	-4.2116265
43	0x3eee6442	0.46560866
44	0xc11ab139	-9.668267
45	0xc0a8edf0	-5.279045
46	0x3ee4c200	0.4467926
47	0xc0beb177	-5.959163
48	0x3ed03aec	0.40669954
49	0x3ea322b2	0.31862408
50	0xbdad150a	-0.084512785
51	0xc026d5e9	-2.606806
52	0xbfd1e88e	-1.6399095
53	0x3da5cc2b	0.080955826
54	0x3ef2b707	0.47405264
55	0x3f142219	0.5786453
56	0x3d9ec381	0.07752133
57	0x3de15012	0.110016
58	0xbf9dd186	-1.2329566
59	0x3f16b30f	0.5886697
60	0x3ec927a0	0.39288044
61	0xbfa70d5c	-1.3050952
62	0xbcd19808	-0.02558519
63	0xc03b17e7	-2.923334
64	0x3f15a31c	0.5845201
65	0xbff7aee3	-1.9350246
66	0xc08997d9	-4.299786
67	0x3eb397ef	0.35076854
68	0xc0e56b74	-7.169367
69	0x3ee4ff17	0.44725868
70	0xc10a6f87	-8.652228
71	0x3d5dd02d	0.05415361
72	0x3d6ceda6	0.057843827
73	0x3f0ccdd6	0.5500158
74	0x3ee9bb93	0.4565092
75	0xc0602a4e	-3.502582
76	0xc0aa8236	-5.328395
77	0xc00a69ba	-2.162703
78	0x3fed9d2a	1.8563588
79	0xc0ab25f3	-5.3483825
80	0xbf7e83c8	-0.9941983
81	0xbf410a90	-0.7540674
82	0x3eaf67e1	0.3425894
83	0x3ec12270	0.37721586
84	0x3ea4d84c	0.3219627
85	0xbfca0b5a	-1.5784714
86	0x3fa28a58	1.2698469
87	0xc00db5b8	-2.2142162
88	0xbfb7ac58	-1.434947
89	0xbf5932b6	-0.84843004
90	0x3eca3151	0.3949075
91	0x3e9213bc	0.2853068
92	0xbf2e00a2	-0.67969716
93	0xc035579b	-2.833472
94	0xbfe20cbb	-1.7660135
95	0xc0056531	-2.0843012
96	0xbf85d408	-1.0455332
97	0xc13102db	-11.063197
98	0x3e3acab2	0.18241385
99	0x3f04c847	0.518681
100	0xc0156361	-2.3341906
101	0x3e03f8d1	0.12887885
102	0xc07d6712	-3.959416
103	0x3f4cf764	0.8006499
104	0xbf9632b3	-1.1734222
105	0x3ce7cd52	0.028296147
106	0xbfe87258	-1.8159895
107	0x3f06a301	0.52592474
108	0xc03fad65	-2.9949582
109	0x3ecf7082	0.40515524
110	0xbfd641d6	-1.6738842
111	0xbfc07ad4	-1.5037484
112	0xc10798b6	-8.474783
113	0x3e0e9fd4	0.13928157
114	0xc036dc05	-2.857179
115	0xc047be96	-3.1210074
116	0x4039212c	2.8926497
117	0xbf5835a8	-0.8445687
118	0x3e06d3f6	0.13166794
119	0xc14f9449	-12.973702
120	0x3dffa570	0.124827266
121	0x3ebed8c7	0.37274763
122	0xc000fa2e	-2.0152698
123	0xbf823ece	-1.0175416
124	0x40812fb1	4.0370717
125	0xbf98790b	-1.1911939
126	0xbf9abbf0	-1.2088604
127	0xc00e1918	-2.2202816
128	0x3eae94b4	0.34097826
129	0x3ed81ab3	0.4220787
130	0x3eb655fb	0.35612473
131	0x3f44e82e	0.7691678
132	0xbfb2f062	-1.3979609
133	0xc0355d46	-2.833818
134	0x3e265842	0.16244605
135	0x3dbb8fd7	0.09158295
136	0xbf833d35	-1.0253054
137	0xbfdad28e	-1.7095506
138	0xc0c628ae	-6.192466
139	0x3eaf717d	0.34266272
140	0xbf80272e	-1.0011957
141	0x3edd21aa	0.43189746
142	0xbfaaadd4	-1.3334298
143	0x3ea2980a	0.31756622
144	0xbfbcbe2e	-1.4745538
145	0x3eb35e87	0.35033056
146	0x3f7a132b	0.976855
147	0xbfddb450	-1.7320652
148	0xc0193213	-2.3936813
149	0xc046fd4b	-3.1092098
150	0x3f35dee6	0.7104324
151	0x3f1636ad	0.5867718
152	0x3e9761e8	0.29566884
153	0xbfdc4687	-1.7209023
154	0xbf566547	-0.83748287
155	0xbf9bddd0	-1.2177067
156	0x3ece730d	0.40322152
157	0x3fc12232	1.508856
158	0x3ed495b9	0.4152048
159	0xc097082c	-4.7197475
160	0x3e76df72	0.24108675
161	0xbfafbf66	-1.3730285
162	0xbf89d79b	-1.0768923
163	0xc06194bf	-3.5247037
164	0x3f4afd22	0.792925
165	0xbfb275dc	-1.3942218
166	0xc0b4b3df	-5.646957
167	0xc03cd998	-2.9507809
168	0x3ec90f0a	0.39269286
169	0x3ec0b810	0.3764043
170	0x3f0c552d	0.5481747
171	0xc12acce5	-10.675023
172	0x3ebafe5e	0.36522192
173	0xc007ac37	-2.1198862
174	0xc0c60895	-6.1885476
175	0x3edba4ab	0.4289907
176	0xc004f970	-2.0777245
177	0xbd2bbd13	-0.041928362
178	0xc07e89fa	-3.9771714
179	0x3f1a0541	0.60164267
180	0xc1513473	-13.075305
181	0xbff46711	-1.9093953
182	0x3f7b7274	0.98221517
183	0xbfa896ef	-1.3171061
184	0x3ee1f2f0	0.4413066
185	0x3ec957a4	0.39324677
186	0x3f18bfc2	0.596676
187	0x3ee167a9	0.440244
188	0xbf832ec2	-1.0248644
189	0xc0490bf2	-3.141354
190	0xbf325f69	-0.69676834
191	0xbff26b2c	-1.8938956
192	0xc0dd20a2	-6.9102335
193	0x400c9b54	2.1969805
194	0x3f1f4e73	0.6222908
195	0xbf8760cd	-1.0576416
196	0xc01e41f2	-2.472775
197	0x3ea91381	0.33022693
198	0x3ef55e7a	0.47923642
199	0xc14f7338	-12.96563
200	0x3f0472e6	0.5173782
201	0xc04f0718	-3.234808
202	0x3f038d74	0.51387715
203	0xbf465b1e	-0.77482784
204	0x3f4a51c1	0.79030997
205	0x3eb40a34	0.35164034
206	0x3f0b7d0d	0.5448769
207	0x3f07bf16	0.5302595
208	0xbf98cc69	-1.1937381
209	0xbfc34017	-1.5253934
210	0x3f464bf1	0.7745963
211	0xc0249a35	-2.571912
212	0xbffdb9a2	-1.9822276
213	0x3ea0d94a	0.31415778
214	0xc0012877	-2.0180948
215	0xbd14b2fc	-0.036303505
216	0x3ee58036	0.4482438
217	0x405a8671	3.4144557
218	0xbf853526	-1.0406845
219	0x3d38d036	0.04512044
220	0xc02b60cf	-2.6777837
221	0x3cae547b	0.021280518
222	0x3ee171a2	0.44032007
223	0xbf4d0d39	-0.800983
224	0xc02d0f81	-2.7040713
225	0x3ee87e06	0.45408648
226	0x3ef56c9c	0.47934425
227	0x3f00b6c6	0.5027889
228	0x3f04b261	0.51834685
229	0x3f9fce6c	1.248487
230	0x3f860783	1.0471042
231	0x3f7dec80	0.99188995
232	0xbfe50f62	-1.789532
233	0x3f068794	0.52550626
234	0x3ea949dd	0.33064166
235	0x3e125d79	0.1429347
236	0x3e23406a	0.15942541
237	0x3ef302a3	0.4746295
238	0x3f9c3af6	1.2205493
239	0xc01597c9	-2.3373892
240	0xc0aefeac	-5.468588
241	0x408bb876	4.366267
242	0xbfcd4369	-1.6036197
243	0x3e98f4ea	0.29874355
244	0xbf5a11e1	-0.8518353
245	0x3eb41099	0.35168913
246	0xc00dc5b7	-2.2151926
247	0x3ee97ed9	0.4560459
248	0xbfdc9f76	-1.7236164
249	0xbfe23720	-1.7673073
250	0xc0e2b9e1	-7.0851903
251	0x3e29a860	0.16568136
252	0x3f0fa03b	0.5610387
253	0xc098ec0a	-4.7788134
254	0x3e19a565	0.150045
255	0xbfb4b01b	-1.4116243

Q2.0.weight f4 [256, 23]
0	0xbf4034b4	-0.7508042
1	0x40426ff9	3.0380843
2	0xbfd42e41	-1.6576616
3	0x3eb5107b	0.35364136
4	0x3df5fa47	0.12010627
5	0xbf593d1f	-0.8485889
6	0x3ee361e5	0.44410625
7	0x3e03b014	0.12860137
8	0x3e97092b	0.29499182
9	0xbee467e3	-0.4461051
10	0x3e9dbb70	0.30807066
11	0xbe917d52	-0.28415924
12	0xbe8cc071	-0.2749057
13	0x3d9f53f0	0.07779682
14	0xbd42ca67	-0.047556307
15	0xbdab7039	-0.08371014
16	0x3d5e27b3	0.05423708
17	0xbeb4be48	-0.35301423
18	0xbe3ad25e	-0.18244311
19	0x3cc3988b	0.02387645
20	0xbeb43caa	-0.35202533
21	0x3ed8b30c	0.42324102
22	0xbd332da1	-0.043744687
23	0x3f265eec	0.6498859
24	0x402f371d	2.7377388
25	0x3dfbf9a6	0.12303476
26	0xbf2da8f0	-0.67835903
27	0x3d31907d	0.043350685
28	0x3f086553	0.5327961
29	0x3dd4299c	0.10359499
30	0x3ec11823	0.37713727
31	0x3e1bfa08	0.15232098
32	0xbeadf9bf	-0.33979604
33	0x3e85caa4	0.26131165
34	0x3dbf4cd2	0.09340824
35	0x3e1160da	0.14197102
36	0xbcbbb20d	-0.02291205
37	0xbebba957	-0.36652634
38	0xbe83c0e0	-0.2573309
39	0x3d42a8bc	0.0475242
40	0x3d9c1cf8	0.07622713
41	0xbdc520bc	-0.09625384
42	0xbecbff49	-0.39843205
43	0xbe81e2e6	-0.25368422
44	0x3e022faa	0.12713495
45	0x3df8c487	0.121468596
46	0x3ead05a8	0.33793378
47	0x408ab572	4.334649
48	0xbf83291b	-1.0246919
49	0xbf5a4428	-0.8526025
50	0xbe736399	-0.23768462
51	0xbf1e2810	-0.6177988
52	0xbe521620	-0.20516253
53	0x3dfec115	0.12439171
54	0x3f28ca10	0.6593332
55	0xbde68a75	-0.11256877
56	0x3e56253a	0.20912638
57	0xbd540804	-0.051765457
58	0xbd5f3ab7	-0.054499354
59	0xbd472e50	-0.04862815
60	0xbde3700b	-0.11105355
61	0xbd9a4ad8	-0.075338066
62	0xbc8f99f0	-0.017529458
63	0x3ee72098	0.45142055
64	0xbd65cd90	-0.056104243
65	0xbc6b669f	-0.0143677285
66	0x3e6cde49	0.2313167
67	0x3da0abdb	0.07845279
68	0x3d91e9c8	0.07124668
69	0xbeec5cf2	-0.46164662
70	0xbea5c2f8	-0.32375312
71	0x3eb86b78	0.36019492
72	0xbfe238cd	-1.7673584
73	0xbea2133f	-0.3165531
74	0xbf362d0a	-0.71162474
75	0x3e148e83	0.14507489
76	0xbec57a2c	-0.38569772
77	0xbd321b32	-0.043482967
78	0xbeb10403	-0.34573373
79	0xbe8d58cb	-0.27606806
80	0xbcf82b3f	-0.030294059
81	0x3e609a91	0.21933962
82	0x3d7f79d2	0.062372036
83	0x3ea25aa0	0.31709766
84	0x3ecdcb09	0.40193966
85	0x3cdebada	0.027188707
86	0x3e15149d	0.14558645
87	0x3eb33469	0.35000923
88	0xbe759103	-0.23981099
89	0x3de384ed	0.11109338
90	0x3eca0388	0.3945582
91	0x3dca5753	0.09879937
92	0xbf28a462	-0.6587583
93	0x3fb5308a	1.4155438
94	0x3f659ef6	0.8969568
95	0xbd635993	-0.055505347
96	0xbf199f2c	-0.600085
97	0xbe2d0b2a	-0.1689879
98	0xbf326bdd	-0.69695836
99	0x3ddd4ec6	0.108060405
100	0xbdf235bf	-0.118266575
101	0x3d664f10	0.056227744
102	0xbe47d85a	-0.19516125
103	0x3e23ad09	0.15983976
104	0x3e531abf	0.20615672
105	0x3e27f4d2	0.16401985
106	0x3e391512	0.18074444
107	0x3e36cf37	0.17852484
108	0x3dce4247	0.10071235
109	0xbe968ab3	-0.29402694
110	0x3fc983f0	1.5743389
111	0x3e629305	0.22126396
112	0x3f0e3421	0.5554829
113	0x3eafc8d8	0.3433292
114	0xbf40bbc7	-0.75286525
115	0xbe0f9697	-0.14022289
116	0xbf6ae63b	-0.91757554
117	0x3f2232f1	0.6335898
118	0xbf011ff1	-0.50439364
119	0x3e5c0683	0.21486859
120	0x4075e387	3.8420122
121	0x3f8f44b6	1.1192844
122	0x3f0e06a4	0.5547888
123	0xbed69978	-0.41913962
124	0xbf670484	-0.90241265
125	0x3da46bdf	0.08028387
126	0x3e1975d4	0.14986354
127	0x3c8d2872	0.0172312
128	0xbe49daf9	-0.19712438
129	0xbe5dccc9	-0.2166015
130	0xbd2aefdd	-0.041732658
131	0xbd4a02fd	-0.049319256
132	0x3f02f392	0.5115291
133	0x3e0590bd	0.13043495
134	0xbf501f0a	-0.8129736
135	0xbdcc1b07	-0.099660926
136	0x3dc8b42f	0.09799992
137	0xbebdded9	-0.37084082
138	0x3db14be6	0.086570546
139	0x403e8912	2.977116
140	0xbf000f07	-0.5002293
141	0x3fbedd2d	1.4911247
142	0xbf3d61d3	-0.7397739
143	0xbe454223	-0.1926351
144	0x3f6fde60	0.9369869
145	0x3f490871	0.78528506
146	0x3e7a0039	0.24414147
147	0x3ed55966	0.41669768
148	0xbeb1c677	-0.3472173
149	0x3e47f307	0.19526301
150	0xbc91b384	-0.017785795
151	0xbd3972b0	-0.04527539
152	0xbdaf78e1	-0.08567978
153	0x3e4ea0fe	0.20178601
154	0x3cf88665	0.030337522
155	0xbdab26e0	-0.08357024
156	0xbe87a35d	-0.26491824
157	0xbf5f0526	-0.8711723
158	0x3d876d5a	0.06612654
159	0xbee75dca	-0.45188743
160	0xbea9d44e	-0.33169788
161	0xbf31cdb7	-0.6945452
162	0x3d802fc5	0.06259111
163	0x4012be6b	2.2928722
164	0x3fc31bf5	1.5242907
165	0x3ea83022	0.32849222
166	0xbf6c9122	-0.92408955
167	0xbe283e32	-0.16429976
168	0x3af2895d	0.0018504072
169	0xbe3afb08	-0.18259823
170	0x3dd9c77f	0.10633754
171	0xbcdfb640	-0.027308583
172	0xbc622a2f	-0.013804003
173	0xbb5969a8	-0.0033174548
174	0x3bfd37ae	0.007727585
175	0x3d68a102	0.056794174
176	0x3d366b4c	0.04453592
177	0x3c227a07	0.009916789
178	0xbd87da24	-0.06633404
179	0xbd4435d2	-0.04790289
180	0xbd24b48b	-0.04021124
181	0xba3ecae2	-0.00072781567
182	0xbb87fa87	-0.0041497382
183	0x3a2420bd	0.0006260982
184	0x3f767778	0.96276045
185	0xbff97626	-1.9489181
186	0x3fcb1d17	1.5868253
187	0x3f6a4708	0.91514635
188	0x3e821010	0.2540288
189	0x3f8b9f18	1.0907927
190	0x3ff35856	1.9011333
191	0x3de24347	0.110479884
192	0x3eb40bba	0.35165197
193	0x3ea3492a	0.31891757
194	0x3d9ad825	0.075607575
195	0x3daa8d14	0.0832769
196	0x3de59791	0.112105496
197	0x3d731c92	0.05935342
198	0xbe6f980d	-0.23397847
199	0xbe82b8ce	-0.2553162
200	0x3d9a4e5e	0.075344786
201	0x3df8299f	0.121173136
202	0x3e6882ce	0.22706148
203	0xbe7a5d19	-0.24449576
204	0x3dcc5ea9	0.099789925
205	0x3ec5837e	0.38576883
206	0xbf676110	-0.9038248
207	0xbda709e0	-0.081561804
208	0x40478a7c	3.1178274
209	0x40258907	2.5864885
210	0x3fa0d582	1.2565157
211	0xbf81a2d7	-1.012782
212	0x3f84d1e9	1.037656
213	0xbe10d756	-0.14144644
214	0x3ee6bd07	0.4506609
215	0x3ed9bac7	0.42525312
216	0xbf031bff	-0.51214594
217	0x3bd591b5	0.006517614
218	0x3e0543cc	0.13014144
219	0xbe23ddf6	-0.1600264
220	0x3da5da47	0.08098274
221	0xbe95ac34	-0.29232943
222	0x3dd9459d	0.10608981
223	0x3ca17827	0.019710613
224	0xbebd3536	-0.3695466
225	0xbfa2db63	-1.2723202
226	0x3f406ef6	0.7516931
227	0xbf292cc1	-0.66083914
228	0xbecfaa83	-0.40559778
229	0x3e6c7fbc	0.23095602
230	0xbf888619	-1.0665923
231	0xc00967ce	-2.1469607
232	0xc00faadc	-2.2448034
233	0xbeddc072	-0.43310887
234	0xbf2055f0	-0.6263113
235	0xbf56d48f	-0.8391809
236	0xbeb60190	-0.35548067
237	0x3ea971ce	0.3309464
238	0x3ee1a20e	0.4406895
239	0xbecfa524	-0.4055568
240	0xbe828cd8	-0.2549808
241	0x3dc95a20	0.09831643
242	0xbd8d69a7	-0.06904917
243	0x3ced9a33	0.029004192
244	0x3d3715b9	0.04469845
245	0xbe1cd7dc	-0.15316719
246	0x3b2f46ac	0.0026745005
247	0x3e20619d	0.15662237
248	0xbedf2491	-0.43582585
249	0x3e2d19fd	0.16904445
250	0xbf1d44a6	-0.61432874
251	0xbe1a929c	-0.1509499
252	0x3f1bef79	0.6091228
253	0xbf94bb56	-1.161967
254	0xbf22ba30	-0.6356535
255	0x3f65a9b5	0.8971208

Q2.0.bias f4 [256]
0	0xbf1c2d84	-0.6100695
1	0xbcfa100c	-0.03052523
2	0xbfb0b1f2	-1.3804305
3	0xbf3cda22	-0.73770344
4	0xbee021aa	-0.43775684
5	0xbf269b47	-0.65080684
6	0xbe5aa9fb	-0.21353905
7	0x3ff28845	1.8947836
8	0xbdd58770	-0.10426223
9	0x3d527a2b	0.05138604
10	0xbe3356bb	-0.17513554
11	0x3ffdea1c	1.983707
12	0xbdc16384	-0.09442809
13	0xbf42ac6b	-0.7604434
14	0x3f9181ea	1.1367772
15	0x3f5fca93	0.8741848
16	0x3e1e3366	0.15449294
17	0xbf9ad6c6	-1.2096794
18	0xbf5e1465	-0.8674987
19	0x3f602152	0.8755084
20	0xbf7d3abb	-0.9891774
21	0xbe7ffbd9	-0.24998416
22	0x3f91d6e7	1.1393708
23	0xbf555339	-0.8333011
24	0xbf407928	-0.7518487
25	0xbfa51e31	-1.2899839
26	0x3f3a6aa2	0.7281896
27	0xbf8a2d3b	-1.0795053
28	0xbeba111b	-0.36341175
29	0x3f6a28f4	0.9146874
30	0xbfc9e5b1	-1.5773221
31	0x3e9f9026	0.31164664
32	0x3f076373	0.5288612
33	0x3f69012c	0.91017413
34	0xbf467234	-0.7751801
35	0xbec38432	-0.38186795
36	0x3eded5fb	0.4352263
37	0xbe93acc2	-0.2884274
38	0x3fa92bc6	1.3216484
39	0xbfd65497	-1.6744565
40	0xbba5a2b8	-0.005054798
41	0xbef7d668	-0.48405766
42	0x3fc507dc	1.5393023
43	0xbff6d591	-1.9283925
44	0xbed97a92	-0.42476326
45	0x3edf5aa7	0.4362385
46	0xbef16f47	-0.4715521
47	0x3ded50bd	0.11587665
48	0xbf6cd4c5	-0.9251216
49	0xbeb01e7d	-0.3439826
50	0x3d13efbe	0.036117308
51	0xbf7fc5b8	-0.9991107
52	0xbfc61c30	-1.5477352
53	0x3e64f73f	0.22359942
54	0xbe021983	-0.12705044
55	0x3d09804b	0.033569615
56	0xbf245d6a	-0.6420504
57	0xbf083748	-0.5320935
58	0x3dedf790	0.116194844
59	0xbf980dd5	-1.1879221
60	0xbf1f9383	-0.6233446
61	0x3fc4fe0c	1.5390029
62	0x3e2b87b2	0.16750982
63	0xbf64d596	-0.89388406
64	0xbee52810	-0.44757128
65	0xbee87d44	-0.4540807
66	0x3eb5c15d	0.35499087
67	0xbf8b8aca	-1.090173
68	0xbd91b933	-0.07115402
69	0x3d2aa706	0.041663192
70	0x3ca04a3b	0.019566646
71	0xbfca8e9d	-1.5824772
72	0xbeaccff8	-0.33752418
73	0x3bc092ff	0.0058768983
74	0xbf116fe1	-0.5681134
75	0xbfb8bceb	-1.4432653
76	0x3ea2b3e9	0.31777886
77	0x3f427a63	0.75968
78	0x3fb4bf80	1.4120941
79	0xbf8ed052	-1.1157324
80	0xbdbe807b	-0.093018495
81	0x3fac6bdb	1.3470415
82	0x3f923329	1.1421863
83	0x3fabd5d9	1.3424636
84	0x3e199c84	0.15001112
85	0xbde6ca04	-0.11269
86	0x3f647937	0.8924746
87	0xbddebe07	-0.108760886
88	0x3ea5566d	0.322925
89	0x3eb621bf	0.3557262
90	0xbe89a710	-0.2688527
91	0xbe9c96a1	-0.3058367
92	0x3f382e2a	0.7194544
93	0x3f4cb2b8	0.79960203
94	0xbe95ea36	-0.2928025
95	0xbbb7fc0e	-0.005614764
96	0xc00cb708	-2.1986713
97	0x3f7eebd7	0.99578613
98	0xbed4d848	-0.4157126
99	0x3f3dc90f	0.74134916
100	0x3f67f585	0.9060901
101	0x3e84d7e3	0.25945958
102	0x3fa3f90c	1.2810378
103	0xbfd80acb	-1.6878294
104	0xbea80478	-0.3281591
105	0xbf42e41d	-0.76129323
106	0xbf93810e	-1.1523759
107	0xbe9e41be	-0.30909532
108	0xbe2c5d75	-0.16832526
109	0xbf5218f1	-0.8206931
110	0x3da07d80	0.07836437
111	0xbe5adabd	-0.21372505
112	0x3faca887	1.348893
113	0x3fc4f80f	1.5388201
114	0xbcc7d18f	-0.024391918
115	0xbef6d5a2	-0.48209864
116	0xbfb85221	-1.4400064
117	0x3f731606	0.9495548
118	0x3fbec82e	1.490484
119	0xbe46deb1	-0.19420888
120	0x3f73a551	0.9517413
121	0xbf83ed34	-1.0306764
122	0xbe3a1e9f	-0.18175744
123	0xbcabd933	-0.020977592
124	0x3f997d29	1.1991321
125	0xbf4fa671	-0.81113344
126	0x3da0cc8c	0.07851514
127	0xbdcb9594	-0.09940639
128	0xbf2664b3	-0.64997405
129	0x3e923a70	0.2856021
130	0x400f3983	2.2378852
131	0xbdadf28f	-0.0849353
132	0xbf58e6d2	-0.84727204
133	0xbe419acb	-0.18906705
134	0x3f24ecef	0.6442403
135	0x3ffbd1a6	1.9673355
136	0xbf4b8de9	-0.7951341
137	0xbe36b54e	-0.178426
138	0xbe148a00	-0.14505768
139	0xbded91bb	-0.116000615
140	0xbebf60ea	-0.37378627
141	0xbed1306b	-0.40857252
142	0x3d0e3bd9	0.034725044
143	0xbf5dd27c	-0.866493
144	0xbe06521c	-0.1311726
145	0x3e817bbb	0.2528971
146	0xbf2184c9	-0.6309324
147	0x3ec825c9	0.39091328
148	0xbed174b7	-0.4090936
149	0x3f854378	1.0411215
150	0xbe8ab869	-0.2709382
151	0xbf9dd200	-1.2329712
152	0xbee083a7	-0.43850443
153	0xbf4c46f5	-0.7979577
154	0xbee5d55d	-0.44889346
155	0xbe5c949c	-0.21541065
156	0x3f9d7737	1.2302006
157	0x3f9550cb	1.1665281
158	0x3f37a2cb	0.7173278
159	0x3f15dd75	0.5854104
160	0xbf62fa89	-0.88663536
161	0x3faf7c45	1.3709799
162	0xbebb4028	-0.36572385
163	0xbf4e7ad2	-0.8065616
164	0x3ec71f59	0.38891104
165	0x3de9e322	0.11420275
166	0xbf49d28f	-0.7883691
167	0x3fa512a9	1.289632
168	0x3f86bde6	1.0526702
169	0x3ea8ee2e	0.32994217
170	0xbf71b712	-0.9441997
171	0x3f2139a4	0.6297858
172	0x3e0bd1d7	0.13654266
173	0xbf29f68c	-0.66391826
174	0x3f717376	0.94316804
175	0x3f8eb830	1.114996
176	0xbe25ab1a	-0.16178551
177	0xbe9456a2	-0.28972346
178	0x3ea3f34c	0.32021558
179	0xbe8e4584	-0.2778741
180	0xbe89a3e4	-0.2688285
181	0xbe5f47b0	-0.2180469
182	0xbef77d86	-0.48337954
183	0xbfb2500b	-1.3930677
184	0xbf543f3a	-0.82908976
185	0x3fa50490	1.2892017
186	0xbf1adc2b	-0.604922
187	0xbf216827	-0.6304955
188	0xbf36e6ff	-0.7144622
189	0x3f634576	0.88777864
190	0xbe3340b4	-0.17505151
191	0x3f9600ac	1.1718955
192	0x3fa72721	1.3058816
193	0xbf8743bf	-1.056755
194	0x3fa26ccb	1.2689451
195	0xbef11620	-0.47087193
196	0x3f999153	1.1997474
197	0xbed2318e	-0.41053432
198	0xbf3325c0	-0.69979477
199	0xbee58faa	-0.4483617
200	0x3f4d24c5	0.8013423
201	0x3f897543	1.073891
202	0xbe3b6550	-0.18300366
203	0xbf6495af	-0.892909
204	0x3f975896	1.1823909
205	0x3e2d595b	0.16928618
206	0xbee5e10c	-0.4489826
207	0xbe5dffb3	-0.21679573
208	0x3e38fded	0.18065615
209	0x3e1808ac	0.14847058
210	0xbf59b619	-0.85043484
211	0xbfa44f37	-1.2836674
212	0x3fb821f2	1.4385359
213	0xbe8b456c	-0.27201402
214	0x3f89d52c	1.076818
215	0xbf9398fd	-1.1531063
216	0xbf2cbb08	-0.6747289
217	0xbfc1cd9e	-1.5140874
218	0xbf448159	-0.7675987
219	0x3e8b373e	0.27190584
220	0xbf506d00	-0.8141632
221	0xbf9d77e8	-1.2302217
222	0x3e70ddf2	0.23522165
223	0xbf30ee4f	-0.6911363
224	0xbe5662e8	-0.20936167
225	0xbf7dda3e	-0.99161136
226	0xbee6f4ee	-0.45108742
227	0xbdc2df50	-0.0951525
228	0x3f321b0c	0.6957252
229	0xbef7d0f3	-0.48401603
230	0x3dfe40be	0.12414692
231	0x3f3e31e8	0.742949
232	0x3f75a280	0.9595108
233	0xbe97b907	-0.29633352
234	0xbeb68ac8	-0.35652757
235	0xbf7e8ee7	-0.994368
236	0x3fdc3b47	1.720559
237	0xbf3910cc	-0.72291255
238	0xbd77a631	-0.060461227
239	0x3ca7cf8a	0.020484705
240	0x3f7e8172	0.9941627
241	0x3ea71e4d	0.32640305
242	0x3f804478	1.0020895
243	0xbf07fc0e	-0.5311898
244	0xbf824fc8	-1.0180597
245	0xbe7575dc	-0.23970741
246	0x3f816ce8	1.011136
247	0xbf096b60	-0.53679466
248	0x3d5223e0	0.051303744
249	0x3ee38122	0.44434458
250	0x3f87d441	1.061165
251	0x3df88f3a	0.12136693
252	0x3f7a2eb2	0.977275
253	0x3f8ffc91	1.1248952
254	0xbe95d7c3	-0.29266176
255	0xbf95f0b4	-1.1714082
