trained_models/HopperNormal-v3/sac/critic_1.pt (torch, 563586 bytes, 10 tensors)

Q1.0.weight f4 [256, 14]
0.05358187 -0.5158548 0.31093866 0.93850344 -0.071074024 0.34924436 -0.22451831 0.10818853
-0.10364997 -0.09942112 0.0006784649 -0.06096741 0.034915537 -0.15652531 -0.19176085 -2.370187
-0.19515407 0.10325511 0.37396145 0.4389566 -0.09292604 -0.2193518 0.030372065 -0.18424302
-0.083847575 0.17577338 -0.0859428 0.18997324 -0.33647078 -1.6114478 0.86402035 0.69779754
-0.6885023 -0.257143 -0.6325478 -0.059758168 0.38980114 0.047750726 0.21144715 0.079488434
0.15339473 0.5782281 -0.1495641 1.0846512 0.79803425 0.10780777 -0.6228783 0.07245598
-0.24846105 0.11729888 -0.10291479 -0.045795877 -0.019831704 -0.012027263 0.013710315 0.0008856606
0.2466302 1.1907675 0.25555512 0.16257036 -0.34666166 0.3689744 0.055888325 0.3551367
-0.18222804 -0.10326956 -0.040681254 -0.15814711 -0.14735621 -0.18915065 0.18658325 0.098327376
0.2995456 -0.020165602 0.43619466 0.17917186 0.38521641 -0.27392077 -0.35829777 0.42392138
0.21101603 -0.64548784 0.46282142 0.35539183 0.2809395 -1.0798475 -0.19977097 1.5422438
0.48526832 0.6298549 0.13832016 -0.4294213 0.22012976 -0.033426795 -0.057781477 0.030548206
0.10096887 0.13399641 -0.066532895 -1.0280046 1.173999 0.4224706 0.17822975 0.11934657
-0.22610553 -0.27799594 0.19373474 0.1088405 0.028084036 -0.07459608 0.016699892 0.20140813
0.37659007 -0.76462084 0.19302966 0.7616475 0.44314045 0.15929049 -0.4042768 -0.33807635
-0.017783642 -0.008303794 0.13570309 -0.05777533 0.036169495 -0.68966454 -0.64469343 3.1147645
0.5488927 0.9511562 0.20742598 0.36932522 0.38394395 0.7044165 0.6132072 0.50001246
0.33161184 0.41126847 -0.2734939 -0.62308294 -0.32740006 2.1240723 0.9920955 1.0564065
0.86389995 -0.23734967 0.11502573 -0.04987388 0.041665483 0.18340416 -0.36279345 0.13028581
0.7739439 0.1128753 -0.5449684 4.0411954 -1.036467 -0.837432 0.50364196 0.5074279
-0.26913723 -0.080670044 0.11793534 0.047842834 0.019781519 0.16705896 0.05452432 0.05138625
-0.5804307 2.5260863 -0.26011536 0.46699494 0.045833793 0.17342882 -0.15535846 0.51369065
0.06238026 -0.02368627 -0.27359137 0.57784355 -0.11037269 -0.47942522 -0.2554774 -1.1744735
-0.9715234 1.7579345 -0.8488786 -0.18169348 -0.2898727 -0.04997922 0.109506145 -0.24468854
-0.19447191 0.106333636 0.34358835 0.10657555 0.48577967 1.0704652 0.5895219 0.20423236
-0.5464545 -0.8301328 0.31984425 0.04097922 0.1475506 0.15036118 0.0152623365 0.11263611
0.091858335 0.08850498 0.02112413 -2.2339666 -0.9018275 -0.33846247 -0.128554 0.24562529
0.22569038 -0.16903558 0.105035305 0.17501594 -0.6261812 0.58560395 0.4238662 -0.32046798
0.18423001 0.08135751 0.3695443 -0.110174626 0.4085269 0.2822729 -0.072011 -0.06482285
0.27457762 -0.13379797 -0.19795704 0.11198134 -0.4744405 0.19757238 0.45746833 -1.2918934
-0.46221948 -0.42188054 -0.07980586 0.05285148 0.1346265 0.38470995 -0.40558398 -0.23070839
-0.03390891 -0.054657705 -0.00792194 -0.04143265 0.018656166 0.83963305 0.32082775 -0.654468
00000000: aa78 5b3d 0f0f 04bf 5a33 9f3e c341 703f
00000010: 428f 91bd 28d0 b23e 21e8 65be f391 dd3d
00000020: 6f46 d4bd 4d9d cbbd 02db 313a f7b8 79bd
00000030: 9803 0f3d 2c48 20be f55c 44be 25b1 17c0
00000040: 78d6 47be 6a77 d33d e077 bf3e ebbe e03e
00000050: 0250 bebd c29d 60be d6ce f83c 34aa 3cbe
00000060: 47b8 abbd f0fd 333e c702 b0bd 5888 423e
00000070: e645 acbe ec43 cebf 7030 5d3f dca2 323f
00000080: b041 30bf 3fa8 83be a7ee 21bf fbc4 74bd
00000090: 0494 c73e 4496 433d 9a85 583e d5ca a23d
000000a0: 8213 1d3e c206 143f 5527 19be dad5 8a3f
000000b0: f94b 4c3f 52ca dc3d f474 1fbf cd63 943d
000000c0: 936c 7ebe 653a f03d fdc4 d2bd 7594 3bbd
000000d0: 1976 a2bc ff0d 45bc 3ba1 603c ad2b 683a
000000e0: a18c 7c3e 126b 983f 1fd8 823e d878 263e
000000f0: a37d b1be 36ea bc3e 28eb 643d 7ad4 b53e
00000100: fd99 3abe fe7e d3bd 63a1 26bd 51f1 21be
00000110: 8ce4 16be b5b0 41be ae0f 3f3e dd5f c93d
00000120: 0a5e 993e 5532 a5bc e854 df3e d478 373e
00000130: 163b c53e 583f 8cbe ce72 b7be 390c d93e
00000140: 9614 583e b13e 25bf eef6 ec3e ebf5 b53e
00000150: 4dd7 8f3e 7138 8abf c390 4cbe 3f68 c53f
00000160: 1775 f83e 2c3e 213f cda3 0d3e 1cdd dbbe
00000170: b269 613e 89ea 08bd 45ac 6cbd 3b40 fa3c
00000180: c4c8 ce3d 5b36 093e 6642 88bd a895 83bf
00000190: 9945 963f 114e d83e dc81 363e f96b f43d
000001a0: 3588 67be 7c55 8ebe 6662 463e c5e7 de3d
000001b0: 7e10 e63c d4c5 98bd 36ce 883c ef3d 4e3e
000001c0: 6ad0 c03e 31be 43bf 91a9 453e 55fb 423f
000001d0: 4ee3 e23e 0c1d 233e 5efd cebe 5818 adbe
000001e0: 00af 91bc a30c 08bc c0f5 0a3e d3a5 6cbd
000001f0: 7726 143d db8d 30bf a10a 25bf 4d58 4740
00000200: 3b84 0c3f f97e 733f 7a67 543e 3218 bd3e
00000210: 4d94 c43e a454 343f 26fb 1c3f d100 003f
00000220: 07c9 a93e c891 d23e 6407 8cbe 5d82 1fbf
00000230: fba0 a7be cdf0 0740 f8f9 7d3f 5438 873f
00000240: 8c28 5d3f cb0b 73be 9c92 eb3d 8e48 4cbd
00000250: 6da9 2a3d 4dce 3b3e 10c0 b9be a569 053e
00000260: 3021 463f 2a2b e73d 0d83 0bbf 7951 8140
00000270: f3aa 84bf f261 56bf aeee 003f cbe6 013f
00000280: 5bcc 89be 5636 a5bd 1588 f13d d9f6 433d
00000290: da0c a23c 8111 2b3e e554 5f3d 637a 523d
000002a0: 1b97 14bf 66ab 2140 d72d 85be f619 ef3e
000002b0: 37bc 3b3d 5397 313e 4a16 1fbe 3b81 033f
000002c0: 7282 7f3d b509 c2bc 2b14 8cbe 8eed 133f
000002d0: 140b e2bd 3977 f5be efcd 82be 2655 96bf
000002e0: c2b5 78bf ff03 e13f 1c50 59bf db0d 3abe
000002f0: 326a 94be 03b7 4cbd c244 e03d a28f 7abe
00000300: a523 47be 73c5 d93d d0ea af3e 4844 da3d
00000310: 1db8 f83e 0105 893f e8ea 163f 4a22 513e
00000320: 71e4 0bbf 9583 54bf a0c2 a33e d4d9 273d
00000330: 8117 173e 48f8 193e e10e 7a3c c3ad e63d
00000340: 3920 bc3d 1942 b53d 830c ad3c 4ff9 0ec0
00000350: 2bde 66bf f44a adbe a9a3 03be 3285 7b3e
00000360: 611b 673e aa17 2dbe c01c d73d 6137 333e
00000370: 694d 20bf 24ea 153f fe04 d93e 6114 a4be
00000380: cba6 3c3e c49e a63d e934 bd3e 3ca3 e1bd
00000390: 702a d13e 1386 903e 817a 93bd d8c1 84bd
000003a0: 7095 8c3e 5602 09be 40b5 4abe 7956 e53d
000003b0: dde9 f2be 6a50 4a3e 4a39 ea3e c35c a5bf
000003c0: 08a8 ecbe ba00 d8be 4171 a3bd cb7a 583d
000003d0: 87db 093e b4f8 c43e b4a8 cfbe d23e 6cbe
000003e0: 12e4 0abd c2e0 5fbd 06cb 01bc 48b5 29bd
000003f0: d1d4 983c 31f2 563f 8943 a43e 378b 27bf

Q1.0.bias f4 [256]
-0.35629335 -0.3962744 -0.017028656 0.49363527 0.9206413 0.4233516 -0.16165994 0.709554
-0.07696439 -0.4178958 -0.24085346 -0.27999073 -0.43427128 -0.048218515 0.55832314 0.097442284
0.24646598 -0.9815768 -0.24852394 -0.29444116 -0.29335812 -0.4742986 -0.49455693 0.4183198
-0.833046 0.6212893 -0.14560355 0.17885068 0.2930399 0.18268706 -0.7135995 0.2297624
-0.81172305 -0.04968048 0.19136344 0.510327 0.7414244 -0.36175725 -0.104093656 -0.1746653
-0.22451447 0.8207452 0.32477078 0.5766968 -0.045428514 0.23624563 0.22723138 -0.5083135
0.33280087 -0.5733787 0.2952966 -0.5209635 -0.34019625 0.7480468 0.24098526 0.0457841
-0.43183145 0.012392359 0.581183 -0.26108497 0.6185556 -0.4535575 0.7220665 -0.11063178
-0.4517982 0.7316452 0.85491323 -0.431572 -0.5299822 0.027688645 0.18682753 0.42101425
-0.70145017 0.24453586 0.6393172 0.013041841 -0.33607787 0.9778712 -0.19627856 0.2325939
-0.13476558 0.32661322 -0.34421444 -0.34001878 0.006235119 -0.1746161 -0.07790245 0.71742165
0.37891233 -0.41362584 0.47456133 -0.10905042 -0.20689073 -0.2674437 -0.29094848 0.6788759
-0.5564024 0.5579698 -0.83169734 -0.59208125 -0.16902605 -0.15959917 0.300419 0.6114597
1.0947411 -0.18276928 0.14643352 0.2734654 -0.249218 0.87087834 0.79294986 0.20694442
0.56595945 -0.30934146 0.1321853 0.77868915 0.056226294 -0.0871624 0.4091086 0.11360663
-0.09911642 -0.07481252 0.473267 0.45977083 1.0039274 -0.27996376 0.1518419 0.897656
-0.012785495 0.38292912 0.2170142 -0.43211165 -0.5647164 -0.3105173 -0.38973206 0.033150088
-0.8051149 -0.69677496 0.005764738 0.43285692 -0.6666292 -0.25058895 -0.5306129 0.27462536
0.7828299 -0.13535236 -0.13031854 0.09231788 -0.9621581 0.009547078 -0.12364317 0.63002586
-0.2297753 0.713961 0.511119 0.13398951 -0.43413016 0.6251448 0.21246584 -0.08158479
0.020720016 -0.5874322 0.08542171 0.14570002 -0.6606394 -0.2348981 0.21010572 0.328359
0.36157483 0.21201497 -0.40291515 0.07414477 0.44031668 -0.54188764 -0.8130426 0.6789663
0.64784443 0.53403693 0.70605737 -0.40485054 -0.44282478 -0.056270126 -0.010270337 0.21340244
0.33083758 -0.14949436 0.6136803 -0.29969254 0.8274745 0.28519884 0.20028225 0.5491707
0.18503505 0.21553694 0.13553287 1.0916348 -0.4598075 -0.13200107 -0.3029162 -0.116003156
0.28882042 0.10033753 -0.34664387 -0.10049796 -0.168004 -0.21870111 -0.043215804 -0.32245424
0.2153383 -0.36049867 -0.031110987 -0.4211897 -0.077250145 0.12268263 0.4328344 -0.24257687
-0.08054847 -0.1942249 -0.04451577 -0.13493869 -0.54706234 -0.2621688 0.23310335 -0.25341502
-0.30243334 0.86214215 -0.1623182 0.6612223 0.57392114 -0.34541568 0.49498183 -0.12730914
-0.31325242 -0.29925817 -0.11576844 -0.3041977 0.6539944 -0.43292353 0.14231302 0.40654403
-0.19654058 0.04930437 0.059729993 -0.08638047 0.8377209 0.30759612 -0.15988827 -1.0734935
-0.07653553 -0.28182554 -0.27911237 0.040298805 0.2989398 -0.25233912 -0.45399207 -0.40257245
00000000: 156c b6be 7ae4 cabe ae7f 8bbc c3bd fc3e
00000010: 26af 6b3f 8ac1 d83e 2f8a 25be 55a5 353f
00000020: 829f 9dbd 70f6 d5be 4aa2 76be f25a 8fbe
00000030: ce58 debe c780 45bd 44ee 0e3f d28f c73d
00000040: 9461 7c3e 9e48 7bbf 0f7d 7ebe fec0 96be
00000050: 0933 96be 44d7 f2be 9136 fdbe 032e d63e
00000060: 8142 55bf d10c 1f3f 1919 15be a224 373e
00000070: 5309 963e 5112 3b3e 75ae 36bf d646 6b3e
00000080: 15cd 4fbf c27d 4bbd c7f4 433e caa4 023f
00000090: fdcd 3d3f 3f38 b9be 0e2f d5bd 76db 32be
000000a0: 1fe7 65be 5c1c 523f 5b48 a63e 67a2 133f
000000b0: 4013 3abd 60ea 713e 58af 683e d520 02bf
000000c0: e064 aa3e f2c8 12bf 1e31 973e dd5d 05bf
000000d0: 342e aebe ff7f 3f3f d7c4 763e 1c88 3b3d
000000e0: 0319 ddbe 5209 4b3c 69c8 143f eeac 85be
000000f0: a959 1e3f b038 e8be 5ad9 383f ea92 e2bd
00000100: 1852 e7be 1a4d 3b3f 98db 5a3f 01f7 dcbe
00000110: eaac 07bf 4cd3 e23c b74f 3f3e 2e8f d73e
00000120: 3d92 33bf 9c67 7a3e 4baa 233f 72ad 553c
00000130: 6612 acbe c455 7a3f 3ffd 48be 182d 6e3e
00000140: fdff 09be d939 a73e e03c b0be f116 aebe
00000150: f84f cc3b 90ce 32be 528b 9fbd f2a8 373f
00000160: cc00 c23e c4c6 d3be b4f9 f23e d455 dfbd
00000170: 2adb 53be 61ee 88be 33f7 94be d0ca 2d3f
00000180: 6370 0ebf 1cd7 0e3f 1eea 54bf a392 17bf
00000190: 2a15 2dbe f76d 23be 85d0 993e 9f88 1c3f
000001a0: 7a20 8c3f df27 3bbe abf2 153e a803 8c3e
000001b0: 0133 7fbe e2f1 5e3f c3fe 4a3f 3de9 533e
000001c0: b8e2 103f 0162 9ebe 955b 073e 2c58 473f
000001d0: 8b4d 663d 3382 b2bd af76 d13e 98aa e83d
000001e0: 8dfd cabd 4e37 99bd 0d50 f23e 1567 eb3e
000001f0: b180 803f 6957 8fbe 717c 1b3e c9cc 653f
00000200: 417a 51bc 490f c43e f838 5e3e bd3d ddbe
00000210: 4191 10bf 20fc 9ebe f68a c7be 63c8 073d
00000220: 031c 4ebf d85f 32bf 21e6 bc3b 6c9f dd3e
00000230: 36a8 2abf 324d 80be 3fd6 07bf b29b 8c3e
00000240: 8a67 483f cf99 0abe 3972 05be 2811 bd3d
00000250: fe4f 76bf 596b 1c3c a138 fdbd 6049 213f
00000260: 374a 6bbe 26c6 363f b2d8 023f 8c34 093e
00000270: 4f46 debe 7d09 203f a590 593e ed15 a7bd
00000280: 06bd a93c f561 16bf 94f1 ae3d 6332 153e
00000290: aa1f 29bf 2189 70be f425 573e ac1e a83e
000002a0: 5620 b93e 741a 593e e54a cebe 37d9 973d
000002b0: 3071 e13e 26b9 0abf 8f23 50bf bcd0 2d3f
000002c0: 22d9 253f a5b6 083f 2dc0 343f 9248 cfbe
000002d0: eeb9 e2be 817b 66bd ea44 28bc 2b86 5a3e
000002e0: 8b63 a93e 0d15 19be 271a 1d3f 4d71 99be
000002f0: 5ed5 533f 9505 923e ca16 4d3e 7396 0c3f
00000300: d479 3d3e b7b5 5c3e 21c9 0a3e b0ba 8b3f
00000310: e36b ebbe 4a2b 07be d517 9bbe 1093 edbd
00000320: 45e0 933e c37d cd3d 4e7b b1be e0d1 cdbd
00000330: 3e09 2cbe 2ff3 5fbe 0e03 31bd b918 a5be
00000340: a581 5c3e 4893 b8be 78dc febc 2da6 d7be
00000350: 5335 9ebd 0841 fb3d 789c dd3e 1266 78be
00000360: 99f6 a4bd e4e2 46be 2b56 36bd 5e2d 0abe
00000370: 470c 0cbf fd3a 86be a5b2 6e3e 9dbf 81be
00000380: 8bd8 9abe 59b5 5c3f be36 26be dd45 293f
00000390: 7fec 123f 53da b0be 426e fd3e 545d 02be
000003a0: 9f62 a0be 5e38 99be 0118 edbd cdbf 9bbe
000003b0: 2d6c 273f 27a8 ddbe 81ba 113e 8a26 d03e
000003c0: ef41 49be 61f3 493d 70a7 743d 3ee8 b0bd
000003d0: e074 563f 3d7d 9d3e c0b9 23be 3c68 89bf
000003e0: a9be 9cbd 704b 90be d1e7 8ebe 5c10 253d
000003f0: a30e 993e 9832 81be a671 e8be fa1d cebe

Q1.2.weight f4 [256, 256]
-0.1572053 0.06573997 0.23978947 -0.17109768 -0.6424372 0.0343005 0.19709508 0.07008674
0.12645954 0.02305856 0.99184746 -0.7102963 -0.0124169 0.62952274 -0.34429467 0.099488676
-0.2835411 -0.06818865 -0.37080282 -2.1194296 -2.8264928 -0.7474026 -0.17657068 -0.1170984
0.77119744 -0.19283836 0.06932183 0.5200281 -1.0809808 0.076257356 -0.2898899 -1.07092
1.2043966 -0.29103234 0.83682126 0.004156095 0.048849124 -1.6763526 -0.24116619 -0.3073529
0.3565637 0.18178841 -0.9432247 -2.1095276 -0.544777 -0.045532286 0.14677675 0.19493684
0.39985067 -0.32948902 -0.89194477 -0.11211499 -0.37506127 -1.1590344 0.042613182 -0.5342049
0.25213903 -1.2593006 0.73049945 0.08673709 0.23817857 0.05828864 0.13771446 -3.0431354
-0.17501162 0.27204108 0.1875391 -0.4841763 -0.073452294 -0.04660602 -0.30705848 0.13231051
-0.04484785 -0.16059783 -0.1774359 0.010838777 0.2367074 0.034289513 -0.4346323 -0.16869235
-0.7385548 0.26274025 -0.0639992 0.12587845 -3.5931695 -0.5682303 -0.5186883 0.03917886
0.073306784 0.6129714 0.09708631 -0.20670436 -1.3937894 0.049262777 0.72433925 -0.1417612
0.52336156 0.080735855 -1.334263 -0.8953843 0.20528457 -0.20964032 -0.31546894 0.10513464
0.09750311 -0.43090832 0.8160796 0.0201189 -0.6433095 -0.004869042 -0.37035397 0.29429662
-0.391173 1.3820882 -0.10078488 0.027295459 0.005139433 0.3685789 0.09539544 0.1819758
0.16601022 0.4789388 -0.8625335 0.28782392 -0.56319207 0.14830975 -0.47472885 0.01994877
0.47968063 0.13223518 0.06932876 -0.21938165 0.55974746 0.018762264 0.1503736 -0.47997692
-0.14168233 0.087468036 0.0059723095 -0.17836142 -2.1028094 -0.1798654 -1.3531297 -0.13037013
0.16296124 0.35277236 0.16133873 0.101019 -3.4892197 0.32527432 0.14876743 0.20508115
0.10424818 0.18148254 0.011443313 -0.4046546 0.11114876 0.070184134 -1.1645244 -0.8098518
-0.09646298 -0.43398508 0.67505383 0.029781256 -0.96773297 -0.49583012 0.14237511 0.041835837
0.1516474 -0.037927855 -0.5576208 0.5250307 -0.13416447 0.1902619 -0.8762644 0.17008768
0.08019629 0.09298109 0.13691987 0.36395213 -1.1453893 0.14995974 0.66583794 0.64397746
0.23774415 1.1491549 -0.7970354 0.9184718 -0.29525608 -0.10295359 -0.058009535 -0.47054297
1.4253883 -0.3901571 -0.86648 -0.14497234 0.009213923 -0.23451269 -0.6390522 0.36251384
0.345636 -1.189063 -0.07097836 0.2991808 0.13137773 0.06869648 0.09004542 0.13157715
-0.25646457 0.2653314 -0.21170264 0.32232162 0.02523766 0.1867333 -0.2950135 -0.61254096
0.32005754 -0.85378516 0.059062943 0.013705348 0.08253563 -0.32118118 0.40236214 -0.61192954
-0.095760904 0.13346082 0.2943269 -0.1234243 -0.14139059 0.23307033 -0.023617776 -0.5150204
1.2687936 0.053781424 -3.2651126 -0.5919694 0.16848578 0.6395601 0.107459225 -0.046864145
0.64148396 -0.63895637 -0.38266876 -0.008131608 0.2174624 0.12237988 -0.9206134 -0.2640495
0.048985083 -0.2736124 0.13192151 -0.00058794534 -0.30536148 -0.86629957 -0.22864866 -0.43435872
00000000: 6dfa 20be ada2 863d 5f8b 753e 3b34 2fbe
00000010: c476 24bf ae7e 0c3d 4bd3 493e a389 8f3d
00000020: 9c7e 013e 4ee5 bc3c b7e9 7d3f fad5 35bf
00000030: 4170 4bbc 6728 213f 6447 b0be b8c0 cb3d
00000040: 4d2c 91be 7ea6 8bbd ded9 bdbe bca4 07c0
00000050: 42e5 34c0 c755 3fbf f2ce 34be 49d1 efbd
00000060: 326d 453f 6b77 45be 9bf8 8d3d 9020 053f
00000070: 945d 8abf d12c 9c3d 736c 94be e813 89bf
00000080: ab29 9a3f 3102 95be eb39 563f da2f 883b
00000090: 0516 483d b992 d6bf 45f4 76be 5c5d 9dbe
000000a0: 848f b63e be26 3a3e 2d77 71bf 8002 07c0
000000b0: 8176 0bbf 1080 3abd a54c 163e 869d 473e
000000c0: 3ab9 cc3e c9b2 a8be 7e56 64bf 8b9c e5bd
000000d0: 0808 c0be 3d5b 94bf 298b 2e3d a7c1 08bf
000000e0: 5e18 813e c330 a1bf 0302 3b3f 37a3 b13d
000000f0: 15e5 733e 12c0 6e3d 0505 0d3e bbc2 42c0
00000100: 3f36 33be f848 8b3e 400a 403e f5e5 f7be
00000110: 286e 96bd f4e5 3ebd c536 9dbe 687c 073e
00000120: 61b2 37bd c273 24be c2b1 35be 2095 313c
00000130: 6d63 723e 2973 0c3d 2088 debe b0bd 2cbe
00000140: ed11 3dbf e485 863e 0312 83bd 48e6 003e
00000150: 7df6 65c0 8a77 11bf c2c8 04bf 037a 203d
00000160: de21 963d b2eb 1c3f 30d5 c63d 4faa 53be
00000170: b167 b2bf c4c7 493d 4c6e 393f d929 11be
00000180: 06fb 053f d758 a53d 21c9 aabf e837 65bf
00000190: 1e36 523e f4ab 56be 2585 a1be d550 d73d
000001a0: b6af c73d 04a0 dcbe 98ea 503f 64d0 a43c
000001b0: eeaf 24bf 7c8c 9fbb 099f bdbe 0cae 963e
000001c0: d447 c8be 44e8 b03f 4e68 cebd ba9a df3c
000001d0: b068 a83b 60b6 bc3e af5e c33d dd57 3a3e
000001e0: 95fe 293e 7737 f53e ffce 5cbf a85d 933e
000001f0: 5b2d 10bf 83de 173e a90f f3be 9a6b a33c
00000200: b398 f53e a968 073e 3dfc 8d3d 95a5 60be
00000210: 9c4b 0f3f 52b3 993c 89fb 193e 89bf f5be
00000220: 2c15 11be 7122 b33d 5db3 c33b 60a4 36be
00000230: 6e94 06c0 a32e 38be 5b33 adbf bf7f 05be
00000240: 50df 263e 949e b43e fb35 253e 0de3 ce3d
00000250: 604f 5fc0 5b8a a63e 7d56 183e cb00 523e
00000260: 1280 d53d 8fd6 393e bc7c 3b3c e32e cfbe
00000270: f6a1 e33d b3bc 8f3d 230f 95bf 7352 4fbf
00000280: 628e c5bd 4b33 debe 54d0 2c3f d2f7 f33c
00000290: 59bd 77bf 72dd fdbe c8ca 113e 0e5c 2b3d
000002a0: 7549 1b3e 3d5a 1bbd 3dc0 0ebf 6968 063f
000002b0: 6962 09be 04d4 423e dd52 60bf 772b 2e3e
000002c0: f43d a43d df6c be3d b934 0c3e ef57 ba3e
000002d0: 1e9c 92bf 0c8f 193e 5b74 2a3f b5db 243f
000002e0: 3473 733e 8217 933f 830a 4cbf f820 6b3f
000002f0: ce2b 97be 55d9 d2bd 689b 6dbd 02eb f0be
00000300: 2073 b63f acc2 c7be a2d1 5dbf a173 14be
00000310: fef5 163c 1824 70be ed98 23bf 6a9b b93e
00000320: 34f7 b03e 3733 98bf 1a5d 91bd 3a2e 993e
00000330: e287 063e bdb0 8c3d bc69 b83d 29bc 063e
00000340: 534f 83be 84d9 873e 94c8 58be 5707 a53e
00000350: 36bf ce3c 0437 3f3e 020c 97be 7ccf 1cbf
00000360: 95de a33e aa91 5abf fceb 713d 658c 603c
00000370: 7108 a93d dc71 a4be 6902 ce3e 6aa7 1cbf
00000380: 4b1e c4bd f4a9 083e 04b2 963e e1c5 fcbd
00000390: b2c8 10be fda9 6e3e 117a c1bc 60d8 03bf
000003a0: d467 a23f e949 5c3d 9bf7 50c0 4e8b 17bf
000003b0: 8987 2c3e 36ba 233f 9513 dc3d 9ef4 3fbd
000003c0: 4b38 243f a592 23bf 29ed c3be 703a 05bc
000003d0: 77ae 5e3e 4da2 fa3d 52ad 6bbf 7f31 87be
000003e0: 95a4 483d ed16 8cbe 6f16 073e 5820 1aba
000003f0: 5758 9cbe cfc5 5dbf e022 6abe 4464 debe

Q1.2.bias f4 [256]
-0.0273922 0.47319534 -0.274331 0.6632943 -0.29756698 0.61675304 0.011078536 0.6144759
-0.0752353 -0.45340937 -0.09046098 0.49954262 0.6230839 -0.2888609 0.90501684 0.3645487
-0.57741773 -0.018534606 0.7065167 0.637068 -0.03947302 -0.08216941 0.65608495 0.65450686
0.6308992 0.37953666 -0.16192314 0.6068905 0.015209647 0.97047526 0.90599424 0.5140971
0.64606494 -0.18156077 0.8599954 0.67348444 0.62981474 0.73387134 -0.5293891 0.03966279
-0.17562102 0.6396575 -0.05410339 0.6665293 -0.75434464 0.11298864 -0.25420448 0.43369
0.6908265 0.00013873834 0.61760277 -0.17916675 -0.45329788 -0.16000469 0.6592573 0.68784547
0.8039301 0.5859652 0.87495816 0.58926505 0.6319814 0.90959936 0.42159843 -0.06792051
0.9077591 -0.31840584 0.5452362 -0.27453223 0.84720635 0.9308816 0.7020481 0.6427296
-0.51004416 -0.014757662 -0.15328005 0.891231 0.008058577 0.45761877 0.64248717 -0.45333132
-0.11984516 0.6776003 0.85065407 0.58638394 0.12311977 -0.17218868 0.59660405 0.6712359
0.6205109 -0.039305475 -0.05910038 -0.11127382 0.000784968 -0.032813042 0.71449935 0.6155338
-0.06006107 0.04528502 0.5644105 0.8124885 -0.48247373 0.7112516 0.8854966 0.0804543
0.83496183 0.6039981 0.8311495 0.84494495 0.0018432091 -0.25264055 0.69031334 0.8595886
0.6002572 -0.17692742 -0.18827274 -0.27069938 0.1742596 0.69509536 -0.093151785 0.7007351
0.4009455 0.6105932 0.7692587 0.5912945 -0.66313773 -0.5233365 0.60083616 -0.0790236
0.5827111 -0.21741267 0.65270436 -0.20499595 0.5990094 -0.3223783 0.5067529 0.009450238
-0.17823704 -0.107232295 0.06185509 0.64701605 -0.06872219 0.6460624 0.6029567 0.9546558
-0.5586201 -0.024512077 -0.19197173 0.2608688 -0.41323 0.5868546 0.6574012 0.66575867
0.7771722 -0.110920005 0.7537039 -0.7701298 0.051693868 -0.28601804 0.41119134 -0.2458502
-0.04706916 0.6297577 -0.16274476 0.030760815 0.5960931 -0.18451618 0.67703646 -0.18769027
-0.359805 -0.009222688 -0.13534069 -0.082127616 0.6979018 -0.005042158 -0.62121624 0.7120868
0.5844212 0.6119808 0.6217331 -0.026631447 0.80115026 0.6691574 -0.3814072 0.62138367
-0.0916284 0.7655371 -0.48619178 0.5950076 0.67604905 -0.26225695 0.09899993 0.11397833
-0.014462689 -0.88509524 0.01689044 0.6762846 0.14386146 -0.27251688 -0.41452038 0.8901296
0.6935625 0.6237814 0.7051979 0.7833105 0.38442865 0.6696069 0.6384076 0.62378854
-0.078096405 -0.19034196 -0.15173303 0.6744451 -0.122465394 0.38138336 -0.24946398 0.6557841
-0.37340394 0.6080039 -0.16471438 0.6653755 -0.2623716 0.68786764 0.690305 0.6627527
0.8148473 -0.10001133 0.8640998 0.6678636 0.61139846 0.7040071 0.370007 -0.42812568
0.63796496 -0.086660914 -0.046758395 0.81637734 0.6533383 -0.5488544 0.7045046 0.5504054
0.65018326 0.7070997 0.04925014 0.818266 0.68918055 0.6900902 0.9841577 -0.34869233
-0.035547975 0.6505706 0.67311776 0.50744665 0.32113415 0.69172245 0.63355714 0.6993705
00000000: 9b65 e0bc a946 f23e 1d75 8cbe a8cd 293f
00000010: b35a 98be 87e3 1d3f bf82 353c 4b4e 1d3f
00000020: f714 9abd 4625 e8be 9b43 b9bd 0dc4 ff3e
00000030: 6d82 1f3f 93e5 93be 2faf 673f 21a6 ba3e
00000040: a6d1 13bf e3d5 97bc 47de 343f e316 233f
00000050: 76ae 21bd 7048 a8bd 2ff5 273f c38d 273f
00000060: 9c82 213f a152 c23e 2ecf 25be 2d5d 1b3f
00000070: e231 793c 1171 783f 3def 673f de9b 033f
00000080: 8364 253f 11eb 39be a928 5c3f 7a69 2c3f
00000090: 8a3b 213f fede 3b3f 0b86 07bf 7375 223d
000000a0: ffd5 33be 98c0 233f 849b 5dbd aaa1 2a3f
000000b0: bb1c 41bf 9766 e73d 1727 82be 9e0c de3e
000000c0: 01da 303f 4a7a 1139 371b 1e3f 7d77 37be
000000d0: a916 e8be 45d8 23be 16c5 283f a416 303f
000000e0: 5dce 4d3f d101 163f 42fd 5f3f 13da 163f
000000f0: 88c9 213f 81db 683f c0db d73e e919 8bbd
00000100: e662 683f 1706 a3be 9994 0b3f 7d8f 8cbe
00000110: 84e2 583f 424e 6e3f 6db9 333f ed89 243f
00000120: 4192 02bf 1fca 71bc 72f5 1cbe b727 643f
00000130: 1f08 043c 024d ea3e 0a7a 243f 0b1b e8be
00000140: 6171 f5bd 3777 2d3f 77c4 593f 421d 163f
00000150: 3826 fc3d 3b52 30be 0bbb 183f 1ed6 2b3f
00000160: cdd9 1e3f c7fe 20bd 3d13 72bd 87e3 e3bd
00000170: 50c6 4d3a f866 06bd 6ee9 363f a093 1d3f
00000180: 9902 76bd c97c 393d 357d 103f 3fff 4f3f
00000190: cc06 f7be 9614 363f e8af 623f 39c5 a43d
000001a0: 0fc0 553f 9f9f 1a3f 37c6 543f 504e 583f
000001b0: d697 f13a 1a5a 81be 60b8 303f 000e 5c3f
000001c0: 75aa 193f 762c 35be 92ca 40be 1c99 8abe
000001d0: 1c71 323e c5f1 313f 5dc6 bebd 6063 333f
000001e0: bb48 cd3e d64f 1c3f 23ee 443f 145f 173f
000001f0: 65c3 29bf 62f9 05bf 66d0 193f 20d7 a1bd
00000200: 8e2c 153f 6da1 5ebe a217 273f 75ea 51be
00000210: ae58 193f c50e a5be 8fba 013f 2cd5 1a3c
00000220: c583 36be 9b9c dbbd c35b 7d3d d8a2 253f
00000230: 38be 8cbd 5864 253f 5f5b 1a3f 5364 743f
00000240: ba01 0fbf 8dcd c8bc 3d94 44be 9890 853e
00000250: e292 d3be 1a3c 163f 724b 283f 296f 2a3f
00000260: c2f4 463f 072a e3bd bdf2 403f 3a27 45bf
00000270: f3bc 533d f570 92be ac87 d23e 28c0 7bbe
00000280: 97cb 40bd cd37 213f 90a6 26be 1bfe fb3c
00000290: 8f99 183f cff1 3cbe 4352 2d3f e131 40be
000002a0: 5c38 b8be c21a 17bc c096 0abe 8632 a8bd
000002b0: b1a9 323f b038 a5bb 0708 1fbf 524b 363f
000002c0: a19c 153f c6aa 1c3f e729 1f3f 312a dabc
000002d0: 2f18 4d3f e64d 2b3f ce47 c3be 0013 1f3f
000002e0: aca7 bbbd 3dfa 433f 21ee f8be 6b52 183f
000002f0: 8d11 2d3f 8b46 86be 7ac0 ca3d 786d e93d
00000300: eaf4 6cbc 9a95 62bf d25d 8a3c fd20 2d3f
00000310: 6b50 133e 5587 8bbe 043c d4be 89df 633f
00000320: 508d 313f 23b0 1f3f d987 343f 0987 483f
00000330: d5d3 c43e 5c6b 2b3f ae6e 233f 9bb0 1f3f
00000340: 02f1 9fbd 01e9 42be e75f 1bbe 6fa8 2c3f
00000350: 23cf fabd ae44 c33e 7c73 7fbe 77e1 273f
00000360: cd2e bfbe 25a6 1b3f e3aa 28be 0c56 2a3f
00000370: 9255 86be 1818 303f d4b7 303f 29aa 293f
00000380: d599 503f bdd2 ccbd a535 5d3f 1cf9 2a3f
00000390: 9c84 1c3f cf39 343f 8f71 bd3e 4a33 dbbe
000003a0: ac51 233f 477b b1bd bb85 3fbd 1bfe 503f
000003b0: 2e41 273f b981 0cbf 6a5a 343f 5ee7 0c3f
000003c0: 6972 263f 7c04 353f 84ba 493d e179 513f
000003d0: 236e 303f c0a9 303f c2f1 7b3f cd87 b2be
000003e0: c19a 11bd cb8b 263f 7251 2c3f 06e8 013f
000003f0: b26b a43e b914 313f cd30 223f f209 333f

Q1.4.weight f4 [1, 256]
-2.7322223 0.7727746 -2.358816 0.15428025 -1.0687057 0.18983018 -5.0436807 0.15033066
-3.731279 -1.0343313 -1.4182619 1.1431818 0.16688755 -1.0713656 1.3486964 1.1451892
-7.0382338 -0.030210514 0.19869068 0.1681248 -3.2491674 -0.69840294 0.116534896 0.18757069
0.18054974 0.8493279 -1.2395684 1.0685704 0.005718212 0.7532995 0.548772 0.6559661
0.23950762 -12.168031 0.5415857 0.18388118 0.8999416 0.8251929 -1.48041 -3.8875782
-2.737689 0.20185375 -0.0041919765 0.18324298 -2.2426214 -1.286704 -2.637801 1.1173553
0.19212371 -1.2031624 0.18774097 -1.278082 -1.7634269 -2.1567862 0.19784556 0.1827048
0.61915153 0.7584187 0.85296154 1.4975275 0.14263035 0.74739814 0.8397944 0.016550928
0.72109187 -0.6788105 1.4656398 -9.101768 0.5950538 0.6097461 0.75199336 0.16688877
-1.0151476 -3.5698447 -7.423622 0.7857946 -0.0335385 0.65949833 0.16668816 -2.5296328
-1.7182246 0.81469 0.9715099 0.9484554 -1.5260676 -1.6259784 0.19216272 0.17645751
0.17662716 0.039784536 -0.025071844 -2.701724 -12.6607 0.035182662 0.135351 0.19240688
0.0037621737 0.007380748 1.3420377 0.6564386 -0.96223176 0.19623145 0.64391965 -2.753603
0.94258785 0.15398945 0.5573227 0.5133285 -0.03856081 -2.2978907 0.17576179 0.7724133
0.17008442 -2.5033762 -2.0585947 -3.2466435 -5.5458055 0.19458798 -2.4713078 0.15691078
0.9203627 0.15700465 0.61881125 0.12633345 -1.5220532 -1.1081498 0.19901127 -11.943039
0.71990895 -1.8526107 0.14964712 -3.1210315 0.14065495 -3.1888416 0.95574427 -2.2108953
-1.5738465 -1.334334 -8.188066 0.20035607 -0.056779422 0.15587638 0.15348126 0.9686486
-0.4495268 -9.95144 -1.8588828 1.4550422 -1.3550849 2.0453296 0.18453701 0.14973998
0.48088613 -1.8308377 1.1250347 -2.2369938 -0.007356333 -4.639948 1.4720018 -1.898085
-12.070601 0.12169797 -1.8958223 -0.040290166 0.16359459 -2.5067456 0.13735786 -11.183268
-1.7871003 -0.039310567 -11.660798 -8.303658 0.14037837 -5.191323 -1.6835955 0.1507877
0.20253177 0.20261852 0.1371635 -6.7370205 0.8530233 0.19641429 -0.671497 0.23803821
-2.6491358 0.7105575 -1.2892789 0.9212968 0.20686 -4.5845904 -8.286931 -1.4543667
-1.9376886 -1.605051 -0.02613194 0.17800379 -0.9817078 -0.65024877 -1.0901544 0.5970478
0.12400798 0.18626991 0.13264637 0.73549354 0.87005967 0.19831534 0.18282372 0.17741695
-0.740724 -1.4429483 -10.378588 0.16242166 -8.234942 1.522877 -9.640536 0.13359939
-2.946861 0.2070169 -9.752395 0.1948362 -1.066781 0.19805402 0.7275903 0.17019624
0.7413254 -4.2312865 0.57084537 0.21993619 0.18475068 0.16467161 0.8314236 -1.447354
0.18200517 -3.265311 -0.010501525 0.901358 0.17493555 -1.3716198 0.1260571 0.68288577
1.0931331 0.21022087 -8.281033 0.78659415 0.20409986 0.16533476 0.95726734 -1.4172498
0.0018369034 0.17636256 0.21931632 0.8991883 1.482368 0.18185236 0.6859955 0.2112378
00000000: bbdc 2ec0 8ed4 453f d7f6 16c0 a4fb 1d3e
00000010: 59cb 88bf d862 423e d565 a1c0 48f0 193e
00000020: 46cd 6ec0 f864 84bf 9b89 b5bf c853 923f
00000030: 92e4 2a3e 8222 89bf 15a2 ac3f 8f95 923f
00000040: 3639 e1c0 0a7c f7bc 9275 4b3e e828 2c3e
00000050: 5cf2 4fc0 89ca 32bf d9a9 ee3d 8812 403e
00000060: 08e2 383e 8e6d 593f 2daa 9ebf eac6 883f
00000070: d75f bb3b 3cd8 403f 527c 0c3f 65ed 273f
00000080: 7c41 753e 41b0 42c1 5ca5 0a3f 594b 3c3e
00000090: 9362 663f d83f 533f 137e bdbf 15ce 78c0
000000a0: 4c36 2fc0 c0b2 4e3e d95c 89bb 0ca4 3b3e
000000b0: 1c87 0fc0 b7b2 a4bf bbd1 28c0 8005 8f3f
000000c0: 14bc 443e 3a01 9abf 2b3f 403e 3198 a3bf
000000d0: f9b7 e1bf c908 0ac0 0798 4a3e f816 3b3e
000000e0: b780 1e3f ba27 423f b05b 5a3f fbae bf3f
000000f0: b10d 123e 7c55 3f3f c4fc 563f d095 873c
00000100: 7a99 383f 86c6 2dbf 169a bb3f d7a0 11c1
00000110: 7255 183f 5218 1c3f a382 403f e4e4 2a3e
00000120: 5bf0 81bf 5678 64c0 508e edc0 d629 493f
00000130: ab5f 09bd e2d4 283f 4db0 2a3e 81e5 21c0
00000140: c9ee dbbf 868f 503f dfb4 783f f9cd 723f
00000150: 2f56 c3bf 0f20 d0bf 4ec6 443e 47b1 343e
00000160: c0dd 343e 1cf5 223d 7863 cdbc 0ce9 2cc0
00000170: 3a92 4ac1 b21b 103d 7499 0a3e 4f06 453e
00000180: cd8e 763b 34da f13b e4c7 ab3f 5c0c 283f
00000190: d254 76bf e6f0 483e ebd7 243f 083b 30c0
000001a0: 704d 713f 69af 1d3e b3ac 0e3f 7f69 033f
000001b0: f1f1 1dbd a410 13c0 e6fa 333e e1bc 453f
000001c0: 9c2a 2e3e 5137 20c0 04c0 03c0 02c9 4fc0
000001d0: 3d77 b1c0 1242 473e e829 1ec0 38ad 203e
000001e0: e49c 6b3f d4c5 203e 6a6a 1e3f 8e5d 013e
000001f0: a4d2 c2bf dad7 8dbf 9cc9 4b3e b016 3fc1
00000200: f44b 383f 5922 edbf 183d 193e fbbe 47c0
00000210: da07 103e fb15 4cc0 a8ab 743f 4f7f 0dc0
00000220: cd73 c9bf 75cb aabf 5102 03c1 242a 4d3e
00000230: 8a91 68bd 0f9e 1f3e 312a 1d3e 5bf9 773f
00000240: 6028 e6be 1939 1fc1 dfef edbf d33e ba3f
00000250: 6c73 adbf aee6 0240 45f7 3c3e 7055 193e
00000260: b536 f63e e458 eabf 2301 903f e82a 0fc0
00000270: 650d f1bb 747a 94c0 8e6a bc3f 73f4 f2bf
00000280: 2f21 41c1 c93c f93d 4eaa f2bf 4d07 25bd
00000290: 5785 273e 856e 20c0 8aa7 0c3e aaee 32c1
000002a0: b4bf e4bf 1e04 21bd a192 3ac1 c8db 04c1
000002b0: 59bf 0f3e 511f a6c0 0f80 d7bf 1768 1a3e
000002c0: 7d64 4f3e 3b7b 4f3e 9774 0c3e ac95 d7c0
000002d0: bc5f 5a3f d420 493e 3ae7 2bbf 4ac0 733e
000002e0: 718b 29c0 19e7 353f 1707 a5bf 1bda 6b3f
000002f0: 1cd3 533e f7b4 92c0 4597 04c1 b028 babf
00000300: 2e06 f8bf 5072 cdbf a612 d6bc a046 363e
00000310: 3451 7bbf b476 26bf 2e8a 8bbf 20d8 183f
00000320: e5f7 fd3d 8abd 3e3e 73d4 073e 4e49 3c3f
00000330: 3bbc 5e3f 2d13 4b3e 2436 3b3e caac 353e
00000340: 17a0 3dbf 88b2 b8bf b20e 26c1 dd51 263e
00000350: 53c2 03c1 a2ed c23f a33f 1ac1 47ce 083e
00000360: 5f99 3cc0 3dfc 533e cf09 1cc1 2483 473e
00000370: 488c 88bf acce 4a3e 5c43 3a3f ec47 2e3e
00000380: 80c7 3d3f b366 87c0 ec22 123f f436 613e
00000390: 482f 3d3e ad9f 283e 2dd8 543f e542 b9bf
000003a0: 905f 3a3e dbfa 50c0 970e 2cbc 66bf 663f
000003b0: 4e22 333e 3d91 afbf 1d15 013e 9ad1 2e3f
000003c0: c9eb 8b3f 2444 573e 1c7f 04c1 3c5e 493f
000003d0: 8eff 503e 844d 293e 790f 753f 7168 b5bf
000003e0: 40c4 f03a 6398 343e 7594 603e 3431 663f
000003f0: 3cbe bd3f 8137 3a3e 679d 2f3f b94e 583e

Q2.0.weight f4 [256, 14]
-0.10783505 -1.5396416 -1.9543418 -1.1594626 1.2951806 -0.30097437 0.39797786 0.17879781
-0.25676888 -0.14157756 -0.072591715 -0.1198138 -0.12760593 -0.050203815 -0.026889097 0.47592214
0.5953043 0.055039633 0.60616875 0.5227044 0.1286274 -0.044186726 0.22396825 0.06318279
-0.3107827 0.1458511 -0.42906398 0.07111518 0.121908285 -2.47809 0.11234192 0.21772909
0.15317008 0.118895456 0.03201461 -0.1433611 0.09128714 0.07612513 -0.012483064 -0.06784104
-0.02729474 -0.04981648 0.4190867 -0.7143519 1.9064944 -0.23777223 0.5018433 0.009047569
0.15333836 0.44881716 0.22910611 0.5000776 0.2618466 0.34450933 0.278542 -0.2737365
-0.116242886 -2.6177766 -0.45669705 -0.17476784 0.053155843 0.28980345 -0.0056653745 -0.13299373
0.14209074 -0.054234523 0.019426322 -0.014129853 0.043851715 -0.09281715 0.0953697 -0.718492
-0.7356652 0.03685331 -0.11944761 -0.34500575 -0.09271732 -0.23502178 0.19958358 -0.01430065
-0.19485323 -0.1119865 -0.91703176 -0.19919717 0.12289352 1.9724938 -0.66763383 -0.14339423
-0.9588324 0.020305399 0.6627999 0.05460969 -0.16859512 -0.1300026 -0.28804892 -0.32332096
-0.13236964 0.17768845 -0.22634612 2.7515833 -0.20504783 -1.1142387 -0.10751567 0.03927556
-0.13164605 -0.002479293 0.4039169 -0.31447443 -0.304461 0.74466765 -0.44664142 -0.72023225
-0.029078048 1.1550686 1.2038385 0.63097095 0.31081632 -0.27486748 -0.7527833 0.37809733
-0.4926603 -0.34842187 -0.21536675 -0.026732711 -0.21177384 -0.06405199 0.25183362 -1.5131878
-0.47320527 0.5690971 -0.18406305 0.017474636 -0.38769847 -0.16989009 0.05319883 -0.029179573
-0.13702127 -0.5154444 0.17105244 -0.34332436 0.25666097 -2.3339853 0.6127744 1.9029325
-0.37062183 -0.82087564 0.31745198 0.016547833 0.014109283 0.20428088 0.16748913 0.87743545
0.12634353 -0.23998803 -0.46338776 -0.16212596 -0.50632036 -0.25707927 -0.2539235 -0.20000891
0.3012316 -0.47850242 0.037471935 -0.2923226 0.41718104 -1.0964713 -0.8691324 -0.85420775
0.080197126 0.5970767 1.5681422 -0.26710236 1.0065885 0.2152261 0.22109725 0.22481999
-0.23223998 -0.22198138 -0.05826292 0.4540295 -0.5608984 -0.1705968 0.1308906 -4.529254
0.97487897 0.3693004 -0.7204833 0.1313997 0.22647253 -0.1863841 0.036662802 0.005634315
0.015251356 -0.12764058 -0.09952759 0.026167564 0.12634024 0.29648897 0.36237434 -0.033225257
0.047957856 0.1744188 -0.12451822 -0.3394614 0.24734282 0.11435486 -0.003498495 -0.32348666
-0.12005132 0.04084213 -0.19592714 -3.4949565 4.6642365 2.2820115 -0.48209798 -0.024901278
0.15816636 -0.56626946 0.47449297 0.221804 0.05044462 0.044137836 -0.10783553 0.0618365
-0.18892816 1.5242412 -1.4128253 -0.7756208 0.5655711 0.0900816 -0.17663468 -0.104057
-0.019339867 -0.23202986 -0.23464899 -0.23835044 -0.33132538 -0.22590901 0.10040936 -1.0896922
-1.7098643 0.08224655 0.08495925 -0.06926339 -0.02910723 0.6903647 0.4552944 -0.17894857
-0.062294755 0.3878919 -0.21479051 -0.05864354 -0.37928793 0.44482756 -0.17606917 -0.5432741
00000000: 9fd8 dcbd fa12 c5bf df27 fabf 4569 94bf
00000010: 7ac8 a53f 5019 9abe c1c3 cb3e c616 373e
00000020: 3677 83be b5f9 10be f7aa 94bd f060 f5bd
00000030: 21ab 02be 84a2 4dbd 8646 dcbc 11ac f33e
00000040: dd65 183f 3d71 613d e02d 1b3f f5cf 053f
00000050: e7b6 033e 24fd 34bd ef57 653e fb65 813d
00000060: e91e 9fbe fe59 153e 46ae dbbe d6a4 913d
00000070: 0dab f93d 0799 1ec0 8513 e63d 60f4 5e3e
00000080: 9ed8 1c3e 767f f33d c021 033d 41cd 12be
00000090: c1f4 ba3d 7ee7 9b3d c485 4cbc 3ef0 8abd
000000a0: 3899 dfbc 5e0c 4cbd 8892 d63e c4df 36bf
000000b0: 0208 f43f 907a 73be cd78 003f 413c 143c
000000c0: bb04 1d3e 5dcb e53e cb9a 6a3e 1605 003f
000000d0: c210 863e 8763 b03e 0f9d 8e3e 3127 8cbe
000000e0: c010 eebd a789 27c0 32d4 e9be 57f6 32be
000000f0: f1b9 593d 1e61 943e 9ba4 b9bb 822f 08be
00000100: 3c80 113e 0525 5ebd f323 9f3c e680 67bc
00000110: db9d 333d eb16 bebd 3051 c33d 17ef 37bf
00000120: 8e54 3cbf 7ff3 163d f3a0 f4bd 98a4 b0be
00000130: 94e2 bdbd 8da9 70be a35f 4c3e 464d 6abc
00000140: 9b87 47be 2e59 e5bd 98c2 6abf 58fa 4bbe
00000150: 99af fb3d ad7a fc3f 0dea 2abf f0d5 12be
00000160: 0a76 75bf 8257 a63c 41ad 293f 69ae 5f3d
00000170: 33a4 2cbe 671f 05be 267b 93be 538a a5be
00000180: e88b 07be f6f3 353e 47c7 67be f119 3040
00000190: 0ff8 51be 609f 8ebf 2d31 dcbd 69df 203d
000001a0: 39ce 06be a27b 22bb 32ce ce3e cb02 a1be
000001b0: 50e2 9bbe 8aa2 3e3f 2fae e4be 2461 38bf
000001c0: 1635 eebc 4ad9 933f 6117 9a3f 5087 213f
000001d0: 5123 9f3e 6ebb 8cbe 68b6 40bf f995 c13e
000001e0: f93d fcbe 5a64 b2be 1a89 5cbe 8ffe dabc
000001f0: 3edb 58be b12d 83bd 56f0 803e 23b0 c1bf
00000200: f647 f2be 59b0 113f 067b 3cbe f826 8f3c
00000210: 6a80 c6be abf7 2dbe 04e7 593d 000a efbc
00000220: 4e4f 0cbe 2af4 03bf 5f28 2f3e 36c8 afbe
00000230: 1169 833e 0460 15c0 c8de 1c3f 4b93 f33f
00000240: 25c2 bdbe e824 52bf 1189 a23e 528f 873c
00000250: 9f2a 673c 022f 513e 4582 2b3e 9c9f 603f
00000260: 3360 013e 6cbf 75be 2941 edbe 5904 26be
00000270: 369e 01bf e59f 83be 4302 82be 23cf 4cbe
00000280: 073b 9a3e 45fe f4be 2c7c 193d 4fab 95be
00000290: c198 d53e 2c59 8cbf 767f 5ebf 5cad 5abf
000002a0: 643e a43d 05da 183f e2b8 c83f a4c1 88be
000002b0: e4d7 803f 3b64 5c3e 5167 623e 3637 663e
000002c0: 51d0 6dbe 164f 63be 19a5 6ebd 8e76 e83e
000002d0: 0a97 0fbf edb0 2ebe 2f08 063e a6ef 90c0
000002e0: ab91 793f f114 bd3e 9871 38bf a58d 063e
000002f0: 6ae8 673e 79db 3ebe bc2b 163d 0fa0 b83b
00000300: d3e0 793c 36b4 02be 1fd5 cbbd 5c5d d63c
00000310: 565f 013e 67cd 973e 2189 b93e 3517 08bd
00000320: 756f 443d d89a 323e 6903 ffbd e2cd adbe
00000330: 7047 7d3e e132 ea3d 0247 65bb 0ba0 a5be
00000340: 77dd f5bd 144a 273d 20a1 48be 5ead 5fc0
00000350: 6d41 9540 7a0c 1240 8cd5 f6be c4fd cbbc
00000360: 5df6 213e 09f7 10bf bef0 f23e 9620 633e
00000370: 059f 4e3d e0c9 343d e0d8 dcbd 4548 7d3d
00000380: 6276 41be 561a c33f 76d7 b4bf 168f 46bf
00000390: 45c9 103f b47c b83d b9df 34be d61b d5bd
000003a0: a46e 9ebc 3c99 6dbe d347 70be 2312 74be
000003b0: 7ba3 a9be b154 67be 6ca3 cd3d 097b 8bbf
000003c0: d5dc dabf e170 a83d 1eff ad3d f7d9 8dbd
000003d0: 4972 eebc bebb 303f 591c e93e 4b3e 37be
000003e0: c928 7fbd c499 c63e 0bf2 5bbe 3534 70bd
000003f0: 0732 c2be 70c0 e33e 7a4b 34be 0314 0bbf

Q2.0.bias f4 [256]
-0.27973706 0.1515096 0.6189281 0.24525382 0.55778444 0.0032921517 0.5291509 0.0039557926
0.16836149 -0.14019138 -0.022740167 -0.4157633 -0.010717168 -0.15566324 0.62990755 -0.7024445
-0.73433197 0.11716447 0.46739054 -1.1532861 -0.287061 0.19240992 0.1495004 0.4504325
0.70356715 0.407024 0.12325329 0.42857948 0.7338456 -0.24941754 -0.08969991 -0.124699876
-0.30012637 0.46382633 0.96084464 -0.55321175 0.23129505 -0.000814829 0.7607127 0.013063468
-0.3454209 0.5130229 0.2553899 0.38102958 0.3983397 -0.43438408 0.47525957 -0.08637625
0.50011027 0.19012628 -0.16395949 -0.46870154 0.33279756 0.6488169 -0.3637104 0.17878807
0.11688728 0.13524012 0.5517249 0.043348443 0.18138856 -0.2782405 0.21986917 0.17882168
0.6402196 -0.15570629 -0.67897487 0.34014118 0.13911378 -0.19013107 -0.05163192 0.20994274
0.43069652 -0.12030167 0.3866562 -0.51754767 0.030407548 -0.31349865 0.61752737 -0.01295817
0.44575575 -0.39563137 -0.71857065 -0.13624711 -0.20980872 -0.2605572 -0.5300499 -0.6330396
0.14160424 -0.0005425533 -0.21907708 -0.561077 0.30150682 -0.32893264 0.7233925 -0.35162115
1.1974965 -0.052883156 0.9402448 -0.25579295 -0.49330112 0.48292872 0.0005552888 -0.6465314
0.377384 -0.9461957 -0.40015173 -0.6289539 -0.23494357 -0.19059779 0.19248034 -0.16666257
0.55746114 0.048780125 -0.14291392 -0.17529221 0.27360004 -0.21998869 -0.5344287 0.29991093
0.58409667 0.12217645 -0.08336961 -0.0067299907 0.32665715 1.1527005 -0.6796122 0.086990625
-0.06074977 -0.051076926 -0.09204514 0.15731145 0.17710173 0.038816072 -0.0070779566 0.57966715
0.070693165 0.32550868 0.49685758 0.12599535 0.34789845 -0.47556636 0.077375695 0.29992074
0.96998465 0.5503763 -0.10941463 0.080001466 0.7307333 0.33488262 0.09792826 0.76461244
0.53449583 0.1926091 0.1563015 -0.07199272 -0.3166416 0.20794284 -0.59282386 -0.5251141
0.3232362 -0.704078 0.3296667 -0.1343732 -0.13977326 0.69901806 -0.44124272 0.7364775
0.9228071 0.103677034 0.03415192 -0.5912639 0.096565165 -0.06509854 -0.2092053 0.023558395
-0.24799818 0.029502425 0.8958556 -0.122151926 -0.449938 0.5527071 -0.5228042 0.19796708
-0.49138755 0.40644622 0.73259485 -0.108664446 -0.32614708 -0.36353087 0.26748475 0.43618143
0.040884823 -0.00813253 0.46775383 0.36895835 -0.69597965 -0.70003253 0.58160645 -0.37550563
0.74520695 0.5219697 0.77523774 -0.021483397 -0.24295393 -0.21900429 0.39796558 0.004039993
0.65640277 -0.46865523 0.38988894 1.0317824 0.10874492 0.02878078 -0.2696726 0.13419881
0.6035322 0.81452256 -0.35202917 -0.5516417 0.40569884 1.106557 0.6186546 0.8194246
-0.7606556 0.8720652 1.0016694 0.46616283 0.27986315 0.022577599 -0.4832013 0.64683706
0.5020006 0.5719369 0.08738272 -0.30152798 -0.4168749 -0.6741913 0.7635094 -0.5454744
-0.49241963 -0.7302412 -0.17053694 -0.048350062 0.4988586 0.05741974 -0.13199158 0.24410906
0.050354406 -0.4708863 -0.031670444 0.47162682 -0.42834407 -0.004594305 -0.5478423 -0.011181094
00000000: b239 8fbe 5525 1b3e 1272 1e3f d123 7b3e
00000010: f6ca 0e3f 24c1 573b 6f76 073f 989f 813b
00000020: f466 2c3e 548e 0fbe 9649 babc edde d4be
00000030: 1097 2fbc 2f66 1fbe 9f41 213f 67d3 33bf
00000040: 2efd 3bbf edf3 ef3d d04d ef3e e19e 93bf
00000050: a9f9 92be 1b07 453e a216 193e 179f e63e
00000060: fa1c 343f 7365 d03e 396c fc3d c56e db3e
00000070: 4edd 3b3f 5067 7fbe 96b4 b7bd a662 ffbd
00000080: 2aaa 99be a57a ed3e eaf9 753f 499f 0dbf
00000090: 9cd8 6c3e 409a 55ba 11be 423f 2808 563c
000000a0: 02db b0be 7855 033f 77c2 823e 4f16 c33e
000000b0: 2ef3 cb3e 9767 debe 3955 f33e 08e6 b0bd
000000c0: 3a07 003f 77b0 423e ffe4 27be a6f9 efbe
000000d0: 7164 aa3e dd18 263f 4038 babe 3814 373e
000000e0: 9962 ef3d 637c 0a3e d83d 0d3f 238e 313d
000000f0: ecbd 393e 8a75 8ebe 6225 613e 081d 373e
00000100: 6fe5 233f 7871 1fbe 4cd1 2dbf fc26 ae3e
00000110: d873 0e3e b8b1 42be fe7b 53bd 3bfb 563e
00000120: 4184 dc3e b960 f6bd cdf7 c53e 017e 04bf
00000130: 4019 f93c e582 a0be 4616 1e3f 814e 54bc
00000140: 193a e43e 3290 cabe 3ff4 37bf 5d84 0bbe
00000150: 19d8 56be c167 85be 5ab1 07bf e20e 22bf
00000160: b400 113e 233a 0eba be55 60be bea2 0fbf
00000170: 1a5f 9a3e dc69 a8be 4030 393f b007 b4be
00000180: 9147 993f 029c 58bd e2b3 703f 4bf7 82be
00000190: f791 fcbe 6f42 f73e cd90 113a 1583 25bf
000001a0: 7a38 c13e e239 72bf b0e0 ccbe 1f03 21bf
000001b0: 0c95 70be 112c 43be 9119 453e 98a9 2abe
000001c0: c6b5 0e3f abcd 473d 0758 12be cd7f 33be
000001d0: 4e15 8c3e b744 61be 52d0 08bf ed8d 993e
000001e0: 5c87 153f a637 fa3d b0bd aabd 4187 dcbb
000001f0: 9b3f a73e b18b 933f 11fb 2dbf 2428 b23d
00000200: c0d4 78bd 0a36 51bd 2a82 bcbd 4116 213e
00000210: 285a 353e 9afd 1e3d 34ee e7bb 1165 143f
00000220: 94c7 903d 13a9 a63e 1e64 fe3e ed04 013e
00000230: bf1f b23e 6f7d f3be 2677 9e3d 368f 993e
00000240: ea50 783f 76e5 0c3f c714 e0bd cfd7 a33d
00000250: 5611 3b3f bc75 ab3e 9d8e c83d a4bd 433f
00000260: b8d4 083f 523b 453e 800d 203e eb70 93bd
00000270: d91e a2be f8ee 543e 4ec3 17bf e16d 06bf
00000280: 377f a53e 753e 34bf 13ca a83e 2199 09be
00000290: b920 0fbe d9f2 323f 91ea e1be ca89 3c3f
000002a0: 163d 6c3f a054 d43d e2e2 0b3d 125d 17bf
000002b0: f5c3 c53d 6252 85bd ea39 56be 89fd c03c
000002c0: 3cf3 7dbe 12af f13c cb56 653f ca2a fabd
000002d0: 465e e6be 367e 0d3f 7fd6 05bf e2b7 4a3e
000002e0: 2697 fbbe b819 d03e 568b 3b3f 778b debd
000002f0: c0fc a6be b820 babe c3f3 883e 2c53 df3e
00000300: d876 273d 4e3e 05bc 6e7d ef3e 1ce8 bc3e
00000310: b92b 32bf 5535 33bf 29e4 143f 4642 c0be
00000320: e2c5 3e3f ce9f 053f fb75 463f f3fd afbc
00000330: eac8 78be a942 60be 25c2 cb3e eb61 843b
00000340: 030a 283f 94f3 efbe 869f c73e 7211 843f
00000350: a8b5 de3d acc5 eb3c 8712 8abe 6a6b 093e
00000360: 1681 1a3f 8d84 503f 2b3d b4be 6438 0dbf
00000370: c2b7 cf3e a9a3 8d3f 2660 1e3f d0c5 513f
00000380: 53ba 42bf aa3f 5f3f b436 803f e5ac ee3e
00000390: 394a 8f3e a8f4 b83c 2966 f7be 1d97 253f
000003a0: 1c83 003f 756a 123f b6f5 b23d e061 9abe
000003b0: a070 d5be cd97 2cbf 5a75 433f 36a4 0bbf
000003c0: 6d1e fcbe 16f1 3abf 3ca1 2ebe b70a 46bd
000003d0: 656a ff3e f630 6b3d cd28 07be baf7 793e
000003e0: 6c40 4e3d 0218 f1be deb8 01bd 1279 f13e
000003f0: ea4f dbbe d38b 96bb 653f 0cbf e830 37bc

Q2.2.weight f4 [256, 256]
0.96804726 -0.052299764 -0.11970388 -0.12620254 -0.18020931 0.20252135 -0.30578455 -0.18974708
0.6623902 0.032106083 -0.73341304 -0.02400149 0.44226193 0.7879485 -0.40055138 -0.6571664
-0.04765767 0.055231944 0.023703981 0.97086567 0.1581187 -1.0402585 0.3261897 -0.95340323
-0.04610243 0.16051917 0.260476 0.20215857 0.11575571 0.27489817 0.084989406 0.20040171
0.10434143 -0.21542275 -0.31437844 0.9319717 -0.29238704 -0.046100482 0.2777134 0.15575984
0.020676 0.3451344 0.2500896 -0.3287257 -0.16273862 0.24197373 -0.4148665 -0.22919676
0.044599317 0.021812517 -0.36567724 0.37605268 0.06008824 -0.17477675 -0.17715436 0.009523788
-0.044049144 0.19926104 -0.0037326086 0.20167837 -0.5167989 -0.30906418 -0.23716545 0.1951378
-0.13758913 0.48270857 0.3843395 0.32106563 -0.83291894 0.0002964779 0.16533184 0.10327842
0.674185 -0.05364891 0.26758125 0.44816995 -0.32871756 0.29487637 0.04437574 -0.35937136
-0.45791268 0.2146595 0.9645903 -0.4449447 0.39598593 0.019871153 0.24808872 0.8364925
0.06934124 0.023767812 0.024650188 0.54273796 0.22486922 0.53016275 -0.55665123 0.2889637
-0.72169936 -0.093719244 -0.007778285 0.019483473 0.18612696 -0.6652981 -0.74340105 -0.6114147
1.1593565 0.17207937 0.355022 0.078443944 -0.11559091 0.62274903 -0.8517828 -0.26898798
0.10919438 -0.19080877 -0.07366403 2.0456543 0.109313264 0.326455 -0.546183 -0.5229241
-0.14842084 -0.07416624 -0.0055104224 0.21443713 -0.24100585 0.6753318 0.032438368 0.3528682
0.072934344 0.38291153 0.10875113 -0.47965714 0.032387678 -0.14720322 -0.34463224 0.05388626
0.057952095 0.08343209 -0.25682306 -0.05224171 -0.02604927 0.07503373 -0.23590821 0.021168815
-0.8028335 -0.63790804 -0.08099737 0.8870635 -0.05776775 -1.1016552 0.08289352 -0.7816075
-0.23547928 -0.3622226 0.26419133 0.58642703 -0.11953832 -0.114147216 0.45227206 -0.14430551
0.60854876 0.299279 -0.017627567 0.52068704 -0.10633149 -0.09258054 -2.0137198 -0.08742239
-0.61494267 0.05762842 -0.1511225 -0.17671303 -0.11393112 -0.052319244 0.0946369 -0.1625648
0.57148314 -0.38088325 -0.48239765 -0.03627769 -0.096509814 -0.5313092 0.246104 0.17926009
-0.10840891 -0.010918848 -0.09534346 -0.5431242 -0.006284421 -0.33094993 0.1525697 0.08038029
-0.26280132 -0.20150845 0.12037908 -0.08831787 2.2621825 0.99587804 -0.21977933 0.11584217
-0.21120869 -0.052646045 -0.33446628 -0.26665053 0.20921108 0.2038479 0.17550568 -0.024143232
0.006939094 -0.32663408 0.15238741 -0.19098242 0.12550555 0.43378717 2.3768137 -1.8181814
-0.3731214 -0.38480735 0.005536998 0.44757408 0.18099254 -2.063168 -0.27975556 -0.6279234
0.8266227 -1.1756203 0.014252002 -0.58836675 -0.07072046 0.75433636 -1.219597 0.05533303
-0.018101968 -0.18794116 -1.0507144 -0.16224393 -0.020041194 0.23921531 0.13077265 0.7961253
0.19724925 0.02749976 -1.100047 -0.42188343 0.108363025 0.16193648 0.45371592 -1.1646631
-0.10795954 0.2981089 -0.36130032 0.03891701 -0.05260129 -0.82734984 -0.45206356 0.13642056
00000000: f2d1 773f 4738 56bd 4f27 f5bd 3d3b 01be
00000010: ca88 38be c261 4f3e cb8f 9cbe 0f4d 42be
00000020: 6792 293f ab81 033d f5c0 3bbf c69e c4bc
00000030: 2870 e23e feb6 493f 1215 cdbe 0f3c 28bf
00000040: b034 43bd e43a 623d da2e c23c a78a 783f
00000050: dee9 213e 3127 85bf 5602 a73e 3c12 74bf
00000060: e7d5 3cbd 235f 243e 1c5d 853e a802 4f3e
00000070: 5411 ed3d 74bf 8c3e ed0e ae3d 1b36 4d3e
00000080: f6b0 d53d c897 5cbe 36f6 a0be b395 6e3f
00000090: c1b3 95be dcd3 3cbd 7330 8e3e 827f 1f3e
000000a0: b760 a93c 75b5 b03e be0b 803e bc4e a8be
000000b0: f4a4 26be f6c7 773e 6269 d4be 8eb2 6abe
000000c0: c6ad 363d 2ab0 b23c 0c3a bbbe fa89 c03e
000000d0: 161f 763d adf8 32be f467 35be a909 1c3c
000000e0: e06c 34bd 160b 4c3e c89e 74bb c684 4e3e
000000f0: ef4c 04bf a93d 9ebe 80db 72be 34d2 473e
00000100: 2ae4 0cbe 9425 f73e 26c8 c43e b762 a43e
00000110: 2d3a 55bf 9770 9b39 c04c 293e a383 d33d
00000120: 6397 2c3f f6be 5bbd 6900 893e 8876 e53e
00000130: ab4d a8be 09fa 963e 56c3 353d 86ff b7be
00000140: 8873 eabe b3cf 5b3e 64ef 763f cbcf e3be
00000150: abbe ca3e d4c8 a23c f80a 7e3e 5f24 563f
00000160: c802 8e3d b7b4 c23c 31ef c93c e0f0 0a3f
00000170: 1e44 663e bfb8 073f b280 0ebf 0df3 933e
00000180: 4ac1 38bf e0ef bfbd fce0 febb ce9b 9f3c
00000190: 1198 3e3e fa50 2abf 884f 3ebf ac85 1cbf
000001a0: cb65 943f 9335 303e 72c5 b53e 38a7 a03d
000001b0: edba ecbd 7b6c 1f3f 700e 5abf cbb8 89be
000001c0: 4ea1 df3d 6063 43be 2bdd 96bd 00ec 0240
000001d0: a2df df3d 1c25 a73e a6d2 0bbf 5bde 05bf
000001e0: a2fb 17be 78e4 97bd c690 b4bb 6895 5b3e
000001f0: 3dca 76be 8be2 2c3f 18de 043d 24ab b43e
00000200: 9a5e 953d fb0c c43e eab8 de3d 9f95 f5be
00000210: f1a8 043d 71bc 16be a373 b0be d7b7 5c3d
00000220: 2d5f 6d3d 72de aa3d 507e 83be 67fb 55bd
00000230: 4765 d5bc 49ab 993d ec91 71be 396a ad3c
00000240: 7f86 4dbf f14d 23bf f3e1 a5bd 9816 633f
00000250: e09d 6cbd 0a03 8dbf 14c4 a93d 6e17 48bf
00000260: 7b21 71be 3e75 b9be 1644 873e 1520 163f
00000270: 82d0 f4bd 04c6 e9bd 3490 e73e d3c4 13be
00000280: dac9 1b3f 193b 993e b067 90bc bf4b 053f
00000290: 53c4 d9bd de9a bdbd c9e0 00c0 830a b3bd
000002a0: e26c 1dbf c70b 6c3d dbbf 1abe 43f4 34be
000002b0: b854 e9bd b44c 56bd fed0 c13d 6377 26be
000002c0: b84c 123f 2103 c3be d3fc f6be ea97 14bd
000002d0: f0a6 c5bd e103 08bf b002 7c3e f58f 373e
000002e0: 7e05 debd f8e4 32bc 6f43 c3bd 300a 0bbf
000002f0: 8bed cdbb 4572 a9be 3b3b 1c3e 6c9e a43d
00000300: e58d 86be 3b58 4ebe 4f89 f63d 00e0 b4bd
00000310: 99c7 1040 ddf1 7e3f d50d 61be a93e ed3d
00000320: 1747 58be 61a3 57bd 2a3f abbe 6b86 88be
00000330: 6e3b 563e 81bd 503e c3b7 333e 07c8 c5bc
00000340: 5761 e33b 953c a7be 720b 1c3e e590 43be
00000350: 8784 003e 5a19 de3e b71d 1840 2bba e8bf
00000360: c509 bfbe 7805 c5be b56f b53b 6e28 e53e
00000370: 1c56 393e f20a 04c0 1f3c 8fbe 97bf 20bf
00000380: 8c9d 533f ba7a 96bf 3b81 693c 349f 16bf
00000390: e3d5 90bd 301c 413f c11b 9cbf e3a4 623d
000003a0: 944a 94bc a673 40be cf7d 86bf 4623 26be
000003b0: 6e2d a4bc dcf4 743e 44e9 053e dece 4b3f
000003c0: b5fb 493e 2d47 e13c 57ce 8cbf 1b01 d8be
000003d0: 6fed dd3d add2 253e 744d e83e ae13 95bf
000003e0: e419 ddbd bba1 983e 5bfc b8be 7167 1f3d
000003f0: 7374 57bd 33cd 53bf e074 e7be d5b1 0b3e
