trained_models/AntNormal-v3/lamour/actor_2.pt (torch, 397248 bytes, 8 tensors)

shared.0.weight f4 [256, 111]
0.19546473 0.5855169 1.0946851 -0.012493586 -0.42877403 0.6597069 0.0513371 0.10843422
0.96378976 0.1977314 -0.2110431 -0.42187586 -0.23092338 -0.48143455 -0.24607046 0.14528194
0.007635329 -0.040013686 0.032373793 -0.14874673 0.101377785 0.032287586 -0.14384416 0.025889374
0.03258298 -0.026024168 -0.025624564 -0.021865971 0.037739072 -0.059878826 0.040229775 -0.027970117
0.040552665 0.075499244 -0.0050879917 -0.040682536 0.04693755 -0.005758215 0.0051019317 -0.0684485
-0.041524667 0.055901174 0.087303825 -0.068477824 -0.017523391 -0.09184296 0.025181526 0.09396464
0.034831066 0.09024909 -0.022094814 0.06846811 0.011023227 -0.028196538 0.06790586 -0.052088954
-0.06832343 -0.021727106 -0.08383454 0.044883434 -0.07349653 0.02371321 0.018210428 -0.06006996
-0.00011681446 0.057041608 -0.04072369 -0.06379209 0.02359969 -0.019221624 0.028761487 0.07983663
-0.0016555769 0.031200606 -0.088920005 -0.087515235 -0.012574379 -0.035861656 0.025503265 -0.09147047
-0.055505197 -0.015659077 -0.074238926 0.07926246 -0.036352154 -0.00019711592 -0.06722464 0.005774497
0.035380617 -0.010551568 0.00065025286 -0.0031763033 0.08367436 0.06834402 -0.054372072 0.040098183
-0.030182168 0.0015839086 0.050633613 0.003080772 -0.043888744 -0.08671682 -0.052501787 0.06398827
0.023099493 0.029725151 -0.082680896 0.042810813 0.08150763 0.04578759 0.038301703 1.9621445
-0.37877798 0.4033312 -0.62256336 0.34538049 -0.07944548 -0.08723084 -0.37197432 0.365117
-0.2450828 -0.09380715 0.6391392 -0.33531544 0.0560592 0.006872247 0.10611338 0.008001312
-0.028146913 0.025301632 0.01449353 0.0077333637 0.0067064017 0.011479207 0.012801302 0.012353561
-0.044022344 -0.010403572 -0.059701603 -0.048734996 0.056691255 0.01064005 -0.09078001 0.039058108
-0.090647615 -0.004752801 0.060445994 -0.0655841 -0.025533317 0.017591733 -0.07475986 0.031825174
-0.056212988 -0.009193221 -0.03024095 0.047169983 -0.015955063 0.017160004 0.029790584 -0.014867356
-0.04873478 0.039148096 0.09180201 0.050742917 0.06283947 0.013871842 0.02500858 0.041161187
-0.077783056 0.043346234 0.04053903 -0.077299364 -0.047260262 -0.08727066 -0.05167933 0.04417966
0.05879146 0.0641468 -0.091252066 -0.018963952 0.015450251 -0.081369124 0.057222918 0.0037731954
-0.027433023 0.0614102 -0.055205468 -0.02212248 0.02864654 0.040707123 0.047436185 0.03638035
-0.08986405 -0.07148627 0.0037010065 0.04796227 -0.038924087 -0.007921535 -0.05897173 0.034029827
-0.08283975 0.037136927 0.007713273 0.023517782 0.09131494 -0.08370864 0.041293267 -0.08200746
0.035125352 0.014784407 -0.09331297 0.06628554 -0.0816106 0.0053685205 -0.07165582 -0.07834012
0.083708696 -0.012374775 0.0061574597 0.039250463 -0.06858847 -0.070426054 -0.9343342 0.73437613
0.46657163 -1.0552193 1.0438654 -0.17146447 0.077408575 -0.7918013 0.45650154 -0.006851572
0.86844915 0.33982942 0.2932654 -0.13458703 -0.045262717 -0.15341988 0.20676318 0.014987418
-0.031675324 0.00092790526 -0.013885175 0.0071768104 0.07152014 -0.017284751 -0.044387378 0.03686878
-0.040130995 0.08118013 0.0923363 0.078426406 0.026485676 0.015603511 -0.010915148 -0.08707327
00000000: e827 483e 70e4 153f a41e 8c3f e6b1 4cbc
00000010: 4588 dbbe 8de2 283f da46 523d c312 de3d
00000020: edba 763f 1a7a 4a3e af1b 58be 1d00 d8be
00000030: 2e77 6cbe 977e f6be e5f9 7bbe cac4 143e
00000040: c831 fa3b 64e5 23bd 629a 043d 1051 18be
00000050: 289f cf3d fd3f 043d e24b 13be f415 d43c
00000060: bb75 053d a330 d5bc 9bea d1bc 4420 b3bc
00000070: 4994 1a3d 8043 75bd fac7 243d 9621 e5bc
00000080: 8d1a 263d 599f 9a3d 2bb9 a6bb bba2 26bd
00000090: 9741 403d 69af bcbb 1b2e a73b ba2e 8cbd
000000a0: c515 2abd a1f8 643d 59cc b23d 1a3e 8cbd
000000b0: 378d 8fbc 2918 bcbd 7d49 ce3c 8870 c03d
000000c0: 05ab 0e3d 84d4 b83d 2f00 b5bc 0239 8c3d
000000d0: c49a 343c 6dfc e6bc 3a12 8b3d 3a5b 55bd
000000e0: 28ed 8bbd 0bfd b1bc 71b1 abbd b1d7 373d
000000f0: 5985 96bd 3542 c23c 092e 953c eb0b 76bd
00000100: 49fa f4b8 76a4 693d e2cd 26bd 6da5 82bd
00000110: 2354 c13c ab76 9dbc 369d eb3c 6381 a33d
00000120: f1ff d8ba 6a98 ff3c b11b b6bd 303b b3bd
00000130: c504 4ebc ace3 12bd 39ec d03c df54 bbbd
00000140: 6b59 63bd 7747 80bc 940a 98bd 5b54 a23d
00000150: ffe5 14bd e7b0 4eb9 12ad 89bd fe37 bd3b
00000160: 44eb 103d 7ce0 2cbc bb75 2a3a 8729 50bb
00000170: 765d ab3d f3f7 8b3d 40b5 5ebd fe3d 243d
00000180: 9840 f7bc 279b cf3a 3165 4f3d c7e6 493b
00000190: afc4 33bd 9798 b1bd 1d0c 57bd 480c 833d
000001a0: 263b bd3c 2982 f33c 9a54 a9bd 645a 2f3d
000001b0: 79ed a63d c58b 3b3d 3fe2 1c3d 8d27 fb3f
000001c0: 30ef c1be 6d81 ce3e 5060 1fbf b6d5 b03e
000001d0: 50b4 a2bd 15a6 b2bd 6b73 bebe 9ef0 ba3e
000001e0: fcf6 7abe f71d c0bd a09e 233f 77ae abbe
000001f0: 559e 653d 9630 e13b f951 d93d ef17 033c
00000200: 5b94 e6bc 5e45 cf3c 4576 6d3c 2868 fd3b
00000210: 60c1 db3b 4913 3c3c 8dbc 513c 9766 4a3c
00000220: c650 34bd be73 2abc ab89 74bd 599e 47bd
00000230: 1735 683d 9b53 2e3c dfea b9bd 65fb 1f3d
00000240: 75a5 b9bd 62bd 9bbb 3896 773d f550 86bd
00000250: 3f2b d1bc 8a1c 903c b31b 99bd 1d5b 023d
00000260: 973f 66bd 2a9f 16bc debb f7bc 5035 413d
00000270: 31b4 82bc 2393 8c3c 620b f43c 3696 73bc
00000280: 1f9e 47bd c159 203d b102 bc3d ced7 4f3d
00000290: fbb1 803d b946 633c cbde cc3c a298 283d
000002a0: b94c 9fbd d28b 313d 410c 263d 214f 9ebd
000002b0: fa93 41bd f6ba b2bd b5ad 53bd bbf5 343d
000002c0: 50cf 703d 665f 833d 5de2 babd 4a5a 9bbc
000002d0: 0d23 7d3c dba4 a6bd 9462 6a3d b747 773b
000002e0: 38bb e0bc 4389 7b3d 211f 62bd 343a b5bc
000002f0: 26ac ea3c 83bc 263d 724c 423d 9003 153d
00000300: a50a b8bd 6567 92bd 968c 723b 1674 443d
00000310: dd6e 1fbd 53c9 01bc 578c 71bd dc62 0b3d
00000320: e3a7 a9bd e41c 183d a0bf fc3b 5da8 c03c
00000330: 5403 bb3d 6f6f abbd 2123 293d 87f3 a7bd
00000340: 9adf 0f3d 4c3a 723c df1a bfbd b7c0 873d
00000350: 7523 a7bd 6aea af3b 49c0 92bd c970 a0bd
00000360: 776f ab3d 91bf 4abc 84c4 c93b 18c5 203d
00000370: 1d78 8cbd 893b 90bd 8730 6fbf 1300 3c3f
00000380: 7ae2 ee3e 6d11 87bf 629d 853f 6294 2fbe
00000390: 6388 9e3d 7db3 4abf 92ba e93e 2783 e0bb
000003a0: af52 5e3f 1ffe ad3e e226 963e 2fd1 09be
000003b0: 6665 39bd 1a1a 1dbe bab9 533e ca8d 753c
000003c0: fcbd 01bd ab3e 733a a57e 63bc 732b eb3b
000003d0: 2779 923d c098 8dbc 8acf 35bd b803 173d
000003e0: 6660 24bd c541 a63d d01a bd3d 069e a03d
000003f0: 7df8 d83c dea5 7f3c 73d5 32bc 7853 b2bd

shared.0.bias f4 [256]
-0.4151595 -0.9650393 -0.0006410336 -0.990142 -0.2819958 -1.2802337 -1.2708285 0.07241987
-0.4574118 -0.7560125 -0.25690034 -0.09997267 -0.22000507 -1.2087028 -0.61713916 -0.9719383
-1.5019763 -0.16303529 0.04344691 -0.5011913 -0.30130813 -0.6957037 0.5414699 -0.11041951
-0.36659288 -0.07693043 -0.8407257 -1.2959061 -0.8671233 -0.9975851 -0.4245711 -0.6505139
-0.32965556 -0.9485671 -1.1877028 -0.56017435 -0.06624549 -0.3236393 0.83621085 -0.7419359
-0.79991907 -0.8139721 -0.5821083 -0.056345593 -0.08885486 0.6635277 -0.3932186 -0.9612709
-0.6266284 0.64823574 -0.20788562 -0.27645275 0.4123242 -0.37220126 -1.0794402 -0.49502736
-0.23821339 -0.91780674 -0.4496581 -0.4878824 -0.07799228 0.41486174 -0.83212775 -0.006677993
-0.36414424 0.15528601 -0.99732304 -0.19565389 -1.1188451 0.6311544 -0.4475201 -0.4906243
-0.5867109 -0.4885855 -0.43874353 -1.1430391 -1.1131371 -0.5993979 -1.0362777 -0.67388594
-0.78134507 -0.29977152 -0.91991204 -0.14468352 -0.6272642 0.49123102 -1.20363 -0.491814
-0.84699667 0.2945497 0.44786617 -0.47275594 0.027689671 -0.65104854 -0.44193417 -0.30189016
-0.23182338 -0.2331369 -0.78938293 -0.17866787 -0.9147075 -0.8819528 0.020043671 -0.38565958
-0.045395873 0.117126696 0.061842903 -0.53329307 -0.78071094 -0.70749736 -0.05022827 -0.23237635
0.1650616 -0.6041751 -0.50528425 -0.7327242 -0.22191322 -1.1988349 -0.9066947 0.089966916
-0.6496317 -0.23969376 -0.4486531 -0.26250014 -0.12965252 -1.0701826 -0.16210955 -0.75360245
-0.5311727 -0.20019709 -0.5734538 -0.42207223 -1.0112163 -0.28643304 -1.1117351 -0.059025034
-0.89502096 -0.41502023 -0.64245856 -0.17316163 -1.2949004 -0.9303564 -0.6214308 -0.7068179
-0.30112347 -0.88592213 -0.72039664 -0.9405406 0.462482 -0.14974499 -0.2735643 -0.7897582
-0.2756301 -0.8341752 -0.8019153 -0.013642821 0.5290861 -0.38546792 -1.1251291 -0.48363027
-0.1442427 -0.15935552 -0.1310963 -1.4232358 0.20654893 -0.10764946 -0.011410653 -0.91871595
-0.3472868 0.064802244 -1.004434 -0.12377479 -0.84136504 -0.5868783 -1.5378265 -0.456572
-0.3172872 -0.06774617 0.14848962 -0.3529466 -0.6141622 -0.50945157 -0.5989691 -0.5955344
-0.108175375 -1.0835525 -0.42764866 -0.962001 -0.60265565 -0.57690775 -0.39730757 -1.1050258
-0.722354 -0.5344939 -0.3310867 -0.8018877 -0.7963535 -0.71489704 -0.058331527 0.12649608
-0.48888135 -0.29987615 0.2773325 -0.06815802 0.13468297 -0.09191651 0.24761441 -0.75696737
0.09341918 -0.33095354 -0.40086254 1.1810974 -1.1877384 -0.6610718 -0.52283525 -0.8519802
-0.4331678 -0.6984693 0.25776383 -1.5808163 -0.5582458 -1.2258905 -0.46245405 -0.24571887
-1.1475025 -0.7756328 -0.25375366 0.10736112 -1.1721973 -0.7474017 -0.56433994 -0.0584636
-0.16218914 -0.8224749 0.010023647 -0.6534445 -0.80843484 -0.32146505 -1.5850432 -0.4540562
-0.32642063 -0.22245416 -0.76592386 -0.62929356 -0.61087334 -0.7557641 -0.5755245 -0.94172406
0.034190968 -0.76532096 -0.28835556 -1.3149585 -0.30467096 -0.54676294 -0.14773181 -0.43412542
00000000: c98f d4be d10c 77bf 090b 28ba f279 7dbf
00000010: c161 90be b3de a3bf 82aa a2bf de50 943d
00000020: e131 eabe 098a 41bf 7188 83be 79be ccbd
00000030: 0249 61be c6b6 9abf d5fc 1dbf f3d0 78bf
00000040: c240 c0bf b9f2 26be 63f5 313d 134e 00bf
00000050: 0f45 9abe a319 32bf c59d 0a3f a023 e2bd
00000060: 10b2 bbbe b48d 9dbd cd39 57bf 40e0 a5bf
00000070: cbfb 5dbf bd61 7fbf 6261 d9be 1488 26bf
00000080: 9dc8 a8be 4bd5 72bf a506 98bf 9667 0fbf
00000090: b7ab 87bd 0db4 a5be ea11 563f 83ef 3dbf
000000a0: 7fc7 4cbf 7a60 50bf 0d05 15bf a3ca 66bd
000000b0: 89f9 b5bd f4dc 293f f353 c9be da15 76bf
000000c0: b86a 20bf c7f2 253f f8df 54be 378b 8dbe
000000d0: 281c d33e 2a91 bebe 192b 8abf 3a74 fdbe
000000e0: 36ee 73be 62f5 6abf 9639 e6be b9cb f9be
000000f0: 6bba 9fbd c268 d43e 5306 55bf 11d3 dabb
00000100: 1d71 babe 4c03 1f3e 9050 7fbf 7e59 48be
00000110: 5136 8fbf 5693 213f 5b21 e5be 1c33 fbbe
00000120: af32 16bf e127 fabe fea2 e0be 1b4f 92bf
00000130: 477b 8ebf 2472 19bf bfa4 84bf ca83 2cbf
00000140: 3b06 48bf a77b 99be 5b7f 6bbf eb27 14be
00000150: 6394 20bf a282 fb3e 8c10 9abf 0bcf fbbe
00000160: c6d4 58bf 38cf 963e b74e e53e 110d f2be
00000170: 73d5 e23c 1eab 26bf 3245 e2be 5991 9abe
00000180: 1c63 6dbe 71bb 6ebe 0015 4abf b6f4 36be
00000190: 452a 6abf a9c7 61bf a032 a43c 2c75 c5be
000001a0: 06f1 39bd 1fe0 ef3d fc4e 7d3d e585 08bf
000001b0: acdc 47bf 8c1e 35bf 29bc 4dbd 11f4 6dbe
000001c0: e805 293e 38ab 1abf 4f5a 01bf d093 3bbf
000001d0: 383d 63be 6c73 99bf 251d 68bf 9340 b83d
000001e0: 434e 26bf 4872 75be dcb5 e5be 6b66 86be
000001f0: a1c3 04be befb 88bf 0c00 26be 17ec 40bf
00000200: effa 07bf 7700 4dbe decd 12bf da19 d8be
00000210: 896f 81bf 5aa7 92be 564d 8ebf 3cc4 71bd
00000220: 1820 65bf 887d d4be 2a78 24bf 4851 31be
00000230: 4cbf a5bf d62b 6ebf 1716 1fbf 05f2 34bf
00000240: db2c 9abe cbcb 62bf ea6b 38bf 45c7 70bf
00000250: 71ca ec3e c056 19be 9f10 8cbe 982d 4abf
00000260: 631f 8dbe 828c 55bf 524a 4dbf 2486 5fbc
00000270: 3072 073f 0d5c c5be 3b04 90bf 639e f7be
00000280: 5cb4 13be 182e 23be 1c3e 06be 972c b6bf
00000290: 9081 533e 5277 dcbd bff3 3abc f830 6bbf
000002a0: 93cf b1be 0ab7 843d 4b91 80bf a37d fdbd
000002b0: b363 57bf a83d 16bf 80d7 c4bf cec3 e9be
000002c0: 7873 a2be 81be 8abd aa0d 183e 6bb5 b4be
000002d0: bc39 1dbf 6b6b 02bf 0a56 19bf f174 18bf
000002e0: 0d8b ddbd d9b1 8abf c4f4 dabe b345 76bf
000002f0: a447 1abf 3ab0 13bf e66b cbbe 7c71 8dbf
00000300: 31ec 38bf 98d4 08bf 3284 a9be 8348 4dbf
00000310: d3dd 4bbf 7e03 37bf 0aed 6ebd 3088 013e
00000320: a84e fabe 5e89 99be 87fe 8d3e 6f96 8bbd
00000330: 55ea 093e b93e bcbd a28e 7d3e 9dc8 41bf
00000340: 8e52 bf3d be72 a9be db3d cdbe 332e 973f
00000350: d007 98bf 003c 29bf 88d8 05bf 601b 5abf
00000360: 2bc8 ddbe e2ce 32bf 9ff9 833e 3058 cabf
00000370: 32e9 0ebf fbe9 9cbf c7c6 ecbe ba9d 7bbe
00000380: 5de1 92bf df8f 46bf 00ec 81be 26e0 db3d
00000390: 900a 96bf b855 3fbf 9578 10bf 8777 6fbd
000003a0: e914 26be b78d 52bf 393a 243c 2448 27bf
000003b0: 96f5 4ebf 1197 a4be b2e2 cabf 0e7a e8be
000003c0: 9b20 a7be 06cb 63be 9613 44bf 6219 21bf
000003d0: 3262 1cbf c279 41bf 9355 13bf d414 71bf
000003e0: d40b 0c3d 13ec 43bf 57a3 93be 8f50 a8bf
000003f0: d5fd 9bbe a8f8 0bbf 0247 17be b045 debe

shared.3.weight f4 [256, 256]
-0.23792787 -0.51932496 -0.4792214 -0.027677773 0.25202605 -0.07415329 -0.20629932 0.053354606
-0.018287655 -0.18461214 0.09198791 -0.34872082 -0.0361963 -0.2931705 -0.8347899 -0.12789875
-0.20543613 -0.25681198 0.11314035 -0.055341687 0.24456587 -0.011140926 -0.25505632 -0.22950652
0.071007125 0.005323196 -0.16630478 0.3594502 -0.05035197 -0.09774183 0.059464946 -0.35035834
0.26770383 -0.06765443 -0.08270272 0.54462314 -0.77913064 0.33428043 -0.099211544 0.11618362
0.22917151 0.39975291 -0.11866115 0.25904068 -0.954757 -0.10490808 0.005769464 0.38144335
-0.121799566 -1.1716473 -0.012709447 0.011574817 -0.2512445 -0.28648722 0.41642717 -0.09298545
-0.21867464 -0.01122021 0.23142003 -0.40769684 -0.38283122 0.0012678587 -0.2861705 -0.8486278
-0.24466594 0.16684957 -0.016133048 -0.31962764 0.5227635 -0.010840656 -0.35769117 -0.2798988
0.088670366 0.11465378 -0.011015384 0.07730091 -0.41325027 -0.059299823 0.24218406 0.36615598
0.264807 -0.17694934 -0.2878299 0.2985447 -0.22158836 -0.28449717 -0.20850284 -0.11534508
0.22996807 -0.2119869 0.11893288 0.29663327 -0.027517231 0.1046518 0.026805159 -0.18200062
0.14918858 -0.4946962 -0.08706643 0.117330775 -0.102083944 -0.28280708 -0.17007032 -0.2515886
0.1931223 -0.09676546 0.088560835 -0.81191796 0.2576694 -0.67270607 -0.017182497 0.46225044
0.34340304 -0.28643006 -0.106050596 0.14055133 0.148639 -0.26604655 -0.07099786 0.12587593
0.12082459 -0.2999177 0.02279089 -0.03400759 0.22157806 0.026125312 -0.09616911 -0.16164312
0.511524 -0.31092197 0.18750621 -0.3247401 -0.27441975 -0.08938114 0.19295822 0.27297148
0.08222707 0.04788657 0.13254584 0.18830486 -0.016256975 -0.15482752 0.05443645 0.23037629
0.17225215 0.10058541 0.21758595 -0.029698651 -0.103901625 0.19681032 0.17959368 0.3813428
0.06897273 -0.34036705 0.00052673457 -0.014784972 -0.2879009 -0.20728725 -0.38299865 -0.14570762
-0.12299422 -0.09669982 0.18549177 -0.27266577 -0.27892283 -0.44011682 -0.036701627 0.18841901
-0.18080732 -0.059115455 0.5475897 -0.00060563773 0.16599172 -0.38685295 0.22714056 -0.10930783
0.122682914 -0.41530845 -0.32777187 -0.10333395 -0.25262216 -0.040880952 0.13838482 0.13815844
-0.17476705 0.43902194 -0.17403378 0.2735094 0.029143548 -0.63755333 -0.054341875 -0.27791232
-0.2614174 0.2859324 0.20575184 0.020323245 -0.34563595 0.06602522 0.12962814 -0.04002016
0.37900734 -0.47782812 -0.4493567 -0.055084754 -0.062287804 -0.018131066 -0.2709303 0.4483114
0.04616366 0.33154136 -0.0039009193 -0.2762513 0.23659468 -0.06799274 -0.06071667 0.06149432
-0.03178611 0.2992937 0.07794858 0.4142147 -0.016282769 0.1945587 -0.1742129 0.6815382
0.10939529 0.1464121 -0.074259 0.0033596242 0.106462166 0.103240415 -0.13194716 0.047630537
-0.13928524 -0.32989314 0.517242 0.018516194 0.28213036 0.08334818 0.07930948 0.12190032
0.13220865 0.15930684 -0.20056684 -0.35194707 0.3908535 0.14773381 0.08037464 -0.11325923
0.043976422 0.15376234 0.15402171 0.08634375 -0.21304196 0.23926903 -0.20800795 -0.09382259
00000000: 5da3 73be 7bf2 04bf 825c f5be 7fbc e2bc
00000010: 8f09 813e aedd 97bd 2140 53be 5c8a 5a3d
00000020: fecf 95bc f70a 3dbe 2864 bc3d 898b b2be
00000030: 9242 14bd 721a 96be cab4 55bf e4f7 02be
00000040: d95d 52be dc7c 83be 21b6 e73d f7ad 62bd
00000050: 7a6f 7a3e 6e88 36bc be96 82be c203 6bbe
00000060: 2f6c 913d 346e ae3b cd4b 2abe db09 b83e
00000070: de3d 4ebd de2c c8bd 8491 733d 2b62 b3be
00000080: 7a10 893e 688e 8abd 0b60 a9bd 6c6c 0b3f
00000090: 1b75 47bf ce26 ab3e 6c2f cbbd aef1 ed3d
000000a0: f0ab 6a3e 6aac cc3e 9e04 f3bd fba0 843e
000000b0: f46a 74bf 0cda d6bd c60d bd3b 8b4c c33e
000000c0: 0d72 f9bd 8af8 95bf 493b 50bc 4da4 3d3c
000000d0: 1ea3 80be 74ae 92be f135 d53e 286f bebd
000000e0: 3fec 5fbe f9d4 37bc 5ff9 6c3e a4bd d0be
000000f0: 7402 c4be 472e a63a f184 92be ac3f 59bf
00000100: b589 7abe 9dda 2a3e 7429 84bc 3ca6 a3be
00000110: d4d3 053f 029d 31bc 4c23 b7be e54e 8fbe
00000120: cf98 b53d 9acf ea3d df79 34bc f14f 9e3d
00000130: 8a95 d3be 5fe4 72bd 19ff 773e cc78 bb3e
00000140: c894 873e 3532 35be 715e 93be dada 983e
00000150: 0fe8 62be 9da9 91be c581 55be 0b3a ecbd
00000160: c07c 6b3e 1813 59be 1593 f33d 51e0 973e
00000170: d16b e1bc af53 d63d 7e96 db3c 5f5e 3abe
00000180: e4c4 183e d248 fdbe e24f b2bd 1e4b f03d
00000190: 6311 d1bd 17cc 90be ea26 2ebe 39d0 80be
000001a0: dac1 453e f82c c6bd 625f b53d dbd9 4fbf
000001b0: 3eed 833e 7736 2cbf 4fc2 8cbc 17ac ec3e
000001c0: 86d2 af3e f6a6 92be 0e31 d9bd b0ec 0f3e
000001d0: d234 183e 4137 88be 5367 91bd 9fe5 003e
000001e0: e272 f73d d08e 99be f6b3 ba3c 8b4b 0bbd
000001f0: 5ce5 623e c004 d63c 4ff4 c4bd c685 25be
00000200: 3df3 023f 2a31 9fbe a101 403e 5644 a6be
00000210: bf80 8cbe 760d b7bd d796 453e ebc2 8b3e
00000220: ab66 a83d b524 443d 19ba 073e fdd2 403e
00000230: 592d 85bc 1b8b 1ebe c1f8 5e3d c3e7 6b3e
00000240: de62 303e b9ff cd3d dace 5e3e 964a f3bc
00000250: 60ca d4bd a588 493e 68e7 373e 5d3f c33e
00000260: 9341 8d3d 9744 aebe 8f14 0a3a ab3c 72bc
00000270: bf67 93be 1c43 54be 6618 c4be 6134 15be
00000280: 65e4 fbbd 8e0a c6bd 8ef1 3d3e d99a 8bbe
00000290: f9ce 8ebe fe56 e1be 7254 16bd eaf0 403e
000002a0: 8e25 39be 0c23 72bd d72e 0c3f a9c3 1eba
000002b0: bcf9 293e 9711 c6be 8997 683e c9dc dfbd
000002c0: 2e41 fb3d 4fa3 d4be b7d1 a7be c0a0 d3bd
000002d0: b157 81be c972 27bd c0b4 0d3e 6879 0d3e
000002e0: 22f6 32be 7cc7 e03e e935 32be 6d09 8c3e
000002f0: 73be ee3c b236 23bf 9695 5ebd 864a 8ebe
00000300: 80d8 85be bb65 923e 9cb0 523e ef7c a63c
00000310: 32f7 b0be 3b38 873d 3dbd 043e 2eec 23bd
00000320: 400d c23e e3a5 f4be 1512 e6be 8da0 61bd
00000330: 7f21 7fbd 9a87 94bc 60b7 8abe 1289 e53e
00000340: 1b16 3d3d cabf a93e 91a6 7fbb cf70 8dbe
00000350: e045 723e c73f 8bbd 0bb2 78bd 78e1 7b3d
00000360: 2732 02bd 063d 993e 81a3 9f3d f313 d43e
00000370: 7163 85bc 653a 473e de64 32be 4a79 2e3f
00000380: a30a e03d 0eed 153e 1a15 98bd 242d 5c3b
00000390: d608 da3d b66f d33d 281d 07be 3d18 433d
000003a0: caa0 0ebe c1e7 a8be f969 043f 46af 973c
000003b0: 6473 903e 73b2 aa3d 026d a23d e0a6 f93d
000003c0: b461 073e 5521 233e 6561 4dbe 6832 b4be
000003d0: f31d c83e 8847 173e 769b a43d 75f4 e7bd
000003e0: 9f20 343d e073 1d3e deb7 1d3e fed4 b03d
000003f0: ac27 5abe f102 753e 0900 55be 0f26 c0bd

shared.3.bias f4 [256]
0.062004197 -1.0710793 -0.23952332 -0.43891048 -0.78288347 -0.09022561 0.52111006 -1.3407316
-0.38753 0.4368419 -0.12142142 0.15188359 -0.48222885 -0.5923061 0.12182259 0.35982448
0.2476938 0.528171 0.5534296 -0.2867445 -0.3806475 -0.75812274 -0.37059703 -0.44680527
-1.0946057 -0.13103038 0.22081995 -0.85417765 0.5307573 0.5505676 -0.13054909 -0.048368692
-0.3717712 -1.2867697 0.58690083 0.6817945 0.08002908 0.13232039 -0.7342315 0.27215004
-0.7928545 -1.2354003 -0.10988739 -0.1022138 -0.7960348 -0.48252073 -0.8400291 -1.121097
-1.0337535 -0.109991394 0.41144732 0.06632418 0.24923225 -0.87716633 -1.4046543 -1.1755202
0.22629666 -0.7873158 0.0937346 -0.8555345 0.13289207 0.5689024 -1.0351249 0.07563299
0.39676702 0.0809503 -0.54907465 -1.1904405 -0.42136943 -0.49947602 0.6321714 -0.5986697
0.47602826 0.37479278 -0.167554 -0.4695153 -0.22552675 -0.96121556 -0.25264055 -0.43495157
0.18538749 0.19324672 -0.78611165 0.29342914 -0.14646597 0.6446785 -0.100298144 -0.6040231
0.33616096 0.22713369 -0.5107871 0.51287484 -0.5730331 0.31253305 -0.6299172 -0.8116675
-0.65741855 0.023969455 -0.53800166 -0.20614742 -0.52269936 0.6605511 0.16410886 0.01921337
0.16842787 -0.6887472 -1.1442382 0.6102802 0.32424235 0.45454308 -0.39434952 0.20806424
-0.72923046 -0.28317398 -0.64224297 0.43210784 0.57472664 -0.75345045 0.68991977 0.18934906
-0.6981935 -0.46739775 -0.58298665 -0.50927633 -0.59777075 0.3687173 0.18350986 0.13350381
0.50836444 0.5672516 -0.890392 -0.6919756 0.08283969 0.3027294 -0.1693498 -0.7779634
-0.24126208 -0.1200396 -0.7692955 -0.10825382 -0.7636586 0.05413225 -0.52056473 0.051686384
-0.76436883 -0.6789266 0.39276993 0.19905686 -0.7263177 -0.20395291 0.18618932 -0.2648458
0.24369998 -0.6706144 -0.53617674 0.2132318 -0.065647304 0.23721154 -0.22892171 0.52594024
0.56775844 -0.3648614 -0.11264734 -0.5710942 -1.3170451 -0.85738605 -0.26836863 -0.31240708
0.34140944 0.11600096 -0.7497047 0.50297797 0.29350787 0.1734794 0.05878064 -0.5181027
0.6542895 0.1713986 -0.25374216 0.567883 0.7621281 -0.32517877 0.06298515 -0.70549864
-0.4903432 -0.021012502 -0.34370086 -0.7610032 -1.0275599 0.102764286 0.3163539 0.5133718
-0.4078646 0.16229784 -0.52477634 -0.81683314 -0.32549703 0.5429797 -0.57105035 -0.95946944
-0.26281074 -1.6084791 -0.7688016 -0.91851944 -0.6351859 -0.6621926 -0.46272516 -1.3388113
-1.4008577 0.3480303 -0.47559687 0.20217596 0.34540573 -0.44764197 -1.1371273 0.10357261
0.23693646 0.20577587 -0.37729344 0.105082095 -0.521264 0.818984 0.17405027 -0.92376095
-0.7206047 -1.5195539 -0.5567425 -0.43212608 0.64314 0.35442612 -1.1446238 -0.9694488
-1.2577083 0.026199335 -0.70444703 -1.1958455 -0.008967648 0.61942184 -0.5975809 -0.16172896
-0.53829134 0.57648236 -0.6144236 0.5485592 -0.14978221 -1.0236647 0.029154241 -1.1287932
-0.9402219 -0.08142479 0.5504035 -0.0178957 0.45159703 -1.229159 -1.3348994 -1.1217096
00000000: 1df8 7d3d 2019 89bf 9a45 75be e0b8 e0be
00000010: 0d6b 48bf 34c8 b8bd 7867 053f 189d abbf
00000020: 556a c6be bea9 df3e cbab f8bd 5f87 1b3e
00000030: b3e6 f6be 5fa1 17bf 1f7e f93d ea3a b83e
00000040: 72a3 7d3e 3736 073f 90ad 0d3f 2dd0 92be
00000050: 3be4 c2be 5514 42bf e5be bdbe a9c3 e4be
00000060: 0a1c 8cbf d42c 06be a01e 623e 63ab 5abf
00000070: b6df 073f 00f2 0c3f a9ae 05be 401e 46bd
00000080: cb58 bebe dfb4 a4bf 223f 163f 168a 2e3f
00000090: 49e6 a33d ff7e 073e 98f6 3bbf 4057 8b3e
000000a0: 83f8 4abf 9921 9ebf a40c e1bd 7855 d1bd
000000b0: f0c8 4bbf f50c f7be 260c 57bf 1b80 8fbf
000000c0: 0952 84bf 2b43 e1bd 39a9 d23e f9d4 873d
000000d0: bd36 7f3e f98d 60bf b6cb b3bf 7277 96bf
000000e0: 50ba 673e 878d 49bf edf7 bf3d 4f04 5bbf
000000f0: dc14 083e 96a3 113f f97e 84bf 78e5 9a3d
00000100: 0c25 cb3e 45c9 a53d 2890 0cbf 5b60 98bf
00000110: bcbd d7be 52bb ffbe fcd5 213f 6b42 19bf
00000120: fab9 f33e d7e4 bf3e 4793 2bbe 4f64 f0be
00000130: 7cf0 66be 3912 76bf 1a5a 81be f9b1 debe
00000140: 38d6 3d3e 78e2 453e 9d3e 49bf 583c 963e
00000150: 2dfb 15be a609 253f 1d69 cdbd 42a1 1abf
00000160: 4a1d ac3e bc95 683e f2c2 02bf c44b 033f
00000170: 4cb2 12bf 5504 a03e 4142 21bf 71c9 4fbf
00000180: 954c 28bf 975b c43c 7aba 09bf 4f18 53be
00000190: a0cf 05bf e019 293f 270c 283e 5b65 9d3c
000001a0: 5b78 2c3e bd51 30bf 6676 92bf 533b 1c3f
000001b0: 1803 a63e dfb9 e83e 2ee8 c9be cb0e 553e
000001c0: d9ae 3abf 2efc 90be 096a 24bf 3d3d dd3e
000001d0: 4921 133f 21e2 40bf 959e 303f b8e4 413e
000001e0: cfbc 32bf c24e efbe 9d3e 15bf ef5f 02bf
000001f0: 8107 19bf 84c8 bc3e 02ea 3b3e 39b5 083e
00000200: 2c24 023f 6737 113f bbf0 63bf 5025 31bf
00000210: dba7 a93d 59ff 9a3e 096a 2dbe 9c28 47bf
00000220: 680d 77be 52d7 f5bd 8df0 44bf 2eb4 ddbd
00000230: 217f 43bf c7b9 5d3d bb43 05bf 1ab5 533d
00000240: adad 43bf 22ce 2dbf 2419 c93e 90d5 4b3e
00000250: f5ef 39bf 08d9 50be 6aa8 3e3e de99 87be
00000260: 7d8c 793e 63ad 2bbf e142 09bf 7059 5a3e
00000270: 1872 86bd 95e7 723e 746a 6abe 05a4 063f
00000280: 9e58 113f 1dcf babe a6b3 e6bd 3b33 12bf
00000290: ef94 a8bf a77d 5bbf 9d67 89be d2f3 9fbe
000002a0: 38cd ae3e e991 ed3d a6ec 3fbf 2ac3 003f
000002b0: aa46 963e 95a4 313e f8c3 703d 61a2 04bf
000002c0: 847f 273f 1d83 2f3e 7eea 81be c860 113f
000002d0: d41a 433f d57d a6be 5cfe 803d 8f9b 34bf
000002e0: 440e fbbe 6922 acbc 8ff9 afbe 1bd1 42bf
000002f0: 1587 83bf 1576 d23d 23f9 a13e 566c 033f
00000300: a1d3 d0be 6831 263e be57 06bf fa1b 51bf
00000310: 8ca7 a6be b800 0b3f 5b30 12bf ca9f 75bf
00000320: 218f 86be a5e2 cdbf 2fd0 44bf 1724 6bbf
00000330: 8b9b 22bf 7485 29bf 50ea ecbe 2b5e abbf
00000340: 4e4f b3bf 0731 b23e 6f81 f3be 3707 4f3e
00000350: 05d9 b03e 5431 e5be 638d 91bf e01d d43d
00000360: 799f 723e e9b6 523e 9b2c c1be 4835 d73d
00000370: 8f71 05bf efa8 513f 3c3a 323e 997b 6cbf
00000380: 8d79 38bf be80 c2bf ad86 0ebf a13f ddbe
00000390: d3a4 243f 5777 b53e 0883 92bf cc2d 78bf
000003a0: 96fc a0bf fd9f d63c a456 34bf 7711 99bf
000003b0: 0bed 12bc 6e92 1e3f 10fb 18bf 479c 25be
000003c0: 76cd 09bf 5994 133f dd4a 1dbf 606e 0c3f
000003d0: 8260 19be 7207 83bf e0d4 ee3c 4c7c 90bf
000003e0: 62b2 70bf 0ac2 a6bd 3ee7 0c3f 019a 92bc
000003f0: ba37 e73e 1555 9dbf fcdd aabf 2e94 8fbf

mean.weight f4 [8, 256]
-0.01463716 0.2276944 0.07211168 0.22528225 -0.48212317 -0.01525604 0.020750644 -0.011129716
-0.09637306 0.026388548 -0.22300678 0.0942796 -0.15396324 -0.1596418 0.1665074 0.14501052
-0.017707724 -0.16173752 0.17666206 -0.036040835 -0.06879823 0.2980624 -0.13549045 0.28558803
0.06102489 0.106714845 0.25140417 -0.8014752 -0.01701156 0.028217947 -0.036918726 -0.004115135
0.03217552 0.032475907 -0.06875812 0.27887285 0.16135046 0.38751492 -0.0024637633 0.002209724
-0.06556567 -0.22387396 -0.0042301104 0.012684688 -0.49355373 0.3693405 -0.07873496 0.09190106
0.111855626 0.45638555 -0.2935656 0.06936621 -0.031268347 -0.15035762 0.055984285 0.280938
0.21319748 -0.2458673 -0.020991514 -0.1870711 -0.2502155 -0.24044853 -0.0040733092 0.018473893
0.013383893 0.0063610272 -0.08840581 -0.27864802 -0.8816645 -0.13612707 0.07293051 -0.34900814
0.027572958 0.22546734 -0.13529277 0.15696658 0.0018313648 -0.064238496 -0.005632925 0.09857782
-0.016727056 0.11706988 -0.0691876 0.06729217 0.095709935 0.09090824 0.15246327 0.24136953
-0.057428636 -0.011368552 0.0018946545 0.09708186 -0.5736488 -0.09969889 -0.24544533 0.47182724
0.013232754 0.108318366 0.3047752 0.0028495225 0.77273273 0.014598114 -0.49032003 0.0007228236
0.07545539 0.028895913 0.0123752 -0.030575955 -0.08897555 0.017783327 0.7400637 -0.018469078
-0.3685814 -0.052939832 0.018485785 -0.099482365 0.01823818 -0.029016647 -0.03861544 -0.031425904
-0.28558895 0.06907357 0.23810968 0.14920126 -0.28587762 0.03423133 0.08911915 -0.13284858
-0.017576288 0.49870113 0.27767214 -0.041641384 0.14977911 0.058797706 -0.104564145 0.0056553497
0.08412789 0.041458298 0.13824014 -0.07281591 -0.058803197 0.17028892 -0.046011165 -0.532592
-0.054943025 0.031578973 0.058678742 0.11411896 -0.37525493 0.072307415 0.007930755 -0.06071437
-0.07903069 -0.04966559 -0.03476421 -0.04122954 -0.042043317 -0.028712988 -0.009052081 -0.26158258
-0.018270107 -0.02118357 0.04564545 -0.15704675 -0.01868774 -0.14082253 -0.17584738 -0.14568298
-0.04365451 0.007043338 0.0003700563 -0.106332816 -0.055594336 -0.06632877 -0.052891873 0.86358243
-0.010436611 -0.053010687 -0.023124924 0.02391364 0.5246327 -0.04025692 -0.028243406 0.059266493
0.9834595 0.040893473 0.16089016 -0.47527808 -0.18500721 0.027310904 -0.13422486 0.26693028
0.43091 0.46823677 -0.03566439 0.16236739 0.046093725 0.15260847 0.033023845 0.13222203
0.13577467 -0.058720417 0.2778748 -0.22299962 0.30693713 -0.08844828 0.07165725 0.06752473
-0.17086835 0.022650039 0.13346268 0.16257158 0.12254376 -0.7273592 -0.28653246 0.20887695
0.17816131 0.038800035 0.030012248 0.031383105 0.002288637 0.10332832 -0.10637302 -0.19396679
0.0313821 0.044354025 -0.48658994 -0.16466846 0.11377593 -0.20231083 -0.04188312 0.040085733
-0.020748962 -0.05111925 0.069609374 -0.14856076 -0.13238199 0.10483754 1.0181469 -0.0108911935
0.24064729 -0.051359195 0.22267194 -0.08849738 -0.013634631 0.14219536 -0.0017367587 -0.20402004
-0.17581558 0.05992573 -0.05326773 -0.18319377 -0.04480126 0.028874313 -0.17187266 0.043725543
00000000: b3d0 6fbc b928 693e 4aaf 933d 64b0 663e
00000010: d9d8 f6be 78f4 79bc 41fd a93c 6a59 36bc
00000020: 3d5f c5bd cc2c d83c e45b 64be aa15 c13d
00000030: 8aa8 1dbe 2479 23be ea80 2a3e a37d 143e
00000040: ca0f 91bc 859e 25be e6e6 343e 8e9f 13bd
00000050: 16e6 8cbd a39b 983e 02be 0abe 9838 923e
00000060: 3cf5 793d 508d da3d 0cb8 803e 7b2d 4dbf
00000070: d45b 8bbc 5329 e73c 1738 17bd 41d8 86bb
00000080: 7aca 033d 7505 053d 0fd1 8cbd 6cc8 8e3e
00000090: 0e39 253e 5b68 c63e 1777 21bb 04d1 103b
000000a0: 4b47 86bd 373f 65be bd9c 8abb 70d3 4f3c
000000b0: 13b3 fcbe 331a bd3e cb3f a1bd 9f36 bc3d
000000c0: 9014 e53d 5eab e93e 3b4e 96be df0f 8e3d
000000d0: 3d13 00bd 59f7 19be c74f 653d 1bd7 8f3e
000000e0: 7150 5a3e a3c4 7bbe 65f6 abbc 918f 3fbe
000000f0: 3f1c 80be 2438 76be 6579 85bb 9056 973c
00000100: 1e48 5b3c 2a70 d03b 1b0e b5bd f4aa 8ebe
00000110: c4b4 61bf e564 0bbe 975c 953d 32b1 b2be
00000120: afe0 e13c e9e0 663e 308a 0abe d9bb 203e
00000130: 680a f03a 798f 83bd 6694 b8bb 2be3 c93d
00000140: 2e07 89bc 55c2 ef3d 3ab2 8dbd 7ad0 893d
00000150: 9203 c43d 192e ba3d 551f 1c3e 9329 773e
00000160: 4a3a 6bbd 2a43 3abc 0e56 f83a dbd2 c63d
00000170: a6da 12bf ee2e ccbd 0556 7bbe 5793 f13e
00000180: 31ce 583c 05d6 dd3d 7f0b 9c3e 0ebf 3a3b
00000190: d0d1 453f ee2c 6f3c 3a0b fbbe df7b 3d3a
000001a0: 5b88 9a3d 1fb7 ec3c 5ac1 4a3c 6d7a fabc
000001b0: d038 b6bd 57ae 913c d174 3d3f 774c 97bc
000001c0: b4b6 bcbe 70d7 58bd 806f 973c 69bd cbbd
000001d0: 3c68 953c 52b4 edbc 392b 1ebd 73b8 00bd
000001e0: b738 92be 7276 8d3d 06d3 733e 37c8 183e
000001f0: 8d5e 92be 2736 0c3d 1a84 b63d 7509 08be
00000200: 26fc 8fbc c155 ff3e 0b2b 8e3e 2890 2abd
00000210: b25f 193e ddd5 703d ba25 d6bd 8350 b93b
00000220: 3e4b ac3d 2dd0 293d d38e 0d3e 8220 95bd
00000230: 9fdb 70bd 3860 2e3e 3476 3cbd f357 08bf
00000240: f00b 61bd f458 013d 1f59 703d 34b7 e93d
00000250: 6a21 c0be e915 943d ffef 013c a2af 78bd
00000260: d8da a1bd 256e 4bbd eb64 0ebd 4ee0 28bd
00000270: 9d35 2cbd 8037 ebbc 2e4f 14bc 27ee 85be
00000280: 31ab 95bc 2b89 adbc b9f6 3a3d ddd0 20be
00000290: 0817 99bc c833 10be 5611 34be eb2d 15be
000002a0: 12cf 32bd cdcb e63b 1e04 c239 05c5 d9bd
000002b0: e3b6 63bd 61d7 87bd 26a5 58bd bd13 5d3f
000002c0: 52fe 2abc bc21 59bd 7b70 bdbc 8ae6 c33c
000002d0: 544e 063f 71e4 24bd b75e e7bc 6cc1 723d
000002e0: 00c4 7b3f ea7f 273d 64c0 243e a657 f3be
000002f0: 8872 3dbe 1ebb df3c 3e72 09be 16ab 883e
00000300: 3ca0 dc3e bbbc ef3e d314 12bd a343 263e
00000310: c6cc 3c3d 6545 1c3e 0344 073d 3665 073e
00000320: 8408 0b3e d284 70bd 9b45 8e3e 035a 64be
00000330: dd26 9d3e 5f24 b5bd 09c1 923d 684a 8a3d
00000340: 1df8 2ebe 938c b93c 71aa 083e 2a79 263e
00000350: 39f8 fa3d 3634 3abf 62b4 92be d7e3 553e
00000360: eb6f 363e c9ec 1e3d 3fdc f53c 928b 003d
00000370: f5fc 153b cc9d d33d 19da d9bd 3b9f 46be
00000380: 848a 003d 91ac 353d 5122 f9be d99e 28be
00000390: 5b03 e93d 922a 4fbe a28d 2bbd f030 243d
000003a0: baf9 a9bc 6b62 51bd 5c8f 8e3d 5020 18be
000003b0: 258f 07be 10b5 d63d a352 823f fa70 32bc
000003c0: 3e6c 763e 055e 52bd 1d04 643e 1d3e b5bd
000003d0: ca63 5fbc a99b 113e f4a3 e3ba a1ea 50be
000003e0: 0009 34be af74 753d 432f 5abd 2697 3bbe
000003f0: 8781 37bd d389 ec3c 63ff 2fbe 8e19 333d

mean.bias f4 [8]
-0.07544275 -0.05084667 0.37818068 -0.21489145 0.13479109 0.059685327 0.3365762 0.25158343
00000000: ba81 9abd 9944 50bd e6a0 c13e 810c 5cbe
00000010: ad06 0a3e 9a78 743d b753 ac3e 8bcf 803e

log_std.weight f4 [8, 256]
-0.034350548 -0.02008854 0.06583854 -0.01804495 0.12521335 0.008126081 0.017675564 -0.08261115
-0.030476574 0.024266714 0.062085886 0.038445223 -0.017899543 -0.021880867 0.08542159 0.02874593
-0.012151741 0.10751545 0.1328662 -0.0133917285 0.04702003 0.09519925 -0.018221464 -0.07613004
0.044186924 0.04340945 0.22181922 0.17585011 -0.029967502 -0.055702355 -0.0014806043 0.0048172786
-0.00033340193 0.013879456 -0.040120106 0.19170019 0.22348146 0.26614708 0.016743397 -0.058595397
0.036800735 -0.09052706 0.01941724 -0.021301422 0.20191747 0.18796432 0.030505128 0.015742155
0.052598536 0.18271114 0.22461896 0.031542826 0.03541208 -0.0025159207 -0.03629234 0.11694991
0.11573852 0.026617724 -0.008918455 -0.004162739 0.2122661 0.12741132 0.0040271645 0.010598917
0.04545129 0.012496186 -0.014470608 0.14313959 0.2562685 -0.06532076 -0.03700009 0.040290896
0.022058586 0.105919585 -0.026523951 0.13346158 0.015266166 -0.008694136 -0.01313563 0.022804724
0.0060114516 0.024553504 -0.004173918 -0.03867861 -0.06107746 0.066279724 0.08123865 0.02009459
-0.03706067 -0.03396402 -0.00027499246 0.11066278 -0.0033182972 -0.034701966 -0.16827472 0.030951153
-0.03929786 0.011470688 -0.018581925 -0.026413398 0.41327372 0.04290885 0.34962282 -0.00029706486
0.06279835 -0.03169736 -0.02508844 -0.032436397 0.0038580382 0.0055427505 0.15587674 0.031203194
-0.037001543 -0.088320054 -0.036535166 -0.022925137 -0.019587422 -0.026339551 -0.09132935 0.042112432
0.055894025 -0.03713653 0.02799037 0.11259769 0.23147051 0.019065771 0.073027864 0.09273525
-0.077091224 0.108366996 0.06188854 0.06288571 0.081306905 0.052229777 0.06409707 -0.07890321
-0.2576131 0.021942912 -0.036048763 0.05962359 -0.18442285 0.21295978 0.015430209 0.31303126
0.022026708 -0.04454457 0.052125923 0.044745985 0.06413016 0.054901812 -0.0145707745 0.0039957594
-0.026976608 -0.12390425 0.0376918 -0.0065129665 -0.014168559 0.0022554393 -0.10778096 0.16098136
-0.0030953991 0.008506026 -0.062393922 0.09533828 0.0050385003 0.0150506785 0.016513217 0.010332958
-0.035824027 -0.013645471 -0.043004688 -0.07787905 0.051988132 -0.015720915 -0.10985877 0.35660487
0.02437419 -0.039332956 0.02864992 0.031844735 0.19767517 0.00026725637 0.01885747 0.05504955
0.28172854 -0.03835433 0.100125805 0.08830108 0.040542986 0.03270628 0.011929075 0.121542215
0.22895199 0.3112848 -0.0059558786 -0.04897173 -0.061694946 0.09160851 -0.020910481 0.04472588
0.049036875 -0.09089489 0.022998555 -0.02126257 0.105694555 0.024121512 -0.047950264 -0.022573937
0.002906407 0.022721138 -0.013492505 0.034486122 0.08798514 -0.0141688725 0.053128004 0.09513729
0.10245144 0.023902701 -0.02587649 0.03874989 -0.039173424 -0.09763865 0.024957616 -0.07059037
0.03927275 -0.017065134 -0.07899412 0.059374876 0.038669933 0.14964707 -0.06647877 -0.058099743
-0.043616116 0.0028225468 -0.09340393 0.061610047 0.09007117 -0.0078598475 0.33224404 0.010314362
0.0065644747 0.028874436 0.011893077 -0.05988508 -0.12728044 -0.010702797 -0.02387896 0.06342195
-0.21581993 -0.02456573 -0.0011745407 0.038631164 0.053596992 -0.007862272 0.03868131 -0.11342709
00000000: 29b3 0cbd b990 a4bc 5bd6 863d 01d3 93bc
00000010: ee37 003e 4123 053c 58cc 903c 0930 a9bd
00000020: 02aa f9bc fdca c63c c54d 7e3d bd78 1d3d
00000030: 10a2 92bc 813f b3bc 84f1 ae3d 967c eb3c
00000040: 1918 47bc 0f31 dc3d 140e 083e fb68 5bbc
00000050: 1398 403d d3f7 c23d 2e45 95bc 11ea 9bbd
00000060: 59fd 343d 1cce 313d 9424 633e 0d12 343e
00000070: 687e f5bc 2728 64bd d610 c2ba 43da 9d3b
00000080: 73cc aeb9 a866 633c fb54 24bd 0e4d 443e
00000090: 53d8 643e 6e44 883e 7329 893c ba01 70bd
000000a0: 5ebc 163d 4066 b9bd e710 9f3c 5280 aebc
000000b0: 74c3 4e3e b879 403e e4e5 f93c b1f5 803c
000000c0: 9071 573d a118 3b3e 8302 663e 0d33 013d
000000d0: 420c 113d 25e2 24bb 47a7 14bd 6f83 ef3d
000000e0: 5108 ed3d 6a0d da3c b61e 12bc 9667 88bb
000000f0: 495c 593e 1d78 023e 4ef6 833b 14a7 2d3c
00000100: 222b 3a3d cebc 4c3c 2116 6dbc 2f93 123e
00000110: a035 833e e4c6 85bd 688d 17bd 1108 253d
00000120: 35b4 b43c 5eec d83d c248 d9bc 27aa 083e
00000130: f11e 7a3c d971 0ebc d336 57bc f9d0 ba3c
00000140: b6fb c43b 6e24 c93c 5dc5 88bb 766d 1ebd
00000150: 5c2c 7abd aabd 873d 7360 a63d 699d a43c
00000160: eecc 17bd db1d 0bbd dd2c 90b9 2ba3 e23d
00000170: ca77 59bb a623 0ebd 3550 2cbe 468d fd3c
00000180: cbf6 20bd 8def 3b3c 1f39 98bc e960 d8bc
00000190: 9d98 d33e 31c1 2f3d c301 b33e 5fbf 9bb9
000001a0: 6c9c 803d 17d5 01bd 4686 cdbc 07dc 04bd
000001b0: 24d7 7c3b f69f b53b 279e 1f3e d79d ff3c
000001c0: ee8e 17bd 25e1 b4bd e6a5 15bd 7fcd bbbc
000001d0: cd75 a0bc 0bc6 d7bc e20a bbbd 167e 2c3d
000001e0: 22f1 643d 791c 18bd 0f4c e53c 9e99 e63d
000001f0: 9b06 6d3e d22f 9c3c a28f 953d fbeb bd3d
00000200: 01e2 9dbd 84ef dd3d d67e 7d3d 39ca 803d
00000210: 3c84 a63d e4ee 553d 5345 833d 0298 a1bd
00000220: dde5 83be 9fc1 b33c dea7 13bd de37 743d
00000230: 58d9 3cbe 2112 5a3e fdce 7c3c a245 a03e
00000240: 5b71 b43c 5e74 36bd fe81 553d 9147 373d
00000250: ac56 833d b9e0 603d 42ba 6ebc dcee 823b
00000260: 0cfe dcbc 83c1 fdbd b862 1a3d b96a d5bb
00000270: 3e23 68bc fecf 133b 44bc dcbd 4cd8 243e
00000280: 2edc 4abb dc5c 0b3c c590 7fbd b740 c33d
00000290: 011a a53b 1f97 763c ba46 873c 914b 293c
000002a0: 37bc 12bd 4191 5fbc af25 30bd 0d7f 9fbd
000002b0: 82f1 543d 26c9 80bc a3fd e0bd ea94 b63e
000002c0: 62ac c73c 981b 21bd 3db3 ea3c a06f 023d
000002d0: 5c6b 4a3e 8b1e 8c39 fb7a 9a3c a37b 613d
000002e0: b93e 903e 6e19 1dbd c20e cd3d 32d7 b43d
000002f0: 6710 263d 05f7 053d 2b72 433c 20eb f83d
00000300: 6472 6a3e b960 9f3e 8829 c3bb 9596 48bd
00000310: d7b3 7cbd 3e9d bb3d 754c abbc 7c32 373d
00000320: e4da 483d 1a27 babd 7767 bc3c d72e aebc
00000330: 6376 d83d 7a9a c53c 7f67 44bd faec b8bc
00000340: 6b79 3e3b ae21 ba3c ab0f 5dbc 5241 0d3d
00000350: 8e31 b43d 8f24 68bc c09c 593d 57d7 c23d
00000360: 10d2 d13d 99cf c33c effa d3bc 34b8 1e3d
00000370: 5074 20bd c6f6 c7bd ea73 cc3c af91 90bd
00000380: 77dc 203d 2ecc 8bbc abc7 a1bd 1233 733d
00000390: 5d64 1e3d 153d 193e 0526 88bd fff9 6dbd
000003a0: d0a6 32bd 7afa 383b 8f4a bfbd d15a 7c3d
000003b0: 3c77 b83d 97c6 00bc e41b aa3e 92fd 283c
000003c0: ce1a d73b 158a ec3c 2edb 423c 0f4a 75bd
000003d0: ce55 02be c95a 2fbc cf9d c3bc 5ee3 813d
000003e0: e6ff 5cbe 123e c9bc 0cf3 99ba b63b 1e3d
000003f0: 8588 5b3d c2d0 00bc 4b70 1e3d 764c e8bd

log_std.bias f4 [8]
-2.3050132 -2.3752515 -2.0674303 -2.1609192 -2.358389 -2.3705063 -2.0856042 -2.1921575
00000000: 5685 13c0 1f04 18c0 c750 04c0 804c 0ac0
00000010: d8ef 16c0 60b6 17c0 8a7a 05c0 4f4c 0cc0
