trained_models/HalfCheetahNormal-v3/sero/actor_4.pt (torch, 296896 bytes, 8 tensors)

shared.0.weight f4 [256, 17]
-6.3577595 0.6596653 0.6659775 0.47017404 -0.027674483 -1.2456179 -0.7889629 -0.42059535
-0.35110515 0.2147137 -0.053940594 -0.061089203 -0.048186567 -0.0025116203 0.036078658 0.13965634
0.06352873 -2.8680937 -4.8436437 -0.5974907 -0.0038112865 -0.5258263 0.6073835 0.35375103
0.14646348 -0.28407308 -0.0914267 -0.1023341 0.0122089945 -0.017742015 -0.019128151 0.011240618
-0.013118288 -0.00539053 0.041495264 -0.42070803 -0.018030329 2.095347 -0.46796122 -0.9113199
-0.38473344 -0.30575132 -0.1964055 -0.6573181 0.14453162 0.07249334 0.029267503 0.025964916
0.13719662 -0.031854663 -0.00079007825 7.406532 -2.7434742 -0.08484172 0.10643443 0.04432045
0.7100832 0.06652306 0.11432671 0.008880944 0.32604054 -0.14092548 0.015665075 0.0035495865
0.008231982 -0.026543984 -0.02742947 -0.004430175 8.632179 -2.685184 -0.7301814 0.7700066
-0.31143054 0.89325 0.39006564 -0.089922495 -0.022719378 -0.10259724 0.08144042 -0.003575977
-0.014414319 0.0007340882 0.04698848 0.0524859 0.015500524 -0.8365415 1.1728243 0.74010974
-0.14770949 0.65427953 -0.09174234 -0.23138513 -0.0060236026 -0.08044332 -0.777458 -0.45926335
-0.1297299 -0.10277303 -0.006903377 -0.063682765 -0.039007407 -0.007156258 -1.0227476 -0.38254207
-0.089291826 2.296794 -0.08486075 -0.5970917 -0.3235857 -0.3935717 -0.14458078 -0.3683164
-0.36921397 -0.024941381 -0.14415602 -0.033722322 -0.0016902029 0.0011322822 -0.019604865 -6.5126586
-2.0170774 0.7214458 -0.6406244 0.42226526 -0.6710269 -0.4641469 -0.32696125 -0.17392533
-0.86139435 -0.29593897 -0.064041875 -0.06283937 -0.036180403 -0.017989201 -0.00799691 0.0013765274
12.497947 -3.9984422 -0.66323894 0.08180793 -0.16816661 0.72305554 -0.29777795 -0.16189367
0.029573832 0.21211874 -0.018392386 0.004639124 0.01583099 7.725379e-05 0.03134367 -0.022086985
-0.010167406 3.1852596 -2.981763 1.2595481 0.6846852 -0.2646753 0.70716274 -0.25221428
-0.6097575 -0.00438093 -0.6182039 -0.035318542 -0.010512307 -0.034021553 -0.0019486002 0.063873194
0.022692502 -0.022625307 -2.537091 0.14249216 1.4087901 -0.6206686 0.5792805 0.6842424
0.18549433 0.59954023 -0.15107882 0.14555904 -0.50330424 -0.20051682 -0.067550115 -0.056030747
-0.020379722 0.047831256 0.035923153 -2.4073853 -4.668912 -1.0115716 -1.1820009 -0.16005953
0.13355781 -0.11075899 -0.11069423 0.040270917 0.25012174 -0.14875686 -0.039824992 -0.040606007
-0.00267758 0.02345842 0.0063222647 0.007631612 -5.9897685 -0.61598873 -0.86367345 -0.12821825
-0.056588918 0.6593009 0.26187572 0.2234415 0.029652473 -0.584703 0.18310273 0.0063371374
0.0026198928 0.016360784 -0.030452425 -0.00045825267 -0.004506885 -1.4340307 0.46392184 0.8509825
0.5388292 0.22839972 0.15733576 1.031842 0.07953955 -0.34557974 1.2781165 0.28664097
0.12924151 0.13391541 0.034957707 -0.015530799 0.008039411 -0.012713617 4.4139657 -3.4056213
-0.66938496 0.27911586 0.117198825 -0.8085498 -0.31166157 -0.2392201 -0.006032671 0.6852747
-0.6366766 -0.07477569 -0.06897383 -0.0060872883 -0.08407196 -0.09077116 -0.026911447 4.044709
00000000: c472 cbc0 d3df 283f 807d 2a3f a7ba f03e
00000010: 99b5 e2bc 6870 9fbf 79f9 49bf 4658 d7be
00000020: 0ec4 b3be e8dd 5b3e d0f0 5cbd ac38 7abd
00000030: 475f 45bd ff99 24bb 37c7 133d 1202 0f3e
00000040: 5a1b 823d d98e 37c0 21ff 9ac0 27f5 18bf
00000050: c7c6 79bb 8d9c 06bf 7c7d 1b3f db1e b53e
00000060: 86fa 153e 0772 91be ec3d bbbd 8a94 d1bd
00000070: 3c08 483c b457 91bc a4b2 9cbc 922a 383c
00000080: 16ee 56bc 0ba3 b0bb f0f6 293d 0b67 d7be
00000090: 57b4 93bc 2a1a 0640 9d98 efbe 434c 69bf
000000a0: c8fb c4be 708b 9cbe 861e 49be 0046 28bf
000000b0: 1900 143e 6377 943d 67c2 ef3c 60b4 d43c
000000c0: 457d 0c3e 097a 02bd 411d 4fba 4f02 ed40
000000d0: 1595 2fc0 7fc1 adbd 4bfa d93d 5c89 353d
000000e0: 03c8 353f 3e3d 883d 1f24 ea3d 6181 113c
000000f0: c9ee a63e c54e 10be 0b54 803c 2ea0 683b
00000100: 6fdf 063c c572 d9bc c5b3 e0bc 002b 91bb
00000110: 681d 0a41 0eda 2bc0 2bed 3abf 271f 453f
00000120: d373 9fbe 08ac 643f afb6 c73e 4929 b8bd
00000130: fd1d babc 801e d2bd 3cca a63d f05a 6abb
00000140: 092a 6cbc d36f 403a fe76 403d 75fb 563d
00000150: e9f5 7d3c 9527 56bf 1b1f 963f d577 3d3f
00000160: 2841 17be dd7e 273f 68e3 bbbd 39f0 6cbe
00000170: a461 c5bb 78bf a4bd 7d07 47bf 9124 ebbe
00000180: ead7 04be ab7a d2bd b935 e2bb 1c6c 82bd
00000190: 3bc6 1fbd 0b7f eabb 65e9 82bf 8edc c3be
000001a0: a2de b6bd acfe 1240 79cb adbd 00db 18bf
000001b0: 06ad a5be 3b82 c9be fc0c 14be f893 bcbe
000001c0: 9d09 bdbe de51 ccbc a39d 13be 6b20 0abd
000001d0: cc89 ddba 1669 943a 629a a0bc b367 d0c0
000001e0: cc17 01c0 acb0 383f f6ff 23bf 2733 d83e
000001f0: 6bc8 2bbf aaa4 edbe 7767 a7be 7b19 32be
00000200: 5784 5cbf 5085 97be 6328 83bd edb1 80bd
00000210: e731 14bd 175e 93bc 7905 03bc 986c b43a
00000220: 97f7 4741 7ae6 7fc0 07ca 29bf ea8a a73d
00000230: de33 2cbe 2b1a 393f 5a76 98be 74c7 25be
00000240: d244 f23c a835 593e a1ab 96bc cb03 983b
00000250: feaf 813c 5003 a238 3862 003d c4ef b4bc
00000260: 3195 26bc 4bdb 4b40 34d5 3ec0 df38 a13f
00000270: 8747 2f3f 8583 87be 9e08 353f 3b22 81be
00000280: 1119 1cbf e88d 8fbb 9c42 1ebf 2daa 10bd
00000290: d03b 2cbc 2f5a 0bbd 2c68 ffba f3cf 823d
000002a0: a0e5 b93c b558 b9bc b35f 22c0 77e9 113e
000002b0: 3c53 b43f 23e4 1ebf ba4b 143f 832a 2f3f
000002c0: 3af2 3d3e 787b 193f 68b4 1abe 6e0d 153e
000002d0: 8cd8 00bf 4854 4dbe b757 8abd 7f80 65bd
000002e0: 60f3 a6bc b5ea 433d 2824 133d 9a12 1ac0
000002f0: ba67 95c0 2e7b 81bf ce4b 97bf a5e6 23be
00000300: 61c3 083e 9cd5 e2bd a8b3 e2bd 1ef3 243d
00000310: f50f 803e b853 18be 881f 23bd 7c52 26bd
00000320: 577a 2fbb df2b c03c 002b cf3b 9a12 fa3b
00000330: 2fac bfc0 70b1 1dbf b419 5dbf a54b 03be
00000340: c8c9 67bd f2c7 283f 9314 863e d9cd 643e
00000350: bee9 f23c 19af 15bf 487f 3b3e c3a7 cf3b
00000360: 82b2 2b3b 0d07 863c 5d77 f9bc a241 f0b9
00000370: 7eae 93bb 518e b7bf 2a87 ed3e fdd9 593f
00000380: b6f0 093f 9ee1 693e a01c 213e 6613 843f
00000390: a2e5 a23d d4ef b0be 5299 a33f 9bc2 923e
000003a0: e357 043e 1f21 093e d02f 0f3d e474 7ebc
000003b0: bcb7 033c c64c 50bc 353f 8d40 b3f5 59c0
000003c0: d05c 2bbf 46e8 8e3e f005 f03d 1ffd 4ebf
000003d0: 1b92 9fbe 1df6 74be b6ad c5bb 2a6e 2f3f
000003e0: 3dfd 22bf ff23 99bd 2742 8dbd e077 c7bb
000003f0: eb2d acbd 3be6 b9bd 6575 dcbc 426e 8140

shared.0.bias f4 [256]
-1.2135936 0.4520852 -0.9709041 0.92917717 -0.95267266 -1.4686018 -0.15796989 -0.46220464
0.45346573 -0.71663743 -1.8250633 -1.0971233 -1.3318024 -0.5350097 -0.7262993 -0.7576978
0.24777523 -1.1072783 -1.4993275 -1.6157075 -0.40308174 -1.533225 -1.94159 -1.639608
-0.7375642 -1.333693 -0.4548561 -0.13083342 -0.45829964 -1.7417694 -1.2841132 -1.6824721
0.29224682 -1.7590272 -1.8199495 0.23104644 -0.47204155 -1.4677025 -1.7279403 -0.70267475
-0.52343833 0.30503044 -1.256206 -0.23530468 -2.1775908 -0.50372344 -0.56102085 -1.5121409
-0.3070134 -1.4964423 -0.20986433 -0.080314375 -1.351984 -0.11040884 -0.7835003 1.062126
-2.1994665 0.11535185 -0.307912 -0.38804078 0.41881466 -1.4755057 -2.228271 0.6912595
-1.8238028 -1.3048357 -0.4884298 -1.1636358 -0.009312452 -1.1511519 0.7312583 -0.93928546
-0.520107 -1.4304368 -2.1673057 -1.6973392 -1.5618501 -1.1341825 -1.7082739 -0.30537626
0.1348349 -1.5847018 -1.5863609 1.6531174 -1.0850816 -0.28554827 -0.53861785 -0.86269325
-1.0561217 -1.2927996 -0.80196315 -1.2549348 -1.6926041 -0.2194159 1.0573983 -0.7443482
-0.023007028 -1.6340706 0.17214282 0.07847464 0.028394856 -1.7445762 -1.2799189 -1.1831542
-0.6122183 -1.2286261 -2.0619118 -0.04378907 -0.61736447 0.5708412 -1.7439991 -1.7798812
-0.67931724 -0.61150384 -1.1111882 -0.4529124 -1.3889395 0.113413006 -1.1408342 -1.4552056
-0.27569327 -0.92070526 -1.8835534 0.5097069 -0.2967877 -1.4439577 -0.8176624 -0.54422957
-0.12586306 -1.9679815 -1.087219 -0.32870707 -0.904456 -0.5897583 -1.6408595 -1.0740991
-1.2984034 -1.5043843 -1.6713963 0.16306221 0.10655237 -0.1449093 -1.1058972 -0.694192
-1.0415152 -0.74573797 -0.2833967 0.0022548959 -1.5399014 -0.78910846 -0.18667969 -1.5443685
-0.77661943 -2.2689724 -0.25726977 -1.8031371 -0.7745009 0.71717834 0.32054737 -1.0942445
-0.5956398 -0.5451923 -1.5534835 -1.6936516 -0.71334016 -0.67595994 -1.444518 -0.9804484
-1.4420662 -0.7920972 -1.2113731 -1.9506708 0.5132817 -0.7810952 -0.6325971 0.014748964
-0.41763622 0.32142454 -2.2857747 -1.2349985 -0.44050336 -1.5056094 -1.5345311 -1.1817421
-0.43002728 -0.8137801 -0.74547017 -0.7054151 0.24430273 -0.6498926 -0.16266188 -1.4243424
-0.16854113 -1.1278034 -1.6376866 -0.037721485 0.64060766 -1.4471895 -1.3961759 -1.484998
-0.050686926 -1.352084 -0.92278004 0.89647025 -0.32719705 -0.851382 -0.37891912 -0.62992644
0.34819654 -1.1424919 -1.5145429 -0.6400969 0.3383111 -1.0287237 -0.4212194 -0.6322227
-0.33956727 -0.5078159 -1.2882974 -1.6274371 -2.1783423 -1.3833231 -0.31672645 -1.1779109
-0.24219255 -1.8906165 0.78709733 -1.3307407 -0.36775908 -1.3083327 -1.1660044 -0.18471676
-2.008112 -1.2071611 -0.26411211 -1.4129058 -1.7756512 -0.2289699 -0.78001195 -1.0074369
-0.70064086 -2.0162735 -1.0095953 -2.6424642 -0.99633104 -0.55923045 -1.12779 -1.7597826
-1.1894941 -1.375804 0.3360557 0.39064705 -0.9144809 -0.477069 -1.1228726 -0.91741496
00000000: 0957 9bbf b677 e73e 2c8d 78bf 8ede 6d3f
00000010: 5be2 73bf 25fb bbbf dcc2 21be 16a6 ecbe
00000020: a92c e83e 8d75 37bf ad9b e9bf 896e 8cbf
00000030: 8078 aabf 65f6 08bf c0ee 39bf 7cf8 41bf
00000040: cab8 7d3e 4cbb 8dbf f7e9 bfbf 81cf cebf
00000050: bb60 cebe b840 c4bf 0586 f8bf adde d1bf
00000060: 02d1 3cbf 74b6 aabf e6e2 e8be 32f9 05be
00000070: 40a6 eabe 4df2 debf d25d a4bf 3f5b d7bf
00000080: 60a1 953e ce27 e1bf 1bf4 e8bf 7097 6c3e
00000090: 6eaf f1be addd bbbf 262d ddbf 7ee2 33bf
000000a0: 0e00 06bf f32c 9c3e 5ccb a0bf b6f3 70be
000000b0: a65d 0bc0 05f4 00bf 109f 0fbf d58d c1bf
000000c0: dc30 9dbe 6c8b bfbf ade6 56be dd7b a4bd
000000d0: d00d adbf 081e e2bd 7a93 48bf bff3 873f
000000e0: 0fc4 0cc0 973d ec3d a4a6 9dbe 48ad c6be
000000f0: e06e d63e 5fdd bcbf fe9b 0ec0 62f6 303f
00000100: 5f72 e9bf db04 a7bf 7913 fabe 05f2 94bf
00000110: 4193 18bc f258 93bf be33 3b3f 0375 70bf
00000120: bb25 05bf 8e18 b7bf 23b5 0ac0 6942 d9bf
00000130: b4ea c7bf e42c 91bf b8a8 dabf 475a 9cbe
00000140: 2912 0a3e 82d7 cabf e00d cbbf 5a99 d33f
00000150: f4e3 8abf 6233 92be dce2 09bf 77d9 5cbf
00000160: ff2e 87bf 757a a5bf 754d 4dbf b4a1 a0bf
00000170: 40a7 d8bf 90ae 60be d458 873f 9b8d 3ebf
00000180: 3c79 bcbc 3a29 d1bf 3546 303e 50b7 a03d
00000190: 549c e83c 464e dfbf 62d4 a3bf 9971 97bf
000001a0: 57ba 1cbf 9f43 9dbf 5df6 03c0 2b5c 33bd
000001b0: 990b 1ebf a622 123f 5d3b dfbf 26d3 e3bf
000001c0: bce7 2dbf 848b 1cbf 6a3b 8ebf 22e4 e7be
000001d0: c5c8 b1bf 1445 e83d db06 92bf 2d44 babf
000001e0: ab27 8dbe 57b3 6bbf 4718 f1bf 277c 023f
000001f0: 8ff4 97be 9bd3 b8bf 5352 51bf a152 0bbf
00000200: 3fe2 00be d1e6 fbbf fe29 8bbf 4b4c a8be
00000210: 6e8a 67bf 66fa 16bf af07 d2bf 147c 89bf
00000220: 1532 a6bf aa8f c0bf 50f0 d5bf c8f9 263e
00000230: 2138 da3d 1b63 14be 0a8e 8dbf 91b6 31bf
00000240: 5f50 85bf afe8 3ebf 5f19 91be e0c6 133b
00000250: 7d1b c5bf 0303 4abf f628 3fbe dead c5bf
00000260: 88d0 46bf d836 11c0 ddb8 83be 32cd e6bf
00000270: b145 46bf 0099 373f c91e a43e 3410 8cbf
00000280: da7b 18bf b991 0bbf 8cd8 c6bf 93c9 d8bf
00000290: 769d 36bf b60b 2dbf f7e5 b8bf abfe 7abf
000002a0: a095 b8bf e2c6 4abf 460e 9bbf 95af f9bf
000002b0: 6e66 033f dbf5 47bf e2f1 21bf a4a5 713c
000002c0: 6ad4 d5be c291 a43e 224a 12c0 6e14 9ebf
000002d0: a889 e1be cfb7 c0bf 846b c4bf 5343 97bf
000002e0: 892c dcbe e553 50bf 22d7 3ebf 1696 34bf
000002f0: 7f2a 7a3e 5d5f 26bf d690 26be da50 b6bf
00000300: 0c96 2cbe dd5b 90bf b79f d1bf d881 1abd
00000310: ddfe 233f 813d b9bf e4b5 b2bf 6a14 bebf
00000320: 189d 4fbd 1711 adbf 503b 6cbf 137f 653f
00000330: 5f86 a7be 2cf4 59bf b001 c2be dc42 21bf
00000340: d146 b23e 2d3d 92bf 8bdc c1bf 64dd 23bf
00000350: 1d37 ad3e 38ad 83bf 12aa d7be 59d9 21bf
00000360: c3db adbe 3900 02bf eee6 a4bf dc4f d0bf
00000370: f669 0bc0 bb10 b1bf f829 a2be c9c5 96bf
00000380: 5301 78be b9ff f1bf 367f 493f b655 aabf
00000390: eb4a bcbe 7277 a7bf a23f 95bf 6426 3dbe
000003a0: e884 00c0 4184 9abf b439 87be 19da b4bf
000003b0: 8a48 e3bf 1677 6abe ddae 47bf b1f3 80bf
000003c0: 335d 33bf a00a 01c0 6b3a 81bf 221e 29c0
000003d0: 8d0f 7fbf ba29 0fbf 6c5b 90bf 8e40 e1bf
000003e0: 5841 98bf 581a b0bf 7e0f ac3e e402 c83e
000003f0: 6c1b 6abf 6342 f4be 4aba 8fbf b5db 6abf

shared.3.weight f4 [256, 256]
-0.012758043 0.11798875 0.15523458 -0.0010736287 -0.29613465 -0.6580562 0.21786624 -0.05257971
-0.011321359 0.12036057 0.19125612 0.09406344 -0.10990186 -0.0056322454 -0.030745467 0.02751874
-0.010475388 0.06944355 0.07291164 -0.9859089 -0.061471228 0.008791028 -0.14943503 0.004668583
0.07038291 -0.028864898 0.1896062 0.10777425 -0.1026109 -0.20371069 0.05866141 0.0054702396
0.01736285 -0.056610588 -0.03507634 -0.047388576 -0.111423515 -0.16277729 -0.52216125 0.18003316
0.28442928 -0.13824338 0.17147326 0.044493884 -0.033575587 0.09688111 0.1562605 -0.1505277
0.0924998 -0.549092 -1.0838723 0.06771805 -0.1265866 -0.10481735 0.15774082 -0.028196719
-0.3617688 -0.0073786904 0.044473916 -0.029197479 -0.08374876 0.53323996 -0.040391453 -0.0056380453
0.20523758 0.09363298 0.05035183 -0.30176836 0.0972738 -0.17267607 -0.28181848 -0.44307032
0.030101819 -0.15950212 0.038972367 0.07400734 -0.1400634 -0.36141604 0.019482603 0.07107834
0.025595052 -2.0265021 0.08511735 -0.20912024 0.11551337 -0.03818284 -0.05067458 0.09931535
0.0052727866 0.08652806 0.103559524 -0.5904418 -0.008060702 0.034225535 -0.012106655 -0.13534026
0.19757901 -0.382065 -0.13905214 0.06478595 -0.057653826 -0.18142498 0.4105537 -0.14167671
0.06293502 -0.019804573 -0.16973108 0.028923938 -0.18260902 -0.47412786 0.057684537 0.1132765
-0.19933932 -0.13696228 -0.0917353 0.07403345 -4.408043 -0.0040683253 0.0701574 -0.17686269
0.02021635 0.113565505 0.20149073 0.020222384 0.064270616 -0.07725486 -0.35806504 -0.056350365
0.20402744 0.13524371 -0.1466179 -0.2212812 0.06453596 -0.05285088 -0.1647976 0.105717294
-0.11723494 -0.24920925 0.13633063 -0.3412105 -0.1886348 0.02325938 -0.109122224 -0.044502772
-0.22110912 -0.027689775 -0.121238366 0.074701734 -0.34425786 -0.014043957 -0.06184618 -0.02013439
-0.0799787 -0.04625579 0.030237027 0.042681165 -0.24659887 -0.21926571 -0.01863192 0.026787981
0.15950058 0.0463961 0.015966265 -0.16712144 0.065646715 -0.051500347 0.0026538314 0.004636108
-0.018228445 -0.13623896 -0.032830134 0.075501084 -0.2055605 -0.12775941 -0.24712984 -0.06841482
-0.01647913 -0.1278251 -0.16926341 -1.8698393 0.05418914 -0.0632579 -0.14722744 0.3370978
-0.01025941 0.028124848 -0.051849585 -0.39003286 -0.30994004 0.037090793 0.082501575 -0.044772495
-0.04032976 0.0837958 0.085968286 0.35139102 0.0142784845 -0.39713213 -0.49478054 -0.06091502
0.00451154 -0.3985379 -0.046431012 0.091202624 -0.086837396 0.16090718 -0.26628974 5.2019317e-05
0.07885896 -0.104348525 0.03217396 0.12396754 0.15733653 -0.06562733 -0.0029382436 -0.23390383
-0.5634185 0.023427973 -0.03860809 0.24874413 0.16269423 0.057073772 0.17430349 -0.9252529
-0.005926692 0.0433851 0.11026116 0.26271752 -0.12179992 0.013187289 -0.19722064 0.01565852
-0.028671725 0.065504275 0.0128121255 -0.025093269 0.4857239 -0.07638867 -0.15708148 0.033468533
-0.008256212 -0.7638384 -0.008759691 -0.36982346 -0.009352649 -0.0054818336 0.09391256 -0.46896756
-0.15680645 0.037257873 -0.08979396 0.047422785 -0.19461194 0.014565353 -0.6819475 0.051900107
00000000: 1c07 51bc 16a4 f13d d0f5 1e3e 00b9 8cba
00000010: f69e 97be 5f76 28bf 5418 5f3e d25d 57bd
00000020: 397d 39bc 9a7f f63d a5d8 433e 55a4 c03d
00000030: 3a14 e1bd b38e b8bb ebdd fbbc fb6e e13c
00000040: f6a0 2bbc 6c38 8e3d b352 953d 8764 7cbf
00000050: 41c9 7bbd 3e08 103c 7f05 19be eafa 983b
00000060: ea24 903d 1476 ecbc 2128 423e bfb8 dc3d
00000070: aa25 d2bd 8999 50be f246 703d b23f b33b
00000080: 893c 8e3c 81e0 67bd 35ac 0fbd 861a 42bd
00000090: 0332 e4bd 17af 26be 5cac 05bf 9d5a 383e
000000a0: b7a0 913e ac8f 0dbe b096 2f3e 383f 363d
000000b0: 8e86 09bd 9a69 c63d c102 203e ef23 1abe
000000c0: 8970 bd3d 4b91 0cbf 54bc 8abf c3af 8a3d
000000d0: eb9f 01be 7baa d6bd cf86 213e cefc e6bc
000000e0: c339 b9be f1c8 f1bb 482a 363d 8d2f efbc
000000f0: 7884 abbd 6a82 083f 8271 25bd 5abf b8bb
00000100: cd29 523e a6c2 bf3d b83d 4e3d 6281 9abe
00000110: 7c37 c73d ffd1 30be 834a 90be 1dda e2be
00000120: 1798 f63c 8654 23be 7da1 1f3d 2991 973d
00000130: c86c 0fbe 860b b9be fb99 9f3c 8591 913d
00000140: b7ac d13c 36b2 01c0 0152 ae3d 9e23 56be
00000150: 4692 ec3d 9c65 1cbd 2690 4fbd d965 cb3d
00000160: 57c7 ac3b a035 b13d 0417 d43d 3227 17bf
00000170: 0911 04bc 1330 0c3d fe5a 46bc a396 0abe
00000180: 2752 4a3e 069e c3be af63 0ebe 7fae 843d
00000190: 6b26 6cbd 78c7 39be 1834 d23e b313 11be
000001a0: 13e4 803d 333d a2bc fccd 2dbe e5f1 ec3c
000001b0: dcfd 3abe e3c0 f2be 9f46 6c3d 82fd e73d
000001c0: 9b1f 4cbe d73f 0cbe b8df bbbd d99e 973d
000001d0: b00e 8dc0 964f 85bb afae 8f3d 7e1b 35be
000001e0: c29c a53c 0895 e83d 9653 4e3e 6aa9 a53c
000001f0: 50a0 833d cc37 9ebd 4d54 b7be a4cf 66bd
00000200: 92ec 503e 547d 0a3e 0123 16be 8a97 62be
00000210: 6e2b 843d 2a7a 58bd b4c0 28be 4f82 d83d
00000220: df18 f0bd b630 7fbe 429a 0b3e 25b3 aebe
00000230: 7b29 41be 758a be3c 797b dfbd 8a48 36bd
00000240: 6e6a 62be abd5 e2bc d24b f8bd 39fd 983d
00000250: 9142 b0be a018 66bc 6c52 7dbd e0f0 a4bc
00000260: dfcb a3bd b676 3dbd a4b3 f73c 72d2 2e3d
00000270: 6a84 7cbe 3187 60be f8a1 98bc 7872 db3c
00000280: 1f54 233e d609 3e3d afcb 823c e221 2bbe
00000290: c971 863d 07f2 52bd e7eb 2d3b 7eea 973b
000002a0: d253 95bc 3a82 0bbe e478 06bd 50a0 9a3d
000002b0: 747e 52be 5dd3 02be 9b0f 7dbe 121d 8cbd
000002c0: 3eff 86bc 95e4 02be 6353 2dbe e556 efbf
000002d0: 6ff5 5d3d 5c8d 81bd cac2 16be 1598 ac3e
000002e0: 1617 28bc 1566 e63c 3b60 54bd 63b2 c7be
000002f0: 76b0 9ebe 84ec 173d 96f6 a83d 5d63 37bd
00000300: d230 25bd 229d ab3d 2410 b03d 86e9 b33e
00000310: 4ef0 693c e754 cbbe e053 fdbe 0782 79bd
00000320: 8ad5 933b 290d ccbe 722e 3ebd 71c8 ba3d
00000330: ced7 b1bd dac4 243e 2157 88be 512f 5a38
00000340: ce80 a13d aeb4 d5bd d8c8 033d b2e2 fd3d
00000350: d41c 213e 9f67 86bd 8c8f 40bb 7c84 6fbe
00000360: 323c 10bf 05ec bf3c 8423 1ebd c8b6 7e3e
00000370: 5199 263e 30c6 693d 9d7c 323e 60dd 6cbf
00000380: b234 c2bb 93b4 313d 9ad0 e13d e982 863e
00000390: 3d72 f9bd 800f 583c 35f4 49be 4c46 803c
000003a0: f7e0 eabc 1b27 863d f3e9 513c 6690 cdbc
000003b0: ceb0 f83e aa71 9cbd f8d9 20be 4d16 093d
000003c0: 1045 07bc ea8a 43bf cf84 0fbc 8059 bdbe
000003d0: da3b 19bc f4a0 b3bb 3a55 c03d 841c f0be
000003e0: df91 20be b69b 183d e5e5 b7bd 653e 423d
000003f0: 5a48 47be 85a3 6e3c 1d94 2ebf 3595 543d

shared.3.bias f4 [256]
0.5987512 -0.38995972 0.38256222 0.68950385 -2.0257263 1.1567044 -0.13067813 0.54221857
-0.0038842044 -0.8407374 0.84176034 0.52131116 -0.79751676 -0.069389015 0.96401495 -0.32055938
-0.4411464 0.73446363 0.93867624 1.2559284 0.44513446 0.9109892 0.4384571 0.5672569
-0.08453012 0.09950122 0.91829157 0.18226148 0.8524675 0.78347206 0.35627592 -0.085082084
-0.59993505 -0.32470217 0.93219364 0.87092286 0.39863494 0.18671165 0.8176811 0.96960974
0.22085218 -1.2259536 0.3881212 -1.1850095 0.5140792 0.79715574 -0.1626698 0.40143067
0.17255561 0.52381563 -0.5285109 0.77254003 0.14327823 0.924123 -0.6511856 0.21707557
0.26505077 -1.784349 0.4644065 0.66939306 0.49984518 -0.03603482 0.5284311 0.53631824
0.40674478 0.2461226 0.9589216 0.7200241 0.32997677 0.32040843 -0.16452539 0.29358286
1.063576 0.6466066 0.634763 0.7642846 1.1281955 -0.1541099 0.24660504 0.35520348
0.5691982 0.49062422 0.28051853 -0.85270673 -0.47292295 0.46707082 0.49170396 -0.21483581
0.63510084 0.5455069 0.19218427 0.7125437 1.1856933 0.62854266 0.990098 0.5592112
0.8052036 0.43725768 1.110032 0.20209526 0.67223424 0.4405239 -0.30443233 -1.0075357
-0.21771894 0.26299706 0.4473532 0.08937 0.33871338 0.5655943 0.90443695 0.78357804
0.9107627 0.2984702 1.0256323 0.22324155 1.1850305 0.3832853 -0.22984429 0.44783303
-0.24732873 -0.35870934 0.21972872 0.8242188 -0.16938505 1.0163698 -0.40386653 -0.5433024
-0.18181203 0.63193065 0.42392787 0.8257323 0.53752637 -0.45083147 -1.4658848 -0.83891463
0.6388105 0.09009789 0.86292833 0.48277384 0.89168096 0.057783842 0.3904345 0.7725895
-1.9436319 0.570454 -0.77602506 0.4860347 0.9769643 0.21765418 0.84723115 -0.5910649
0.30886677 0.21695276 0.22911337 0.31279832 0.96509707 -0.7881492 -0.32153994 0.5237619
0.9808356 0.5561416 0.018756188 -1.3968091 0.3934151 0.88603157 0.7420418 -0.26153493
1.1636405 0.12814368 0.62978595 0.51622176 0.013297561 0.28126517 0.825593 0.65596384
0.5314992 0.29419428 -0.07721349 -0.48561502 -0.2567903 -0.80843234 0.39433232 -0.30056936
-0.072473265 -0.3742108 -0.56795377 0.870583 -0.119815454 -0.27099547 -1.1612381 0.99485207
0.78063107 0.8339571 0.23890251 -0.49513447 -0.077277415 0.22937246 1.0702202 0.60486364
-0.19086164 -2.3219335 0.47457576 -0.7697018 0.23297706 0.003330192 0.6177712 0.547363
0.12512635 0.21971451 0.47836977 0.2544401 0.12880783 0.81014055 0.43259612 0.41705748
0.56994843 0.37246507 0.30944833 -0.8029371 -0.49112108 0.7607151 -0.3797179 -0.9136137
1.1424671 -0.36297804 0.41010743 0.85021085 0.8632262 0.8190342 -0.3484688 -0.16703627
0.29201892 0.22185718 0.9292288 0.74478424 0.6712372 0.36235887 0.29313976 0.5544899
0.701657 0.39147463 0.046515223 -0.097900264 -0.36308005 0.60555357 0.82927525 0.7627131
-0.08882195 0.46270108 0.71782655 -0.043361638 -0.46236283 0.72144765 0.8201 -0.7130796
00000000: c247 193f cda8 c7be 32df c33e 5383 303f
00000010: 80a5 01c0 e40e 943f 7dd0 05be d6ce 0a3f
00000020: 238e 7ebb 913a 57bf 9b7d 573f a674 053f
00000030: 0f2a 4cbf d41b 8ebd afc9 763f 5c20 a4be
00000040: f1dd e1be cf05 3c3f 164d 703f 43c2 a03f
00000050: aae8 e33e 9736 693f 737d e03e c037 113f
00000060: 211e adbd 4cc7 cb3d 2815 6b3f c1a2 3a3e
00000070: 4f3b 5a3f a091 483f cc69 b63e 843f aebd
00000080: 5895 19bf 5d3f a6be 3ea4 6e3f cdf4 5e3f
00000090: e119 cc3e 5731 3f3e 8c53 513f 5838 783f
000000a0: 1327 623e 0cec 9cbf d2b7 c63e 64ae 97bf
000000b0: b29a 033f 6612 4c3f e992 26be 5288 cd3e
000000c0: 6bb2 303e c818 063f 7e4c 07bf 2fc5 453f
000000d0: 87b7 123e 5393 6c3f 19b4 26bf 0f49 5e3e
000000e0: bcb4 873e 8c65 e4bf b0c6 ed3e 585d 2b3f
000000f0: b5eb ff3e 3f99 13bd 4347 073f 274c 093f
00000100: da40 d03e 9007 7c3e e37b 753f 8053 383f
00000110: b7f2 a83e 930c a43e 5879 28be 7e50 963e
00000120: 4223 883f 0388 253f d47f 223f 28a8 433f
00000130: b668 903f fcce 1dbe 0886 7c3e 3bdd b53e
00000140: f9b6 113f 1933 fb3e 20a0 8f3e fd4a 5abf
00000150: f522 f2be e823 ef3e 9fc0 fb3e ebfd 5bbe
00000160: f895 223f 57a6 0b3f f4cb 443e 4469 363f
00000170: ccc4 973f 2ce8 203f 1077 7d3f 7728 0f3f
00000180: d321 4e3f 3de0 df3e 8715 8e3f 0ff2 4e3e
00000190: 8b17 2c3f 598c e13e 8ede 9bbe eef6 80bf
000001a0: b7f1 5ebe 8da7 863e 7b0b e53e 9e07 b73d
000001b0: d76b ad3e caca 103f 2e89 673f 9298 483f
000001c0: bf27 693f 16d1 983e eb47 833f 6f99 643e
000001d0: 14af 973f f93d c43e 4d5c 6bbe 5f4a e53e
000001e0: be43 7dbe c0a8 b7be 9100 613e 0100 533f
000001f0: 4673 2dbe 6818 823f 98c7 cebe de15 0bbf
00000200: ef2c 3abe 35c6 213f 130d d93e 3163 533f
00000210: 549b 093f 62d3 e6be 1da2 bbbf 1cc3 56bf
00000220: 1689 233f 3e85 b83d dfe8 5c3f 222e f73e
00000230: 3445 643f c0ae 6c3d 08e7 c73e 6dc8 453f
00000240: eec8 f8bf 4609 123f 94a9 46bf 8ad9 f83e
00000250: 551a 7a3f bde0 5e3e 24e4 583f 0750 17bf
00000260: c923 9e3e dd28 5e3e b29c 6a3e 1a27 a03e
00000270: 9a10 773f 25c4 49bf e2a0 a4be 4315 063f
00000280: 0b18 7b3f 4c5f 0e3f 94a6 993c a4ca b2bf
00000290: b46d c93e f7d2 623f 74f6 3d3f e8e7 85be
000002a0: 2cf2 943f 1938 033e a739 213f 1c27 043f
000002b0: 03de 593c fd01 903e 105a 533f 3fed 273f
000002c0: 5510 083f a2a0 963e 1b22 9ebd 88a2 f8be
000002d0: 057a 83be 6cf5 4ebf ede5 c93e 3ae4 99be
000002e0: dd6c 94bd 8f98 bfbe 6b65 11bf 87de 5e3f
000002f0: ce61 f5bd ebbf 8abe 73a3 94bf a0ae 7e3f
00000300: 70d7 473f 367e 553f dca2 743e 4482 fdbe
00000310: 9f43 9ebd 9de0 6a3e fafc 883f 58d8 1a3f
00000320: 3c71 43be 8f9a 14c0 98fb f23e 2d0b 45bf
00000330: 8a91 6e3e 5a3f 5a3b 4126 1e3f fb1f 0c3f
00000340: 1f21 003e d7fc 603e e2ec f43e f945 823e
00000350: 33e6 033e 5f65 4f3f 3d7d dd3e 8f88 d53e
00000360: 24e8 113f beb3 be3e 0370 9e3e 498d 4dbf
00000370: 3974 fbbe 3abe 423f 626a c2be 96e2 69bf
00000380: 5d3c 923f 42d8 b9be 9af9 d13e 6ba7 593f
00000390: 64fc 5c3f 3aac 513f 816a b2be 8e0b 2bbe
000003a0: 8183 953e 872e 633e f0e1 6d3f 2eaa 3e3f
000003b0: 33d6 2b3f 1a87 b93e 6a16 963e 0df3 0d3f
000003c0: cb9f 333f 5d6f c83e bf86 3e3d ef7f c8bd
000003d0: a1e5 b9be 8f05 1b3f 624b 543f 2a41 433f
000003e0: 48e8 b5bd 28e7 ec3e 7bc3 373f f99b 31bd
000003f0: d2ba ecbe cbb0 383f 13f2 513f 628c 36bf

mean.weight f4 [6, 256]
0.20457053 0.15172403 0.34341067 -0.019765085 -0.41769567 0.08224275 -0.035189528 0.027082006
-0.11360219 0.04848955 -0.7079781 -0.080291055 0.78130436 0.021973884 0.0111603625 0.012096797
0.20535016 -0.5363883 0.010799678 -0.037362624 0.13049164 0.023733504 -0.011991171 0.11858997
0.4095072 -0.02439919 -0.022287933 -0.13096271 0.08442149 0.09626639 1.0694432 -0.012478946
-0.033109978 0.00067797967 0.026897509 -0.13768218 0.30234545 0.028470073 -0.3933433 0.07405903
-0.016485274 0.0955169 -0.13878612 -0.023575597 -0.12327024 0.04853811 0.23980594 0.09209265
0.07539409 -0.03898274 0.013724762 -0.15765002 -0.0009950626 0.19931968 0.033598907 0.123671934
-0.17131175 0.05741576 0.20968445 0.053972684 -0.17077696 0.3849495 0.08281807 -0.0013005179
0.4414549 0.121344306 -0.041834842 0.02937593 0.06384482 -0.17798957 0.59151816 0.23471569
0.1216942 -0.102012835 -1.597723 -0.100913 -0.04096131 0.011796557 0.23607628 -0.009005349
0.059620198 0.008417766 -0.07177272 0.015516783 0.027403345 -0.2778379 0.15701464 0.37710544
0.057589702 -0.40362945 0.3132053 -0.18249355 -0.005478084 -0.006845434 -0.0748414 -0.13828535
-0.23181316 0.080873825 0.012635687 0.04213023 0.20048966 0.39430568 0.023668913 0.21140054
0.023263132 0.09738831 0.117351554 -0.12272395 0.04499667 -0.14632341 -0.26443705 -0.20583352
-0.25401574 -0.25066698 0.17082155 -0.32576865 0.2428109 -0.05279318 0.10105078 0.16687219
-0.13607165 -0.012658302 0.041548323 0.12469758 -0.0043267263 -0.09746036 0.4460621 -0.4735068
-0.45647815 -0.0929605 0.037975226 -1.4756529 0.10556661 -0.28107613 0.037164636 -0.13543019
0.0023390292 0.045218855 -0.27423266 0.069793314 -0.22164738 0.13294937 0.04210126 -0.15471362
-0.26124123 0.0029057213 -0.047922965 -0.015201138 -0.06381106 0.031960998 0.067383915 0.11624048
0.1849797 -0.093082644 0.45589742 -0.18332176 0.43877813 0.0062001767 0.044714335 0.07207082
-0.02542531 0.016899424 -0.08311403 -0.26708627 -0.111375764 0.123222746 0.004323812 -0.01995432
0.031624876 0.078286625 -0.48707563 -0.012599917 0.084528044 -0.038634367 -0.04161925 -0.13352166
-0.08865026 -0.008276767 0.026817277 -0.02262457 0.0013272562 0.108137645 -0.05697743 0.6533875
0.18444264 0.20530383 0.27796394 -0.1070651 -0.009921625 0.0350091 -0.12298178 0.14229183
-0.30003315 0.29166147 -2.039999 -0.070911035 -0.018301087 -0.004866767 0.12578171 0.09994829
-0.05053291 0.3210153 -0.16934477 0.07037912 -0.123703085 -0.17436107 -0.023643052 0.055452134
0.008293363 1.4628723 -0.0017836185 -0.20341432 0.030207274 -0.2969537 0.00037454205 -0.024295244
0.060075365 -0.060688227 -0.049975954 0.026244044 -0.0029987302 0.11652886 -0.021141034 -0.00466763
-0.27383253 0.05928358 0.1978489 -0.0027100618 -0.05282295 -0.031538118 -0.20713812 -0.32783574
-0.010911717 0.28682306 -0.5169339 0.08015096 0.04306097 -0.14581758 0.19623178 -0.032004256
0.8349441 -0.044705085 -0.2056961 -0.3646401 0.08575323 0.07435626 0.0007027656 -0.0918032
0.32159424 -0.12184057 -0.04187626 -0.17956449 -0.015123726 0.074805215 0.1112997 0.0007746528
00000000: f07a 513e 8b5d 1b3e 86d3 af3e 63ea a1bc
00000010: 35dc d5be e36e a83d e522 10bd 15db dd3c
00000020: 44a8 e8bd fa9c 463d 0e3e 35bf a36f a4bd
00000030: 9003 483f 9302 b43c f4d9 363c a531 463c
00000040: 5047 523e be50 09bf 22f1 303c 8d09 19bd
00000050: 9a9f 053e c46c c23c 9e76 44bc 4cdf f23d
00000060: edaa d13e cfe0 c7bc 2f95 b6bc 171b 06be
00000070: 2de5 ac3d 5027 c53d 84e3 883f 7e74 4cbc
00000080: 549e 07bd 72ba 313a 2a58 dc3c 8ffc 0cbe
00000090: 06cd 9a3e 123a e93c 4b64 c9be 43ac 973d
000000a0: 200c 87bc 5d9e c33d f31d 0ebe 9c21 c1bc
000000b0: 1c75 fcbd e6cf 463d b08f 753e 129b bc3d
000000c0: 3768 9a3d 5eac 1fbd d3dd 603c 026f 21be
000000d0: c36c 82ba 751a 4c3e 029f 093d b647 fd3d
000000e0: 596c 2fbe ca2c 6b3d 85b7 563e 7612 5d3d
000000f0: 28e0 2ebe 1a18 c53e 859c a93d 2476 aaba
00000100: 6006 e23e 5d83 f83d 035b 2bbd caa5 f03c
00000110: 13c1 823d e642 36be bc6d 173f 4f59 703e
00000120: cf3a f93d 1bec d0bd 3082 ccbf 7aab cebd
00000130: 0cc7 27bd 5946 413c fbbd 713e 2c8b 13bc
00000140: 4f34 743d abea 093c 93fd 92bd 1b3a 7e3c
00000150: fb7c e03c c540 8ebe 72c8 203e f713 c13e
00000160: 2ee3 6b3d 85a8 cebe 725c a03e 97df 3abe
00000170: 8081 b3bb aa4f e0bb 7346 99bd ad9a 0dbe
00000180: 6e60 6dbe 2da1 a53d ea05 4f3c c090 2c3d
00000190: 294d 4d3e 6fe2 c93e 4fe5 c13c 6279 583e
000001a0: 5392 be3c 8673 c73d 0356 f03d b256 fbbd
000001b0: 6e4e 383d ced5 15be 4b64 87be 06c6 52be
000001c0: 5a0e 82be 6c57 80be d8eb 2e3e 26cb a6be
000001d0: 6ca3 783e a93d 58bd b6f3 ce3d 8be0 2a3e
000001e0: 5e56 0bbe c464 4fbc 932e 2a3d 7261 ff3d
000001f0: 36c7 8dbb 4c99 c7bd 4062 e43e 7c6f f2be
00000200: 81b7 e9be 1362 bebd e98b 1b3d 32e2 bcbf
00000210: 4f33 d83d 36e9 8fbe f239 183d 36ae 0abe
00000220: 664a 193b 6837 393d 3968 8cbe ccef 8e3d
00000230: 88f7 62be e123 083e 5f72 2c3d 3f6d 1ebe
00000240: 69c1 85be ea6d 3e3b df4a 44bd 320e 79bc
00000250: 5faf 82bd 89e9 023d 9400 8a3d 7d0f ee3d
00000260: 526b 3d3e 1da2 bebd 636b e93e b3b8 3bbe
00000270: 87a7 e03e da2a cb3b 6126 373d de99 933d
00000280: bd48 d0bc a970 8a3c b037 aabd 88bf 88be
00000290: fa18 e4bd 355c fc3d c4ae 8d3b 3e77 a3bc
000002a0: 1689 013d bd54 a03d fa61 f9be e26f 4ebc
000002b0: 0a1d ad3d 123f 1ebd f278 2abd e7b9 08be
000002c0: 448e b5bd 479b 07bc e8af db3c 2a57 b9bc
000002d0: 54f7 ad3a 4577 dd3d 2a61 69bd 6744 273f
000002e0: 88de 3c3e 2b3b 523e 4a51 8e3e f244 dbbd
000002f0: 508e 22bc b465 0f3d dfdd fbbd f3b4 113e
00000300: f29d 99be a754 953e 588f 02c0 ce39 91bd
00000310: 29ec 95bc 6779 9fbb eccc 003e b0b1 cc3d
00000320: 99fb 4ebd 1e5c a43e b768 2dbe ee22 903d
00000330: 0b58 fdbd b58b 32be 13af c1bc c721 633d
00000340: e3e0 073c 663f bb3f 4ec8 e9ba d84b 50be
00000350: 3f75 f73c 510a 98be 2f5e c439 d206 c7bc
00000360: 9611 763d 3894 78bd 96b3 4cbd c0fd d63c
00000370: 5886 44bb afa6 ee3d f62f adbc ebf2 98bb
00000380: c733 8cbe 57d3 723d e798 4a3e 4b9b 31bb
00000390: e15c 58bd 1d2e 01bd 041c 54be 16da a7be
000003a0: 0fc7 32bc 79da 923e c855 04bf 3026 a43d
000003b0: b360 303d 3451 15be fcf0 483e e516 03bd
000003c0: e6be 553f ae1c 37bd 00a2 52be 1bb2 babe
000003d0: 649f af3d 1848 983d cd39 383a 5103 bcbd
000003e0: 00a8 a43e 8c87 f9bd 7186 2bbd c1df 37be
000003f0: 81c9 77bc 7a33 993d 19f1 e33d 1212 4b3a

mean.bias f4 [6]
0.027082348 -0.22870615 -0.29821977 0.07418894 0.41257736 -0.14810753
00000000: cddb dd3c f231 6abe 43b0 98be 5ff0 973d
00000010: 573d d33e 80a9 17be

log_std.weight f4 [6, 256]
0.11744905 -0.0010436126 0.13849866 0.011134759 -0.17208305 -0.006039991 -0.0018037112 -0.01023837
0.020390872 0.022139093 -0.02787492 0.023800645 0.20863028 0.0018524001 -0.041233234 0.0009832795
0.10989727 0.03797048 -0.002633607 -0.0042022513 0.06391641 -0.00745737 -0.0045039374 0.07077169
0.12205935 0.022940975 0.001806278 0.07146796 -0.0634367 -0.014713848 0.19433947 -0.037212554
0.007845544 -0.00043677463 0.0038454735 -0.013567121 0.12963077 0.0041340487 0.16488402 0.019770201
0.049218584 -0.023646275 0.062040538 0.057615876 0.0632525 0.0038919065 0.108843885 0.047476538
0.0056979917 -0.016928418 0.017350607 -0.08695251 0.0049472353 0.07761813 0.021628756 0.029881103
0.022005372 -0.0036838767 0.109892264 0.0022164413 0.13518897 0.04471384 0.02702969 -0.0007348579
0.052969385 0.025226247 0.00561533 0.003279778 0.021855397 0.14446007 0.10647342 0.094934866
0.033016507 0.059245188 -0.1696798 0.018366244 0.01197194 0.031214079 0.12397948 0.0042577195
-0.045369174 -0.04871651 -0.022345932 0.011561796 -0.0031846357 -0.01860651 0.088768385 0.07675577
0.01669143 0.15369019 0.09987394 0.031496387 -0.009996867 -0.02125039 0.044449702 0.063728
0.07116663 0.008847674 -0.029108034 0.0070054037 0.089406155 0.18270239 -0.07510037 0.023525767
-4.7630623e-05 0.012146654 -0.006850613 -0.016719783 0.013268877 -0.34652457 0.064132236 0.0426444
0.13002516 0.1353301 0.11266854 0.1197126 0.09019973 0.03805576 0.037810903 0.11666701
-0.016764166 0.019019866 0.019325938 0.007408027 0.014205019 0.04637384 -0.005375139 0.13967744
0.10038221 0.0029111318 0.0024238373 -0.12945166 0.035626058 0.11369265 0.022729719 0.06527371
0.00097223243 0.01626517 0.1223934 0.0030109468 0.022251466 0.026975779 -0.09816218 0.044208463
-0.042348832 0.0035655927 -0.07873931 0.007564069 -0.17539108 0.017165868 -0.017616894 0.045122452
0.07082474 0.055734728 0.06807565 0.090971954 0.13866386 0.004594891 0.000758322 0.030344939
-0.03996584 0.004034062 0.028146552 0.07322967 -0.008254242 0.053761967 0.00909157 -0.00552346
-0.050815832 0.0009983445 0.11589988 0.0057469867 0.037362035 0.016710283 0.03126862 0.05934134
0.017184002 -0.0010350018 0.07599042 -0.008010372 -0.0037322857 -0.05492429 0.020995464 -0.15320826
0.06387175 0.07584654 -0.034619026 0.020294031 -0.020568978 0.0058742524 0.02985578 0.05469935
0.09444253 0.17036241 0.06670652 -0.0013619537 -0.016726837 0.01720279 0.079787925 0.039712783
0.043042794 0.13054551 -0.0052923867 0.09483069 0.069601625 0.094280556 -0.050430734 0.02510585
-0.004160438 0.01131617 -0.006761832 0.07303519 -0.015064237 0.09720237 -0.025760742 0.0063059255
0.010173299 0.02397764 0.028300447 -0.018374119 0.0007458225 0.045922592 -0.022672677 -0.007686926
0.12425745 0.013492002 0.12037041 -0.013461219 0.02158382 0.055468228 0.09075805 0.07357379
0.009678185 0.12676987 0.0023997636 0.005469596 -0.041404564 0.111847796 0.050215762 -0.019945871
0.17781042 -0.018859072 0.027615502 0.047385994 0.022427302 0.012653973 -0.012407923 0.017992772
0.053666737 0.06761343 0.025211133 0.03633548 0.016902093 0.011828835 0.049657416 -0.0066575906
00000000: 2189 f03d d4c9 88ba 98d2 0d3e 906e 363c
00000010: 8a36 30be 1eeb c5bb 816a ecba d6be 27bc
00000020: c20a a73c 0b5d b53c f259 e4bc 92f9 c23c
00000030: 2da3 553e 3ccc f23a 2ee4 28bd 63e1 803a
00000040: d211 e13d ef86 1b3d 9898 2cbb 0ab3 89bb
00000050: 9be6 823d f45c f4bb c495 93bb bff0 903d
00000060: 41fa f93d b6ee bb3c a2c0 ec3a cb5d 923d
00000070: 1aeb 81bd 5a12 71bc ed00 473e 316c 18bd
00000080: 998a 003c e6fe e4b9 5704 7c3b a148 5ebc
00000090: eebd 043e ea76 873b 5bd7 283e 1ef5 a13c
000000a0: 6d99 493d d5b5 c1bc 381e 7e3d a0fe 6b3d
000000b0: 878a 813d 5b0f 7f3b 8be9 de3d c276 423d
000000c0: 38b6 ba3b 77ad 8abc dc22 8e3c 2814 b2bd
000000d0: 6b1c a23b 41f6 9e3d ca2e b13c 37c9 f43c
000000e0: 9c44 b43c 326d 71bb 320f e13d b741 113b
000000f0: fa6e 0a3e dc25 373d 5e6d dd3c 7ba3 40ba
00000100: 6df6 583d 46a7 ce3c cd00 b83b 8bf1 563b
00000110: 170a b33c 57ed 133e bd0e da3d 366d c23d
00000120: 513c 073d 15ab 723d 8bc0 2dbe ce74 963c
00000130: f525 443c abb4 ff3c f4e8 fd3d 5784 8b3b
00000140: 07d5 39bd f78a 47bd d10e b7bc b06d 3d3c
00000150: 52b5 50bb ae6c 98bc 33cc b53d 2132 9d3d
00000160: 77bc 883c f660 1d3e b58a cc3d 5b02 013d
00000170: e6c9 23bc 4c15 aebc e410 363d d383 823d
00000180: cfbf 913d d6f5 103c f973 eebc 968d e53b
00000190: 931a b73d 5616 3b3e 39ce 99bd 1cb9 c03c
000001a0: fec6 47b8 c202 473c 1b7b e0bb edf7 88bc
000001b0: b465 593c ab6b b1be c357 833d e5ab 2e3d
000001c0: 5125 053e f993 0a3e c3be e63d e12b f53d
000001d0: a3ba b83d 5be0 1b3d 9bdf 1a3d 1def ee3d
000001e0: 0155 89bc 8dcf 9b3c 6e51 9e3c 09bf f23b
000001f0: 2bbc 683c 7ff2 3d3d ef21 b0bb 9a07 0f3e
00000200: 3095 cd3d b0c8 3e3b 3ed9 1e3b fa8e 04be
00000210: a1ec 113d b1d7 e83d ad33 ba3c 39ae 853d
00000220: 6add 7e3a 893e 853c 64a9 fa3d 4e53 453b
00000230: b548 b63c 4ffc dc3c 4109 c9bd ef13 353d
00000240: f875 2dbd b8ac 693b 1342 a1bd 02dc f73b
00000250: b899 33be 6f9f 8c3c 4e51 90bc 52d2 383d
00000260: 900c 913d 194a 643d 3f6b 8b3d 814f ba3d
00000270: e6fd 0d3e bd90 963b 21ca 463a f395 f83c
00000280: 38b3 23bd 2a30 843b 9993 e63c 70f9 953d
00000290: cd3c 07bc 8235 5c3d cff4 143c 24fe b4bb
000002a0: 4324 50bd e2da 823a eb5c ed3d 3851 bc3b
000002b0: ef08 193d 01e4 883c 8613 003d e80f 733d
000002c0: 77c5 8c3c e6a8 87ba dea0 9b3d ef3d 03bc
000002d0: 5d99 74bb 4bf8 60bd aefe ab3c a0e2 1cbe
000002e0: 31cf 823d 6e55 9b3d aecc 0dbd ab3f a63c
000002f0: 4680 a8bc cd7c c03b 1c94 f43c 6d0c 603d
00000300: 166b c13d 7c73 2e3e 6e9d 883d 9583 b2ba
00000310: b806 89bc deec 8c3c da67 a33d dfa9 223d
00000320: a44d 303d b9ad 053e c26b adbb 9836 c23d
00000330: 4c8b 8e3d 2a16 c13d 7590 4ebd c9aa cd3c
00000340: 4954 88bb 7567 393c 5c92 ddbb 7993 953d
00000350: fdcf 76bc 0912 c73d 3108 d3bc f0a1 ce3b
00000360: e9ad 263c c16c c43c 57d6 e73c 5285 96bc
00000370: 4d83 433a 5419 3c3d 0dbc b9bc 9ce2 fbbb
00000380: b17a fe3d 8f0d 5d3c c384 f63d 728c 5cbc
00000390: 8dd0 b03c a732 633d 5bdf b93d dbad 963d
000003a0: 4091 1e3c f6cf 013e 5a45 1d3b 4c3a b33b
000003b0: d597 29bd 7510 e53d 0baf 4d3d 8665 a3bc
000003c0: ef13 363e 577e 9abc e839 e23c d117 423d
000003d0: 76b9 b73c 9c52 4f3c 9a4a 4bbc 9465 933c
000003e0: a7d1 5b3d e978 8a3d 9487 ce3c 83d4 143d
000003f0: 4276 8a3c bbcd 413c 9365 4b3d eb27 dabb

log_std.bias f4 [6]
-1.6481242 -1.7479842 -1.3988663 -1.8679739 -1.5439179 -0.98992324
00000000: bcf5 d2bf f2bd dfbf 0d0e b3bf c519 efbf
00000010: 1a9f c5bf 9c6b 7dbf
