trained_models/HalfCheetahNormal-v3/sero/actor_3.pt (torch, 296896 bytes, 8 tensors)

shared.0.weight f4 [256, 17]
00000000: 4b88 0dc1 c29e 863f 38fe 283f 1438 b9be
00000010: 019e e83d 01e4 b8bf a494 1cbf 828b 1abe
00000020: 1b98 5ebd e9e7 61be edf3 10ba 6b0a f4bc
00000030: b0d5 5fbc 333e 17bc 37cf 29bd 9cd5 023c
00000040: 23a0 c73b 59a6 a540 adf3 adbf e842 1f3f
00000050: 0e86 833c 0e9f 06be 8e21 4bbf b143 36bf
00000060: 1417 0cbe b6bc 8bbd 6e7a dc3e a665 7abb
00000070: 21fd 213d d3b2 053d 342d 99b8 b674 223b
00000080: 92bb 33bc 2d14 683c 76e8 0cbd 2f35 13bf
00000090: b957 00be d394 dc3f a461 dc3e 7779 f73e
000000a0: d061 d5be 142c 143e 7260 34bd fedc 7bbe
000000b0: 3560 07be 9ff4 e83c 8a2d 42bd 3b8d 95bd
000000c0: fc5f 903d ced0 833d 5c02 dd3d 7b8f e2bf
000000d0: edb7 8bbe fa9a 853e 2ce4 01bf 5518 1cbe
000000e0: 8a1d dd3e e3d3 313e b470 29bd 6625 69bc
000000f0: 1562 e7be fced 723e 3ac7 e63b 82e5 6ebd
00000100: 6092 41bb 1c06 b93d fd15 afbc e82d 79bb
00000110: 17cf 75bf 0f31 0a40 0ed3 873e 404f 763e
00000120: ee99 7c3e ea1d 243f 7154 443f 56b9 313f
00000130: bc5a b53d e585 3e3e 5bb5 5a3e 9f87 843d
00000140: efb3 f83c f35a ffbb a394 9abc 4d5c d7bb
00000150: 3cde f5ba e0f9 6640 e8f9 cd3f 0642 46c0
00000160: cf77 00bf f8f8 043e 7ffe b93c ff15 ec3e
00000170: 57e6 cfbb fa17 61bc cf6c 113f a1e5 bb3e
00000180: 9401 dc3a a7c4 933d 123a d03b 6e8e a83c
00000190: 1e8a 9f3b 7f28 ad3b 6ed9 cec0 01d9 603c
000001a0: edfb 4d3f b9da aa3e 3d37 083f 02d3 23bf
000001b0: ffca a6be 29ae 9e3e 1576 eebd 8d7f 19bf
000001c0: f5ad 9b3d 4a69 1cbd aa38 19bd a422 3bbc
000001d0: af40 ff3c f3c9 89bc 8922 0cbc 22d3 2040
000001e0: 2292 0640 ffa7 10bf 28cb 7bbe 8f7e 10be
000001f0: cfd4 a13f ff93 a53f 8738 c93e 346c 24be
00000200: 5796 d23d 0f7c a43d 9381 683d 7cde 603d
00000210: 4321 2b3c 48f9 99ba 0a25 c1bc 6b4e 13bb
00000220: 41e6 50c0 9690 83c0 16bc 693f 04ae 22bf
00000230: 2a31 863e e184 593e 412c b0be 7098 e33d
00000240: 0aa9 03bd 7baa 5c3e 5139 f4be 610d f8bd
00000250: 1514 9cbd 9ff4 69bc eaa2 19bd e2c9 3fbd
00000260: 4a9f d6ba f57a 84c0 d743 a4c0 b324 24bf
00000270: 7efb 6bbf cc1c 093e 630e c63d 686e 693c
00000280: 8793 37be 3b80 2d3c 5963 bc3d 3b6a 8ebc
00000290: 7856 4ebb cf0f 46bc f0c1 ef3a dc8a bb3c
000002a0: 5ee9 84bb ae50 533b 2aad d83f 0f07 5740
000002b0: bc32 943f dc92 e6bb 2888 263e 12be 603f
000002c0: 2357 9d3e 8c45 9d3d 1379 94bc d6ef 0cbe
000002d0: 1d2c 403e cacb 2f3d 7e38 883c b962 28bb
000002e0: 840c 6e3c 530a ba3c 4959 13bc 7592 333e
000002f0: da5d 853f 0300 8e3f 3f5e dd3e d662 eb3d
00000300: 03b8 90bf f214 833d 9d33 da3e 2bce eebd
00000310: f202 f53d e768 7a3c 8995 9dbd 8fab b23d
00000320: 18c4 313d c7c3 153d 3cc8 2e3d 7530 6d3c
00000330: 3ea5 53bd a4f7 0140 3fb2 6d3e 2ba2 2f3e
00000340: 74b5 783d 077a 4fbf c54a 043e dd09 323e
00000350: bc5c 9b3d 8d95 da3d c774 cc3c 0889 533d
00000360: 1688 583c 23ce 103c 8db6 95bd 96a8 cfbc
00000370: 92a0 07bc 414f 5340 34d6 c5bf c081 853e
00000380: 6dfc c5be 4e76 35bd 089a 943f 9794 b4bd
00000390: aa86 963d dc3b 12be abac 723f c19c f4be
000003a0: d48a ebbc cc34 39bd 5616 28bc 5008 613d
000003b0: 3bf8 52bc 971b e7bb 7978 a5c0 f2f3 2bc0
000003c0: fe9c 143f 12c6 893e 3340 c43e 915e b73e
000003d0: 5bbb 9e3d f673 2dbe 0ddb aabd f235 f9be
000003e0: 7d0c d3be 5fb3 afbd 9596 90bd 9a0e 15bd
000003f0: 1f55 0b3b 6d29 e0bb 4300 8dbc acfd 4ac0
-8.845775 1.0517199 0.6601291 -0.36175597 0.11358262 -1.4444581 -0.6116431 -0.1509228
-0.054344278 -0.22061123 -0.0005529512 -0.029790124 -0.013661787 -0.009231138 -0.04145738 0.007985499
0.006092088 5.176556 -1.3589989 0.62211466 0.016055133 -0.13146612 -0.79348075 -0.7119704
-0.13680679 -0.06823103 0.43062156 -0.003820756 0.039548043 0.032641243 -7.304028e-05 0.0024788803
-0.010970013 0.0141649665 -0.03440138 -0.57503027 -0.12533464 1.7232918 0.43043244 0.48334858
-0.41676188 0.1446994 -0.04403729 -0.2459602 -0.13220294 0.028436957 -0.04740671 -0.07302328
0.070495576 0.06436311 0.10791466 -1.7700037 -0.27288762 0.260948 -0.5073879 -0.15243657
0.431866 0.17365985 -0.041367248 -0.014230108 -0.45192018 0.23723596 0.0070427926 -0.058324344
-0.002953671 0.090343684 -0.02137279 -0.0038021747 -0.9601912 2.1592443 0.2652821 0.24053669
0.24668095 0.64108145 0.7669135 0.69423425 0.08855197 0.18605764 0.21358244 0.0647118
0.030359237 -0.0077928244 -0.018869704 -0.0065722824 -0.0018758248 3.6090012 1.609189 -3.0977798
-0.50182813 0.12985599 0.022704361 0.46110532 -0.0063445973 -0.013738627 0.56806654 0.3669863
0.0016785138 0.07215243 0.006354579 0.020575728 0.00486876 0.0052843685 -6.4640417 0.013723613
0.80462533 0.33369997 0.53209287 -0.6399385 -0.3257675 0.3099225 -0.11643616 -0.5996025
0.07601539 -0.03818635 -0.037407555 -0.011421833 0.031158773 -0.01681993 -0.008553156 2.5128865
2.1026692 -0.5650634 -0.24589217 -0.14110778 1.2643069 1.293579 0.3930094 -0.16056901
0.10282581 0.08031475 0.056764197 0.054899678 0.010444942 -0.0011747265 -0.023577232 -0.002247716
-3.2640536 -4.1113997 0.9130262 -0.63546777 0.26209384 0.21242096 -0.34408763 0.111130595
-0.03214363 0.21549408 -0.4769998 -0.12111927 -0.07621018 -0.014279514 -0.037508883 -0.04682339
-0.0016374376 -4.1400094 -5.133281 -0.641185 -0.9218062 0.13389891 0.09670713 0.014247514
-0.17927371 0.010589655 0.091986366 -0.017384639 -0.0031484645 -0.01208873 0.0018292051 0.022893362
-0.00405614 0.0032244134 1.6927845 3.3598058 1.1577983 -0.00703655 0.16262877 0.87790024
0.30730543 0.07679281 -0.018124139 -0.13763365 0.18766828 0.042918958 0.0166285 -0.002569361
0.014529351 0.022710001 -0.008993455 0.17536338 1.0419266 1.1093754 0.43235967 0.11493461
-1.1306156 0.064004794 0.42617503 -0.11660417 0.119634524 0.0152838 -0.07694537 0.087241285
0.0433999 0.03656366 0.042671427 0.014476885 -0.05167126 2.0307398 0.23212527 0.17151706
0.060719922 -0.81045574 0.12919147 0.17386575 0.07586047 0.10673056 0.024958028 0.051644355
0.013216039 0.008838209 -0.073102094 -0.025348943 -0.008278029 3.3017123 -1.5455995 0.26075554
-0.38669148 -0.044302277 1.1609507 -0.08817404 0.07349904 -0.14280647 0.9479472 -0.47775844
-0.028752722 -0.045216367 -0.010259232 0.054939568 -0.012876566 -0.0070528495 -5.170956 -2.6867642
0.5805205 0.26908928 0.3833023 0.35814336 0.07750579 -0.16938767 -0.08342562 -0.4867397
-0.41220465 -0.08579134 -0.07059971 -0.03639088 0.0021260453 -0.006840876 -0.017212039 -3.171733

shared.0.bias f4 [256]
00000000: 6a6f 00bf cef7 c9be f1b4 ccbe 5608 a9bf
00000010: e791 0dc0 3d64 e6bf fb95 0fbf 5d9c babe
00000020: 4789 d2bf 4ece 42bf 6f87 92bf 0a4b 56bf
00000030: 4969 04c0 0af7 2dbf bc8f 473e c6ff 88bf
00000040: cabd 88bf cfd8 cfbf b44d 82bf 1804 7dbe
00000050: 4761 babf ae66 eabf eecc f5bf 25e0 42bf
00000060: 840f aebf 875b e5be b9eb 92bf 57da f7be
00000070: 8980 65bf 377c 25be 7fdd 90bf 3231 80bf
00000080: 4dc3 c7bf 4443 413c 73dc c3bf dd4f 8bbf
00000090: dc59 f5bf 2ad5 d1bf 0caf c7bf 10e4 7fbe
000000a0: a6b9 c2bf 0aaf 22bf c4d1 883e 1093 89bf
000000b0: 3ef9 abbf f43b 873d f50d ae3e dd49 09be
000000c0: 170b afbf e24c d7bf b976 2fbf f424 8dbf
000000d0: 108b 08c0 235b 18bf 7946 9cbf 973c 073f
000000e0: b9ed f6bf 8a6b 96bf 3596 afbf 33a3 7fbf
000000f0: ce01 1b3e 5639 e1bf d9e9 83bf d043 26bf
00000100: 77b2 9ebf 255a a1bf cad0 09bf 83b5 5fbf
00000110: b1a0 a7bf 48e9 cabf e3f3 e7be 72d9 d1bf
00000120: 1967 68bf 519f c8be 7728 c8bf b9d3 52bf
00000130: 01a9 18bf e29e 1fc0 4f79 1e3f df86 91bf
00000140: ed31 c63e be80 f0bf 67a4 a4bf 66ca 11bf
00000150: 5f01 d1bf 5f8c 10bf 31f1 f9bf 11f4 b8be
00000160: 68de abbf bba6 88be 5c26 43bf 7174 2ebc
00000170: a9e8 02bf a2c6 cfbf b491 60bf ed5c 5cbf
00000180: 491b 2bbe d09a b9bf d308 b0bf 1cab 0ac0
00000190: ce72 dabd d79d 89bf 3255 82bf b3a7 71be
000001a0: cf70 29bf c0ad 97be b3de cfbe e231 04bf
000001b0: ae87 55bf 9ed7 ddbf 552b 953e bff2 b03f
000001c0: fcd5 bfbe 42ca 83bf 3712 0abf 7db3 75bf
000001d0: c69f 2abf b681 edbe 00fc 46bf b7ad 083f
000001e0: 2af4 92bf 71b5 7dbf d2aa a8bf db93 e1be
000001f0: 1a67 9ebe acc2 07c0 aadb 0bc0 f1f1 aebf
00000200: 89dd 19bf 3512 013f cf14 41bf 94cf e4bf
00000210: d31d 81bf 2b73 dabf 14c7 c7bf 2149 b9bf
00000220: 7275 87bf feab 22bf 4a5c 2fbe b445 8b3f
00000230: 8643 c0bf 52dd febe 8d2f 903e 6adc 433e
00000240: e6fb 98bf a769 aebf ad3e 25bf ff9a e9bf
00000250: 40de 1cbf 49de 813f 4762 02bd b8aa 9bbf
00000260: 7392 d53d c1fe 86bf 335d f9be 3a32 253f
00000270: 1b53 a4bf 0c49 43bf 6804 cfbf 1dca 4ebf
00000280: 443d a5bf 96cc b03e 5c22 c63e befa 70bf
00000290: 6eb6 20bd ffb9 efbf bcac 8dbf cc4f b5bf
000002a0: 8190 16bd a23e 9f3e 54e6 f1be 2bf6 e0bf
000002b0: f6e9 ebbf a9f5 ffbe e183 b6bf fc5a b03e
000002c0: 446d 5abf fd94 8fbf 00fb d7bd 2214 04bf
000002d0: 90cb 9ebf 52e9 d2bf 4df0 87bf a7d8 0ec0
000002e0: 2d0e 9abf 491c a83e e17c cb3e 11f3 05c0
000002f0: 5712 cabe 8d05 cebf 136b 033d 25ff a8be
00000300: 8782 37bf ef15 30bf 873c 27bf fd0f 02c0
00000310: 7551 d2ba bd9b c3bf c1da 38bf eb66 d3bf
00000320: d561 fdbe c0ce f5bf 2641 88be 2e34 55bf
00000330: 839b 97bf 5217 83bf 9a07 e2bf c6ba b53d
00000340: 8cbc e7bf 2dcc b6bf ae68 09bf d390 90bf
00000350: 64e5 81bf cad6 edbf ce52 b5bf b9d1 3dbf
00000360: 7c3c 69bf e752 833f 62b4 27bf bad7 36bf
00000370: 3303 90bf 13b2 aabf 01c6 4dbf 7276 ebbf
00000380: 86da 04c0 36e7 9abf aa26 88bf ef13 a8bf
00000390: bd2c 86bf 39ec 9abf 644a c9bf 8b21 3f3e
000003a0: 1ce0 eebf ffe9 f7bf e598 4cbf 5a54 b6bf
000003b0: 05e4 a1bf 3cb6 8cbf e832 e6bf a323 afbf
000003c0: 329f 88bf 85e2 e1bf 3239 e3bf c947 b0be
000003d0: ab3e 02c0 82f6 94bf e045 c3be 4ce1 85bf
000003e0: d08e f7bf 700e debf 25d1 f1bf bfc0 76bf
000003f0: 379e 16bf a1df 06bf 9002 cfbe b6f2 c1bf
-0.50170004 -0.39446872 -0.39981797 -1.3205669 -2.2120302 -1.799934 -0.5608823 -0.3644742
-1.6448144 -0.76096046 -1.1447581 -0.8370825 -2.068926 -0.67955077 0.19488424 -1.0703056
-1.0682919 -1.623804 -1.0179963 -0.24708593 -1.4560937 -1.8312585 -1.9203165 -0.7612327
-1.3598485 -0.44796392 -1.1478187 -0.48408768 -0.89649254 -0.16160665 -1.1317595 -1.0015013
-1.5606476 0.0117958225 -1.5301651 -1.0883747 -1.9168048 -1.6393178 -1.5600295 -0.24989343
-1.5212905 -0.6354834 0.26722538 -1.0748005 -1.3435438 0.06603232 0.33995023 -0.13407083
-1.3675259 -1.6820338 -0.6854053 -1.1026902 -2.1334877 -0.59514064 -1.2209007 0.5282683
-1.9291297 -1.1751568 -1.3717715 -0.998584 0.15137407 -1.7595623 -1.030574 -0.64947224
-1.2398213 -1.2605635 -0.5383421 -0.8738634 -1.3095914 -1.5852442 -0.45303258 -1.6394484
-0.90782315 -0.3918405 -1.5637349 -0.82354313 -0.5963288 -2.4940724 0.6190385 -1.1369284
0.38709965 -1.8789289 -1.2862672 -0.5694946 -1.6328543 -0.5646419 -1.9526731 -0.36123708
-1.3427248 -0.26689705 -0.76230407 -0.010647879 -0.5113626 -1.6232493 -0.87722325 -0.86079293
-0.16709627 -1.450037 -1.3752693 -2.1666937 -0.106664285 -1.0751294 -1.018225 -0.23599128
-0.6618776 -0.29624748 -0.40599594 -0.51638615 -0.83410156 -1.7331426 0.29134622 1.382408
-0.37467945 -1.0296099 -0.53934044 -0.95977 -0.66650045 -0.46388024 -0.7772827 0.5339007
-1.1480763 -0.9910498 -1.317713 -0.44058117 -0.30938035 -2.1212568 -2.1852822 -1.3667585
-0.6010366 0.50418407 -0.75422376 -1.7875848 -1.0087227 -1.7066396 -1.5607629 -1.4475442
-1.0582716 -0.6354369 -0.17125049 1.0880647 -1.5020607 -0.4977823 0.28161278 0.1912705
-1.1951873 -1.3625993 -0.6454876 -1.8250426 -0.61276627 1.0145961 -0.031832006 -1.2161474
0.104283236 -1.0546495 -0.48703918 0.64529765 -1.2837862 -0.76283336 -1.617322 -0.8077715
-1.2909322 0.34531087 0.3869809 -0.941326 -0.03923648 -1.8728637 -1.1068339 -1.4164977
-0.036758903 0.31102473 -0.4724604 -1.7575125 -1.8430774 -0.4999211 -1.4258996 0.34444416
-0.85322976 -1.1217343 -0.10545921 -0.5159322 -1.2405872 -1.6477454 -1.0620209 -2.2319734
-1.2035576 0.3283408 0.39743713 -2.0929606 -0.39467117 -1.6095444 0.032084536 -0.3300716
-0.71683544 -0.6878347 -0.6532673 -2.0322258 -0.0016046005 -1.5281903 -0.7220879 -1.6515783
-0.49488702 -1.920372 -0.26612204 -0.83282745 -1.1844333 -1.0241492 -1.765857 0.08873515
-1.8104415 -1.428106 -0.53675354 -1.1294197 -1.014813 -1.8581173 -1.4165895 -0.74148136
-0.91107917 1.0259675 -0.6550962 -0.7142292 -1.1250976 -1.3335594 -0.80380255 -1.8395522
-2.0758376 -1.210181 -1.0636799 -1.3131083 -1.0482403 -1.210334 -1.5725827 0.1866514
-1.8662143 -1.9368285 -0.799208 -1.4244492 -1.2647711 -1.0993114 -1.7984285 -1.368275
-1.0673583 -1.7647253 -1.775183 -0.34429768 -2.035075 -1.1637728 -0.38139248 -1.045938
-1.9340458 -1.7348156 -1.8891951 -0.9638786 -0.58835167 -0.5268498 -0.40431643 -1.5152194

shared.3.weight f4 [256, 256]
00000000: 7637 30bf b8b0 5d3e fa1f 5e3d f839 d5be
00000010: 4713 a63e 3952 763e 1d6b 85bf 72aa bcbc
00000020: 51f0 b53e de2d 8dbe a1f2 863e bdc1 27be
00000030: fa0b 2fbc c9d0 b73d b76c 69be 1ca9 81be
00000040: a9b6 32be a04d 303e 0e21 a83e a066 3ebf
00000050: 0f31 6e3e eb27 ca3c d904 533d 91da 29be
00000060: f868 cabe a6a2 babe f189 1cbe 91cc 99be
00000070: 863f debd 70bb 023d 78bb 3cbd 5129 133e
00000080: 1879 da3c e735 adbe f965 173d 04db 8f3e
00000090: 7660 99be 37b4 b5be 06f9 7ebe af84 eebc
000000a0: e433 1d3e 7973 5dbe 4238 f53d 198f 933e
000000b0: 8e8a ff3e 870e 263e 4fd1 0cbe a591 4c3e
000000c0: 01eb 2dbc e62f a13c 2b2e c5bb 6ea0 84bd
000000d0: 435d 2f3f b078 47be 5b8d 4abf b9ef 593e
000000e0: 8dec 83bf e23d 163b 8a8d 753d 9995 4dbd
000000f0: 68c6 c0be 5f1a 373e d3bd d93d a4c0 9bbe
00000100: 09b7 f63e 2cb3 11bf 8658 96bd 98a9 00bd
00000110: 25eb 27be c32e 6fbc eac5 313e a63d 9e3e
00000120: af28 e13d 2469 62be 1b18 9f3d 3bf6 cd3c
00000130: 4cbd 963e b879 863f c3aa 3dbd af23 edbd
00000140: f070 e2be a696 053f fbd2 bdbe db78 9ebf
00000150: a981 13be b5b7 103c 8e85 423e 9b88 4dbe
00000160: 28d9 8e3c a9fc 35bd ebdd a73c 00b4 b7be
00000170: a70e 153c bf84 323b 7a93 06be b494 02be
00000180: be35 e33e 13a3 6ebf 8d3a 1dbf 4eb6 c63e
00000190: 7161 803d 4ec9 6f3e d239 ee3d 6913 8ebe
000001a0: 6243 84be b309 8dbf 2abf 71be 0718 c8bc
000001b0: 0ded 82be e01e 883e df45 20bf 575c 353e
000001c0: 93f9 a4bd 1e4f b4bd 4985 81be 9760 25bc
000001d0: 8ab8 cabe adb2 4c3d 517b 83bd 67c5 443d
000001e0: a71d 6dbc e01a bcbe 0588 2e3e dd96 953e
000001f0: 7fd6 343f cd1b 7a3c f3c7 a7bc 3d82 8b3d
00000200: 90c9 a5be 5ef4 04bf 2791 e53d a19a 623e
00000210: 7737 97bd 4ec5 ed3e fe2d 01be c789 593e
00000220: 58ad 003e 99c0 0dbe da26 7d3e ac48 43bd
00000230: 27b1 8ebe 5006 463d 696b 023e 28d2 003f
00000240: cdd9 6f3c d880 1abf 20b5 87bd 714a 13bf
00000250: 25b5 7e3c 974c e1bd 3d7d fabe 2370 873e
00000260: 72f7 48bd bdec 4cbf 2ab2 0dbe a0b1 8a3e
00000270: 56ca 043d 2c20 d83c 3b89 1d3f c698 a6bf
00000280: 66f2 393f 2873 99be 1aea 353d c2fe 463e
00000290: 4a23 653d 8a16 15bf d050 183f b14d 45bd
000002a0: a461 b73d 0143 11bf 7b14 4ebf 4b54 79be
000002b0: 5816 e23d 3a85 29be 7702 e3be 45eb 9e3c
000002c0: df03 62bf 6628 1bbf 6ee6 e3be 26b7 c7be
000002d0: 4e9b 9a3d 74a8 fb3e 31c6 3f3e 41ce 2c3e
000002e0: 1169 c93c b7a3 90be 3cdd 873d 2f10 023f
000002f0: fbe1 af3d 74f6 21be 579b 55bd 4589 543c
00000300: 77dd 87bf 544e e3be 0318 27bf 23bd e7be
00000310: f038 db3d 666b 75be 1f60 17bb 8389 3dbe
00000320: 6328 493d 4c41 4dbe bce6 7abe f5cf 4dbf
00000330: c399 b13e 029c 8cbd c201 b23e e9fa 103e
00000340: e052 4f3e bef2 3a3d 702f e9be 1fc0 793e
00000350: b7aa ccbf 084f 86be e968 3cbe 7c01 9d3e
00000360: 3bbe 76bd 2d30 d0be 3e5f 373d 9d98 8b3e
00000370: ef1d a0bd ee72 2bbc bfd9 ae3e 71b8 1b3e
00000380: 5f2c 7cbf 9ea6 11bf 7d2b b33d 0e7a 2b3f
00000390: 7ffc 73be 9211 20be 943e 663d 4f6a c13d
000003a0: 03f3 3a3d 9d4f 093f 21f5 8fbd 33ac 963e
000003b0: d116 87bb 1365 183e 97c8 373f fe00 a3bf
000003c0: 65e9 9b3e 3843 793e 4e59 20bf b410 96be
000003d0: 0be2 8b3c cbcc 33be e3ca f53d b6b8 83ba
000003e0: 95a2 b4be 84fd 8ebc bbb6 d23d 49ab 7a3e
000003f0: 9579 e63e fd9c 5e3d bfd2 25bf 2dac 17be
-0.68834627 0.21649444 0.054229714 -0.4164579 0.32436582 0.24054803 -1.0423313 -0.023030493
0.3553491 -0.27574056 0.26356986 -0.16382499 -0.010684008 0.089753695 -0.22795378 -0.25324333
-0.17452492 0.17217112 0.3283772 -0.74375343 0.23260902 0.024677237 0.051518295 -0.16587283
-0.3953321 -0.36452216 -0.15286995 -0.30038884 -0.1085196 0.031917036 -0.04607722 0.1437123
0.02666907 -0.33830187 0.036962483 0.28096783 -0.29956406 -0.35489056 -0.24899682 -0.029116003
0.15351826 -0.2162608 0.11973621 0.28820112 0.49910396 0.16216479 -0.1375172 0.19977434
-0.010615111 0.01967616 -0.0060174665 -0.06475912 0.6850168 -0.19479632 -0.7912194 0.21282853
-1.0306565 0.0022925069 0.059949435 -0.050191496 -0.37651372 0.17881154 0.10631909 -0.3042041
0.4818652 -0.5691402 -0.07341103 -0.031411737 -0.16398294 -0.014598551 0.17360654 0.3090641
0.10994088 -0.2211042 0.0776827 0.025141826 0.29441297 1.0505896 -0.04630543 -0.11579072
-0.4422679 0.52182996 -0.37075028 -1.2380632 -0.1440493 0.008832862 0.1899626 -0.20071642
0.017437533 -0.04443041 0.02049156 -0.35879517 0.009097732 0.0027239767 -0.13142195 -0.12752038
0.4437694 -0.9321758 -0.61417466 0.38810962 0.062685855 0.23416635 0.11632122 -0.27749184
-0.2583266 -1.1018585 -0.2360808 -0.02442552 -0.2557148 0.26586056 -0.62606615 0.17711006
-0.08055415 -0.08804153 -0.25297 -0.01009383 -0.39593917 0.049975086 -0.06420005 0.04803982
-0.014472402 -0.36739254 0.17044075 0.29216662 0.70639795 0.015265417 -0.020481085 0.0681195
-0.32380342 -0.51935375 0.11209326 0.22129299 -0.07383626 0.46439594 -0.12615201 0.21243964
0.12566125 -0.13843001 0.24721852 -0.047676727 -0.27869532 0.048345864 0.12736286 0.50320673
0.01463933 -0.6035285 -0.06626344 -0.57535464 0.015546118 -0.110009365 -0.48923674 0.2645274
-0.049064107 -0.80048734 -0.13837495 0.27088642 0.032419525 0.026382528 0.6153752 -1.3015373
0.72635496 -0.2997067 0.04441271 0.1943312 0.055941857 -0.58237517 0.5949831 -0.048169795
0.0895417 -0.56742865 -0.805 -0.24348561 0.11039418 -0.16554728 -0.44337818 0.019399295
-0.88287157 -0.6060852 -0.4451174 -0.3900692 0.07549153 0.49151957 0.18727948 0.16875555
0.024586232 -0.28249905 0.06633994 0.50805944 0.08588024 -0.1581667 -0.052150097 0.012972181
-1.0614461 -0.44395697 -0.65271014 -0.45261487 0.10704219 -0.2396675 -0.0023098064 -0.18509488
0.04911078 -0.2004444 -0.2450208 -0.8039544 0.34687623 -0.06865694 0.34766966 0.14158215
0.20246458 0.045641653 -0.45544004 0.24389695 -1.5989598 -0.2623217 -0.18399395 0.30665195
-0.06024001 -0.40661755 0.044768564 0.27264872 -0.078182094 -0.010464413 0.34150502 0.15207078
-0.98505205 -0.5689486 0.08748529 0.66983116 -0.23826788 -0.15631703 0.056212023 0.09444105
0.04564191 0.53637105 -0.070291765 0.29428253 -0.004122593 0.14882307 0.7179045 -1.2734678
0.30451503 0.24342048 -0.6263627 -0.29309618 0.01707556 -0.17558591 0.12001588 -0.0010049555
-0.3528029 -0.01745487 0.10288759 0.24479403 0.45014635 0.054348934 -0.647747 -0.14811774

shared.3.bias f4 [256]
00000000: 7330 a03e f0d8 3b3f 31a7 8fbe 8195 983e
00000010: ed0f 573f 68ea a4bd cbd6 2b3f a7ec afbf
00000020: 0962 5a3f a346 423f 1edc fbbd f636 da3d
00000030: 7972 a1bc 7216 9cbe f4b0 db3e 011e 883e
00000040: 4558 ee3e 7295 cebe fbd5 4abf f884 47be
00000050: 5814 1e3f 63ab 58bf cd3c 863f e387 d93e
00000060: 85d2 293f c49e 9a3e d09c 23bd 8dea 943f
00000070: 17ed ae3e 1766 89be 329f 2e3f cccb 5d3c
00000080: 1bd7 803f 8d19 203f ad5b 5a3f 72f7 e53e
00000090: d4d5 1b3f 0398 1f3f 1458 103f 59c6 3b3f
000000a0: f8c6 b63e cbe3 b93e 7990 053e ced9 bd3c
000000b0: cf4d 563e 1e7a 5abe d373 543f b11c 553d
000000c0: c63d 903f 2db7 083f 5ad1 5b3e eae9 45bd
000000d0: 1a1f bebf 464a d33e 3d84 793f 5fc4 1e3f
000000e0: 8ecd 5c3f 16ed 0c3f 2754 223f d232 30bf
000000f0: 1006 633f d209 da3e eb23 68be a492 a1bd
00000100: 7377 153e fdc7 74bf 19c7 273f c540 223f
00000110: f546 dc3e 0711 41bf acbe 673e 3968 e43e
00000120: 9282 2fbd 42de 863f 6c2a aa3d dfab 3d3f
00000130: ca77 a33e 10ee 063f ecd3 a33e 7abd 543f
00000140: 8491 573f c4d7 6d3f cf52 4b3f 2436 333f
00000150: f411 883e 9977 a93e 66f4 06bf 3c07 f73e
00000160: ad80 c13e 67a6 dc3e 273f 5d3f c283 a0bd
00000170: 3f6a 553f d6e0 9f3e 6844 d73e 7447 9bbd
00000180: e4b2 5abe 935c 533f a88a a03e 753e 223f
00000190: c725 603f 4ad8 b73c dfa1 d4be 6ded 9a3f
000001a0: 89bb cd3e f28c ae3d 767d 763f bcf5 a43f
000001b0: d6e2 21bf 125d ba3e 4e44 443f 8925 c83e
000001c0: f80a 893f 76aa 19bf a247 38bf 2a91 4a3f
000001d0: c05b 813e d960 ba3e 661c 6a3f 908f 4bbf
000001e0: 408b cd3e 3bf6 823e 57d2 8a3f 2d5c ce3c
000001f0: 9f9f 4cbb b7fc f43d 4917 b4be 8496 d73e
00000200: f288 553f 8557 67bd 314f f9bf 6bab 093d
00000210: d600 073f bd04 4b3e 29a7 033f b313 4d3d
00000220: b21f 803e 76d4 72bf 5b46 1cbf f190 863e
00000230: 9623 2d3f 5de9 943e cd62 443f cf04 5bbe
00000240: 1b32 4d3f 7e83 50be 8b2b 8b3e ccf7 373f
00000250: 9345 53bf d7a8 68bd cd45 463f 7e75 9cbd
00000260: d896 9d3e 27aa 33bf 895f 443f cb9a 93bc
00000270: 935d 26be 0b15 44bf 31be 2f3f 2272 6d3e
00000280: 5ca8 a0bd 1e01 6c3e 9150 163e f67e e53e
00000290: 06ab 983e 4cd4 283f acd1 773f 2d32 23be
000002a0: 310c ec3e f1c0 afbf 2995 4e3f 1f03 513f
000002b0: 2ed9 5e3f a6ef 143f 53ce 09be bc00 913e
000002c0: 36da 323f 060a 153f 12a9 113f 7d4c 0ebf
000002d0: 988c bc3e 4b5c b2bf a925 103f 6899 533e
000002e0: f573 703f 4f09 ae3e 5345 253f 35f2 cb3e
000002f0: be07 383e 035e 233f 54f4 0b3f 4e28 bdbf
00000300: cd92 123f 0182 073f f8bc 0a3f 0ce5 f63e
00000310: 3fe6 18be a047 19bd a6a0 353f cdff 403f
00000320: f3ee 34bd 014a 923e 92d6 423f 6e2b 033f
00000330: 0168 3c3f 154d 203c e620 813f 012e 5f3e
00000340: 513d 85bd be2c 5a3f d259 0b3e 4921 0fbe
00000350: ea75 e43e 675b 34bf e1e5 e93e 5cd6 c8bd
00000360: c55d ac3f eb5b 75bf eb05 0c3f 67a3 7dbd
00000370: 1ba3 293e 7176 c33e c3f7 023f 3ad5 313f
00000380: 306e 893f 922f 0f3f 0db7 d13e c28d fc3e
00000390: 7b31 2a3f 946e 973e 0518 ccbf f55c 18be
000003a0: 9390 d2bf 651e ff3e 5cb7 ef3d 03dc 1c3f
000003b0: 12fa 823e 4514 da3e 0d48 3f3f b2cd 06bf
000003c0: 1231 013f 23f8 243f fd07 063f e406 d0bd
000003d0: 0d8f 2e3f 7946 bbbd e552 4c3d 1588 80be
000003e0: 0737 3e3f 47f0 933e 52bb f73e 9ec4 1d3e
000003f0: ea10 2f3f acbd 313f 2eb1 c8be b270 493e
0.31286964 0.73377895 -0.28057244 0.29801562 0.84008676 -0.08052522 0.67124623 -1.3744096
0.8530584 0.75889033 -0.122978434 0.10655014 -0.019707905 -0.30485874 0.42908442 0.2658539
0.4655172 -0.40348393 -0.7923276 -0.19484317 0.6174979 -0.84636515 1.0487305 0.42486486
0.6633685 0.30199254 -0.03994447 1.1634079 0.3416526 -0.268357 0.6821166 0.0135373585
1.0065645 0.6253899 0.85296136 0.44915348 0.6087315 0.62341326 0.56384397 0.7334953
0.35698676 0.36306605 0.13043393 0.023175146 0.20928119 -0.21335647 0.82989234 0.052029315
1.1268852 0.53404504 0.2146658 -0.04831878 -1.4853241 0.41267604 0.97467405 0.6201839
0.8625115 0.55049264 0.63409656 -0.68827546 0.88681126 0.42585617 -0.22669952 -0.078892976
0.14596348 -0.9561766 0.65538174 0.6338008 0.43022886 -0.75416607 0.2263133 0.44610766
-0.04284913 1.0536578 0.083088726 0.7409038 0.3192733 0.52707005 0.3199762 0.8310162
0.84206414 0.9290736 0.7942323 0.7000449 0.26576197 0.33099058 -0.5271667 0.48247707
0.37793484 0.43095705 0.8642449 -0.07837631 0.83365244 0.31226224 0.42044377 -0.07581988
-0.21357304 0.8256313 0.31355786 0.6337655 0.87557644 0.022442002 -0.41529748 1.2103707
0.4018214 0.08522977 0.9628519 1.2887492 -0.6323675 0.36399132 0.76666725 0.39091137
1.0706472 -0.6002573 -0.71984303 0.7912775 0.25265312 0.36402014 0.9144958 -0.79515934
0.40145302 0.25578484 1.0845441 0.025190437 -0.0031223071 0.11962264 -0.35174015 0.42107022
0.83412087 -0.05647995 -1.9477292 0.033610743 0.5273565 0.19826026 0.5142694 0.050067615
0.25024182 -0.9485544 -0.61044854 0.26282457 0.67632425 0.29084292 0.7671326 -0.21388553
0.8015458 -0.2036266 0.27181658 0.71862483 -0.82528037 -0.056801643 0.7745026 -0.07639597
0.30779147 -0.70181507 0.76708275 -0.018018147 -0.16246633 -0.7659461 0.68649584 0.2318807
-0.07844612 0.23047301 0.14679171 0.44823426 0.2981798 0.6594894 0.9680431 -0.1593711
0.4610305 -1.3730756 0.8069635 0.8164539 0.8705014 0.58178174 -0.13457613 0.28320873
0.69864213 0.5821842 0.56898606 -0.5558546 0.36826015 -1.3934416 0.56307465 0.20663989
0.93926936 0.33991477 0.64558905 0.39833227 0.17971703 0.63815325 0.5466969 -1.4777925
0.5725525 0.52932745 0.54194593 0.48221624 -0.14931582 -0.037421823 0.70948255 0.7539032
-0.044173192 0.28572085 0.7610866 0.51238143 0.735962 0.009784003 1.0088165 0.21794893
-0.06505836 0.8522452 0.13608482 -0.13977541 0.4462121 -0.7045197 0.45683196 -0.09806511
1.3466116 -0.9584338 0.5469653 -0.06192341 0.16566126 0.381763 0.51159304 0.6946598
1.0736752 0.5593196 0.4095997 0.49326903 0.6648175 0.29576552 -1.594483 -0.1487921
-1.645037 0.49827877 0.11704895 0.6127321 0.25581414 0.4259359 0.74719316 -0.52657616
0.504655 0.64441127 0.5235594 -0.10157564 0.6818703 -0.09144301 0.049883742 -0.25103822
0.74302715 0.28894255 0.48385102 0.15407035 0.68385184 0.6943004 -0.39197677 0.19671896

mean.weight f4 [6, 256]
00000000: dd7b 423c 0653 ff3d 1c73 f83c aae1 2abe
00000010: ae28 98bd f81e 60bd 5ba8 b03d 9fbe 60bd
00000020: 0a81 dcbc fd50 0b3a f383 753f ed70 3cbc
00000030: a4b7 57bd 1082 e1bd 266c 04be af41 a3bd
00000040: 9698 1f3c 31d4 8dbc b2d5 583d f8f9 793e
00000050: 2f81 94bd a9b0 18bc 621f 85bd d135 0d3d
00000060: 8d7e 9c3d 26f0 83be a47b d73c cbeb 3cbe
00000070: a698 253d 48bf 35bc c441 1b3e a785 bcbc
00000080: 2d73 273e 5b42 963d 9bee f43e dcb9 1a3d
00000090: 2fc3 2c3e f61a 65be 1de6 8f3d 7142 ba3d
000000a0: d685 c93d c98d 463e a440 cb3c 3c3a 8f3d
000000b0: 3631 2cbe a260 8b3e 817c 163d d297 9ebd
000000c0: b108 2bbc 2fdb 123e 09e2 833c f1c3 353d
000000d0: cf91 bf3c 56b2 c3ba 76e6 e6bd 7be1 c1bd
000000e0: 3e71 79be 8378 0ebf c417 fdbe 148a 30bb
000000f0: 75ea de3c 1de5 4a3d 1c21 b53f 889b 3b3d
00000100: 3961 10bb 8f0d cdbb 5499 0dbe 7454 3d3e
00000110: 6ccf 093e 7280 d83c b79a 6abd 5131 dc3c
00000120: 1d3e d3bd 7e1a 08be d82e 003e ab2e 843d
00000130: 1dfe 05be 4999 3d3d f18c b4bd f542 f43d
00000140: 2c49 d83c ace0 073e 1a46 22be b85f c53d
00000150: 778a 113e 310d 113c 6476 31bc a34b d43b
00000160: c389 263e 6929 083e 7e6e ea3d 43e2 d93c
00000170: f037 3abe b394 d1bd c3e3 94be e919 1f3d
00000180: 49dd 893d 713a cdbd 5816 7fbd c5b5 183e
00000190: 68bb eebd 5298 67be 8ef6 d3bd 556e 213d
000001a0: 48a7 943f b21c b4bc 993d 3a3e 9220 02be
000001b0: 000c ce3b 59fa 18be 55fe f4bc f4da 553d
000001c0: d78a bb3d 15ee 08bc d8d2 853e f98a 81bf
000001d0: a6c9 c43d 4af6 8a3d 1c79 a3bc e004 dabb
000001e0: c3da 5cbe 057c 2e3e c3af f03c 5bce c73f
000001f0: 69be e9bd fec5 44bc 2888 4a3e 4a81 6cbe
00000200: a56e 913c 5cb0 2a3d 859d af3c 392f 883e
00000210: a65c 243d 14fe 7b3d 42d1 6bbe a4ed 2cbe
00000220: 30d4 1c3d ecc2 b9ba b720 fdbb ee33 8cbf
00000230: fb96 163d c906 62be 84c9 22be 7d9c 1e3d
00000240: fe1d 1b3e e832 2bbf 4916 19bf 09c9 30be
00000250: 150e 28be 1c74 af3c b7c7 a2bd dc32 e13d
00000260: bbbd de3d 45e6 1a3d 3018 22be bf37 3cbe
00000270: 62b4 4fbe 9b54 ecbd 24b2 173f 6e70 0abc
00000280: 3318 a8bd 1968 acbc 4c2a 383d 1d8b bd3c
00000290: 5dba ac3c 12eb 133c 83cf b63e 3f4a e4bd
000002a0: b537 02bd 8226 893e 0dfa a13e 9fb2 63be
000002b0: 7f4c 403e 52fb 073e 40b9 743c 4940 cf3c
000002c0: bfe5 1ebf 73d8 4abd d805 b6bd b4dd 203d
000002d0: 00cc 51be 78c3 9c3b a776 e63d 9a0d 0cbe
000002e0: 2383 2ebe b209 253e 5499 95bf 44d3 f53d
000002f0: 6a3b 513d f752 10bc 1609 98bc 77d6 4ebc
00000300: 6b9d 57be f730 823e 6155 3c3e 15d0 69bd
00000310: 858b 423c 9d0f 453c 813f 3a3e 3e21 f93d
00000320: e378 14bd 0e96 59bd 0fa7 1bbd b21b fa3b
00000330: aeac 4cbe 64b0 c7bd 8cf7 6ebe 6135 4fbd
00000340: 07aa 6d3c 74fb 83be 1486 07bd 998a 763d
00000350: 9b6e e63d 3e88 0e3c 27f5 a1bc eeeb 303f
00000360: f29a 95bd 0d8b 14bc 55af 143d ad74 d83d
00000370: 489e 74be 80a2 2fbf fdcf 723d 48ad 23bf
00000380: f487 2c3c e4ca dabf 1537 21bd 5897 e33c
00000390: 11fe 82be 0dec 22bd b2ef ec3e 3800 163f
000003a0: d83f 83be 9ec5 93be 93a5 e03d 2c40 5bbe
000003b0: 7cd3 b13f 6999 373f 4aae 52bc 11ee 923e
000003c0: 21d3 263c 9a06 9bbd ec55 70be e1ef 66bd
000003d0: ef3d 903d d2b2 98bc 46cb a23d b229 053c
000003e0: 7dd4 4fbd 7392 703d ccbe 5e3e 28a9 a63c
000003f0: e357 d8bd ef0a 97bd b6dc ef3b 28c4 723e
0.011870352 0.12467007 0.030328326 -0.16687647 -0.07429634 -0.054717034 0.08625861 -0.05486929
-0.026917 0.00053144974 0.95904464 -0.011501533 -0.052665368 -0.110111356 -0.1293188 -0.079715125
0.009740969 -0.017313095 0.05293817 0.24411762 -0.07251202 -0.009319463 -0.065001264 0.03447515
0.07641325 -0.25769156 0.026304074 -0.18449323 0.04042878 -0.011092968 0.15161806 -0.02301295
0.1635253 0.07336875 0.47838292 0.037774906 0.16871332 -0.22373566 0.070263125 0.09094704
0.0983998 0.19390024 0.024811096 0.06993529 -0.16815647 0.27222162 0.03673983 -0.07743801
-0.010439084 0.14341424 0.016098993 0.044376317 0.023384957 -0.0014930468 -0.11274426 -0.09466835
-0.24359605 -0.55652636 -0.49432194 -0.002693777 0.027211407 0.049534906 1.4150729 0.045802623
-0.0022030605 -0.00625772 -0.13828021 0.18489248 0.13458031 0.026428435 -0.057276454 0.026878985
-0.103145815 -0.13291356 0.1251787 0.06454214 -0.13085218 0.046288762 -0.08815945 0.119268335
0.026402079 0.132693 -0.15847054 0.096373975 0.14212976 0.008853243 -0.010831449 0.006478743
0.1626349 0.13297047 0.11446856 0.026597148 -0.18185401 -0.1023344 -0.29080018 0.03884307
0.0673166 -0.100209124 -0.062277168 0.1491309 -0.11656839 -0.226167 -0.10349761 0.03941186
1.161355 -0.02198634 0.1818756 -0.12707737 0.0062880516 -0.1493925 -0.029906431 0.052210763
0.09157341 -0.008357544 0.26137424 -1.0120536 0.09608774 0.06785257 -0.01995521 -0.006653413
-0.21567826 0.17039497 0.029380685 1.560985 -0.11413271 -0.012010096 0.19778502 -0.23096195
0.017752955 0.041672096 0.021437416 0.26598528 0.04012742 0.061521605 -0.23029044 -0.16887528
0.038288295 -0.0014172471 -0.007724847 -1.0953348 0.03676508 -0.22072901 -0.15897185 0.038723458
0.1514816 -0.6687455 -0.5979963 -0.17264189 -0.16411622 0.02141767 -0.07948249 0.10996029
0.10876032 0.03781726 -0.1582954 -0.1838064 -0.20283654 -0.11539575 0.59256196 -0.008449657
-0.08207741 -0.021045731 0.044962212 0.023137623 0.021084959 0.009028213 0.35705194 -0.11146974
-0.031791408 0.26787192 0.31636086 -0.22236107 0.18779181 0.13279465 0.014936745 0.025299208
-0.62069315 -0.04952283 -0.08887833 0.039273933 -0.20487976 0.004784044 0.112531 -0.13677064
-0.17042212 0.1611698 -1.1687417 0.12003186 0.051082052 -0.008808843 -0.01855902 -0.012624375
-0.21056144 0.25427982 0.18391944 -0.057083208 0.011874084 0.012027648 0.18188287 0.121645436
-0.0362481 -0.05312162 -0.038001116 0.007632696 -0.19987747 -0.09750441 -0.23336619 -0.050588015
0.01450587 -0.2577778 -0.03308685 0.06019077 0.11251565 0.008699475 -0.019770218 0.6911
-0.07304944 -0.009066355 0.036300022 0.10569129 -0.23888505 -0.6860733 0.059280384 -0.6393628
0.010530461 -1.7093167 -0.03935917 0.027782127 -0.25584462 -0.039775897 0.46276623 0.58594084
-0.25634646 -0.28861707 0.10969081 -0.21411198 1.3892665 0.7171846 -0.012858937 0.28697255
0.010182173 -0.075696185 -0.23470277 -0.05638111 0.07043063 -0.018639956 0.079489276 0.008127617
-0.050739754 0.058733415 0.2175247 0.020344332 -0.10563638 -0.07375132 0.007320012 0.2370764

mean.bias f4 [6]
00000000: 6fb5 233f ed93 e1bd 0c0f 6bbd e838 02be
00000010: 816d fa3c 27e2 773e
0.6394872 -0.11014543 -0.057387397 -0.1271702 0.030569794 0.24207364

log_std.weight f4 [6, 256]
00000000: abff a7bb 52a2 973d bed4 bd3c 46e8 a63c
00000010: f8a2 62bb abf0 a73d e164 bd3c 2728 6bbd
00000020: 2ba9 b3bc 2719 a23c cd6f 8ebd 245d 943c
00000030: eb0f a6bc b7a5 08be c632 2f3d 9cf2 fb3b
00000040: d23e 64bc dc99 cd3b 5708 ce3c 2ec1 8f3d
00000050: 2b72 b9bb 2760 0fbc 8e08 e13b 3110 8c3c
00000060: ed0b 1d3d 4fbd 6b3d 1fde 223c 0c15 983c
00000070: ce6c a43c e701 37bd 384a 933d 8277 85ba
00000080: 2d6a b13d 096b 433d 9728 253e 8676 753c
00000090: 8e0f 413d 7844 9d3d 22c0 ea3c 62d3 843d
000000a0: dd89 6a3d 7c51 af3d 5dba 363c fccb a13b
000000b0: d2bc bb3c e34d e43c a3a4 62bc 9eb9 043d
000000c0: 90b5 6f3b f376 8a3d b0ba d2b9 890c 573d
000000d0: 2b84 7db9 84e4 993c ec21 bd3c 68fc 993c
000000e0: 947b ca3c 1b88 b53d 2ddd d13c 0d85 24bc
000000f0: 8adc 1c39 53c4 ba3c cd54 5cbd fd09 b43c
00000100: b51d 6fbc d05f 423c 84aa 5e3c 0de8 ab3d
00000110: 5d8f edba 0dab b33c 8c03 30bd 5e3b 983c
00000120: ab7d 473d d4da 523d e9fe 5c3d 3d8d 143d
00000130: fd1f a0bd e8d7 37bc 69bd e23c e66d 153d
00000140: 7a80 37bd c593 a13d cc66 153d a321 3a3d
00000150: cafd 9c3d e87e 633a 17b6 dabd b4f0 813c
00000160: 4fe5 ff3c 6099 873d 1884 453d 7d57 163d
00000170: 03c4 873d 5b03 113d 61e0 d83a 52e9 0a3c
00000180: 37b3 d53c 832b 11bb 63c4 e33c 822a 493d
00000190: 3718 9b3c 87d9 e93c 1227 0f3d df6d dc3b
000001a0: b8e7 11bb d54d 4a39 03da 123d 1e78 003d
000001b0: cf69 2f3c c03b 833d d885 7cba bd30 bd3a
000001c0: 1069 423d 0590 dfbb 58a2 683d 5248 6a3d
000001d0: b5a7 063d 0a0b 6b3d aea9 afbc 968f 7bbc
000001e0: bde2 323d 048a 193d fbdd 0b3b d5e1 533d
000001f0: 2800 3b3d e06e 80bc 8f85 4b3d 106f 9d3d
00000200: c2c5 b03c bd90 1ebc 5f47 00bc 4652 ed3d
00000210: 0b69 9c3c 9b00 993c 17a7 163d 17e3 0d3d
00000220: 212e 403d 74e3 e039 0273 123c 95fc 983d
00000230: fe0a 783c b56b 643d f703 7cbd d7ef 25bd
00000240: bded 613d e31d 333e b6b2 013d 4c8e 6c3d
00000250: 6aac b53a 5b1f 593b 1cad 0cbd a100 553d
00000260: 1afa 5f3d 42cb d23a 07ae 4e3d 1443 743d
00000270: 9cf0 f63c 1478 223d 46f6 d7bd 6da9 d437
00000280: fde1 cc3c a4a2 473c 7313 1c3d 08e6 ce3c
00000290: 8b04 a63b f41b 9abb 59e2 a23d 727a b6bc
000002a0: 1416 363c 15cb ca3d eb08 443d e987 153d
000002b0: 0ec6 d23d 4f1c 453d 29b1 82bc 9d96 fa3a
000002c0: 2a7a a63c ff9d 3e3c 8d1b 11bc 792d 083c
000002d0: 0562 393c 8a49 07bd 070b 2b3d d052 eebc
000002e0: 7760 fc3c 925d 213d 7d0e 20be cc19 e63c
000002f0: 30e1 ed3c 3c5b 6d3c bf09 24bb a380 f1ba
00000300: 6f59 973d d2cb d33d 0994 4e3c 4f1f a03b
00000310: 93ef f43b 01bf 4e3c f359 813d 8d88 223d
00000320: 11b1 543c a177 13bd 5e65 60bc 7c39 db3b
00000330: b36a 873d 682f 943c 25fb 8e3d 4ab0 48bb
00000340: 0f07 a6bc d78d 363d 3418 593c 9d7d 31bc
00000350: fec1 193d 7fa5 a33b 12e5 20bc bf18 823d
00000360: b254 09bd c845 f7b9 fea6 1fbc 391c 883d
00000370: e1d1 fe3a bfe7 61be f981 223d eed5 ee3d
00000380: d521 9f3c bd45 923d 33ff 963b 9d39 83bc
00000390: 5e4d 763d 9883 2fbc f46d 253e be6a bb3d
000003a0: e66e 18bd 3302 b13d 2ba5 803d f1ee 563d
000003b0: 6cb0 803e d12e 8dbc 5143 57bc 0653 5cbd
000003c0: 032b 8a3c e48d 91bd 0408 a73c 19ad 743c
000003d0: a60d 1e3d 3064 cebc 0c7c 293d 888f 393c
000003e0: 08cf 8abb 8c52 17bc 938f cb3d 2577 23bd
000003f0: 6129 683d 5e6d 89bd c54d 613c 2b09 d33d
-0.0051269135 0.07404007 0.023172732 0.020374428 -0.0034582 0.08200201 0.023119392 -0.05741134
-0.021931252 0.019787384 -0.06954918 0.01811082 -0.020271262 -0.13344465 0.04277303 0.0076888334
-0.013930993 0.006274445 0.025150461 0.07019268 -0.005659362 -0.008750952 0.006867475 0.017097564
0.03834145 0.057553586 0.009940653 0.018564723 0.020071413 -0.04467955 0.071918905 -0.0010182711
0.086628295 0.0477095 0.16128765 0.0149818715 0.047133975 0.07679075 0.02865607 0.064856306
0.057260383 0.08560464 0.011152831 0.004937647 0.022917185 0.02786917 -0.013833198 0.03240358
0.0036576726 0.06760969 -0.00040193414 0.05250219 -0.00024177197 0.018785723 0.023087464 0.018797114
0.02471713 0.08863851 0.02561816 -0.010041487 0.00014959477 0.022798693 -0.05379181 0.021977419
-0.014594485 0.011863664 0.013590459 0.083938695 -0.0018124391 0.02193215 -0.042972133 0.018582996
0.04870383 0.051478222 0.05395404 0.036267508 -0.07818601 -0.01122091 0.027678208 0.03648176
-0.04480026 0.07889513 0.036474988 0.045442235 0.07665594 0.00086782733 -0.10679262 0.015861847
0.031237273 0.06621051 0.048221678 0.03670453 0.06629183 0.03540359 0.0016546362 0.008478479
0.026086433 -0.002215118 0.027803605 0.049112804 0.018932445 0.028546108 0.03494937 0.006726965
-0.002226336 0.00019293216 0.035852443 0.031364553 0.010706379 0.06407881 -0.00096329814 0.0014434081
0.047463477 -0.0068225884 0.056795448 0.057197876 0.03287478 0.057383575 -0.021443214 -0.015354058
0.043673266 0.037485138 0.0021342027 0.051729042 0.045654446 -0.01567787 0.04968792 0.07687199
0.021578673 -0.009678063 -0.007829516 0.11587958 0.019093057 0.018677047 0.036780443 0.034640398
0.046918992 0.00042894075 0.008938553 0.07470051 0.0151393395 0.05576678 -0.06152722 -0.040511932
0.055158366 0.1749187 0.031664573 0.057752892 0.0013860587 0.0033130262 -0.034344777 0.052002553
0.054681875 0.0016082304 0.050458934 0.059634283 0.030144028 0.039665297 -0.1054502 2.5351264e-05
0.025010103 0.012184773 0.038104486 0.025256172 0.0050664595 -0.0047030393 0.07953329 -0.022275183
0.011113662 0.09902016 0.047860067 0.036506567 0.10291682 0.0481227 -0.015953617 0.0019118373
0.020321924 0.011634349 -0.008856666 0.008311623 0.011314874 -0.033029117 0.041758563 -0.029092222
0.030807717 0.039395876 -0.15630527 0.028088473 0.029038042 0.014487084 -0.0025030223 -0.0018425178
0.07390105 0.1034161 0.0126085365 0.004886545 0.0074748485 0.012618781 0.063159846 0.039681006
0.012981669 -0.03600276 -0.013696043 0.0066902023 0.06612148 0.018089011 0.06981496 -0.0030622655
-0.020267038 0.044568863 0.013250399 -0.010833171 0.03753852 0.004994094 -0.00982024 0.06352376
-0.033528037 -0.00047163502 -0.009744404 0.06646008 0.0019441211 -0.2206106 0.039674733 0.116618976
0.019425312 0.07142208 0.004608059 -0.016018683 0.060132377 -0.010712527 0.16155225 0.09151219
-0.037215136 0.086429976 0.06281503 0.052473966 0.251346 -0.017234238 -0.013138608 -0.053790115
0.016866213 -0.071071416 0.020389564 0.014933848 0.038587235 -0.025194257 0.041378066 0.011325724
-0.004236106 -0.009235989 0.09939494 -0.039908547 0.056680087 -0.06710313 0.013751452 0.10304483

log_std.bias f4 [6]
00000000: 0742 b1bf 73cf e5bf fd40 babf fa60 f6bf
00000010: 9215 a6bf f0e1 5dbf
-1.3848275 -1.7953933 -1.4551083 -1.9248345 -1.2975333 -0.8667288
