trained_models/HalfCheetahNormal-v3/sero/actor_2.pt (torch, 296896 bytes, 8 tensors)

shared.0.weight f4 [256, 17]
0	0xbf8b9acd	-1.0906616
1	0xbebc2f17	-0.36754677
2	0x3fb7bbea	1.4354222
3	0x3d729be8	0.059230715
4	0x3e635a55	0.22202428
5	0xbf3fa821	-0.7486592
6	0xbe19b98c	-0.15012187
7	0xbe972db7	-0.29527065
8	0xbc837fcc	-0.01605215
9	0xbd04fb84	-0.032466426
10	0xbf087651	-0.53305537
11	0xbe1eaa3d	-0.15494628
12	0xbd73f68b	-0.059561294
13	0xbd09635b	-0.03354202
14	0xbd608739	-0.05481646
15	0xbcf9fe81	-0.030516865
16	0xbadfd7b9	-0.001707784
17	0x4098414b	4.7579703
18	0x3d681f7f	0.056670662
19	0x3f88f0d1	1.0698491
20	0x3e26cfed	0.16290255
21	0x3ed1248d	0.408482
22	0x3e1d1fdc	0.15344185
23	0xbe73a3ac	-0.23792905
24	0x3ef06ea6	0.46959418
25	0x3c631e9b	0.013862277
26	0x3ec9ae7e	0.3939094
27	0x3e7be7c5	0.24600132
28	0x3df27c1f	0.118400805
29	0x3d5391df	0.051652785
30	0x3cf0d88f	0.029400138
31	0xbc342683	-0.01099551
32	0xbb6534f4	-0.003497419
33	0xba89f50d	-0.0010525301
34	0x40a34901	5.1026616
35	0x40339301	2.8058474
36	0xbf33329b	-0.6999909
37	0x3ee3d406	0.444977
38	0xbed04512	-0.40677696
39	0x3eacfac1	0.3378506
40	0x3f10663f	0.56406015
41	0x3e7343fa	0.237564
42	0xbdd7b52e	-0.10532604
43	0x3d907aa6	0.07054643
44	0x3dde6391	0.108588345
45	0x3e299dbd	0.16564079
46	0x3d761bc5	0.060085077
47	0xbc96f812	-0.018428836
48	0xbc4f12b6	-0.012638738
49	0xbc64c07f	-0.01396191
50	0xbc1649f6	-0.009172907
51	0x402f93cc	2.7433958
52	0x3f71fec4	0.94529366
53	0x3fac57ca	1.3464291
54	0x3f2b9853	0.67029303
55	0x3ea801d5	0.32813898
56	0x3f3c4f10	0.7355814
57	0x3c82060b	0.015872022
58	0x3e0adc9f	0.13560723
59	0xbec45683	-0.38347253
60	0x3fa9168c	1.3210006
61	0xbd50cb1c	-0.05097495
62	0x3e0956cd	0.13412018
63	0x3d9c2dbe	0.07625912
64	0x3d52fefe	0.05151271
65	0x3d687202	0.05674935
66	0xbbf4179a	-0.0074491026
67	0x3cee5462	0.029092971
68	0x3f441eb4	0.7660935
69	0xbfc7ccd2	-1.5609381
70	0x3fab536d	1.3384835
71	0x3e97b9c4	0.29633915
72	0xbb0dc3f0	-0.002163168
73	0xbfa55492	-1.2916434
74	0xbebc8f81	-0.36828235
75	0xbe6094ca	-0.21931759
76	0xbee17949	-0.44037846
77	0xbdffb24e	-0.12485181
78	0xbddb432c	-0.107061714
79	0xbc2b02be	-0.0104376655
80	0xbd2efaf1	-0.042719785
81	0xbc8e230e	-0.0173507
82	0x3d833cf2	0.06408109
83	0xbc5ad601	-0.013356687
84	0x3c1a3ca7	0.009413875
85	0xc009e708	-2.154726
86	0xbfa31fd3	-1.2744087
87	0xbfc7e448	-1.5616541
88	0xbe88aeeb	-0.26695952
89	0xbebe6cb0	-0.37192297
90	0xbf77919e	-0.9670657
91	0xbe5b69aa	-0.21427026
92	0xbe5d38e4	-0.21603733
93	0xbe551c0c	-0.2081148
94	0xbf57bda7	-0.8427376
95	0xbe0162e7	-0.12635385
96	0x3d91fe93	0.07128634
97	0xbd021a09	-0.03176311
98	0x3d02ba64	0.031916037
99	0xbca68284	-0.020325907
100	0xbc60a519	-0.013711237
101	0xbc6e20e3	-0.014534208
102	0x4099f61a	4.8112917
103	0x3fb4637b	1.4092859
104	0x3dc4f52e	0.09617077
105	0x3f32e017	0.69873184
106	0x3d51dcb2	0.051235862
107	0xbee93003	-0.45544443
108	0xbe11db5b	-0.14243834
109	0xbe1de478	-0.15419185
110	0x3d16dd21	0.03683198
111	0x3ee8e285	0.4548532
112	0x3eef35f2	0.46720845
113	0x3db98da2	0.090602174
114	0x3d1b4e21	0.037916306
115	0x3c80d6ed	0.015727485
116	0x3db1a80d	0.08674631
117	0x3ba349f8	0.004983183
118	0xbb4fa896	-0.0031686178
119	0xbeb2eb59	-0.3494518
120	0x3f8affea	1.0859349
121	0xbec08355	-0.37600198
122	0xbe47dfe2	-0.19518998
123	0x3dbdd277	0.092686586
124	0x40071688	2.1107502
125	0x400c02b6	2.1876655
126	0x3fb6a6df	1.4269675
127	0xbf348f12	-0.7053081
128	0x3ea0667f	0.31328198
129	0x3d67dfdd	0.056609977
130	0x3cc5a9a0	0.024128735
131	0xbbdcb828	-0.0067358203
132	0x3c60c410	0.01371862
133	0x3d511db0	0.051053703
134	0x3d613b1a	0.054988004
135	0x3c35f6dd	0.01110622
136	0x40369763	2.85299
137	0xc019cbe6	-2.40307
138	0x3f17cf32	0.5930053
139	0xbec9c7fd	-0.3941039
140	0x3e53404d	0.20629998
141	0xbfd7f5cd	-1.6871887
142	0x3de0205b	0.10943671
143	0xbdc22678	-0.094799936
144	0x3c63e276	0.013908973
145	0x3dc6ef6c	0.09713635
146	0xbf28cdab	-0.65938824
147	0xbde4badf	-0.11168455
148	0xbdb86765	-0.09004096
149	0xbce7d1e1	-0.02829832
150	0xbdc7bb6f	-0.09752547
151	0xbd05f05c	-0.032699928
152	0xbc884e69	-0.016638951
153	0x4070b30a	3.7609277
154	0x3ed8628b	0.42262682
155	0xbf126a7d	-0.5719374
156	0x3e0fe398	0.14051664
157	0xbddd069e	-0.10792278
158	0xbf1300d9	-0.5742317
159	0xbf46b1e6	-0.776152
160	0xbf9255d6	-1.1432445
161	0xbd680592	-0.056645937
162	0x3e6fb659	0.23409404
163	0x3e5aa3dc	0.2135157
164	0x3cfe3bea	0.031034429
165	0x3c0b11dd	0.008488146
166	0xbc697b38	-0.014250569
167	0x3d34dd22	0.0441562
168	0x3c287e5f	0.0102840355
169	0xbb81b742	-0.0039586136
170	0x414b5714	12.708759
171	0xc0a79fc0	-5.2382507
172	0xbf31802b	-0.69336194
173	0xbf08bd39	-0.5341373
174	0x3e8eb96d	0.27875844
175	0x3fec4e75	1.8461443
176	0x3d32ee2c	0.04368417
177	0xbe5519e1	-0.20810653
178	0x3d3d0884	0.0461507
179	0xbd92ed6b	-0.0717419
180	0x3e8fc69a	0.28081208
181	0x3c193622	0.009351285
182	0x3b320257	0.002716204
183	0x3c131081	0.008976103
184	0x3db997e9	0.09062178
185	0x3d298474	0.041386083
186	0xbd1a7d36	-0.037717067
187	0xc082bde2	-4.085679
188	0xc06d3e38	-3.7069225
189	0xbfc705fb	-1.55487
190	0xbf735ef0	-0.9506674
191	0x3e322979	0.17398633
192	0x3b5520a0	0.0032520667
193	0x3d84b92a	0.0648063
194	0x3d56d860	0.052452445
195	0xbce39191	-0.027779372
196	0xbea337dd	-0.31878558
197	0xbe62a782	-0.22134212
198	0x3cb1fde5	0.021727512
199	0xbc91b92b	-0.01778849
200	0xbb98c5de	-0.0046622595
201	0xbc7666fe	-0.015039204
202	0xbb9f58c7	-0.004862878
203	0xbbeaa2b3	-0.0071605085
204	0x40c81a51	6.2532125
205	0xbec18461	-0.3779631
206	0xbea9516d	-0.33069935
207	0xbec24b98	-0.37948298
208	0xbdb1b938	-0.08677906
209	0x3fb92c69	1.4466678
210	0x3f4aa67e	0.79160297
211	0x3e452e63	0.19255976
212	0xbd165137	-0.036698546
213	0x3f95c527	1.1700791
214	0xbe1f0cb0	-0.15532184
215	0xbd359e8b	-0.04434065
216	0xbbaf9586	-0.0053584008
217	0xbbf8c866	-0.0075922487
218	0x3d9b5c72	0.07585992
219	0x3c6396a3	0.013890895
220	0x3c328f51	0.010898427
221	0x3ffaee63	1.9604
222	0x3f44f81a	0.7694107
223	0x3e9dafb3	0.3079811
224	0x3d3514d3	0.044209313
225	0x3eae341b	0.34024128
226	0x3d832853	0.064041756
227	0x3f5224f3	0.8208763
228	0x3a947bb5	0.0011328371
229	0xbea0d070	-0.31409025
230	0xbceb45db	-0.028719833
231	0x3ef987c0	0.48736382
232	0x3e147a34	0.14499742
233	0x3d23efbc	0.04002355
234	0x3df184c7	0.117929034
235	0x3e50a275	0.20374472
236	0x3e0f1fd0	0.1397698
237	0xbcd08bba	-0.025457252
238	0xbeb78f52	-0.35851532
239	0x400fbbe2	2.2458425
240	0x3e04546c	0.1292283
241	0x3f08651b	0.53279275
242	0xbeb74b2d	-0.35799542
243	0x3e80544d	0.25064316
244	0xbebc1a11	-0.36738637
245	0xbea80ea9	-0.32823685
246	0xbe42939d	-0.19001622
247	0xbf0d107b	-0.5510327
248	0x3e559246	0.2085658
249	0xbc311a7b	-0.010809536
250	0xbbca2ac1	-0.0061696474
251	0xbb87edc0	-0.004148215
252	0x3dd69f9b	0.10479661
253	0x39847ae3	0.0002526856
254	0xbce128a4	-0.0274852
255	0x405e8266	3.476709

shared.0.bias f4 [256]
0	0xbfd4b3fb	-1.6617426
1	0xbfbecaa3	-1.490559
2	0xbfad3fd4	-1.3535104
3	0xbf5c97e6	-0.8616928
4	0x3f6c719e	0.92360866
5	0x3e96a0ed	0.29419652
6	0xbfcfbf79	-1.6230308
7	0xbf5056e6	-0.81382596
8	0xbfffd664	-1.9987302
9	0xbef3c1fd	-0.4760894
10	0xbf9096cb	-1.1296018
11	0xbeea5185	-0.4576532
12	0xbfd9ec80	-1.7025299
13	0xbfb2366d	-1.392286
14	0xbface5a1	-1.3507577
15	0xc002af10	-2.041935
16	0xbfb2a6af	-1.3957118
17	0xbf86c10c	-1.0527663
18	0xbf222306	-0.6333469
19	0xbf3fd273	-0.74930495
20	0xbfbbd69d	-1.467487
21	0xbe02b1da	-0.12763157
22	0xc0012b33	-2.0182617
23	0xbf8e8c84	-1.1136632
24	0xbdbce7f2	-0.092239276
25	0xbea69049	-0.32531956
26	0xbfa60fa6	-1.2973526
27	0xc0098838	-2.1489391
28	0xbfadfea6	-1.3593338
29	0xbfa0ab51	-1.2552282
30	0xbfaa3f8a	-1.330064
31	0xbfbae6be	-1.4601667
32	0xbefa3c65	-0.48874202
33	0xbf0cffbc	-0.5507772
34	0xbfcd545d	-1.6041371
35	0xc02e4c20	-2.7233963
36	0x3dd46a90	0.10371888
37	0xbee1829a	-0.44044954
38	0xbf682030	-0.90674114
39	0x3d60c5cf	0.054876145
40	0x3f88d397	1.0689572
41	0xbfd1edfb	-1.6400751
42	0xbf9f91fd	-1.2466427
43	0xbf84af39	-1.0365974
44	0xbfb86598	-1.4406004
45	0xbfca9218	-1.5825834
46	0xbf5abfb5	-0.8544877
47	0xbf302d07	-0.68818706
48	0xbfb5c78e	-1.4201524
49	0xbfc62ab7	-1.5481786
50	0x3f313eb1	0.69236284
51	0xbcc55788	-0.02408959
52	0xbfad6bcd	-1.3548523
53	0xbef964c3	-0.48709688
54	0xbec67e4a	-0.38768226
55	0xbfc3fe4b	-1.5311979
56	0xbfcc6702	-1.5968935
57	0xbfaaf293	-1.3355278
58	0xc00535d9	-2.0814116
59	0xbf19cf02	-0.60081494
60	0xbf17630b	-0.591355
61	0xbf8c5539	-1.0963508
62	0xbf32d5d1	-0.6985751
63	0x3d771c64	0.06032981
64	0xbf8979f0	-1.0740337
65	0xbd96f8de	-0.073716864
66	0xbf28b359	-0.6589866
67	0xbf9464b0	-1.1593227
68	0xc00939b8	-2.1441479
69	0xbf749583	-0.95540637
70	0xc006c00f	-2.1054723
71	0xbfee8309	-1.8633739
72	0xbf8afa53	-1.0857643
73	0xc01dded9	-2.4667265
74	0xbf900cab	-1.1253866
75	0xbe1acae2	-0.15116456
76	0xbee97582	-0.45597464
77	0xbf83862e	-1.0275323
78	0xbf6dd4af	-0.92902654
79	0xbeb1f24e	-0.34755176
80	0xbf8e637c	-1.112411
81	0x3ebc1ea3	0.36742124
82	0xbf5c1fc9	-0.85986
83	0xbf4f19ff	-0.8089904
84	0xbfa9a15a	-1.3252366
85	0xbfa61a8e	-1.2976854
86	0xbfc45b0d	-1.5340286
87	0xbfd27584	-1.6442113
88	0xbfbf96e6	-1.4967926
89	0xbf820ab3	-1.0159515
90	0xbf6f1eeb	-0.9340655
91	0x3f16c981	0.5890122
92	0xbfe6da94	-1.8035455
93	0x3e99fc5c	0.30075347
94	0xbfe9a16f	-1.8252391
95	0xbfbffa05	-1.4998175
96	0xbfc4ce89	-1.537553
97	0x3d433e3e	0.04766678
98	0xbf97e2eb	-1.1866125
99	0x3e3f13a0	0.1865983
100	0xbe9174a4	-0.28409302
101	0xbf7a0b76	-0.9767374
102	0xbe84e54d	-0.25956193
103	0xbf4a157d	-0.7893904
104	0xbfa3fea2	-1.2812083
105	0x3da009b8	0.07814354
106	0xbfa724d4	-1.3058114
107	0xbfb15e5a	-1.3856919
108	0xbf939442	-1.152962
109	0xbf8d00f9	-1.1015922
110	0xbf9f8434	-1.246222
111	0xbedda3e8	-0.43289113
112	0xbf3d5777	-0.73961586
113	0xbff17140	-1.8862686
114	0xbf9b8ddf	-1.2152671
115	0xbff4b2b9	-1.9117042
116	0xbff005b5	-1.8751742
117	0xbfb2048d	-1.3907639
118	0xbf5c2c58	-0.86005163
119	0x3da926c0	0.08259344
120	0xbf8bc348	-1.091897
121	0xbf4335da	-0.76254046
122	0x3d5d5f09	0.05404571
123	0xc001c889	-2.0278647
124	0xbf38ff9e	-0.7226504
125	0xbf9c165a	-1.2194321
126	0x3da4475c	0.08021423
127	0xbecdd867	-0.40204164
128	0xc0061bcf	-2.0954473
129	0x3e95de9c	0.292714
130	0xbfaf7c2f	-1.3709773
131	0x3f1d97a2	0.615595
132	0xbf7cdbc7	-0.98772854
133	0xbfd9b1a7	-1.700734
134	0xbfb290c6	-1.3950431
135	0xbf67c7d5	-0.90539294
136	0xbf9506fe	-1.1642759
137	0xbe4c968d	-0.19979306
138	0xc00eb73d	-2.229934
139	0xbfad2154	-1.3525796
140	0xbfba20b0	-1.4541225
141	0x3e7fc325	0.24976785
142	0xbfb709ef	-1.4299906
143	0x3eed83ea	0.46389705
144	0xbf5ea6d3	-0.86973304
145	0xbe9e0efc	-0.30870807
146	0xbfb9f14d	-1.4526764
147	0xbfa97c92	-1.3241141
148	0xbfb106b4	-1.3830171
149	0xbfe91df5	-1.8212267
150	0xbfea50dc	-1.8305926
151	0xbf3b4e56	-0.73166406
152	0xbf9dc4cf	-1.2325686
153	0xbfd4b8a8	-1.6618853
154	0xbd7dad5d	-0.06193291
155	0xbfa8ef97	-1.3198117
156	0xbf91d07d	-1.139175
157	0xbfa9b469	-1.3258182
158	0xbf9728f2	-1.180937
159	0xbff9968c	-1.9499068
160	0xbe695782	-0.22787288
161	0xbe89a8c2	-0.26886564
162	0xbfc2ecfa	-1.522857
163	0xbf511ea3	-0.8168737
164	0xbf7dc696	-0.99131143
165	0xbfe90cc1	-1.8207017
166	0xbfcd19b4	-1.6023469
167	0xbf752b05	-0.9576877
168	0x3e1f119a	0.15534058
169	0xbfc2b260	-1.5210686
170	0xbe814213	-0.25245723
171	0x3ce76ec0	0.028251052
172	0xbf9f85e9	-1.2462741
173	0xbf856362	-1.0420954
174	0xbec8c0d3	-0.39209613
175	0xbe91c315	-0.28469148
176	0xbf35fa15	-0.7108472
177	0x3e62881c	0.22122234
178	0xbfcb25fe	-1.5870969
179	0xbf49b668	-0.78793955
180	0xbc845956	-0.01615588
181	0xbfa33b1e	-1.2752416
182	0xbfd409e5	-1.656552
183	0xbf6d7fec	-0.9277332
184	0xbf98ec74	-1.194716
185	0xbee9b678	-0.45647025
186	0xbf8c5196	-1.0962398
187	0xbeb9739a	-0.3622101
188	0x3ce4a125	0.027908871
189	0xbf35e154	-0.7104695
190	0x3ead9e2a	0.33909732
191	0xbfff7b75	-1.9959551
192	0xbfe008e1	-1.750271
193	0xbf646426	-0.89215314
194	0xbf8e3d22	-1.1112406
195	0x3de134c2	0.10996391
196	0xbeadd470	-0.3395114
197	0xbea411c3	-0.320448
198	0xbfbd2774	-1.4777665
199	0x3cd64eed	0.026160682
200	0xbf909954	-1.1296792
201	0xbee68ca5	-0.45029178
202	0xbfb3d9eb	-1.4050878
203	0x3f0be292	0.54642594
204	0xbfa1a519	-1.2628509
205	0xbfcaf78c	-1.5856795
206	0xbfe24179	-1.7676231
207	0xbe690753	-0.227567
208	0xbfeb1290	-1.836504
209	0xbf9e719e	-1.2378423
210	0xbfc1191c	-1.5085788
211	0xbfa27bf1	-1.2694074
212	0xbf73a7aa	-0.9517771
213	0x3f734a34	0.950351
214	0xbeebd39d	-0.46059886
215	0xbf663146	-0.89918935
216	0xbfc7f577	-1.5621785
217	0xbfba4d5a	-1.4554856
218	0xbfe379e4	-1.7771573
219	0xc002820d	-2.0391877
220	0xbf68ddbc	-0.9096334
221	0xbef6ead2	-0.4822603
222	0xbf97ad40	-1.1849747
223	0xbfc7a50b	-1.5597242
224	0xbfb6b196	-1.4272945
225	0xbf680d4c	-0.9064529
226	0xbff5985f	-1.9187125
227	0xbfd715fc	-1.6803584
228	0xbefb5c41	-0.49093822
229	0x3f2c8747	0.67393917
230	0xbf330152	-0.6992389
231	0xbec75b95	-0.3893706
232	0xbe1cba05	-0.15305336
233	0xbfd53fec	-1.6660132
234	0xbfee3a92	-1.8611624
235	0x3e5f5b9f	0.21812294
236	0xbf1c48d3	-0.6104862
237	0xbe84dc2b	-0.25949225
238	0xbfa84b41	-1.3147966
239	0xbf9becbe	-1.2181623
240	0xbf2c2e49	-0.67258126
241	0xbf80b1dd	-1.005428
242	0xbf8ddc60	-1.1082878
243	0xbea37abd	-0.3192958
244	0xbfaba0c4	-1.3408437
245	0x3dbcd4bb	0.092202626
246	0xbfc54123	-1.5410503
247	0xbfe7f297	-1.8120908
248	0xbf9b351e	-1.2125585
249	0xbfd975a8	-1.6989031
250	0xbfc5e4eb	-1.5460485
251	0xbf71a57a	-0.9439312
252	0xbdce0330	-0.10059202
253	0xbe752a4f	-0.2394192
254	0xbf8dacbf	-1.1068343
255	0x3f71e587	0.94490856

shared.3.weight f4 [256, 256]
0	0xbff82319	-1.9385711
1	0xbd0a241e	-0.03372585
2	0xbbf15cee	-0.0073658144
3	0xbf0377b4	-0.5135453
4	0xbdf28010	-0.11840832
5	0x3dd54af5	0.104146875
6	0xbbba71c6	-0.0056898324
7	0x3e0cd012	0.13751248
8	0xbdbe6aac	-0.0929769
9	0xbe356a25	-0.17716272
10	0x3d36c509	0.0446215
11	0x3c6baed8	0.014384948
12	0x3d95d217	0.07315462
13	0xbdd3c384	-0.10340026
14	0xbcf2a0d5	-0.029617706
15	0x3ea626a8	0.32451367
16	0xbe01a863	-0.1266189
17	0xbe4cce58	-0.20000589
18	0xbc310262	-0.010803791
19	0x3ef6aeaa	0.48180133
20	0xbd41f32a	-0.04735104
21	0xbbf4e7fb	-0.0074739433
22	0xbdace859	-0.08442754
23	0xbe6b18f9	-0.22958745
24	0xbca7590d	-0.020428205
25	0xbdb72aff	-0.08943748
26	0xbe6f86b7	-0.23391233
27	0xbc36dc72	-0.011160957
28	0xbf8131a8	-1.0093279
29	0xbdc38435	-0.09546701
30	0xbde98256	-0.11401813
31	0xbe604f02	-0.21905139
32	0x3edd980d	0.43280068
33	0x3cfabb7f	0.030606983
34	0xc021dddd	-2.5291665
35	0x3f79bd22	0.9755422
36	0x3c18cd19	0.009326243
37	0xbdc38dda	-0.095485404
38	0xbf2aabdd	-0.6666849
39	0x3df8a3c0	0.12140608
40	0xbd24da6e	-0.040247373
41	0xbe74b31d	-0.23896451
42	0xbe093d88	-0.13402379
43	0xbe0162aa	-0.12635294
44	0x3e9cd702	0.30632788
45	0xbda62d29	-0.08114082
46	0x3df893e8	0.12137586
47	0x3d691b20	0.056910634
48	0xbdd3bfc1	-0.103393085
49	0xbd507e0f	-0.05090147
50	0xbcf610a9	-0.030037241
51	0x3e043752	0.12911728
52	0x3da76580	0.081736565
53	0xbde13d8b	-0.109980665
54	0x3e478ef5	0.19488128
55	0x3ea956dd	0.33074084
56	0xbfe2772f	-1.7692622
57	0xbcf8e0ac	-0.03038057
58	0x3e7a032d	0.24415274
59	0xbf258e10	-0.64669895
60	0x3cb045fa	0.021517742
61	0xbefadaed	-0.48995152
62	0xbc4c6820	-0.012475997
63	0xbd8784d1	-0.066171296
64	0x3d63ce02	0.055616386
65	0xbe933345	-0.28750053
66	0x3d8e48d1	0.069474824
67	0xbc854c45	-0.01627172
68	0xbd704c83	-0.058666717
69	0x3dc79ca9	0.097466774
70	0xbe9e885a	-0.30963403
71	0xbdd3c90d	-0.10341082
72	0xbe3b53b1	-0.18293644
73	0xbfafe3d2	-1.37414
74	0xbecdcda8	-0.40195966
75	0xbe0d0050	-0.1376965
76	0x3da6774a	0.08128221
77	0x3d51bbed	0.05120461
78	0x3dcb2c55	0.09920565
79	0x3dbffa8c	0.0937396
80	0xbc3c7878	-0.011503331
81	0xbd7281e8	-0.05920592
82	0xc05c5c92	-3.44315
83	0xbf9589af	-1.1682643
84	0xbe30b3a3	-0.17256026
85	0x3df4203e	0.11920212
86	0xbecf07a0	-0.40435505
87	0xbc940250	-0.018067509
88	0xbe16d25b	-0.14728682
89	0xbdf8dbf4	-0.12151328
90	0xbd5291dd	-0.051408637
91	0x3d37b84f	0.044853505
92	0x3ed9c0a1	0.42529777
93	0xbf93cbc6	-1.1546562
94	0x3eedc835	0.46441808
95	0xbe884089	-0.26611736
96	0xbc9fd197	-0.01950912
97	0x3cb9b593	0.02266959
98	0x3c909b9f	0.01765233
99	0x3e807f6a	0.2509721
100	0xbc92d7ff	-0.01792526
101	0xbe88356a	-0.26603252
102	0x3d283a10	0.041070998
103	0x3e727663	0.23677973
104	0xbd8a2be0	-0.0674665
105	0xbf3d0df1	-0.738494
106	0x3e9d4833	0.30719146
107	0xbc41b850	-0.011823729
108	0x3e13424f	0.14380763
109	0xbdb4cd1d	-0.08828185
110	0xbe45dc29	-0.19322266
111	0x3c8673c6	0.016412627
112	0x3e01ffb2	0.12695196
113	0xbcb671f8	-0.022271141
114	0xbdf2a73c	-0.11848304
115	0xbfd04ee7	-1.6274079
116	0xbdbe1319	-0.09280986
117	0xbde71243	-0.1128278
118	0x3e890ed2	0.2676912
119	0xbb92bd39	-0.0044781235
120	0xbe67d29c	-0.22638935
121	0xbcfecb18	-0.031102702
122	0xbbb74fcb	-0.005594229
123	0x3d54509b	0.051834684
124	0xbd2aed32	-0.041730113
125	0xc01bec51	-2.4362986
126	0xbecebfde	-0.40380758
127	0x3c20e93d	0.009821233
128	0xbe410704	-0.18850332
129	0xbe415138	-0.18878639
130	0xbd02b9ef	-0.0319156
131	0xbc3ebb7c	-0.011641379
132	0x3b9f8155	0.0048677125
133	0x3daeb829	0.085312195
134	0x3e2981d6	0.16553435
135	0x3e6fe36e	0.23426601
136	0x3d9ec3c3	0.07752182
137	0xbb35a6f3	-0.0027717918
138	0x3fd57d14	1.6678796
139	0x3e1ead85	0.1549588
140	0xbd177942	-0.036980875
141	0xbdd2da91	-0.102955945
142	0xbe0ffc2d	-0.14061041
143	0x3e91a082	0.2844277
144	0x3d00c20b	0.031435054
145	0xbcbe4798	-0.023227498
146	0x3d22e804	0.03977205
147	0x3ddc3054	0.10751405
148	0x3e524069	0.20532383
149	0x3d908bc3	0.070579074
150	0xbd5daae4	-0.054118052
151	0xbc6de012	-0.014518755
152	0xc015360d	-2.331424
153	0xbe82764c	-0.25480878
154	0x3d80be86	0.062863395
155	0xbe29b038	-0.16571128
156	0x3d2d5583	0.04231788
157	0xbea3202a	-0.31860477
158	0xbe1dd9ac	-0.15415066
159	0xbdd56bc0	-0.10420942
160	0x3bbd8391	0.005783506
161	0xbe3998b3	-0.18124656
162	0x3e1afbf7	0.1513518
163	0xbd5a6f14	-0.05332859
164	0xbdf3d97b	-0.119067155
165	0xbe1d933c	-0.15388197
166	0x3d087473	0.03331418
167	0x3a0f14b1	0.00054581003
168	0xbe9c4e6d	-0.30528584
169	0xbd8ef743	-0.06980755
170	0xbe575c91	-0.21031405
171	0x3e9d672f	0.30742785
172	0xbf85b811	-1.0446798
173	0x3e224e0e	0.15850088
174	0xbf6279bb	-0.88466996
175	0x3dde2755	0.10847346
176	0x3f1a022c	0.60159564
177	0x3e61b0e2	0.22040132
178	0xbf7aefbe	-0.9802207
179	0x3dc61013	0.09671035
180	0x3e669f83	0.22521786
181	0x3dede3ec	0.11615738
182	0x3f4d79f2	0.802642
183	0xbf14febd	-0.582012
184	0xbea10d13	-0.31455287
185	0xbc53542a	-0.012898484
186	0xbd0ef7c0	-0.03490424
187	0x3e50862a	0.2036368
188	0x3d86768f	0.06565582
189	0x3cf26016	0.029586833
190	0x3d9e9b47	0.077444606
191	0xbd2d6ab5	-0.042338092
192	0xbedee2d8	-0.43532443
193	0xbe10379a	-0.1408371
194	0x3d7b8a68	0.06141129
195	0xbca12402	-0.01967049
196	0x3d0be27a	0.03415153
197	0x3d614efd	0.05500697
198	0x3dfe4955	0.12416331
199	0xbd935f47	-0.07195907
200	0x3b064e8b	0.0020493593
201	0x3c73f386	0.0148896035
202	0xbe8cf779	-0.27532557
203	0x3a95d9c4	0.0011432697
204	0x3b5799c0	0.0032898039
205	0xbe168ef6	-0.14702973
206	0xbdcaf979	-0.099108644
207	0x3e8ed263	0.27894887
208	0x3e23f3c4	0.16010958
209	0xc0022a8d	-2.033847
210	0x3dd81617	0.10551088
211	0xbc0a1746	-0.0084284
212	0xbc621be1	-0.013800592
213	0x3d6feeb9	0.058577273
214	0xbd16460d	-0.0366879
215	0x3ee0945e	0.43863195
216	0xc030b19b	-2.7608402
217	0xbe6eb872	-0.23312548
218	0xbe0a666b	-0.13515632
219	0xbf1bbe68	-0.6083741
220	0xbd05ead3	-0.03269465
221	0x3d8aa088	0.067689
222	0xbee1a563	-0.44071493
223	0x3d35babd	0.04436754
224	0x3f032100	0.5122223
225	0x3dfe5bc2	0.12419845
226	0xbe856131	-0.26050714
227	0xbe0503cc	-0.1298973
228	0x3ce12c1f	0.027486859
229	0xbc3aeb53	-0.011408645
230	0xbd3b0406	-0.045658134
231	0x3de24723	0.110487245
232	0x3c79c6ea	0.015245179
233	0xbdd784bc	-0.10523364
234	0xbbe4fcdd	-0.0069881515
235	0x3dbbb4eb	0.09165367
236	0xbdee97ee	-0.11650072
237	0x3e6d5c74	0.231798
238	0xbe04bf0d	-0.12963505
239	0x3e27fa58	0.16404092
240	0xbd998e73	-0.07497873
241	0xbe90b020	-0.28259373
242	0xbdf02326	-0.11725454
243	0xbc702a40	-0.014658511
244	0xbd910488	-0.070809424
245	0x3c297cbf	0.010344683
246	0xbf4a7345	-0.7908214
247	0xbf12fa98	-0.57413626
248	0x3cbe9ee0	0.023269117
249	0x3ec819e8	0.39082265
250	0xc091dd7e	-4.5582876
251	0x3e52d8fd	0.20590587
252	0x3df218c7	0.11821132
253	0xbca0f57e	-0.01964831
254	0xbea07d08	-0.3134539
255	0xbd606d0e	-0.054791503

shared.3.bias f4 [256]
0	0xbe89104c	-0.26770246
1	0x3e91c8ff	0.2847366
2	0x3f95d925	1.1706892
3	0x3f6e0470	0.9297552
4	0x3eff6437	0.49881145
5	0x3f219a9b	0.63126534
6	0xbf981984	-1.1882787
7	0x3e945435	0.28970495
8	0x3e145273	0.14484577
9	0x3f85e6ed	1.0461098
10	0x3f1b4340	0.6064949
11	0x3efe8ac0	0.49715233
12	0x3e47dc51	0.19517638
13	0x3f1006e3	0.5626051
14	0x3f23852e	0.6387509
15	0xbf02d07f	-0.5109939
16	0x3e9f4e60	0.31114483
17	0x3e69c18e	0.22827742
18	0x3f1030a6	0.5632423
19	0x3ee0540c	0.43814123
20	0xbe7f8de1	-0.24956466
21	0x3eb0dc79	0.34543207
22	0xbe681e40	-0.2266779
23	0x3e6a4415	0.22877534
24	0x3f0f68f8	0.56019545
25	0x3f019a57	0.5062613
26	0x3f5d751f	0.8650684
27	0x3e95aba5	0.29232517
28	0x3e2b4d32	0.16728666
29	0x3f2d67f9	0.67736775
30	0xbe39fd2b	-0.18162982
31	0x3f66980a	0.90075743
32	0x3eaae881	0.3338051
33	0xbee90acc	-0.4551605
34	0x3f13c2bf	0.57719034
35	0x3dbbf3ab	0.09177335
36	0xbe818923	-0.2529994
37	0x3edc8682	0.4307137
38	0x3f54cf30	0.83128643
39	0xbd55aa6d	-0.052164484
40	0x3dadeaec	0.084920734
41	0x3de49ff3	0.111633204
42	0x3f2f7861	0.6854306
43	0x3efc734c	0.49306715
44	0x3d0a4c6c	0.033764288
45	0x3f013bee	0.5048207
46	0x3eb9b908	0.3627398
47	0x3ea1c141	0.31592754
48	0xbf36549d	-0.7122286
49	0xbecd52c2	-0.40102202
50	0x3efdf89a	0.4960373
51	0x3f234695	0.63779575
52	0x3f160a63	0.586096
53	0xbf64e3cc	-0.8941009
54	0x3f6d21f3	0.9262993
55	0xbf70d545	-0.94075423
56	0xbf2cb2fb	-0.674606
57	0xbdd47c0d	-0.10375223
58	0x3f0f1928	0.5589776
59	0x3f156035	0.58349925
60	0xbde90170	-0.11377227
61	0x3f012906	0.5045322
62	0x3f179069	0.5920473
63	0xbe42916e	-0.1900079
64	0x3e652532	0.2237747
65	0x3e5d9c83	0.21641736
66	0xbe57fde7	-0.2109295
67	0x3f50839e	0.8145083
68	0x3f3e0039	0.7421909
69	0xbeda2a51	-0.4261041
70	0x3e4ba7e4	0.19888264
71	0xbd4dd02c	-0.050247356
72	0x3f31bd45	0.6942943
73	0xbe208ad0	-0.15677953
74	0xbda3b837	-0.079941206
75	0x3f83a55e	1.0284841
76	0xbd5f58a2	-0.054527886
77	0x3f345e5b	0.70456475
78	0x3efdbfd4	0.49560416
79	0xbe042da1	-0.12908031
80	0x3ea01c0b	0.31271395
81	0x3f47e562	0.78084385
82	0x3eabb145	0.33533683
83	0x3ce08f4a	0.027412076
84	0x3f02cb46	0.5109142
85	0xbe05b2af	-0.13056444
86	0x3ef40742	0.47661787
87	0x3e5cc4e5	0.21559484
88	0x3e394877	0.1809405
89	0x3cb75108	0.022377506
90	0x3f3446dd	0.7042063
91	0x3f51f9f1	0.82022005
92	0x3f067926	0.5252861
93	0x3e79ea9f	0.24405907
94	0xbe880009	-0.26562527
95	0x3d836919	0.0641653
96	0x3f4d4ad9	0.80192333
97	0x3e719086	0.23590288
98	0xbf2c509a	-0.6731049
99	0xbfa9d8d7	-1.3269299
100	0x3f04a235	0.5181001
101	0xc00d957b	-2.2122486
102	0xbd9042db	-0.07044002
103	0x3ed68b2a	0.4190305
104	0x3ec278d3	0.37982807
105	0xbede947d	-0.43472663
106	0x3f4984d0	0.7871828
107	0x3e6a616b	0.22888725
108	0x3f4140f5	0.7548974
109	0x3f020eee	0.5080403
110	0x3f2a0b2e	0.6642331
111	0x3f1e0a18	0.6173415
112	0x3ec7cc24	0.39022934
113	0x3e884b77	0.26620075
114	0x3eba104d	0.36340562
115	0x3ed5a3f1	0.4172664
116	0x3f868a7a	1.051101
117	0x3f4e5f67	0.8061432
118	0xbf81e57a	-1.0148156
119	0x3f6c4c7a	0.92304194
120	0xbea30c5c	-0.31845367
121	0xbd006caf	-0.03135365
122	0x3d3013c1	0.04298759
123	0x3d9594c0	0.073037624
124	0x3f2efce9	0.6835466
125	0x3f0a3ba0	0.5399723
126	0x3e86d2b2	0.26332623
127	0x3d02e94c	0.03196077
128	0x3ed695ce	0.41911167
129	0xbea25c38	-0.31710982
130	0x3f6e580c	0.931031
131	0x3f8d3ef4	1.1034837
132	0xbfb91e98	-1.4462461
133	0x3ee98e07	0.4561617
134	0x3f3ea449	0.7446943
135	0xbf6140d2	-0.8798953
136	0x3c991f49	0.018691676
137	0x3f17575a	0.5911766
138	0x3ef20583	0.4726983
139	0xbef965ad	-0.48710385
140	0x3e07359f	0.13204049
141	0x3f131f34	0.5746949
142	0x3ca99bb4	0.020704128
143	0x3f009b5d	0.50237066
144	0x3ee69c87	0.45041296
145	0x3f408b3e	0.75212467
146	0x3e928d1a	0.28623277
147	0x3ecf6a94	0.40511
148	0x3f0f284e	0.55920875
149	0xbeed9843	-0.4640523
150	0x3f4f44d6	0.8096441
151	0xbf9af7e9	-1.2106906
152	0x3effd84d	0.49969712
153	0x3bfa7d6d	0.0076443464
154	0x3eb7b970	0.35883665
155	0x3c2ca4b8	0.010537319
156	0xbf09cfde	-0.53832805
157	0x3ef94b74	0.4869038
158	0x3f54c395	0.83110934
159	0x3e620eab	0.22075908
160	0x3f19f492	0.6013881
161	0x3f21e701	0.6324311
162	0x3d16ef5e	0.036849372
163	0x3e4ef491	0.20210482
164	0xbdbddac9	-0.092702456
165	0xbea2a577	-0.31766865
166	0xbedfc8cf	-0.43707892
167	0xbf0755f6	-0.5286554
168	0x3e92da43	0.28682145
169	0x3db3ec42	0.08785297
170	0x3f5dd2af	0.866496
171	0x3f3aa609	0.729096
172	0x3d4c0f0c	0.049819037
173	0xbf40afb7	-0.7526812
174	0x3ef658fe	0.4811477
175	0x3f1b2bff	0.6061401
176	0x3e17cebd	0.14824958
177	0x3e91453d	0.28373137
178	0x3efe844b	0.49710307
179	0x3f0f1a67	0.5589966
180	0x3edeb518	0.4349754
181	0x3e4b6a33	0.1986473
182	0x3f32a0de	0.69776714
183	0x3f30cdc5	0.6906398
184	0x3f2b456b	0.669028
185	0x3f4a8af0	0.7911825
186	0x3e83f201	0.25770572
187	0xbfa23532	-1.2672484
188	0xbee0ae5b	-0.43883023
189	0x3f916fcb	1.1362242
190	0x3e331d24	0.17491585
191	0xbe66c3f2	-0.22535685
192	0x3f4153cf	0.75518507
193	0xbf2f3f08	-0.68455553
194	0x3ea42d0e	0.32065624
195	0xbf5380ce	-0.82618415
196	0xbea1d620	-0.31608677
197	0xbecd0a69	-0.40047005
198	0x3d84bd97	0.06481474
199	0x3e55a2c9	0.20862879
200	0x3f1ed2c1	0.62040335
201	0xbe783d39	-0.24242105
202	0xbfae69ff	-1.3626097
203	0xbf042a34	-0.51626897
204	0x3ebd5274	0.3697697
205	0x3ef85603	0.48503122
206	0xbe2841d9	-0.16431369
207	0x3e7bb75b	0.24581663
208	0x3ef3e764	0.47637475
209	0x3e987734	0.29778445
210	0x3ec66e52	0.38756043
211	0xbd98fbd6	-0.07469909
212	0xbf62197e	-0.8832015
213	0x3f0cc5d8	0.54989386
214	0x3f0b5e2e	0.5444058
215	0x3f4a934b	0.79131
216	0xbcbba472	-0.022905562
217	0xbed14edc	-0.40880477
218	0xbee67a95	-0.45015398
219	0xbe45da61	-0.19321586
220	0x3f062b45	0.52409774
221	0x3f09af9e	0.53783596
222	0xbf325d3d	-0.6967352
223	0xbed04b86	-0.4068262
224	0xbec80dab	-0.39072928
225	0x3f12c5b0	0.573329
226	0xbf29ed51	-0.6637774
227	0xbf628b3f	-0.8849372
228	0x3e974381	0.2954369
229	0xbd1749be	-0.03693556
230	0x3f0ad5a7	0.5423226
231	0x3f293782	0.66100323
232	0xbed52641	-0.41630748
233	0x3f15a858	0.5846
234	0x3f95eb05	1.1712347
235	0x3e2e30e7	0.17010842
236	0xbf061b71	-0.5238562
237	0x3f162f9e	0.5866641
238	0xbf47d845	-0.78064376
239	0x3e738795	0.23782189
240	0x3f5c9d02	0.86177075
241	0x3f353860	0.70789146
242	0x3ece80dc	0.40332687
243	0x3f228c52	0.6349536
244	0xbd9bf11c	-0.07614347
245	0xbd6dbd03	-0.058041584
246	0x3cdeb984	0.02718807
247	0x3efa799b	0.48920903
248	0x3e245d48	0.16051209
249	0x3c1e13fc	0.009648319
250	0x3ed15913	0.4088827
251	0x3f1128d4	0.56702924
252	0xbe9d9af8	-0.30782294
253	0xbece5177	-0.40296528
254	0xbf1a68b3	-0.6031601
255	0x3d67d5fc	0.056600556

mean.weight f4 [6, 256]
0	0x3cdd4292	0.027009282
1	0xbe92d959	-0.28681448
2	0x3d9e7780	0.077376366
3	0x3dfb311b	0.122652255
4	0xbd9f7b1a	-0.07787152
5	0xbc5be2eb	-0.013420801
6	0xbd537e1b	-0.051633935
7	0xbd9a4fdb	-0.075347625
8	0xbd5369e5	-0.05161466
9	0x3e75f688	0.24019825
10	0x3df456bc	0.11930606
11	0x3e5c2df7	0.21501909
12	0xbc9d2073	-0.019180512
13	0x3dbffde0	0.09374595
14	0x3d927f33	0.071531676
15	0x3ba3b264	0.004995631
16	0xbcd427a2	-0.025897805
17	0x3c9ed07e	0.019386526
18	0xbe50df5d	-0.20397706
19	0xbd8ea2d6	-0.06964652
20	0x3e99a991	0.3001218
21	0xbe0869da	-0.13321629
22	0x3ea13e41	0.31492808
23	0x3c91e064	0.017807193
24	0x3e0f258c	0.13979167
25	0x3eb0fdaf	0.34568545
26	0x3cb24270	0.021760195
27	0xbe252bd3	-0.16129999
28	0xbb069f8d	-0.0020541877
29	0xbe8edc69	-0.27902535
30	0xbd8eb9c9	-0.069690295
31	0x3de5d4a8	0.112222016
32	0x3c4617c8	0.012090631
33	0x3c6daedd	0.014507023
34	0x3dbb9ece	0.09161149
35	0xbc5d13cf	-0.013493492
36	0xbdd8c030	-0.10583532
37	0xbde6626b	-0.112492405
38	0xbe99b1c9	-0.30018452
39	0x3d8834ba	0.06650682
40	0x3d00db74	0.031459287
41	0x3eb3144d	0.34976426
42	0x3e1075d7	0.14107452
43	0x3bb5184e	0.005526579
44	0x3d0f4c8e	0.034985118
45	0xbdac08b1	-0.08400095
46	0xbe28c1d0	-0.16480184
47	0x3dd9d360	0.1063602
48	0xbdce604e	-0.100769624
49	0xbc8c8388	-0.017152563
50	0x3e5c0c6b	0.21489112
51	0xbccaaf10	-0.02474168
52	0x3d1e3e74	0.03863378
53	0xbd7033c5	-0.05864312
54	0xbe9490fc	-0.29016864
55	0x3e51de2e	0.20494911
56	0xbd2fae50	-0.042890847
57	0xbe342417	-0.17591892
58	0xbf454f71	-0.7707434
59	0x3d3f6e68	0.04673615
60	0xbc755b67	-0.014975405
61	0xbdb925dc	-0.09040424
62	0xbf16c05d	-0.58887273
63	0x3e518ed4	0.20464641
64	0xbd3fb1b9	-0.04680035
65	0xbeb9f1f7	-0.36317417
66	0x3e4da925	0.20084055
67	0x3c5fb47a	0.013653869
68	0xbbf2b501	-0.0074068313
69	0x3dd5b0f1	0.104341395
70	0xbd20ef03	-0.03929044
71	0x3ce95906	0.028484832
72	0xbce984dd	-0.028505737
73	0xbccf11a7	-0.025276972
74	0xbc67ad08	-0.014140375
75	0x3edeb5a2	0.4349795
76	0x3c94bba5	0.018155882
77	0x3ce0f2d4	0.02745954
78	0xbd94f3a5	-0.07273034
79	0xbee27f0e	-0.4423756
80	0xbe805f40	-0.2507267
81	0x3cddcc62	0.027074996
82	0xbd3ef5de	-0.046621196
83	0x3a5c3e9c	0.00084016635
84	0xbe424cdf	-0.18974636
85	0xbba782a4	-0.005112009
86	0x3ddb35c8	0.10703617
87	0xbd6e10e4	-0.058121577
88	0x3e200f8a	0.15630928
89	0xbd733152	-0.059373207
90	0x394b1d35	0.00019370469
91	0xbd442b81	-0.04789305
92	0xbe0ceb27	-0.13761579
93	0x3da51414	0.0806047
94	0xbd92f14a	-0.071749285
95	0x3d5f2480	0.05447817
96	0xbe6018ed	-0.21884508
97	0x3db58e04	0.08864978
98	0xbe1a4774	-0.1506632
99	0xbd475e72	-0.048674054
100	0xbf1b5408	-0.60675097
101	0x3e44fbc5	0.19236667
102	0x3d572d85	0.052533645
103	0xbeb80c34	-0.3594681
104	0xbec500d5	-0.38477197
105	0xbe0611ba	-0.130927
106	0x3e1b2532	0.15150908
107	0xbc53d17c	-0.012928363
108	0xbd9b8638	-0.075939596
109	0x3dd775e7	0.10520535
110	0xbe14fcd6	-0.14549574
111	0xbe8950f1	-0.26819566
112	0x3e1cd42b	0.1531531
113	0x3e176653	0.14785127
114	0xbd7f0230	-0.062257946
115	0xbd3b9be3	-0.045802962
116	0x3cc75845	0.024334082
117	0xbd05573c	-0.032553896
118	0xbe4965d9	-0.19667758
119	0x3df0ba01	0.117542274
120	0xbe494795	-0.19656213
121	0x3da6c79a	0.0814354
122	0x3eaeefa5	0.3416721
123	0xbea0cf63	-0.31408224
124	0x3dadd7d6	0.08488433
125	0x3dba7ff8	0.09106439
126	0xbe21b012	-0.15789822
127	0x3cdf6807	0.027271284
128	0xbd93a085	-0.07208351
129	0xbcdbcdce	-0.026831534
130	0x3e303df5	0.17211135
131	0x3e0dce9e	0.1384835
132	0x3e05916d	0.13043757
133	0x3e31c572	0.17360476
134	0xbf154472	-0.58307564
135	0x3e23adeb	0.15984313
136	0xbcf3c48e	-0.02975681
137	0xbb495279	-0.0030719324
138	0xbeb4dc1b	-0.35324177
139	0x3c430a9c	0.011904385
140	0x3adeeaba	0.001700721
141	0x3e35db93	0.17759542
142	0xbdb54b65	-0.08852271
143	0xbe4c7874	-0.19967824
144	0x3e9d7560	0.30753613
145	0x3e165c24	0.14683586
146	0x3e2c1754	0.16805774
147	0xbdba7baf	-0.09105622
148	0xbe68bb54	-0.2272771
149	0xbbd98523	-0.0066381856
150	0x3db38373	0.08765306
151	0xbbe15798	-0.006876897
152	0xbe82ec6f	-0.2557101
153	0xbd2a9016	-0.041641317
154	0xbf24ab20	-0.64323616
155	0x3d9f58bf	0.07780599
156	0x3d0066f2	0.031348176
157	0xbe0ef3a5	-0.1396013
158	0x3dfcbae5	0.12340335
159	0x3d6accfa	0.057324387
160	0x3c504038	0.012710623
161	0x3e7bdb1f	0.24595307
162	0xbd2b8d39	-0.041882727
163	0x3dd38747	0.103285365
164	0x3ca3fc39	0.02001773
165	0xbb8c21b3	-0.004276478
166	0x3d6c499b	0.057687383
167	0xbebe4f3d	-0.3716983
168	0xbd955112	-0.072908536
169	0xbdd8aef7	-0.10580247
170	0xbe7d84d4	-0.24757701
171	0x3ddfc6a6	0.10926561
172	0x3d271d83	0.04079963
173	0x3f7aa3a4	0.97905946
174	0x3cbde4b9	0.023180353
175	0x3d91b7db	0.07115146
176	0xbd4854ec	-0.048909113
177	0xbe4c4378	-0.19947612
178	0xbd97fd3b	-0.07421347
179	0xc01c6d0e	-2.4441562
180	0xbc81d7ae	-0.015849914
181	0xbd023c44	-0.031795755
182	0x3d0913da	0.033466198
183	0xbe85785f	-0.26068398
184	0xbf3c9a5d	-0.7367304
185	0xbe9acea2	-0.30235773
186	0xbe7496a2	-0.23885587
187	0xbea293f5	-0.31753507
188	0x3f6efa67	0.93350834
189	0x3dbe0823	0.09278896
190	0x3d85cf6f	0.065337054
191	0x3c6a9636	0.01431804
192	0x3e8a4062	0.27002245
193	0xbd7dad29	-0.061932717
194	0xbe8c0629	-0.2734845
195	0xbea253d0	-0.3170457
196	0xba26d9de	-0.0006364862
197	0x3e57d294	0.21076423
198	0xbdc8b067	-0.09799271
199	0x3bc715f9	0.0060756174
200	0x3e0045ba	0.12526599
201	0xbca65c19	-0.020307587
202	0x3dd42f44	0.10360578
203	0xbbcc4c6d	-0.0062346966
204	0xbe35a4f6	-0.17738709
205	0x3dcd7f4c	0.100340456
206	0xbd882f0f	-0.06649601
207	0x3e112119	0.14172782
208	0x3d1ed1bb	0.038774233
209	0x3daeeced	0.08541284
210	0x3f0e8fd3	0.5568821
211	0x3f48874d	0.7833145
212	0xbdf17b93	-0.11791148
213	0xbc8e10ef	-0.017342059
214	0xbe3006d1	-0.171901
215	0xbe6e5590	-0.23274827
216	0x3e071f90	0.13195634
217	0x3ebcc0f9	0.36865976
218	0x3ea24bbd	0.3169841
219	0x3f49e264	0.7886107
220	0xbcf63a18	-0.030056998
221	0xbcdea47a	-0.027178038
222	0xbca44723	-0.020053452
223	0xbe2df10b	-0.16986482
224	0xbe150705	-0.14553459
225	0xbe2c2bb5	-0.16813548
226	0xbd82cc20	-0.0638659
227	0xbe517dae	-0.20458099
228	0xbe1f8682	-0.15578654
229	0x3c2a0066	0.010376072
230	0xbe176410	-0.14784265
231	0x3e46aeee	0.19402668
232	0x3df02374	0.11725512
233	0xbe342fc1	-0.17596342
234	0xbcc88f53	-0.024482405
235	0x3d2863fb	0.041110974
236	0x3c793052	0.015209274
237	0x3ddbd0bf	0.107331745
238	0x3d649e67	0.055815127
239	0xbec74349	-0.38918522
240	0x3da59e2e	0.08086811
241	0x3dbc919e	0.09207462
242	0xbe85d740	-0.26140785
243	0xbd2d5825	-0.04232039
244	0x3c412c26	0.011790311
245	0x3dab7aa4	0.08373001
246	0x3c94b12a	0.018150885
247	0x3e6a692a	0.2289168
248	0xbe96c1c2	-0.294447
249	0xbd56af8d	-0.052413512
250	0xbef4f199	-0.47840574
251	0x3e3f21f5	0.18665297
252	0x3d85dc0e	0.06536113
253	0xbd6416a0	-0.05568564
254	0x3d19c5a7	0.03754201
255	0x3e4e1608	0.20125592

mean.bias f4 [6]
0	0x3e90729a	0.28212434
1	0xbf05554d	-0.52083284
2	0xbebcd4b7	-0.3688104
3	0xbe280bbd	-0.16410728
4	0xbcc4da6c	-0.024029933
5	0xbe8a6fae	-0.2703833

log_std.weight f4 [6, 256]
0	0xbb86a64d	-0.00410918
1	0x3dc80d89	0.097682066
2	0x3d082919	0.03324232
3	0x3d831a96	0.06401555
4	0xbca7e6e9	-0.020495849
5	0x3c383b25	0.01124457
6	0xbd03fd3c	-0.032223925
7	0xbc1dd08a	-0.009632239
8	0x3ccbbf20	0.024871409
9	0x3db010ff	0.08596992
10	0xbc760b89	-0.015017399
11	0x3dfd9981	0.12382794
12	0xbaeca3a1	-0.0018054136
13	0x3bb1197f	0.0054046507
14	0x3c4b7f2c	0.012420457
15	0x3d15b84f	0.036552723
16	0x3ca958f5	0.0206723
17	0xbc5330f2	-0.012890087
18	0x3dd3ab94	0.1033546
19	0xbdcb0898	-0.099137485
20	0x3e089494	0.13337928
21	0x3d23f121	0.04002488
22	0x3c9d1920	0.01917702
23	0x3c93e26c	0.018052302
24	0x3d80b629	0.06284744
25	0x3d44eae1	0.04807556
26	0x3cae1f03	0.021255022
27	0x3d63945c	0.05556141
28	0xbb636753	-0.0034699037
29	0x3db5bcb6	0.088738844
30	0xbd1f1f59	-0.038848255
31	0x3d1b22ba	0.037874915
32	0xbd494fc1	-0.049148325
33	0xbb232be9	-0.0024897999
34	0x3d3d3fa6	0.046203278
35	0x3baf67e3	0.0053529604
36	0x3d7df20b	0.06199841
37	0x3d0754f5	0.033040006
38	0x3d1b6759	0.037940357
39	0x3d40ad8f	0.04704052
40	0x3d1f599e	0.038903825
41	0x3e072c21	0.13200428
42	0x3d95bcc3	0.07311394
43	0x3b0a2bf0	0.0021083318
44	0xbd1821da	-0.03714166
45	0x3c49dd58	0.012320839
46	0x3d1f841c	0.03894435
47	0xbd50f24c	-0.051012322
48	0x3a50a4f3	0.00079591497
49	0x3c17a9db	0.009256805
50	0x3e05057b	0.12990372
51	0xbd9f8772	-0.07789506
52	0xbcb7b431	-0.02242479
53	0xbc9e0d18	-0.019293353
54	0x3e04d872	0.12973192
55	0x3c6741d7	0.014114819
56	0xbcd9ef18	-0.026603267
57	0x3d2051bb	0.039140444
58	0x3d11bdb5	0.03558131
59	0x3c2d0855	0.010561069
60	0xbc86d54a	-0.016459126
61	0x3d10379b	0.03520928
62	0xbd4a18ec	-0.049340174
63	0xbd57c4c3	-0.05267788
64	0xba83064c	-0.0009996383
65	0x3d4b0251	0.049562756
66	0x3d360f9e	0.044448487
67	0x3ccf3c12	0.025297198
68	0xbcab47e3	-0.020908302
69	0x3cca202c	0.024673544
70	0xbb872d51	-0.004125275
71	0x3b6b22b6	0.0035878844
72	0x3c5a76f0	0.013334021
73	0xbca78798	-0.020450398
74	0x3c81b45f	0.015833078
75	0x3dce1fbc	0.100646466
76	0x3c22a085	0.009925966
77	0x3c91abc2	0.017782096
78	0x3d33c154	0.043885544
79	0x3d1abb7b	0.03777645
80	0x3de3da79	0.11125655
81	0x3b586e41	0.00330247
82	0x3ca6cf70	0.020362586
83	0xbd2ba8a6	-0.041908883
84	0x3db3628d	0.087590314
85	0x3bae1ab1	0.0053132405
86	0x3d2afeac	0.04174678
87	0x3c9d0eb1	0.019172044
88	0xbd5730f8	-0.052536935
89	0xbd66ed8a	-0.05637888
90	0xbce62628	-0.028094366
91	0x3caf78fa	0.02141999
92	0x3d341cf2	0.043972917
93	0x3d4097e2	0.047019847
94	0xbd56c9a5	-0.052438397
95	0x3d1c49b0	0.03815621
96	0x3daccc02	0.08437349
97	0x3d6954da	0.056965686
98	0xbd6f7f02	-0.058470733
99	0x3cb9a2cc	0.022660635
100	0x3dda84d4	0.10669866
101	0x3c40ff1d	0.011779574
102	0xbbccfae1	-0.006255493
103	0xbcc81855	-0.024425665
104	0x3db0cb5b	0.08632537
105	0xbcb0f2e9	-0.021600204
106	0xbd7203a5	-0.059085507
107	0x3bf777a1	0.0075521027
108	0xbb155d94	-0.0022791373
109	0x3d5e68ba	0.054299094
110	0x3d237bd8	0.03991303
111	0x3dee8ef3	0.11648359
112	0x3d6395b8	0.055562705
113	0x3d5f646f	0.05453914
114	0xbcaad79d	-0.020854766
115	0xbe177da5	-0.14794023
116	0x3c11f25a	0.008907879
117	0xb90db968	-0.00013515877
118	0xbd22eda5	-0.039777417
119	0x3d1867a2	0.037208207
120	0xbde59cca	-0.11211546
121	0xbe057b0e	-0.13035223
122	0x3dd1dd40	0.10247278
123	0x3e2f28dd	0.17105432
124	0x3d05bfa1	0.032653455
125	0x3cbe43bd	0.02322566
126	0x3d625061	0.055252437
127	0xbc7d1e9e	-0.015449194
128	0x3c53de98	0.012931488
129	0x380e5a7a	3.39397e-05
130	0x3dc6d634	0.09708825
131	0x3d930d04	0.07180217
132	0x3b9c1547	0.0047632786
133	0x3d9e1e3a	0.07720609
134	0xbd9732a8	-0.07382709
135	0xbd5faf21	-0.054610375
136	0x3c0a94ce	0.008458329
137	0xbcb346bc	-0.021884315
138	0x3e27bf08	0.16381466
139	0xbb820723	-0.003968136
140	0xbb32a475	-0.0027258669
141	0x3d95f2ca	0.07321699
142	0x3b8312ac	0.0040000286
143	0x3d398816	0.045295797
144	0x3e143018	0.14471471
145	0x3d83fcb3	0.06444683
146	0x3d5be17c	0.053681836
147	0x3d3f5039	0.046707366
148	0x3d860418	0.065437496
149	0xbb861ccd	-0.004092789
150	0x3d18e6de	0.037329547
151	0x3af76a3d	0.0018876266
152	0x3d2eb3d1	0.042651955
153	0x3d015861	0.031578425
154	0x3e6617ac	0.22469968
155	0xbd8cb33e	-0.06870125
156	0xbaa90ab7	-0.001289687
157	0x3c93f27c	0.018059961
158	0x3d952f14	0.0728437
159	0x3b9129ed	0.004430047
160	0xbd020541	-0.03174329
161	0x3d901f33	0.07037201
162	0x3c955382	0.018228296
163	0x3d68dca1	0.056851033
164	0x3db34a7c	0.08754441
165	0x3b51e959	0.0032029955
166	0xbd018fe6	-0.031631373
167	0x3d68efa3	0.05686916
168	0xbd82e9c1	-0.06392241
169	0x3ccb87ed	0.024845088
170	0x3d40055b	0.046880107
171	0x3d872fcd	0.06600914
172	0x3c5c77c3	0.013456288
173	0x3dc388a8	0.095475495
174	0x3be24dbb	0.006906239
175	0x3cf473e7	0.029840423
176	0x3cbe748c	0.023248933
177	0x3da0ae42	0.07845737
178	0xbcd5da00	-0.026104927
179	0x3d30ffce	0.043212704
180	0x3bb9af24	0.0056666303
181	0x3c844c32	0.016149614
182	0x3cb89f0c	0.022536777
183	0x3dccf4d9	0.100076385
184	0xbeb124d5	-0.34598413
185	0x3dc6bf55	0.097044624
186	0x3dbe59bc	0.09294459
187	0x3c2b5a68	0.010458566
188	0xbd4fc620	-0.050726056
189	0x3d54185d	0.051781047
190	0x3d611681	0.054953102
191	0xbbcd6af7	-0.0062688547
192	0x3df9fc50	0.12206328
193	0xbd893b34	-0.06700745
194	0x3d3707cc	0.04468517
195	0x3d4f163c	0.050558314
196	0x3bddc436	0.006767775
197	0x3e0c1522	0.13679937
198	0xbd0f1c6d	-0.03493922
199	0xbd50a064	-0.05093421
200	0x3d037a93	0.032099318
201	0x3ca1682d	0.019702995
202	0x3bd50e52	0.0065019513
203	0xbb86efcc	-0.0041179415
204	0xbd16be3a	-0.036802508
205	0x3d9bd84c	0.07609615
206	0x3c70ac1d	0.0146894725
207	0x3de4b2bc	0.111669034
208	0xbb165d3d	-0.0022943758
209	0x3d3c2518	0.045933813
210	0xbd13beed	-0.036070753
211	0x3e198e17	0.14995609
212	0x3d7bd082	0.061478145
213	0xbc1a94d9	-0.009434902
214	0x3d3125c9	0.043248925
215	0xbdb26d4a	-0.087122515
216	0x3d76dbbd	0.060268153
217	0x3e029b21	0.1275449
218	0xbd82dd3e	-0.06389855
219	0x3e18fdec	0.14940614
220	0xbcd0fc00	-0.025510788
221	0x3bdc7585	0.0067278766
222	0x3a23b3f5	0.0006244772
223	0x3da64433	0.08118477
224	0x3d149f28	0.036284596
225	0x3d9d057c	0.07667062
226	0x3c7bdf8c	0.015373122
227	0xbdd45eb4	-0.10369626
228	0xbc9bbcff	-0.019011019
229	0x3aeacfc4	0.0017914702
230	0x3d4de8b8	0.050270766
231	0x3d6ffeec	0.05859272
232	0x3cf8735a	0.030328441
233	0x3d8f5009	0.06997687
234	0x3c54ef9a	0.012996579
235	0x3c913902	0.017727379
236	0x3ac0dfa6	0.001471509
237	0x3cef0977	0.029179318
238	0x3d081957	0.03322729
239	0x3e065048	0.13116562
240	0x3c22f315	0.009945651
241	0x3d593719	0.05303106
242	0x3d4d6817	0.050148096
243	0x3c50b795	0.012739082
244	0x3cacd007	0.021095289
245	0x3d3079b1	0.043084804
246	0x3aa58ae2	0.0012629891
247	0x3dbd166b	0.092327915
248	0x3d48c27f	0.04901361
249	0x3cce6d7e	0.025198694
250	0x3db1db9b	0.086844645
251	0x3d99d588	0.07511431
252	0x3d0ba722	0.034094937
253	0xbb554b95	-0.003254627
254	0xbd475d86	-0.048673175
255	0x3d8e2be9	0.06941969

log_std.bias f4 [6]
0	0xbfca4599	-1.580249
1	0xbfd3c47f	-1.6544341
2	0xbfb6316a	-1.423383
3	0xbfecd045	-1.8501059
4	0xbfc73673	-1.5563492
5	0xbf79e06f	-0.97608083
