trained_models/HalfCheetahNormal-v3/sero/critic_4.pt (torch, 582018 bytes, 10 tensors)

Q1.0.weight f4 [256, 23]
-2.0443897 -0.1358837 -0.8538869 -0.40920204 -0.08352626 -1.0632422 -0.1346222 0.604676
-0.1088614 0.2992706 -0.15818022 -0.06781348 0.10892696 -0.03009416 -0.030773407 0.061015688
0.084061444 0.20995969 -0.17626004 0.20174369 -0.74423915 0.028741602 0.21130027 0.09872662
2.7911677 0.22501428 -1.9146763 -0.74885374 0.6449236 0.63596755 0.32307747 -0.030106602
-0.8753044 -0.14174789 0.003341867 -0.055810384 -0.05795589 0.0062957555 -0.0036817056 -0.040035978
-0.3896377 0.11196873 0.06707297 -0.47245377 -0.88783294 -0.27476358 -5.1270943 -1.5556463
-1.8540609 -2.9096074 0.3024275 0.37248322 0.5265292 0.37796316 -0.18426561 -0.13001393
0.28380013 0.15598217 0.07325488 0.055779554 -0.031546336 -0.004585582 -0.020407071 1.3725665
0.89779234 1.4667678 -0.09215701 -0.18643495 0.08907153 0.31258625 0.042019475 -0.2033092
0.2083735 -0.21762228 0.6670218 0.37105784 0.046220347 0.15273048 0.084425375 -0.1727135
0.053647928 0.040305134 -0.021400003 -0.06578134 -0.053185776 -0.037307322 0.048152894 0.0075548706
-0.12679465 -0.10919864 -0.14170343 -0.11071019 5.084508 1.9710838 1.0677232 -0.21568075
-0.3601638 -0.81352603 -0.5389641 -0.37597597 0.0010390417 1.4369411 0.5682788 0.10790789
0.13388671 -0.011855279 0.008537694 -0.031193841 0.008330737 -0.18094324 -0.13229647 -0.27285647
0.044601485 -0.24885122 -0.03852238 -4.7010217 -0.48433563 -0.76890707 -0.945899 -0.02830186
-0.29892573 0.59236085 0.386377 0.36975837 -0.15824965 -0.08791925 0.0014128448 0.02950844
0.0015787629 -0.017234148 0.024473643 0.014069835 0.0752492 0.16891451 0.4741897 -0.077143654
0.29038322 -0.081728905 -4.7968187 -0.94731605 0.6019307 -0.39667055 0.26159045 -3.406954
1.0232811 0.6665583 -0.2827908 0.13055815 0.024876902 -0.009897755 0.0437742 0.010691378
-0.018181877 -0.02139109 -0.017647162 0.07601616 -0.3205892 0.17319492 0.035421774 -0.50822234
0.15333675 1.0567605 -0.4774661 -0.53808033 -1.0957494 0.06898699 1.113815 0.91639596
0.55630934 -1.4034665 0.10574514 0.2925076 0.18784137 0.046336345 0.012935279 0.06513465
0.0845379 -0.016978048 0.15610614 0.39948103 0.14890419 -0.15036972 -0.28152138 -0.24323572
1.2241464 -1.023066 0.1801025 -0.097595915 0.46179813 -0.5616678 0.84665805 0.61098003
0.18577321 -0.36872497 0.011061613 0.018805776 -0.020445578 0.017731031 0.08960372 -0.029222457
-0.08025108 -0.5883561 0.43129244 0.7216581 -0.117486574 -0.051120047 -0.3524072 -0.5419908
1.5682003 0.14985974 -0.14476128 0.2489211 -1.2232919 1.4283432 0.4252247 -0.01457772
0.02741499 -0.18578336 -0.00869086 0.013198446 0.008537163 -0.07803275 -0.04456158 -0.0006068839
-0.07094089 0.514478 0.09909573 -1.0101668 0.03914999 -0.36341482 2.3230848 -1.6665306
0.32849538 1.9309499 -0.6237554 2.0014725 -0.24051829 -1.2085761 -0.36075252 0.31042877
0.123009056 0.15141182 -0.12503777 0.016240742 0.19360226 0.17602816 -0.17446336 -0.7946622
1.201061 0.14726946 0.48573822 -0.26953974 0.013189883 1.4791716 -0.70858896 -0.5853099
00000000: 48d7 02c0 1925 0bbe 5598 5abf ee82 d1be
00000010: d10f abbd 5218 88bf 67da 09be 0ccc 1a3f
00000020: baf2 debd ff39 993e fff9 21be cbe1 8abd
00000030: 1915 df3d 0788 f6bc 8318 fcbc 96eb 793d
00000040: 6828 ac3d acff 563e 837d 34be e695 4e3e
00000050: 7586 3ebf 8273 eb3c 195f 583e 2f31 ca3d
00000060: 7ea2 3240 256a 663e 1d14 f5bf e1b4 3fbf
00000070: b719 253f c5ce 223f 696a a53e 1fa2 f6bc
00000080: f313 60bf 5c26 11be 3903 5b3b 6e99 64bd
00000090: 2863 6dbd a04c ce3b c548 71bb c4fc 23bd
000000a0: 987e c7be dd4f e53d 8e5d 893d 76e5 f1be
000000b0: 0549 63bf d0ad 8cbe 2811 a4c0 6b1f c7bf
000000c0: de51 edbf 0237 3ac0 c7d7 9a3e 1fb6 be3e
000000d0: 9eca 063f 6384 c13e 20b0 3cbe 5f22 05be
000000e0: 404e 913e cab9 1f3e a806 963d 1a79 643d
000000f0: bb36 01bd a642 96bb bb2c a7bc 42b0 af3f
00000100: b8d5 653f 0cbf bb3f d1bc bcbd cee8 3ebe
00000110: 226b b63d 4e0b a03e 9d1c 2c3d 4930 50be
00000120: dd5f 553e 60d8 5ebe f1c1 2a3f 4bfb bd3e
00000130: 8c51 3d3d 6165 1c3e 36e7 ac3d cfdb 30be
00000140: eebd 5b3d ff16 253d 0f4f afbc 5eb8 86bd
00000150: 54d9 59bd 90cf 18bd f83b 453d d98e f73b
00000160: 75d6 01be 89a3 dfbd b41a 11be 06bc e2bd
00000170: 4ab4 a240 794c fc3f 27ab 883f 6adb 5cbe
00000180: 6467 b8be 3e43 50bf 8df9 09bf ec7f c0be
00000190: 7430 883a b0ed b73f b87a 113f d0fe dc3d
000001a0: 9919 093e a53c 42bc afe1 0b3c 3a8a ffbc
000001b0: a57d 083c 2f49 39be ba78 07be d8b3 8bbe
000001c0: 0cb0 363d dbd2 7ebe a5c9 1dbd c56e 96c0
000001d0: d7fa f7be 18d7 44bf 7026 72bf 4dd9 e7bc
000001e0: cb0c 99be f6a4 173f 35d3 c53e f850 bd3e
000001f0: 320c 22be 020f b4bd 342f b93a afbb f13c
00000200: 7eee ce3a a12e 8dbc f37c c83c 2a85 663c
00000210: 411c 9a3d edf7 2c3e fec8 f23e 7efd 9dbd
00000220: 1cad 943e 7c61 a7bd 8a7f 99c0 4e83 72bf
00000230: 2118 1a3f 6718 cbbe 2fef 853e 890b 5ac0
00000240: e0fa 823f 91a3 2a3f f5c9 90be 09b1 053e
00000250: a5ca cb3c 322a 22bc 934c 333d e42a 2f3c
00000260: 29f2 94bc 5e3c afbc c890 90bc 5cae 9b3d
00000270: 4524 a4be 025a 313e 6c16 113d dc1a 02bf
00000280: 4f04 1d3e ee43 873f 7076 f4be a2bf 09bf
00000290: 8441 8cbf 0d49 8d3d 7d91 8e3f ed98 6a3f
000002a0: 4a6a 0e3f caa4 b3bf e890 d83d 8ec3 953e
000002b0: 7d59 403e 2ecb 3d3d 7eee 533c 5165 853d
000002c0: 3522 ad3d 8c15 8bbc 4ada 1f3e c788 cc3e
000002d0: 577a 183e 85fa 19be 9223 90be c912 79be
000002e0: d4b0 9c3f d4f3 82bf ca6c 383e 5ee0 c7bd
000002f0: ce70 ec3e 76c9 0fbf 95be 583f 3069 1c3f
00000300: 553b 3e3e 85c9 bcbe c53b 353c 920e 9a3c
00000310: 7c7d a7bc ab40 913c 2882 b73d ef63 efbc
00000320: ae5a a4bd 819e 16bf 5dd2 dc3e 96be 383f
00000330: cd9c f0bd 4163 51bd b76e b4be e9bf 0abf
00000340: caba c83f d574 193e 4d3c 14be 2ce5 7e3e
00000350: d494 9cbf f3d3 b63f 0db7 d93e 64d7 6ebc
00000360: 6795 e03c fe3d 3ebe 1c64 0ebc 4b3e 583c
00000370: 75df 0b3c a2cf 9fbd 3486 36bd 4a17 1fba
00000380: 7549 91bd d5b4 033f b4f2 ca3d 254d 81bf
00000390: bd5b 203d 8211 babe 6cad 1440 e050 d5bf
000003a0: 8c30 a83e 5e29 f73f 6fae 1fbf 2018 0040
000003b0: 6d4a 76be 9fb2 9abf 8eb4 b8be 85f0 9e3e
000003c0: 2cec fb3d b30b 1b3e e709 00be 4e0b 853c
000003d0: ac3f 463e ba40 343e 86a6 32be fb6e 4bbf
000003e0: 5ebc 993f cecd 163e aeb2 f83e 1d01 8abe
000003f0: 611a 583c 7f55 bd3f 1666 35bf dfd6 15bf

Q1.0.bias f4 [256]
0.946044 -1.5358984 -2.0654595 1.6994328 -0.78474486 -1.959643 0.9352503 2.043776
-0.78892255 0.6860885 -0.4487168 0.21972603 -1.0897723 -1.1618015 1.4268875 -0.59894097
-0.048739765 1.0019201 0.7584418 0.6085864 0.60794556 2.1088424 1.7751218 -1.1393813
0.4696224 -1.2578192 1.4051701 -0.864438 -1.3001173 0.6819959 -0.03343175 0.20413211
0.93307066 -0.8477235 0.00723369 -0.246529 -1.6447903 -0.8075584 1.4366903 -1.7294146
-0.9766846 -0.69193333 1.0799253 -1.0894825 -0.3897328 -0.636561 0.296903 0.460964
1.1398342 1.7242296 -1.0488017 0.58021533 -1.1263963 1.3262675 -1.2554499 -1.2080745
-1.1316358 0.16064727 0.26244825 -1.6890728 1.6390594 0.04245111 0.3281571 -1.3008361
-0.19961825 -0.24847722 1.6172938 -0.81857353 -0.86324364 -0.8555717 1.6287936 -1.4378258
1.7914147 1.2884057 -0.97525173 -0.3133293 -1.8254632 -0.7506023 -2.4813485 -0.6987931
0.93854696 1.0852628 -0.97740704 0.379196 -1.2173822 -0.062050402 -1.4687957 -1.0375156
1.4979991 0.50178707 0.18955342 0.8456968 1.1448689 -0.87626636 0.9070851 -1.2860886
-0.5605407 -0.13507676 -1.471882 1.3862457 -0.7633061 -0.20996061 1.0008227 0.9016094
0.6988869 -0.46295935 0.49891305 0.34527183 -0.9277958 -0.1494955 -2.1056182 -0.35303402
-0.54039866 1.7646753 -0.43461168 0.5660296 -1.0160666 1.5311515 -1.4797785 -1.6643461
1.04909 0.025187211 0.5131756 -1.0339473 -1.7119865 -1.6987339 -2.2370214 -0.50756633
-1.8862039 -0.14467505 2.0934067 -1.6050678 -1.555925 -1.1911342 0.6515966 -1.9894475
-2.1012597 -0.74391437 -0.7362939 0.7592378 -1.7529824 -0.60087323 1.946099 1.2703462
-0.32825658 -1.848856 0.36835846 0.31357548 -1.3382365 0.8882792 -0.58566815 0.61758995
0.6810124 -1.4079462 0.98830736 0.31671655 -1.2307874 1.1215242 -0.83542466 1.8613646
0.8336869 1.3440522 1.45004 -1.4235462 1.567173 1.4377011 -0.60155904 0.494955
1.3218284 -0.83437735 -0.01666763 -0.29540446 1.570685 -0.6222409 -0.018033693 1.3709959
0.9042256 0.5667732 0.9272819 0.14947201 -0.6865225 0.07901147 -1.3494183 0.79861337
0.48961145 0.54267824 -0.70902526 -1.1348673 0.635175 0.67696255 -1.3812273 0.54813737
1.5614864 1.4261502 -1.3536154 1.2978619 1.5184214 -0.23637912 0.45702887 -2.0161443
-1.0028292 1.6782612 -0.14380133 -1.3023436 -1.6844571 -1.3498365 -0.8164523 -1.504094
1.2025006 -1.5178978 1.1323502 -1.8121185 0.77674997 -1.0682131 -0.36673123 -0.35482088
0.020922324 1.5683057 -0.1938834 -0.6406634 2.2153585 -2.3630667 -0.7587618 1.6210058
1.3906711 -0.22281377 -1.1714654 -1.5614189 0.81050014 0.69547695 -1.1404064 0.4624952
1.8256245 1.4067562 2.0341704 -1.4345986 -0.80236685 -0.7149479 -1.1436962 1.1108876
1.5503104 1.3105373 -0.61742854 -1.1666865 -0.41990232 -0.58935595 1.5627455 1.6779736
-0.8400152 -1.5072055 1.0108881 -0.8891464 -0.83513147 -0.27664128 -1.1395407 -1.5976626
00000000: f12f 723f 5298 c4bf 7d30 04c0 0487 d93f
00000010: 0ae5 48bf 95d5 fabf 906c 6f3f 3acd 0240
00000020: d4f6 49bf 7fa3 2f3f 35be e5be dcff 603e
00000030: a97d 8bbf e9b5 94bf 40a4 b63f 3254 19bf
00000040: 59a3 47bd eb3e 803f 3e29 423f 51cc 1b3f
00000050: 52a2 1b3f 46f7 0640 3137 e33f 3fd7 91bf
00000060: 5972 f03e 3800 a1bf 9ddc b33f cf4b 5dbf
00000070: 3e6a a6bf 4997 2e3f bbef 08bd 0208 513e
00000080: b8dd 6e3f 6804 59bf 9708 ed3b 1972 7cbe
00000090: 7d88 d2bf 26bc 4ebf 78e5 b73f 755d ddbf
000000a0: 0008 7abf 8b22 31bf fe3a 8a3f 2a74 8bbf
000000b0: 0f8b c7be a9f5 22bf ac03 983e 7903 ec3e
000000c0: 16e6 913f 8eb3 dc3f 223f 86bf fe88 143f
000000d0: c12d 90bf 22c3 a93f 95b2 a0bf 2fa2 9abf
000000e0: 71d9 90bf b880 243e 9e5f 863e 8a33 d8bf
000000f0: b3cc d13f 37e1 2d3d 3504 a83e cc81 a6bf
00000100: ba68 4cbe d070 7ebe 7c03 cf3f 098e 51bf
00000110: 89fd 5cbf bf06 5bbf 4f7c d03f ad0a b8bf
00000120: 144d e53f 7aea a43f 19aa 79bf b36c a0be
00000130: c7a8 e9bf 7927 40bf 6ace 1ec0 1be4 32bf
00000140: 9d44 703f e4e9 8a3f 5937 7abf fa25 c23e
00000150: 2ed3 9bbf 9028 7ebd 7f01 bcbf 50cd 84bf
00000160: 6fbe bf3f 1e75 003f 4b1a 423e 967f 583f
00000170: 108b 923f fe52 60bf bb36 683f 8d9e a4bf
00000180: 987f 0fbf 9051 0abe a166 bcbf 8070 b13f
00000190: 0768 43bf eaff 56be f51a 803f e0cf 663f
000001a0: 40ea 323f 0209 edbe 8871 ff3e 78c7 b03e
000001b0: 0784 6dbf 5915 19be 73c2 06c0 e0c0 b4be
000001c0: 9157 0abf e1e0 e13f 6c85 debe 51e7 103f
000001d0: 780e 82bf c6fc c33f 6269 bdbf 4b09 d5bf
000001e0: 9548 863f 6955 ce3c 7a5f 033f 6358 84bf
000001f0: 6022 dbbf 1d70 d9bf 5c2b 0fc0 deef 01bf
00000200: 216f f1bf b225 14be 60fa 0540 dd72 cdbf
00000210: 8d28 c7bf 1677 98bf 09cf 263f 37a6 febf
00000220: 0a7b 06c0 2c71 3ebf c27d 3cbf 695d 423f
00000230: ba61 e0bf d4d2 19bf c619 f93f b49a a23f
00000240: 3f11 a8be 50a7 ecbf 7b99 bc3e f78c a03e
00000250: 554b abbf 4466 633f 59ee 15bf 601a 1e3f
00000260: d456 2e3f 9537 b4bf b601 7d3f ac28 a23e
00000270: 718a 9dbf 1b8e 8f3f 64de 55bf 3241 ee3f
00000280: 816c 553f e709 ac3f e99a b93f c336 b6bf
00000290: 2099 c83f 9706 b83f c6ff 19bf be6a fd3e
000002a0: ac31 a93f c199 55bf 8e8a 88bc 413f 97be
000002b0: 350c c93f 2e4b 1fbf 65bb 93bc cb7c af3f
000002c0: 547b 673f 0c18 113f 5962 6d3f 310f 193e
000002d0: f0bf 2fbf c4d0 a13d bdb9 acbf ed71 4c3f
000002e0: 5aae fa3e f6ec 0a3f ae82 35bf 5543 91bf
000002f0: d49a 223f 6b4d 2d3f 0ecc b0bf bb52 0c3f
00000300: c9de c73f 178c b63f 4543 adbf 5720 a63f
00000310: a25b c23f 5e0d 72be b0ff e93e 8208 01c0
00000320: b55c 80bf 43d1 d63f a840 13be 32b3 a6bf
00000330: 4a9c d7bf 71c7 acbf 0503 51bf 2786 c0bf
00000340: 8aeb 993f 7a4a c2bf daf0 903f 80f3 e7bf
00000350: 16d9 463f 35bb 88bf 32c4 bbbe 15ab b5be
00000360: 4b65 ab3c 3ebe c83f 5f89 46be 8402 24bf
00000370: 6fc8 0d40 7c3c 17c0 373e 42bf 1e7d cf3f
00000380: 8301 b23f 4b29 64be 94f2 95bf 93dc c7bf
00000390: f07c 4f3f c70a 323f d6f8 91bf 2ccc ec3e
000003a0: 10ae e93f 9610 b43f d92f 0240 eda0 b7bf
000003b0: ea67 4dbf d306 37bf a364 92bf 9131 8e3f
000003c0: 9270 c63f b0bf a73f cc0f 1ebf fc55 95bf
000003d0: 70fd d6be 08e0 16bf 0b08 c83f d7c7 d63f
000003e0: 3c0b 57bf 1cec c0bf c864 813f 199f 63bf
000003f0: 2dcb 55bf eda3 8dbe 78dc 91bf 3580 ccbf

Q1.2.weight f4 [256, 256]
0.23431611 0.36123797 0.5978774 0.041383374 -0.1860293 0.091640525 0.31477588 0.7517573
0.29516375 -0.057089124 -0.14060137 -0.025248455 0.23471475 -7.819984e-05 0.02689461 0.1326857
0.25298843 0.19805858 0.10795373 0.0010042543 -0.5100927 0.07674646 -0.095943846 0.33170083
0.099189565 0.29147545 0.08247743 0.18060718 -0.0077752457 0.08879675 0.17137255 -0.036217853
0.056281988 -0.1363404 0.001460317 -0.15591681 0.13433373 -0.1594677 0.14807023 -0.15613978
-0.25726926 -0.22607088 0.12195032 0.03461496 -0.20932889 -0.048212014 0.28540224 -0.43447807
-0.037365545 0.07669323 -0.33991867 -0.33915257 0.6886176 -0.14139436 -0.100278445 0.47032696
0.6740399 -0.019623375 0.13188276 -0.58439946 0.0033320016 0.1639811 -0.1525804 0.123201616
0.25954533 -0.10386326 0.08660936 0.18545964 0.12567595 0.087995574 0.20712844 0.033464924
-0.039018713 0.026928106 -0.05404077 0.13111459 -0.02669139 0.06862699 -0.4476648 0.32747233
0.111178875 0.0960695 -0.06417603 0.062233586 -0.05552398 0.0017830756 0.007423964 -0.58962643
0.10854389 0.07382293 -0.036213536 0.039264213 -0.15095823 -0.0438828 0.008537624 0.471104
0.067510374 0.01589417 0.06886485 0.14302163 0.26288047 0.19508366 0.11994829 0.10824943
-0.09381275 0.3070825 -0.015971443 -0.016302563 0.102628976 0.5406476 0.30710858 0.09686273
-0.032945767 -0.35695404 0.40517887 0.049058568 -0.103506416 -0.13327563 -0.2172414 -0.17265534
0.060633022 -0.57603896 0.46052346 -0.044117544 -0.055532735 -0.78348494 -0.5259026 -0.2117999
-0.19553201 0.1284247 -0.2288286 0.26530692 0.3196761 -0.21805915 0.25445208 0.029078119
0.1467781 -0.028304216 0.3633614 0.26112014 0.09280171 -0.04940738 0.42942458 -0.28843707
0.22741494 0.18640266 0.070821404 -0.15710154 -0.44094986 0.19445954 0.21542467 -0.03207744
-0.15970626 -0.0010719963 0.22424918 -0.03715535 -0.17775792 -0.091059946 0.1776252 -0.15741201
-0.14293484 -0.121645115 -0.08661365 -0.125637 -0.26601708 -0.07202203 0.1658969 -0.012301798
-0.16506153 -0.13877797 0.058367822 0.6908036 0.11741562 0.28352037 -0.047379564 0.06257447
-0.14868815 -0.0427951 0.093919605 -0.12398228 -0.059458103 0.26027542 0.32533973 -0.37876284
-0.20274824 0.27341542 -0.112308614 -0.4992424 -0.0012052082 0.16034475 -0.22307268 0.072415106
-0.17987995 -0.015926939 -0.4350297 0.22189973 -0.15949461 -0.020265814 -0.047570568 -0.12396185
0.06078655 -0.15743174 -0.34777167 -0.24116583 -0.41754785 0.2904388 -0.8619911 -0.17502022
-0.05344031 0.0780567 -0.24252608 0.19915439 -0.10688865 0.035543147 0.3156463 -0.08747219
0.15729262 0.2865063 0.14204536 0.063976035 -0.3358445 0.20239207 -0.35238314 -0.016995743
-0.0619598 -0.12223399 0.38923848 -0.43702394 -0.07186176 0.17562698 -0.05287881 0.22988667
-0.012050963 0.18110502 -0.18350106 0.22276448 0.085998505 0.38565618 -0.19624935 -0.11671319
0.2147227 -0.10736791 -0.11771865 -0.0011104414 0.13042712 -0.26139694 0.024450455 -0.05406968
-0.07130953 0.33567142 0.20848337 0.09255093 -0.014454866 0.02080774 0.40234926 -0.18492672
00000000: 90f0 6f3e 2ff4 b83e 7e0e 193f 9d81 293d
00000010: 777e 3ebe 07ae bb3d 4e2a a13e 2b73 403f
00000020: b41f 973e 49d6 69bd cef9 0fbe d9d5 cebc
00000030: 1059 703e 38ff a3b8 1652 dc3c c3de 073e
00000040: b387 813e decf 4a3e d816 dd3d 2fa1 833a
00000050: 6f95 02bf 3f2d 9d3d 357e c4bd b1d4 a93e
00000060: e623 cb3d 453c 953e ede9 a83d 17f1 383e
00000070: 7dc7 febb 12db b53d 497c 2f3e 2c59 14bd
00000080: f187 663d d19c 0bbe 1c68 bf3a a8a8 1fbe
00000090: c88e 093e 804b 23be b99f 173e 1be3 1fbe
000000a0: ccb8 83be 207f 67be 17c1 f93d 6bc8 0d3d
000000b0: 505a 56be f679 45bd 3e20 923e e973 debe
000000c0: 9d0c 19bd 5711 9d3d d209 aebe 68a5 adbe
000000d0: 3e49 303f afc9 10be c95e cdbd b2ce f03e
000000e0: e18d 2c3f 33c1 a0bc 460c 073e 349b 15bf
000000f0: b65d 5a3b a9ea 273e 093e 1cbe 2151 fc3d
00000100: 20e3 843e 43b6 d4bd 4060 b13d 22e9 3d3e
00000110: 32b1 003e 0637 b43d 7a19 543e 8412 093d
00000120: 16d2 1fbd 5598 dc3c db59 5dbd e742 063e
00000130: e7a7 dabc 4f8c 8c3d 5234 e5be 74aa a73e
00000140: c0b1 e33d 16c0 c43d b96e 83bd a5e8 7e3d
00000150: 1d6d 63bd 17b6 e93a b944 f33b c2f1 16bf
00000160: 424c de3d 7a30 973d a554 14bd 83d3 203d
00000170: cb94 1abe 73be 33bd 64e1 0b3c 8b34 f13e
00000180: e142 8a3d 7e34 823c 0409 8d3d 4374 123e
00000190: 4598 863e 03c4 473e 73a7 f53d e1b1 dd3d
000001a0: e620 c0bd eb39 9d3e 8bd6 82bc f48c 85bc
000001b0: 242f d23d e267 0a3f 563d 9d3e f85f c63d
000001c0: 24f2 06bd aec2 b6be 9b73 cf3e a3f1 483d
000001d0: 2cfb d3bd 6879 08be 8874 5ebe 90cc 30be
000001e0: 555a 783d 4a77 13bf bbc9 eb3e 99b4 34bd
000001f0: 4b76 63bd 7892 48bf 8ea1 06bf 13e2 58be
00000200: 8b39 48be c481 033e 0b52 6abe 4fd6 873e
00000210: 96ac a33e e64a 5fbe 8b47 823e 3c35 ee3c
00000220: 004d 163e 3ede e7bc 810a ba3e 8ab1 853e
00000230: d30e be3d 655f 4abd 8add db3e 06ae 93be
00000240: 76df 683e 57e0 3e3e d00a 913d 3adf 20be
00000250: 2ec4 e1be 6720 473e 4998 5c3e a263 03bd
00000260: 0a8a 23be 3a82 8cba 94a1 653e 3530 18bd
00000270: 2c06 36be a37d babd 61e3 353e 9d30 21be
00000280: 835d 12be 1321 f9bd 7f62 b1bd fca6 00be
00000290: 6433 88be 4980 93bd e1e0 293e 7b8d 49bc
000002a0: e405 29be d01b 0ebe 1913 6f3d 81d8 303f
000002b0: 9a77 f03d 9529 913e 1311 42bd 0b27 803d
000002c0: b541 18be ea49 2fbd ec58 c03d 6cea fdbd
000002d0: 578a 73bd d242 853e ee92 a63e 34ed c1be
000002e0: 3c9d 4fbe 1bfd 8b3e 0f02 e6bd b39c ffbe
000002f0: 14f8 9dba 6a31 243e 2a6d 64be 5f4e 943d
00000300: 7332 38be 3679 82bc 36bc debe af39 633e
00000310: 8e52 23be 7e04 a6bc 5bd9 42bd b6df fdbd
00000320: 51fb 783d c935 21be 210f b2be 2df4 76be
00000330: d5c8 d5be 65b4 943e 73ab 5cbf 8038 33be
00000340: 3ae4 5abd 31dc 9f3d c258 78be 21ef 4b3e
00000350: 70e8 dabd b195 113d 649c a13e 9f24 b3bd
00000360: 5111 213e f4b0 923e 5774 113e de05 833d
00000370: cff3 abbe de3f 4f3e 906b b4be a83a 8bbc
00000380: 8fc9 7dbd d055 fabd 444a c73e 9ac1 dfbe
00000390: 422c 93bd 8fd7 333e 7397 58bd 6967 6b3e
000003a0: 6771 45bc 9873 393e b4e7 3bbe 5f1c 643e
000003b0: fc1f b03d ba74 c53e 97f5 48be 5307 efbd
000003c0: 44e0 5b3e b5e3 dbbd 7a16 f1bd 3b8c 91ba
000003d0: b08e 053e d2d5 85be 524c c83c 2b78 5dbd
000003e0: bb0a 92bd 20dd ab3e aa7c 553e 588b bd3d
000003f0: 1ad4 6cbc fe74 aa3c b900 ce3e 6e5d 3dbe

Q1.2.bias f4 [256]
-1.6014526 -0.8954468 -1.5151387 -1.7798413 0.0024680053 -1.5666349 -1.5336477 -1.6170841
-1.3768345 2.2308505 -1.0990739 2.1128907 2.090929 -1.3815289 1.6719357 -1.8036945
-1.462022 -1.5352427 -0.59327066 1.7078766 2.0247335 -1.5761441 2.240583 1.6675249
2.1759586 -1.3275511 -0.9989188 2.2097623 2.1693237 2.1831636 2.0568264 2.172655
-1.3323569 2.2278926 -1.2481779 -1.3322197 1.9798287 -1.1720995 0.8299628 -1.5487782
-0.83689344 -0.97821075 1.969802 2.1264575 2.0211122 2.1968582 2.2374165 -1.2528182
-1.1446455 -1.2096254 2.0810714 2.1350965 -1.1173071 -1.4550748 -1.2483493 1.3709878
1.9572667 2.0538218 -1.241175 -1.0607184 -1.5506734 2.1201918 2.0518944 2.2326524
-1.5729645 -1.7429317 -1.0452137 1.9540561 2.2460496 2.214214 -1.790751 -0.14299722
-1.5771241 1.9742069 -1.3454512 2.0006373 -1.8406032 2.1454694 2.1720903 1.5528948
-1.6658751 1.981331 -1.5353048 2.1671574 -1.4012533 -1.1184955 -1.222412 2.029528
-0.5431758 -1.4857665 -1.4818927 1.6356481 2.1919487 -1.496187 -1.5391482 2.0628705
-1.8525285 -1.348392 -1.2454259 -0.01497344 -0.9957064 -1.9496044 1.9647257 -0.048568815
-1.6084883 2.0527852 2.1763823 -1.4117913 2.1062388 1.9513018 -0.71623904 0.022492612
-0.8940547 -1.1347991 -1.2347167 -0.4021529 -1.7603979 2.116054 -0.9261696 2.1632237
2.107222 2.2058902 1.9824244 -1.5024471 1.7509677 -1.2759274 -1.3014728 1.9075801
2.00754 1.7482973 -1.3397261 -1.4325411 1.9131664 -0.6080993 -0.785289 2.123146
2.1335366 2.1672728 2.1328046 2.2072122 0.7573433 -1.4826545 -1.4028214 -0.2755587
-1.1965971 -1.2330202 2.0667355 -1.2592671 -1.7144094 2.0987344 -1.3184322 1.8808626
-1.216542 1.9192686 2.211754 -1.0689359 1.3973811 -0.7548999 -1.345029 -0.31372625
1.899142 -1.0959116 1.989682 2.0530884 1.9613374 -1.2986602 1.7991523 2.0906758
1.4325182 2.243171 -1.774185 2.1319618 -1.0618024 -1.4783713 1.7463069 2.0596228
2.1602035 -1.4562523 -1.5598797 1.7104473 1.9520094 -1.6285696 -1.1991007 2.0587692
-1.7912625 1.9768369 -1.4378188 2.141953 -1.6399869 -0.71634704 -1.2624116 -0.97054267
-1.3313445 2.194333 -1.1462051 -1.2712598 -1.145494 -0.058863904 1.29362 -1.702166
2.1707666 2.1192663 2.1812706 -1.3636223 -1.5160896 1.314785 -0.9150934 1.6746968
-1.688666 2.0725968 -1.3994058 2.1669214 -1.3482538 -2.124839 -1.5078801 1.8742553
-1.2409463 -1.5902978 -1.7436992 1.7595224 1.9950752 1.9299073 2.18138 -1.3873614
1.8764403 2.1929839 -1.4848655 1.9804848 1.7652091 -1.8853636 -1.0777937 2.1190217
2.2459018 2.1592968 -1.3142391 -1.4174471 -1.4541849 1.9341526 -1.3401599 -1.3344611
1.92879 -1.7483283 -1.6913909 -1.7476529 -1.3233832 -1.5468054 0.03205623 -1.8453422
2.1904016 -1.3913862 2.1542475 -1.1922041 1.9871602 -1.3942654 -1.6102871 -1.2546737
00000000: 66fc ccbf 003c 65bf 11f0 c1bf d7d1 e3bf
00000010: 42be 213b 7e87 c8bf 914e c4bf 9dfc cebf
00000020: 1d3c b0bf 41c6 0e40 74ae 8cbf 9a39 0740
00000030: c8d1 0540 f0d5 b0bf fd01 d63f 76df e6bf
00000040: 8923 bbbf d582 c4bf 96e0 17bf b39b da3f
00000050: 3c95 0140 17bf c9bf b665 0f40 7571 d53f
00000060: e842 0b40 32ed a9bf 24b9 7fbf bf6c 0d40
00000070: 33d6 0a40 f4b8 0b40 0ba3 0340 c80c 0b40
00000080: ac8a aabf cb95 0e40 4bc4 9fbf 2d86 aabf
00000090: 076b fd3f 5b07 96bf 7178 543f 5d3e c6bf
000000a0: a63e 56bf 056c 7abf 7922 fc3f e117 0840
000000b0: e759 0140 5399 0c40 d531 0f40 595c a0bf
000000c0: be83 92bf 01d5 9abf 4630 0540 6ca5 0840
000000d0: eb03 8fbf e43f babf e9c9 9fbf 877c af3f
000000e0: b787 fa3f d171 0340 d3de 9ebf 9fc5 87bf
000000f0: 777c c6bf 39b1 0740 3d52 0340 c7e3 0e40
00000100: e756 c9bf 6318 dfbf 90c9 85bf 831e fa3f
00000110: 47bf 0f40 afb5 0d40 5437 e5bf dd6d 12be
00000120: 34df c9bf d0b2 fc3f bf37 acbf 710a 0040
00000130: e398 ebbf 5f4f 0940 8703 0b40 42c5 c63f
00000140: 653b d5bf 419c fd3f de84 c4bf b5b2 0a40
00000150: 455c b3bf dc2a 8fbf ff77 9cbf c9e3 0140
00000160: 920d 0bbf 992d bebf a9ae bdbf eb5c d13f
00000170: e348 0c40 0e83 bfbf cf02 c5bf 1206 0440
00000180: a71f edbf 1c98 acbf 1e6a 9fbf 2953 75bc
00000190: 9de6 7ebf a38c f9bf 227c fb3f 18f0 46bd
000001a0: f2e2 cdbf d560 0340 d949 0b40 94b5 b4bf
000001b0: 9ecc 0640 42c4 f93f 715b 37bf 6d42 b83c
000001c0: c5e0 64bf 1941 91bf 320b 9ebf fce6 cdbe
000001d0: b854 e1bf 6e6d 0740 7319 6dbf 4272 0a40
000001e0: badc 0640 4e2d 0d40 15c0 fd3f 3050 c0bf
000001f0: b61f e03f 9751 a3bf a996 a6bf 962b f43f
00000200: 897b 0040 35c8 df3f 257c abbf 825d b7bf
00000210: a3e2 f43f 65ac 1bbf b308 49bf a0e1 0740
00000220: dd8b 0840 99b4 0a40 df7f 0840 f742 0d40
00000230: 40e1 413f 9fc7 bdbf a78f b3bf 0816 8dbe
00000240: 182a 99bf 9bd3 9dbf 6545 0440 aa2f a1bf
00000250: c471 dbbf aa51 0640 63c2 a8bf 1bc0 f03f
00000260: a6b7 9bbf 98aa f53f 618d 0d40 e4d2 88bf
00000270: 62dd b23f 1f41 41bf e929 acbf baa0 a0be
00000280: 1617 f33f d546 8cbf e6ad fe3f cd65 0340
00000290: 1b0d fb3f 7f3a a6bf 9f4a e63f a2cd 0540
000002a0: c25c b73f 1d90 0f40 7e18 e3bf 1072 0840
000002b0: 24e9 87bf 453b bdbf fc86 df3f dcd0 0340
000002c0: c640 0a40 7a66 babf 23aa c7bf f0ef da3f
000002d0: 72db f93f f874 d0bf 227c 99bf e0c2 0340
000002e0: 1748 e5bf fe08 fd3f 720a b8bf c215 0940
000002f0: 17eb d1bf 8562 37bf b496 a1bf 7c75 78bf
00000300: 7f69 aabf f46f 0c40 d9b6 92bf a4b8 a2bf
00000310: 8c9f 92bf 471b 71bd 5795 a53f 93e0 d9bf
00000320: d7ed 0a40 0fa2 0740 f099 0b40 2d8b aebf
00000330: 390f c2bf e04a a83f 9043 6abf 775c d63f
00000340: 3526 d8bf 6da5 0440 bb1f b3bf d7ae 0a40
00000350: 9593 acbf 5dfd 07c0 3702 c1bf 99e7 ef3f
00000360: 54d7 9ebf e18e cbbf 8931 dfbf 0838 e13f
00000370: a05e ff3f 3407 f73f bb9b 0b40 0f95 b1bf
00000380: 322f f03f d959 0c40 1310 bebf 8780 fd3f
00000390: 5ff2 e13f 9853 f1bf 25f5 89bf 0d9e 0740
000003a0: dbbc 0f40 eb31 0a40 fd38 a8bf e86e b5bf
000003b0: bb22 babf 5092 f73f 5c8a abbf 9fcf aabf
000003c0: 97e2 f63f 39c9 dfbf 7f7f d8bf 17b3 dfbf
000003d0: 9f64 a9bf b8fd c5bf 654d 033d 2c34 ecbf
000003e0: 8a2f 0c40 f118 b2bf 31df 0940 259a 98bf
000003f0: 445b fe3f 4a77 b2bf e31d cebf 2699 a0bf

Q1.4.weight f4 [1, 256]
-0.53680056 -11.895369 -1.4461298 -1.3032345 0.028397141 -0.58727115 -0.76540583 -0.9287504
-0.9386175 0.30166447 -1.0122894 0.30687425 0.24157926 -0.80556947 1.2150235 -0.52234423
-0.797074 -0.57124245 -1.6187322 1.1405308 0.36291906 -0.6232932 0.2827192 0.4210022
0.25736383 -0.8203589 -5.8553395 0.24419256 0.2711174 0.24906884 0.32333136 0.27118868
-0.62382823 0.28680015 -3.3325357 -0.81848335 0.31358364 -2.2206552 2.4837341 -1.2827082
-5.612299 -2.8386602 0.6506712 0.2628447 0.42659673 0.2570765 0.26015306 -1.0487086
-2.7145293 -2.015808 0.43693042 0.511303 -0.7887169 -1.313334 -1.3461001 0.76232564
0.5164981 0.34721434 -1.3461021 -6.4337935 -0.6839225 0.35060272 0.31716937 0.2354167
-1.6369196 -0.59471714 -1.1545129 0.36559135 0.24994823 0.24627055 -0.70096076 -10.016452
-0.8323235 0.82366896 -2.1563952 0.52259797 -0.6208281 0.25277022 0.29973248 3.9663427
-0.56963146 0.2984175 -0.65535283 0.280437 -2.805025 -1.0869421 -1.0607656 0.2884353
-10.201218 -1.139966 -0.78175443 0.9730079 0.2551408 -1.9199746 -0.875666 0.24180539
-0.9500998 -1.1626264 -1.0237583 -0.036290128 -1.1976668 -1.2302502 0.37995583 -0.044883985
-0.52154034 0.27399367 0.28003016 -1.0984535 0.2535837 0.5171404 -3.5489507 0.006953741
-0.96429473 -1.4882947 -0.84014785 -4.4889517 -1.0698011 0.24971092 -6.229231 0.2612644
0.37063944 0.26664078 0.3853895 -2.6698895 0.46030393 -0.99169743 -1.0784575 0.5603651
0.24361078 1.2523879 -0.9128769 -0.57854795 0.60234106 -7.594165 -10.58957 0.3162019
0.7707115 0.25092256 0.33429354 0.57202923 1.7805085 -0.54699147 -0.7814456 -12.369045
-1.3146927 -2.2639468 0.19876125 -1.6832749 -0.7790639 0.3174357 -0.75574493 1.1713781
-0.71722835 0.5764988 0.2658572 -4.9795966 2.7602608 -1.2307326 -0.8052321 -10.391449
0.2607598 -0.62004834 0.46891692 0.43336532 0.28509274 -0.7436537 0.8219145 0.46388826
1.8119235 0.29582688 -0.7351121 0.25961176 -4.9309325 -0.843519 1.5786899 0.25566474
0.2748737 -1.9156001 -0.9431095 0.52329266 0.5947428 -0.8375886 -3.272162 0.3881725
-0.5694041 0.42797616 -0.5291267 0.22473572 -0.7469494 -4.029495 -0.79127717 -5.0173306
-3.1306398 0.24989131 -2.1316538 -0.7378979 -8.936144 0.019640233 1.0529114 -0.9663055
0.29141808 0.2480255 0.29069588 -0.78855586 -0.9398895 1.7384373 -1.6835816 0.96124214
-0.697429 0.41856942 -0.60870194 0.2622392 -2.8800616 -1.7165153 -0.56384903 0.43351585
-1.9743944 -1.0026563 -1.0735632 0.7769761 0.5056545 0.8254273 0.24619485 -1.7624476
0.4506504 0.23359512 -0.97898585 0.35694548 0.7572264 -0.4621297 -3.7289906 0.67486995
0.2908752 0.24475713 -1.08247 -0.60330296 -0.4825916 0.30818263 -1.505574 -0.64981633
1.0801775 -0.6991453 -0.5042022 -0.65299356 -0.6172195 -0.7630378 -0.009006425 -0.956623
0.33788747 -2.5830388 0.23247278 -2.4979126 0.22858797 -0.5257618 -0.63247114 -1.4907346
00000000: c36b 09bf 6e53 3ec1 c81a b9bf 63d0 a6bf
00000010: 1fa1 e83c 6757 16bf a3f1 43bf 96c2 6dbf
00000020: 3d49 70bf c473 9a3e b392 81bf 9f1e 9d3e
00000030: 8e60 773e cd39 4ebf e485 9b3f 5ab8 05bf
00000040: 0b0d 4cbf f23c 12bf 9e32 cfbf eafc 913f
00000050: 87d0 b93e 2590 1fbf 92c0 903e 9a8d d73e
00000060: 31c5 833e 0a03 52bf f15e bbc0 9d0d 7a3e
00000070: e6cf 8a3e e70b 7f3e b08b a53e 3ed9 8a3e
00000080: 35b3 1fbf 78d7 923e 4448 55c0 2088 51bf
00000090: 098e a03e 371f 0ec0 80f5 1e40 c82f a4bf
000000a0: f497 b3c0 9cac 35c0 6392 263f 9593 863e
000000b0: e36a da3e 889f 833e c832 853e 153c 86bf
000000c0: d9ba 2dc0 0003 01c0 58b5 df3e c1e4 023f
000000d0: 5ae9 49bf 541b a8bf 024d acbf c627 433f
000000e0: 3839 043f 14c6 b13e 134d acbf a3e1 cdc0
000000f0: 8c15 2fbf 3382 b33e 0664 a23e 1311 713e
00000100: 9586 d1bf 623f 18bf 14c7 93bf ca2e bb3e
00000110: 6ef2 7f3e 592e 7c3e 2a72 33bf 6343 20c1
00000120: 2713 55bf f8db 523f 6102 0ac0 fbc8 053f
00000130: 97ee 1ebf 196b 813e 8976 993e 8fd8 7d40
00000140: 5ed3 11bf 2eca 983e 34c5 27bf 7095 8f3e
00000150: 8885 33c0 eb20 8bbf 2bc7 87bf cbad 933e
00000160: 3038 23c1 68ea 91bf 0f21 48bf 0c17 793f
00000170: d1a1 823e bac1 f5bf a62b 60bf d59b 773e
00000180: be39 73bf f1d0 94bf 830a 83bf f5a4 14bd
00000190: 254d 99bf d778 9dbf 9289 c23e 45d8 37bd
000001a0: ab83 05bf e648 8c3e 1d60 8f3e 209a 8cbf
000001b0: b9d5 813e 5063 043f 0222 63c0 35dc e33b
000001c0: 05dc 76bf 7180 bebf ee13 57bf 7ea5 8fc0
000001d0: 3eef 88bf 38b4 7f3e dc55 c7c0 73c4 853e
000001e0: 74c4 bd3e 2485 883e c651 c53e 78df 2ac0
000001f0: f5ac eb3e e2df 7dbf e50a 8abf 1674 0f3f
00000200: 1b75 793e 3f4e a03f 4db2 69bf b81b 14bf
00000210: 0633 1a3f 6603 f3c0 e16e 29c1 37e5 a13e
00000220: 594d 453f ec78 803e 8628 ab3e 8270 123f
00000230: b4e7 e33f a207 0cbf d20c 48bf 9ce7 45c1
00000240: da47 a8bf 81e4 10c0 1288 4b3e 8d75 d7bf
00000250: bb70 47bf ef86 a23e 8078 41bf b8ef 953f
00000260: 479c 37bf 6d95 133f 6f1e 883e db58 9fc0
00000270: 1da8 3040 a588 9dbf b123 4ebf 6043 26c1
00000280: 4f82 853e 7dbb 1ebf e115 f03e 0fe2 dd3e
00000290: adf7 913e 1760 3ebf fd68 523f c382 ed3e
000002a0: 1ced e73f 9f76 973e 4e30 3cbf d5eb 843e
000002b0: 33ca 9dc0 dcf0 57bf 8312 ca3f 7de6 823e
000002c0: 3fbc 8c3e 6232 f5bf a06f 71bf 82f6 053f
000002d0: 1041 183f 356c 56bf 1a6b 51c0 8cbe c63e
000002e0: 78c4 11bf b11f db3e d974 07bf 1f21 663e
000002f0: 1338 3fbf 9ff1 80c0 2491 4abf f98d a0c0
00000300: 675c 48c0 82e3 7f3e 046d 08c0 e0e6 3cbf
00000310: 72fa 0ec1 8ee4 a03c cdc5 863f cc5f 77bf
00000320: c034 953e 66fa 7d3e 17d6 943e ccde 49bf
00000330: 999c 70bf 1d85 de3f 9a7f d7bf f713 763f
00000340: b58a 32bf bb4e d63e e4d3 1bbf 3744 863e
00000350: ee52 38c0 c6b6 dbbf 6958 10bf caf5 dd3e
00000360: f5b8 fcbf 0b57 80bf 856a 89bf e8e7 463f
00000370: 9372 013f 344f 533f 811a 7c3e e297 e1bf
00000380: a6bb e63e 8f33 6f3e d19e 7abf 8fc1 b63e
00000390: 97d9 413f 449c ecbe c8a7 6ec0 47c4 2c3f
000003a0: 98ed 943e 9da1 7a3e 618e 8abf 1072 1abf
000003b0: 3f16 f7be 1dca 9d3e a6b6 c0bf 5d5a 26bf
000003c0: 4243 8a3f 30fb 32bf 6513 01bf 962a 27bf
000003d0: 1902 1ebf 7256 43bf af8f 13bc 3fe5 74bf
000003e0: 96ff ac3e 8250 25c0 580d 6e3e cddd 1fc0
000003f0: f712 6a3e 5398 06bf a1e9 21bf 64d0 bebf

Q2.0.weight f4 [256, 23]
1.2978717 -0.22328725 -0.48838976 0.08320383 0.5391523 -0.028071847 0.56914884 0.845632
-0.46678612 -1.1904233 0.16088277 0.0086955875 -0.2148467 0.18465215 -0.0477216 0.0074085416
0.28346908 0.45534614 0.19397968 0.09181317 0.49628487 0.07912349 0.9362312 0.3973675
0.43182072 1.5392601 -0.47726598 0.29238036 1.2558303 0.9206401 0.18199496 -0.13568245
0.5899399 0.6818369 0.16463782 0.18804508 0.03139943 -0.16923931 -0.114180036 -0.051004615
0.2129314 0.6804405 0.035215046 0.009897595 -0.50959325 -0.4241693 -9.06965 -6.50443
-0.4961211 -1.2623181 -0.14977731 -0.60921854 -0.65030855 0.0840295 0.25086755 -0.51298875
-0.43199453 -0.11554866 -0.07204493 -0.017407639 -0.023169931 -0.011893926 -0.004277288 -0.28374085
-0.42047265 -0.03914559 0.17816778 0.06754781 0.043379907 -1.6828392 -1.2209201 -1.6563753
-1.3584025 -1.3608122 1.1365244 0.8509189 0.21011776 -0.13016663 -0.39606395 0.6151129
0.051894236 0.10775154 0.29535145 -0.059309803 -0.07495321 0.037238583 -1.0788296 -0.23084797
-0.14420438 0.635278 -0.41479152 -0.122912645 0.653913 0.24523842 -0.290955 -0.058693442
-0.7472095 -0.20007703 0.09731385 0.31945616 0.022777608 0.116800435 0.1512518 0.04059079
-0.0074070436 -0.026710307 0.03492668 0.012770731 -0.011000173 0.5466451 -0.24643849 0.090361446
0.23767789 -0.3698679 -0.052883253 0.63294214 0.7174642 1.3986595 -1.4562888 -0.46644142
0.32488832 -0.9601486 -0.34775513 -0.2324194 -0.28891832 -0.0980646 0.105039455 -0.178517
0.15632604 -0.06715003 -0.009826542 -0.09031918 -0.45055285 -0.78902555 -0.41845816 -0.26805183
-1.0679452 0.28495044 3.037979 -0.33209985 -1.046406 -0.066121586 0.55058503 -1.2611376
-0.7296448 -1.0946233 0.056516003 0.6707485 0.63274354 0.0353509 0.0936881 -0.016897788
0.07826236 -0.11037307 -0.017973635 0.25010195 0.5301235 -0.5736746 0.25618067 -0.26871985
0.10708706 -0.64962536 -0.6412989 0.6467928 0.11753862 -0.11247072 -0.013218682 -0.144051
-0.023524322 -0.09019748 -0.39577714 -0.05941515 -0.036601625 0.068416946 0.09145978 -0.050767053
0.02094004 0.09706807 0.16243875 0.25348774 -0.014930745 0.044089377 0.23276658 0.34810644
-0.8457685 0.0050310083 0.3561476 -0.4593372 -0.43421894 -0.46880206 1.2416061 -0.31889674
-0.41511196 0.42840606 0.23818494 0.0021499381 0.082604274 -0.015331849 0.13968122 0.1227153
0.087956846 0.0397456 -0.224578 0.47634998 0.47547853 0.45145354 0.10296633 2.9417996
-1.0987015 -0.6378825 -0.78482 0.08831245 -1.8882248 -0.7096013 -0.40949717 0.04217991
-0.46798047 0.48018023 0.08779128 0.041054636 -0.022038525 0.1075323 0.06513744 0.016806893
-0.2023146 0.002081021 -0.14748208 -0.840751 0.32715094 -0.009963572 -2.2329984 -0.38988224
-0.67408514 1.0760936 0.9161288 1.4882233 0.3192718 -0.0361557 0.15346679 -0.7071332
0.0077948305 -0.06827901 -0.018551582 -0.016811298 -0.1651077 -0.12925902 -0.039854385 -0.32558975
-0.5672426 -0.7613213 0.3175762 -0.13793918 -0.11164775 0.6747731 -0.52553797 -0.62887204
00000000: a920 a63f 6aa5 64be 390e fabe c566 aa3d
00000010: e305 0a3f eef6 e5bc bdb3 113f 577b 583f
00000020: 97fe eebe ca5f 98bf 74be 243e f077 0e3c
00000030: c600 5cbe 7415 3d3e b977 43bd 5ac3 f23b
00000040: dc22 913e 2123 e93e 9ca2 463e 8b08 bc3d
00000050: 0d19 fe3e 7f0b a23d d9ac 6f3f c173 cb3e
00000060: 9b17 dd3e 7a06 c53f 355c f4be e1b2 953e
00000070: 0cbf a03f 12af 6b3f e35c 3a3e 57f0 0abe
00000080: 4d06 173f dd8c 2e3f d196 283e e48e 403e
00000090: b09c 003d 124d 2dbe 39d7 e9bd 37ea 50bd
000000a0: b00a 5a3e 5931 2e3f a73d 103d 8629 223c
000000b0: b474 02bf b82c d9be 491d 11c1 4a24 d0c0
000000c0: 9603 febe a493 a1bf 395f 19be bff5 1bbf
000000d0: 9f7a 26bf a917 ac3d b671 803e 3b53 03bf
000000e0: 632e ddbe c7a4 ecbd 4b8c 93bd 779a 8ebc
000000f0: dece bdbc bede 42bc 7e28 8cbb 7b46 91be
00000100: 3148 d7be 2057 20bd 9d71 363e 8256 8a3d
00000110: 21af 313d 4667 d7bf 1c47 9cbf 1b04 d4bf
00000120: 22e0 adbf 182f aebf a279 913f d2d5 593f
00000130: 1c29 573e 674a 05be e5c8 cabe 0a78 1d3f
00000140: 0d8f 543d d7ac dc3d 4e38 973e d6ee 72bd
00000150: 1281 99bd 7c87 183d 1717 8abf 6963 6cbe
00000160: 50aa 13be 94a1 223f 8e5f d4be a0b9 fbbd
00000170: d866 273f c81f 7b3e 0ef8 94be 8968 70bd
00000180: 1f49 3fbf fee0 4cbe 7c4c c73d c28f a33e
00000190: 1b98 ba3c 1135 ef3d c0e1 1a3e 8742 263d
000001a0: c9b6 f2bb 93cf dabc 470f 0f3d 543c 513c
000001b0: 123a 34bc eff0 0b3f 5f5a 7cbe 6c0f b93d
000001c0: d561 733e 535f bdbe 1c9c 58bd 7f08 223f
000001d0: bcab 373f 4607 b33f ac67 babf 69d1 eebe
000001e0: c357 a63e 4ccc 75bf f60c b2be 5aff 6dbe
000001f0: 1aed 93be 18d6 c8bd ed1e d73d 29cd 36be
00000200: ef13 203e f485 89bd 81ff 20bc 43f9 b8bd
00000210: ddae e6be 94fd 49bf 2640 d6be 173e 89be
00000220: 6eb2 88bf 06e5 913e 3f6e 4240 fe08 aabe
00000230: a2f0 85bf c16a 87bd 24f3 0c3f f56c a1bf
00000240: 00ca 3abf 9e1c 8cbf 537d 673d 2cb6 2b3f
00000250: 7bfb 213f 1bcc 103d 8cdf bf3d 3b6d 8abc
00000260: 0448 a03d 470b e2bd 723d 93bc 5d0d 803e
00000270: 2cb6 073f 57dc 12bf 1d2a 833e a695 89be
00000280: 7650 db3d d94d 26bf 2a2c 24bf 3794 253f
00000290: 17b8 f03d 0d57 e6bd 2c93 58bc 1b82 13be
000002a0: 14b6 c0bc 75b9 b8bd 4da3 cabe 4d5d 73bd
000002b0: 96eb 15bd 2f1e 8c3d 444f bb3d 1df1 4fbd
000002c0: 728a ab3c a0cb c63d 5856 263e 25c9 813e
000002d0: 15a0 74bc 1097 343d 5d5a 6e3e 023b b23e
000002e0: 4984 58bf 28db a43b fa58 b63e 3f2e ebbe
000002f0: f251 debe d306 f0be f3ec 9e3f 6f46 a3be
00000300: 8e89 d4be 0a58 db3e c1e6 733e fae5 0c3b
00000310: 6e2c a93d 7032 7bbc 9808 0f3e 2952 fb3d
00000320: b822 b43d 48cc 223d c6f7 65be 25e4 f33e
00000330: ec71 f33e eb24 e73e 03e0 d23d 7246 3c40
00000340: 40a2 8cbf 444c 23bf f7e9 48bf 28dd b43d
00000350: 5ab1 f1bf 6ea8 35bf 9da9 d1be d7c4 2c3d
00000360: 239b efbe 2fda f53e eacb b33d e828 283d
00000370: 238a b4bc e539 dc3d c766 853d 9cae 893c
00000380: 8f2b 4fbe bd61 083b 8b05 17be 753b 57bf
00000390: 5480 a73e 403e 23bc 72e9 0ec0 a59e c7be
000003a0: d890 2cbf 6fbd 893f 6b87 6a3f 1a7e be3f
000003b0: 9877 a33e 0018 14bd 6626 1d3e ae06 35bf
000003c0: c76b ff3b ded5 8bbd 7df9 97bc d9b7 89bc
000003d0: fe11 29be 7a5c 04be 5a3e 23bd b3b3 a6be
000003e0: d036 11bf f4e5 42bf 5999 a23e ee3f 0dbe
000003f0: 93a7 e4bd eebd 2c3f a889 06bf c2fd 20bf

Q2.0.bias f4 [256]
-1.3927691 -1.8300754 0.040738814 -0.7469691 0.60523164 -1.0268631 -0.5334433 1.4551942
1.0519772 -0.36430335 -0.25159618 2.555434 1.0096772 -0.21727239 -0.024000617 2.0166533
-0.7207318 -1.3472232 0.47249573 -1.4383814 -1.5389041 1.5807297 -0.90718526 -1.1073277
0.3215234 -1.1495163 1.444939 -0.646495 -0.48874748 1.1123282 -1.224559 0.54369986
1.6560501 -1.5581987 0.67708164 0.9310755 -1.5313374 0.53009117 1.5717899 -0.93038315
-1.4201765 1.4457334 -2.2609508 0.46539986 -1.7407273 -1.2809409 0.66491735 -1.8431706
-0.2046985 -0.9208625 -0.55492914 -0.24864478 0.5727188 1.411678 0.85418564 -0.4968153
-0.5137781 0.8602823 -0.9250744 1.7929516 0.73656774 -1.834985 -0.9925757 0.8161544
1.0865288 0.5373872 -1.3930675 -1.0988497 1.8443034 0.2872055 -1.2804308 1.2537245
0.9065945 -0.92387897 -1.3260354 0.92989796 0.9229792 -0.5711754 -1.0488927 0.6793491
0.86566854 0.7832189 -0.64979607 -0.84009254 -1.6308837 -0.8583998 -0.5012604 1.7602416
-1.7948345 -1.1762542 -1.3156365 0.92292494 -1.2285373 -1.4135708 1.2869222 -1.2596954
0.3018414 0.12558578 -0.5577239 -1.2671069 0.65997356 -0.8653636 0.35548288 1.3007405
-0.9926929 -1.0709054 -1.347982 1.2264955 0.7880511 -1.7911425 1.2304015 -1.6506327
0.7123074 -0.26434767 -0.36035305 -0.36017904 -0.47289392 1.9398645 -0.30071822 1.4226305
-0.7672722 0.64853966 -0.28503633 -0.83701146 1.3704478 1.4816933 0.08555575 1.2177299
1.5569445 1.6446807 1.5505744 -1.7922889 -0.8885246 -1.2352266 1.7953503 1.7261722
-1.1030837 -0.39823085 1.133754 0.6292354 -1.611891 1.3944227 -1.4326923 0.80018526
-0.8240171 -1.5496184 -1.0183822 -1.1556628 -1.0581702 1.3875935 0.706643 -0.31975946
-1.248832 -0.70947045 0.68196934 -1.9228945 -1.1558002 -1.754502 -2.6835806 -1.1578536
-0.7090944 0.2059704 1.05317 2.034894 -1.5974786 1.641375 -1.5596662 1.0551878
-0.7227943 -0.6840443 -0.74611247 -0.40723565 -2.222728 1.5539912 -1.3129461 1.3756337
-0.9652776 1.58711 -1.4753855 -1.3401767 0.55474246 -0.7205502 1.591366 1.283106
-0.4317975 -1.5605395 -0.71545213 1.0751923 0.66308415 1.3560543 -1.8116269 1.064797
1.2098832 -0.32859087 -0.49284545 1.0329095 0.6375121 0.59809834 -0.18719418 -2.2030575
0.9094847 0.021168316 1.0742368 -1.7561258 0.76956105 1.8397543 1.4112045 -1.4742576
-0.42050475 -0.1012169 1.13398 1.5111113 -1.053667 -2.3267615 -0.42490834 1.0684453
1.2145082 0.026938392 1.5879221 -1.7011088 -1.0451581 -0.4818615 0.16042013 -1.6054741
0.21722534 0.86143076 -1.3318722 -0.35295618 -1.3249086 0.40330383 1.367503 -1.5232631
-1.8237157 1.0761977 1.2644002 -1.5921197 0.054294534 1.5473106 1.8200318 -1.6618773
1.3365229 -1.64502 -1.4784647 -1.8760325 -0.93015134 -1.7101873 0.60568386 -0.70779175
1.440247 1.026387 -0.16500321 1.264765 -0.73715407 1.7382631 1.1201142 2.1366167
00000000: 4246 b2bf e93f eabf bedd 263d 5e39 3fbf
00000010: 76f0 1a3f 4070 83bf bd8f 08bf ce43 ba3f
00000020: 30a7 863f f885 babe 37d1 80be 3b8c 2340
00000030: 1a3d 813f a77c 5ebe f19c c4bc d910 0140
00000040: e181 38bf cf71 acbf f6ea f13e e21c b8bf
00000050: cffa c4bf 5a55 ca3f 4b3d 68bf eabc 8dbf
00000060: b79e a43e 5a23 93bf c3f3 b83f b280 25bf
00000070: 1c3d fabe c560 8e3f 59be 9cbf ea2f 0b3f
00000080: 73f9 d33f 0e73 c7bf 3955 2d3f f75a 6e3f
00000090: dd02 c4bf 0eb4 073f 6930 c93f 972d 6ebf
000000a0: 58c8 b5bf cb0d b93f 6bb3 10c0 e448 ee3e
000000b0: 27d0 debf dff5 a3bf 0638 2a3f 04ed ebbf
000000c0: 7c9c 51be a5bd 6bbf d60f 0ebf bd9c 7ebe
000000d0: b39d 123f ddb1 b43f e9ab 5a3f 935e febe
000000e0: f686 03bf 763b 5c3f add1 6cbf 707f e53f
000000f0: b48f 3c3f cae0 eabf 7119 7ebf 7fef 503f
00000100: 6013 8b3f 3592 093f 0950 b2bf 1ba7 8cbf
00000110: 2212 ec3f 990c 933e 28e5 a3bf 0b7a a03f
00000120: 9416 683f 5583 6cbf 87bb a9bf cb0d 6e3f
00000130: 5d48 6c3f 8d38 12bf 1e42 86bf d3e9 2d3f
00000140: 749c 5d3f 0981 483f 0959 26bf 4e10 57bf
00000150: ccc0 d0bf 17c0 5bbf 9a52 00bf 994f e13f
00000160: 23bd e5bf 7f8f 96bf c766 a8bf cf44 6c3f
00000170: b640 9dbf e3ef b4bf deb9 a43f b33d a1bf
00000180: f58a 9a3e 8f99 003e fec6 0ebf 8f30 a2bf
00000190: 07f4 283f 7888 5dbf da01 b63e aa7e a63f
000001a0: 1f21 7ebf 6e13 89bf ad8a acbf cefd 9c3f
000001b0: b8bd 493f 2844 e5bf cc7d 9d3f ef47 d3bf
000001c0: c759 363f 9458 87be 3280 b8be 6369 b8be
000001d0: 271f f2be 7b4d f83f bdf7 99be c218 b63f
000001e0: f36b 44bf b206 263f 48f0 91be 6246 56bf
000001f0: d56a af3f 20a8 bd3f da37 af3d 93de 9b3f
00000200: f549 c73f e684 d23f 3979 c63f b969 e5bf
00000210: 5976 63bf e81b 9ebf 0ace e53f 36f3 dc3f
00000220: d931 8dbf eae4 cbbe da1e 913f 9215 213f
00000230: 7252 cebf 717c b23f 7662 b7bf f1d8 4c3f
00000240: c9f2 52bf e559 c6bf 595a 82bf c2ec 93bf
00000250: 1f72 87bf aa9c b13f 8ee6 343f 83b7 a3be
00000260: bad9 9fbf db9f 35bf 8b95 2e3f 6821 f6bf
00000270: 43f1 93bf 8693 e0bf c9bf 2bc0 8c34 94bf
00000280: 3687 35bf e8e9 523e 46ce 863f b43b 0240
00000290: 2e7a ccbf 9318 d23f 24a3 c7bf 6510 873f
000002a0: 0c09 39bf 871d 2fbf 3a01 3fbf 3181 d0be
000002b0: 2d41 0ec0 2fe9 c63f 9e0e a8bf c414 b03f
000002c0: 6f1c 77bf 6c26 cb3f 6fd9 bcbf e98a abbf
000002d0: 9a03 0e3f fa75 38bf e2b1 cb3f d13c a43f
000002e0: 9014 ddbe c2bf c7bf df27 37bf e79f 893f
000002f0: e2bf 293f 3093 ad3f 64e3 e7bf 454b 883f
00000300: 74dd 9a3f 103d a8be 3d56 fcbe 6136 843f
00000310: fe33 233f f91c 193f d5af 3fbe e5fe 0cc0
00000320: fdd3 683f 2d69 ad3c 9780 893f bbc8 e0bf
00000330: f401 453f 127d eb3f 59a2 b43f 79b4 bcbf
00000340: 664c d7be ce4a cfbd 4226 913f 186c c13f
00000350: 8fde 86bf a9e9 14c0 968d d9be d1c2 883f
00000360: 0175 9b3f e7ad dc3c 0841 cb3f efbd d9bf
00000370: bec7 85bf 8db6 f6be 2d45 243e 2d80 cdbf
00000380: 5270 5e3e ba86 5c3f ca7a aabf acb6 b4be
00000390: 9b96 a9bf d77d ce3e 570a af3f 49fa c2bf
000003a0: 846f e9bf d9c0 893f ded7 a13f 94ca cbbf
000003b0: f263 5e3d 460e c63f cdf6 e83f 65b8 d4bf
000003c0: 2f13 ab3f 0490 d2bf 553e bdbf d521 f0bf
000003d0: 661e 6ebf 6be7 dabf 190e 1b3f d731 35bf
000003e0: 045a b83f a660 833f 9af6 28be d2e3 a13f
000003f0: 21b6 3cbf 687f de3f e75f 8f3f 54be 0840

Q2.2.weight f4 [256, 256]
-0.07176008 0.04817356 0.102857694 0.13705328 0.034837145 0.07188085 -0.05250355 0.25905466
0.22441073 0.30275455 -0.14905964 -0.0038466554 0.113748774 -0.41156265 0.01866306 0.19787826
-0.34690794 0.09351981 0.02853992 0.11734004 -0.038700894 -0.0181981 -0.25693172 0.035912037
-0.10116175 0.028434565 -0.10713104 -0.046114802 -0.30091748 0.35258254 -0.0063064876 0.067770645
0.3176697 -0.4480273 0.11994475 0.030685727 -0.047608163 -0.026855446 0.29125392 -0.021076733
0.28738925 0.064035304 0.042224403 -0.034549683 -0.11637644 -0.0039204857 0.052962426 0.3387642
0.012254151 -0.13369283 0.17864394 -0.35220286 0.006681273 -0.04992952 0.3945678 0.3031817
-0.06968773 -0.038793795 -0.31295854 0.13788196 0.011683401 0.018420275 -0.033650406 0.30580503
0.050612953 0.13015819 0.23776764 0.44239625 0.5731289 0.10022335 0.060053162 -0.0690363
-0.008712815 -0.03261886 -0.18998794 -0.30657485 -0.29148084 -0.21584982 -0.3414947 0.27405962
0.16930765 0.09531887 0.28640804 -0.45508373 -0.17586087 0.05814107 0.0015936106 0.26453933
-0.014730816 -0.38111073 -0.26548368 -0.25351268 -0.011970735 -0.69402456 0.018725218 -0.16584039
-0.40701973 0.08608298 0.027630035 -0.6718321 -0.12130119 0.16169849 0.10656135 -0.016416935
0.2969604 0.0071675885 -0.08913792 0.014761856 -0.5399043 0.26926875 -0.12675168 0.10975684
0.30613026 0.034936596 0.35026744 0.11127714 0.05698521 0.007864086 0.36477974 0.113960326
-0.15105022 -0.26391163 -0.2470736 0.18276477 0.06458601 -0.088260256 -0.13731861 -0.17531104
0.17701824 0.2745239 0.18110639 -0.6307026 -0.197518 0.18097775 0.1871714 0.15692857
-0.25381845 0.006901295 0.30177414 0.011146332 -0.12705985 0.10156461 0.029844023 -0.038145795
-0.008486419 0.05851519 0.016209478 -0.11282036 -0.27357423 -0.026556874 -0.77839977 -0.06501802
-0.071385995 -0.1922737 -0.2824797 0.28175265 -0.22421773 -0.011247711 0.09106145 0.08862247
-0.16479807 0.028294427 0.09052287 0.9243724 0.08366312 -0.082255945 0.253575 -0.018466484
-0.038030006 -0.26819554 -0.51039344 -0.07745265 -0.07822228 0.122949205 -0.0014622059 0.07243279
0.09037116 0.07267879 0.21089298 -0.102822535 -0.11445752 -0.40425986 0.21435988 0.04240796
0.102023505 0.008926978 -0.10418096 0.17855191 -0.13073604 -0.2100212 0.09942775 0.30656695
0.06547258 -0.1390281 0.11730527 0.1178232 -0.024929643 -0.026580805 -0.08531777 0.10770043
-0.055299755 -0.26768324 0.23966114 0.14113826 -0.16472077 0.41747805 0.06997702 0.24754873
-0.39818168 0.0892162 -0.1560304 0.030743347 -0.09510848 0.21024436 -0.071721554 0.19828163
0.069361925 -0.31799352 -0.05977007 -0.054634303 0.035520792 -0.07456924 -0.31592688 0.33166674
-0.0019776803 0.030310713 0.014559269 0.083687805 -0.63999957 0.10670509 0.16366507 -0.13769214
-0.40222913 0.0835586 0.0958514 -0.015133262 0.39452174 -0.34900188 0.16232696 0.09116389
0.32292026 0.09251945 -0.53375125 0.13829109 -0.16460925 0.19122422 -0.49753153 -0.3454803
0.012655601 0.21386056 0.033062693 -0.069503084 -0.1178894 0.31645346 -0.33869606 0.49657005
00000000: f3f6 92bd a451 453d 0ea7 d23d b257 0c3e
00000010: 65b1 0e3d 4436 933d f60d 57bd d0a2 843e
00000020: edcb 653e a502 9b3e 17a3 18be 2b18 7cbb
00000030: 1ef5 e83d 57b8 d2be 46e3 983c 99a0 4a3e
00000040: eb9d b1be 5087 bf3d 8dcc e93c fa4f f03d
00000050: d484 1ebd 2f14 95bc 8e8c 83be 8018 133d
00000060: e42d cfbd 9bef e83c 8567 dbbd e0e2 3cbd
00000070: db11 9abe b385 b43e a7a6 cebb 56cb 8a3d
00000080: 9aa5 a23e d663 e5be 98a5 f53d a260 fb3c
00000090: c700 43bd f4ff dbbc 3c1f 953e 1da9 acbc
000000a0: af24 933e f124 833d 7ff3 2c3d f883 0dbd
000000b0: c556 eebd 6b77 80bb 21ef 583d 8072 ad3e
000000c0: a2c5 483c c6e6 08be 70ee 363e ef53 b4be
000000d0: 95ee da3b e582 4cbd ca04 ca3e a23a 9b3e
000000e0: 71b8 8ebd 3ee6 1ebd 1a3c a0be ee30 0d3e
000000f0: bc6b 3f3c 1ee6 963c 02d5 09bd 7a92 9c3e
00000100: 874f 4f3d 3048 053e 5c79 733e c381 e23e
00000110: 93b8 123f e641 cd3d 4efa 753d e762 8dbd
00000120: 32c0 0ebc 5b9b 05bd 338c 42be 61f7 9cbe
00000130: fa3c 95be bc07 5dbe 65d8 aebe 8b51 8c3e
00000140: fc5e 2d3e 8a36 c33d 13a4 923e bc00 e9be
00000150: df14 34be 5525 6e3d b3e0 d03a b371 873e
00000160: 8559 71bc f220 c3be 7aed 87be 6acc 81be
00000170: e720 44bc 98ab 31bf a165 993c 10d2 29be
00000180: e464 d0be 464c b03d 6258 e23c 30fd 2bbf
00000190: c26c f8bd 4a94 253e d63c da3d cf7c 86bc
000001a0: 320b 983e 17de ea3b f18d b6bd b6db 713c
000001b0: 2b37 0abf 98dd 893e 31cb 01be 32c8 e03d
000001c0: 1bbd 9c3e ad19 0f3d 4156 b33e 45e5 e33d
000001d0: 5369 693d 5ed8 003c 69c4 ba3e 0864 e93d
000001e0: e9ac 1abe 6d1f 87be dd00 7dbe b026 3b3e
000001f0: ac45 843d cbc1 b4bd 409d 0cbe bd84 33be
00000200: 4544 353e 668e 8c3e f473 393e ba75 21bf
00000210: 2942 4abe 3b52 393e dca9 3f3e e2b1 203e
00000220: 7ef4 81be 4224 e23b 2482 9a3e 1b9f 363c
00000230: fa1b 02be 1b01 d03d 747b f43c c43e 1cbd
00000240: 9f0a 0bbc a0ad 6f3d bdc9 843c 5c0e e7bd
00000250: ec11 8cbe cd8d d9bc 3545 47bf 2b28 85bd
00000260: d232 92bd 66e3 44be 2ea1 90be e241 903e
00000270: 5599 65be 5248 38bc 6d7e ba3d b37f b53d
00000280: d3c0 28be b7c9 e73c 0e64 b93d aba3 6c3f
00000290: 9257 ab3d ce75 a8bd 95d4 813e 0647 97bc
000002a0: 5ac5 1bbd ed50 89be 25a9 02bf 7f9f 9ebd
000002b0: 0133 a0bd cbcc fb3d 7da7 bfba a557 943d
000002c0: 8414 b93d 9ed8 943d 54f4 573e 9f94 d2bd
000002d0: b468 eabd 26fb cebe 2881 5b3e f8b3 2d3d
000002e0: b3f1 d03d 7642 123c d45c d5bd 50d6 363e
000002f0: abdf 05be cc0f 57be c7a0 cb3d 58f6 9c3e
00000300: 7d16 863d 625d 0ebe bf3d f03d 4a4d f13d
00000310: 4039 ccbc fdbf d9bc 15bb aebd 0b92 dc3d
00000320: ff81 62bd c70d 89be bb69 753e 8c86 103e
00000330: 90ac 28be afbf d53e 1d50 8f3d 6a7d 7d3e
00000340: 78de cbbe fcb6 b63d 6fc6 1fbe 79d9 fb3c
00000350: 3cc8 c2bd 4c4a 573e c0e2 92bd 570a 4b3e
00000360: a00d 8e3d 0cd0 a2be 76d1 74bd 38c8 5fbd
00000370: 407e 113d c2b7 98bd 2bc1 a1be 39d0 a93e
00000380: f89b 01bb 2c4e f83c 008a 6e3c 8364 ab3d
00000390: 03d7 23bf 3388 da3d d197 273e 2bff 0cbe
000003a0: faf0 cdbe c520 ab3d bd4d c43d 80f1 77bc
000003b0: c1fe c93e 60b0 b2be 0a39 263e 22b4 ba3d
000003c0: ce55 a53e d67a bd3d eca3 08bf 2e9c 0d3e
000003d0: 548f 28be 48d0 433e 74bc febe cbe2 b0be
000003e0: 7059 4f3c 43fe 5a3e bf6c 073d a257 8ebd
000003f0: ff6f f1bd 3006 a23e 9269 adbe 6e3e fe3e
