trained_models/HalfCheetahNormal-v3/sero/critic_1.pt (torch, 582018 bytes, 10 tensors)

Q1.0.weight f4 [256, 23]
0	0x40f047e1	7.5087743
1	0xc057ade9	-3.3699896
2	0xbe621554	-0.22078449
3	0xbe07f474	-0.13276845
4	0x3de281fe	0.1105995
5	0x3f809ac5	1.0047232
6	0xbe288b65	-0.16459425
7	0x3d0e131e	0.0346862
8	0x3c3881d2	0.01126142
9	0x3ec4d64f	0.38444754
10	0xbe6be8bc	-0.23038
11	0xbc5f5a2f	-0.013632341
12	0xbc4014e8	-0.011723734
13	0xbb313338	-0.0027038585
14	0xbd2e2bf8	-0.0425224
15	0xbd1fc371	-0.039004747
16	0xbc5a541a	-0.013325715
17	0x3d22a4ab	0.03970782
18	0x3d8c8556	0.06861369
19	0xbc961bc9	-0.018323796
20	0x3e3ba450	0.18324399
21	0xbe4f42fe	-0.20240399
22	0xbd9e3689	-0.077252455
23	0xbfc80c45	-1.5628744
24	0xbf2660e5	-0.649916
25	0x3e3f7fe2	0.18701127
26	0xbea52b30	-0.32259512
27	0xbd093a52	-0.033502884
28	0xbebff3e1	-0.37490752
29	0x3de097ce	0.109664544
30	0x3cb26a06	0.021779072
31	0x3e57a335	0.21058352
32	0xbd9a4aab	-0.07533773
33	0xbe06f499	-0.13179244
34	0xbd03d29c	-0.032183275
35	0xbcc4a392	-0.024003778
36	0x3d8cd5f3	0.06876745
37	0xbc5df5c1	-0.013547362
38	0x3d4467fb	0.047950726
39	0xbc41fc89	-0.011839994
40	0xbd356e8d	-0.044294883
41	0xbe349615	-0.17635377
42	0x3eceac74	0.40365946
43	0x3e3fcb23	0.18729834
44	0xbe33e94e	-0.17569467
45	0xbde05dea	-0.10955413
46	0xbf5bbdb9	-0.8583637
47	0x3f86b7e0	1.0524864
48	0xbf027a57	-0.50967926
49	0xbe4054a8	-0.18782294
50	0xbf2eb062	-0.6823789
51	0xbe06974f	-0.13143657
52	0x3f6812cb	0.90653676
53	0x3f463ddc	0.7743814
54	0xbe2d5a5a	-0.16928998
55	0x3bbb8d79	0.005723652
56	0xbf21e9dd	-0.6324747
57	0xbd82a4be	-0.06379078
58	0xbd1879a5	-0.037225384
59	0xbcdd0b4d	-0.026982928
60	0xbd99946a	-0.07499011
61	0x39891b9f	0.00026151256
62	0x3bb82fe1	0.005620942
63	0xbd6d30be	-0.057907812
64	0x3efc4689	0.49272564
65	0x3e1d9908	0.15390408
66	0x3eaf34ee	0.3422007
67	0xbe4dbd04	-0.20091635
68	0xbebf3259	-0.373431
69	0x40887b1b	4.2650275
70	0x3fae16ea	1.3600743
71	0xbf39aca0	-0.7252903
72	0xbebdbbab	-0.37057242
73	0x3db50498	0.08838767
74	0x3f298ccc	0.66230464
75	0x3ec6c99c	0.3882569
76	0x3d934945	0.071917094
77	0xbdc7c0b3	-0.09753551
78	0x3f151fee	0.58251846
79	0x3e055b4e	0.13023111
80	0xbd1a67d6	-0.037696682
81	0x3a04e8c6	0.00050700863
82	0xbc6e887d	-0.0145589085
83	0x3d009842	0.031395204
84	0xb9853aca	-0.00025411538
85	0xbb38a5e7	-0.0028175057
86	0xbf43ce68	-0.76486826
87	0x3eb91ac0	0.3615322
88	0xbf1c72a3	-0.6111242
89	0xbe1650ac	-0.14679211
90	0xbd344d74	-0.044019178
91	0xbc18cad0	-0.009325698
92	0xc09dd98a	-4.932805
93	0xbfb1c690	-1.3888721
94	0xbfdb8ff5	-1.7153307
95	0xbfbd6105	-1.4795233
96	0xbf05cf1b	-0.5226914
97	0x3ea1a4aa	0.3157094
98	0xbe627d57	-0.22118126
99	0xbed95962	-0.42451006
100	0x3e3bbdc4	0.18334109
101	0xbf827233	-1.0191101
102	0x3f25b048	0.6472211
103	0x3dc24804	0.09486392
104	0x3c33118a	0.010929475
105	0x3c3b5dcd	0.011435938
106	0xbcf3b6b3	-0.029750204
107	0x3bc9ced8	0.006158691
108	0xbac2f7df	-0.0014874897
109	0xbdd28fdd	-0.10281346
110	0xbdb01b1d	-0.085989214
111	0x3dca326e	0.098729
112	0xbe2c58bc	-0.16830724
113	0x3d6e0c02	0.05811692
114	0x3d271c40	0.040798426
115	0x4012e27a	2.295073
116	0x3f25e5c8	0.64803743
117	0xbf9ef21e	-1.2417638
118	0x3f88c626	1.068547
119	0xbf544e7d	-0.82932264
120	0xbfbaa112	-1.4580405
121	0xbe62c357	-0.22144829
122	0x3ebfe5b3	0.37479934
123	0xbcd54ba0	-0.026037037
124	0x3fbed5c4	1.4908986
125	0xbc11ab11	-0.008890883
126	0xbde997bd	-0.11405895
127	0x3c287781	0.010282398
128	0xbd187098	-0.037216753
129	0x3def02ed	0.1167048
130	0xbdf44512	-0.119272366
131	0x3cd7dd0b	0.026350519
132	0x3ee5b826	0.44867057
133	0x3e086a2d	0.13321753
134	0xbd69a69d	-0.05704366
135	0x3db06cea	0.08614524
136	0xbe278552	-0.16359451
137	0x3f377a4d	0.7167099
138	0x3f49df58	0.7885642
139	0xbf0e7b90	-0.5565729
140	0xbf1cc218	-0.61233664
141	0xbfef7638	-1.8707952
142	0xbf780d9e	-0.9689578
143	0x3f8b2e6b	1.0873541
144	0xbf05ce32	-0.52267754
145	0x3d9fda19	0.07805271
146	0xbecd8114	-0.4013754
147	0xbeb9ec5b	-0.36313137
148	0x3f1ee287	0.62064403
149	0x3eb33a58	0.3500545
150	0x3dc82024	0.09771755
151	0x3dc6a40a	0.09699257
152	0xbbadd844	-0.005305322
153	0x3d1b9e1a	0.037992574
154	0xbdeaafea	-0.11459334
155	0x3ec325db	0.3811482
156	0xbddbd4a4	-0.10733917
157	0xbf276489	-0.6538778
158	0x3f07eb8a	0.5309378
159	0x3d0a450f	0.033757266
160	0xbec9b5bd	-0.39396468
161	0x40ac9c69	5.394093
162	0xbd9188d3	-0.07106175
163	0x3f27a773	0.6548988
164	0x3f564d96	0.83712137
165	0x3f4bd97f	0.7962875
166	0x3f5039b3	0.8133804
167	0x3f8d7684	1.1051793
168	0xbefab07b	-0.4896277
169	0xbcb7a4ad	-0.02241739
170	0xbe8ec1aa	-0.2788213
171	0x3d8a55d1	0.067546494
172	0x3cca8352	0.024720822
173	0x3d667a39	0.056268904
174	0x3c9d26c5	0.019183526
175	0x3e0b1339	0.13581552
176	0x3da05b66	0.07829933
177	0x3db8af58	0.09017819
178	0x3e8267ec	0.2546991
179	0x3ecbd5c3	0.39811525
180	0xbe39fbbf	-0.1816244
181	0x3de05c8b	0.10955151
182	0x3ea1e287	0.3161814
183	0x3e16aa82	0.14713481
184	0xc0601434	-3.501233
185	0x3f4a3b60	0.7899685
186	0xbe0fff0c	-0.14062136
187	0xbf628792	-0.88488114
188	0x3f128f5a	0.5724999
189	0xbf3b746b	-0.73224515
190	0xbf803be1	-1.0018274
191	0xbf362e71	-0.71164614
192	0xbddf9947	-0.10917907
193	0xbecd84ac	-0.40140283
194	0x3f3e5078	0.74341536
195	0xbb862119	-0.004093301
196	0x3df25ab1	0.11833704
197	0x3db70aad	0.08937583
198	0x3e339fe2	0.17541459
199	0x3c83c9f3	0.016087508
200	0x3cb31c28	0.021864012
201	0xbed120a6	-0.4084522
202	0x3e1c77cb	0.15280072
203	0xbe487b17	-0.19578205
204	0xbf67295f	-0.902975
205	0xbe4acc17	-0.19804417
206	0xbe881e21	-0.26585487
207	0xbf9bbdf9	-1.216735
208	0x3facb3a9	1.3492328
209	0x3f21533f	0.6301765
210	0x3ea9d2de	0.3316869
211	0x3e850239	0.25978258
212	0x3f9c3bed	1.2205788
213	0xbf7f454d	-0.9971512
214	0xbf8c7a29	-1.097478
215	0xbe0d01aa	-0.13770166
216	0x3db0c68d	0.086316206
217	0x3dd7f407	0.105445914
218	0x3d7d300e	0.061813407
219	0x3ddc7ae7	0.10765629
220	0xbd00360a	-0.031301536
221	0x3dc879ea	0.09788878
222	0x3cb1eaac	0.021718346
223	0xbcd5350a	-0.026026268
224	0xbe3c4fcf	-0.1838982
225	0xbe113860	-0.14181662
226	0xbd00c91e	-0.0314418
227	0x3f862054	1.0478616
228	0xbea4df9f	-0.3220186
229	0xbf106cb5	-0.56415874
230	0x3e9ee5fb	0.31034836
231	0xbebd7d6a	-0.37009746
232	0x3f64ab30	0.8932371
233	0x3e8c7c3f	0.27438542
234	0xbdca1fdb	-0.09869357
235	0x3df5331c	0.11972639
236	0x3dba9dd7	0.09112137
237	0x3d33541d	0.04378139
238	0x3dee9d02	0.116510406
239	0x3eb13081	0.34607318
240	0xbd0ac646	-0.033880495
241	0xbcf466a1	-0.029834094
242	0x3d268411	0.040653292
243	0x3cc6a982	0.02425075
244	0xbd863030	-0.0655216
245	0x3c7e747a	0.0155307
246	0xbdb65781	-0.08903409
247	0xbe8ec407	-0.27883932
248	0x3e908fc2	0.28234679
249	0xbebc90f4	-0.3682934
250	0xbedc70e4	-0.4305488
251	0xbedc2337	-0.42995617
252	0xbe9c5bf9	-0.3053892
253	0xc1801125	-16.008371
254	0x3f9f909d	1.2466007
255	0x3edd13a7	0.43179056

Q1.0.bias f4 [256]
0	0x3fbadd2f	1.459875
1	0x3fdfc26a	1.7481205
2	0x3fa99c50	1.3250828
3	0x3fa9080a	1.3205578
4	0xbe8bcf80	-0.27306747
5	0xbf2e9d32	-0.6820861
6	0x3f2a7ce6	0.6659683
7	0xbf51fee2	-0.82029545
8	0xbf9063a2	-1.1280406
9	0x3f8c80ac	1.0976768
10	0x3f49b29e	0.78788173
11	0xbf9e943f	-1.2388991
12	0xbf3907f7	-0.7227778
13	0xbf4eecec	-0.80830264
14	0xbf70ca1b	-0.9405839
15	0xbfb34fc9	-1.4008723
16	0x3f39f5ca	0.7264067
17	0x3f2ba4d8	0.67048407
18	0x3fd57317	1.6675748
19	0xbefc4695	-0.492726
20	0x3f849a25	1.0359541
21	0x3f26ef9c	0.65209365
22	0xbf05794a	-0.521382
23	0xbf9079a0	-1.1287117
24	0x3ff79656	1.9342754
25	0xbfd17fa9	-1.6367084
26	0xbe6b7871	-0.22995164
27	0x3fbc64b4	1.4718232
28	0xbf306c1f	-0.6891498
29	0x3e835f1a	0.25658494
30	0x3f224c2e	0.6339749
31	0x3f3b50f1	0.7317038
32	0xbf81e4da	-1.0147965
33	0xc001fd27	-2.0310762
34	0xbf90a4f9	-1.1300346
35	0xbf944587	-1.1583718
36	0x3f93f8ad	1.1560265
37	0x3f6e2d26	0.9303764
38	0x3dad5b89	0.084647246
39	0xbfa0adf1	-1.2553083
40	0x3fa52b3d	1.290382
41	0xbf52bd2f	-0.8231992
42	0xbf9cd7ea	-1.2253392
43	0xbdac8780	-0.08424282
44	0xbf98809b	-1.1914247
45	0x3ed0818a	0.4072383
46	0xbf898208	-1.0742807
47	0xbfd10ef1	-1.6332685
48	0xbf1bb9e0	-0.608305
49	0x3f58e3bc	0.84722495
50	0x3f51f2bd	0.82011014
51	0x3f95fc34	1.1717591
52	0x3f68df0a	0.9096533
53	0xbf1fbce0	-0.62397575
54	0x3fb1d91f	1.3894385
55	0xbf84f4bf	-1.038719
56	0xbfb5a310	-1.4190388
57	0xbf8c38c4	-1.0954823
58	0xbe98ae9e	-0.29820722
59	0x3fc032f0	1.5015545
60	0x3f83336d	1.0250069
61	0x3fd008d2	1.6252692
62	0xbf3d1df8	-0.73873854
63	0xbf3065ad	-0.68905145
64	0xbfb420ab	-1.407247
65	0x40042918	2.0650082
66	0x4004a76c	2.0727186
67	0x3fd2fd8b	1.6483625
68	0x3fb44b93	1.4085563
69	0x3f8f8d02	1.1214907
70	0x3f04f634	0.51938176
71	0x3a6e66f1	0.0009094319
72	0x3fa658f8	1.2995901
73	0xbf0925f5	-0.5357354
74	0x3f7ce7c6	0.9879116
75	0x3f8f8f86	1.1215675
76	0x3ebe5bb4	0.3717934
77	0xc004153f	-2.0637968
78	0x3fac89ab	1.3479513
79	0xbfdd3a70	-1.7283459
80	0x3cc0d4ce	0.023538973
81	0xbf8e0cc7	-1.1097649
82	0x3d9a144f	0.07523405
83	0x3ebdd91f	0.37079713
84	0xbf88c2c0	-1.0684433
85	0xbf4fda2f	-0.81192297
86	0x3f15ea2a	0.5856043
87	0xbfc8a5c8	-1.5675592
88	0x3e975b62	0.29561907
89	0xbe8ba346	-0.27273005
90	0xbf94e7d0	-1.1633244
91	0xbfc71efd	-1.5556332
92	0x3fbb5801	1.4636232
93	0xbf942d9e	-1.1576421
94	0x3fc3db1f	1.5301245
95	0xbec11687	-0.377125
96	0xbf7f49f3	-0.9972221
97	0xbfcbb257	-1.59138
98	0xbfc9b331	-1.575781
99	0x3fea918d	1.8325669
100	0xbf7ffc2c	-0.9999416
101	0xbfc197f9	-1.5124503
102	0x3f46d6e8	0.7767167
103	0x3f2b3785	0.6688159
104	0xbf861c6a	-1.0477421
105	0x3f972be3	1.1810268
106	0x3f737102	0.9509431
107	0x3ef1757d	0.4715995
108	0xbf1447c9	-0.57922035
109	0xbf914a99	-1.135089
110	0x3effac48	0.49936128
111	0xbf9a6d66	-1.2064636
112	0xbf711ac5	-0.9418147
113	0x3ee2022e	0.44142288
114	0x3f318cf3	0.69355696
115	0xbfbbd81a	-1.4675324
116	0x3f9e8798	1.238513
117	0x3fa8f4bc	1.3199687
118	0xbf98b48e	-1.1930101
119	0x3f92f6e2	1.1481593
120	0x3fb74387	1.4317483
121	0xbf44b358	-0.76836157
122	0x3fb2e399	1.3975707
123	0xbf76906c	-0.9631412
124	0xbf9db83f	-1.2321852
125	0xbd8b1d4b	-0.067926966
126	0xbf61ad5a	-0.8815514
127	0x3fff3ce7	1.9940461
128	0x3fa780a5	1.3086134
129	0xbf15ed25	-0.5856498
130	0x3e4f517c	0.20245928
131	0x3f3865bc	0.72030234
132	0x3f6c9cff	0.9242706
133	0xbfb88621	-1.4415933
134	0x3dbd8d04	0.09255412
135	0x3f81f8af	1.0154017
136	0xbedf5d39	-0.4362581
137	0xbf1a3527	-0.60237354
138	0xbf3de01c	-0.7417009
139	0x3e1fab75	0.1559275
140	0xbfc7d839	-1.5612861
141	0xbfa055bd	-1.2526165
142	0x3f970ff0	1.1801739
143	0x3b7a1e7e	0.0038165147
144	0xbaf0a1c9	-0.0018358763
145	0x3f63bf3e	0.8896369
146	0xbfd76d1f	-1.6830176
147	0xbf8b1a68	-1.0867434
148	0x3fa014da	1.2506363
149	0x3f78bd63	0.9716398
150	0xbe889d58	-0.26682544
151	0xbf2f1929	-0.68397766
152	0xbf4dba00	-0.8036194
153	0xbf777d94	-0.9667599
154	0x3e0a2ba2	0.13493207
155	0x3fe46664	1.7843747
156	0xbf841080	-1.0317535
157	0x3ec95956	0.3932597
158	0x3e2f968e	0.17147276
159	0x3f916f24	1.1362042
160	0x3f82b915	1.0212733
161	0xbf059675	-0.52182704
162	0xbfea9a27	-1.8328294
163	0x3f8f46be	1.1193464
164	0xbe3f7077	-0.18695246
165	0xc00d7e7c	-2.210845
166	0xbfdb4cf9	-1.7132865
167	0x3f139c00	0.5765991
168	0xbfc1ea38	-1.5149603
169	0x3f82dc43	1.0223469
170	0xbf6d93eb	-0.9280383
171	0xbde66ff7	-0.11251824
172	0x3f941e2a	1.1571705
173	0x3fb6b87d	1.4275051
174	0xbe41ea23	-0.18936972
175	0x3f92ffe0	1.1484337
176	0x3fb188b0	1.3869839
177	0xbec680c0	-0.38770103
178	0x3fc02580	1.5011444
179	0x3f16f369	0.58965164
180	0xbf9780ab	-1.1836141
181	0x3f5bb6fc	0.85826087
182	0xbf5ef808	-0.87097216
183	0x3ff10be4	1.8831754
184	0xbfb1a03d	-1.3877026
185	0xbe910156	-0.28321332
186	0x3f692002	0.91064465
187	0x3f7de3d1	0.99175745
188	0x3f45b50f	0.772294
189	0x3f290dae	0.660365
190	0xbcccc94e	-0.024998333
191	0xbfab4e26	-1.3383224
192	0x3fa60bf9	1.2972404
193	0x3f7be075	0.9838937
194	0x3f77c624	0.96786714
195	0xbfd840ca	-1.6894772
196	0x3fde04f9	1.7345268
197	0xbeaeffc1	-0.341795
198	0xbf4e20dd	-0.80518895
199	0x3f36424f	0.7119493
200	0xbce0bb7f	-0.027433155
201	0x3fd6c7e8	1.6779757
202	0x3f2792d0	0.65458393
203	0x3fdd49a0	1.7288094
204	0xbf8b0405	-1.0860602
205	0xbf93d9ff	-1.1550902
206	0xc028b46c	-2.636012
207	0xbf9a2fef	-1.2045878
208	0x3dfef3d7	0.124488525
209	0xbece34e2	-0.4027472
210	0xbfd423a1	-1.6573373
211	0xbf7d972d	-0.990588
212	0xbfe32878	-1.7746725
213	0x3f554cf4	0.83320546
214	0x3f46a3e3	0.7759382
215	0xbfa4b29c	-1.2867007
216	0xbf23f6dc	-0.6404855
217	0x3ed349e8	0.41267323
218	0xbff5c20a	-1.9199841
219	0xbd02d4e6	-0.031941317
220	0xbf9a84f7	-1.2071828
221	0xbfaf7363	-1.3707088
222	0xbf88e1a1	-1.0693856
223	0xbf13e51c	-0.5777147
224	0xbf4a5765	-0.79039603
225	0xbf03b253	-0.51443976
226	0xbf5967f5	-0.8492425
227	0xbd3aa8ec	-0.045571253
228	0xbf55e0be	-0.83546054
229	0x3fc8f27e	1.5699003
230	0xbf9cb1c2	-1.2241747
231	0xbf563745	-0.83678085
232	0x3f6cdf59	0.925283
233	0x3f45e8b5	0.7730821
234	0x3ecbd310	0.39809465
235	0x3f806c77	1.0033101
236	0xbf6ad281	-0.91727453
237	0xbf8da9d8	-1.1067457
238	0x3fa668e9	1.3000766
239	0x3ec04766	0.37554473
240	0x3f9147b5	1.1350008
241	0x3e5cb585	0.21553619
242	0x3f20690e	0.626603
243	0xbf3b59a4	-0.73183656
244	0x3fbc1c72	1.4696181
245	0xbf5b847c	-0.8574903
246	0xc013e0bf	-2.3105924
247	0x3e74d0c4	0.23907763
248	0x3f44002d	0.7656277
249	0x3f73e103	0.95265216
250	0xbf666074	-0.89990926
251	0xc00475ff	-2.069702
252	0x3fc3ec95	1.5306574
253	0xbf0a59c6	-0.54043233
254	0xbee8ef47	-0.45495054
255	0x3f95162a	1.1647389

Q1.2.weight f4 [256, 256]
0	0x3f341e06	0.7035831
1	0xbd42d02b	-0.047561806
2	0xbdd40bae	-0.1035379
3	0x3db37e23	0.08764293
4	0xbc30e5b6	-0.010796955
5	0x3df4de9b	0.11956521
6	0x3eb53f59	0.35399893
7	0xbe918a58	-0.2842586
8	0xbd92bf30	-0.07165372
9	0xbe63a4e4	-0.2223087
10	0x3dc95108	0.098299086
11	0x3f108e96	0.5646757
12	0x3e83f056	0.257693
13	0xbe435af2	-0.19077662
14	0xbcf26c24	-0.029592581
15	0xbedfdf7b	-0.4372519
16	0xbf00c068	-0.5029359
17	0xbe8dd733	-0.27703246
18	0xbee6efd2	-0.45104843
19	0x3e0ccb3e	0.13749406
20	0xbdf64b17	-0.12026041
21	0xbf91bd6d	-1.1385933
22	0xbe039c37	-0.1285256
23	0xbf8a55ba	-1.0807412
24	0x3f22bc5a	0.6356865
25	0x3ea18f36	0.31554574
26	0xbf510e75	-0.81662685
27	0xbe178162	-0.1479545
28	0xbf6f7b09	-0.9354711
29	0x3e55225d	0.2081389
30	0xbf7ba6ce	-0.983014
31	0x3ca41278	0.020028338
32	0xbecd870a	-0.4014209
33	0x3e252667	0.1612793
34	0xbe2a58e4	-0.16635472
35	0xbd9e7a38	-0.07738155
36	0xbe1643ae	-0.14674255
37	0xbe32fec6	-0.17480001
38	0x3db514a2	0.08841826
39	0xbe8699f5	-0.26289335
40	0xbc16d340	-0.009205639
41	0xbe7c63f5	-0.24647506
42	0xbe450b5b	-0.19242613
43	0xbd0f6dec	-0.03501694
44	0xbe8f16d5	-0.27947107
45	0x3ca8d429	0.020608978
46	0xbe255fb7	-0.16149794
47	0xbea44ad0	-0.32088327
48	0x3dc4f902	0.09617807
49	0x3ddebc48	0.108757555
50	0xbe0bedaa	-0.1366488
51	0x3ef20b22	0.4727412
52	0xbca5839b	-0.020204356
53	0xbf0ad4c0	-0.5423088
54	0x3de1af3f	0.11019754
55	0x3e65288a	0.22378746
56	0x3eacf0d6	0.33777493
57	0x3cf772b7	0.030206067
58	0xbeaf1bb5	-0.34200826
59	0xbbb3fe53	-0.0054929643
60	0x3d4db0c5	0.05021741
61	0x3d6b2957	0.05741247
62	0x3e6c9bab	0.23106258
63	0x3dab97be	0.08378552
64	0x3ec81011	0.39074758
65	0x3e6fa649	0.23403277
66	0xbf0a517a	-0.54030573
67	0x3d63ff91	0.05566365
68	0xbe9025aa	-0.28153735
69	0xbf49be40	-0.78805923
70	0xbe4211ec	-0.18952149
71	0x3e76bd70	0.24095702
72	0xbf0430ba	-0.5163685
73	0x3ea0643a	0.31326467
74	0x3e761c0c	0.24034137
75	0xbe851dd1	-0.2599931
76	0x3e1cbd41	0.1530657
77	0x3e087e9c	0.13329548
78	0x3ed69182	0.4190789
79	0xbf9dda94	-1.233233
80	0xbd632261	-0.05545271
81	0xbe8d5d8f	-0.27610442
82	0x3f38e0c3	0.7221796
83	0xbe533caa	-0.2062861
84	0x3f45cb5d	0.7726343
85	0x3d112cb7	0.035443034
86	0xbea3d612	-0.3199926
87	0xbd4bcc82	-0.04975558
88	0xbe34f10e	-0.1767008
89	0xbdb22a17	-0.08699434
90	0xbdc772cc	-0.09738693
91	0x3e743cb1	0.23851277
92	0x3dbcef43	0.09225323
93	0xbe3a7719	-0.18209495
94	0x3dc13300	0.094335556
95	0xbd21ea29	-0.039529953
96	0xbe99cc40	-0.30038643
97	0x3e5c1baa	0.21494928
98	0x3de1e511	0.11030019
99	0xbd12a292	-0.03579957
100	0x3e5f257f	0.21791647
101	0x3d312a66	0.043253325
102	0x3e5b445a	0.21412793
103	0x3ca09544	0.019602425
104	0xbd8981cb	-0.06714209
105	0x3e831ac5	0.2560636
106	0x3d91e306	0.071233794
107	0x3f0ee338	0.5581546
108	0x3db561ae	0.088565215
109	0x3ed57a46	0.4169485
110	0xbe50a539	-0.20375527
111	0xbd6f48ff	-0.058419224
112	0xbe9ea145	-0.30982414
113	0x3d9bebd0	0.07613337
114	0x3c686f57	0.014186702
115	0xbe4afe1e	-0.198235
116	0x3da913b4	0.08255711
117	0xbe932a32	-0.2874313
118	0x3ec2de22	0.380601
119	0xbf2cdfb2	-0.6752883
120	0x3e8ad6ec	0.27117097
121	0x3d8b4ff1	0.06802357
122	0x3e30fc11	0.17283656
123	0x3eafe2eb	0.34352812
124	0xbe140e47	-0.14458571
125	0xbc5ed5a0	-0.013600737
126	0x3e7bc115	0.24585374
127	0x3d9dc338	0.07703251
128	0xbc8c2f4c	-0.017112397
129	0x3ddc8f0d	0.10769472
130	0xbdda55b3	-0.10660877
131	0xbf547a39	-0.82998997
132	0xbedb4518	-0.42826152
133	0xbf614a43	-0.8800394
134	0xbe5a5463	-0.21321253
135	0x3dd1f5e5	0.10251979
136	0xbef95858	-0.48700213
137	0x3f0c1d87	0.54732555
138	0x3d5ea32a	0.054354824
139	0xbd198b5a	-0.03748641
140	0xbdecdf37	-0.11566012
141	0x3e8b0190	0.2714963
142	0x3d066ade	0.03281676
143	0xbef11c5a	-0.47091943
144	0x3ef093a7	0.4698765
145	0x3f0937c0	0.5360069
146	0x3c005832	0.007833527
147	0xbede3b70	-0.43404722
148	0x3ce063e0	0.027391374
149	0xbc74a6ed	-0.014932376
150	0xbf448f46	-0.7678112
151	0xbeacd30f	-0.33754775
152	0x3dc854f0	0.097818255
153	0x3e42f081	0.19037057
154	0xbf30b949	-0.6903272
155	0x3df13046	0.117767856
156	0x3e6cb66a	0.2311646
157	0xbddbfe28	-0.10741836
158	0x3ec19d60	0.3781538
159	0xbddf138d	-0.10892401
160	0xbdae9cd5	-0.08526007
161	0x3df9d03b	0.1219792
162	0x3e3e6bfe	0.18595883
163	0x3f73c7ff	0.95227045
164	0x3d8ded1a	0.06929989
165	0x3f1ac248	0.604527
166	0x3d863d29	0.06554634
167	0xbd58dbf5	-0.052944142
168	0x3f30a555	0.69002277
169	0xbe471dde	-0.19444987
170	0x3d7aad12	0.06120021
171	0xbca151d3	-0.019692337
172	0xbe0d151a	-0.13777581
173	0xbf632d93	-0.88741416
174	0xbe697c13	-0.22801237
175	0xbc7d43e1	-0.015458078
176	0xbd45972d	-0.048239876
177	0x3e559c4c	0.20860404
178	0x399ce10d	0.00029922315
179	0xbf61efee	-0.8825673
180	0xbeab8ac6	-0.33504313
181	0xbe0d98bf	-0.138278
182	0x3f065f02	0.5248872
183	0xbdad83ec	-0.08472428
184	0x3deda5a6	0.116038606
185	0xbf503091	-0.81324106
186	0x3e60dd2b	0.21959369
187	0x3e59ba7b	0.21262543
188	0xbdd6a1de	-0.104800925
189	0xbe66d542	-0.22542289
190	0xbe2fe651	-0.17177702
191	0xbdb626ad	-0.088940956
192	0xbd4e3596	-0.050344072
193	0x3eb0a04b	0.34497294
194	0x3e0c0a45	0.13675793
195	0xbcc6c26f	-0.024262635
196	0xbe3934ed	-0.18086596
197	0xbf6fc49b	-0.9365937
198	0x3e1a6fef	0.15081762
199	0xbe1add85	-0.15123565
200	0xbede1d22	-0.43381602
201	0xbc5ae896	-0.013361117
202	0xbee7b491	-0.4525495
203	0xbf0bb022	-0.5456563
204	0x3da83edb	0.08215114
205	0x3d262d6b	0.040570658
206	0xbd54306e	-0.051804
207	0xbf14161c	-0.57846236
208	0x3cbc6aa1	0.023000063
209	0xbf15fad6	-0.5858587
210	0x3da1ec7b	0.07906433
211	0x3e26df4c	0.16296118
212	0xbe4cc8ba	-0.19998446
213	0xbe71cbcb	-0.23612897
214	0xbeb2ca89	-0.34920147
215	0xbe2fe68c	-0.1717779
216	0xbee4815b	-0.4462994
217	0xc0358c75	-2.8366978
218	0xbeab87e2	-0.33502108
219	0xbd4374fe	-0.047718994
220	0x3de92a45	0.113850154
221	0x3c702d3d	0.014659223
222	0x3e8d1a1f	0.2755899
223	0xbebbaf15	-0.36657014
224	0x3e8310a7	0.25598642
225	0xbeae6005	-0.34057632
226	0xbe6d114b	-0.23151128
227	0x3e780abb	0.24222843
228	0xbe1994a1	-0.14998104
229	0xbfb5f590	-1.4215565
230	0x3df9c487	0.12195688
231	0xbd49553f	-0.049153563
232	0xbd951138	-0.07278675
233	0x3b99225e	0.0046732863
234	0x3caa4d6d	0.020788873
235	0xbdc46cee	-0.09591089
236	0x3e93c8dd	0.28864184
237	0xbec06aae	-0.3758139
238	0xbf03a13a	-0.5141789
239	0xbed2cc8d	-0.41171685
240	0xba571697	-0.0008204965
241	0x3e4264ac	0.18983716
242	0x3db081e4	0.08618525
243	0x3eb5c03b	0.35498223
244	0x3cdd85d1	0.027041348
245	0xbd865b5e	-0.06560396
246	0x3f050a2b	0.5196864
247	0x3e1ab1f2	0.15106943
248	0x3e68bfbd	0.22729392
249	0x3e6af2d9	0.22944202
250	0x3d5d5ec2	0.054045446
251	0x3edcc3db	0.43118176
252	0xbf8ba2c5	-1.0909048
253	0x3f1b8971	0.60756594
254	0xbe2700c8	-0.16308892
255	0x3d8f7a3c	0.07005736

Q1.2.bias f4 [256]
0	0xbfaa5615	-1.330752
1	0xbf93b50b	-1.1539625
2	0x3fae1a1f	1.3601722
3	0x4000260b	2.002322
4	0xbfd065e6	-1.6281097
5	0x3fe59241	1.7935258
6	0x4007c6f5	2.1215184
7	0xbf87dc79	-1.0614158
8	0xbf0e5226	-0.555941
9	0x40053d39	2.0818617
10	0xbf102cb4	-0.5631821
11	0x3fcb77d5	1.5895945
12	0x4005dee2	2.0917287
13	0xbf99f47a	-1.2027733
14	0xbfb7e4d6	-1.436671
15	0x3feca67d	1.8488308
16	0xbfb25c82	-1.3934481
17	0xbfb19fe9	-1.3876926
18	0xbfb9f616	-1.4528224
19	0x3fec75d0	1.8473454
20	0x40052fa6	2.0810332
21	0xbfd097c8	-1.629632
22	0x400573cb	2.0851924
23	0xbf294667	-0.6612305
24	0x3ffb7a5b	1.9646715
25	0xbfaafe1e	-1.33588
26	0x3feea3b8	1.8643713
27	0xbf983f18	-1.1894255
28	0xbfae41d6	-1.3613842
29	0x3fe6c788	1.8029642
30	0xbf75bc65	-0.9599059
31	0xbf8e3805	-1.1110846
32	0x3fee2d26	1.8607528
33	0x3fa4464d	1.2833954
34	0x3f9a25de	1.2042806
35	0xbf57e278	-0.8432994
36	0x3ff210da	1.8911393
37	0xbf7f8688	-0.99814653
38	0x4002cbb6	2.0436835
39	0x3fd44309	1.6582958
40	0xbfcf660b	-1.6203016
41	0xbf5d8232	-0.8652679
42	0x3ffe491f	1.9866065
43	0xbfa722e5	-1.3057524
44	0xbf732e00	-0.94992065
45	0xbf91ebae	-1.1400049
46	0x400184f1	2.023739
47	0x3fd71555	1.6803385
48	0xbfc6e458	-1.5538435
49	0x3fcc22f5	1.5948168
50	0x3febbce5	1.8417021
51	0xbf76fbd6	-0.9647802
52	0xbf6de304	-0.92924523
53	0xbf86dc44	-1.053597
54	0xbf9fdb68	-1.2488832
55	0x3fea09d4	1.8284249
56	0xbfc86580	-1.5655975
57	0xbfa931e8	-1.3218355
58	0xbfc4c2cc	-1.5371947
59	0xbfc2ae02	-1.5209353
60	0xbfbac6e2	-1.4591944
61	0x3ffca2e9	1.9737216
62	0xbe9bd221	-0.30433753
63	0xbfb05ff6	-1.3779285
64	0x4005f988	2.0933552
65	0x3fa62399	1.2979614
66	0xbfa7c388	-1.3106546
67	0x4005da0f	2.0914342
68	0xbfe7c5a0	-1.8107185
69	0x4002c7a6	2.0434356
70	0xbf335ee1	-0.7006665
71	0x4005d4c0	2.0911102
72	0x3fdc429f	1.7207831
73	0xbfb5ab20	-1.4192848
74	0x4002b635	2.042371
75	0x3ff45362	1.9087946
76	0x3fd00030	1.6250057
77	0xbfa99b03	-1.3250431
78	0x3fffb1ce	1.9976137
79	0x4005c903	2.0903938
80	0xbf9c71f8	-1.222228
81	0x3e50e71d	0.20400663
82	0x3ff3494a	1.9006741
83	0xbf876590	-1.057787
84	0xbef85f9b	-0.4851044
85	0x400613e8	2.094965
86	0x40079e8d	2.1190522
87	0xbf96ee65	-1.1791502
88	0x3fe7eb77	1.8118733
89	0x3fd571c5	1.6675345
90	0xbf9601fe	-1.1719358
91	0xbed839a1	-0.42231467
92	0xbf228393	-0.63482016
93	0xbfbbe979	-1.4680625
94	0xbf6cd0d7	-0.92506164
95	0xbfa89eeb	-1.3173498
96	0xbf5684ad	-0.837962
97	0x3fbef272	1.4917738
98	0x3ffc84c1	1.9728013
99	0x4006c5cf	2.1058233
100	0xbfd15a3d	-1.6355664
101	0x3fb92da3	1.4467052
102	0xbfdcf22f	-1.7261409
103	0x40029101	2.0401003
104	0xbfc126e7	-1.5089997
105	0xbf85f755	-1.0466105
106	0x3fd93879	1.6970359
107	0x40044bad	2.067119
108	0x3ffb0379	1.9610435
109	0x3fe7e96e	1.8118112
110	0x4000f8e7	2.0151918
111	0xbf9bb888	-1.216569
112	0x3ffb4fe1	1.9633752
113	0xbf936e5c	-1.1518054
114	0xbf3036dc	-0.6883371
115	0x3ffeba77	1.9900655
116	0x3ffcd85b	1.9753526
117	0x4005c2af	2.0900075
118	0xbf9e2141	-1.2353898
119	0xbf9444d7	-1.1583508
120	0xbfa0343c	-1.2515941
121	0xbf80cad0	-1.0061893
122	0xbfc6043e	-1.5470045
123	0x3ff235e4	1.8922696
124	0x3fecd792	1.8503287
125	0xbfb74b7a	-1.4319909
126	0xbf54b811	-0.83093363
127	0xbf937708	-1.15207
128	0xbfd33105	-1.6499335
129	0x3fc4fe55	1.5390116
130	0xbfccc6d1	-1.5998174
131	0xbfc46960	-1.5344658
132	0x40044089	2.066439
133	0x4001c81f	2.0278394
134	0xbfc52df4	-1.5404649
135	0xbfaecd21	-1.365635
136	0xbf84ddeb	-1.0380224
137	0xbfcc660b	-1.5968641
138	0x4004830b	2.0704982
139	0xbf9a632d	-1.2061516
140	0xbfa288a1	-1.2697946
141	0xbf859ab3	-1.0437835
142	0xbfd192d3	-1.6372932
143	0xbfca27d9	-1.579341
144	0x3fe88bae	1.8167627
145	0x3ff69088	1.9262857
146	0xbf5575c7	-0.8338284
147	0xbeb43a73	-0.35200843
148	0x40066770	2.1000633
149	0xbfb779e2	-1.4334071
150	0xbfd44003	-1.6582035
151	0x40063307	2.0968645
152	0x3fe166f8	1.7609549
153	0x40053678	2.0814495
154	0xbf39ae46	-0.72531545
155	0xbfc69ccc	-1.5516601
156	0x3f739b62	0.9515897
157	0xbfc91a8b	-1.5711225
158	0x3fed9759	1.8561813
159	0xbf72459e	-0.9463748
160	0xbfa7d130	-1.3110714
161	0xbf2130b1	-0.6296492
162	0x3ffc8f04	1.9731145
163	0xbf95f854	-1.1716409
164	0xbf8a2c8c	-1.0794845
165	0xbf4d59fc	-0.8021543
166	0xbf452920	-0.77015877
167	0xbfca9ef3	-1.5829757
168	0xbfc5a3cf	-1.5440615
169	0xbf3ed03a	-0.7453648
170	0x3ff48fb3	1.9106354
171	0xbfa0ad0b	-1.2552809
172	0xbfc2dc8b	-1.5223554
173	0x3ff1938d	1.8873154
174	0x40089c13	2.134526
175	0x3ff50814	1.914309
176	0x3ffdd9a1	1.983204
177	0x3ff894d0	1.9420414
178	0xbfc055ed	-1.5026222
179	0x3fd2573c	1.6432872
180	0x3fd395c7	1.6530083
181	0xbfbd42b7	-1.4785985
182	0xbfcb6e47	-1.5893029
183	0xbfd6c007	-1.6777352
184	0x3fe807f5	1.8127428
185	0xbf0b1998	-0.5433593
186	0x4000869a	2.0082154
187	0xbf9649a2	-1.1741221
188	0xbfacf06d	-1.3510872
189	0xbfc98589	-1.5743877
190	0xbf0986c9	-0.5372129
191	0xbfba2dd6	-1.4545238
192	0x3ff3dc6c	1.9051642
193	0xbfd32266	-1.6494873
194	0xbf9db537	-1.2320927
195	0x40012203	2.017701
196	0x3fffcbcd	1.998407
197	0x3ffda135	1.9814821
198	0x4004480f	2.066898
199	0x3fd5490e	1.666292
200	0x4001b52d	2.026683
201	0x3ff0fdef	1.8827494
202	0x3fd162bd	1.6358258
203	0x40014fff	2.0205076
204	0x3fe0b14a	1.7554104
205	0xbfbb8629	-1.4650317
206	0xbfd1cdc9	-1.6390926
207	0xbf9d4f09	-1.2289745
208	0x3f9eb2df	1.2398337
209	0x4005c752	2.0902905
210	0x3fd2d3c2	1.6470873
211	0xbf5605d3	-0.8360264
212	0xbfbfa499	-1.4972106
213	0x3ff8afc5	1.9428641
214	0xbfb3792a	-1.4021351
215	0xbfd9d61a	-1.7018464
216	0x3fdbb035	1.7163149
217	0xbfaaac8a	-1.3333905
218	0x4000448e	2.0041842
219	0x3ffa549a	1.9557068
220	0x3fa8ca47	1.318673
221	0xbf900ab1	-1.1253263
222	0xbfbcc057	-1.4746197
223	0x400692e5	2.1027157
224	0x4004b30f	2.0734289
225	0x40042c04	2.0651865
226	0xbf433e03	-0.762665
227	0x3fde0643	1.7345661
228	0xbf6f5bc3	-0.9349939
229	0x40029854	2.0405474
230	0x3faebfb4	1.3652253
231	0xbf78e3b1	-0.9722243
232	0xbfc1a2d0	-1.5127811
233	0xbf521a9a	-0.8207184
234	0xbfd08332	-1.6290038
235	0x3fee6402	1.862427
236	0x40009db0	2.0096245
237	0xbfbcd199	-1.4751464
238	0x40020860	2.0317612
239	0x3fde1721	1.7350808
240	0xbf8e1fab	-1.1103414
241	0x4000968e	2.0091891
242	0xbf6b96c6	-0.92026937
243	0x40035202	2.0518804
244	0x3fc81382	1.5630953
245	0xbe1258e1	-0.14291717
246	0x400635ac	2.0970259
247	0x4005dbb9	2.0915358
248	0xbfb6d2c0	-1.4283066
249	0x3fe3baca	1.7791378
250	0xbfa66999	-1.3000976
251	0xbfc764cc	-1.5577636
252	0x3fea4b09	1.8304149
253	0xbcf65bf2	-0.03007314
254	0x3fdd7cd5	1.7303721
255	0x3f3ce6d8	0.7378974

Q1.4.weight f4 [1, 256]
0	0xc01a2a45	-2.40883
1	0xbf69d4db	-0.91340417
2	0x40127dab	2.2889202
3	0x3f054542	0.52058804
4	0xbf0f8583	-0.560631
5	0x3f4d5f07	0.80223125
6	0x3e82a66b	0.25517592
7	0xbf8c71fa	-1.0972283
8	0xc0b095b9	-5.5182767
9	0x3e8af35d	0.27138796
10	0xc127ba75	-10.483022
11	0x3f608104	0.8769686
12	0x3e84d18d	0.25941125
13	0xbf2345b8	-0.6377826
14	0xbf374cc5	-0.71601516
15	0x3ea9b1e7	0.3314354
16	0xbf2d818b	-0.6777579
17	0xbf007738	-0.50181913
18	0xbf9b5f6a	-1.2138493
19	0x3e5a3d93	0.21312551
20	0x3e83a495	0.25711504
21	0xc0159e34	-2.337781
22	0x3e904725	0.2817928
23	0xc08f2497	-4.4732165
24	0x3e55ba4f	0.20871852
25	0xbf18ed93	-0.5973751
26	0x3e66c7db	0.22537176
27	0xbee874dc	-0.45401657
28	0xbf3affa4	-0.73046327
29	0x3f34ade8	0.7057786
30	0xc0128f19	-2.289984
31	0xbf4c51c6	-0.79812276
32	0x3effa3e1	0.49929717
33	0x3f4dd206	0.80398595
34	0x3f599ccd	0.85004884
35	0xbfc0d95d	-1.5066334
36	0x3ef2d36c	0.47426927
37	0xbf8b8b59	-1.09019
38	0x3e917e9d	0.2841691
39	0x3f2cfd60	0.6757412
40	0xbf1d88f3	-0.6153709
41	0xc081d47a	-4.057187
42	0x3e825664	0.25456536
43	0xbf3a3bf7	-0.7274775
44	0xbffebd0e	-1.9901445
45	0xbf8f1058	-1.1176863
46	0x3e8021ca	0.2502578
47	0x3f0fbd82	0.5614854
48	0xbf65e230	-0.8979826
49	0x3ef5142c	0.47866952
50	0x3f07ab89	0.52996117
51	0xbfcfd9fa	-1.6238396
52	0xbfaf0a70	-1.367506
53	0xbf26d1af	-0.651637
54	0xbf73b669	-0.9520021
55	0x3eeb3fb5	0.45947042
56	0xbf25f4f2	-0.6482688
57	0xc00be17d	-2.1856377
58	0xbf615b39	-0.8802982
59	0xbf27b409	-0.65509087
60	0xbf0fb7fd	-0.5614012
61	0x3e917aa2	0.28413874
62	0xc15ef921	-13.9358225
63	0xbf685de0	-0.9076824
64	0x3e6d59af	0.23178743
65	0x3fef25c5	1.8683401
66	0xbefbe653	-0.4919916
67	0x3e8ca0f2	0.27466542
68	0xbf284dc6	-0.6574367
69	0x3e5841d4	0.21118861
70	0xc01e517c	-2.4737234
71	0x3e5d2ebe	0.21599862
72	0x3f2f608c	0.68506694
73	0xbf3df3e8	-0.74200296
74	0x3e6d0ff7	0.23150621
75	0x3e93cdc6	0.2886793
76	0x3f488fbe	0.78344333
77	0xbf587e2c	-0.84567523
78	0x3ea39950	0.31952906
79	0x3e6ee9f0	0.23331428
80	0xc0f3b42b	-7.615743
81	0x409b8faf	4.8612895
82	0x3eb77a61	0.35835555
83	0xbfd01f8d	-1.6259629
84	0xc0e1282f	-7.036155
85	0x3e7cedb0	0.24700046
86	0x3e85dbaf	0.26144168
87	0xbfc22941	-1.516884
88	0x3eab0249	0.3340018
89	0x3eed80f3	0.46387443
90	0xbf108a5a	-0.5646111
91	0xc0ec762c	-7.3894253
92	0xc0615b22	-3.5211873
93	0xbf374b1f	-0.71599
94	0xbfa93a9d	-1.3221012
95	0xbef7bcfa	-0.48386365
96	0xc027b404	-2.6203623
97	0x3f8e2050	1.1103611
98	0x3e96c07f	0.29443738
99	0x3e994e5b	0.29942593
100	0xbf1ea867	-0.6197571
101	0x3f454302	0.7705537
102	0xbf5506f0	-0.8321371
103	0x3e801833	0.25018463
104	0xbfe37f3e	-1.7773206
105	0xbf9be63f	-1.217964
106	0x3ef316f5	0.47478452
107	0x3e871a11	0.26387075
108	0x3ebb3193	0.3656126
109	0x3f2816fa	0.6566006
110	0x3e678c77	0.22612177
111	0xbfd96fc8	-1.6987238
112	0x3e8d8d7d	0.2764701
113	0xc01b11c1	-2.4229586
114	0xbfed5595	-1.8541743
115	0x3e816be6	0.25277632
116	0x3e8cbdb4	0.27488482
117	0x3e75275e	0.23940799
118	0xc02ba3e8	-2.681879
119	0xc049adb7	-3.1512277
120	0xbf82470f	-1.0177935
121	0xbfb433f7	-1.4078358
122	0xbf1f1bfa	-0.62152064
123	0x3efa3ebd	0.4887599
124	0x3f70db74	0.9408486
125	0xbf2bef9a	-0.6716248
126	0xc04c1fe9	-3.1894476
127	0xbf92683c	-1.143806
128	0xbf32624c	-0.6968124
129	0x3f52b0d1	0.8230105
130	0xbef556e3	-0.47917852
131	0xbf63e692	-0.890237
132	0x3e831c4f	0.25607535
133	0x3e909688	0.28239846
134	0xbf7d41b9	-0.9892841
135	0xbf9cf5b6	-1.2262485
136	0xc09e151b	-4.9400764
137	0xbed14459	-0.40872458
138	0x3e954c9b	0.29160008
139	0xbf43ba82	-0.76456463
140	0xbf410433	-0.7539703
141	0xbf1b9a57	-0.6078238
142	0xbf3849ca	-0.71987593
143	0xbfd89589	-1.6920635
144	0x3ebed6f6	0.37273377
145	0x3e824b72	0.25448185
146	0xbfd50e7f	-1.6645049
147	0xc0c3344f	-6.1001353
148	0x3e7a106a	0.24420324
149	0xbefcf462	-0.494052
150	0xbf3e616b	-0.743674
151	0x3e932534	0.2873932
152	0x3eadf5e9	0.33976677
153	0x3e78fff9	0.24316396
154	0xc098220c	-4.754156
155	0xbfaf7185	-1.3706518
156	0x40853a51	4.1633687
157	0xbf02b47d	-0.51056653
158	0x3ec8e950	0.39240503
159	0xbf6b9ba1	-0.92034346
160	0xbf76de72	-0.96433175
161	0xc0af454a	-5.477208
162	0x3e9b8d34	0.30381167
163	0xbfa5ba6a	-1.2947514
164	0xc02cfc64	-2.7029047
165	0xc0c4ab01	-6.1458745
166	0xc0601c2d	-3.5017197
167	0xbf196175	-0.5991433
168	0xbf16d776	-0.5892252
169	0xbfeb7dad	-1.8397728
170	0x3eb4e145	0.35328117
171	0xbf23d657	-0.6399893
172	0xbf4f3d7d	-0.809532
173	0x3ea9b70c	0.33147466
174	0x3e92df78	0.28686118
175	0x3edf8347	0.43654844
176	0x3e698abe	0.22806832
177	0x3ece5aaa	0.40303546
178	0xbf0202f1	-0.5078574
179	0x3f0726e4	0.5279372
180	0x3eeb50e0	0.4596014
181	0xbf044cf8	-0.51679945
182	0xbf06a80e	-0.5260018
183	0xbec35684	-0.38151944
184	0x3ea056d0	0.31316233
185	0xc095d8a8	-4.6826973
186	0x3e82b3e5	0.25527874
187	0xbf8f1ea6	-1.1181228
188	0xbfc742e5	-1.556729
189	0xbf211fc8	-0.6293912
190	0xc115d271	-9.363877
191	0xbf778cbf	-0.96699136
192	0x3ec67958	0.38764453
193	0xbea48df3	-0.3213955
194	0xbf0019e4	-0.50039506
195	0x3e8f99b9	0.2804697
196	0x3e4e36ce	0.20138094
197	0x3e975169	0.295543
198	0x3e8783b8	0.2646768
199	0x3eb13ea3	0.346181
200	0x3eb874b3	0.36026534
201	0x3f302c3b	0.6881749
202	0x3f04f077	0.5192942
203	0x3e861066	0.26184386
204	0x3e750e20	0.2393117
205	0xbfd47031	-1.6596738
206	0xbf2b7911	-0.6698161
207	0xbf9d6458	-1.2296247
208	0x3f1b5cc9	0.60688454
209	0x3e939ddc	0.28831375
210	0x403dca64	2.965478
211	0xbfa96dab	-1.3236593
212	0xbf1cc181	-0.61232764
213	0x3f617ca4	0.8808081
214	0xbf0c77f9	-0.54870564
215	0xbf5b8ff6	-0.8576654
216	0x3f0e71d6	0.5564245
217	0xbf8f33f9	-1.1187736
218	0x3e74b309	0.23896421
219	0x3eb4ccb0	0.35312414
220	0x3ff7f539	1.9371711
221	0xc0294ecf	-2.645435
222	0xbf0d311e	-0.5515307
223	0x3e883e0c	0.26609838
224	0x3e86134c	0.26186597
225	0x3e886c77	0.26645252
226	0xc08b29bb	-4.348844
227	0x3f0d5ada	0.55216753
228	0xbf4b7265	-0.7947143
229	0x3e77319c	0.24140018
230	0x3f5262e2	0.82182133
231	0xc0fc307a	-7.8809175
232	0xbeee6e98	-0.4656875
233	0xbf9a6942	-1.2063372
234	0xbf0fe299	-0.56205136
235	0x3efb615d	0.4909772
236	0x3e87f6d1	0.26555493
237	0xbfe62a53	-1.7981666
238	0x3e835a05	0.25654617
239	0x3f0430f5	0.516372
240	0xbff65b32	-1.9246581
241	0x3ebc77c3	0.3681012
242	0xc063618b	-3.5528286
243	0x3e86aeb8	0.26305175
244	0x3f2f894e	0.68568885
245	0xc0bd0193	-5.906442
246	0x3e79cadf	0.24393795
247	0x3e76c891	0.24099948
248	0xbf3ea81e	-0.74475276
249	0x3f469937	0.7757754
250	0xbf09d6a0	-0.53843117
251	0xbf7833f6	-0.96954286
252	0x3eac23ed	0.3362116
253	0x3c422767	0.011850215
254	0x3ee60a03	0.44929513
255	0x40231fbd	2.5488122

Q2.0.weight f4 [256, 23]
0	0x4109b846	8.607489
1	0xbf8dd34c	-1.1080108
2	0xbf6ba139	-0.9204288
3	0x3db42052	0.08795227
4	0x3e52080c	0.20510882
5	0x3efcf356	0.494044
6	0xbf8b2cda	-1.0873063
7	0xbf094b01	-0.5363007
8	0x3e189fff	0.14904784
9	0xbf0b951a	-0.54524386
10	0x3e9dae15	0.30796877
11	0x3c235724	0.009969506
12	0x3cbf8745	0.023379931
13	0xbc1603e3	-0.0091562
14	0xbb0a6298	-0.0021115895
15	0xbb82d5c8	-0.00399277
16	0xbb817dce	-0.0039517647
17	0x3e49669a	0.19668046
18	0x3dcd2596	0.100169346
19	0x3e143c3d	0.14476104
20	0xbdecc0af	-0.11560189
21	0xbed693a8	-0.41909528
22	0xbe24cda7	-0.16094075
23	0x400fb4b6	2.2454047
24	0xbd8067c9	-0.062697954
25	0x3f355f37	0.7084841
26	0x3e96d191	0.2945676
27	0xbf03f972	-0.515525
28	0x3edb9b88	0.42892098
29	0x3fe6a035	1.8017641
30	0x3f3c91a3	0.73659724
31	0xbf43c079	-0.76465565
32	0x3f220e5b	0.63303155
33	0xbd562c66	-0.052288435
34	0x3cae6b5a	0.021291424
35	0xbe8086d3	-0.25102863
36	0x3e098ec2	0.13433364
37	0x3d8b3af2	0.06798352
38	0x3e3c7e44	0.18407542
39	0xbc0440f0	-0.008072123
40	0xbf029a26	-0.5101646
41	0xbf3a2966	-0.7271942
42	0xbdf4c160	-0.11950946
43	0x3e2dca74	0.16971761
44	0x3ee4e4e5	0.44705883
45	0xbf860e30	-1.047308
46	0x3ec33f24	0.3813411
47	0xc0843606	-4.1315947
48	0xbfa951e8	-1.3228121
49	0xbf56ec7f	-0.83954614
50	0xbe603af1	-0.21897484
51	0xbf5fc1e7	-0.87405246
52	0x3f0d4a8d	0.5519188
53	0x3eb7a0c3	0.3586484
54	0xbddd71f7	-0.10812753
55	0xbf24a5d9	-0.64315563
56	0xbdec6122	-0.11541964
57	0xbddd74c0	-0.10813284
58	0xbda46099	-0.08026237
59	0x384be14c	4.8608796e-05
60	0xbca1f343	-0.019769317
61	0x3cd1c7bf	0.025607942
62	0xbc7740a1	-0.015091092
63	0xbcb1b5df	-0.021693168
64	0xbf2c107f	-0.6721267
65	0x3ecb42f7	0.39699528
66	0x3f6593a0	0.8967838
67	0x3d526dab	0.05137412
68	0xbdd44f2a	-0.10366662
69	0x4016cf7a	2.3564134
70	0x3f2b261b	0.6685502
71	0xbde9caca	-0.11415632
72	0xbd004be3	-0.03132237
73	0xbf07cd77	-0.5304789
74	0xbee5d801	-0.4489136
75	0xbfa475da	-1.2848465
76	0xbf4b9faa	-0.79540503
77	0x3d860b53	0.06545129
78	0x3f78686f	0.97034353
79	0x3e9d62ea	0.30739528
80	0xbd6c3e49	-0.057676587
81	0xbd9232a1	-0.07138563
82	0x3ca2bb0f	0.019864587
83	0x3c9f5637	0.01945029
84	0xbd1b48b8	-0.037911147
85	0xbd6b9478	-0.057514638
86	0xbf0b4f72	-0.544181
87	0x3e4c3a25	0.19944055
88	0xbd83acf6	-0.06429474
89	0x3f6a60c9	0.9155393
90	0xbeb186c1	-0.34673122
91	0xb989c5ef	-0.00026278148
92	0x4030c0f9	2.761778
93	0xbf2279d4	-0.63467145
94	0x3dddeaeb	0.10835823
95	0xbe37b873	-0.17941456
96	0xbeb91069	-0.36145332
97	0xbdf20570	-0.11817443
98	0x3f3d5b6a	0.7396761
99	0xbe8b54db	-0.27213177
100	0xbd79b67a	-0.06096504
101	0x3f172879	0.5904613
102	0xbecc1519	-0.39859846
103	0xbcd12b4b	-0.025533339
104	0xbc4685f8	-0.012116902
105	0x3c4ec00b	0.012619029
106	0x3d13ec8a	0.036114253
107	0xbd391a57	-0.045191135
108	0xba5d8740	-0.0008450635
109	0x3f2ac082	0.66699994
110	0x3c4871c9	0.01223416
111	0x3e8203dd	0.25393572
112	0xbf129287	-0.57254833
113	0xbd9b8a26	-0.07594709
114	0x3e3c75d6	0.18404326
115	0x4035c652	2.8402295
116	0x3ebd3109	0.36951473
117	0xbf7f0350	-0.9961443
118	0xbd05f9bb	-0.032708865
119	0x3eda5ace	0.42647403
120	0x3f6e8f5b	0.93187493
121	0x3d5d6f0d	0.054060984
122	0xbfa7ea29	-1.3118335
123	0xbd71acf5	-0.059002835
124	0xbee75057	-0.45178482
125	0xbee6f6e9	-0.45110252
126	0x3c83f239	0.016106712
127	0xbd1e5007	-0.03865054
128	0xbcfd6fee	-0.030937161
129	0xbc8efec2	-0.017455462
130	0xbde82ad7	-0.11336296
131	0x3de66e99	0.112515636
132	0x3eff49bd	0.49860945
133	0x3ed6bd12	0.41941124
134	0x3fab6c49	1.3392421
135	0x3da623c4	0.081122905
136	0xbe9d86a8	-0.30766797
137	0xbc91fa6d	-0.017819608
138	0x3f4826a6	0.7818397
139	0x3de57c72	0.11205377
140	0x3ead452e	0.33841842
141	0x3ea316e1	0.31853393
142	0xbf153c97	-0.5829558
143	0x3ec5fa57	0.38667557
144	0xbe295862	-0.16537622
145	0xbf5abe93	-0.85447043
146	0xbdbc260a	-0.09186943
147	0xbf02dbef	-0.5111684
148	0x3c0f8e59	0.008761966
149	0xbc3e774f	-0.011625125
150	0xbe108877	-0.14114557
151	0xbd0cee53	-0.03440697
152	0xbe2ba85a	-0.1676344
153	0xbdc661a4	-0.09686592
154	0xbb283dad	-0.0025671527
155	0x3de89396	0.11356275
156	0xbf024db3	-0.5089981
157	0xbe14abf7	-0.14518724
158	0x3e476d34	0.19475251
159	0x3da36305	0.07977871
160	0x3ee706a1	0.45122245
161	0xbb0cc2a8	-0.002147833
162	0xbf3dede9	-0.7419115
163	0x3f90d666	1.1315429
164	0xbecf02b3	-0.40431747
165	0x3f958c83	1.1683506
166	0x3ff001ba	1.8750527
167	0x3eea9a0d	0.45820656
168	0x3f721301	0.9456025
169	0xbdbcb15c	-0.09213516
170	0x3f418590	0.75594425
171	0x3f776481	0.9663773
172	0x3e4811c6	0.1953803
173	0x3e65a480	0.22426033
174	0x3d8520e1	0.06500412
175	0xbd7968b4	-0.06089087
176	0xbcbb9f31	-0.022903057
177	0xbd57856d	-0.05261748
178	0xbf63bbb5	-0.88958293
179	0x3ebe2560	0.3713789
180	0xbd86db5c	-0.06584808
181	0xbeb87fad	-0.3603491
182	0xbf3c78c4	-0.73621774
183	0xbe944675	-0.28960004
184	0xbf28da90	-0.659585
185	0xbf006f52	-0.5016986
186	0x3fb537b8	1.4157629
187	0xbf415e3f	-0.75534433
188	0xbf04cad5	-0.51872
189	0x3f6b73d2	0.919736
190	0xbfdced04	-1.7259831
191	0x3f5c59b3	0.8607437
192	0xbe64c145	-0.22339351
193	0x3e375aec	0.17905778
194	0xbefd8e27	-0.49522516
195	0x3c1ad2dc	0.009449687
196	0xbe01d35d	-0.12678285
197	0xbd9e1aec	-0.07719979
198	0x3d3d19cd	0.046167184
199	0xbde19bd1	-0.11016048
200	0xbd259ea9	-0.040434513
201	0xbcddb776	-0.02706502
202	0xbee39a06	-0.44453448
203	0xbec8bd37	-0.3920686
204	0xbe52f0ea	-0.20599714
205	0xbe09998c	-0.1343748
206	0x3e348e17	0.17632328
207	0x3fd30f27	1.6488999
208	0x3f92550c	1.1432204
209	0x3f027e62	0.50974095
210	0x3e0f883e	0.14016816
211	0xbea9b573	-0.33146247
212	0x3ead4c06	0.33847064
213	0xbe437877	-0.19088922
214	0xbf8c6eb1	-1.097128
215	0x3e5df971	0.21677186
216	0x3e854138	0.2602632
217	0x3c015c1c	0.007895496
218	0xbd914ab8	-0.070943296
219	0xbcc7434c	-0.024324082
220	0xbcef0161	-0.029175462
221	0x3d7a20bb	0.06106637
222	0xbdd2e6bb	-0.102979146
223	0xbd075ff9	-0.03305051
224	0x3f353c6a	0.7079531
225	0x3e6b7efc	0.2299766
226	0xbe57113c	-0.21002668
227	0x3de6d20e	0.112705335
228	0xbe83ddbe	-0.25755113
229	0xbee250d8	-0.44202304
230	0x3f91da9c	1.1394839
231	0x3da8516b	0.08218654
232	0x3f0bdcf0	0.54634
233	0xbfa1245f	-1.2589225
234	0x3e5eead0	0.21769261
235	0xbea2ab9f	-0.31771562
236	0x3f7652a4	0.9621985
237	0x3ff3ab1c	1.9036593
238	0xbf4fe38b	-0.8120658
239	0xbe09dc55	-0.13462956
240	0xbf5ec2e8	-0.87016153
241	0xbe1b96e6	-0.15194282
242	0xbcf2b12f	-0.029625503
243	0xbe56ae42	-0.20964912
244	0xbdbde43a	-0.092720464
245	0xbd5d5b47	-0.054042127
246	0xbda1026c	-0.0786179
247	0x3e7821ca	0.2423164
248	0xbf1d36ac	-0.6141155
249	0xbf460485	-0.77350646
250	0xbfd2bcb9	-1.6463844
251	0x3f019c61	0.5062924
252	0xbf48b463	-0.7840025
253	0xc06ebe3a	-3.7303605
254	0xc05ec90d	-3.4810212
255	0x3eba15ee	0.36344856

Q2.0.bias f4 [256]
0	0x3f1291cb	0.5725371
1	0xbeafe05d	-0.34350863
2	0x3f84b8f4	1.0368943
3	0xbf6f63be	-0.9351157
4	0x3faec503	1.3653873
5	0x3e2c8d54	0.16850787
6	0xbfa3c4c4	-1.2794423
7	0xbfc931f7	-1.5718373
8	0x3f5762c2	0.8413507
9	0xbf8ebdf2	-1.1151717
10	0xbf5b2a5d	-0.85611516
11	0xbf277f24	-0.65428376
12	0xbf838dec	-1.0277686
13	0x3f82e038	1.0224676
14	0x3fc225dc	1.5167804
15	0xbf969e2f	-1.1767024
16	0x3f8c5aae	1.0965173
17	0x3f5093dd	0.8147562
18	0x3fd33df0	1.6503277
19	0xbf64710f	-0.89235014
20	0x3f342d1a	0.7038132
21	0xbf670cd9	-0.9025398
22	0x3f4085a8	0.75203943
23	0x3f3ce6d0	0.7378969
24	0x3f3a79c1	0.7284203
25	0x3ec37596	0.38175648
26	0x3e9c6235	0.30543676
27	0xbe651eb1	-0.22374989
28	0x3ea3651b	0.31913075
29	0xbf8cca11	-1.0999166
30	0x3fbc9450	1.4732761
31	0xbf942b1e	-1.1575658
32	0xbf0e6581	-0.5562363
33	0x3fd2d2a0	1.6470528
34	0x3f2261eb	0.6343066
35	0xbce8a3a1	-0.028398337
36	0xbf3289c6	-0.69741476
37	0xbf7a80aa	-0.97852576
38	0x3f8b6da2	1.0892832
39	0xbf7dcefe	-0.9914397
40	0xbe642db8	-0.22283065
41	0xbf874bfa	-1.0570061
42	0x3fbec5ea	1.4904149
43	0xbf52d962	-0.8236295
44	0xbfa553f8	-1.291625
45	0x3f80e84a	1.0070889
46	0x3e1d5c47	0.15367232
47	0xbfac1b1e	-1.3445776
48	0xbf97f165	-1.1870543
49	0x3ea0fe43	0.31443986
50	0xbf6da12a	-0.9282404
51	0x3f8c4dbc	1.0961223
52	0x3fcc3652	1.5954077
53	0x3fb97d4d	1.4491364
54	0xbfd7f205	-1.6870733
55	0xbfe082b9	-1.7539893
56	0xbfb262d4	-1.393641
57	0x3f60d99f	0.87832063
58	0xbfd2d1c8	-1.647027
59	0xbf467065	-0.7751525
60	0xbf9c4cc6	-1.2210929
61	0xbfb97de0	-1.4491539
62	0xbfa31db9	-1.2743446
63	0xbfbc41e1	-1.4707605
64	0x3fb37544	1.4020162
65	0x3faf3dab	1.3690695
66	0x3eb983a3	0.36233243
67	0xbf8f57ac	-1.119863
68	0xbf00b32d	-0.502734
69	0xbfade903	-1.3586735
70	0x3f86cb4f	1.0530795
71	0x3f263c94	0.64936185
72	0xbe661a2a	-0.22470918
73	0x3e4f7a04	0.20261389
74	0xbf1db984	-0.616112
75	0x3ff727f0	1.9309063
76	0x3f4f9149	0.8108106
77	0xbf47828f	-0.7793359
78	0xbef57087	-0.47937414
79	0x3fa68525	1.3009382
80	0x3fa09543	1.2545551
81	0xbeead640	-0.45866585
82	0x3fa257d6	1.2683055
83	0xbfe6a331	-1.8018552
84	0xbf448b26	-0.76774824
85	0xc00280d7	-2.0391138
86	0x3fafd446	1.3736656
87	0xbf992241	-1.1963578
88	0xbec7c83d	-0.39019957
89	0xbf156795	-0.5836118
90	0xbfcdd1e2	-1.6079676
91	0x3e8e425d	0.27785006
92	0x3eabcb5a	0.33553582
93	0x3e023924	0.1271711
94	0x3fb14bc1	1.3851243
95	0x3e886253	0.26637515
96	0xbf9bf75f	-1.2184867
97	0xbfd0a2c9	-1.6299678
98	0x3ed0403f	0.40674016
99	0x3f7739a0	0.96572304
100	0x3f83410b	1.0254225
101	0x3fdbd07b	1.7172998
102	0xbf9ea060	-1.2392693
103	0xbf34f77b	-0.70690125
104	0x3f9e39c6	1.2361381
105	0xbfa41803	-1.2819828
106	0xbfa47ef1	-1.285124
107	0xbfcbcb1d	-1.592136
108	0x3ff9c88e	1.951433
109	0xbf089ffa	-0.53369105
110	0x3f78a747	0.97130245
111	0x3f0ce0e5	0.5503066
112	0xbee77388	-0.4520533
113	0xbfc23cb5	-1.5174776
114	0xbdf0e557	-0.11762493
115	0xbf855885	-1.0417639
116	0x3f77c1ff	0.9678039
117	0x3fd2911b	1.6450533
118	0xbff5ec74	-1.9212785
119	0xbf9a17d7	-1.2038525
120	0xbf815d8f	-1.0106677
121	0x3f40ecf9	0.7536159
122	0x3f88df36	1.0693119
123	0x3fd1b10d	1.6382157
124	0xbf12ccee	-0.5734395
125	0xbefa19ad	-0.48847714
126	0xbead00c6	-0.33789653
127	0x3ff6c7f2	1.9279768
128	0xbfa7ee2d	-1.311956
129	0xbf1cebcb	-0.6129729
130	0xbf9a8b7f	-1.2073821
131	0x3e7ed01e	0.24884078
132	0x40007c57	2.007589
133	0x3f29f1c9	0.6638456
134	0x3fceefe1	1.6166955
135	0xbf3e99eb	-0.7445361
136	0xbfcb8b4d	-1.5901886
137	0xbe83d5a1	-0.25748923
138	0x3f9928a3	1.1965526
139	0xbf96da1e	-1.1785314
140	0xc004510f	-2.0674474
141	0x3ed961cd	0.4245743
142	0xbfc90aa3	-1.5706371
143	0x3fc2079d	1.5158573
144	0x3f7d195e	0.9886683
145	0xbf068fd6	-0.52563226
146	0xbece165b	-0.4025143
147	0x3f42b5e9	0.7605882
148	0xbfc1f945	-1.5154196
149	0xbda2aa3d	-0.079426266
150	0xbf88669e	-1.0656316
151	0xbfea28e1	-1.8293725
152	0x3fb5efce	1.4213808
153	0x3f80383f	1.0017165
154	0x3f355d70	0.708457
155	0x3f86fa9b	1.0545229
156	0xbdecbc22	-0.11559321
157	0xbfc7cff2	-1.5610335
158	0x3f8fead8	1.1243544
159	0x3f6caaa9	0.92447907
160	0xbf843624	-1.0329022
161	0xbeab436d	-0.3344988
162	0xbfb291af	-1.3950709
163	0x3f906cff	1.1283263
164	0xbe3d5a34	-0.18491441
165	0x3f60a7e1	0.8775616
166	0x3fcf8d57	1.6215008
167	0x3cd3426e	0.025788512
168	0xc00badb5	-2.1824772
169	0x3face8dc	1.3508563
170	0x3f3c6144	0.73585916
171	0x3f436cd9	0.76337963
172	0x3f91f273	1.1402115
173	0xbe9d80f9	-0.3076246
174	0xbf9b488c	-1.2131515
175	0xbf57d535	-0.84309703
176	0x3f31b422	0.69415486
177	0x3f92321d	1.1421543
178	0x3f8b5033	1.088385
179	0x3f9e03e0	1.2344933
180	0xbe0f3266	-0.13984069
181	0x3f8d3746	1.1032493
182	0x3f2f7349	0.68535286
183	0x3e5373d2	0.2064965
184	0xbfc60f75	-1.5473467
185	0x3f5c7389	0.8611379
186	0x3f8ab3a2	1.083607
187	0x3e9d0ff3	0.3067623
188	0x3f1a47a6	0.60265577
189	0xbfa77b86	-1.3084571
190	0xbfe13b63	-1.7596248
191	0x3e03cd62	0.12871316
192	0xbd608413	-0.054813456
193	0xbc43fc45	-0.011962001
194	0x3df2129d	0.118199565
195	0xbfaaf888	-1.3357096
196	0x3fa8c5f3	1.3185409
197	0xbfe20799	-1.7658569
198	0x3f2a5f6a	0.6655184
199	0x3facbd79	1.3495322
200	0x3f9d11c9	1.2271053
201	0xbfe25468	-1.7682009
202	0xbfae2ade	-1.3606832
203	0xbfae4c64	-1.3617063
204	0x3f3b4810	0.73156834
205	0xbec850e2	-0.3912421
206	0x3f0c3eb1	0.5478316
207	0x3fa5224c	1.2901092
208	0x3da1c5e8	0.07899076
209	0xbcb4d471	-0.022073956
210	0x3e655c09	0.2239839
211	0xbea48a7a	-0.321369
212	0xbf9a8d9d	-1.2074467
213	0xbf890631	-1.0705014
214	0xbfc52733	-1.5402588
215	0xbf81ab3e	-1.0130384
216	0x3f38cc16	0.7218641
217	0xbf90ff36	-1.1327884
218	0xbfd62feb	-1.6733373
219	0xbeb55943	-0.35419664
220	0xbeafe06b	-0.34350905
221	0xbfa81f2f	-1.3134516
222	0xbecb151b	-0.3966454
223	0xbf34d4e9	-0.70637375
224	0xbde2153d	-0.11039207
225	0x4005e013	2.0918014
226	0x3f1d3c1d	0.6141985
227	0x3e6437a7	0.22286855
228	0x3f42456d	0.75887185
229	0x3fbbef33	1.4682373
230	0x3f4163f3	0.75543135
231	0xbfee433d	-1.861427
232	0x3fcbc6c5	1.5920035
233	0xbfb617d1	-1.4226018
234	0x3fc8b89f	1.5681342
235	0xbe93ba12	-0.28852898
236	0xbf05e496	-0.5230192
237	0x3e883a4d	0.2660698
238	0xbfae5e89	-1.36226
239	0xbf30f888	-0.6912923
240	0x3f73247e	0.9497756
241	0x3fa402e4	1.2813382
242	0x3ea03b3f	0.312952
243	0xbe3605e1	-0.1777568
244	0xbf9f7ee2	-1.2460597
245	0xbeb874b5	-0.3602654
246	0xbef048b7	-0.46930477
247	0x3f731b4a	0.94963515
248	0xbfcd514f	-1.6040438
249	0xbf8d0740	-1.1017838
250	0x3e9c221a	0.30494767
251	0xbfd3147d	-1.6490628
252	0x3fd44ce4	1.6585965
253	0xbf4eb0d6	-0.8073858
254	0xbf9a0468	-1.2032595
255	0x3f733353	0.9500019
