trained_models/Walker2dNormal-v3/lamour/critic_4.pt (torch, 582018 bytes, 10 tensors)

Q1.0.weight f4 [256, 23]
00000000: f0f5 0fbe 9595 81c0 9ec8 31bf d98f 2e3e
00000010: 0c9a a5bb 91d2 a4bf 9568 d23e 8400 183f
00000020: d6cc 473e 215a 433e 28cb 943e ea85 3cbd
00000030: 5778 c8bd 10d1 38bd fb7b 26be 65ae dcbd
00000040: 75b9 0dba 9368 84be 742f 27bd 1964 e63d
00000050: 09fe 633d 0dcb fb3c bd82 a1bd 2995 153f
00000060: 1ad8 1bc0 a773 6940 2624 1a40 4f86 b03e
00000070: 28e5 413f c711 483f 384e 4fbc cc9b 04c0
00000080: 8a21 c8be 018d 833e a960 b53c 7117 0f3e
00000090: 8d35 8b3c 906d 94bd f802 423d 8c9f 153c
000000a0: 8ace 5b3d dd24 3b3d 859b 073d 23cd b33d
000000b0: 3eed 5fbc cf09 8d3d 27a5 bebf 88c7 23be
000000c0: e76d a7bd dd54 0f3f cb6b 373c 31cb 97c0
000000d0: 30d5 96bf 3047 cf3e d48b 593f 20e1 5fbf
000000e0: be22 6bbe 799c 663e 7066 343d 52af 51bc
000000f0: ea0e fbbd f17e b2bd 91e9 8f3c a00e 683e
00000100: 5eae 4e3d 7dc3 b6bc b42c 6f3b 0155 17be
00000110: 0b37 8c3d aade 5cbe 18cc a83f 4895 8abf
00000120: 4b67 acbe 1e31 b63e 1a35 ac3f 32c3 5a3f
00000130: 1bd9 173f 9756 c9bd 5cec 19be 453d f73e
00000140: 4fd6 3fbe 674d c3bd 3c20 a3bd 0634 5bbe
00000150: c6e9 e8bd 2113 9abb 9317 7bbe 2a6a 79bd
00000160: 9d9a e7be 5cd5 3cbe fdba aeb9 e16c debc
00000170: 02a4 18bf 063a 05c0 9380 e0bf 1e84 ad3e
00000180: e7b0 933d 50e0 a33e d0ae 833e 80fd 60be
00000190: b733 1d3f a5d2 4cbf a631 093e b8f6 cebd
000001a0: f548 d4bd 87dd 2abb 334f 0abe f91a c5bd
000001b0: be95 c93d c228 4ebe 2b33 83bd 39d4 003f
000001c0: 9305 20be 38cb 4bbe 92ba fd3e 99f7 4dbf
000001d0: 2979 ed3e ec57 f13e 47b0 0e3e e93f 91be
000001e0: f06d c73f ef11 cc3e a61e ef3d 9b1a 853e
000001f0: 8145 89be 3a2a c23d fadc 66bc 6b4b 20bc
00000200: a54e 97bb e4c5 92bd a1da 66bb 55ef 84bc
00000210: b7d7 093d 0790 a63d cb5e 37bd 9cf0 7c3d
00000220: 7bd1 673e 5f02 eabd a11d d4bf 862d 34c0
00000230: 1886 8dbf b72f 5dbf 0c57 e1be 48af c4bf
00000240: 4d46 2abf 25a7 1bbe 4568 dfbf 8b96 cebd
00000250: 7232 07be d8c4 2ebe dc3b 293d d09d 8abc
00000260: 6467 e03b c07e 95bb d931 353c 02c7 1dc0
00000270: cadd 283f c910 023d 5b5c 13c0 3341 a33e
00000280: 0a64 e8be e440 9abe 07b1 29c0 7dbd 18be
00000290: 98ea 89be 9c1b 92bc 4824 d0bf 964c bc3f
000002a0: a6af e0be 51d1 77be 149a 1fbd b920 6e3d
000002b0: 8cc5 3ebd bb21 3cbe 28ef 2a3e ba02 6fbc
000002c0: afcb c03e 881a 973d 9fe1 803f 4832 ab3e
000002d0: 8d85 2e3e a58c 0d3e a1d9 93be 8cb5 76bf
000002e0: ff3d f83e c27a 0ec0 9567 f0be 876e a1bf
000002f0: d777 933f 2672 e4bc a91d 27bf ec2e 543e
00000300: c8b6 18bf 929b 79be b25a 92bd f3ad 663d
00000310: 5781 a93d 8bf7 9b3c 065a 82bc 082d 4b3e
00000320: 67cf f2bd ea22 d53e 8bc0 b63e d37c 373f
00000330: db47 03bf 6fc4 7d3e 4765 41be 6401 09bd
00000340: d039 19c0 d05a 943e 3f1f 2d40 aea3 1a3e
00000350: 1a86 61c0 afa9 afbf 0517 1d3e 9c6f bdbd
00000360: 2bbd 703e 5dca d63e d82e b33d 7991 c53d
00000370: eff2 0f3d a7d0 f7be 2d37 febd 8318 8cbd
00000380: 8476 cbbe bf7b 353c 392b 293e 3215 dabd
00000390: 805b 8e3d 95e6 93be 0266 fa3e c1f3 b63f
000003a0: 46ce 99bd b704 ecbf 582d 39bf dbb7 90bf
000003b0: 8f5f d7be b12f 94bf b47b 8b3d 4488 dfbe
000003c0: 36df d4bd 63db 5f3d e345 0fbd 895c 07be
000003d0: c6dd 4f3e aa93 d73d 19e8 20be 267c 523e
000003e0: 536c ec3d ae95 b63d 6a3c 9e3d fca3 d8be
000003f0: 5907 78bd 3a8d 8fbf 4203 3dc0 ae22 34c0
-0.14058661 -4.0495095 -0.6944674 0.17047061 -0.005053764 -1.287676 0.41095415 0.59375787
0.19511732 0.1907735 0.29061246 -0.046026148 -0.09788578 -0.045121253 -0.16258232 -0.107754506
-0.00054063584 -0.25861034 -0.04081674 0.11249561 0.05566219 0.03073647 -0.078862645 0.58430725
-2.4350648 3.6476839 2.4084563 0.3447747 0.7574029 0.78152126 -0.012652926 -2.072009
-0.39088088 0.25693515 0.022140818 0.13973786 0.016993308 -0.0724746 0.047366112 0.009132277
0.053663768 0.045689452 0.0331073 0.08779361 -0.013667403 0.068866365 -1.489415 -0.15994084
-0.08175259 0.55988866 0.011195133 -4.7435536 -1.178381 0.40484 0.84978986 -0.8745289
-0.22962472 0.22520627 0.044043005 -0.012798147 -0.12258704 -0.087156184 0.017567428 0.22661829
0.05045926 -0.022310013 0.003649515 -0.1477852 0.06846436 -0.21569315 1.3187284 -1.0826807
-0.33672556 0.35584348 1.3453705 0.85454094 0.5931565 -0.09830969 -0.1503157 0.48288932
-0.18734096 -0.09536248 -0.079651326 -0.21406564 -0.11372714 -0.0047019874 -0.24520712 -0.06089226
-0.45235148 -0.18440765 -0.00033327183 -0.027151527 -0.59625256 -2.0816665 -1.7539238 0.3388986
0.07211476 0.32007074 0.2571931 -0.21971703 0.61407036 -0.8000892 0.13397846 -0.101056516
-0.10365478 -0.0026071982 -0.13506775 -0.09624285 0.09843014 -0.20132735 -0.06406244 0.50323826
-0.15627126 -0.1990174 0.49556404 -0.8045593 0.463815 0.47137392 0.13934432 -0.28369072
1.5580425 0.39857432 0.116757676 0.2599686 -0.2681084 0.0948071 -0.014090771 -0.009783606
-0.0046175295 -0.07166651 -0.0035225528 -0.016227404 0.033652987 0.0813294 -0.044768136 0.0617529
0.22638504 -0.114262335 -1.6571542 -2.8152785 -1.1056547 -0.8640093 -0.44011724 -1.5365992
-0.6651352 -0.1520048 -1.7453696 -0.100873075 -0.13202837 -0.17067277 0.041316852 -0.016920954
0.0068482626 -0.004562229 0.011059248 -2.4652715 0.65963423 0.03175429 -2.302512 0.3188568
-0.45388824 -0.30127633 -2.65143 -0.14916034 -0.26936793 -0.01783543 -1.6261072 1.4710872
-0.4388401 -0.24200942 -0.0389653 0.058136676 -0.046575114 -0.18372242 0.16692793 -0.014588052
0.37655398 0.07378107 1.0068854 0.334368 0.17043133 0.13823183 -0.28876975 -0.9637077
0.484848 -2.2262425 -0.46954027 -1.2611855 1.1520947 -0.027886461 -0.6527963 0.20721024
-0.596539 -0.24375752 -0.07146205 0.056318235 0.08276623 0.019038936 -0.015912067 0.19841397
-0.11855965 0.416282 0.35693774 0.7167484 -0.5128152 0.24781965 -0.1888629 -0.03344859
-2.3941536 0.28975534 2.705032 0.15101501 -3.52381 -1.3723658 0.15340813 -0.092498034
0.23509662 0.41951266 0.08749169 0.09646887 0.03514379 -0.48401377 -0.12412868 -0.06840613
-0.39738858 0.011076867 0.16520394 -0.10648574 0.06951046 -0.28886858 0.4890595 1.4293138
-0.07510047 -1.8438939 -0.72334814 -1.1306108 -0.42065093 -1.1577054 0.06810704 -0.4365865
-0.103941366 0.054652583 -0.03497876 -0.13218893 0.20299444 0.105262116 -0.15713538 0.20555171
0.11544099 0.08915268 0.07726367 -0.4231261 -0.060553882 -1.1214974 -2.9533238 -2.8146167

Q1.0.bias f4 [256]
00000000: 62c8 233f f05c 93be f3ad 35bf 6faf c93f
00000010: 6455 3bbf d7e3 d13f 74e6 d4bf 5603 ebbe
00000020: 3b63 aabf a649 82be 4aff 98bf c878 853f
00000030: cd0a 24bf 144a b63d fe9b ecbf 03d0 913b
00000040: e388 563f 268c 9e3f 124f 3ebf 0d1b 0bbf
00000050: 2908 833f 018a 40bf 661e 7d3e 977e 7bbe
00000060: b40f 3bbf 817b ecbe d143 b93f cc6b a9be
00000070: 2805 cb3f af4e c13f 7b4f 2dbf 990e 68bf
00000080: 4c8c 8dbf a62a 80bf e2dc 06bf f535 3dbf
00000090: cd0a 7ebf 62a6 283e 57e1 c4bf c2b9 843f
000000a0: 3926 093f 4931 05bf 7b98 b63f 7e03 183e
000000b0: cb52 18bf eecd 273e 223e f23e 320e 76be
000000c0: 4176 47bf ab19 17bf 3380 66bf 7110 943e
000000d0: 484d 733c 7b7d 693d ec75 b73f 329a b73d
000000e0: 1a7a 9cbd 3401 663f d562 633f ee30 debe
000000f0: a4e8 bebe 31b4 97be ad2f ffbe 12f0 39be
00000100: 5cbd 0ebf ea5b 7a3f a5dd 87bf 2777 493e
00000110: 6e29 39bf 450b 8cbf f910 a1bf ac59 193e
00000120: 5d81 9cbe 7d74 a9be cb74 5bbf 633e 59bf
00000130: 39bd 06bf a742 ba3f 5d2b b9bd 87fb 43be
00000140: a0a7 aebe 9691 a3bf 3c2e 0d3f fc96 63bd
00000150: 167b 22bf 4072 c33e d672 d63f bdda 24bf
00000160: c148 b73e ccdb 603f dd52 afbf 3909 1bbf
00000170: 3684 9e3b 2a9e bbbe 3fb8 1abf ba76 30be
00000180: d4db 293f d5c3 983f 2d4d cb3f 8c57 90be
00000190: c46b 13bf 7b06 a4be a978 04bf c0e2 d73f
000001a0: 67c4 82be 424f a0bf 2f65 0640 e875 64bd
000001b0: 637d 8abf 2e52 adbe a84a 8cbf bc91 7b3f
000001c0: 17ea b5be b9b2 05bf e96a 903e 40d9 5abf
000001d0: 2370 b1bf d1ea 17bf 07c9 273f 5326 31be
000001e0: 237c e03f 4ced 743f d19e 9a3f 17aa 2bbd
000001f0: 65f5 913f a425 7ebf 3e59 483e e103 48bf
00000200: 9a27 9abd 2ec0 85be 4fc7 7bbf 788b 78bf
00000210: 0200 4a3f 3d3a 713a f00a 8c3f 4422 43bf
00000220: 2bf4 483e d11f ba3f da1d 23bf 736a c53f
00000230: bc09 c53f 8945 b83f 0e9f 843f 5884 9dbf
00000240: a517 64bf 9c3b 603f ae48 09bf e43c 18bf
00000250: d4a2 14bf da4d e93e e53e c83f 18cb 443f
00000260: f6dd b33e 13ca f03f 21f9 84bf a557 68bf
00000270: 5998 973e be87 01bf c4cf 853e 029b 913d
00000280: ae7b aa3f 5c20 72bf f708 26bf a3a1 9fbe
00000290: 022a 61bf 5efc cabf 91c2 d0bc f4c2 acbf
000002a0: 5344 c23f 3588 983f e9f6 043f 9777 353f
000002b0: 49d7 703f 90c0 74be 31b6 8b3f 1c69 2e3f
000002c0: b648 633e b28d 093e 9f58 44be 0cab 9c3f
000002d0: 2222 203f 15a4 a6be aadd ddbe d84b dfbe
000002e0: 3015 03bf b0a8 c03f 9788 4dbf 9648 c43e
000002f0: 5de6 bfbe b9aa 383f 97e2 f73e dc98 14bf
00000300: 81e8 f8be 270a a3be ca61 51bf 754e 32bf
00000310: d0a5 f4be 485a 9d3f b0a3 b53f 8a60 00bf
00000320: 2f50 cbbe 50db f63f e3c8 6fbf a029 64bf
00000330: 1097 823f e3aa 09bf 7905 633e b828 16bf
00000340: 6c60 63be 2284 2cbf ff20 2ebf 0cae 9e3f
00000350: 6d0a d03f 753c f93e afd0 18bf 5f38 3cbf
00000360: ec52 49bf d63c 9b3f 44fa 023f e22f 273f
00000370: d72d 94bf af62 d9bf 8f5a 0bbf ad35 8dbd
00000380: 1cec 093f 8348 393f 9efa 0b3f 917c 29bf
00000390: 07cf 8dbf d085 efbe d8ec 103f 8ef2 083f
000003a0: 7691 353f 0a73 fdbd 1ea7 13bf 2f24 0abf
000003b0: a5a2 44bf b38b d9bd 759b 6d3e 1734 57bf
000003c0: 3dce 823e 6046 c23f 3c66 87bf e689 1dbf
000003d0: 5065 54bf 3bc2 873e 8f94 65be eab9 2d3f
000003e0: f68b 0bbf 02b5 bc3f 03b4 05be a315 c9bd
000003f0: 4483 3cbf 0ec0 f73e 27ff 073f 0ea3 93bf
0.63977635 -0.28781843 -0.7096855 1.5756663 -0.7317717 1.6397656 -1.6632829 -0.45900983
-1.3311533 -0.25446814 -1.1952908 1.0427485 -0.6407898 0.08900848 -1.8485105 0.0044498458
0.8380262 1.238652 -0.743394 -0.5433815 1.0236865 -0.7521058 0.24718627 -0.24560009
-0.73070836 -0.46187976 1.4473821 -0.33090055 1.5860949 1.5102137 -0.676994 -0.90647274
-1.105844 -1.0013015 -0.5268079 -0.73910457 -0.9923523 0.1646972 -1.5381268 1.0369189
0.5357395 -0.5202833 1.4265283 0.14845082 -0.5950133 0.1638715 0.4731303 -0.24028853
-0.77914816 -0.5902354 -0.90039366 0.28918794 0.014849968 0.057004433 1.4332862 0.08964957
-0.076404765 0.89845586 0.8882268 -0.43396705 -0.37286866 -0.29629663 -0.4984106 -0.18157986
-0.5575769 0.977965 -1.0614516 0.1967436 -0.7232884 -1.0940939 -1.2583305 0.14975613
-0.30567446 -0.33096686 -0.85725087 -0.8486082 -0.5263248 1.4551591 -0.09041474 -0.19138919
-0.34112263 -1.2778804 0.55148673 -0.05556391 -0.63469064 0.38173103 1.6753795 -0.6439627
0.35797694 0.87835383 -1.3697163 -0.6056095 0.004837538 -0.36644107 -0.6043739 -0.1723279
0.66351056 1.1934763 1.5882927 -0.28191793 -0.5758631 -0.32036194 -0.5174661 1.6866074
-0.25540468 -1.2524188 2.0999258 -0.055776507 -1.0819515 -0.3385176 -1.0960283 0.9826925
-0.3553016 -0.52225834 0.28206566 -0.8548775 -1.3862346 -0.59342676 0.6554112 -0.17299776
1.7537884 0.95674586 1.2079717 -0.041910257 1.1403013 -0.99276185 0.19565293 -0.7813092
-0.07527085 -0.26123184 -0.98350996 -0.9708781 0.7890626 0.00092020986 1.0940838 -0.7622416
0.19624393 1.454096 -0.63717425 1.5423111 1.5393596 1.439622 1.036104 -1.2306013
-0.8909858 0.87590957 -0.53626525 -0.5946791 -0.58060956 0.4556721 1.5644194 0.76872396
0.3513028 1.8811668 -1.0388528 -0.90758735 0.2960842 -0.5059775 0.26135075 0.071096435
1.3318994 -0.94580626 -0.6485743 -0.31178007 -0.87954724 -1.5858266 -0.025483401 -1.3496995
1.5177101 1.1916567 0.51939255 0.70885605 0.940785 -0.23901582 1.0914975 0.68129134
0.22195706 0.13432959 -0.19174431 1.2239699 0.6255208 -0.3254706 -0.4333318 -0.43612552
-0.51204205 1.5051479 -0.80286545 0.3833663 -0.3748044 0.721355 0.48415062 -0.58045745
-0.48614886 -0.31843683 -0.8178984 -0.69650966 -0.47782755 1.2293177 1.4190578 -0.50147307
-0.39709613 1.9285679 -0.93665904 -0.89126015 1.0202351 -0.5377638 0.22170056 -0.5865588
-0.22204751 -0.6738912 -0.680191 1.2396865 1.6253182 0.48678938 -0.59693426 -0.73523515
-0.78642154 1.2127941 0.51163125 0.6530744 -1.1576489 -1.6983241 -0.54435056 -0.068950035
0.538759 0.7237627 0.54679286 -0.662057 -1.1078805 -0.46781778 0.56611395 0.5349511
0.7092508 -0.123754576 -0.57676876 -0.5396146 -0.76810676 -0.10622349 0.23203833 -0.8406386
0.25547972 1.5177727 -1.0578074 -0.6153854 -0.8296709 0.26515374 -0.22419952 0.6786181
-0.5451044 1.4742739 -0.1305695 -0.0981858 -0.73637795 0.48388714 0.53123707 -1.1534135

Q1.2.weight f4 [256, 256]
00000000: 502f abbd a277 2d3f d464 183f 235b 05be
00000010: cee4 d83d c75b 3fbd 882a 6c3f 936a 263e
00000020: b670 58bd 7a01 0a3d 2fee 8a3e 364d ddbd
00000030: 5914 34bd ed03 8f3e 99df 473f 1973 003e
00000040: 0c5b 0a3d 08ac 3d3e 81ed 193e 3226 9a3d
00000050: c4ed 1dbd 074e 0ebd 828b 973d e6cc 10bd
00000060: 9758 a7bc 9733 2c3f f615 c8bd 1de4 d8bc
00000070: e6a0 4ebe 1728 7d3e 9a35 133e 6423 473e
00000080: 8f79 703e fb3b 9a3b 674a 3b3d 06b0 a63e
00000090: e951 b8bd 0a80 8a3e b83e d93e 2597 6dbe
000000a0: e40b 0dbc 61d7 4cbe 3b65 913e 1e6c 533d
000000b0: 8b3a 223c fbb8 50bd 0fd3 a33d e2fb 043e
000000c0: 9959 edbd c45c debd a811 503d 41c4 72bd
000000d0: dddb acbe ddf0 89bd fe49 103d 926d ce3d
000000e0: 903c 903e 8505 a0bc 6dd7 953c 5ac2 54be
000000f0: 1dea 653c d9f8 533e feec c03d 3296 ebbd
00000100: 2b8d a53c dede 76be 9232 26bd 4c9a 3fbc
00000110: ea52 2b3e 726e 583f 800c 2f3d 1f6e d33b
00000120: 099c cd3e cf02 273e 50c0 37bd 83dc 61bd
00000130: 1eed a83d d07b 7cbb 87d2 46be 6d15 a13d
00000140: deaf fb3e 8ca6 e43e 0fcf 5ebd 98f6 a23c
00000150: 7300 2b3d 0cfa 33bc 4f2b 78bd ce4d e03d
00000160: f740 ecbd 1ea9 d0bb 4dc9 e5ba 6977 fb3d
00000170: a5c8 a83d 0f27 883e 0bdb b03e e57d a83e
00000180: c648 133e efd0 48be c8cb 443b 4f51 febc
00000190: 75d6 813d 544e ad3d a503 2b3e 24e1 043e
000001a0: 0aa7 323e a4a3 823e a533 163c 7752 a33c
000001b0: 86a8 e73d 730c 8a3e cc1a ecbd 061e d03d
000001c0: 67ae ae3d abf0 92bd 92f4 19bd be44 9c3d
000001d0: c6db 133e c574 1f3e 5ebe 22be ca11 823d
000001e0: eed9 db3c d4e4 35bd 85ff cf3d 8957 a63d
000001f0: 4ebe 15be f4a5 1f3e 102a c13c fdef 213f
00000200: d149 e33e 6efe 9a3c af5c 803e fc53 d33e
00000210: 1f0e 23be 4252 b23e 8304 d13e 62c1 543d
00000220: a5ef e2bd 3e6d aabd 5689 773b bd2a 533e
00000230: 20df b6bd a773 ce3d 8891 3dbc 7bd1 f53e
00000240: e843 753d 3453 84bd 3805 603e 3f4c fcbd
00000250: 97a8 f93c b8fe ec3d 1c56 f93c bec9 ef3d
00000260: 14c4 563d e30f 98be 3c92 b13e bca9 003d
00000270: a155 66bd a211 513e c40e 7cbe 5687 c13d
00000280: 818e 59bd e037 ff3e fcb1 e63d a51d c93e
00000290: a1a7 173e 787e b03e 7a1b 71bd 7fa0 9d3e
000002a0: 7a94 13be edb8 edbd d1a9 443b 001a 773c
000002b0: d1e9 593b b3d7 19be e0e0 2fbd 37d5 12bd
000002c0: 90fe 823e 812d 2b3d 2506 3cbd 101f e13c
000002d0: 5192 573d eb89 47be d345 013e 4642 c3bd
000002e0: b5d5 8d3d 9ba0 df3c fa49 95bd 3ab1 6ebd
000002f0: 96f2 dcbe b409 39bb 8079 17be ac2e 2cbe
00000300: 06ed 9ebd f4a2 df3d 5391 573e caef fa3d
00000310: 25cc 353e 1f7a 6f3d 67c8 023e cfbe 713d
00000320: 7719 f73d 60ed 8dbc 9aa2 01bd 1637 863d
00000330: 51ce 83bc 2f2c 86bd 9f43 893e cecb 7a3e
00000340: ab3d 64be af84 753e a998 a33e a9ad a0be
00000350: a6b3 3fbd 1ccb 65be 5c23 cabc 0ce6 db3d
00000360: 3e33 4b3e 1c06 f13d 7442 96bd 1150 9fbe
00000370: c4d0 603d 73dd 423f e339 4fbd b936 5c3d
00000380: 3bca 0a3e 1362 65be e984 7f3e da8d ec3d
00000390: ec38 1f3d eea8 133b fb46 6bbd 0000 1dbe
000003a0: bc48 dc3c 0c1a f83e 0e65 55bd 5d0d 81be
000003b0: c49b 61bc 8a3c dc3e a37a 02be 8323 01bd
000003c0: 058a 433d c458 ebbc d89a a53e 9bd5 bfbc
000003d0: 3a39 bc3e 02bf 5e3e 0d24 823c 169b d63c
000003e0: 6c80 603e b6ea efbd f4a8 58be 75ec b33e
000003f0: c82f 4a3d e300 11be c970 3a3d 0841 fc3e
-0.083586335 0.6776067 0.5952885 -0.13023047 0.10590516 -0.046718385 0.922524 0.16251592
-0.052841865 0.033692814 0.27134845 -0.108057424 -0.043964718 0.27932683 0.7807556 0.12543906
0.033778235 0.18522656 0.15032007 0.075268164 -0.03855683 -0.03474238 0.07399656 -0.035351656
-0.020427985 0.6726622 -0.09769814 -0.02647596 -0.20178565 0.24722324 0.14375916 0.19447094
0.23483871 0.0047068573 0.045725252 0.3255617 -0.08999998 0.2705081 0.42430663 -0.23202188
-0.008608792 -0.20004036 0.28397545 0.05161678 0.009901653 -0.05095766 0.079992406 0.1298671
-0.11589355 -0.108575374 0.05079809 -0.059269194 -0.33761492 -0.06735394 0.035226814 0.10079493
0.28171206 -0.019533882 0.0182912 -0.20777264 0.014032868 0.20700397 0.09420203 -0.11503257
0.020208916 -0.24108455 -0.04057557 -0.011694502 0.16730848 0.84543526 0.04273653 0.0064523364
0.40158108 0.16309665 -0.044861138 -0.055141937 0.082483515 -0.0038525946 -0.19416247 0.07865415
0.49157614 0.44658315 -0.054396685 0.019892976 0.041748475 -0.010984909 -0.060588177 0.1095234
-0.115358286 -0.0063678166 -0.0017531306 0.12278635 0.08241395 0.265923 0.34542117 0.3290855
0.1438323 -0.19610952 0.003002869 -0.03104463 0.063397326 0.084622055 0.16700609 0.1297651
0.17446533 0.25515473 0.009167586 0.019936783 0.1131144 0.26962623 -0.115285486 0.101619765
0.08529358 -0.0717481 -0.037586756 0.07630299 0.14439306 0.15571888 -0.15892932 0.06351049
0.026837315 -0.04440768 0.10156158 0.08122165 -0.14623377 0.1559065 0.023579627 0.6325682
0.44392255 0.01892015 0.25070712 0.41275012 -0.15923356 0.34828383 0.40823755 0.051942237
-0.11080865 -0.083216175 0.0037771068 0.20621772 -0.089292765 0.10080653 -0.011570342 0.48011383
0.059879214 -0.06461182 0.21876991 -0.1231923 0.030475898 0.11572021 0.030436568 0.11708401
0.05243309 -0.2969962 0.3468188 0.03141187 -0.056234006 0.20416883 -0.24615008 0.094496414
-0.053114418 0.49847317 0.112644166 0.3928043 0.14810039 0.34471488 -0.058864094 0.3078651
-0.14412108 -0.116075374 0.0030008445 0.0150818825 0.0033250938 -0.15023689 -0.042939067 -0.03584787
0.2558484 0.041791443 -0.045904297 0.027480632 0.052629773 -0.19486205 0.12624292 -0.09534125
0.06925527 0.027298262 -0.072895005 -0.058274485 -0.43153828 -0.0028234543 -0.14792442 -0.16814679
-0.077600524 0.10919753 0.2105153 0.122527674 0.17753656 0.058466073 0.1277176 0.05901986
0.12065404 -0.017325103 -0.03164921 0.065534756 -0.01608959 -0.06551396 0.26809403 0.24491808
-0.2228915 0.23976396 0.31952408 -0.31382492 -0.046802185 -0.22440761 -0.024675064 0.10737237
0.19843766 0.117687434 -0.07336894 -0.31115773 0.054886594 0.76119155 -0.050592314 0.053763125
0.13553707 -0.22400694 0.24953045 0.115504935 0.038872644 0.002253111 -0.05744074 -0.15332031
0.026890151 0.48457372 -0.052098326 -0.25205508 -0.013770048 0.43014938 -0.12742095 -0.031528007
0.047739048 -0.02872885 0.323447 -0.023417285 0.3676241 0.21752551 0.015886331 0.026196998
0.21923989 -0.117146894 -0.211582 0.3514134 0.049361974 -0.14160495 0.045517717 0.49268365

Q1.2.bias f4 [256]
00000000: 95e9 b33f 9d8d 3fbe 72e7 6dbf 7b3d 13bf
00000010: 48aa c63f 91cb a83f 5f7c 71bf cda9 8f3f
00000020: 6ea1 59be 92e3 f5be 52ef 86bf ed8f d9bd
00000030: f4e8 893f b3df d2be 3b65 92bf 7094 84bf
00000040: b765 69be e5dd 6ebf e063 df3f b4a6 21bf
00000050: 1bb5 2abd fb31 b2be 854b 26bf 12d7 91bf
00000060: 0e47 76bf 4459 85bf de2b e4be d33b b03f
00000070: bf17 aa3f 7bc9 bc3f 188e 72be a830 38bf
00000080: 2ef5 953f fcb0 973f 2275 9ebc 325c 05bf
00000090: fef2 ce3f 4a87 dc3f b466 8abe 5bf5 8fbf
000000a0: bc59 b33f 6aaf b23f 2dd6 d33f 3289 14bf
000000b0: 2d4b 94bf 031c 9a3f b02f ac3f e9af cb3f
000000c0: b73f a5bf 286a b93f 861d 02bf b012 d63f
000000d0: ca83 883f 0876 b33f de43 b43f 9be0 b63f
000000e0: 7e38 cf3f 1702 ae3f 5179 9e3f 6c39 7bbd
000000f0: 0993 d7bc 76d2 66be 9a6e 77be ab8c 5abf
00000100: 324d 8ebf af1e 44bf 128d a63f 06d4 d13f
00000110: eb2b d43f 1fa3 973f 95ff abbf ea2f 4ebf
00000120: 4102 db3f 4cf2 e03f 3577 a0be 2cc3 09be
00000130: 9c52 cd3f 3bfd a83f b955 d53f 8178 773f
00000140: cc1d 12be 8953 b8bc 86fc 4abf df82 82be
00000150: 9626 c5bf 8a89 d53f d80d af3f aa88 81bd
00000160: 1aac 7dbf e76a 48bf f17c 9ebe ef09 28bf
00000170: a781 a73f 12ce 75bf 55ae a63f fba7 8dbf
00000180: 67e9 f3be 9008 b13f 9f47 a33f e46c b4bf
00000190: 57d3 44be e793 c43f a697 70bf 84f6 d23f
000001a0: d014 98bd c95f 8abf dae6 ac3f f969 e8bd
000001b0: 5d2a f9be 1e5f 18bc 1403 90bf e046 9bbf
000001c0: 08e5 b03f eb9f 36bf 709e cb3f 14d1 b23f
000001d0: e237 edbc 6d5f 05bf 72a6 92be c575 a73f
000001e0: 1d15 30bf 406c d33f b529 ac3f bd02 b43f
000001f0: bca5 9cbf b9b7 bbbf 72ea 8abf bcdf 9f3f
00000200: b5ea ac3f 9df2 9dbf 5c86 d6bd b76f b43f
00000210: 0cbf c73f 2fef c93f bd88 f1be f2b6 9dbf
00000220: d00f aa3f b2cc a93f f750 8c3f bbb3 de3f
00000230: 5987 70bf d010 843f 4f2c 30be e5d2 1cbe
00000240: 96e4 a73f c13d c7be 9295 c9be 64a1 b23f
00000250: 0a23 c73f 6454 acbe 6b64 b6bf cc5f dc3f
00000260: 5a85 8c3f 461c 03bf 5908 d43f 9a82 a0be
00000270: 8f6c b43f d52a e5bb 3d54 2abf 762d a7be
00000280: 9dd1 ce3f da2b 5dbf eba0 c8be 4e89 5bbf
00000290: ab51 00bf 7eb7 803f d6a8 b03f eb6e 25be
000002a0: 323d acbe 474a 62bb fee7 03bf c0a6 73bf
000002b0: bca0 49bf 8ae1 97bf 72b7 b4bc b81b ac3f
000002c0: 2c8f b23f a117 8e3f 3b7d a83f 7703 b0bf
000002d0: affc 99be 8140 d13f a896 18bf 9b18 b23f
000002e0: 7536 af3f 63f3 6bbf 14b8 9bbd 8a0d 8abf
000002f0: 8676 b03f 9e06 8dbf e2e5 29bf a456 2ebf
00000300: 6d62 a1bf 3fd4 a53f 76bc d23f 7b29 74bf
00000310: d3d0 18bf 9c8b b43f 7c31 8fbe 658c cc3c
00000320: 8271 d13f 4548 ac3f fc4a ae3f f933 803d
00000330: 5c40 bcbe 11ee ab3f 5539 31bf 4653 88bd
00000340: aaa3 99bf d460 a33f c5d6 af3f 49f4 7ebf
00000350: 88d2 a73f e276 7abf 8543 87bf a90c 52bf
00000360: a539 8ebe 8640 69bf 6f3a 8abe c7e4 45bf
00000370: a390 b43f 3f21 82be 0dbe dc3f ff3c 10be
00000380: 3cd6 903f 7ceb d23f f98d c83f e2e1 ad3f
00000390: 2a90 ae3f 1678 93be 3208 28be 0414 3ebf
000003a0: 5caf 60bf 982c da3f f057 81bf 0a0b e73c
000003b0: 019c 5cbf 6327 9a3f beae a83f f742 b13f
000003c0: 7779 adbe d6de 75be 3cfc b2bf 8337 9f3f
000003d0: a70d 683f 9ddb db3f cdae a13c 49d5 a1bf
000003e0: 6d87 a53f 7faf a93f 8daf 5dbf df4d de3f
000003f0: 5907 bd3f 4ef2 bf3f 0b80 d93f 6db8 39bf
1.4055659 -0.18706365 -0.9293128 -0.57515687 1.5520716 1.3187124 -0.943304 1.1223694
-0.21252987 -0.48025185 -1.0541785 -0.10623155 1.0774217 -0.41186294 -1.1437143 -1.03578
-0.22792707 -0.93307334 1.7452354 -0.63144994 -0.041676622 -0.34803757 -0.64958984 -1.1393759
-0.9620217 -1.0417867 -0.44564718 1.3768257 1.3288497 1.4748987 -0.23687017 -0.71949244
1.1715448 1.1850886 -0.019342963 -0.52093804 1.6167905 1.7228787 -0.2703148 -1.1246752
1.401176 1.3959782 1.6549736 -0.58021843 -1.1585442 1.2039798 1.3452053 1.5913059
-1.2910069 1.4485521 -0.508263 1.6724453 1.0665219 1.4020395 1.4083211 1.4287294
1.6189115 1.3594388 1.2380773 -0.06133406 -0.026315229 -0.22541222 -0.24163285 -0.8537089
-1.1117308 -0.7660932 1.3011801 1.639283 1.6575903 1.1846656 -1.3437372 -0.8054186
1.7110063 1.7573943 -0.31340948 -0.13453358 1.6040835 1.320228 1.6666785 0.9666825
-0.14269179 -0.02250077 -0.7929157 -0.25490472 -1.54024 1.6682599 1.36761 -0.06324895
-0.9909073 -0.7828812 -0.30954698 -0.6564016 1.3086442 -0.96017563 1.3021952 -1.1066889
-0.4763901 1.3830738 1.2756232 -1.4095731 -0.19221245 1.5357636 -0.939814 1.6481481
-0.07425845 -1.0810481 1.350795 -0.11348338 -0.48665133 -0.009300021 -1.1250939 -1.2131004
1.3819895 -0.71337765 1.5907726 1.3970056 -0.028957311 -0.52098733 -0.28642613 1.3082815
-0.68782216 1.651741 1.3450228 1.4063336 -1.2238078 -1.4665443 -1.0852797 1.2490153
1.3509127 -1.2339665 -0.10474846 1.4096593 1.5605178 1.5776118 -0.47174636 -1.2321455
1.3286076 1.3265593 1.0962209 1.7398599 -0.93956524 1.0317631 -0.17204402 -0.15314825
1.3116634 -0.38914302 -0.39371926 1.3955503 1.5557568 -0.33658135 -1.4249395 1.7216735
1.0978196 -0.51215017 1.6565048 -0.3134964 1.409563 -0.0069936314 -0.6653479 -0.3265187
1.6157719 -0.8639504 -0.3918527 -0.85756385 -0.50124615 1.0055997 1.3801525 -0.16155593
-0.33640438 -0.0034529136 -0.51525867 -0.95176315 -0.78760886 -1.1865704 -0.02206013 1.3445959
1.3949943 1.1100961 1.3163217 -1.3751057 -0.30075595 1.634781 -0.59604883 1.3913759
1.3688494 -0.92168254 -0.076034695 -1.0785382 1.378617 -1.1017644 -0.663664 -0.68100953
-1.2608162 1.2955397 1.6463764 -0.95375794 -0.5969364 1.4105105 -0.2796744 0.02496929
1.6362765 1.3459555 1.3616633 0.06259913 -0.36767852 1.3432027 -0.69228107 -0.06656508
-1.2003071 1.2763925 1.3737417 -0.995915 1.3111124 -0.9783765 -1.056748 -0.8205057
-0.27778354 -0.9111408 -0.26997706 -0.7730221 1.410664 -0.2541599 1.7245499 -0.14085768
1.1315379 1.6478114 1.5668327 1.3584559 1.3637745 -0.28802556 -0.16409376 -0.7424929
-0.8776758 1.7044859 -1.0104961 0.028203506 -0.86175543 1.204327 1.3178327 1.3848561
-0.33881733 -0.24010786 -1.3983226 1.2438816 0.9064583 1.7176396 0.019736672 -1.2643214
1.2931954 1.3256682 -0.86595994 1.7367514 1.4767867 1.499582 1.6992201 -0.72547036

Q1.4.weight f4 [1, 256]
00000000: bccc 183e 899e b8bf 56e2 b7bf 13f0 c5c0
00000010: af9a eb3e f6bb bc3d 9402 61bf 93a3 403f
00000020: 6e0c 9bbf d08d 20c1 bdfb f2bf 8102 2bbf
00000030: dff4 353f e8cd a9c0 966a f1bf d7bc a8c0
00000040: d2a2 adbf fa24 59bf e238 313f adf5 11c1
00000050: fa3a a3bf 031c c9c0 fedb 47c0 1466 22bf
00000060: aaeb 01c0 9846 b9bf 0495 01c0 c773 7d3c
00000070: 8499 313f e60e ae3e fedc 39bf 9af1 71c0
00000080: 5d5c 833e 1cb5 b83f be38 edbc c68f 75c0
00000090: 0732 143f 19b6 f53e 4bda 8abf a7a0 1dc0
000000a0: 0570 f93d d577 463e 4693 e93e 7c63 08c0
000000b0: 195f 92bf cbc9 4d3f abd0 0a3e 60d1 553f
000000c0: b99e 30bf 36f6 fc3e c1fa d1bf 1932 f23e
000000d0: 5051 233f d2e0 043e e494 2b3e c3ce 053e
000000e0: 7d20 513f f7a7 dc3d abd4 b83e 83e9 50c0
000000f0: 0715 55c0 c489 d1bf 56ee 8abf ed91 8bc0
00000100: 864f cbc0 e05e 1fc0 8e4c a53d bc11 d33e
00000110: 9222 2f3f 0ba8 e63e 546e 86bf 0c34 babf
00000120: 25fd 013f d817 683f f2b4 94bf 9f03 7ebf
00000130: 3c22 b43e d77f a23d 6e15 ea3e 1cdf c43f
00000140: ee47 d4bf d610 d83c 2736 6cc0 9e21 a4bf
00000150: b3f5 b4bf 033b a33e 204d 7e3d d39e c9bf
00000160: 55de 83bf ea76 9cbf f5bf 9fc0 a714 35c0
00000170: f0af b23e df52 47c0 7239 8a3d 5a2a 1ac0
00000180: 9429 1941 ec6c 843e 7e9a 283f baa2 52bf
00000190: 9a24 9fbf d225 a93e 40ac 97c0 661d ef3e
000001a0: 20e5 e5bc e502 10c0 8819 913f 514f aebf
000001b0: 3858 48c1 1cd5 0dbc 8c5e 7fbf f4db 7ebf
000001c0: a852 843d e1f7 a2bf caf7 9a3e bccb 9a3e
000001d0: aa5a 9dbf 4e11 01c1 f2eb 1fc0 b90c 4b3d
000001e0: 5103 e8bf 221d 2a3f 38ab 583f 14f2 ef3d
000001f0: bb0e 70bf 5ddd 86bf 4f48 efbf ef4d d63e
00000200: 6676 963d 04eb a1bf 2f52 a9bf b0f5 9e3e
00000210: 95c0 4c3f 060c c23e 3f0d 4ac0 b622 2ac0
00000220: 083b a13d dfa2 1d3f 6d52 773f fe63 1e3f
00000230: dc3f 53c0 1a88 773f c247 6fbf 4586 9abe
00000240: 0c39 2f3f 3102 93c0 da05 60c0 082c 203e
00000250: 8825 123f bc8d d5bf f099 57bf ce6f 523f
00000260: 5bb1 663f 8a57 f4bf 4275 223f bd4f 61bf
00000270: 9cd5 043f 78bd 22c0 12ff 24c0 2922 0bc1
00000280: 30ec 063f 4717 5cbf c1f0 12c1 d7e2 d3bf
00000290: 0b5e a9c0 1516 0b3f d5e1 a43d 65ae 86c0
000002a0: b2ca 84c0 274a 083c 5de9 6ac0 62bd a4bf
000002b0: b680 03c0 2570 1dc0 79d8 dbbf a7e7 053d
000002c0: e93f 423f b312 783f 4f2a 113d 00c8 92bf
000002d0: 8a75 c2bf 9f99 183f d5ab b5c0 210c 303d
000002e0: 7d92 503d 6632 57bf 7f1e 86bf b04c 9dbf
000002f0: 1418 f93d 88df 32c0 d597 bcbf e9f8 bfc0
00000300: 52fa 6abf 02aa ff3e 3739 2f3f bd67 6abf
00000310: fce2 f7c0 dbda 093e 8a51 f9c0 8232 07bc
00000320: b2b2 023f a734 223e 0bbd bc3d 0cc0 b6bf
00000330: aadb 42c1 4403 9a3e 6923 24c0 228c 473d
00000340: 3ec7 b1c0 6fa4 4a3f 7ee0 533d 3f96 2ec0
00000350: f3e6 933e 5949 7ebf 417e 03c0 0b28 68c0
00000360: 226c edc0 e126 c2bf 8d02 10c0 5cc8 e5bf
00000370: fe2b ef3d 5fc9 b6bf c799 0c3f 052c 4ebf
00000380: 804f 593f c447 053f 6429 ac3e bf3b e23d
00000390: 3c2e 983e c747 46bf f314 f8c0 c401 6abf
000003a0: 3be5 9abf 437e 0d3f 9017 69c0 e7eb 3ebd
000003b0: 1bd1 01c0 b55b 773f 4892 4f3f 42ce b33d
000003c0: 05cb dabf a62c b3bf 3103 2bc1 ac77 423f
000003d0: 45be d63f a879 173f 8bd2 1ec0 3f2c a4bf
000003e0: 8e91 333f 8ba1 423d 284e 12c0 b884 143f
000003f0: 86a9 413f b27d ed3e 7c19 143f 4f6b bcbf
0.1492185 -1.4423381 -1.4365947 -6.185556 0.46016452 0.09215538 -0.8789456 0.75249594
-1.2113168 -10.034622 -1.8983074 -0.66800696 0.7107677 -5.306385 -1.8860652 -5.2730517
-1.3565314 -0.84822047 0.6922742 -9.122479 -1.2752373 -6.2846694 -3.1228023 -0.6343701
-2.0300088 -1.4474669 -2.0247202 0.015469498 0.6937487 0.33995742 -0.7260283 -3.7803712
0.25656405 1.443027 -0.02895772 -3.8369002 0.57888836 0.47990492 -1.0847868 -2.4629304
0.12179569 0.1938165 0.45620173 -2.131072 -1.1435272 0.80386037 0.13556163 0.83522606
-0.6899219 0.49406594 -1.6404649 0.47303846 0.6379595 0.12976387 0.16756016 0.13067155
0.816902 0.10774224 0.36099753 -3.2642524 -3.3294084 -1.6370168 -1.0853984 -4.361563
-6.3534575 -2.4901657 0.08071242 0.41224468 0.68412125 0.45050082 -1.050242 -1.4547133
0.5077689 0.9066138 -1.161772 -0.99224275 0.3518237 0.0793454 0.45719475 1.5380588
-1.6584451 0.026375216 -3.6908052 -1.2822759 -1.4137481 0.3188096 0.06208527 -1.5751594
-1.0302225 -1.222379 -4.9921823 -2.8293855 0.34899855 -3.114433 0.06749238 -2.408835
9.572651 0.2586435 0.65860736 -0.8227955 -1.2433045 0.33036667 -4.7397766 0.46702117
-0.028063357 -2.2501767 1.1335917 -1.3617955 -12.521538 -0.008656766 -0.9975364 -0.9955437
0.06461078 -1.2731897 0.30267173 0.30233562 -1.2293293 -8.066725 -2.498776 0.04957268
-1.8126012 0.66450703 0.8463626 0.117160946 -0.93772477 -1.0536305 -1.8693942 0.41856334
0.073468015 -1.2649846 -1.3228205 0.3104682 0.79981357 0.37899798 -3.1570585 -2.6583686
0.078725874 0.61576647 0.96610147 0.61871326 -3.3007727 0.9669205 -0.9346887 -0.30180565
0.6844642 -4.5940175 -3.5003572 0.15641797 0.5708852 -1.6683879 -0.84219265 0.8220185
0.9011437 -1.9089215 0.6346017 -0.88012296 0.5188844 -2.5428143 -2.5780683 -8.69584
0.52704144 -0.8597302 -9.183778 -1.6553601 -5.29273 0.5433057 0.080508865 -4.2087884
-4.149743 0.008318461 -3.6704934 -1.2870295 -2.054731 -2.4599698 -1.7175437 0.032691624
0.7587877 0.9690353 0.03544074 -1.1467285 -1.519212 0.5960941 -5.6772256 0.042980317
0.050920952 -0.84061277 -1.0478057 -1.2289028 0.12162796 -2.7948933 -1.4733835 -5.9991345
-0.9178821 0.49934393 0.6844668 -0.9156454 -7.746458 0.13462393 -7.7912035 -0.008251788
0.5105392 0.15840398 0.092157446 -1.4277358 -12.178629 0.30080616 -2.5646613 0.048717625
-5.5555716 0.79157156 0.051727764 -2.7279203 0.28887138 -0.9933067 -2.054581 -3.627444
-7.41945 -1.5168115 -2.2501557 -1.795177 0.11678313 -1.4280204 0.54922146 -0.8053592
0.8488693 0.5206263 0.3362533 0.11046552 0.29722774 -0.77453274 -7.7525573 -0.91408944
-1.2101206 0.55270785 -3.6420631 -0.046611693 -2.0283878 0.9662431 0.8108258 0.08779575
-1.7093207 -1.3998001 -10.688279 0.75963855 1.6776816 0.5917001 -2.4816005 -1.2826003
0.70143974 0.04751734 -2.2860203 0.5801501 0.756493 0.4638496 0.57851386 -1.4720248

Q2.0.weight f4 [256, 23]
00000000: c094 4fbf a409 10c0 c9b9 0dc0 647c 4abf
00000010: 79a8 c5bf d043 7dbf 2874 a53e eae2 953e
00000020: 36a4 4cbf 9713 aabe c272 f8bc 3ff3 943e
00000030: 7040 463d b959 4bbe 25a5 abbd ca87 cb3d
00000040: a6e1 973d b5ec 8e3e 6cf3 03bf b6a4 41be
00000050: a9f6 323d 7404 0e3f b5d3 19bf e550 80be
00000060: 9b4a 15c0 cf5e 8d3f 9f42 233f 9406 86be
00000070: 0e6c 8b3e f56d 00bf ba63 ff3e c888 02bf
00000080: 256e 75bf 32d5 f33e f883 d0be 0dad 78bd
00000090: 53f9 883c 2255 803e 2150 a93d 6ed9 513d
000000a0: 09dd 08be 8460 9e3e 5d69 ca3e 7dbe 183e
000000b0: 55b6 05bf 1f3a 84be 75b9 b9be e5c2 d03f
000000c0: b3a4 88be b59c ce3e dfec b33f bd47 183f
000000d0: e0f4 aa3d beaf ba3e 7e51 643d 122b 42bf
000000e0: 8f35 39be ed70 b33d f3f5 673d ed77 33be
000000f0: e070 b33e d56f 30be 4e21 31be b350 de3e
00000100: 0217 07be 337d a1bd 9a13 333e 2529 8dbd
00000110: 2bc5 a2be a692 75bf c069 15c0 cbcc 3dbf
00000120: fbb8 b23d 822e 13bf 1493 e03f e016 ab3f
00000130: d31c 213f ef86 ed3e c1fe 9ebc 6d14 89be
00000140: 7e54 93be 0d03 35be 5043 a4bb cece b13e
00000150: b977 233d cbf3 3bbd 202b 0f3f c9fb b5be
00000160: 8bea 06be 5935 e83d 46d3 b2bd a043 ac3e
00000170: a0ee fcbe 5c5b 24bf 6842 ccbf 36ff 1a3f
00000180: f1ff b23f 01dd b73f c26d 813f 00e4 1cbf
00000190: 302e 113f 76db 24be 67d1 5cbd 1a76 d03d
000001a0: 2c53 69be dcd7 94bc a7b4 2fbd 512f 393d
000001b0: 358e 263e 188c 9d3e 9f17 12bf f531 98be
000001c0: d4a4 59be 4e44 2fbf eeef bd3e 123e 8abf
000001d0: 5b21 33bf e6e0 163f f6f6 953e 9e4d 4fbf
000001e0: 8de3 ddbe 6e22 95bf f0fd cabf 8420 003f
000001f0: e1b3 3bbf 8ded 8fbe 8d0a e03c 0ca6 853d
00000200: 2490 053e 3021 2bbd 61bf febd 9f52 2f3d
00000210: e690 f2be 03a2 9fbe a40f 563d 1160 92bd
00000220: 07b4 4bbf 48ff 753e cb2e 49be 82c6 73c0
00000230: ead7 febf c9f5 01bf 4d9a 8d3d 494f 6940
00000240: 59a4 973f b5aa c93e 87d0 173f 3fc8 d2bb
00000250: 2bb8 02bd c400 f0bd 2e2f 93bd 261e d4b9
00000260: d561 d93d a213 4f3d d9d4 5d3c 92eb 0dbd
00000270: 629a 683c 936c 163c 9907 b3bd 5b9e a63d
00000280: e6f6 b4bb bef1 833e 669e 6cc0 8b94 b4bd
00000290: 3593 70be 5fd3 da3d 7642 a63e 7a95 3a3d
000002a0: 4230 993e f69d b83e e9e6 a2bd 967d a3be
000002b0: 57bf 723d 6b45 2fbd b88a b9bc 4f7d d63d
000002c0: 3c10 213d f719 bcbc 2cb6 e6be 9ca3 c83a
000002d0: 4c4c 09be 8f54 eebd 5532 5bbc 8821 f23d
000002e0: 5959 e3ba 80f1 743f 9dce 413f ec57 343f
000002f0: b552 3e3e 67d1 463e 4475 b63c a1f2 103e
00000300: 3d07 243f ba4c ffbe dbc9 0abf 31c6 1e3e
00000310: 4930 b63d ed13 2bbc ae63 e53d 4f72 a63d
00000320: dc4d 6e3c f6ef 1ebe 4e57 643d 5cff 00bd
00000330: 1472 76be 6528 bdbb 065c cf3d 63c8 c13e
00000340: 2def a23f bfff 8e3f 2054 56be 7894 c43d
00000350: deb2 c8bd 8e35 483f fe3c 6a3e 2898 abbf
00000360: 33d2 843e ff85 a43d f076 6d3e fa31 0bbc
00000370: 8e87 36bd a6f6 49be 2cff 07be fd28 973d
00000380: 135a 003e 847a 46bd a87e 8abe 23c8 e43d
00000390: ae26 ad3e caa3 d93d 4c8b ffbe ac48 20c0
000003a0: df52 213f e651 b23f 0e47 57bf 7fa1 4fbe
000003b0: 698a 5bbf 7fe3 293f d715 88be ab4d 0e3e
000003c0: 6985 983d 8516 4abb 9fb7 4abd 5399 5c3e
000003d0: 4e76 0cbe cb53 21be bf11 76bd 6095 21bf
000003e0: c953 423c 75e6 05bf b5e3 92be d33b d03e
000003f0: aeca 8f3e 39b4 ee3e eb69 f03f a384 f0be
-0.8108635 -2.2505884 -2.2144644 -0.79096055 -1.5442039 -0.989316 0.32315183 0.29274684
-0.79938066 -0.3321807 -0.030328158 0.29091832 0.048401296 -0.19858445 -0.08381108 0.09938009
0.07416086 0.27914968 -0.5154331 -0.18910488 0.043692265 0.55475545 -0.60088664 -0.25061718
-2.3326786 1.1044558 0.6377353 -0.26176894 0.27230877 -0.5016778 0.49880773 -0.5098996
-0.9587119 0.47623593 -0.40725684 -0.06071191 0.01672045 0.2506495 0.082672365 0.051232748
-0.13365568 0.3093301 0.3953351 0.14916416 -0.5223134 -0.25825593 -0.36274305 1.6309477
-0.26688156 0.40353933 1.4056662 0.59484464 0.083474874 0.36462206 0.05574178 -0.7584697
-0.18086837 0.08761773 0.05663104 -0.17526217 0.35047054 -0.1723016 -0.17297861 0.43420944
-0.1319237 -0.07885208 0.17487946 -0.06892613 -0.31791052 -0.9592689 -2.3345795 -0.74140614
0.087266885 -0.5749284 1.7544885 1.3366356 0.6293461 0.4639201 -0.019408586 -0.26773396
-0.287754 -0.17676945 -0.005012907 0.34728092 0.0399091 -0.045886796 0.5592518 -0.3554366
-0.13175409 0.113383 -0.087317035 0.33645344 -0.49400806 -0.64201903 -1.5957766 0.6054567
1.3984357 1.436432 1.011162 -0.612854 0.567111 -0.16099343 -0.05391064 0.10178776
-0.22785634 -0.018169336 -0.042896893 0.04521114 0.16265185 0.30770946 -0.5706729 -0.29725614
-0.21254283 -0.684636 0.37097114 -1.0800192 -0.6997277 0.5893692 0.2928998 -0.8097781
-0.4333767 -1.1651132 -1.5858746 0.50049615 -0.7332135 -0.28110924 0.027348781 0.065258116
0.13043267 -0.041779697 -0.124388464 0.042803403 -0.47376174 -0.31178293 0.05226101 -0.071472295
-0.79571575 0.24023163 -0.19646756 -3.808991 -1.9909642 -0.50765663 0.06914196 3.6454642
1.184703 0.39388052 0.5930256 -0.0064325626 -0.031913918 -0.11718896 -0.07186733 -0.00040458253
0.10614363 0.050555833 0.013539516 -0.034648485 0.014196964 0.00918116 -0.087416835 0.08135673
-0.0055225966 0.25770372 -3.6971679 -0.08817395 -0.23493655 0.10684847 0.3247258 0.04555271
0.2991963 0.36058015 -0.07954199 -0.31931752 0.059264507 -0.04279081 -0.022649154 0.104731195
0.039322123 -0.0229616 -0.4506086 0.0015307548 -0.13408011 -0.11637222 -0.013378699 0.11822802
-0.0017345353 0.95681 0.7570589 0.7044666 0.18586238 0.19415818 0.022272713 0.14155056
0.64073545 -0.49863225 -0.54214257 0.15505292 0.088959284 -0.010441762 0.11200653 0.081272714
0.01454493 -0.15521225 0.055747323 -0.03149353 -0.24066955 -0.0057726377 0.10124974 0.37848195
1.2729241 1.1171798 -0.20930529 0.09598631 -0.09799741 0.7820672 0.22874829 -1.3405809
0.2594162 0.0803337 0.23189902 -0.008495802 -0.04456287 -0.19722995 -0.13280934 0.07380865
0.1253436 -0.048456684 -0.27049756 0.111709855 0.33818573 0.106269434 -0.49910963 -2.5044355
0.63017076 1.3931243 -0.84092796 -0.2027645 -0.8575807 0.66362756 -0.26579162 0.13896815
0.07447321 -0.0030836177 -0.04949152 0.21542864 -0.13717005 -0.1575462 -0.060075518 -0.63118553
0.011860796 -0.52304775 -0.28689352 0.40670642 0.2808432 0.46621874 1.8782324 -0.46976194

Q2.0.bias f4 [256]
00000000: 93b4 23bf 2e6d 00bf b0a8 a9bf 3be1 41bf
00000010: 38f6 39bf 9f50 2dbf 2b3b 39be 0f8c 913f
00000020: 0f88 7c3f ccb4 883f f226 78bf 6d96 edbf
00000030: 5844 cd3e 971d b63f f96f 2ebf d65a 86bf
00000040: a534 d73f 5cd6 23bf 2717 8ebf a630 613f
00000050: e451 5bbf 6590 233e 5e94 85be 1267 bc3f
00000060: 2762 9ebd f06c 9c3e 2ae4 b5bf fab6 11bf
00000070: e200 91be 8072 9f3f 4c2c 7abf 5870 9abf
00000080: f3dc a43f 5fc6 66be 26bb 933e d943 c9be
00000090: fed1 aa3e aee8 b43f 1953 c5bf 8498 cb3e
000000a0: 5136 90bc 8dd8 e0be 0b8e debe 22ba a43e
000000b0: 6aa4 483e 57ed 8fbf 4941 8b3f ce4a 8a3e
000000c0: 8751 f5bd 37f4 943f 76ef 5fbe 2987 d2bf
000000d0: b933 4c3e 0d73 acbf 3b97 1f3e fea9 923f
000000e0: 92c1 c33e ac4c 98be afe9 8dbe a889 ad3f
000000f0: d795 9d3f 902c 3dbf da53 efbe 6e68 64bf
00000100: b073 24bf 128d a73f 6fc8 cebf c6a3 98be
00000110: ee1d c0be 86d8 5e3f 4c83 df3e f665 1b3f
00000120: 2875 42bd 96e6 1abf 6312 a2bf 03eb b93f
00000130: 0e63 a5bf 5322 833f f560 41bf e706 a3be
00000140: 8f02 5dbf ddd1 043c 0ae2 193e 6d23 28be
00000150: 8586 7b3f de04 b73f 634f 5dbf 32d0 513f
00000160: 1de0 92be ef01 f33e d4a5 113e a789 433f
00000170: e89b 92bf 8817 fdbe 3ee3 1e3e 030d 48be
00000180: d0a2 c13f 5b15 be3a 6b74 643e feeb b23f
00000190: 2767 7ebf 6976 113f d973 12bf 2d74 aabf
000001a0: b9ee 77bd b3fd e5be 7ffb 7d3f 465c 05bf
000001b0: c245 f3be c1e4 d53f f816 293f 44c5 8bbf
000001c0: 9d8a a3bf 5cdf 69be f80a 91be d7d2 e63e
000001d0: 0e6a abbe d164 08bf 2a79 cabf f32b 1dbe
000001e0: ae79 9e3e 5452 67bf fcd0 5bbf 1f26 d03f
000001f0: 2744 d73f be49 35bf 59e4 02bf d81e 08be
00000200: 88d2 3ebf 6105 bb3e ce0a ef3f f88a e5be
00000210: 70bd 16bf 2933 abbf d9d6 4c3f f05e 8c3f
00000220: 4ed4 48be 84b3 03bf 4b01 4c3e d9fa c43f
00000230: 8823 fa3e e39f 2fbe fcad c83e c4ed 35be
00000240: 8ec7 233f 3e7f 703f 5903 113e 133f 3b3f
00000250: e2ee 38bf 1e69 113f 22fc 7bbe 5e96 653f
00000260: 7cba 6a3f 924c 18bf 12c8 113f c922 083e
00000270: 725b b8be 51e2 33bf ed32 8ebf ca0b efbe
00000280: c957 2ebe 539d 753f dcc2 d4be 71b6 a83f
00000290: 19a3 15bf 9be3 393e 8475 85be 979b acbe
000002a0: 8217 a53e b3f0 2bbf d911 69be 0b57 d0bd
000002b0: 71c6 94bf 2f8e ba3f 0b15 01bf 9424 643f
000002c0: 417e 97be a7af 95bf 0494 bcbf 4dd9 8abe
000002d0: 4987 9dbf 9338 cc3f 53cb 85be 9bd8 c0be
000002e0: 3e5a afbf 4b88 413e db35 78be dfe6 10bf
000002f0: 978b 813f 4551 9abe abb3 3d3e 7b79 a3bf
00000300: b73c 6cbf 681a 62bf 16ae f23d d3ff 513e
00000310: f2f9 5fbf 6599 78bf e8e1 fc3e 4dd9 9bbf
00000320: 47f3 12bf 2ead a93f 3d2b fc3e 0cbb 16bf
00000330: 8ea3 c03f 9231 a43f 81bd df3e 99e9 45be
00000340: 3738 6dbf 2331 09bf 53eb 4cbf 78eb 17be
00000350: 8e04 a9be a990 28bf 99b0 ad3f cf32 d8be
00000360: 2ecd 99be ad6d 85bf 4c6c cb3f 7e7a 83be
00000370: 4688 a53f 7c96 98bf cd83 a63f 5648 ec3d
00000380: 3e4e 8abf e18a f7be fec9 12bf b567 b73e
00000390: fcda 93bf 5d97 4abf 9294 c8be b2e3 083f
000003a0: 3451 65be cecc 99bf 00eb 16bf 49eb 18bf
000003b0: a8f4 8b3f cfb4 ee3f c178 073f 416c 363f
000003c0: c36c 4abf d0a8 01bf 7750 ecbf 5f65 04bf
000003d0: 0403 94bf 8e62 fd3e 0458 843f 102a 55be
000003e0: 1914 953f 0963 303e dd4e b43f 9a96 25bf
000003f0: eba1 b53e 5bd6 a9be 6282 92be 29c0 04bf
-0.6394741 -0.50166595 -1.3254604 -0.757343 -0.72641325 -0.67701143 -0.18088977 1.1370867
0.9864511 1.0680175 -0.96934426 -1.8561531 0.40091205 1.422778 -0.68139607 -1.0496471
1.6812941 -0.6399896 -1.1100816 0.87964857 -0.8567183 0.15973051 -0.26089758 1.4718955
-0.07733565 0.30551863 -1.4210255 -0.56919825 -0.28320986 1.2456818 -0.9772384 -1.2065535
1.2879928 -0.2253661 0.2885372 -0.39309576 0.33363336 1.4133508 -1.5415984 0.39764798
-0.017604025 -0.43915215 -0.43467745 0.32173258 0.19593969 -1.1244305 1.0879298 0.27010196
-0.11978441 1.1637028 -0.21868691 -1.6447498 0.19941606 -1.3472611 0.15585034 1.1458127
0.3823362 -0.29745996 -0.2771735 1.3557634 1.2311352 -0.7389612 -0.4674366 -0.8922185
-0.64239025 1.3089926 -1.6154917 -0.2981245 -0.37522835 0.8704914 0.4365486 0.60702455
-0.04747501 -0.60508096 -1.2661861 1.4524845 -1.2920854 1.024485 -0.7553857 -0.31841204
-0.8633203 0.008106676 0.15027633 -0.16419764 0.98252136 1.429836 -0.8644926 0.81958306
-0.2868661 0.47462413 0.14223415 0.76381916 -1.1453829 -0.49432015 0.15516374 -0.19536214
1.5127811 0.0014502214 0.22310035 1.3978269 -0.9937615 0.56821305 -0.5720802 -1.3316704
-0.060530398 -0.4492012 0.9921188 -0.52093923 -0.47514158 1.6710435 0.6605067 -1.0919576
-1.2776676 -0.22839111 -0.2832868 0.45082733 -0.3347935 -0.53278834 -1.5818226 -0.15348797
0.3095221 -0.9036 -0.8586576 1.6261634 1.6817673 -0.70815647 -0.5112968 -0.13293016
-0.74539995 0.3652754 1.8675172 -0.44832587 -0.5888281 -1.3374988 0.8001533 1.0966473
-0.19612238 -0.51445794 0.19922368 1.5389053 0.48855233 -0.17150836 0.3919524 -0.17766482
0.6397637 0.93944156 0.14161433 0.7314312 -0.72239506 0.5680102 -0.246079 0.8968257
0.916908 -0.5949184 0.5694591 0.1329452 -0.36007267 -0.70267206 -1.1109291 -0.46688682
-0.17025675 0.9594318 -0.41554916 1.3180677 -0.5845199 0.18153231 -0.2606622 -0.33712456
0.32244498 -0.6716415 -0.22760715 -0.10172852 -1.162306 1.4574641 -0.50422734 0.89118314
-0.29588512 -1.169423 -1.4732671 -0.27118912 -1.2306911 1.5954765 -0.26131687 -0.37665257
-1.3699415 0.18899648 -0.24239294 -0.5660228 1.0120724 -0.3014013 0.18525569 -1.2771448
-0.92280143 -0.8832154 0.118496105 0.20507745 -0.8749076 -0.9710906 0.49391103 -1.217569
-0.5740246 1.3255975 0.49251738 -0.5887916 1.5049913 1.2827628 0.43699268 -0.19327392
-0.926639 -0.535906 -0.80046576 -0.14835918 -0.33011287 -0.65845734 1.3569518 -0.42226264
-0.30039352 -1.0424095 1.5892425 -0.25679392 1.2932212 -1.1920924 1.3008972 0.115372345
-1.0805128 -0.48348144 -0.57339466 0.3582131 -1.1551204 -0.7913721 -0.3917585 0.53472435
-0.22394258 -1.2015626 -0.5895233 -0.59734017 1.0934038 1.8648928 0.5291863 0.7125893
-0.7907221 -0.5064821 -1.8462056 -0.5171718 -1.156342 0.49489254 1.033936 -0.20816827
1.1646758 0.17225279 1.4086567 -0.64682925 0.35475096 -0.33171353 -0.286151 -0.51855713

Q2.2.weight f4 [256, 256]
00000000: 9376 e93c 9483 59bd 1679 e5b9 c3c5 f53c
00000010: 640c 44bd 49fb 0cbd c176 65bd 608b 26bd
00000020: 1731 0cbc ce0f ecbc 46bd c7bc 8a20 433d
00000030: 06cc 0b3d fc62 1b3d 4cc6 33bd 0f38 cabc
00000040: ee54 963c b660 59bb 71ff f1bc dc21 f63c
00000050: 093c c3bc 59fd 823c b638 483c d192 61bd
00000060: 320c 083a 7237 363d 8ccc fbbc 38fa c73c
00000070: 120c d73c 8206 943b e45d b9bc fe78 e2bb
00000080: 1ae7 72bd 5058 30bc b2d4 e0bc 2f80 513c
00000090: 00d4 423c 8d34 d13c 9447 7cbd aa6a 5ebd
000000a0: f185 a5bc a1a8 09bd 3e50 f3bc f3c4 e93c
000000b0: a76d 96bd f702 f63c 1607 86bd 3e0c 283c
000000c0: c513 80bc 3a2e 8d3c 9457 8cbc 7e6d 083c
000000d0: 1510 08bc b20f 4e3d 5e89 3abd 1230 76bd
000000e0: e67a 32bd 1add 4cbc 443a 7bbc 58d7 ad3c
000000f0: f347 99bb f6ad 0ebd 05e7 4dbc 16b9 233d
00000100: 35b9 c4bc a0ed acbc 2103 b7bc dce8 8abc
00000110: 50c9 1dbd 3f0d 173d 0a25 04bd 37ed 623c
00000120: 11a2 733d 724a d4bc 079a 76bd 1f7d d1bc
00000130: 46ca 5c3d 5da1 76bd 2368 53bd 6c73 1c3d
00000140: a1d8 333b 54c8 efbc de85 423d d56f 4e3d
00000150: c8f8 5bbd 841e 8d3c de45 073d c950 1cbd
00000160: 3c5e 65bd b759 8ebd 8707 353c df44 4bbd
00000170: e871 2fbd 26e4 84bd a044 b83c fd7a b03c
00000180: 4347 07bd 32ba 80bd 8ea5 643d 1154 3a3d
00000190: bcc3 58bc cefe 4fbd 103b d6bc 5951 e63c
000001a0: 4894 093d a86a 8b3b bafb 93bd 63e9 6e3c
000001b0: ed6e 99bc cf32 5fbc fd65 24bd 792c 743c
000001c0: 199c 3b3d 2b3d 093d ea02 903b b58b 9d3c
000001d0: dcba 48bd 899a 2fbc 4e10 2bbd 9983 3fbd
000001e0: 5ecd eabc 4c43 97bc 3bbb 86bd 6e82 f2bc
000001f0: 0e69 8cbd adb4 52bd b75b 563c 4e28 1d3d
00000200: 83bc 60bc feb4 003c b469 de3c 8279 d1bc
00000210: a5d8 19bd 069b b63b 1b4e 0fbd 4432 bbbb
00000220: 851b e63b 9c82 123d 1a40 8237 a555 13bd
00000230: c88c 18bd 0d07 03bd a99f 153d 0ef6 873c
00000240: 6a99 e33c 655b 7f3c b9b4 11bd 26e4 3a3d
00000250: f675 943c 5ab9 86bd 319f 513c 5766 84bd
00000260: fce1 3dbc afb7 2f3c 4715 263d 60f3 81bd
00000270: 981e 45bd 69b3 9b3c 3cf1 8dbd 6ffc 7cbd
00000280: 2a25 49bc c714 c83c efe0 e93c 1477 5abd
00000290: 5830 513d 1a8c f2bc 19ac f23c 455a 413d
000002a0: 1ab7 183c 5eca 52bd 9ae0 f2bc 4ee0 4b3d
000002b0: ca49 1b3b 2933 12bc 0d95 503c 971f c0bc
000002c0: ee9d e13c 6525 2fbc 1cea 293c 6c69 233c
000002d0: 4f1d 08bc af68 c1bc 44c8 11bc f1d1 95bc
000002e0: d1d6 c9bb f99d 1a3d 2a21 3c3d 770b 10bd
000002f0: f2ee 203d 3b65 aa3c c030 14bd 7916 2abd
00000300: 53a7 093d c913 b23c f2c2 90bd 80c5 4dbd
00000310: db44 3bbd 3397 813b 3474 7fbd 649d d2bc
00000320: 08cf 3d3d 52fb 13bd 4d44 f0bc d3f3 483d
00000330: ee57 5b3c 7a12 71bd 158d 57bd 2ff6 6fbd
00000340: 9a68 293b d195 053d 82d0 98bc 0c06 3ebd
00000350: 7e68 563c dbc7 0bbd 003d 51bd 3e00 2cbb
00000360: 3360 04bd 3b91 80bd efe1 4cbd 3780 24bd
00000370: ecb9 513d 5bc9 a9bb f286 bcbc a2e9 61bc
00000380: 1e22 cabb eef7 bfbc 7603 343d 8545 4e3d
00000390: dbbc 5d3d 79e5 09bd 4f67 aeb9 5036 4ebb
000003a0: 6cfd 13bb 321b 013d 6120 71bd 9f35 bfba
000003b0: c9ce 1ebd c6ab 90bc 9d8e 66bd 11ae 173d
000003c0: 479a c3bc 0d21 a7bc d401 1a3d 8b05 613d
000003d0: 96b2 163b d10a 98bc 9e9e 56bc c6c4 b53b
000003e0: 296e c93c 0034 3bbd 32f9 4b3d f85f 1c3c
000003f0: aac6 81bd ebdb 0abd 4190 a0bb 1166 cdbc
0.028498923 -0.053104 -0.000437685 0.030001527 -0.04786338 -0.03441933 -0.056021456 -0.040660262
-0.008556626 -0.02881613 -0.024382245 0.047638454 0.03413012 0.037936196 -0.043890283 -0.024684934
0.018351045 -0.0033169216 -0.02954075 0.030045442 -0.023832338 0.015989946 0.012220552 -0.055071656
0.00051898055 0.04448647 -0.030737184 0.024411306 0.026250873 0.0045173774 -0.022627778 -0.006911396
-0.059302427 -0.010763243 -0.027445171 0.012786909 0.011891365 0.025537753 -0.0615917 -0.05430094
-0.02020547 -0.033608083 -0.029701348 0.028536296 -0.07345133 0.03003071 -0.0654432 0.010256825
-0.015634427 0.017233957 -0.017131604 0.008326886 -0.0083046155 0.050307937 -0.04554116 -0.060104437
-0.043574236 -0.012503887 -0.015333716 0.021220848 -0.0046777665 -0.03483387 -0.012567286 0.039971434
-0.024014095 -0.021109402 -0.02234036 -0.01695674 -0.038522065 0.036877867 -0.032261886 0.013850502
0.05948073 -0.025914405 -0.060205486 -0.025572358 0.05390384 -0.06021248 -0.051612984 0.038196012
0.0027442353 -0.029270329 0.047490947 0.05039962 -0.053704053 0.017226465 0.033025615 -0.03816298
-0.055998072 -0.069507055 0.011049158 -0.049626227 -0.04283324 -0.06488828 0.02249366 0.02154302
-0.033026945 -0.06285514 0.055821948 0.04549033 -0.01323026 -0.05078011 -0.02615121 0.028114961
0.033588678 0.004254658 -0.072257474 0.014582011 -0.018729651 -0.013622954 -0.040136326 0.014903181
0.045803163 0.0335056 0.0043948786 0.019231657 -0.049006328 -0.010717996 -0.041763596 -0.04675636
-0.02866238 -0.018464707 -0.0657868 -0.02960321 -0.06855975 -0.051441837 0.01308339 0.038368516
-0.01371682 0.007855652 0.027150013 -0.025570635 -0.037560124 0.0055726795 -0.034986597 -0.0057127792
0.0070223236 0.03576909 1.5527057e-05 -0.03597035 -0.037243634 -0.031989146 0.036529217 0.01659682
0.027783114 0.015585755 -0.03557274 0.045627736 0.018122654 -0.06578322 0.012794302 -0.06464832
-0.011589523 0.010724946 0.040547635 -0.06345248 -0.04812488 0.019006448 -0.069307774 -0.061764177
-0.012276927 0.02442397 0.02854964 -0.053336218 0.051071495 -0.029607821 0.029623078 0.04720523
0.009320999 -0.051462524 -0.029648114 0.04977446 0.0023695105 -0.00892333 0.012730849 -0.023452563
0.027541127 -0.010690068 0.010370757 0.009973865 -0.008307769 -0.023609487 -0.008897845 -0.018288584
-0.0061596413 0.03774831 0.045930065 -0.035167184 0.039290376 0.020800224 -0.036179304 -0.041525338
0.03360684 0.02173795 -0.07068433 -0.05023718 -0.045719963 0.003954792 -0.06236668 -0.025709815
0.04634002 -0.03612835 -0.029329443 0.049060654 0.013387663 -0.05885551 -0.05262478 -0.05858439
0.00258497 0.03261358 -0.018654112 -0.046392485 0.013086436 -0.034126144 -0.051083565 -0.0026245262
-0.032318305 -0.062777005 -0.050020155 -0.040161338 0.0512027 -0.005181474 -0.023013566 -0.013788613
-0.006168618 -0.023433652 0.043948613 0.050359268 0.054135185 -0.033666108 -0.00033264837 -0.0031465478
-0.002258147 0.031520076 -0.05886877 -0.0014588124 -0.038771424 -0.017660033 -0.05628835 0.037031237
-0.023877276 -0.020401502 0.0375994 0.054936927 0.002299463 -0.018559845 -0.013099341 0.005547139
0.024588661 -0.045703888 0.049798198 0.009544365 -0.0633672 -0.033901136 -0.004900009 -0.025073083
